part1/ppo/HalfCheetahBulletEnv-v0_PPO_1_1637604882_ppo.pth (torch, 52926 bytes, 11 tensors)

critic.0.weight f4 [64, 26]
-0.1779882 0.10657951 0.020957937 0.20125869 -0.11922847 0.03481502 0.26711613 0.074549
-0.18803978 -0.027563475 -0.041412484 0.13409834 -0.19335155 -0.0028591766 0.10484105 -0.03260859
0.12708806 -0.10533379 -0.09055077 0.1144486 0.13764879 -0.17786807 0.10296107 0.13812895
0.076629505 0.028597763 -0.20990933 0.33753726 0.21016552 -0.11312567 0.0633959 0.010394873
-0.2567238 0.056512915 0.11138266 0.001491927 0.011040742 -0.024792964 0.0025953415 -0.1419351
-0.16972825 -0.32862508 -0.07476624 -0.29190752 -0.057701603 -0.03983579 0.039205767 0.0037908626
-0.008146376 0.116103925 0.21213041 -0.0006579987 -0.049847107 -0.15816845 -0.0463297 0.26228762
-0.20616071 0.09644798 0.26873085 -0.046870302 -0.27459595 -0.070530765 0.020392593 -0.12500978
0.105131336 -0.06719059 0.07284907 0.09981601 0.009295966 -0.12989084 -0.1164923 0.014500413
-0.22392198 -0.26164395 0.07380668 -0.08608568 0.17927922 -0.05858643 0.312124 -0.19944575
-0.02968372 -0.044925503 0.16593908 -0.04823855 -0.013427739 0.13325769 0.087018155 -0.11907497
0.14027786 -0.20818232 0.012729511 0.02282654 0.3711196 -0.20595784 0.2493943 -0.008349553
-0.062228758 0.14831688 0.08652816 -0.11032216 -0.22003335 -0.043041054 -0.11467511 -0.0042266576
0.26840732 -0.10255595 0.031884506 0.15030754 -0.46229357 0.019328924 0.22882263 0.15036373
0.18518217 0.021158956 0.08825412 0.09865583 -0.1270061 0.08005569 0.12466953 -0.016973695
0.13481125 -0.0022265601 -0.012131639 0.057360787 0.03883059 -0.07310872 0.050922617 -0.036861442
-0.5661627 -0.52860624 -0.26207554 0.11700858 0.18690315 -0.014145226 -0.047936857 0.020039024
-0.12863831 -0.17005771 -0.08012115 0.37205082 -0.022195835 0.2212461 0.1274176 0.02712186
-0.012757272 -0.025049739 -0.08946799 -0.26228493 0.036151372 -0.07884001 0.17655683 0.12452907
-0.23323804 -0.21687873 -0.07042533 -0.12555578 0.46596596 -0.1475997 0.06423108 0.08744667
-0.012663394 0.14975488 0.1424176 -0.056137275 -0.20931736 -0.060649686 0.09849673 0.16394657
-0.086534046 0.099983394 0.016595503 0.025683748 0.062389817 -0.24482833 -0.18147776 -0.18987267
-0.027345045 0.07913336 0.1212539 0.041213315 -0.012074209 0.16884796 0.0072890394 -0.26680556
-0.102367915 -0.15725575 0.0062685106 -0.1265204 0.070850365 0.066188686 0.036996726 -0.1273701
-0.048552737 -0.14725421 0.14069538 0.060254835 -0.05522709 -0.009114983 0.09585483 0.13170564
-0.05003371 0.056298934 -0.03624375 0.1471687 0.060676835 -0.038502686 0.19248915 -0.38926867
-0.22586542 -0.20837873 -0.15963934 -0.044371687 0.1281234 -0.07949326 0.032153755 -0.31502202
0.30039406 0.19800979 -0.05193529 0.11462588 0.069268696 -0.0052082124 -0.13338993 -0.00131452
-0.24158496 -0.018982692 -0.16633959 0.043349914 -0.08084489 -0.053823464 0.010152843 -0.010396099
0.32193017 0.2920032 0.092933424 0.14375381 -0.13834694 -0.070099436 -0.27006024 -0.5323575
0.039593276 0.1124537 -0.052093685 -0.05638777 0.008262985 -0.33904555 -0.14546373 0.057326816
-0.1873782 -0.17902774 -0.3205152 0.13052818 -0.020362873 0.2065169 0.026896793 -0.090894334
00000000: 8a42 36be 5c46 da3d fbaf ab3c c216 4e3e
00000010: 0e2e f4bd 329a 0e3d 72c3 883e 25ad 983d
00000020: 808d 40be cccc e1bc 23a0 29bd 1351 093e
00000030: f3fd 45be 0661 3bbb e8b6 d63d 9690 05bd
00000040: 5f23 023e 3eb9 d7bd af72 b9bd 0764 ea3d
00000050: cef3 0c3e 0c23 36be 41dd d23d ad71 0d3e
00000060: eeef 9c3d db45 ea3c 79f2 56be afd1 ac3e
00000070: a135 573e 6eae e7bd b6d5 813d 424f 2a3c
00000080: 4d71 83be 167a 673d 981c e43d c38c c33a
00000090: 3ae4 343c 9d1a cbbc 9b16 2a3b 6f57 11be
000000a0: 3ecd 2dbe 8c41 a8be 0b1f 99bd e774 95be
000000b0: 8458 6cbd da2a 23bd 3a96 203d 1f70 783b
000000c0: 6178 05bc e5c7 ed3d b738 593e 8c7d 2cba
000000d0: 7b2c 4cbd e9f6 21be 36c4 3dbd 904a 863e
000000e0: cb1b 53be 8586 c53d 1797 893e 13fb 3fbd
000000f0: d797 8cbe 6f72 90bd 5e0e a73c 9002 00be
00000100: 194f d73d 389b 89bd e531 953d 566c cc3d
00000110: 1b4e 183c 1b02 05be 8493 eebd 2493 6d3c
00000120: ce4b 65be 32f6 85be f527 973d b04d b0bd
00000130: f994 373e 53f8 6fbd b8ce 9f3e 823b 4cbe
00000140: 462b f3bc ce03 38bd efeb 293e c995 45bd
00000150: 0500 5cbc b474 083e 9336 b23d 94dd f3bd
00000160: 00a5 0f3e bf2d 55be 708f 503c b9fe ba3c
00000170: 6303 be3e 9de6 52be 3861 7f3e 90cc 08bc
00000180: 95e3 7ebd 61e0 173e ad35 b13d 96f0 e1bd
00000190: 6c50 61be d14b 30bd c9da eabd c67f 8abb
000001a0: af6c 893e db08 d2bd 5499 023d 38ea 193e
000001b0: beb1 ecbe b157 9e3c 7b50 6a3e f3f8 193e
000001c0: 65a0 3d3e 8c55 ad3c 93be b43d 110c ca3d
000001d0: e30d 02be 3df4 a33d bd52 ff3d 6b0c 8bbc
000001e0: f60b 0a3e 7beb 11bb c8c3 46bc 25f3 6a3d
000001f0: d30c 1f3d 06ba 95bd 3c94 503d 06fc 16bd
00000200: 0af0 10bf bd52 07bf c42e 86be 32a2 ef3d
00000210: 8a63 3f3e 61c1 67bc 7059 44bd e128 a43c
00000220: c3b9 03be 9c23 2ebe 8f16 a4bd 727d be3e
00000230: 0ad4 b5bc 568e 623e c279 023e aa2e de3c
00000240: e103 51bc 1c35 cdbc fe3a b7bd 364a 86be
00000250: 7613 143d df76 a1bd 50cb 343e 1909 ff3d
00000260: f4d5 6ebe 7515 5ebe 283b 90bd b291 00be
00000270: 1793 ee3e 6024 17be 968b 833d 3d17 b33d
00000280: 207a 4fbc 5859 193e ebd5 113e 33f0 65bd
00000290: 4a57 56be ce6b 78bd a7b8 c93d 9ce1 273e
000002a0: c338 b1bd 18c4 cc3d 4bf3 873c b966 d23c
000002b0: 778c 7f3d 47b4 7abe 4ed5 39be fb6d 42be
000002c0: b702 e0bc ac10 a23d f753 f83d 4bcf 283d
000002d0: e7d2 45bc 7be6 2c3e e5d8 ee3b bd9a 88be
000002e0: 45a6 d1bd a707 21be 1468 cd3b 908e 01be
000002f0: ff19 913d ef8d 873d e189 173d 4f6d 02be
00000300: 3cdf 46bd cfc9 16be 7312 103e c6cd 763d
00000310: cd35 62bd 0257 15bc 8a4f c43d d8dd 063e
00000320: 26f0 4cbd b699 663d 5474 14bd 64b3 163e
00000330: 4688 783d feb4 1dbd e01b 453e 394e c7be
00000340: 4449 67be 3c61 55be 7f78 23be 16bf 35bd
00000350: c832 033e 5dcd a2bd a8b3 033d 914a a1be
00000360: 40cd 993e 14c3 4a3e 19ba 54bd f9c0 ea3d
00000370: bfdc 8d3d a7a9 aabb 5f97 08be f94b acba
00000380: 0c62 77be 9781 9bbc ed54 2abe ae8f 313d
00000390: 0192 a5bd fe75 5cbd 1c58 263c 6654 2abc
000003a0: 08d4 a43e 7281 953e e153 be3d 3334 133e
000003b0: d2aa 0dbe 4b90 8fbd 5645 8abe 9548 08bf
000003c0: 8f2c 223d 204e e63d 3060 55bd ddf6 66bd
000003d0: 7961 073c 6197 adbe 72f4 14be 86cf 6a3d
000003e0: 12e0 3fbe 0c53 37be 911a a4be 2ea9 053e
000003f0: 0ad0 a6bc 2b79 533e aa56 dc3c cf26 babd

critic.0.bias f4 [64]
-0.26875067 0.015177265 0.004356893 0.347525 0.5841365 -0.007138191 0.31783527 0.10260875
-0.3508268 0.09621154 -0.110489964 -0.12869604 0.16961381 0.07068464 0.2624156 -0.00034900507
0.14992903 0.38073277 0.3410085 0.22306122 0.37593192 -0.15700951 -0.04213918 0.35316306
-0.08301383 0.4437014 -0.088502325 -0.060315505 -0.42045698 0.17451988 0.18988086 -0.37654814
-0.025364343 0.04224915 -0.34637463 -0.022391437 -0.29325768 0.07535782 0.48650098 -0.31541842
-0.161065 -0.47846943 -0.2685956 -0.04311106 -0.18853514 -0.25649783 -0.19119537 -0.37577716
-0.13016964 0.095741406 -0.10990853 -0.06118153 0.19069825 -0.4207636 0.24773276 -0.23950787
0.3210204 -0.047758345 -0.18763442 0.09229835 0.20801722 0.019403778 -0.3740516 -0.12949581
00000000: b099 89be 10aa 783c 44c4 8e3b ccee b13e
00000010: f889 153f 7ce7 e9bb 4ebb a23e 8924 d23d
00000020: 929f b3be 8e0a c53d 9048 e2bd e5c8 03be
00000030: 3eaf 2d3e 1cc3 903d 565b 863e abfa b6b9
00000040: ff86 193e 68ef c23e ab98 ae3e 296a 643e
00000050: 267a c03e 1ac7 20be 229a 2cbd cad1 b43e
00000060: 2803 aabd d42c e33e b540 b5bd 640d 77bd
00000070: 2346 d7be 57b5 323e 2170 423e ebca c0be
00000080: e2c8 cfbc 720d 2d3d 0458 b1be 3f6e b7bc
00000090: df25 96be 3355 9a3d a816 f93e 867e a1be
000000a0: 39ee 24be f2f9 f4be 5d85 89be 3995 30bd
000000b0: 5b0f 41be af53 83be b8c8 43be dd65 c0be
000000c0: 314b 05be 1214 c43d b917 e1bd 7c99 7abd
000000d0: 6746 433e 546e d7be a8ad 7d3e 8d41 75be
000000e0: c95c a43e 419e 43bd 3d23 40be eb06 bd3d
000000f0: 7702 553e acf4 9e3c b183 bfbe 8d9a 04be

critic.2.weight f4 [64, 64]
-0.34008828 0.0020156296 -0.30357304 0.2343892 -0.2138273 0.17657542 0.10860749 -0.26232603
0.17230599 0.021509558 -0.2735421 0.16242954 0.09393092 0.17280553 0.0071423096 -0.25680357
-0.0007802733 0.15747757 -0.09937072 0.21276344 0.03767155 -0.04211247 0.16872554 0.053096082
-0.013012735 -0.356344 -0.083490655 -0.07359834 0.013269529 -0.12338073 0.12239769 -0.093046404
0.10918927 0.11040002 -0.06252892 0.3588533 -0.081861675 -0.12732883 0.100896426 0.24390875
0.30407834 -0.016233956 -0.049286038 0.0073539196 0.07306346 -0.17451853 0.013214249 -0.018387483
-0.037280813 -0.18213812 0.07438482 0.0707518 -0.16298698 -0.0058256974 0.06011426 -0.3771121
0.098317884 -0.1663459 -0.08627626 0.4168918 -0.0715828 -0.05007731 0.14227346 0.049281314
-0.22886425 -0.21053644 -0.23925146 -0.003867811 -0.03388291 -0.06671858 0.018485894 -0.011750077
-0.10896302 0.15046777 -0.106256396 -0.011471488 -0.21436909 0.15010695 0.061425246 -0.10669021
0.021881694 0.099139385 -0.11602925 0.179991 0.030324688 -0.06545207 -0.38056982 -0.009546412
-0.07439319 -0.06433644 0.06099989 0.28998446 0.058053695 -0.09804036 0.31887478 -0.21083069
0.08376934 -0.10882391 0.027661858 -0.32763714 0.044437084 -0.034413572 0.068662435 -0.18740956
-0.19978754 0.4613429 -0.13978772 0.05896486 0.23963106 0.2939963 -0.25278315 0.18482439
-0.14867766 -0.4333735 -0.18472837 0.1193184 0.058212545 0.4232601 -0.38270676 -0.14575034
0.25570115 0.20267496 0.19305608 -0.11892917 -0.15624164 -0.1437442 -0.18801098 0.10864459
0.16706336 0.35805747 -0.16395156 -0.08204555 -0.5900598 -0.16070263 -0.32926315 -0.11410359
-0.17340739 0.09331508 0.20585725 -0.13168317 -0.11559228 -0.022652004 -0.045915045 0.22615536
-0.13405615 -0.26640776 -0.28722715 -0.12550989 -0.110365346 0.09850904 -0.15883546 -0.01065384
0.24808031 -0.43063405 -0.17008984 0.34907654 0.41058734 -0.19867101 -0.009542862 0.29008806
0.03841377 -0.20607953 0.3278597 0.076361984 0.025317322 0.12715718 -0.28734398 0.20585
0.1047975 0.42468753 0.5821376 -0.192491 0.015722731 0.07840651 0.059194244 0.27557844
0.22290854 -0.055242624 0.010556366 -0.034804333 0.19798553 0.32923582 -0.14841083 0.10273019
-0.59003013 -0.15118475 0.21673027 0.16258162 0.017153941 -0.048427295 0.26266626 0.2245744
0.020494686 -0.058622666 -0.09941909 0.0077983127 -0.09616096 0.46736863 0.3481241 0.19693148
0.37741855 -0.08086977 0.30381382 -0.33068085 0.2688406 -0.11565777 0.07996431 -0.22033642
-0.31262332 -0.2986096 0.09590039 -0.10413814 0.19444749 -0.011751904 0.07058722 0.046886887
0.22577302 0.014584207 0.183515 -0.0020399746 -0.4368151 0.11074452 0.02461133 -0.064295284
0.027760785 -0.20539108 0.38020906 0.1459961 0.027343124 -0.028680192 0.2241957 0.16639851
-0.049261507 0.025254091 0.08171169 0.09124602 0.23385867 -0.19178683 -0.17250489 -0.17114559
0.06902783 -0.06721954 -0.22887243 -0.15358044 0.23442216 0.16573973 -0.28962538 -0.22057565
-0.18012659 0.04205983 -0.1079137 -0.21446088 0.21061604 -0.006287174 0.27219445 0.12150958
00000000: 0d20 aebe a718 043b ed6d 9bbe b903 703e
00000010: 8bf5 5abe 30d0 343e 9b6d de3d 994f 86be
00000020: fb70 303e d034 b03c b60d 8cbe ee53 263e
00000030: db5e c03d eff3 303e 090a ea3b c27b 83be
00000040: 418b 4cba cd41 213e e082 cbbd a9de 593e
00000050: 7c4d 1a3d 207e 2cbd 63c6 2c3e 477b 593d
00000060: 5e33 55bc b972 b6be 26fd aabd baba 96bd
00000070: 7068 593c 09af fcbd a4ab fa3d 1d8f bebd
00000080: a09e df3d 6819 e23d 2a0f 80bd 9fbb b73e
00000090: 18a7 a7bd 7d62 02be c9a2 ce3d 37c3 793e
000000a0: 28b0 9b3e 13fd 84bc 28e0 49bd 26f9 f03b
000000b0: 4ca2 953d fcb4 32be 9480 583c 59a1 96bc
000000c0: c4b3 18bd 6a82 3abe 1257 983d 52e6 903d
000000d0: 0fe6 26be 7ee5 bebb 5f3a 763d d614 c1be
000000e0: e35a c93d 9456 2abe 9cb1 b0bd d872 d53e
000000f0: 019a 92bd de1d 4dbd 22b0 113e 34db 493d
00000100: 645b 6abe dd96 57be 56fe 74be 1a7b 7dbb
00000110: cec8 0abd c0a3 88bd bb6f 973c 6583 40bc
00000120: 0128 dfbd 3914 1a3e f49c d9bd e8f2 3bbc
00000130: 9283 5bbe a3b5 193e 0a99 7b3d 6680 dabd
00000140: 3d41 b33c 9709 cb3d bea0 edbd 904f 383e
00000150: 7b6b f83c bc0b 86bd 0cda c2be 8e68 1cbc
00000160: 755b 98bd d3c2 83bd 05db 793d d878 943e
00000170: b6c9 6d3d 62c9 c8bd 8e43 a33e 00e4 57be
00000180: 428f ab3d 12df debd 1f9b e23c 0ec0 a7be
00000190: a903 363d 3ff5 0cbd e49e 8c3d 4be8 3fbe
000001a0: 1b95 4cbe 2335 ec3e 8324 0fbe 2385 713d
000001b0: d861 753e af86 963e cb6c 81be 9b42 3d3e
000001c0: f53e 18be 22e3 ddbe 6f29 3dbe 355d f43d
000001d0: 4770 6e3d 8cb5 d83e 24f2 c3be 943f 15be
000001e0: 43eb 823e 068a 4f3e 7eb0 453e 2391 f3bd
000001f0: cffd 1fbe ae31 13be f385 40be 0e81 de3d
00000200: a812 2b3e 4f53 b73e ebe2 27be 7f07 a8bd
00000210: 290e 17bf 3b8f 24be 2e95 a8be 25af e9bd
00000220: b591 31be fa1b bf3d 3ecc 523e f4d7 06be
00000230: a5bb ecbd b290 b9bc 6a11 3cbd 4595 673e
00000240: 0446 09be 9966 88be 700f 93be aa85 00be
00000250: 3a07 e2bd 1cbf c93d c3a5 22be 728d 2ebc
00000260: c408 7e3e 117c dcbe 082c 2ebe 29ba b23e
00000270: 8138 d23e 6a70 4bbe aa59 1cbc 6c86 943e
00000280: c257 1d3d 8306 53be 3add a73e ac63 9c3d
00000290: 4666 cf3c 7e35 023e c01e 93be 58ca 523e
000002a0: 12a0 d63d a570 d93e f806 153f 5c1c 45be
000002b0: f5cc 803c 9893 a03d aa75 723d 9e18 8d3e
000002c0: 2342 643e 1746 62bd 9cf4 2c3c fd8e 0ebd
000002d0: b8bc 4a3e 9991 a83e 02f9 17be 3564 d23d
000002e0: 370c 17bf 2dd0 1abe 8aee 5d3e cc7b 263e
000002f0: 6c86 8c3c b35b 46bd 317c 863e d5f6 653e
00000300: 79e4 a73c 521e 70bd 3c9c cbbd fd88 ff3b
00000310: 0af0 c4bd f14a ef3e 523d b23e 68a8 493e
00000320: 013d c13e 0d9f a5bd 7c8d 9b3e 004f a9be
00000330: 7aa5 893e fbdd ecbd 54c4 a33d df9f 61be
00000340: 2a10 a0be 5ce3 98be 6c67 c43d 6146 d5bd
00000350: 3e1d 473e 0f8b 40bc 0890 903d 770c 403d
00000360: 0b31 673e 99f2 6e3c 5beb 3b3e 18b1 05bb
00000370: 3ba6 dfbe 06ce e23d b39d c93c 3fad 83bd
00000380: 966a e33c 0a52 52be c3aa c23e 0080 153e
00000390: b0fe df3c b9f2 eabc 8f93 653e 5f64 2a3e
000003a0: 6fc6 49bd abe1 ce3c 7558 a73d 31df ba3d
000003b0: a678 6f3e c463 44be 1fa5 30be ca40 2fbe
000003c0: 775e 8d3d 66aa 89bd 895d 6abe 3144 1dbe
000003d0: 5d0c 703e adb7 293e c749 94be 95de 61be
000003e0: 1b73 38be ee46 2c3d dc01 ddbd a29b 5bbe
000003f0: bbab 573e a304 cebb 125d 8b3e 04da f83d

critic.2.bias f4 [64]
-0.02486711 -0.02373788 -0.31407356 0.025766058 -0.05353087 -0.0113596525 -0.034178317 0.12305179
0.0698316 -0.29225525 -0.19753557 0.08516715 0.060155597 0.02439925 -0.07711907 0.085162945
-0.07613903 -0.15806152 -0.062421557 -0.058072027 -0.14324301 0.13266449 0.08206438 -0.19399516
-0.006248721 0.058314946 0.0040934207 -0.054630812 -0.13227734 0.03952551 0.022995595 0.043478303
-0.024876496 0.08834235 0.042293496 -0.27985454 0.026384166 -0.061274193 0.15574764 0.010724967
0.014112027 -0.04704806 -0.006594731 0.016164787 -0.23703703 -0.020217607 0.032487802 -0.010872605
0.04594993 0.035361886 -0.19977093 0.02350982 -0.49247175 0.039207496 0.01381529 0.00045774874
-0.022327743 -0.032984335 -0.02941191 0.044457573 0.059506692 -0.02650197 -0.019417144 0.08225629
00000000: 1cb6 cbbc f175 c2bc 40ce a0be 5713 d33c
00000010: 2f43 5bbd d61d 3abc 90fe 0bbd 9402 fc3d
00000020: df03 8f3d 7ba2 95be c446 4abe 1d6c ae3d
00000030: b765 763d f0e0 c73c 9af0 9dbd e969 ae3d
00000040: c8ee 9bbd e1da 21be bfad 7fbd efdc 6dbd
00000050: 4cae 12be 33d9 073e 5f11 a83d aba6 46be
00000060: 12c2 ccbb a7db 6e3d 1a22 863b 8fc4 5fbd
00000070: b673 07be 80e5 213d 4261 bc3c 4e16 323d
00000080: cbc9 cbbc d6ec b43d f23b 2d3d 1849 8fbe
00000090: 9b23 d83c a6fa 7abd 4f7c 1f3e c6b7 2f3c
000000a0: 2236 673c 77b5 40bd 9d18 d8bb 046c 843c
000000b0: d6b9 72be 659f a5bc ee11 053d 0323 32bc
000000c0: fe35 3c3d a0d7 103d c090 4cbe ab97 c03c
000000d0: 4225 fcbe 0a98 203d 8759 623c fffd ef39
000000e0: ace8 b6bc 951a 07bd 3ff1 f0bc 2519 363d
000000f0: 4abd 733d a91a d9bc b410 9fbc fc75 a83d

critic.4.weight f4 [1, 64]
-0.0050462456 -0.039257012 -0.26200527 0.066273354 -0.034628175 0.0046243183 -0.028208472 0.10512522
0.020513488 -0.27790636 -0.15229294 0.053309567 -0.010683175 0.05993419 -0.0031560995 -0.033227485
-0.04629686 -0.0050840923 -0.0073438315 0.007240074 -0.04674385 -0.011056819 -0.0026381114 -0.16359402
-0.00038403453 0.0056559467 -0.010294694 -0.009190783 -0.23048061 0.0963256 -0.003020115 -9.516488e-05
-0.00015986052 0.0048657744 0.015640855 -0.19696833 0.026536165 -0.049377576 0.15866074 0.0063708723
0.03564856 -0.007835511 0.002905337 0.04258552 -0.11545784 -0.026020702 0.042093087 0.01318849
0.11480531 0.019489838 -0.16358054 -0.023247877 -0.21652672 0.003765926 0.05497105 -0.0030517967
-0.056437265 -0.023707148 4.2947537e-05 0.1023709 0.018745853 -0.06254565 -0.059505835 0.07464672
00000000: fa5a a5bb f6cb 20bd 8e25 86be 53ba 873d
00000010: 46d6 0dbd 9887 973b 7415 e7bc e44b d73d
00000020: e70b a83c be49 8ebe aef2 1bbe 225b 5a3d
00000030: 7c08 2fbc 8e7d 753d 90d6 4ebb 8b19 08bd
00000040: c7a1 3dbd 7598 a6bb 86a4 f0bb 253e ed3b
00000050: 7b76 3fbd a927 35bc 2ae4 2cbb 3185 27be
00000060: 3e58 c9b9 8555 b93b 14ab 28bc f094 16bc
00000070: 1c03 6cbe 5b46 c53d 1fed 45bb 4293 c7b8
00000080: 3ba0 27b9 1371 9f3b 4021 803c 11b2 49be
00000090: 5f62 d93c 2440 4abd f677 223e c0c2 d03b
000000a0: 3904 123d 8460 00bc 7767 3e3b 276e 2e3d
000000b0: 2975 ecbd 5e29 d5bc cd69 2c3d 8914 583c
000000c0: 0c1f eb3d 27a9 9f3c a881 27be 5572 bebc
000000d0: 2eb9 5dbe c1cd 763b 5329 613d a700 48bb
000000e0: c32a 67bd 7e35 c2bc 9122 3438 d6a7 d13d
000000f0: e790 993c ef17 80bd 64bc 73bd 61e0 983d

actor_mean.0.weight f4 [64, 26]
0.029506976 0.07176264 0.22601764 -0.07689889 0.092889816 0.21567099 -0.33862692 -0.18422839
-0.076759934 -0.65648794 0.14260055 0.04787049 0.323987 0.26486143 0.21213098 0.020978099
-0.052582383 0.068716615 0.2303707 0.23777367 -0.008705313 -0.1110077 0.19791587 0.2241687
-0.066383675 -0.22088717 0.033534423 0.07201675 0.098235786 -0.061373066 0.15796514 -0.027264867
0.2748338 -0.14628579 0.3043118 0.2537413 0.059364166 -0.13449953 0.22802413 0.10889502
0.039683416 0.24170573 -0.20204607 -0.09609405 -0.19913003 0.112235434 0.065965876 0.07098352
-0.012064648 -0.029598273 -0.1661956 0.027529469 -0.0023568599 0.30103967 -0.11033374 -0.0062047155
-0.20673543 0.24536961 0.3334165 0.011172255 -0.47417623 0.04401618 0.031874407 -0.07446846
-0.19379598 -0.186658 -0.34223026 0.22727863 -0.13761024 -0.26118523 -0.16884902 -0.10405691
0.19254984 -0.09872332 -0.012317059 0.22941826 0.25219297 -0.13471147 0.17477423 0.1498669
0.12423283 0.13962194 -0.36410534 0.16008766 0.38377905 0.06874733 0.05447863 0.28089797
-0.14894092 0.027002525 0.14961532 -0.14918569 -0.22412585 -0.25045583 0.27323863 -0.031220831
-0.34108523 -0.2378889 -0.39703754 -0.17736556 0.0901293 0.16088206 -0.0665284 0.2619941
-0.28544024 -0.12021948 -0.079462074 -0.08813401 -0.17064933 0.21429788 -0.27324858 -0.13096865
0.06863806 0.3880034 0.055570245 0.13982551 -0.028944094 0.1968618 0.4120631 0.04107515
0.35201496 -0.050131455 0.07246362 0.14440309 -0.21107234 0.06168028 0.010734739 -0.13662133
-0.19546635 0.23320204 -0.08825331 -0.16583474 0.16320218 0.0795037 -0.08382184 -0.027414672
-0.23714149 -0.24791308 0.20460723 -0.09330998 0.08028043 0.016360551 0.25601912 0.25608906
-0.15660577 0.3317604 0.10406372 -0.3828987 0.066257864 -0.28240412 -0.14690487 -0.13889852
0.14437585 0.036447234 0.28669652 0.1970555 0.21189518 -0.16499698 0.116187505 0.19559309
-0.11817484 -0.18741713 -0.027921919 -0.22559372 -0.009109301 -0.046727423 0.26469216 0.1255733
0.048859894 0.10388768 -0.12870221 -0.07830488 0.15872604 -0.015571789 -0.5622433 0.028767504
0.3940367 0.12857297 0.021941748 -0.18772691 0.06682918 -0.096120335 -0.24443215 0.14285883
-0.6069746 0.07003113 -0.02286972 0.100795485 0.09082713 0.07559831 -0.07322813 -0.16023183
0.5599659 0.1345554 0.10645303 0.3878552 -0.07973521 -0.13724917 -0.23670648 -0.014028637
-0.061985593 0.09037794 0.05499254 0.165654 0.046364572 -0.15727372 -0.012911854 0.29104158
-0.23728009 -0.13652636 -0.19472907 0.044032626 -0.15975307 -0.43689036 -0.17190076 -0.15045033
0.02930165 0.017063089 -0.1693061 0.33201665 0.18777812 0.040023644 0.006968479 0.018305887
0.06027079 -0.33635437 0.32190326 0.06742072 0.034836516 -0.0825682 -0.24716581 -0.05286411
-0.01689177 0.055395305 -0.038018428 0.29414052 0.12896378 0.29536733 0.004300057 -0.008762428
-0.052128445 0.03483144 -0.3202388 -0.4032283 -0.13200569 -0.10281831 0.19964288 0.09796087
-0.2475163 -0.023077652 -0.081259355 0.16138585 -0.05558573 -0.043442134 -0.23216625 0.15624818
00000000: 9db8 f13c 4af8 923d 2b71 673e 2a7d 9dbd
00000010: 043d be3d dbd8 5c3e 8260 adbe 5ea6 3cbe
00000020: 5034 9dbd 980f 28bf e105 123e d913 443d
00000030: a0e1 a53e eb9b 873e dd38 593e 43da ab3c
00000040: a060 57bd 4cbb 8c3d 4ce6 6b3e f17a 733e
00000050: bba0 0ebc 0158 e3bd 75aa 4a3e 7b8c 653e
00000060: 2af4 87bd 3f30 62be 645b 093d 857d 933d
00000070: d82f c93d 5362 7bbd 9dc1 213e 925a dfbc
00000080: 04b7 8c3e f1cb 15be c2ce 9b3e 61ea 813e
00000090: d727 733d 3fba 09be 287f 693e 5a04 df3d
000000a0: 148b 223d b581 773e 2ae5 4ebe f5cc c4bd
000000b0: bee8 4bbe b1db e53d 1e19 873d cf5f 913d
000000c0: cdaa 45bc 1478 f2bc 2e2f 2abe 7b85 e13c
000000d0: 8c75 1abb df21 9a3e a8f6 e1bd ed50 cbbb
000000e0: 74b2 53be 2c42 7b3e 91b5 aa3e d50b 373c
000000f0: 3ac7 f2be 4f4a 343d bd8e 023d ec82 98bd
00000100: 7472 46be 4623 3fbe ce38 afbe bbbb 683e
00000110: b3e9 0cbe 12ba 85be c2e6 2cbe ca1b d5bd
00000120: c92b 453e 742f cabd 7dcd 49bc 9fec 6a3e
00000130: 701f 813e cef1 09be 04f8 323e b576 193e
00000140: c86d fe3d 0ef9 0e3e 046c babe 05ee 233e
00000150: b07e c43e 66cb 8c3d fc24 5f3d dcd1 8f3e
00000160: f883 18be 6634 dd3c c234 193e 22c4 18be
00000170: 3f81 65be bf3b 80be efe5 8b3e d4c2 ffbc
00000180: b9a2 aebe 2699 73be 8148 cbbe 519f 35be
00000190: b695 b83d 44be 243e 0b40 88bd 1724 863e
000001a0: 3925 92be a135 f6bd 03bd a2bd 9b7f b4bd
000001b0: b3be 2ebe e770 5b3e 3de7 8bbe a51c 06be
000001c0: 1c92 8c3d 62a8 c63e a09d 633d 6b2e 0f3e
000001d0: 2a1c edbc 2496 493e eff9 d23e 6b3e 283d
000001e0: 4e3b b43e a456 4dbd ce67 943d 67de 133e
000001f0: 5923 58be 76a4 7c3d c2e0 2f3c 76e6 0bbe
00000200: 5528 48be 84cc 6e3e 27be b4bd 95d0 29be
00000210: 791e 273e d6d2 a23d c9aa abbd bc94 e0bc
00000220: 38d5 72be eddc 7dbe 8f84 513e 4e19 bfbd
00000230: 116a a43d 9006 863c f014 833e 1b1e 833e
00000240: 435d 20be 80dc a93e 5c1f d53d 4c0b c4be
00000250: 34b2 873d 4697 90be 3b6e 16be 6a3b 0ebe
00000260: 43d7 133e b249 153d e3c9 923e ebc8 493e
00000270: 0dfb 583e f8f4 28be b7f3 ed3d 8e49 483e
00000280: a705 f2bd 47ea 3fbe 82bc e4bc 0a02 67be
00000290: 2d3f 15bc 4165 3fbd bb85 873e 4a96 003e
000002a0: 5021 483d 10c3 d43d 83ca 03be 4f5e a0bd
000002b0: 1489 223e d120 7fbc 2def 0fbf d4a9 eb3c
000002c0: 2ebf c93e a2a8 033e 2ebf b33c 7c3b 40be
000002d0: bddd 883d bdda c4bd 6c4c 7abe 9649 123e
000002e0: b062 1bbf 7b6c 8f3d 4759 bbbc dd6d ce3d
000002f0: 9303 ba3d 49d3 9a3d a1f8 95bd d013 24be
00000300: ed59 0f3f e4c8 093e 0c04 da3d f594 c63e
00000310: 374c a3bd 0c8b 0cbe 2f63 72be 5ed8 65bc
00000320: 9be4 7dbd 1218 b93d dc3f 613d 34a1 293e
00000330: c7e8 3d3d 5d0c 21be 3e8c 53bc 6703 953e
00000340: 8df9 72be 91cd 0bbe 0f67 47be 8e5b 343d
00000350: 4f96 23be 18b0 dfbe c106 30be a70f 1abe
00000360: 040a f03c e4c7 8b3c 945e 2dbe 16fe a93e
00000370: e848 403e d5ef 233d d757 e43b 3af6 953c
00000380: 81de 763d a436 acbe 81d0 a43e e013 8a3d
00000390: bcb0 0e3d 8419 a9bd 0919 7dbe 0988 58bd
000003a0: 9c60 8abc 30e6 623d 36b9 1bbd 9699 963e
000003b0: 150f 043e 633a 973e 7ee7 8c3b 4990 0fbc
000003c0: a384 55bd 69ab 0e3d 57f6 a3be f173 cebe
000003d0: 802c 07be 6892 d2bd 2f6f 4c3e b59f c83d
000003e0: ea74 7dbe 580d bdbc 4e6b a6bd 5542 253e
000003f0: ddad 63bd 61f0 31bd fdbc 6dbe 86ff 1f3e

actor_mean.0.bias f4 [64]
0.030953595 -0.17594989 -0.028181767 0.10939172 0.05178375 -0.10308111 0.1404929 0.12033176
0.026268102 -0.12927397 0.070643686 -0.05537807 0.061206415 -0.0635645 -0.12308065 -0.12352647
-0.120706014 0.06927602 0.010531631 0.14943345 0.028216962 0.08994584 -0.15440199 0.060437433
-0.0053010914 0.049366895 -0.12437085 -0.2408833 0.020551782 0.0024120882 0.022956524 0.10552552
-0.018193133 -0.0756114 0.1259502 0.03843131 0.016000258 -0.109830946 -0.16915558 -0.08023426
0.16279598 -0.16593307 0.054967523 0.07252277 -0.16233416 -0.09926115 -0.0026733528 0.08052074
0.095500745 -0.10640794 -0.014590266 -0.060196888 0.076419175 -0.089966655 -0.058113683 -0.048278395
0.03326421 0.08557901 -0.0062850756 -0.054531123 -0.011947295 0.055382196 -0.15089245 -0.037765637
00000000: 6592 fd3c 352c 34be 73dd e6bc c408 e03d
00000010: 331b 543d 301c d3bd 5fdd 0f3e 7f70 f63d
00000020: 3430 d73c 6560 04be a3ad 903d 1dd4 62bd
00000030: 94b3 7a3d 1b2e 82bd b511 fcbd 72fb fcbd
00000040: b734 f7bd 96e0 8d3d dd8c 2c3c 1505 193e
00000050: 4227 e73c 8635 b83d 8e1b 1ebe 3e8d 773d
00000060: c7b4 adbb f134 4a3d 25b6 febd 1daa 76be
00000070: 365c a83c 2014 1e3b 520f bc3c c41d d83d
00000080: c409 95bc 26da 9abd 17f9 003e 266a 1d3d
00000090: f912 833c 0cef e0bd 1f37 2dbe dc51 a4bd
000000a0: fdb3 263e 5cea 29be a025 613d d186 943d
000000b0: ed3a 26be 6e49 cbbd 6b33 2fbb 0fe8 a43d
000000c0: e595 c33d 68ec d9bd 030c 6fbc 0391 76bd
000000d0: a881 9c3d 7040 b8bd 9d08 6ebd 91bf 45bd
000000e0: 0d40 083d 0c44 af3d 09f3 cdbb 075c 5fbd
000000f0: 96be 43bc 71d8 623d 8d83 1abe 24b0 1abd

actor_mean.2.weight f4 [64, 64]
-0.48233226 -0.018522823 0.19843873 -0.13418964 0.3431009 0.0076115327 0.12848113 0.076059006
0.12651241 0.21680434 0.16040587 -0.23187016 -0.119379096 -0.118907094 -0.19388232 0.08421418
0.097568996 -0.21967249 0.06585893 0.124973655 -0.1260047 0.32708845 0.05619886 0.23841745
-0.036729038 -0.03006855 0.1946693 0.0154468315 -0.040769216 0.2871754 0.1815072 -0.26823482
0.12359493 -0.03409109 -0.28379947 -0.06458478 0.07813197 -0.31016615 -0.23037611 -0.18847555
-0.05035501 -0.19287917 0.25532973 0.11325292 0.03816 0.092854396 -0.27325532 -0.029630756
-0.04351112 -0.058250375 -0.11642309 -0.49383795 -0.269198 -0.18376276 0.11980709 -0.23326562
0.049732868 -0.24523002 0.19928414 0.024219994 -0.35529837 -0.18815042 0.2670309 -0.0044323737
-0.04110147 -0.072527856 0.018227821 -0.09087294 -0.29247457 -0.033601742 0.0771001 0.06705485
-0.23072912 -0.01325659 0.15454532 0.024859212 0.2337579 0.04699924 -0.047408562 -0.2952661
-0.2774045 0.32798186 0.29524282 -0.065875605 -0.036626328 -0.15632673 0.11791689 -0.06293549
0.01988897 -0.11155133 -0.45571423 0.14182077 0.041305073 0.30947167 -0.07358001 -0.3788205
0.068521306 0.026102634 -0.07955452 0.0794083 0.060436416 -0.1700083 0.05024579 0.41259763
0.36070853 -0.093553625 -0.03531624 -0.0849589 0.008373282 -0.0934167 -0.47184727 0.16372186
-0.28012943 -0.04974279 0.027917601 -0.27539182 0.11103392 -0.31183955 -0.15003645 0.17816357
-0.24735436 0.35289085 0.07056198 -0.23605299 -0.003247844 -0.048640877 0.044434346 0.044493254
0.11150329 0.00973171 0.13314815 -0.26971808 0.09345391 0.39600378 -0.26619664 0.02844429
0.09688928 -0.08765906 -0.0692392 -0.026645787 0.005172129 -0.3733807 -0.13672332 0.1301141
0.20851335 0.0894748 0.12363258 -0.09801303 -0.24243362 -0.23269007 -0.25004864 -0.36607304
-0.2537441 0.14984292 -0.09837295 0.21712334 0.06877423 -0.113922864 0.10189704 -0.3005358
0.09145048 0.028041588 -0.10280596 0.048753157 -0.0869359 0.006498097 -0.08345164 0.06506073
-0.59224707 0.031132916 -0.25575456 0.27986333 -0.062344424 0.12240339 -0.029400598 0.08254337
-0.10438587 0.0008414711 -0.15445952 0.035590727 -0.3837626 -0.10129371 -0.20234661 0.093719766
0.07250612 0.0511676 -0.18727937 0.29666302 -0.24040079 0.05189807 -0.17393187 -0.11185934
-0.08785832 -0.25427923 0.37789884 0.19441482 0.023698632 -0.120987535 0.23714171 -0.44472328
-0.30198872 -0.10769348 0.23331177 -0.09737454 -0.04269102 -0.075414576 -0.026971158 -0.076771274
0.17723094 0.30536854 -0.18879741 -0.07928043 -0.32728335 -0.23132177 -0.1608083 0.37876502
-0.3342337 0.008621863 -0.3238482 -0.029346274 -0.0131754605 -0.0079108635 -0.0972686 -0.03743232
-0.121965945 0.11529064 0.07670853 -0.012664719 0.20683368 0.048199546 0.20526041 -0.43964186
-0.10363501 -0.09856273 -0.034777377 -0.18372966 0.0068505397 -0.079292856 0.026760597 -0.21005334
-0.3525117 0.13177499 0.04365482 0.14977743 0.3453987 -0.12307088 0.30175775 -0.2187489
0.09834793 -0.31901535 -0.25804168 0.06608859 -0.2961051 -0.1963935 -0.17345865 0.047180854
00000000: 41f4 f6be 2dbd 97bc 8633 4b3e 0269 09be
00000010: ecaa af3e 2a6a f93b 8f90 033e d3c4 9b3d
00000020: 788c 013e f501 5e3e 7041 243e 5f6f 6dbe
00000030: 077d f4bd 9085 f3bd 1689 46be 7c78 ac3d
00000040: 41d2 c73d d3f1 60be 0ce1 863d 30f2 ff3d
00000050: 6007 01be 2378 a73e c730 663d b423 743e
00000060: 3071 16bd 5252 f6bc 6457 473e b514 7d3c
00000070: 9ffd 26bd a708 933e 06dd 393e 1356 89be
00000080: 571f fd3d 19a3 0bbd 2a4e 91be 0645 84bd
00000090: a703 a03d 19ce 9ebe b7e7 6bbe bcff 40be
000000a0: 0e41 4ebd 1e82 45be 94ba 823e 26f1 e73d
000000b0: a94d 1c3d 722a be3d 1fe8 8bbe 33bc f2bc
000000c0: b738 32bd f297 6ebd 3b6f eebd 54d8 fcbe
000000d0: 52d4 89be 4e2c 3cbe 6b5d f53d 2fdd 6ebe
000000e0: b1b4 4b3d 941d 7bbe 2411 4c3e 0269 c63c
000000f0: abe9 b5be 81aa 40be 46b8 883e 723d 91bb
00000100: 045a 28bd 7c89 94bd 8352 953c 981b babd
00000110: 3abf 95be fba1 09bd a8e6 9d3d 0e54 893d
00000120: 4144 6cbe 2b32 59bc 2141 1e3e 8ca5 cb3c
00000130: 3b5e 6f3e 4682 403d 7b2f 42bd 1e2d 97be
00000140: f607 8ebe 3ded a73e 112a 973e cae9 86bd
00000150: 7d05 16bd 1d14 20be 697e f13d 52e4 80bd
00000160: 31ee a23c 0675 e4bd 6053 e9be 7739 113e
00000170: 822f 293d 1273 9e3e 1eb1 96bd c3f4 c1be
00000180: e654 8c3d 31d5 d53c 7bed a2bd d2a0 a23d
00000190: 2d8c 773d a816 2ebe 88ce 4d3d ff3f d33e
000001a0: caae b83e 0b99 bfbd c3a7 10bd effe adbd
000001b0: 1730 093c 4151 bfbd f795 f1be b4a6 273e
000001c0: 206d 8fbe 19bf 4bbd 74b3 e43c 2800 8dbe
000001d0: c065 e33d 6fa9 9fbe 28a3 19be 8370 363e
000001e0: 764a 7dbe 1cae b43e cd82 903d e0b7 71be
000001f0: c8d9 54bb a83b 47bd ca00 363d 8f3e 363d
00000200: d65b e43d c071 1f3c fd57 083e 7d18 8abe
00000210: c364 bf3d 02c1 ca3e ed4a 88be 0004 e93c
00000220: e36d c63d 9886 b3bd 48cd 8dbd 4448 dabc
00000230: f67a a93b c12b bfbe 3301 0cbe a13c 053e
00000240: 8684 553e 903e b73d 1433 fd3d 0ebb c8bd
00000250: 8540 78be 4e46 6ebe 6006 80be ed6d bbbe
00000260: bfea 81be 6c70 193e c277 c9bd 9555 5e3e
00000270: 81d9 8c3d 6450 e9bd 65af d03d d4df 99be
00000280: 644a bb3d 79b7 e53c ee8b d2bd 64b1 473d
00000290: 730b b2bd fded d43b b2e8 aabd 8f3e 853d
000002a0: 819d 17bf 750a ff3c 43f2 82be 3f4a 8f3e
000002b0: de5c 7fbd a1ae fa3d 86d9 f0bc 800c a93d
000002c0: 42c8 d5bd 2b96 5c3a a32a 1ebe 95c7 113d
000002d0: 887c c4be 1473 cfbd f333 4fbe 26f0 bf3d
000002e0: 177e 943d 1e95 513d 2ac6 3fbe 37e4 973e
000002f0: a02b 76be 1293 543d 321b 32be 8216 e5bd
00000300: 10ef b3bd e330 82be f57b c13e ae14 473e
00000310: a223 c23c 50c8 f7bd 47d5 723e c5b2 e3be
00000320: 449e 9abe 668e dcbd 48e9 6e3e 4e6c c7bd
00000330: c7dc 2ebd f572 9abd 9ef2 dcbc 423a 9dbd
00000340: 077c 353e 4459 9c3e 1c54 41be c75d a2bd
00000350: af91 a7be 9ddf 6cbe eeaa 24be 7ded c13e
00000360: ae20 abbe b742 0d3c 6ecf a5be 9967 f0bc
00000370: e3dd 57bc 919c 01bc c234 c7bd a252 19bd
00000380: 48c9 f9bd 801d ec3d 5d19 9d3d ae7f 4fbc
00000390: 35cc 533e e36c 453d c92f 523e bd18 e1be
000003a0: 983e d4bd 42db c9bd b972 0ebd a123 3cbe
000003b0: 7e7a e03b 4b64 a2bd 0a39 db3c 3918 57be
000003c0: 6a7c b4be 06f0 063e 66cf 323d 415f 193e
000003d0: 19d8 b03e 960c fcbd fe7f 9a3e b6ff 5fbe
000003e0: a46a c93d fb55 a3be 0a1e 84be 7459 873d
000003f0: 169b 97be 611b 49be 259f 31be b640 413d

actor_mean.2.bias f4 [64]
0.18197149 0.08267963 -0.16944696 0.07662398 -0.09026159 -0.04973735 -0.020483894 0.13701123
-0.12188416 -0.04895399 -0.024333244 0.09996057 -0.01099542 0.071316354 -0.13621168 -0.1615303
0.0033965087 -0.10197141 0.09183539 -0.02374972 -0.006506765 -0.11855566 0.04054693 -0.15338694
0.075886264 0.0346982 0.02602727 -0.19935748 0.20468196 -0.14203446 -0.13341361 -0.023298347
0.0938698 -0.018936854 -0.10615514 0.06802196 0.028838363 -0.03244161 -0.026586033 -0.08912402
0.13239539 0.14177722 -0.0991699 0.04018524 -0.19291815 0.19663484 -0.070790574 0.009560304
-0.06240139 0.08524398 -0.10097458 -0.13875936 -0.051367264 0.3427359 -0.0005907508 0.01937252
-0.21764989 0.053194646 0.23370866 0.011744383 0.114299014 -0.05275604 0.042366166 0.08699374
00000000: bc56 3a3e f053 a93d 8183 2dbe 09ed 9c3d
00000010: 12db b8bd 64b9 4bbd d7cd a7bc ac4c 0c3e
00000020: 679e f9bd fb83 48bd 8356 c7bc 21b8 cc3d
00000030: 2226 34bc 4f0e 923d 137b 0bbe 3368 25be
00000040: f697 5e3b 63d6 d0bd 3114 bc3d c68e c2bc
00000050: b336 d5bb 4fcd f2bd 8a14 263d 7711 1dbe
00000060: 426a 9b3d b31f 0e3d 2437 d53c 5e24 4cbe
00000070: 2698 513e 7b71 11be 949d 08be 2ddc bebc
00000080: cf3e c03d 7621 9bbc de67 d9bd 194f 8b3d
00000090: 6e3e ec3c 7ee1 04bd f4ca d9bc a786 b6bd
000000a0: a892 073e 0c2e 113e 9719 cbbd 4799 243d
000000b0: 568c 45be a55a 493e a6fa 90bd d2a2 1c3c
000000c0: 9a98 7fbd 6594 ae3d c3cb cebd ef16 0ebe
000000d0: 7b66 52bd 147b af3e 9ddc 1aba 1eb3 9e3c
000000e0: 9ddf 5ebe a1e2 593d 5351 6f3e 836b 403c
000000f0: 9a15 ea3d b816 58bd 2588 2d3d c629 b23d

actor_mean.4.weight f4 [6, 64]
0.034420762 -0.02973743 0.035236843 -0.04851279 0.073031165 -0.11167648 0.0034258044 -0.020200728
-0.02196978 0.0761438 -0.07247303 -0.11043435 -0.06671092 0.07246653 0.05089247 -0.08934452
0.04156795 0.018952485 -0.0012265089 0.03488012 0.09703236 -0.015153147 0.072820716 -0.019305976
0.09655109 -0.009352331 -0.023004176 -0.040169165 -0.056916647 0.0006936554 -0.035472974 0.03854779
-0.038555212 -0.03190478 -0.0249951 0.07530926 0.08482422 -0.06891476 -0.0043853796 -0.02660619
-0.010302708 -0.0055462723 0.016887927 0.05854372 0.04282542 0.004505323 0.039701995 0.018023029
0.0032209863 0.002078347 0.010926799 -0.026973529 -0.05642302 -0.0013974264 0.061069567 -0.04301283
-0.0017914008 -0.04686363 -0.019379796 -0.0847645 0.007328534 -0.087193735 -0.07061722 0.016910989
0.06596682 -0.01749029 0.012081808 0.095930666 0.049641456 -0.11020773 -0.011042123 -0.041577145
0.008739792 0.03630401 -0.026372941 -0.09505346 0.11813063 -0.038857687 0.03682526 -0.007914273
0.11023539 -0.017483903 -0.015178571 -0.010824932 -0.028144618 0.022223754 0.013892901 0.010654513
0.007304966 -0.050006427 -0.028956158 -0.005557541 -0.072017014 0.12566717 0.04674704 -0.05644997
-0.11103446 0.041436955 0.08416411 0.017991642 0.013231507 0.05090175 0.031495888 -0.09653383
-0.032337915 -0.0047369604 -0.018327292 0.015163063 0.022541974 -0.014910041 -0.0052682483 0.041002866
0.00978559 0.06531988 -0.0077516967 -0.01954011 0.026189711 -0.065058224 -0.029726611 -0.12718552
-0.007677153 -0.046972223 0.010985899 -0.021198409 0.0264501 -0.061731428 -0.06413337 0.013318337
0.11123251 -0.0022878721 0.005833633 0.07249316 -0.029710153 -0.07046203 0.039359268 -0.0033449598
0.02857651 -0.095805764 0.030321764 -0.020718146 -0.058812615 0.01440043 -0.015436661 -0.07333828
0.003909042 -0.008214241 -0.027132353 -0.0270211 0.011452961 -0.092960455 -0.05079923 -0.025673732
-0.024676342 -0.023043556 -0.02896157 -0.14517975 0.020724539 -0.010014324 0.023572465 0.0030279146
-0.045569345 -0.016161537 -0.021452142 0.039199147 0.08360378 -0.06039009 -0.013514087 0.06367518
-0.010808344 0.05119454 -0.009937587 0.03425955 -0.021399891 0.036182843 -0.049609866 0.045054287
-0.032886945 0.058875598 0.032788485 -0.052991044 -0.04481955 0.09422038 0.082661405 -0.081669696
-0.0043134536 0.047403354 0.04638914 -0.0383535 0.003516319 -0.0052401456 -0.019391214 0.08409548
-0.012816844 0.005704005 0.017394798 -0.015598553 -0.00028627258 -0.081370294 0.040036794 0.035622198
-0.0098254355 -0.019259306 -0.116547294 -0.09242524 -0.0028143937 0.0918717 -0.027091533 0.059877302
-0.009197313 -0.08207922 0.1271068 0.07338695 0.0702974 -0.017525392 0.03666058 0.023822267
0.065716505 -0.06673832 -0.028195001 -0.09278003 -0.017080043 0.020494822 -0.09034242 0.03437235
-0.029080093 0.054856017 0.04767494 -0.0031844603 0.090791784 0.05591284 -0.022032768 -0.010119815
-0.025434641 0.061576966 0.06876423 0.05313687 -0.07254801 0.008129354 -0.08436909 -0.046466097
-0.083090365 0.042074658 -0.0026196386 -0.021682912 -0.008427448 0.06178782 0.020056093 0.034468964
-0.017385466 0.00035893227 0.051463947 0.03704336 0.05901429 -0.16729987 -0.094361916 0.041339952
00000000: c9fc 0c3d e99b f3bc 8254 103d 59b5 46bd
00000010: 5d91 953d a3b6 e4bd 7683 603b ff7b a5bc
00000020: f8f9 b3bc 48f1 9b3d bd6c 94bd 682b e2bd
00000030: bc9f 88bd 5569 943d 9f74 503d 42fa b6bd
00000040: 2843 2a3d 3e42 9b3c cfc2 a0ba 75de 0e3d
00000050: e7b8 c63d e844 78bc 0723 953d 9127 9ebc
00000060: 94bc c53d 853a 19bc 4173 bcbc 6c88 24bd
00000070: 6e21 69bd 6dd6 353a 1c4c 11bd 4ae4 1d3d
00000080: 12ec 1dbd 96ae 02bd 86c2 ccbc be3b 9a3d
00000090: 52b8 ad3d 2f23 8dbd 3bb3 8fbb 39f5 d9bc
000000a0: b0cc 28bc 81bd b5bb 8d58 8a3c 8acb 6f3d
000000b0: b569 2f3d 63a1 933b 8f9e 223d 08a5 933c
000000c0: 2f17 533b e034 083b 5106 333c 97f7 dcbc
000000d0: d31b 67bd d929 b7ba 1524 7a3d 392e 30bd
000000e0: 70cd eaba 14f4 3fbd 61c2 9ebc 0399 adbd
000000f0: 3324 f03b a192 b2bd c39f 90bd ea88 8a3c
00000100: 9d19 873d cc47 8fbc c7f2 453c 4c77 c43d
00000110: d754 4b3d 97b4 e1bd 05ea 34bc cc4c 2abd
00000120: 5831 0f3c 83b3 143d 110c d8bc 63ab c2bd
00000130: 79ee f13d 3d29 1fbd 15d6 163d deaa 01bc
00000140: 18c3 e13d 673a 8fbc 8baf 78bc 0e5b 31bc
00000150: 8b8f e6bc 970e b63c 0d9f 633c 4490 2e3c
00000160: 7f5e ef3b 8ad3 4cbd 7735 edbc 081c b6bb
00000170: a87d 93bd e5ae 003e d379 3f3d 1538 67bd
00000180: 0966 e3bd ccb9 293d 3c5e ac3d 3563 933c
00000190: f6c8 583c 5a7e 503d d501 013d 87b3 c5bd
000001a0: c374 04bd 8138 9bbb 1e23 96bc 7f6e 783c
000001b0: f2a9 b83c 3f49 74bc 45a1 acbb 9ff2 273d
000001c0: bd53 203c 6ec6 853d f201 febb 9512 a0bc
000001d0: ce8b d63c 3f3d 85bd 3985 f3bc ec3c 02be
000001e0: a190 fbbb f265 40bd 33fe 333c 49a8 adbc
000001f0: e1ad d83c 18da 7cbd 5b58 83bd 2735 5a3c
00000200: dfcd e33d 20f0 15bb 0f28 bf3b 4b77 943d
00000210: b562 f3bc 664e 90bd 2f37 213d 1d37 5bbb
00000220: 4919 ea3c d035 c4bd 5965 f83c 1ab9 a9bc
00000230: 7fe5 70bd c8ef 6b3c 0dea 7cbc 6132 96bd
00000240: 6c17 803b 0695 06bc ab44 debc 5b5b ddbc
00000250: 33a5 3b3c 0d62 bebd da12 50bd b851 d2bc
00000260: 0a26 cabc d7c5 bcbc d040 edbc 00aa 14be
00000270: 82c6 a93c 1f13 24bc 0b1b c13c fa6f 463b
00000280: eca6 3abd 3365 84bc 67bc afbc 498f 203d
00000290: 7538 ab3d 995b 77bd 306a 5dbc 2268 823d
000002a0: 7b15 31bc 5eb1 513d 43d1 22bc be53 0c3d
000002b0: d34e afbc 7634 143d b733 4bbd d88a 383d
000002c0: 76b4 06bd 8a27 713d 384d 063d 230d 59bd
000002d0: b494 37bd 9df6 c03d 624a a93d 7142 a7bd
000002e0: df57 8dbb 052a 423d 8a02 3e3d 8f18 1dbd
000002f0: 0b72 663b 87b5 abbb 53da 9ebc 403a ac3d
00000300: bdfd 51bc a9e8 ba3b 897f 8e3c 1391 7fbc
00000310: db16 96b9 78a5 a6bd 9ffd 233d 95e8 113d
00000320: ddfa 20bc b1c5 9dbc 59b0 eebd 7249 bdbd
00000330: b171 38bb 3b27 bc3d 10ef ddbc e741 753d
00000340: 54b0 16bc 2619 a8bd 4928 023e e64b 963d
00000350: 15f8 8f3d 6991 8fbc 6829 163d ea26 c33c
00000360: 6096 863d 1aae 88bd 34f9 e6bc 7503 bebd
00000370: 72eb 8bbc c2e4 a73c 7205 b9bd 05ca 0c3d
00000380: 6039 eebc b4b0 603d cc46 433d 61b2 50bb
00000390: 0bf1 b93d dd04 653d 107e b4bc 95cd 25bc
000003a0: 4f5c d0bc 2138 7c3d 43d4 8c3d 0ca6 593d
000003b0: 0d94 94bd fb30 053c b4c9 acbd 3c53 3ebd
000003c0: 482b aabd 7a56 2c3d 3eae 2bbb 5da0 b1bc
000003d0: 4713 0abc 3a15 7d3d ad4c a43c 542f 0d3d
000003e0: f76b 8ebc 132f bc39 dccb 523d c7ba 173d
000003f0: f8b8 713d a850 2bbe d240 c1bd 1554 293d

actor_mean.4.bias f4 [6]
-0.11951742 -0.098012686 0.050800126 0.100711204 0.01580416 0.060504504
00000000: 8dc5 f4bd e0ba c8bd cb13 503d ad41 ce3d
00000010: ba77 813c 92d3 773d
