part1/ppo/InvertedPendulumBulletEnv-v0_PPO_1637603560_1637603560_ppo.pth (torch, 40894 bytes, 10 tensors)

critic.0.weight f4 [64, 5]
0	0xbe3f8b9d	-0.18705602
1	0xbd7a2cb2	-0.06107778
2	0xbddcef13	-0.10787787
3	0x3e17eee7	0.14837228
4	0xbbabe3a1	-0.0052456413
5	0x3ded41be	0.11584805
6	0x3e494c41	0.19657995
7	0x3d8ada40	0.06779909
8	0xbdc681d2	-0.0969273
9	0x3e1f8f44	0.15581995
10	0xbd552900	-0.052041054
11	0xbe67b1c3	-0.22626404
12	0x3b6cc29a	0.0036126734
13	0xbc081029	-0.008304634
14	0xbe499b03	-0.19688039
15	0x3e0c0dd2	0.13677147
16	0x3e58fefc	0.21191019
17	0x3ddac13d	0.106813885
18	0xbd279697	-0.040915098
19	0x3e5aba74	0.21360189
20	0xbdb0bc61	-0.086296804
21	0xbcb298f3	-0.021801447
22	0x3dc01369	0.09378702
23	0x3c178e1d	0.009250191
24	0x3d130d0b	0.03590111
25	0x3dbeac82	0.09310247
26	0xbcf89f60	-0.030349433
27	0x3d39599c	0.045251474
28	0x3e20c6c2	0.1570082
29	0x3d8c73d8	0.06858033
30	0xbe3055e4	-0.17220265
31	0x3e559b5f	0.2086005
32	0x3e4b147c	0.19832033
33	0x3dd64ded	0.10464082
34	0xbe170403	-0.14747624
35	0xbe1335ed	-0.1437604
36	0x3dae39e4	0.085071355
37	0xbd34d0cf	-0.044144448
38	0xbe1fed37	-0.15617834
39	0x3d8c148b	0.06839856
40	0x3e3dab5d	0.18522401
41	0x3d5fc98e	0.054635577
42	0x3e3d5cba	0.18492404
43	0x3eac86da	0.33696634
44	0xbc17b064	-0.009258363
45	0xbccbd4f3	-0.024881816
46	0x3e0dba47	0.1384059
47	0xbe0b407d	-0.13598819
48	0x3e1e5369	0.15461506
49	0x3c9617ec	0.018321954
50	0xbe61627c	-0.22010225
51	0xbe69e9d6	-0.22843108
52	0x3e25d5b0	0.16194797
53	0xbd8ac09c	-0.067750186
54	0xbd4f89dc	-0.050668582
55	0x3e99dcc7	0.30051252
56	0xbc15ed1e	-0.009150771
57	0x3cf533c1	0.029931905
58	0xbdaca0a0	-0.08429074
59	0xbe8b0f60	-0.27160168
60	0x3e812428	0.25222898
61	0x3d79d52a	0.060994305
62	0xbd9085df	-0.07056784
63	0x3e34cc02	0.17655948
64	0x3cc758ce	0.024334338
65	0x3dda0b4c	0.10646686
66	0xbe94a32e	-0.29030746
67	0xbdb8fadd	-0.090322234
68	0xbdac6ced	-0.084192134
69	0xbe8ab30f	-0.27089736
70	0x3e7dac2e	0.24772713
71	0x3c531061	0.012882323
72	0xbcbc6603	-0.022997862
73	0x3d161f21	0.03665078
74	0x3e4907e3	0.19631915
75	0x3e7ae737	0.24502264
76	0x3e1ab28a	0.1510717
77	0x3e84ff33	0.25975952
78	0xbdb22283	-0.08697989
79	0x3e17183c	0.14755338
80	0x3e4c4890	0.19949555
81	0x3e18df39	0.14928903
82	0xbdbb3a44	-0.09141973
83	0xbe5cec14	-0.21574432
84	0x3e03cec4	0.12871844
85	0x3e198c59	0.14994945
86	0x3e3e6c74	0.18596059
87	0x3cde1773	0.02711079
88	0x3d5dbc5f	0.054134723
89	0x3d8f65f6	0.070018694
90	0x3eaba289	0.33522442
91	0xbdc58451	-0.09644378
92	0xbd8e55c0	-0.06949949
93	0x3db95286	0.09048943
94	0x3d0d6f9d	0.03453027
95	0x3e0cc311	0.13746287
96	0x3d01fb99	0.031734083
97	0x3c4f25b0	0.012643263
98	0x3e3898db	0.1802706
99	0xbd8504b2	-0.06495036
100	0xbd89b538	-0.06724018
101	0x3d478b8b	0.048717063
102	0xbe24cef7	-0.16094576
103	0xbda05ef1	-0.07830609
104	0x3d96c612	0.07361998
105	0xbd40b70e	-0.047049575
106	0xbe2e4455	-0.17018254
107	0xbe373211	-0.17890193
108	0xbd8a8536	-0.06763689
109	0xbdb26e8d	-0.08712492
110	0x3e559cdb	0.20860617
111	0xbdf28872	-0.11842431
112	0xbdf2c83c	-0.11854598
113	0xbdbf6391	-0.09345163
114	0xbe196f39	-0.14983834
115	0x3e9d77e5	0.30755535
116	0xbe883e90	-0.2661023
117	0x3de1fa8f	0.110341184
118	0xbeafc223	-0.34327802
119	0xbd737f07	-0.059447315
120	0xbe5a26eb	-0.21303909
121	0x3df5f4cc	0.12009582
122	0xbd60a2a1	-0.054842595
123	0xbd196bef	-0.03745645
124	0x3e942979	0.2893789
125	0xbe181749	-0.14852633
126	0x3eb60d39	0.35556963
127	0x3da329a4	0.07966927
128	0x3c9f7ae1	0.019467773
129	0xbdfff688	-0.12498194
130	0x3d312dc7	0.043256547
131	0xbd157560	-0.03648889
132	0xbe35f065	-0.17767484
133	0xbe805de5	-0.25071636
134	0x3db8b9b3	0.09019794
135	0xbcdbb8f5	-0.026821593
136	0xbe59a6c1	-0.21255018
137	0x3e2d470d	0.16921635
138	0xbe282619	-0.16420783
139	0xbe1ad564	-0.15120465
140	0x3e62ba48	0.22141373
141	0x3d752b3b	0.05985568
142	0x3d8d5624	0.06901196
143	0xbe3f37e9	-0.18673672
144	0x3ec7f081	0.39050677
145	0x3e0344a4	0.12819153
146	0xbd1af4fb	-0.037831288
147	0x3e672e9c	0.22576374
148	0xbe1c90f6	-0.15289673
149	0x3c9576b4	0.018245079
150	0x3d2aa670	0.041662633
151	0xbe16b873	-0.147188
152	0xbdac7db3	-0.08422413
153	0x3c563105	0.013073211
154	0xbdd73720	-0.10508561
155	0xbc997a70	-0.01873514
156	0xbd146681	-0.036230568
157	0x3d5ea405	0.05435564
158	0xbd364635	-0.04450055
159	0xbe2c4c43	-0.16825967
160	0xbe076b4b	-0.13224523
161	0xbe2919b4	-0.16513711
162	0x3ebd24d4	0.3694216
163	0xbdea6b89	-0.11446292
164	0xbdb86d12	-0.090051785
165	0xbd9020b6	-0.07037489
166	0x3e61a57e	0.22035787
167	0xbd7b8a26	-0.061411045
168	0x3e0a875a	0.13528195
169	0x3e0aee95	0.13567574
170	0xbe3443a3	-0.17603926
171	0xbeecb09f	-0.462285
172	0x3e05c813	0.13064604
173	0x3da839b7	0.08214133
174	0xbea29938	-0.31757522
175	0xbdba9b0b	-0.09111603
176	0xbd2c08b5	-0.04200049
177	0x3c95c1ff	0.018280981
178	0x3d46558c	0.048421428
179	0x3d724e37	0.059156623
180	0x3d90757e	0.0705366
181	0x3dacc727	0.08436423
182	0x3e2d6ef9	0.16936864
183	0x3e324203	0.17407994
184	0x3e668837	0.225129
185	0xbd16d6dd	-0.036826003
186	0xbd8d25df	-0.06891989
187	0xbd325162	-0.043534644
188	0x3d79612e	0.060883693
189	0x3e73085c	0.23733658
190	0xbe554974	-0.20828801
191	0x3df16f0b	0.11788758
192	0xbb1f2115	-0.0024281193
193	0x3b8ae338	0.0042385124
194	0x3dee9960	0.11650348
195	0xbc6f34af	-0.014599963
196	0x3d25b72e	0.040457897
197	0xbd810745	-0.06300215
198	0xbe188da2	-0.14897779
199	0x3e6201cf	0.22071002
200	0x3e12d045	0.14337261
201	0xbe05d039	-0.13067712
202	0xbd799c7b	-0.060940247
203	0xbd02307a	-0.031784512
204	0xbdb3e250	-0.087834
205	0xbe0793e2	-0.13240007
206	0x3e269bae	0.16270325
207	0xbe333601	-0.1750107
208	0xbe42f218	-0.19037664
209	0x3d889f22	0.06670977
210	0x3ccf1d3f	0.0252825
211	0x3e3d0663	0.18459468
212	0xbde5cabd	-0.1122031
213	0xbe93f672	-0.2889896
214	0xbe07767d	-0.13228793
215	0x3e219ff1	0.15783669
216	0xbed59820	-0.41717625
217	0x3e39cb1b	0.18143885
218	0x3d0df7f2	0.034660287
219	0xbd1464dd	-0.036229003
220	0xbdf883d0	-0.12134516
221	0xb8a55ddc	-7.885296e-05
222	0xbe25b516	-0.1618236
223	0xbdc48c44	-0.09597066
224	0x3db3be68	0.087765515
225	0xbdb06e8f	-0.086148374
226	0xbddc1ea6	-0.10748033
227	0x3e33321e	0.17499587
228	0xbe71dad7	-0.23618637
229	0x3de96672	0.11396493
230	0xbc7057b0	-0.014669344
231	0x3d4b9bf4	0.049709275
232	0x3d19ca48	0.037546426
233	0x3e2c476f	0.16824125
234	0x3da7b410	0.08188641
235	0xbec15d62	-0.37766558
236	0xbd1a8fe8	-0.037734896
237	0xbe9bb68e	-0.30412716
238	0xbe1c6287	-0.1527196
239	0xbe8ca704	-0.27471173
240	0x3ed13f8c	0.40868795
241	0x3cbec427	0.023286892
242	0xbe968ce8	-0.29404378
243	0x3ee5b628	0.44865537
244	0xbdb812bf	-0.089879505
245	0x3d177d4e	0.036984734
246	0x3d819b38	0.06328434
247	0x3dae71c7	0.08517795
248	0x3d97e1eb	0.07416137
249	0x3da297ab	0.079390846
250	0xbde6c467	-0.112679295
251	0xbe3937be	-0.1808767
252	0xbd8876be	-0.06663273
253	0xbc0911ae	-0.008366032
254	0xbc596a4f	-0.013269975
255	0xbea09d61	-0.3137007

critic.0.bias f4 [64]
0	0xbe08df05	-0.13366325
1	0xbec5c20a	-0.38624603
2	0x3e289041	0.16461278
3	0xbe0f5adf	-0.13999508
4	0x3e431302	0.1905022
5	0x3e282f3c	0.16424268
6	0x3e9fced9	0.312125
7	0xbe318b6c	-0.17338341
8	0x3e06cbbb	0.13163655
9	0xbe04e467	-0.12977754
10	0xbdf9c1df	-0.12195181
11	0xbde658d2	-0.1124741
12	0xbe2e0b90	-0.16996598
13	0xbe5b414e	-0.2141163
14	0xbdc2b4e2	-0.09507157
15	0xbdf2c204	-0.11853412
16	0x3e3e74a3	0.18599181
17	0xbe343f90	-0.17602372
18	0x3deb66b6	0.114942
19	0x3e0a73bb	0.1352071
20	0xbe23ad8a	-0.15984169
21	0x3df45cae	0.1193174
22	0x3d88a616	0.066723034
23	0xbe145c19	-0.14488257
24	0x3e21312e	0.15741417
25	0xbe02b7c9	-0.12765421
26	0xbde0ec13	-0.109825276
27	0x3e8f4191	0.2797971
28	0x3d9df397	0.07712477
29	0x3e13d9d1	0.14438559
30	0xbe0490d5	-0.12945874
31	0x3dfaa63c	0.12238738
32	0xbdc5c4a6	-0.09656648
33	0xbdb645e9	-0.08900053
34	0x3cde3cf6	0.027128678
35	0x3e0ab9e4	0.13547474
36	0xbe11f9fd	-0.14255519
37	0x3dcd0ef3	0.10012617
38	0x3deabed3	0.11462178
39	0xbdbeb8c4	-0.09312585
40	0xbe60b4b0	-0.21943927
41	0x3e12c64e	0.1433346
42	0x3d0a8b56	0.033824287
43	0xbc397b47	-0.0113208955
44	0xbe1b29ac	-0.15152615
45	0x3e34ffdb	0.17675726
46	0xbdf726da	-0.12067957
47	0x3c9c5ba0	0.019086659
48	0x3d95ca01	0.0731392
49	0xbe3d1153	-0.1846364
50	0x3dc62c2c	0.09676394
51	0xbdd41379	-0.103552766
52	0x3e235122	0.15948918
53	0xbd80faf1	-0.06297863
54	0x3d45e76d	0.048316408
55	0xbe42864c	-0.18996543
56	0xbc5801d4	-0.01318403
57	0x3e624a89	0.22098745
58	0xbdd3e1c4	-0.10345796
59	0x3e107d2f	0.14110254
60	0x3e1037aa	0.14083734
61	0xbe154709	-0.14577879
62	0x3e099542	0.13435844
63	0x3d4d4c83	0.050121795

critic.2.weight f4 [64, 64]
0	0xbd6bac5c	-0.05753742
1	0xbeaa5200	-0.33265686
2	0xbe2e6533	-0.17030792
3	0x3e01de98	0.12682569
4	0xbec2276c	-0.37920702
5	0x3e52465a	0.2053465
6	0xbe17181b	-0.1475529
7	0x3e3c8062	0.18408349
8	0x3dc0ae25	0.094082154
9	0x3ddb3c68	0.10704881
10	0x3e2b247b	0.16713135
11	0xbd188e7c	-0.03724526
12	0x3e03dd7b	0.12877457
13	0xbe9be012	-0.3044439
14	0xbda72c14	-0.08162704
15	0x3d0f8e55	0.035047848
16	0xbe015f7a	-0.12634078
17	0xbd16e2f1	-0.036837522
18	0xbe0efbe3	-0.13963275
19	0x3d3fb665	0.046804804
20	0x3ea60616	0.32426518
21	0xbe0e58a4	-0.13901001
22	0x3e9cb9b4	0.3061043
23	0x3e342962	0.17593911
24	0x3debfdeb	0.115230404
25	0x3e9ec2f2	0.31008106
26	0x3e4a4644	0.19753367
27	0xbecc88db	-0.39948162
28	0xbe05a260	-0.13050222
29	0xbe825df0	-0.25462294
30	0x3e932175	0.28736463
31	0xbe9182f3	-0.2842022
32	0x3d994b52	0.07485069
33	0xbd310818	-0.04322061
34	0x3d7ec095	0.06219538
35	0x3e382509	0.17982878
36	0x3e4d7d11	0.2006724
37	0xbe466dc5	-0.19377811
38	0x3ccb820d	0.024842286
39	0x3e18c085	0.1491719
40	0x3e243a15	0.16037782
41	0xbc829f79	-0.015945183
42	0x3d110d9f	0.03541338
43	0x3e6db775	0.23214515
44	0xbe317909	-0.17331327
45	0x3ddf9525	0.10917119
46	0x3e4ed67e	0.2019901
47	0xbe862d1f	-0.262063
48	0xbe16f29c	-0.14740986
49	0xbdb4159b	-0.087931834
50	0x3d1e9949	0.038720403
51	0xbb07515b	-0.0020647857
52	0x3d12e47e	0.03586244
53	0x3e0c4b68	0.1370064
54	0xbe889a18	-0.26680064
55	0x3e7480a4	0.23877198
56	0xbe59c401	-0.21266176
57	0x3d0cd814	0.034385756
58	0x3e101d64	0.14073712
59	0xbed99536	-0.4249665
60	0xbd2b3e22	-0.0418073
61	0x3de8680d	0.11347971
62	0xbeb126b8	-0.34599853
63	0xbe0c700f	-0.13714622
64	0xbd8553e2	-0.0651014
65	0xbdfcbd46	-0.123407885
66	0x3ef248ab	0.47321066
67	0xbe2d405e	-0.16919085
68	0xbd327d6a	-0.043576635
69	0x3e854613	0.26030025
70	0x3e303e0a	0.17211166
71	0xbe67f800	-0.22653198
72	0x3e85e274	0.26149333
73	0x3d644a2f	0.05573481
74	0xbe9cd052	-0.30627686
75	0x3d7c8298	0.06164798
76	0xbc6ad3ea	-0.014332751
77	0xbd14c8c0	-0.036324263
78	0xbc82bf33	-0.015960312
79	0xbe98fe78	-0.29881644
80	0x3dcaa4cc	0.09894714
81	0xbe09778d	-0.13424511
82	0xbd425b1b	-0.047450166
83	0x3de51c3f	0.11187028
84	0x3e619e5d	0.22033067
85	0x3e5b68bc	0.21426672
86	0x3c111e8d	0.0088573815
87	0xbe0b4806	-0.13601694
88	0xbc57e758	-0.013177715
89	0xbe5dd9ce	-0.21665117
90	0xbc55ab19	-0.013041281
91	0x3ccb7f8e	0.024841096
92	0x3dd1c0e6	0.102418706
93	0x3e2deb0e	0.16984197
94	0x3c45e1c5	0.012077753
95	0x3d42a293	0.047518324
96	0xbeba0f2d	-0.36339703
97	0xbd7864e9	-0.06064311
98	0xbe6ce482	-0.23134044
99	0x3eb27950	0.3485818
100	0xbe00178c	-0.12508982
101	0x3f0e1089	0.5549398
102	0xbe714d10	-0.23564553
103	0xbe0b9eec	-0.13634843
104	0x3e0e27c1	0.13882352
105	0xbd45eca5	-0.048321385
106	0x3d628365	0.05530109
107	0xbe3fbd00	-0.18724442
108	0xbe3d38da	-0.18478718
109	0x3e7f7aac	0.2494914
110	0xbe757748	-0.23971283
111	0xbe322e55	-0.17400487
112	0xbe1163ab	-0.14198177
113	0xbe3d7f66	-0.1850563
114	0xbec123f3	-0.3772274
115	0x3e5738d4	0.21017772
116	0xbcf3c3d5	-0.029756466
117	0xbe4ce67d	-0.200098
118	0xbba914ce	-0.005159951
119	0xbe5851fb	-0.21125023
120	0xbe6886c9	-0.22707666
121	0xbd8cd12b	-0.06875833
122	0xbe8398eb	-0.25702605
123	0x3eb54d1c	0.35410392
124	0xbd0d1325	-0.034442086
125	0x3e8e0cc8	0.27744126
126	0x3e02cb23	0.12772803
127	0xbc8bb0f4	-0.017052151
128	0xbd762742	-0.060096033
129	0x3d2fa5a2	0.04288257
130	0x3ea402a2	0.3203326
131	0xbe125505	-0.14290245
132	0x3dd317df	0.103072874
133	0xbe21179d	-0.15731664
134	0x3e213109	0.15741362
135	0xbe54ecd8	-0.20793474
136	0x3dfa14cf	0.12211
137	0xbdd5a278	-0.10431379
138	0x3d827064	0.06369093
139	0x3e51a440	0.20472813
140	0x3c690990	0.014223471
141	0xbd4ca9da	-0.04996667
142	0xbce02d5f	-0.027365385
143	0xbe4ea0b9	-0.20178498
144	0x3e437b51	0.1909001
145	0xbdfbbce7	-0.1229189
146	0x3da7be12	0.0819055
147	0x3e901b32	0.28145748
148	0x3d20efdb	0.039291244
149	0x3ea2940e	0.31753582
150	0x3d4b2599	0.049596403
151	0x3de6d816	0.11271684
152	0x3cf0bd75	0.029387215
153	0x3e6c404e	0.23071405
154	0xbca363f2	-0.019945119
155	0x3e3f65c6	0.18691167
156	0x3f01074e	0.5040177
157	0x3e97d1f0	0.29652357
158	0x3e9113f7	0.28335544
159	0xbe114836	-0.14187703
160	0x3e030a7a	0.12796965
161	0x3dd0defc	0.10198781
162	0xbd7fc237	-0.062441077
163	0x3c0335ca	0.00800843
164	0x3ea705c1	0.32621577
165	0x3e9e62b9	0.30934694
166	0x3dc80646	0.097668216
167	0xbb7959b2	-0.0038047847
168	0xbdb13dc2	-0.086543575
169	0x3dcf20dd	0.1011369
170	0x3d291fe5	0.041290183
171	0x3dc83a50	0.09776747
172	0xbd89aac3	-0.06722023
173	0x3e3e354e	0.18575022
174	0x3e885a32	0.26631314
175	0x3ddc61c7	0.10760837
176	0xbe635087	-0.22198687
177	0xbe12c088	-0.14331257
178	0x3d9eb4d1	0.07749332
179	0xbddf7631	-0.10911215
180	0x3db0756b	0.08616146
181	0x3e4b7a39	0.19870843
182	0xbe22e087	-0.15905963
183	0x3d9a2479	0.07526488
184	0x3e182dbe	0.148612
185	0x3e8d52b4	0.2760216
186	0xbef4cda4	-0.4781314
187	0x3cc4803d	0.02398693
188	0xbe15fb88	-0.14646733
189	0xbe930ebb	-0.28722176
190	0x3e86b408	0.26309228
191	0x3c2dfb45	0.010618989
192	0xbd2ab2e9	-0.04167453
193	0x3e2362e8	0.15955698
194	0xbeae75c6	-0.3407423
195	0x3e9d27b9	0.30694368
196	0xbde6df73	-0.11273088
197	0xbe7748b5	-0.2414883
198	0x3e2a148e	0.16609403
199	0x3d896341	0.06708384
200	0xbd73cdac	-0.059522316
201	0x3d41ded3	0.047331642
202	0x3efda5c6	0.49540538
203	0x3b8e772c	0.0043477025
204	0x3cc01105	0.023445616
205	0x3ec224bb	0.37918648
206	0x3e46df0d	0.19421025
207	0x3e980f36	0.29699105
208	0xbe721dbe	-0.23644158
209	0x3eb361f5	0.35035673
210	0xbe731650	-0.2373898
211	0x3ccee94f	0.025257735
212	0x3eb38572	0.35062748
213	0xbe919930	-0.28437185
214	0xbe6a7a1c	-0.22898144
215	0x3d33998d	0.04384761
216	0xbe7e3380	-0.24824333
217	0x3e2a65a5	0.16640337
218	0x3caafb37	0.020871742
219	0xbe2eedc2	-0.17082885
220	0xbe7ad6f3	-0.24496059
221	0x3ea848b3	0.32867965
222	0x3e599fbb	0.21252339
223	0xbdb97dd0	-0.090572
224	0x3d6e0d2b	0.058118027
225	0x3d38b096	0.04509028
226	0xbdefab37	-0.117025785
227	0xbdcd5191	-0.10025323
228	0x3e1cddeb	0.1531903
229	0xbccef5c1	-0.025263669
230	0xbe12dde8	-0.14342463
231	0xbe10126b	-0.14069526
232	0x3e5e64e7	0.21718179
233	0x3e1020fd	0.14075084
234	0xbd74cbba	-0.0597646
235	0xbc6f1255	-0.014591773
236	0x3d513cfe	0.051083557
237	0xbe12e1d0	-0.14343953
238	0x3ce77c44	0.028257497
239	0xbe5f4f43	-0.2180758
240	0xbe9fbaea	-0.31197292
241	0x3e2b6271	0.16736771
242	0x3e0fa797	0.14028774
243	0x3e9d307b	0.3070105
244	0x3e3ab1f0	0.1823194
245	0x3d0af9a9	0.0339295
246	0x3e97ab27	0.29622766
247	0x3d7b2104	0.061310783
248	0xbe841942	-0.2580052
249	0xbc606574	-0.013696063
250	0xbe74afff	-0.23895262
251	0xbdbd0323	-0.09229114
252	0x3e973d25	0.29538837
253	0x3dde72ce	0.10861741
254	0xbdf031c3	-0.11728241
255	0x3e148527	0.14503919

critic.2.bias f4 [64]
0	0xbe02a984	-0.12759978
1	0x3e139820	0.144135
2	0x3dbfb65e	0.09360956
3	0xbe46f703	-0.19430165
4	0xbd9c7f11	-0.076414235
5	0xbd7cae9a	-0.06168995
6	0xbdb1d42f	-0.08683049
7	0x3df1845a	0.11792822
8	0xbb7172d6	-0.003684213
9	0xbe0bba33	-0.13645248
10	0x3ded4602	0.115856186
11	0xbd5802d0	-0.052737057
12	0x3e1c1f41	0.15246297
13	0xbe509eab	-0.20373027
14	0x3dba5618	0.09098452
15	0xbde055b5	-0.10953847
16	0x3e1ddb06	0.15415582
17	0xbdee3967	-0.116320424
18	0xbdb06461	-0.08612896
19	0x3d391b08	0.045191795
20	0x3e910272	0.28322178
21	0xbe001907	-0.12509547
22	0x3dc2ea62	0.09517361
23	0xbdaf53e9	-0.085609265
24	0x3da2441c	0.07923147
25	0x3e08d726	0.13363323
26	0xbd84e6b1	-0.064893134
27	0xbe0b584d	-0.13607903
28	0x3e2a8789	0.16653265
29	0xbe0a40e8	-0.13501322
30	0xbe0c6edf	-0.13714169
31	0x3df9b8b1	0.1219343
32	0x3df6e07f	0.12054538
33	0xbd403752	-0.046927758
34	0x3d8e61ba	0.069522336
35	0xbdfedd1d	-0.12444518
36	0x3e2ee2fc	0.17078775
37	0x3e1b2e7f	0.15154456
38	0xbd8604cb	-0.06543883
39	0xbdde1945	-0.108446635
40	0xbe6d8a80	-0.23197365
41	0xbdf9f09a	-0.12204094
42	0x3dd6bdc6	0.10485415
43	0x3dff3c01	0.12462617
44	0x3e0cbd8b	0.1374418
45	0xbe1f02aa	-0.1552836
46	0xbd8c4ad5	-0.068502106
47	0x3dd9cdb4	0.10634938
48	0xbe02d381	-0.12775995
49	0xbde2979a	-0.11064072
50	0x3d2c1d97	0.042020407
51	0xbdbf4029	-0.093384095
52	0x3dccda63	0.100025915
53	0x3d9f92c6	0.07791667
54	0xbe01bb2f	-0.12669061
55	0xbdcf9dc8	-0.10137516
56	0x3d80335a	0.062597945
57	0x3e10efc7	0.14153968
58	0x3de6ccf2	0.11269559
59	0xbdcd71ea	-0.10031493
60	0xbdacb11b	-0.08432218
61	0x3de0717e	0.10959147
62	0x3e144977	0.1448115
63	0xbdc8b9ac	-0.09801039

critic.4.weight f4 [1, 64]
0	0xbe7d10cc	-0.24713439
1	0x3e76fa7d	0.24118991
2	0x3d09cd77	0.033643212
3	0xbdd23a9e	-0.102650866
4	0xbd993e90	-0.07482636
5	0xbe4d3912	-0.20041302
6	0xbc421494	-0.0118457265
7	0x3e2b11cb	0.16706006
8	0x3e40292d	0.18765707
9	0xbe51f8e5	-0.20505102
10	0x3e3d4d0f	0.18486427
11	0xbd23bba7	-0.03997388
12	0x3dcb8f61	0.09939457
13	0xbe009942	-0.12558463
14	0x3da86630	0.08222616
15	0xbd98b0d5	-0.07455603
16	0x3e3de0bd	0.18542762
17	0xbdbfab8b	-0.09358891
18	0xbd701cf2	-0.058621354
19	0x3d01c074	0.03167768
20	0x3ddb0d79	0.10695929
21	0xbd256738	-0.04038164
22	0x3d9def57	0.07711666
23	0xbd612366	-0.0549654
24	0x3e06fb1b	0.13181727
25	0x3ea57984	0.32319272
26	0xbcca0485	-0.024660358
27	0xbe448bdf	-0.19193982
28	0x3d2df887	0.042473342
29	0xbe513ea0	-0.20434046
30	0xbdc36786	-0.0954123
31	0x3e37c10d	0.17944737
32	0x3e2cef97	0.16888271
33	0x3dfae93a	0.12251516
34	0x3e4dd5c8	0.20101082
35	0xbdca4609	-0.098766394
36	0x3e12fb8f	0.14353774
37	0x3eab22df	0.33425042
38	0x3e126230	0.14295268
39	0xbe03927d	-0.1284885
40	0xbd9faea6	-0.077969834
41	0xbe203048	-0.15643418
42	0x3e307786	0.17233095
43	0x3daee33d	0.08539436
44	0x3dc1a69b	0.094556056
45	0xbe7c0767	-0.24612199
46	0xbe4d97f0	-0.20077491
47	0x3ea7bda2	0.32761866
48	0xbe24b003	-0.16082768
49	0xbdeb8374	-0.11499682
50	0xbb183cd3	-0.0023229613
51	0x3e476ed2	0.19475868
52	0x3e0097aa	0.12557855
53	0x3d3268f6	0.04355713
54	0xbe829eca	-0.2551177
55	0xbdca0101	-0.09863473
56	0x3cf1b5c8	0.029505625
57	0x3dd534ef	0.10410487
58	0x3e69c207	0.22827922
59	0xbe4679bb	-0.19382374
60	0x3d1e7036	0.03868123
61	0x3dba1d83	0.0908766
62	0x3e56deb4	0.20983392
63	0xbe748ed5	-0.23882611

actor_mean.0.weight f4 [64, 5]
0	0xbe5d2d74	-0.2159937
1	0x3e1d4549	0.15358461
2	0x3d38a9f9	0.045083974
3	0xbe9ba07c	-0.30395877
4	0x3d4f26a7	0.05057397
5	0x3cb3bba1	0.021940054
6	0xbd32a3e9	-0.04361335
7	0x3c7796a9	0.015111604
8	0x3e546e1d	0.2074513
9	0x3e56c230	0.20972514
10	0x3eaa2a6a	0.33235484
11	0xbe232b5f	-0.15934514
12	0x3d2bb43b	0.041919928
13	0xbbd2b0ac	-0.0064297523
14	0xbbf08ae9	-0.007340778
15	0xbca383a7	-0.019960238
16	0xbb53d471	-0.003232267
17	0xbd669d16	-0.056302153
18	0x3e7b244d	0.24525566
19	0xbdc7a438	-0.09748119
20	0x3ccb635e	0.024827655
21	0xbde6982b	-0.112594925
22	0xbc8d0dff	-0.017218588
23	0xbeaf1dbe	-0.3420238
24	0xbe443bd1	-0.19163443
25	0xbe231f26	-0.15929851
26	0xbd2a6a43	-0.041605245
27	0x3e9f4dfa	0.3111418
28	0x3e8a24bd	0.26981154
29	0x3d6045e3	0.05475415
30	0x3cb717b1	0.022350164
31	0xbd915280	-0.07095814
32	0xbd7d38e9	-0.061821852
33	0xbd59e81f	-0.053199884
34	0xbe5cd02d	-0.21563788
35	0x3e02e90c	0.12784213
36	0xbe07e875	-0.13272269
37	0x3c387389	0.0112580145
38	0x3ca7d211	0.02048591
39	0x3e90b158	0.28260303
40	0x3d8c5abc	0.06853244
41	0x3d296c7e	0.04136323
42	0xbba9b8b2	-0.005179488
43	0xbd844f51	-0.06460441
44	0xbec62597	-0.38700554
45	0x3e2ca8e0	0.16861296
46	0x3e530d72	0.20610598
47	0xbe823534	-0.25431216
48	0x3e90c8d5	0.28278223
49	0x3e2880a4	0.16455323
50	0xbdada8bc	-0.08479449
51	0x3e174cee	0.1477544
52	0x3d944cec	0.07241234
53	0x3c20e5ec	0.009820443
54	0xbdbbe4ed	-0.091745235
55	0xbd6e8ba7	-0.05823865
56	0xbd2621c9	-0.040559564
57	0x3e7d430e	0.2473261
58	0xbca18be0	-0.019720018
59	0xbdc959b8	-0.098315656
60	0x3e3fd83d	0.18734832
61	0x3c910eb2	0.017707203
62	0xbed95135	-0.4244477
63	0xbe59ec6d	-0.21281596
64	0xbe306167	-0.17224656
65	0x3e6a8fdf	0.22906445
66	0x3d159cb0	0.036526382
67	0xbddfe2c3	-0.10931923
68	0x3e27f260	0.16401052
69	0x3ee6e498	0.45096278
70	0x3e9da31e	0.3078851
71	0xbe556e69	-0.208429
72	0xbdab2ca1	-0.08358122
73	0xbe1fa762	-0.15591195
74	0xbe95f47b	-0.29288086
75	0xbcd7a5d9	-0.0263242
76	0xbd950137	-0.07275622
77	0x3e013cf8	0.12620914
78	0xbea01755	-0.312678
79	0xbe3d7a23	-0.18503623
80	0xbe6cdd12	-0.23131207
81	0xbe8d2990	-0.27570772
82	0xbe2246b8	-0.1584729
83	0xbe0b3331	-0.13593747
84	0xbdb8a1c3	-0.090152286
85	0xbcc9dac1	-0.024640443
86	0x3df879a2	0.121325746
87	0xbdebbedc	-0.11511013
88	0xbece832f	-0.4033446
89	0x3dd4a9ea	0.10383971
90	0xbd855587	-0.06510454
91	0x3ea7a77a	0.32744962
92	0x3d2636bd	0.040579546
93	0xbe647ad8	-0.22312486
94	0xbe3a3ec8	-0.18188012
95	0xbe6705f0	-0.22560859
96	0xbd74dad2	-0.059778996
97	0xbdbc1555	-0.09183756
98	0x3d337b69	0.043818865
99	0x3e7a8de4	0.2446819
100	0x3e5e48d6	0.21707472
101	0xbe4e1043	-0.20123391
102	0x3e1dfc82	0.15428355
103	0xbe9943e8	-0.2993462
104	0x3da4c5b3	0.08045521
105	0xbecb6a7f	-0.39729688
106	0x3e2770b6	0.1635159
107	0xbe11c268	-0.14234316
108	0xbd93f2d4	-0.0722405
109	0xbe2e0c91	-0.16996981
110	0xbce4f881	-0.027950527
111	0x3d9d63e6	0.0768507
112	0x3d86ee77	0.06588452
113	0x3e2b15be	0.16707513
114	0x3e8aefc7	0.2713606
115	0x3cbbba16	0.022915881
116	0xbd52553c	-0.051350817
117	0xbd195f33	-0.037444305
118	0x3de92b65	0.1138523
119	0xbcd3f270	-0.02587244
120	0xbe0966a8	-0.13418067
121	0x3e02d93b	0.1277818
122	0x3e166c3d	0.14689727
123	0xbd08cd81	-0.03339911
124	0xbedbe4bc	-0.42947948
125	0x3ec4cdd4	0.38438284
126	0xbbd0c7f0	-0.0063714907
127	0xbe918a33	-0.2842575
128	0xbdf86a98	-0.12129706
129	0x3e57b1d5	0.21063931
130	0x3d1415b4	0.03615351
131	0xbdab1db4	-0.08355275
132	0xbd36280e	-0.044471793
133	0x3ea9619f	0.3308229
134	0x3e96a254	0.29420722
135	0x3e34b11e	0.1764569
136	0xbdc7c9db	-0.09755298
137	0xbe952191	-0.29127172
138	0xbed04477	-0.40677235
139	0x3dbb0da0	0.09133458
140	0xbcdd22e4	-0.026994176
141	0xbe5cff12	-0.21581677
142	0xbd881f43	-0.06646588
143	0xbd744795	-0.05963858
144	0xbed5996d	-0.41718617
145	0xbde75b71	-0.11296738
146	0x3dc99d73	0.09844484
147	0x3dc2c48f	0.09510147
148	0x3c5aafbe	0.013347564
149	0x3ecafae1	0.3964453
150	0xbe8ea1ec	-0.27857912
151	0xbed0627b	-0.40700135
152	0xbe27ee13	-0.16399412
153	0x3e8018dd	0.2501897
154	0xbe8fdc87	-0.28097937
155	0x3ea9494d	0.33063737
156	0x3e393d1e	0.1808972
157	0x3e7d5047	0.24737655
158	0xbdb319ad	-0.08745132
159	0x3db155e5	0.08658961
160	0x3e0adaa7	0.13559972
161	0xbca71e27	-0.02040012
162	0xbd912f37	-0.07089084
163	0x3eac533b	0.3365725
164	0x3cfe0f8e	0.031013276
165	0x3de0b321	0.10971666
166	0xbeff1034	-0.4981705
167	0x3e667180	0.22504234
168	0x3e95049b	0.29105076
169	0xbdf87bd3	-0.121329926
170	0x3cae2cb8	0.021261558
171	0x3c3d8c3f	0.011569082
172	0x3e002213	0.12512998
173	0x3ae15ee3	0.0017194416
174	0xbf07832a	-0.52934515
175	0xbba07dde	-0.004897817
176	0x3ddef365	0.108862676
177	0x3d2d52d6	0.042315327
178	0xbe7ec090	-0.24878144
179	0x3e494bb2	0.19657782
180	0x3e2e96ab	0.17049663
181	0xbea37a56	-0.31929272
182	0x3e9ab941	0.30219463
183	0xbea44585	-0.3208429
184	0x3d2d85f8	0.04236409
185	0x3da24cd7	0.07924812
186	0xbe81d2ee	-0.2535624
187	0xbd3d6bcb	-0.046245378
188	0xbe9bba13	-0.304154
189	0xbd53a304	-0.051669136
190	0x3e6e8180	0.23291588
191	0x3e3dc210	0.1853106
192	0xbd566596	-0.052342974
193	0x3e75a666	0.23989257
194	0x3e1fb2da	0.1559557
195	0x3cd157bf	0.025554536
196	0xbe00aad3	-0.12565164
197	0xbd1be9b5	-0.038064677
198	0xbc1cc816	-0.009569189
199	0xbead29b1	-0.3382087
200	0xbdf9493a	-0.1217217
201	0xbd83423d	-0.06409118
202	0x3d891f41	0.06695414
203	0xbe4e886d	-0.2016923
204	0xbebee44d	-0.37283555
205	0x3cc7bd1e	0.02438217
206	0xbbe03cad	-0.0068431706
207	0xbe17584d	-0.14779778
208	0x3daf8e8c	0.085721105
209	0x3e7a2a92	0.24430302
210	0x3e878692	0.26469857
211	0xbe75068f	-0.23928283
212	0x3e80966e	0.2511477
213	0xbe6273b7	-0.22114454
214	0xbe6882fb	-0.22706215
215	0xbe99ab37	-0.3001344
216	0xbeb3e706	-0.35137194
217	0xbe32a30f	-0.17445014
218	0xbdf843e6	-0.121223256
219	0xbd1aaa96	-0.03776034
220	0x3da5211a	0.08062954
221	0xbd96bdb0	-0.07360399
222	0xbe1e3698	-0.15450513
223	0x3e285e40	0.16442204
224	0xbf00a8e3	-0.502577
225	0x3de9fce7	0.114251904
226	0x3ee9383c	0.45550716
227	0xbe6c2962	-0.23062661
228	0xbe1b90df	-0.15191983
229	0x3d6a257b	0.05716465
230	0x3e2534ce	0.16133425
231	0xbd90019b	-0.07031556
232	0xbe582d1b	-0.21110956
233	0x3cf6a825	0.030109474
234	0x3e5d7364	0.2162605
235	0x3ef014a4	0.46890748
236	0x3e1ce459	0.15321483
237	0x3e3183d7	0.17335449
238	0x3e2bdd17	0.16783558
239	0x3e6582a9	0.22413124
240	0x3ec87c4f	0.3915734
241	0x3e4de817	0.20108066
242	0x3e53ac62	0.20671228
243	0x3cf577e9	0.029964404
244	0x3d5cb6cf	0.053885277
245	0xbdf88d3d	-0.12136314
246	0x3df12540	0.11774683
247	0x3da4494c	0.08021793
248	0xbb3ec0b7	-0.0029106566
249	0x3d221d24	0.039578572
250	0x3e339031	0.17535473
251	0x3e4fa316	0.20277056
252	0xbed9a297	-0.4250686
253	0xbd68ec2b	-0.056865852
254	0xbdf9d45d	-0.12198708
255	0x3e85a42e	0.26101822

actor_mean.0.bias f4 [64]
0	0x3d095c7c	0.033535466
1	0xbcb69880	-0.022289515
2	0xbc5bd8ac	-0.013418358
3	0xbdf914b1	-0.1216215
4	0x3da35001	0.07974244
5	0xbd82a0cf	-0.06378328
6	0x3d1fd466	0.03902092
7	0xbd23ec75	-0.040020425
8	0x3d03bcb5	0.032162387
9	0xbd0627ea	-0.03275291
10	0xbce974c8	-0.028498068
11	0x3c742c4c	0.014903139
12	0x3da86c3a	0.082237676
13	0xbd3fdefa	-0.046843506
14	0x3d882a5f	0.06648707
15	0x3d86fe39	0.06591458
16	0x3d8fbcbe	0.070184216
17	0x3e03345b	0.12812941
18	0x3ccd637c	0.025071852
19	0x3d053a30	0.032526195
20	0x3d876bbc	0.066123456
21	0x3cd01ec8	0.025405303
22	0xbd363090	-0.044479907
23	0xbdc0ece9	-0.09420187
24	0x3da413f7	0.080116205
25	0x3bc8289b	0.006108356
26	0xbd2fa76c	-0.042884275
27	0x3d089483	0.033344757
28	0x3d5b2ecb	0.053511422
29	0xbd0c7a57	-0.03429636
30	0xbc05e0d8	-0.008171283
31	0xbd59ac26	-0.05314269
32	0xbd803ef0	-0.062620044
33	0xbd3225a3	-0.043492924
34	0x3d8e4e42	0.0694852
35	0xbd894a70	-0.06703651
36	0xbcf68fdb	-0.030097893
37	0x3dc54419	0.09632129
38	0xbd489156	-0.04896673
39	0x3d6d9ba1	0.058009747
40	0x3d683c1c	0.05669795
41	0xbd8abb79	-0.06774039
42	0x3d18dff7	0.037322965
43	0x3d96e313	0.0736753
44	0x3d3bb604	0.04582788
45	0x3c6f4638	0.014604144
46	0xbd5e0586	-0.054204486
47	0xbd18f772	-0.037345357
48	0xbc77dccf	-0.015128328
49	0xbde25555	-0.11051432
50	0x3cdc66fd	0.026904577
51	0xbd1d7d55	-0.038449604
52	0x3d2c5ef8	0.042082757
53	0x3d15b0cb	0.036545556
54	0x3b9a5123	0.0047093793
55	0x3d4cec37	0.05002996
56	0xbe0069b3	-0.12540321
57	0xbbeb9d49	-0.0071903807
58	0xbd580118	-0.052735418
59	0x3d1cf1a0	0.03831637
60	0x3bb73b58	0.005591791
61	0xbc11db1d	-0.008902338
62	0x3d883645	0.06650976
63	0xbdbbe63b	-0.09174772

actor_mean.2.weight f4 [64, 64]
0	0x3dd77a01	0.10521317
1	0x3dea89d8	0.11452073
2	0xbeab77d9	-0.33489874
3	0x3e5ce87d	0.21573062
4	0x3de54fbc	0.11196849
5	0xbd8f1566	-0.06986503
6	0x3e316363	0.1732307
7	0xbeda67d2	-0.42657334
8	0x3d421fe0	0.04739368
9	0xbd86e504	-0.0658665
10	0xbdf88d7a	-0.121363595
11	0x3cf715cf	0.030161766
12	0x3e488824	0.19583184
13	0xbe4bf197	-0.19916378
14	0xbe30cdcd	-0.17266007
15	0x3e28dd36	0.16490635
16	0xbe0b3389	-0.13593878
17	0xbe10cb72	-0.14140108
18	0xbdc03581	-0.09385205
19	0xbe018080	-0.12646675
20	0xbe4cd9ea	-0.20005003
21	0x3d73ea54	0.059549645
22	0xbddf9f6c	-0.10919079
23	0xbef68034	-0.48144686
24	0x3ed433d9	0.41445807
25	0xbd1bf2bd	-0.03807329
26	0xbea02709	-0.3127978
27	0xbd9ef92f	-0.07762372
28	0xbe847f5f	-0.25878426
29	0x3c247f20	0.010040075
30	0x3e1e7718	0.15475118
31	0xbe1b8448	-0.1518718
32	0x3e00dd03	0.1258431
33	0x3b5a1d0a	0.0033281469
34	0x3e933f31	0.2875915
35	0xbd4d6c76	-0.050152265
36	0x3dfbed4a	0.12301119
37	0xbd9c03b9	-0.076178975
38	0x3d9e3415	0.077247776
39	0x3eca20d4	0.3947817
40	0x3e906a99	0.28206328
41	0xbe83d4c2	-0.2574826
42	0x3de4ae0b	0.111660086
43	0xbdf2e2b1	-0.11859644
44	0x3e270655	0.16311009
45	0xbe89ea42	-0.26936537
46	0x3e4de8f7	0.201084
47	0xbd5c9e31	-0.0538618
48	0x3cb367c2	0.021900062
49	0xbdcbe877	-0.099564485
50	0x3dbc8bf8	0.092063844
51	0xbea2a028	-0.31762815
52	0xbd0475ac	-0.032338783
53	0xbcd3e40c	-0.025865577
54	0xbeb9a0a7	-0.3625538
55	0x3bde6946	0.006787452
56	0xbe8cf191	-0.2752805
57	0xbdf0da23	-0.11760356
58	0x3c4d68f5	0.012537231
59	0x3e969b58	0.29415393
60	0xbcb42a24	-0.02199275
61	0xbd9108f5	-0.070817865
62	0x3df633fa	0.120216325
63	0xbe68ff90	-0.2275374
64	0xbe4b5afc	-0.19858927
65	0xbe2d947a	-0.1695117
66	0xbdbfe60d	-0.093700506
67	0xbdd0fb69	-0.10204203
68	0x3ea553ff	0.32290646
69	0xbda28204	-0.07934955
70	0xbdaee0d3	-0.085389756
71	0xbda4720b	-0.080295645
72	0x3e81d1f5	0.25355497
73	0xbecb43ca	-0.39700156
74	0xbe121df8	-0.14269245
75	0x3e04440a	0.1291658
76	0x3e152984	0.14566618
77	0x3e69e982	0.22842982
78	0x3e65b9fe	0.22434232
79	0xbc6c50e9	-0.014423587
80	0x3db35ea5	0.087582864
81	0x3d6e14af	0.058125194
82	0x3d14aec5	0.036299486
83	0x3ea54bd1	0.32284406
84	0x3ca0db29	0.019635754
85	0xbde16021	-0.11004663
86	0xbe50ad44	-0.20378596
87	0xbb568102	-0.0032730703
88	0xbe2d8778	-0.16946208
89	0xbec3b56d	-0.38224354
90	0xbdc242df	-0.09485411
91	0xbdc72713	-0.0972425
92	0x3d9d5e3c	0.076839894
93	0xbe32aed9	-0.17449512
94	0x3e6983ab	0.22804134
95	0xbed1d384	-0.40981686
96	0x3d9b95b8	0.07596916
97	0x3e295d45	0.16539486
98	0xbc59ccbb	-0.01329344
99	0xbe46c333	-0.194104
100	0x3dc794f6	0.09745209
101	0x3e5f7a32	0.21823958
102	0xbe5b3c3e	-0.214097
103	0x3e4b7910	0.198704
104	0x3d1e7048	0.0386813
105	0xbc9fd670	-0.019511431
106	0x3e94195e	0.28925604
107	0x3e38298c	0.17984599
108	0x3c91e0f8	0.017807469
109	0xbe280079	-0.1640643
110	0xbd2f5bf4	-0.042812303
111	0xbe8426a8	-0.25810742
112	0x3d719cfe	0.05898761
113	0xbe5e4454	-0.21705753
114	0x3d94cbc0	0.07265425
115	0xbd15f7c8	-0.036613256
116	0x3e883353	0.26601657
117	0xbe10ae66	-0.14129028
118	0xbe691987	-0.22763644
119	0x3e5bd430	0.21467662
120	0x3de72c05	0.11287693
121	0xbebfe36b	-0.37478194
122	0x3e00f488	0.12593281
123	0xbd3fcead	-0.04682796
124	0xba61f320	-0.00086192973
125	0xbe80dfb4	-0.25170672
126	0xbe065c74	-0.13121206
127	0xbd00ddb7	-0.031461444
128	0x3e0960c2	0.13415816
129	0x3e57b4f6	0.21065125
130	0x3e38af7a	0.18035689
131	0xbeb4bb6e	-0.35299248
132	0xbde61af8	-0.11235613
133	0xbd645fa9	-0.05575529
134	0xbe5c46a0	-0.21511316
135	0x3d8c8a21	0.068622835
136	0x3b15aafc	0.002283751
137	0xbdaa81f3	-0.08325567
138	0xbe4e4a70	-0.20145583
139	0x3d15af1c	0.03654395
140	0xbe198a3f	-0.14994143
141	0xbd0769b8	-0.033059806
142	0x3e479a89	0.19492544
143	0x3e5b7bab	0.21433894
144	0x3d4fcadf	0.050730582
145	0xbde5744a	-0.11203821
146	0xbdd75a61	-0.10515285
147	0x3e00775d	0.12545533
148	0x3d55a9ea	0.052163996
149	0xbefb7db9	-0.49119356
150	0x3e777cc7	0.24168693
151	0x3d847239	0.06467099
152	0xbe70b865	-0.23507841
153	0x3e1af711	0.15133311
154	0x3d318716	0.04334172
155	0xbe7a3904	-0.24435812
156	0xbebbc547	-0.36673948
157	0xbc9e6fef	-0.019340483
158	0xbdf75915	-0.12077538
159	0x3e9af4cd	0.30264893
160	0x3e936330	0.28786612
161	0x3d366922	0.044533856
162	0xbd7ee7f2	-0.06223292
163	0x3f074e15	0.5285352
164	0x3e05e527	0.13075696
165	0x3d5b5f7e	0.053557865
166	0x3e8cf8b7	0.27533504
167	0x3c9bb519	0.019007253
168	0xbdd08836	-0.1018223
169	0xbdee8ddc	-0.11648151
170	0x3e04e3f4	0.12977582
171	0xbd6964cd	-0.056980897
172	0x3e918a0c	0.28425634
173	0x3cb12474	0.021623828
174	0xbe339af8	-0.17539585
175	0x3edbae7d	0.42906561
176	0xbe79e948	-0.24405396
177	0xbdfc46a8	-0.12318164
178	0xbc9fd3d9	-0.019510197
179	0x3c61a183	0.013771418
180	0xbd3f17ac	-0.046653435
181	0xbe0dfe62	-0.1386657
182	0xbe243c83	-0.16038708
183	0x3e1eb0bb	0.15497105
184	0x3e53ae42	0.20671943
185	0x3e80d4c2	0.2516232
186	0xbe88c6e5	-0.26714244
187	0x3d3721b6	0.044709884
188	0x3e820b32	0.25399166
189	0xbe2aff74	-0.1669901
190	0x3da47c3e	0.0803151
191	0xbc84e9d6	-0.016224783
192	0x3cb5969c	0.022166543
193	0xbe289e12	-0.16466549
194	0x3ec7e194	0.3903929
195	0xbe20cd2e	-0.1570327
196	0x3e3fb6bd	0.18722053
197	0x3e1bd8ac	0.15219373
198	0x3deb33f7	0.11484521
199	0x3e44d3ba	0.19221392
200	0x3ebcf599	0.36906126
201	0x3e11d0ec	0.14239854
202	0x3d3d51f8	0.04622075
203	0xbcb94222	-0.022614542
204	0xbe9611c2	-0.29310423
205	0xbdcb0caa	-0.09914525
206	0xbcf92bbc	-0.030416362
207	0xbd376a0b	-0.044778865
208	0xbde2d5a0	-0.11075902
209	0x3e61579c	0.22006077
210	0xbe29a457	-0.16566597
211	0x3e293aa7	0.1652628
212	0x3e315c74	0.17320424
213	0x3e2d56fa	0.1692771
214	0x3b9b1d3f	0.004733711
215	0xbe904ae6	-0.28182143
216	0x3df713e4	0.12064341
217	0xbe32f76f	-0.17477201
218	0x3d872803	0.065994285
219	0x3e6af37f	0.22944449
220	0x3e8e16f8	0.277519
221	0xbe407695	-0.18795235
222	0x3c0ae7c0	0.008478105
223	0xbe81ea9a	-0.253743
224	0xbe024d3b	-0.12724774
225	0xbc90de54	-0.01768414
226	0x3e9725e8	0.29521108
227	0x3e62c352	0.22144821
228	0x3dee13cc	0.1162487
229	0xbdb26b2a	-0.08711846
230	0xbe85d4ac	-0.26138818
231	0x3dfc6839	0.123245664
232	0x3e7a96a6	0.2447153
233	0xbecac7b0	-0.39605474
234	0xbdbbe60d	-0.09174738
235	0xbe558584	-0.20851713
236	0x3de2c269	0.11072237
237	0xbe51db2d	-0.20493765
238	0x3eb61f84	0.3557092
239	0x3dc7f0b0	0.09762704
240	0xbd9f9e33	-0.07793846
241	0xbb0b1033	-0.0021219372
242	0xbe7189c2	-0.23587707
243	0x3ca1d311	0.019753965
244	0x3d7a1f4c	0.061065003
245	0xbe0322fc	-0.12806314
246	0xbe746d8b	-0.23869912
247	0x3e399968	0.18124926
248	0x3d6c6e89	0.057722602
249	0xbe3220a4	-0.17395264
250	0xbdde115b	-0.10843154
251	0x3deebb80	0.116568565
252	0xbe9f1267	-0.31068727
253	0xb95da7b4	-0.00021138677
254	0xbdae36fb	-0.085065804
255	0xbd8e1c1b	-0.069389544

actor_mean.2.bias f4 [64]
0	0x3d087e18	0.033323377
1	0x3db93111	0.09042562
2	0xbc8a61a0	-0.016892254
3	0x3cf15770	0.029460639
4	0x3c4fa53f	0.012673675
5	0x3c92900a	0.017890949
6	0x3d587adf	0.052851554
7	0xbb5d5f4b	-0.0033778723
8	0xbd809da9	-0.06280071
9	0xbc0f3c75	-0.008742441
10	0xbba68cfd	-0.005082725
11	0xbdb1dfb7	-0.08685248
12	0x3cee57a1	0.02909452
13	0x3c6560e0	0.014000148
14	0xbd1e92c1	-0.038714174
15	0xbc3db0cb	-0.011577795
16	0x3d525ad1	0.05135614
17	0xbd1e0059	-0.03857455
18	0x3d8bd5e6	0.06827907
19	0xbd5365e2	-0.051610835
20	0xbd6c8fe3	-0.05775441
21	0xbd74a38e	-0.05972629
22	0xbd22f1a2	-0.03978122
23	0xbd0ff615	-0.03514679
24	0x3d0e8889	0.03479818
25	0x3d125e9f	0.03573477
26	0xbc353ffa	-0.0110626165
27	0x3c123004	0.008922581
28	0x3c98fc8c	0.018675111
29	0xbd5f34ba	-0.054493643
30	0xbc29151d	-0.010319975
31	0xbd7de270	-0.061983526
32	0xbdb6c5bc	-0.089244336
33	0x3d957b82	0.07298948
34	0x3d6230a8	0.055222183
35	0xbd0ebed9	-0.034849975
36	0xbd741afc	-0.059596047
37	0x3d834126	0.064089105
38	0xbd72f259	-0.059313152
39	0xbd952785	-0.072829284
40	0x3d08c001	0.033386234
41	0xbcfbf409	-0.030756013
42	0x3ca35c13	0.019941365
43	0xbd037321	-0.032092217
44	0xbb11f71a	-0.0022272528
45	0x3d7bdd88	0.061490566
46	0x3db610b8	0.088899076
47	0x3d3b5cb1	0.045742694
48	0xbdcdc0be	-0.10046528
49	0x3d872e47	0.066006236
50	0xbd362064	-0.044464484
51	0xbd8ce63d	-0.06879852
52	0xbe10ad8b	-0.14128701
53	0xbc5aebd4	-0.01336189
54	0xbd7428f0	-0.059609354
55	0xbd1cd14e	-0.038285546
56	0xbc625e9f	-0.013816505
57	0x3b533824	0.0032229507
58	0xbda26376	-0.07929127
59	0xbc2ca216	-0.010536691
60	0xbcaf3426	-0.021387171
61	0x3c6736b5	0.014112164
62	0x3cd81ec8	0.026381865
63	0x3c92b7c8	0.0179099

actor_mean.4.weight f4 [1, 64]
0	0xbd43939a	-0.047748186
1	0x3bcab194	0.0061857197
2	0x3c6e67a8	0.014551081
3	0xbd02c43d	-0.03192543
4	0xbc69f8fd	-0.014280555
5	0xbd3053a4	-0.043048516
6	0xbbe661bf	-0.007030695
7	0xbb99e035	-0.004695917
8	0xbb3984ae	-0.0028307843
9	0xbd7f0927	-0.062264588
10	0x3c28cf6a	0.010303358
11	0xbc024862	-0.007951828
12	0xbd207e87	-0.039183166
13	0xbb5424bf	-0.0032370535
14	0xbc5e548c	-0.013569962
15	0x3c2f9717	0.010717175
16	0x3d2ac341	0.041690115
17	0x3d44bc99	0.048031423
18	0xbcdc7010	-0.026908904
19	0x3c174492	0.009232657
20	0x3da246c2	0.07923652
21	0x3c91f3da	0.017816473
22	0x3dbdd25c	0.092686385
23	0x3d9dddd4	0.07708326
24	0xbd064951	-0.032784764
25	0xbb7686fd	-0.003761708
26	0x3cb6d7ef	0.022319762
27	0xbb241d6d	-0.0025041953
28	0x3c78bd66	0.015181875
29	0x3d0aeb53	0.03391583
30	0x3ba5a71e	0.0050553223
31	0x3d0ee5e9	0.03488723
32	0xbca182b2	-0.01971564
33	0xbd491cd6	-0.049099766
34	0xbd3496fc	-0.044089302
35	0x3d72fb8b	0.05932192
36	0xbd127638	-0.035757273
37	0xbd4e03ef	-0.05029672
38	0x3d4ee9c1	0.050515894
39	0xbd208e85	-0.039198417
40	0xbd1540a2	-0.03643859
41	0x3d3b5dfa	0.04574392
42	0xbd238163	-0.039918315
43	0x3d9c36ce	0.07627641
44	0x3cbf54fa	0.02335595
45	0xbc7c6966	-0.015405988
46	0x3ad87070	0.0016513001
47	0xbbaef9c5	-0.0053398334
48	0x3c82df20	0.015975535
49	0xbd3ea123	-0.04654039
50	0x3d509186	0.050920032
51	0x3d2a9d0d	0.04165368
52	0xbc692415	-0.014229794
53	0x3d22eff6	0.039779626
54	0x3d23d9af	0.04000252
55	0xbd112a37	-0.03544065
56	0x3da379d7	0.079822235
57	0x3b201ba2	0.0024430533
58	0x3c2b5c45	0.0104590105
59	0x3bd0d7ae	0.0063733673
60	0x3d160fd4	0.03663619
61	0xbcd847f6	-0.026401501
62	0xbd6b3bff	-0.057430264
63	0xbb52dfea	-0.003217692
