part1/ppo/InvertedPendulumBulletEnv-v0_PPO_1_1637603776_ppo.pth (torch, 40894 bytes, 10 tensors)

critic.0.weight f4 [64, 5]
-0.2134123 -0.064489365 0.2690579 -0.2436987 0.078310445 -0.14386152 0.21465923 0.07237694
-0.06510581 0.24297366 0.09449029 0.049904153 -0.095547095 -0.050900627 -0.048138622 -0.4408886
-0.08081627 -0.26366457 -0.21823427 -0.056573406 -0.012708473 0.013427617 -0.0006517665 0.0062540057
-0.12075402 0.34828755 0.19556788 -0.19039488 -0.2066725 0.10329513 -0.17922011 -0.14439756
-0.16914691 -0.008314351 -0.078709535 0.3972548 0.11931955 -0.55851793 -0.24866228 0.10568639
0.033746358 -0.30988863 0.16901726 0.2781463 0.06736516 0.13595344 0.12472688 0.4007624
0.16627489 0.11673759 0.3752636 0.1205943 -0.39592734 -0.12431563 0.043930575 0.07016845
0.0900961 -0.056771584 -0.06816807 -0.08148112 -0.24344549 -0.2845924 0.4095624 -0.38537878
-0.0508231 0.11129254 0.114084095 0.08826817 -0.015229762 0.15791231 0.25983742 -0.12162526
-0.05752944 0.2367418 -0.19499683 0.23053135 -0.41618955 -0.03900576 -0.31202582 -0.022689588
0.28606996 0.31673312 0.051021162 0.11595107 0.18609464 -0.08834017 -0.09624097 0.1929604
0.005893148 -0.15317379 -0.097743124 -0.1307455 -0.029236132 -0.11754225 -0.11476287 0.13669875
-0.045499373 0.012263073 -0.082076505 -0.07589461 0.15125053 0.10551254 0.0020813837 -0.08413633
-0.19143221 -0.3299738 -0.47665942 0.54385895 -0.5491382 -0.08676065 0.0075641726 -0.24005029
-0.37722117 0.08298947 0.100857735 0.2845367 0.072314166 -0.17912084 -0.04203907 -0.059867654
0.17411765 0.15918952 0.078480564 -0.07043724 -0.09746603 0.050134096 0.079824895 -0.20338848
0.02959568 0.23602802 -0.0015965544 0.0053410423 0.0031004117 0.14383452 -0.034939986 -0.3803365
-0.15529732 0.50340116 -0.260166 -0.037179433 0.19961004 0.14944275 -0.1482308 -0.055842943
0.07980401 -0.08731004 0.12465894 0.36279553 0.07827073 0.13034327 0.13707002 0.16978651
-0.23757209 0.10371242 0.25495854 -0.002436187 -0.18668033 0.17259234 0.34108475 0.10502131
0.14259854 0.24246463 0.06211731 -0.39190856 0.11880359 -0.02883225 0.08330346 0.10239691
-0.042091135 0.17399739 0.20251748 0.035330273 -0.080001265 0.39654347 0.2269571 0.05511064
-0.15061106 -0.43687978 0.019380925 -0.13991271 0.28314528 0.17113677 -0.070677474 -0.132904
-0.036761504 0.07483965 -0.044096094 0.080680676 0.19628438 0.12869416 0.19548507 0.13769563
-0.061542567 0.090307705 0.06188012 0.059711233 0.006479435 0.2781802 -0.10963257 0.21747623
-0.3014694 -0.03984998 0.4299476 -0.20009604 -0.34824723 -0.17138252 -0.048278634 -0.34821022
0.13460015 -0.22814481 0.19254604 -0.008262179 -0.06931715 0.14393507 0.086278275 0.48900217
-0.30516982 0.15264605 -0.08126891 -0.27592748 0.30259112 0.0738414 -0.23293142 -0.20078997
-0.005107004 -0.031104634 0.15368176 -0.0060406798 -0.16383447 -0.11856478 0.08693831 -0.2204875
-0.19598742 -0.28256607 0.10832852 -0.31669027 -0.23847166 0.27607155 -0.17057882 -0.16872221
-0.31893954 -0.17299668 0.014923167 -0.15204126 -0.09975359 -0.21677464 0.3150145 -0.0027673552
-0.07470545 0.36340213 0.32839704 0.2695515 -0.030059079 0.3162932 0.05843417 0.26835087
00000000: c188 5abe 0013 84bd f5c1 893e 278c 79be
00000010: 3a61 a03d 6f50 13be a1cf 5b3e 5c3a 943d
00000020: 3256 85bd 16ce 783e 2084 c13d 4c68 4c3d
00000030: 32ae c3bd 2d7d 50bd 012d 45bd 27bc e1be
00000040: 0083 a5bd 0bff 86be ce78 5fbe 84b9 67bd
00000050: 3337 50bc 82ff 5b3c 4fdb 2aba 67ee cc3b
00000060: e24d f7bd bf52 b23e f242 483e e0f6 42be
00000070: f5a1 53be 668c d33d 7a85 37be f4dc 13be
00000080: d934 2dbe ea38 08bc 7732 a1bd fb64 cb3e
00000090: cf5d f43d 08fb 0ebf 53a1 7ebe 1b72 d83d
000000a0: 9f39 0a3d b9a9 9ebe dc12 2d3e 3169 8e3e
000000b0: bff6 893d 6137 0b3e ce70 ff3d bb30 cd3e
000000c0: f743 2a3e 1e14 ef3d 8d22 c03e 25fa f63d
000000d0: fdb6 cabe 3199 febd 8cf0 333d 7ab4 8f3d
000000e0: 4e84 b83d 5289 68bd b39b 8bbd 93df a6bd
000000f0: c649 79be 18b6 91be 2ab2 d13e 5e50 c5be
00000100: e22b 50bd 58ed e33d eca4 e93d f1c5 b43d
00000110: 4086 79bc c4b3 213e 6909 853e aa16 f9bd
00000120: fda3 6bbd 716c 723e 40ad 47be 6910 6c3e
00000130: cc16 d5be 81c4 1fbd d9c1 9fbe 84df b9bc
00000140: c377 923e d82a a23e 91fb 503d c177 ed3d
00000150: 988f 3e3e b1eb b4bd fc19 c5bd 6997 453e
00000160: 4f1b c13b 97d9 1cbe 8c2d c8bd 26e2 05be
00000170: 9d80 efbc feb9 f0bd cc08 ebbd c2fa 0b3e
00000180: 8d5d 3abd 0eeb 483c ba17 a8bd a26e 9bbd
00000190: 6be1 1a3e f516 d83d d367 083b ab4f acbd
000001a0: ce06 44be 53f2 a8be b40c f4be 573a 0b3f
000001b0: 5294 0cbf 91af b1bd e1dc f73b becf 75be
000001c0: 2223 c1be 62f6 a93d 808e ce3d cbae 913e
000001d0: 7319 943d 746b 37be 2931 2cbd c937 75bd
000001e0: e64b 323e 9402 233e 6bba a03d 6641 90bd
000001f0: 459c c7bd 6959 4d3d 3c7b a33d 1245 50be
00000200: a472 f23c 54b1 713e 7a43 d1ba e903 af3b
00000210: 4730 4b3b 5b49 133e 3b1d 0fbd 77bb c2be
00000220: 4306 1fbe e6de 003f 7a34 85be 7649 18bd
00000230: 9366 4c3e 8507 193e d1c9 17be 92bb 64bd
00000240: 4970 a33d 9bcf b2bd 304d ff3d 56c0 b93e
00000250: 684c a03d b578 053e 155c 0c3e 84dc 2d3e
00000260: 1946 73be 2d67 d43d ed89 823e 6fa8 1fbb
00000270: 2129 3fbe 0cbc 303e a9a2 ae3e 6a15 d73d
00000280: 5a05 123e a648 783e b86e 7e3d 3da8 c8be
00000290: 4c4f f33d 9c31 ecbc 019b aa3d 79b5 d13d
000002a0: c167 2cbd 5f2c 323e be60 4f3e 7ab6 103d
000002b0: b4d7 a3bd bf07 cb3e 7167 683e b2bb 613d
000002c0: c939 1abe b5ae dfbe bfc4 9e3c 4745 0fbe
000002d0: 6bf8 903e 7a3e 2f3e 5abf 90bd fc17 08be
000002e0: 3b93 16bd 8845 993d 1b9e 34bd e93b a53d
000002f0: c6fe 483e 67c8 033e 3d2d 483e 1500 0d3e
00000300: 0f14 7cbd 3ff3 b83d 0276 7d3d c493 743d
00000310: 7151 d43b a36d 8e3e 0a87 e0bd 17b2 5e3e
00000320: 325a 9abe bc39 23bd 1822 dc3e fae5 4cbe
00000330: 764d b2be e67e 2fbe d1bf 45bd 9c48 b2be
00000340: 9fd4 093e cb9e 69be ca2a 453e 175e 07bc
00000350: 26f6 8dbd b763 133e aab2 b03d 7e5e fa3e
00000360: 383f 9cbe 3f4f 1c3e 5070 a6bd 5e46 8dbe
00000370: 39ed 9a3e 293a 973d 9385 6ebe e39b 4dbe
00000380: a858 a7bb 25cf febc c05e 1d3e e5f0 c5bb
00000390: 39c4 27be 17d2 f2bd b60c b23d 7ac7 61be
000003a0: edb0 48be 80ac 90be 58db dd3d 3a25 a2be
000003b0: ea31 74be 4059 8d3e 37ac 2ebe 84c5 2cbe
000003c0: 0b4c a3be 0b26 31be 4d80 743c b4b0 1bbe
000003d0: 9c4b ccbd 2cfa 5dbe 9549 a13e 845c 35bb
000003e0: 2cff 98bd d80f ba3e a823 a83e a702 8a3e
000003f0: 753e f6bc 2ff1 a13e ab58 6f3d 4965 893e

critic.0.bias f4 [64]
0.16645296 0.17665821 -0.1442106 -0.064622566 -0.14033605 -0.22193985 0.20632945 -0.2405921
-0.11598442 -0.14023808 -0.26620942 0.084926024 0.19225354 -0.13969506 0.09534057 -0.020270664
0.090088 -0.10456708 0.17449814 -0.1395715 -0.1123426 0.2518734 -0.11225039 0.10141631
0.03734174 0.08897373 -0.120564245 0.34052038 -0.207965 -0.058021534 0.052226152 -0.104053326
-0.093259625 -0.09280642 -0.15953276 -0.06597384 -0.15852882 -0.114719264 -0.21243013 -0.0956577
0.28523126 -0.088139504 0.10075248 0.122026324 -0.18324271 -0.069326065 0.045369484 0.2876695
0.22469282 0.108906 0.07032855 0.021454649 0.08671439 -0.1626203 0.08675558 0.12418371
-0.12736641 -0.11209772 0.10470373 0.1077678 -0.17395371 0.12724811 0.10698775 0.18969372
00000000: a572 2a3e e4e5 343e f2ab 13be d658 84bd
00000010: 41b4 0fbe 3344 63be 0748 533e c75d 76be
00000020: 3d89 edbd 929a 0fbe 9a4c 88be b2ed ad3d
00000030: 1dde 443e 390c 0fbe eb41 c33d aa0e a6bc
00000040: 0f80 b83d 4427 d6bd a4af 323e d5eb 0ebe
00000050: e113 e6bd 8df5 803e 88e3 e5bd 5bb3 cf3d
00000060: a7f3 183d dc37 b63d 63ea f6bd b058 ae3e
00000070: c7f4 54be fda7 6dbd 17eb 553d e919 d5bd
00000080: e7fe bebd 4b11 bebd 8e5c 23be 4b1d 87bd
00000090: 6155 22be eff1 eabd 4987 59be 2fe8 c3bd
000000a0: d509 923e 7c82 b4bd 5157 ce3d f0e8 f93d
000000b0: faa3 3bbe d3fa 8dbd 5ad5 393d 6b49 933e
000000c0: e015 663e 1c0a df3d 6a08 903d a9c1 af3c
000000d0: 5097 b13d f085 26be e9ac b13d 0754 fe3d
000000e0: 576c 02be 7d93 e5bd e96e d63d 5db5 dc3d
000000f0: ec20 32be 544d 023e 651c db3d 123f 423e

critic.2.weight f4 [64, 64]
0.22023138 -0.0912276 0.10859626 0.29200906 0.13376002 -0.16018847 0.011871833 -0.17217723
0.07585974 0.04566818 0.07382776 -0.09682517 0.3695384 0.034099165 -0.06859858 0.1935117
-0.20921285 0.056146827 0.022660049 0.060228296 0.00932 0.14730011 -0.10510873 -0.1518436
-0.16634403 -0.054486666 0.266572 -0.25204718 -0.09788407 0.069032736 -0.32379913 0.041335464
-0.08144337 -0.2504859 0.12737057 0.01619182 -0.074295916 0.08456471 -0.18729736 0.3672984
-0.08470699 0.17035963 -0.2721568 0.17196427 0.17399907 0.0111847315 -0.27574417 -0.0497985
-0.05433235 0.2370487 0.23387551 -0.09913659 -0.027381947 -0.39206973 -0.44629374 -0.2831063
0.15052706 -0.10518359 0.018019555 -0.10218745 -0.1650588 -0.21917272 0.29202703 -0.1591211
0.6005311 0.29260057 -0.22648972 -0.047557436 -0.31313848 -0.25572166 0.43170232 -0.35627586
0.010621932 0.031777788 -0.28711116 0.031281352 0.09221868 -0.48029137 -0.08339374 -0.014738972
0.0583489 0.24561742 0.41374475 -0.21031253 -0.012549131 0.24320297 0.34215865 0.14480446
0.15089725 -0.30768263 -0.13041526 0.22083122 -0.22732808 -0.06041088 0.07980565 0.2654137
-0.28603712 -0.24646334 -0.17883444 -0.1031823 0.070435934 -0.38160458 -0.031653203 -0.1591367
0.23357376 -0.065162614 0.3710621 -0.26313266 0.08743746 0.0480194 -0.080674656 0.15943637
0.2784107 0.016623776 0.11623326 -0.2408128 0.24092515 -0.22007431 0.077318855 -0.091020584
-0.008748694 0.11131275 0.39783865 0.1034943 -0.33393878 0.36461523 0.3406213 0.3308487
-0.19548728 -0.21124706 -0.033365317 0.2509228 0.33936542 -0.007259897 -0.38846314 -0.07284127
0.059044 0.123662226 -0.014140228 -0.07233831 0.2579739 0.011412414 -0.252945 -0.22372755
0.057957377 0.42334402 -0.18366584 0.08517324 0.35708642 -0.29174656 -0.21069339 0.086054794
0.0925482 -0.046132203 -0.15139261 -0.09738127 0.08522418 0.09340327 0.12098844 0.21929455
0.35357183 -0.034792278 0.14668854 -0.35178742 0.27194065 0.17065932 0.25270596 -0.0887899
-0.42211205 -0.29719022 -0.18286687 -0.07450684 0.3146267 -0.033446096 -0.004337715 -0.111291714
-0.21921371 -0.25720024 -0.005473209 -0.31441355 -0.082574695 -0.3104015 0.21963961 0.06741638
-0.20184116 0.038922958 -0.12779471 -0.1929784 0.054178514 -0.2187178 -0.05400564 -0.060137972
0.3535984 0.19790938 -0.12075078 0.042842068 -0.3617348 -0.08687988 0.1045028 0.12679592
0.34647748 0.32642555 -0.1046296 -0.24988483 0.1788396 0.2817817 -0.06871077 -0.09059279
0.2730304 -0.09155495 0.09696144 -0.08794855 -0.030138679 -0.16310368 -0.05225036 -0.15280473
-0.09505075 -0.02072024 0.069495395 0.553906 0.1939004 0.17739362 0.22834358 0.057043977
0.058933754 0.17372043 0.4785622 0.046082895 -0.28434396 0.2795512 -0.051236574 0.16279455
-0.033461854 -0.19968244 0.034792986 0.16053261 0.12695016 0.07777712 0.0043512634 0.2825245
-0.17350227 0.14262697 0.027437534 0.047887858 -0.22039875 0.050902326 0.21591564 0.122844845
0.049303457 -0.1341794 0.0009594737 0.05366731 -0.40608528 -0.05377563 -0.1784792 0.3751384
00000000: 5684 613e 89d5 babd b767 de3d 3682 953e
00000010: 63f8 083e 7208 24be 1482 423c 3a4f 30be
00000020: 5a5c 9b3d 8f0e 3b3d 0233 973d 464c c6bd
00000030: 2334 bd3e 91ab 0b3d 6a7d 8cbd ee27 463e
00000040: e53b 56be 37fa 653d 91a1 b93c f2b1 763d
00000050: eab2 183c d7d5 163e 3f43 d7bd e47c 1bbe
00000060: 1756 2abe 692d 5fbd 207c 883e 540c 81be
00000070: 7177 c8bd 0961 8d3d 00c9 a5be 604f 293d
00000080: c8cb a6bd b03f 80be 6e6d 023e b5a4 843c
00000090: 7528 98bd 4330 ad3d e1ca 3fbe 890e bc3e
000000a0: dc7a adbd c172 2e3e 2358 8bbe 6717 303e
000000b0: d02c 323e 2a40 373c 572e 8dbe 83f9 4bbd
000000c0: 998b 5ebd e5bc 723e 107d 6f3e 2008 cbbd
000000d0: 1b50 e0bc 5dbd c8be 9d80 e4be 4ff3 90be
000000e0: c423 1a3e 7e6a d7bd bf9d 933c a747 d1bd
000000f0: 2d05 29be d06e 60be 9184 953e a4f0 22be
00000100: 68bc 193f becf 953e ecec 67be 96cb 42bd
00000110: b053 a0be f3ed 82be 1608 dd3e ca69 b6be
00000120: 9d07 2e3c 6d29 023d 3c00 93be e020 003d
00000130: 26dd bc3d c0e8 f5be 56ca aabd bb7b 71bc
00000140: 42ff 6e3d 2283 7b3e 5ad6 d33e 2b5c 57be
00000150: df9a 4dbc 330a 793e 6b2f af3e 9f47 143e
00000160: cf84 1a3e 9488 9dbe 948b 05be 9421 623e
00000170: b1c8 68be 6671 77bd 2571 a33d 4ee4 873e
00000180: 7573 92be e360 7cbe 6020 37be 3e51 d3bd
00000190: b740 903d ad61 c3be caa6 01bd bbf4 22be
000001a0: f62d 6f3e fa73 85bd dafb bd3e 53b9 86be
000001b0: 6912 b33d feaf 443d c138 a5bd 4a43 233e
000001c0: d98b 8e3e 962e 883c b40b ee3d a197 76be
000001d0: 15b5 763e 295b 61be 5959 9e3d 0069 babd
000001e0: af56 0fbc f0f7 e33d 82b1 cb3e d2f4 d33d
000001f0: 06fa aabe d9ae ba3e ea65 ae3e 0065 a93e
00000200: d12d 48be 2651 58be 12aa 08bd f478 803e
00000210: 4ec1 ad3e 6ee4 edbb a4e4 c6be ce2d 95bd
00000220: 1fd8 713d 9f42 fd3d 6aac 67bc 1c26 94bd
00000230: 2815 843e 22fb 3a3c 0282 81be d618 65be
00000240: b764 6d3d 8cc0 d83e e612 3cbe 4f6f ae3d
00000250: 08d4 b63e ce5f 95be 02c0 57be 7f3d b03d
00000260: e989 bd3d 1ff5 3cbd aa06 1bbe d56f c7bd
00000270: 048a ae3d 374a bf3d cac8 f73d c08e 603e
00000280: 5e07 b53e 5982 0ebd 8535 163e 7b1d b4be
00000290: ce3b 8b3e 51c1 2e3e ad62 813e 7bd7 b5bd
000002a0: 121f d8be 5129 98be 7441 3bbe 0b97 98bd
000002b0: c016 a13e c6fe 08bd 6423 8ebb e9ec e3bd
000002c0: 8f79 60be c0af 83be 9b58 b3bb d0fa a0be
000002d0: ec1c a9bd f2ec 9ebe 35e9 603e 9911 8a3d
000002e0: 73af 4ebe ae6d 1f3d 9edc 02be 219c 45be
000002f0: 4aea 5d3d 8ff7 5fbe 0535 5dbd 3c53 76bd
00000300: d90a b53e c2a8 4a3e 2f4c f7bd 2a7b 2f3d
00000310: 4e35 b9be 14ee b1bd 9005 d63d cad6 013e
00000320: 7f65 b13e 4021 a73e 0b48 d6bd cfe1 7fbe
00000330: ba21 373e b145 903e 3bb8 8cbd b688 b9bd
00000340: a4ca 8b3e 2981 bbbd b893 c63d 5f1e b4bd
00000350: 64e5 f6bc a704 27be 7904 56bd d878 1cbe
00000360: f8a9 c2bd 7ebd a9bc 9a53 8e3d c9cc 0d3f
00000370: d48d 463e aca6 353e e6d2 693e f2a6 693d
00000380: 8564 713d c5e3 313e 1b06 f53e 6bc1 3c3d
00000390: 8895 91be 5621 8f3e 71dd 51bd 9db3 263e
000003a0: 4c0f 09bd 8e79 4cbe 1783 0e3d a962 243e
000003b0: 39ff 013e 9c49 9f3d 0b95 8e3b 0da7 903e
000003c0: 94aa 31be ce0c 123e aec4 e03c 0f26 443d
000003d0: 36b0 61be f57e 503d fd18 5d3e 1496 fb3d
000003e0: 6cf2 493d 5366 09be 3185 7b3a 41d2 5b3d
000003f0: 69ea cfbe d643 5cbd 40c3 36be 2412 c03e

critic.2.bias f4 [64]
-0.08720993 0.12283701 -0.110126175 -0.022184089 -0.076358065 -0.15404913 0.109279975 0.00588048
-0.07496965 -0.08127967 -0.10271881 -0.080373146 -0.14915505 -0.090294935 0.078707255 -0.017590692
-0.16288942 -0.099913955 0.07570538 0.14624158 0.15514258 -0.07716037 -0.025007328 -0.08481539
0.08472554 -0.10409649 -0.10584848 0.124677986 -0.102050394 -0.077973746 -0.13109541 -0.13781218
-0.10652237 0.1394658 0.1429599 0.101980664 0.063966475 -0.114388905 0.08436203 0.08614102
-0.18187326 0.060665064 -0.08006363 -0.08012527 -0.07656064 -0.09508442 0.10945927 -0.06718914
-0.023320556 -0.08023104 -0.005244189 0.06707526 -0.113682434 -0.09806997 0.106715 -0.11394229
-0.10225097 0.08743568 -0.10138617 -0.11382801 -0.11368527 0.13158792 -0.09023806 -0.069808826
00000000: 1f9b b2bd f891 fb3d d589 e1bd 68bb b5bc
00000010: 9e61 9cbd 0ebf 1dbe 2ece df3d 0bb1 c03b
00000020: b089 99bd f575 a6bd 3d5e d2bd ad9a a4bd
00000030: 1abc 18be 8dec b8bd 4531 a13d 5b1a 90bc
00000040: 7ccc 26be b09f ccbd 6c0b 9b3d 5ac0 153e
00000050: b2dd 1e3e 4206 9ebd 2bdc ccbc b1b3 adbd
00000060: 9584 ad3d 8a30 d5bd 16c7 d8bd 2c57 ff3d
00000070: ccff d0bd b3b0 9fbd e03d 06be a31e 0dbe
00000080: 6628 dabd 1fd0 0e3e 1464 123e 3ddb d03d
00000090: db00 833d bb44 eabd 00c6 ac3d b46a b03d
000000a0: fc3c 3abe ee7b 783d 67f8 a3bd b818 a4bd
000000b0: d3cb 9cbd 9fbb c2bd 2f2c e03d 769a 89bd
000000c0: c00a bfbc 2c50 a4bd 72d7 abbb c15e 893d
000000d0: 56d2 e8bd e9d8 c8bd 658d da3d 935a e9bd
000000e0: f568 d1bd 7a11 b33d 8da3 cfbd a91e e9bd
000000f0: d3d3 e8bd fcbe 063e bbce b8bd eef7 8ebd

critic.4.weight f4 [1, 64]
-0.06929503 0.2631068 -0.25386086 -0.14034973 -0.14314026 -0.31837335 0.06326856 -0.3803675
-0.0939918 -0.12301124 -0.039327018 -0.12580585 -0.062618166 -0.17001547 0.2379569 -0.100158475
-0.039811954 -0.10820135 0.040020205 0.36336777 0.30440027 -0.082546376 -0.3511182 -0.081510454
0.056479387 -0.12964945 -0.33584505 0.07582925 -0.25943676 -0.07285842 -0.35949558 -0.058576632
-0.2622202 0.25248775 0.09648489 0.11866767 0.087388724 -0.3395701 0.089218855 0.13534512
-0.4057132 0.11503872 -0.19106188 -0.08218896 -0.027254507 -0.058845386 0.12801829 -0.13726719
-0.09372128 -0.26543534 0.3262014 0.06084714 -0.09823217 -0.027425325 0.06282208 -0.03437605
-0.28317487 0.116192326 -0.038776197 -0.03262701 -0.072532535 0.1457746 -0.32658228 -0.058877256
00000000: 8dea 8dbd efb5 863e 0dfa 81be d7b7 0fbe
00000010: 5c93 12be d501 a3be f292 813d 87bf c2be
00000020: c67e c0bd 51ed fbbd 5e15 21bd 40d3 00be
00000030: f43d 80bd 8918 2ebe f9aa 733e e31f cdbd
00000040: dc11 23bd ab98 ddbd 3aec 233d 570b ba3e
00000050: 5ada 9b3e 130e a9bd c4c5 b3be f4ee a6bd
00000060: ee56 673d d3c2 04be e2f3 abbe 5e4c 9b3d
00000070: e5d4 84be cc36 95bd ce0f b8be 0dee 6fbd
00000080: ba41 86be 1346 813e df99 c53d 0908 f33d
00000090: dcf8 b23d 22dc adbe 60b8 b63d e997 0a3e
000000a0: a4b9 cfbe 6c99 eb3d baa5 43be af52 a8bd
000000b0: d844 dfbc dc07 71bd 3a17 033e c58f 0cbe
000000c0: f1f0 bfbd 24e7 87be df03 a73e da3a 793d
000000d0: f32d c9bd 13ab e0bc dda8 803d e7cd 0cbd
000000e0: 4cfc 90be 3ef6 ed3d cad3 1ebd e6a3 05bd
000000f0: f08b 94bd f045 153e cb35 a7be 4729 71bd

actor_mean.0.weight f4 [64, 5]
-0.0848888 -0.4960729 0.18161495 0.010728979 -0.27518383 -0.124210656 -0.03166825 0.17852898
0.19496611 0.058545303 0.054250807 0.025802111 0.023180911 -0.4129866 -0.2754357 0.31159803
-0.18769056 -0.15074547 0.20458353 0.047476538 -0.10095885 0.19151461 0.19841897 -0.3940516
-0.15368535 -0.12810132 0.25481266 -0.20250337 0.014389867 0.14373316 -0.21838216 -0.032778285
0.113281414 0.061632268 -0.1253649 -0.14986639 0.2017972 0.09469072 -0.25028428 0.3045697
-0.041754853 -0.24693133 0.1149188 -0.25658146 -0.13849041 -0.05704225 -0.27551234 0.13180313
0.087725855 0.046871584 0.11300036 0.12323693 -0.0350306 -0.21222661 0.1850329 0.06289573
-0.041242145 0.34769976 0.037377514 0.6461821 -0.23489125 -0.3082727 -0.103088595 -0.05123364
0.0501693 0.14091197 -0.051737424 -0.4342976 -0.10839754 0.09711346 0.09000177 -0.21923631
-0.18270248 -0.09983573 -0.14082973 -0.09405037 0.009333898 -0.2521678 0.025536163 0.25618196
-0.23281445 0.14850044 0.14445418 -0.109599866 -0.002166998 0.076294445 0.17594223 -0.14267427
-0.18917874 0.46066463 0.018621882 -0.09715463 -0.21779104 -0.21223612 -0.36364397 -0.27321813
0.09816861 0.145528 -0.4664811 -0.031868793 0.12530711 0.019269459 0.048095398 0.012281876
-0.13305295 -0.18076433 0.1365344 -0.25955626 0.24272606 0.10737834 0.26111168 -0.01505961
0.26101953 0.11949661 0.3124826 0.17617042 -0.22982521 -0.18812463 -0.4085594 -0.11159639
0.03978321 -0.030398704 -0.064302914 -0.11052206 0.19740759 0.20829281 0.23963581 0.13677664
-0.09958591 0.19856419 -0.2286113 -0.16558029 0.14684378 -0.13033792 -0.4465551 -0.06322896
-0.062048607 -0.09688989 -0.11553226 -0.3019557 -0.10384962 -0.15641974 0.023060253 -0.309573
-0.3962693 -0.11888597 -0.11548211 0.20057334 0.07640133 -0.23407249 0.21874832 -0.18741739
-0.20495094 0.35733616 0.07006481 0.19005261 0.093017094 -0.21776837 -0.1413995 0.04646096
0.02504198 0.16050541 -0.25014022 0.09544587 0.3007272 -0.17622584 0.05478369 0.09416407
-0.5094866 0.04606821 0.13568129 -0.0068220366 -0.13693938 0.1172566 0.09726782 -0.1518716
-0.40798113 -0.2980526 -0.017212398 0.10459422 0.28157297 0.09770059 0.02695299 -0.04956724
0.07764974 0.053716067 0.07685007 -0.012372065 0.112021774 0.35289252 -0.029256871 0.08822951
0.052214608 -0.046327006 -0.12353742 -0.04330878 -0.17475882 -0.024871852 -0.4320189 -0.3957681
-0.045981742 0.12245442 -0.06348328 -0.2196414 -0.21385422 -0.34233737 -0.020316355 0.11420463
-0.2738479 -0.09572618 0.28225788 -0.043648906 -0.23725776 -0.021588495 0.12021779 -0.01670789
0.071941614 -0.4148568 -0.12340315 -0.14048177 -0.055082906 0.08657202 0.04289141 0.02323895
0.2606589 0.14669228 0.21134955 -0.13274565 0.25406528 0.3524685 -0.22499228 -0.417666
0.1107807 0.11131447 0.116011076 -0.06399226 -0.12198545 -0.104207724 0.121181786 0.0035783479
-0.24172732 -0.28805456 0.097130045 0.13311026 0.08224889 -0.32618472 -0.19689173 0.17938268
0.2364204 0.07481175 -0.064640015 -0.2047137 -0.0024098912 0.36721054 -0.23001656 -0.12909967
00000000: 2eda adbd 44fd fdbe 45f9 393e 99c8 2f3c
00000010: e5e4 8cbe 2862 febd 91b6 01bd 4dd0 363e
00000020: 32a5 473e 33cd 6f3d 1836 5e3d f35e d33c
00000030: e5e5 bd3c fb72 d3be e805 8dbe c789 9f3e
00000040: f431 40be 055d 1abe 587e 513e c276 423d
00000050: 83c3 cebd 681c 443e 582e 4b3e 22c1 c9be
00000060: b15f 1dbe fe2c 03be ce76 823e 0b5d 4fbe
00000070: 7ac3 6b3c c92e 133e 939f 5fbe 8642 06bd
00000080: 1600 e83d 1e72 7c3d a85f 00be 9376 19be
00000090: eda3 4e3e 35ed c13d 4325 80be 8ff0 9b3e
000000a0: 2307 2bbd 91db 7cbe 8c5a eb3d a55e 83be
000000b0: 6ed0 0dbe 22a5 69bd f40f 8dbe 66f7 063e
000000c0: 9da9 b33d 6bfc 3f3d bc6c e73d a563 fc3d
000000d0: 3f7c 0fbd ef51 59be 4479 3d3e 7acf 803d
000000e0: 86ed 28bd b405 b23e 2a19 193d 316c 253f
000000f0: 5587 70be ebd5 9dbe 1d20 d3bd 5eda 51bd
00000100: 537e 4d3d 3a4b 103e 9fea 53bd 415c debe
00000110: 88ff ddbd 6ce3 c63d d952 b83d 7c7f 60be
00000120: 5c16 3bbe ad76 ccbd ab35 10be 7b9d c0bd
00000130: 35ed 183c 231c 81be 3731 d13c 482a 833e
00000140: e966 6ebe 8010 183e cceb 133e e575 e0bd
00000150: 3204 0ebb 4340 9c3d 332a 343e 3419 12be
00000160: 12b8 41be 3cdc eb3e eb8c 983c 02f9 c6bd
00000170: 9d04 5fbe 6d54 59be 8b2f babe 3fe3 8bbe
00000180: a00c c93d 4b05 153e 9cd6 eebe da88 02bd
00000190: 8250 003e fcda 9d3c aeff 443d ec39 493c
000001a0: 083f 08be 491a 39be accf 0b3e 8fe4 84be
000001b0: 2e8d 783e 2de9 db3d 6eb0 853e 95bc 76bc
000001c0: 5aa4 853e a3ba f43d b8fd 9f3e 0566 343e
000001d0: 4d57 6bbe bea3 40be b32e d1be a68c e4bd
000001e0: b8f3 223d b406 f9bc 3fb1 83bd 6459 e2bd
000001f0: 3725 4a3e b64a 553e 1763 753e 2d0f 0c3e
00000200: b3f3 cbbd 6954 4b3e 1519 6abe e18d 29be
00000210: 375e 163e 4e77 05be dfa2 e4be 2f7e 81bd
00000220: ae26 7ebd 356e c6bd 2d9c ecbd f099 9abe
00000230: 1caf d4bd 7f2c 20be dbe8 bc3c 5a80 9ebe
00000240: cfe3 cabe 7d7a f3bd e281 ecbd 1963 4d3e
00000250: 4d78 9c3d b3b0 6fbe 8fff 5f3e 58ea 3fbe
00000260: a9de 51be c4f4 b63e 247e 8f3d 279d 423e
00000270: bf7f be3d acfe 5ebe 08cb 10be d94d 3e3d
00000280: d724 cd3c 885b 243e 6112 80be 2079 c33d
00000290: eaf8 993e 8c74 34be dd64 603d 18d9 c03d
000002a0: b76d 02bf 05b2 3c3d 09f0 0a3e 648b dfbb
000002b0: d639 0cbe 3a24 f03d 5a34 c73d 3b84 1bbe
000002c0: e7e2 d0be 5a9a 98be 0401 8dbc 7f35 d63d
000002d0: 552a 903e 3f17 c83d 84cc dc3c 0507 4bbd
000002e0: d406 9f3d 6105 5c3d 9263 9d3d 34b4 4abc
000002f0: ac6b e53d 54ae b43e 1bac efbc acb1 b43d
00000300: fcde 553d 63c1 3dbd 3001 fdbd 8c64 31bd
00000310: faf3 32be 0ec0 cbbc 9531 ddbe 1ea2 cabe
00000320: 5a57 3cbd 62c9 fa3d 8603 82bd ade9 60be
00000330: 9afc 5abe d846 afbe 7c6e a6bc 1ee4 e93d
00000340: cb35 8cbe 160c c4bd 1b84 903e 32c9 32bd
00000350: b3f3 72be 5bda b0bc bf34 f63d fcde 88bc
00000360: 2056 933d 1c68 d4be caba fcbd 74da 0fbe
00000370: 9d9e 61bd ac4c b13d e7ae 2f3d 9c5f be3c
00000380: 1575 853e 8036 163e 046c 583e 7aee 07be
00000390: d814 823e c076 b43e 6064 66be 51d8 d5be
000003a0: fee0 e23d d7f8 e33d 3797 ed3d 600e 83bd
000003b0: 82d3 f9bd dc6a d5bd 282e f83d b782 6a3b
000003c0: 5e87 77be e37b 93be 1eec c63d 0e4e 083e
000003d0: 1b72 a83d af01 a7be fc9d 49be 18b0 373e
000003e0: 3018 723e e736 993d fc61 84bd 78a0 51be
000003f0: 44ef 1dbb 0503 bc3e 7689 6bbe b432 04be

actor_mean.0.bias f4 [64]
0.0029119353 0.023560937 0.0425908 -0.065792955 0.044818223 -0.050484627 0.115447156 0.095352046
0.06342834 -0.03969363 0.004457115 -0.04652599 0.05753316 -0.0141890375 0.037625376 -0.043202657
0.12980565 -0.046660587 0.055710986 0.056477245 0.03209506 -0.032431684 -0.06198988 0.034901027
-0.038194876 -0.05275643 0.066706 0.06521232 0.058526337 0.04506088 -0.04508766 -0.056919795
-0.049705684 0.06785339 -0.04351061 0.03362157 -0.05552966 -0.08298743 0.032143146 0.056113414
0.05216092 0.052849665 -0.07897021 0.043000285 -0.054128822 -0.059896085 0.0077140545 -0.010416171
0.058303095 0.06306877 -0.009996267 0.041411925 0.05686133 -0.059859317 -0.036788594 -0.046243988
-0.027413614 -0.04863426 0.06402034 0.033180572 -0.064747736 -0.06856731 0.054267522 0.019372264
00000000: 2bd6 3e3b de02 c13c b173 2e3d 75be 86bd
00000010: 5093 373d f8c8 4ebd 8f6f ec3d ef47 c33d
00000020: b8e6 813d ca95 22bd fe0c 923b 0992 3ebd
00000030: e4a7 6b3d 2379 68bc 111d 1a3d 45f5 30bd
00000040: c6eb 043e 2c1f 3fbd 3431 643d af54 673d
00000050: 1c76 033d 16d7 04bd 1ae9 7dbd 61f4 0e3d
00000060: 3b72 1cbd 2017 58bd 289d 883d 098e 853d
00000070: 50b9 6f3d c291 383d d7ad 38bd bb24 69bd
00000080: 3098 4bbd b8f6 8a3d 2e38 32bd c5b6 093d
00000090: 1273 63bd 50f5 a9bd 88a8 033d 2ed7 653d
000000a0: b0a6 553d e478 583d 22bb a1bd 1121 303d
000000b0: 2fb6 5dbd 9955 75bd 2ec6 fc3b 96a8 2abc
000000c0: 3acf 6e3d 332a 813d 62c7 23bc 8d9f 293d
000000d0: 6de7 683d 0b2f 75bd a3af 16bd 566a 3dbd
000000e0: 8492 e0bc b834 47bd 191d 833d 5ae8 073d
000000f0: 769a 84bd 056d 8cbd 9f47 5e3d 95b2 9e3c

actor_mean.2.weight f4 [64, 64]
-0.17564112 0.016186912 -0.40903965 0.21847276 -0.2092784 -0.16544251 0.347186 -0.17085426
-0.1554332 -0.16615151 0.12553458 0.22238028 -0.10471693 -0.08946628 0.08921568 -0.10751247
-0.10907458 -0.083634906 0.40982357 -0.2268569 0.23666057 0.18027015 0.40530205 -0.34233728
-0.007458059 -0.009882565 -0.1942152 -0.064730495 -0.22623113 0.04358577 0.1402049 0.016250603
0.12465044 -0.16090316 0.20381306 -0.05782664 -0.10919884 0.2412379 -0.22126228 0.0048319655
-0.21302362 -0.096972175 0.04688828 0.19065712 -0.047473382 0.40580133 0.10253942 0.24643824
0.16630013 -0.17686936 0.16726221 -0.2376349 -0.08079185 0.27674896 -0.088154346 0.094717145
0.1318361 -0.019662118 -0.15268284 -0.35026428 0.24303472 0.039296165 0.14222407 -0.31767982
0.09242147 0.22285424 0.043814532 -0.38009623 -0.011882773 -0.34076908 -0.0907995 -0.034700423
-0.055257294 0.0810036 -0.17915939 0.031280927 0.34317863 -0.013988152 0.22555242 -0.16991115
0.26750937 -0.15488517 0.20058976 0.36173356 0.11610259 -0.008435686 -0.4352965 -0.05753294
-0.059219245 -0.13660842 0.1219813 0.21227342 -0.032091107 0.15607734 0.0023682348 0.12742634
-0.3485157 0.040471576 -0.030345429 -0.35718578 -0.18749914 -0.042884283 -0.048155624 0.18130942
0.22139168 0.25098842 -0.16507068 0.003383826 -0.33340743 -0.17134967 0.30437335 -0.018216183
0.09353426 0.27629995 0.15165448 0.28876647 0.26172724 -0.26817694 -0.29755202 -0.048385523
-0.54762167 0.20020671 -0.21821387 0.30525905 -0.026988965 -0.14970823 0.1725652 0.017068366
0.19712868 -0.07059774 -0.028335549 0.13967936 0.24565403 -0.26784748 0.05249269 0.1605026
0.03498082 0.17846699 -0.22093578 -0.18266244 0.04029756 0.09389883 -0.061430074 -0.16673706
0.15428546 0.13057803 0.26475185 0.17075172 -0.000670551 -0.28703588 -0.26226264 0.056453533
0.18780327 -0.39887333 0.115536325 0.30846208 0.15764856 0.27169523 -0.17303589 -0.34398022
-0.37579715 0.40235707 -0.050252594 0.02934557 -0.09780414 -0.0929878 0.19160736 0.3087967
-0.0721555 0.057996474 -0.0981299 0.2634113 0.105550535 -0.53022176 -0.008618371 0.30019712
0.003439113 0.29956374 -0.10791404 0.16360648 0.026255505 -0.25890505 0.08633625 0.01672946
-0.27574843 -0.30389893 0.03213965 -0.0744105 -0.08255696 -0.28601915 -0.22531593 -0.52019095
-0.06954496 0.009409436 0.40662956 -0.28332353 0.20972575 -0.20052984 0.15547454 -0.28516397
-0.031597685 0.086016245 -0.24439254 0.0025973623 0.092369355 0.08682863 -0.104095936 -0.21226983
-0.13267145 -0.27554703 -0.09893243 -0.020723296 0.004489733 -0.0638643 0.27975228 0.07317212
-0.013007523 0.112531915 -0.08497784 -0.036916878 0.17975836 0.099751145 -0.04299021 -0.29960755
0.217393 -0.29607543 0.020812737 -0.14043689 -0.13929665 -0.2838544 0.0034464512 0.16805609
-0.09524992 -0.09515637 0.15079327 -0.24744733 -0.014725954 0.019545397 0.07532938 -0.18316531
0.08599017 0.3678299 -0.21949202 -0.024844196 0.17869478 -0.21616083 0.08316206 -0.22896379
-0.016981864 -0.16242115 -0.48989356 -0.12560159 0.22731088 -0.14120641 -0.114421256 -0.13196836
00000000: 44db 33be 6a9a 843c a56d d1be 53b7 5f3e
00000010: 144d 56be c369 29be 5dc2 b13e 6bf4 2ebe
00000020: e129 1fbe 9f23 2abe 238c 003e a8b7 633e
00000030: d475 d6bd 193a b7bd b6b6 b63d 7f2f dcbd
00000040: 7e62 dfbd c748 abbd 65d4 d13e 2d4d 68be
00000050: 2657 723e bd98 383e c083 cf3e d546 afbe
00000060: bc62 f4bb 7bea 21bc 59e0 46be 6c91 84bd
00000070: 22a9 67be fe86 323d e091 0f3e fc1f 853c
00000080: bb48 ff3d ccc3 24be 5fb4 503e a0db 6cbd
00000090: a4a3 dfbd 1107 773e 9492 62be 7755 9e3b
000000a0: dd22 5abe 5999 c6bd ed0d 403d 9f3b 433e
000000b0: 7373 42bd 31c5 cf3e 3000 d23d 4e5a 7c3e
000000c0: 954a 2a3e 3e1d 35be c946 2b3e 9056 73be
000000d0: 3376 a5bd 0ab2 8d3e 448a b4bd 10fb c13d
000000e0: 0b00 073e 7312 a1bc e458 1cbe d755 b3be
000000f0: 18de 783e 04f5 203d 30a3 113e eea6 a2be
00000100: 7847 bd3d e733 643e de76 333d f99b c2be
00000110: f6af 42bc 4979 aebe 17f5 b9bd 0822 0ebd
00000120: 7955 62bd 37e5 a53d 8f75 37be 6e20 003d
00000130: 1cb5 af3e 902e 65bc 37f7 663e 30fd 2dbe
00000140: fdf6 883e 389a 1ebe 6767 4d3e 2435 b93e
00000150: 32c7 ed3d d535 0abc 2fdf debe a9a7 6bbd
00000160: e18f 72bd 14e3 0bbe 55d1 f93d 345e 593e
00000170: f771 03bd bdd2 1f3e 6334 1b3b 0d7c 023e
00000180: a670 b2be 86c5 253d fa96 f8bc 0ee1 b6be
00000190: c6ff 3fbe 6ea7 2fbd d53e 45bd 2da9 393e
000001a0: 80b4 623e 8e81 803e 4a08 29be 2ec3 5d3b
000001b0: 61b4 aabe 4a76 2fbe d3d6 9b3e 1b3a 95bc
000001c0: e48e bf3d 3077 8d3e 504b 1b3e 33d9 933e
000001d0: 1d01 863e 7d4e 89be bd58 98be e62f 46bd
000001e0: ef30 0cbf fd02 4d3e 7573 5fbe ea4a 9c3e
000001f0: f617 ddbc 1d4d 19be efb4 303e f5d2 8b3c
00000200: 1adc 493e 8c95 90bd f41f e8bc 1b08 0f3e
00000210: bb8c 7b3e 4e23 89be 9302 573d cb5a 243e
00000220: 0c48 0f3d 0dc0 363e fd3c 62be dd0b 3bbe
00000230: 0e0f 253d 084e c03d 1a9e 7bbd 1fbd 2abe
00000240: 02fd 1d3e 3fb6 053e 8e8d 873e 8ad9 2e3e
00000250: eac7 2fba 5ef6 92be 4a47 86be d23b 673d
00000260: 804f 403e 2039 ccbe 4f9e ec3d beee 9d3e
00000270: a06e 213e a31b 8b3e 5230 31be 2d1e b0be
00000280: 7c68 c0be bf01 ce3e aad5 4dbd 1f66 f03c
00000290: 894d c8bd 6370 bebd b834 443e 9a1a 9e3e
000002a0: 43c6 93bd b68d 6d3d 54f8 c8bd d9dd 863e
000002b0: e12a d83d 9dbc 07bf 1134 0dbc 70b3 993e
000002c0: be62 613b 6b60 993e 0902 ddbd 7588 273e
000002d0: c915 d73c 348f 84be 0fd1 b03d 380c 893c
000002e0: e62e 8dbe a498 9bbe dea4 033d 8864 98bd
000002f0: a013 a9bd 1a71 92be 38b9 66be 3c2b 05bf
00000300: 976d 8ebd 092a 1a3c c031 d03e c80f 91be
00000310: 59c2 563e b257 4dbe b834 1f3e 0301 92be
00000320: 936c 01bd 4929 b03d 0a42 7abe 8238 2a3b
00000330: 252c bd3d 35d3 b13d 4030 d5bd 435d 59be
00000340: 06db 07be 8014 8dbe 169d cabd e7c3 a9bc
00000350: 9c1e 933b 49cb 82bd b13b 8f3e 44db 953d
00000360: 811d 55bc 2277 e63d dd08 aebd 2736 17bd
00000370: 9312 383e 544a cc3d 8116 30bd 2966 99be
00000380: 459c 5e3e 3397 97be 797f aa3c b0ce 0fbe
00000390: c8a3 0ebe 5d55 91be dbdd 613b e516 2c3e
000003a0: 6412 c3bd 58e1 c2bd 8d69 1a3e d562 7dbe
000003b0: 2145 71bc ab1d a03c 4a46 9a3d b08f 3bbe
000003c0: 9d1b b03d 3354 bc3e 84c2 60be 0e86 cbbc
000003d0: c4fb 363e 4459 5dbe df50 aa3d 7c75 6abe
000003e0: 8d1d 8bbc bb51 26be 54d3 fabe b49d 00be
000003f0: 2fc4 683e 6a98 10be b155 eabd b722 07be

actor_mean.2.bias f4 [64]
-0.031391654 0.05855831 0.04278168 0.07492473 -0.053135596 0.047718864 -0.046127215 -0.05450272
-0.05194977 -0.06688256 -0.057531107 0.05298339 0.039191272 0.05294706 0.052916214 -0.05432621
0.039502144 0.05236858 0.0422118 0.04149494 0.0590828 -0.05792992 0.039975815 0.05516962
-0.05736738 0.071267344 -0.073167756 0.024019603 -0.0455651 -0.06745819 -0.04493337 -0.044329386
0.050281875 0.02521831 0.05681635 -0.0862837 0.029678894 0.05920757 -0.03532161 0.063967936
-0.032047983 0.058630098 0.053030785 -0.05776823 0.058730412 0.032012768 -0.075178094 0.06148954
0.07188225 -0.03493533 0.03344542 -0.026957817 0.056838725 0.062857285 0.04536569 -0.022338973
0.04526707 0.048963107 0.07072807 0.06602703 -0.053206105 0.007220444 0.05612008 -0.058170956
00000000: 8994 00bd d7da 6f3d d83b 2f3d 2372 993d
00000010: b6a4 59bd db74 433d e4ef 3cbd 3e3e 5fbd
00000020: 48c9 54bd b9f9 88bd bda5 6bbd 1c05 593d
00000030: 0787 203d 04df 583d acbe 583d 2985 5ebd
00000040: 00cd 213d 7080 563d 48e6 2c3d 99f6 293d
00000050: ce00 723d ec47 6dbd aebd 233d 8af9 613d
00000060: 0ffa 6abd 9df4 913d fad8 95bd c2c4 c43c
00000070: 78a2 3abd 8527 8abd 0e0c 38bd bb92 35bd
00000080: 5ef4 4d3d a196 ce3c 43b8 683d 82b5 b0bd
00000090: 2721 f33c a383 723d 64ad 10bd 9f01 833d
000000a0: bf44 03bd 1d26 703d cf36 593d 619e 6cbd
000000b0: 4d8f 703d d21f 033d f9f6 99bd 75dc 7b3d
000000c0: 0037 933d 5918 0fbd 11fe 083d a4d6 dcbc
000000d0: b9cf 683d 52bb 803d 60d1 393d 3900 b7bc
000000e0: f769 393d 8a8d 483d e1d9 903d 2e39 873d
000000f0: a5ee 59bd 7999 ec3b 2bde 653d ab44 6ebd

actor_mean.4.weight f4 [1, 64]
0.06510537 -0.08417702 -0.09083557 -0.027387382 0.09499033 -0.092089854 0.0663466 0.054283075
0.052205317 0.03188607 -0.0020958954 -0.018866278 0.02837624 -0.07654064 -0.058860756 0.10882086
-0.06931503 -0.08507565 -0.047324736 -0.08791233 -0.06683317 0.07490812 -0.08844083 -0.022597663
0.02153405 -0.057559934 0.03560504 -0.011509943 0.061294444 0.06250308 0.04384937 0.04745172
-0.013512667 -0.0054042544 -0.031454764 -0.012599863 -0.007165164 -0.013597645 0.04754037 -0.008233026
0.011127612 -0.024626028 -0.051026586 0.0012493634 -0.05602126 0.0022666873 0.035692647 -0.055749737
-0.024987558 0.010070852 0.0063652443 0.010367326 -0.018190335 -0.08159226 0.003473949 0.03010997
-0.0028340875 -0.06767987 -0.057966895 -0.06459685 0.10145546 -0.033270534 -0.10777208 0.06432866
00000000: f755 853d 0065 acbd 0008 babd 815b e0bc
00000010: 4a8a c23d 9b99 bcbd bae0 873d ee57 5e3d
00000020: 3ed5 553d f89a 023d 4a5b 09bb 748d 9abc
00000030: 4a75 e83c 57c1 9cbd fa17 71bd 79dd de3d
00000040: 0af5 8dbd 243c aebd 95d7 41bd 610b b4bd
00000050: d4df 88bd 6e69 993d 7720 b5bd bc1e b9bc
00000060: 2d68 b03c f7c3 6bbd 97d6 113d 3394 3cbc
00000070: e20f 7b3d 9d01 803d 669b 333d bc5c 423d
00000080: 3c64 5dbc 2c16 b1bb b6d6 00bd a86f 4ebc
00000090: c1c9 eabb a8c8 5ebc b1b9 423d d0e3 06bc
000000a0: 9650 363c 86bc c9bc 4101 51bd aec1 a33a
000000b0: 8c76 65bd b48c 143b 7432 123d d659 64bd
000000c0: b5b2 ccbc 3700 253c 8a93 d03b b8db 293c
000000d0: e603 95bc d819 a7bd 31ab 633b 2fa9 f63c
000000e0: 19bc 39bb be9b 8abd b26e 6dbd 5a4b 84bd
000000f0: e1c7 cf3d af46 08bd 9cb7 dcbd bfbe 833d
