p2/0.1HalfCheetahBulletEnv-v0_TD3_BC_5678_1638595098_td3_bc.pth (torch, 898833 bytes, 16 tensors)

l1.weight f4 [256, 32]
0	0xbe9bf086	-0.30456942
1	0xbdb7c89c	-0.0897381
2	0x3e1eb4eb	0.15498702
3	0x3f1774df	0.59162706
4	0xbc14edf6	-0.009089937
5	0x3dd9c0ff	0.10632514
6	0x3deedd7d	0.11663339
7	0x3dd0a8e6	0.10188465
8	0x3ecfe864	0.40606987
9	0x3e8c4349	0.27395085
10	0x3da8a339	0.08234257
11	0x3db0a0f0	0.086244464
12	0xbe37a433	-0.17933731
13	0x3cdfcadb	0.027318409
14	0x3e995060	0.29944134
15	0x3eecbbc1	0.46236995
16	0xbf147d03	-0.5800325
17	0xbe0ac09c	-0.13550037
18	0x3e66efd7	0.22552429
19	0xbc8a85a0	-0.01690942
20	0x3e4f1219	0.20221747
21	0xbdca394a	-0.09874208
22	0xbd801bb5	-0.06255285
23	0xbc37c3e2	-0.011216136
24	0xbf118675	-0.5684579
25	0xbebe588b	-0.37176928
26	0x3d2a6dbb	0.041608553
27	0xbdaa1c0f	-0.08306133
28	0xbe1d40dd	-0.15356775
29	0xbe0bd37a	-0.1365489
30	0xbde3e3ce	-0.11127435
31	0xbd824ae4	-0.063619405
32	0x3eba6808	0.36407495
33	0xbde635c8	-0.11240727
34	0x3e917990	0.28413057
35	0xbc5dfeb7	-0.013549498
36	0x3e260feb	0.1621701
37	0x3e2285f3	0.1587141
38	0x3cdc323e	0.026879426
39	0xbe4cf5e1	-0.2001567
40	0xbe755755	-0.23959096
41	0x3df34c04	0.11879733
42	0xbe1043ca	-0.1408836
43	0xbec10de5	-0.37705913
44	0xbda0dbdf	-0.07854437
45	0xbe4d5d35	-0.20055087
46	0xbd3ad363	-0.04561175
47	0xbe5246c5	-0.20534809
48	0x3dac19f8	0.08403391
49	0xbdfeff8f	-0.12451088
50	0xbcb18092	-0.021667752
51	0x3e15e8fb	0.14639656
52	0x3e30ff68	0.1728493
53	0xbda6267b	-0.08112808
54	0xbdbc2a3e	-0.091877446
55	0x3e01c58b	0.12673013
56	0xbf0b3fdd	-0.5439432
57	0xbe2890f4	-0.16461545
58	0x3e19e5d4	0.15029079
59	0xbe4c5e00	-0.19957733
60	0xbd204efc	-0.039137825
61	0xbde8ba8f	-0.11363708
62	0x3dfcd391	0.123450406
63	0x3d061ced	0.03274243
64	0x3e57efe8	0.2108761
65	0x3e246def	0.16057561
66	0xbe96e7f1	-0.29473832
67	0xbcd13fda	-0.025543142
68	0x3ca5936d	0.0202119
69	0xbf02fe8f	-0.51169676
70	0xbe220696	-0.15822825
71	0xbddbcee3	-0.1073282
72	0xbf062ea1	-0.524149
73	0xbfb48f98	-1.4106321
74	0x3db0eece	0.086392984
75	0x3e2b6bd6	0.16740355
76	0xbd79b442	-0.060962923
77	0xbdc7a61a	-0.09748478
78	0x3d81f602	0.063457504
79	0x3f773331	0.96562487
80	0xbe314b8c	-0.17313975
81	0x3eaa64a5	0.3327991
82	0xbc8bb712	-0.017055068
83	0x3e20e609	0.15712751
84	0xbd657ce2	-0.0560273
85	0xbf2909d3	-0.66030616
86	0x3e803084	0.25037014
87	0x3e88fc2a	0.26754886
88	0xbda32ef9	-0.07967944
89	0xbe2da1c1	-0.16956235
90	0x3ddf2b54	0.10896936
91	0x3f0308b3	0.5118515
92	0xbcadb3ea	-0.021203954
93	0x3e560a6f	0.20902418
94	0xbeac9c73	-0.3371311
95	0xbe6bd815	-0.23031648
96	0xbe11fe42	-0.14257148
97	0xbcfc5d6e	-0.03080627
98	0x3e1bdcab	0.15220897
99	0x3f04a19e	0.5180911
100	0x3d8c9d91	0.06865991
101	0xbfe760c4	-1.8076406
102	0x3e3086a7	0.17238866
103	0x3ea68217	0.32521126
104	0xbe847690	-0.25871706
105	0xbd280449	-0.04101971
106	0x3e691edb	0.22765677
107	0x3c985c66	0.018598747
108	0x3d91c6ac	0.07117972
109	0xbe8abec5	-0.2709867
110	0xbf125880	-0.5716629
111	0x3e1761d0	0.14783406
112	0xbd429239	-0.04750273
113	0x3e09fb2f	0.13474725
114	0x3f06702c	0.5251491
115	0x3d751e8b	0.05984358
116	0x3ddcb96c	0.10777554
117	0x3f5444c0	0.82917404
118	0x3cce4885	0.025181064
119	0xbefc34aa	-0.4925893
120	0xbf14b23e	-0.58084476
121	0x3ec67d93	0.3876768
122	0x3e460587	0.19338046
123	0x3b15b074	0.002284077
124	0xbe3c0f2b	-0.18365161
125	0x3dadbc24	0.084831506
126	0x3e50c968	0.2038933
127	0xbf6678af	-0.900279
128	0x3ebfa008	0.37426782
129	0x3e116b3a	0.1420106
130	0x3df4c54b	0.11951693
131	0xbf1a6508	-0.6031041
132	0x3de2bae7	0.11070805
133	0xbfa55298	-1.2915831
134	0x3e06e0cb	0.13171689
135	0x3e783633	0.24239425
136	0x3f0ac77d	0.54210645
137	0x3f8b1381	1.0865327
138	0xbe20e0fc	-0.15710825
139	0x3f5e7d99	0.86910397
140	0x3e1cc52c	0.1530959
141	0x3cba5b4d	0.022748614
142	0x3da43021	0.08016992
143	0x3e3ca8bc	0.18423742
144	0xbf06219e	-0.52395046
145	0x3d4e9fed	0.050445486
146	0xbedd2ac4	-0.4319669
147	0x3d8594bd	0.0652251
148	0xbef759e0	-0.48310757
149	0x3d1cb02b	0.038253944
150	0x3ecdc443	0.40188798
151	0xbea67557	-0.32511398
152	0xbd9493ad	-0.072547294
153	0x3f103253	0.5632679
154	0x3ef0a618	0.4700172
155	0x3e505548	0.20345032
156	0xbe77b352	-0.24189499
157	0x3e981926	0.29706687
158	0x3e00d8d6	0.12582716
159	0x3d2a2412	0.041538306
160	0xbea1c536	-0.31595773
161	0xbe029321	-0.12751438
162	0xbe4125ab	-0.18862025
163	0xbf84ddba	-1.0380166
164	0xbd9bbf3e	-0.07604836
165	0x3dda72a2	0.10666396
166	0x3ca1895f	0.019718824
167	0x3ea11d87	0.3146784
168	0xbe1b0db0	-0.1514194
169	0xbe412f8f	-0.18865798
170	0x3e69269b	0.22768633
171	0xbef4b658	-0.47795367
172	0xbe0bce04	-0.13652807
173	0x3c8dde18	0.017317817
174	0x3d7b552b	0.06136052
175	0xbd58c605	-0.05292322
176	0x3d5fdd54	0.054654434
177	0xbe12e8e4	-0.14346653
178	0x3eb3f6e6	0.35149306
179	0x3e34a4cd	0.17640992
180	0xbca652a7	-0.020303084
181	0x3f135f9e	0.57567775
182	0x3e8baf61	0.2728224
183	0x3ecd4539	0.40091875
184	0xbf2cb5cc	-0.674649
185	0x3da2bca3	0.07946136
186	0xbe341bde	-0.17588755
187	0x3ea3dc82	0.32004172
188	0x3e4072d1	0.18793799
189	0xbc508684	-0.0127273835
190	0x3cbee541	0.023302676
191	0xbc227b97	-0.009917161
192	0x3ebb1cfd	0.36545554
193	0xbe0a007f	-0.13476752
194	0x3e94ac22	0.29037577
195	0xbe9fe9f7	-0.3123319
196	0xbdca5e03	-0.098812126
197	0x3e9509b4	0.29108965
198	0x3e2b4a11	0.16727473
199	0xbf542dd4	-0.8288243
200	0x3e6a5023	0.22882132
201	0x3d0f96cf	0.03505593
202	0xbde95360	-0.11392856
203	0xbdb186ff	-0.086683266
204	0xbefbcdf8	-0.4918058
205	0xbd1f62c5	-0.038912553
206	0xbe77ec4e	-0.24211237
207	0x3f415e44	0.7553446
208	0xbf11ea33	-0.56997985
209	0x3ea94fd5	0.3306872
210	0xbe83f719	-0.25774458
211	0x3db158e0	0.0865953
212	0xbe1dfe69	-0.15429081
213	0x3e3ff2ee	0.18745014
214	0x3f302636	0.68808305
215	0x3da633d9	0.08115358
216	0xbcb5f383	-0.022210842
217	0x3d84e81f	0.06489586
218	0x3ccea748	0.02522625
219	0xbe2d8720	-0.16946077
220	0xbc8dba1b	-0.017300656
221	0x3d2f05fb	0.042730313
222	0x3ba2ede3	0.004972206
223	0xbbda4c3d	-0.0066619203
224	0x3efb9d4b	0.49143443
225	0xbdc1160e	-0.09428035
226	0x3dd662b4	0.10468045
227	0x3f5ec73a	0.87022746
228	0x3dac061d	0.083996035
229	0x3baca2c8	0.0052684285
230	0xbdd8fd64	-0.105952054
231	0xbf1b2798	-0.6060729
232	0x3e7c0560	0.24611425
233	0xbeef2c9e	-0.46713728
234	0x3e217781	0.15768243
235	0xbef04026	-0.4692394
236	0xbdf066ba	-0.117383435
237	0xbf43ffbb	-0.7656209
238	0xbe6f33b4	-0.23359567
239	0x3e093a71	0.134012
240	0xbf17a2f5	-0.5923303
241	0xbe8ec483	-0.27884302
242	0x3d971048	0.07376152
243	0x3e8fe395	0.2810332
244	0x3e981e00	0.29710388
245	0x3e67ba59	0.2262968
246	0xbe27400a	-0.16333023
247	0x3efd206b	0.49438795
248	0xbfdc4dec	-1.721128
249	0xbfae9a4f	-1.3640841
250	0xbe6b6d2a	-0.22990862
251	0xbe4184d7	-0.1889833
252	0xbdca7e24	-0.09887341
253	0x3bed74ce	0.00724659
254	0xbd7c1fe1	-0.06155384
255	0x3e48f201	0.19623567

l1.bias f4 [256]
0	0x3d269e51	0.040678326
1	0x3e25a120	0.16174746
2	0xbe7c99cf	-0.24668048
3	0x3d1b70b2	0.03794927
4	0x3cf6fe1c	0.030150466
5	0xbea29e41	-0.31761363
6	0xbc0ed85f	-0.008718579
7	0x3d3889a4	0.04505314
8	0x3e9f2e49	0.3109
9	0xbcee4dca	-0.029089827
10	0xbd281812	-0.04103858
11	0x3d6a4e79	0.057203744
12	0x3d313e26	0.04327216
13	0xbd466187	-0.048432853
14	0xbe0e94e6	-0.13923988
15	0x3e6ddd1e	0.23228881
16	0x3d8c0805	0.06837467
17	0xbd7122c2	-0.05887104
18	0x3e8b2a54	0.2718073
19	0xbdfae550	-0.12250769
20	0xbc811e8e	-0.01576164
21	0x3e42c431	0.19020154
22	0x3b69b553	0.0035661056
23	0x3e40fc98	0.18846357
24	0x3dc07f01	0.09399224
25	0x3e7ed84f	0.24887203
26	0x3ce15ad4	0.02750913
27	0x3e03f0c3	0.12884812
28	0x3e55ddae	0.20885345
29	0x3dfdbac6	0.1238914
30	0x3ea2cd84	0.3179742
31	0xbdb35e4e	-0.087582216
32	0x3db65d2d	0.089044906
33	0xbe0fd21c	-0.14044994
34	0xbe58d14a	-0.21173587
35	0xbde53c06	-0.11193089
36	0x3d90de35	0.07073633
37	0xbd9adc73	-0.075615786
38	0xbe26e0d6	-0.16296706
39	0x3e8803d5	0.26565424
40	0xbd540568	-0.05176297
41	0xbe3009ca	-0.17191234
42	0x3e37c45c	0.17945999
43	0x3e1bd7ac	0.15218991
44	0xbe121fdb	-0.14269964
45	0x3d6c1e0c	0.057645842
46	0xbdf27c75	-0.118401445
47	0x3de185da	0.11011858
48	0x3e2536a0	0.16134119
49	0x3d27dac0	0.0409801
50	0xbec1e9a8	-0.37873578
51	0x3dcdaaba	0.10042329
52	0x3d0c0bc0	0.034190893
53	0xbe5da187	-0.21643649
54	0x3e9f775c	0.3114575
55	0xbc891a56	-0.01673619
56	0x3e156831	0.14590527
57	0x3e56bae1	0.20969726
58	0x3e147f78	0.1450175
59	0xbe3297a6	-0.17440662
60	0x3da21588	0.07914263
61	0xbe049e4a	-0.12951007
62	0xbe452e3f	-0.19255923
63	0x3ed63685	0.4183847
64	0x3d2d7df1	0.042356435
65	0x3d2b0daf	0.041761097
66	0xbe7758cb	-0.24154966
67	0x3ce3bbe4	0.027799554
68	0x3f09c85e	0.5382136
69	0x3e320331	0.1738403
70	0x3e706443	0.23475747
71	0xbebacb4d	-0.3648323
72	0x3edce13f	0.431406
73	0x3e5e51a5	0.21710832
74	0xbcc15a3c	-0.023602597
75	0x3d91daf9	0.07121844
76	0xbe210f40	-0.15728474
77	0xbb7b8c80	-0.0038383305
78	0x3e209adb	0.15684073
79	0xbe16f43a	-0.14741603
80	0xbcef771c	-0.0292316
81	0x3de25e3f	0.11053132
82	0x3e8fed26	0.28110617
83	0x3e308947	0.17239867
84	0x3e9123f8	0.28347754
85	0x3d0e6c43	0.034771215
86	0x3e243cc2	0.16038802
87	0x3b21cc9c	0.0024688607
88	0xbd441eb1	-0.047880832
89	0x3d350e36	0.044203006
90	0x3e811c50	0.25216913
91	0x3d3a61d6	0.04550346
92	0x3e792ef8	0.24334323
93	0xbd6d29e9	-0.057901297
94	0x3dd98d6d	0.10622678
95	0xbd395c98	-0.04525432
96	0xbe924358	-0.28567004
97	0x3e2dccd4	0.16972667
98	0xbd7b55c3	-0.061361086
99	0xbdc091a3	-0.09402778
100	0x3e5bc9ec	0.21463746
101	0xbeb15087	-0.3463175
102	0xbe8a384b	-0.26996073
103	0xbd1dd7db	-0.038535934
104	0xbe80c435	-0.25149694
105	0xbe19f308	-0.15034115
106	0xbd7189a8	-0.05896917
107	0x3d0ff9a7	0.035150196
108	0x3e9c296f	0.3050036
109	0xbdd64533	-0.104624175
110	0xbed4c768	-0.41558385
111	0xbd2c61f3	-0.0420856
112	0xbec1d308	-0.37856317
113	0x3e4c39de	0.1994395
114	0xbe09f3c4	-0.13471895
115	0x3f03b6e2	0.5145093
116	0xbe9d9fd1	-0.30785993
117	0xbe323d9a	-0.17406312
118	0xbe79bee9	-0.24389233
119	0x3ec1e8a7	0.37872812
120	0xbea4579a	-0.32098085
121	0x3e9578e6	0.291938
122	0xbdee1064	-0.1162422
123	0xbeb5bc0c	-0.3549503
124	0xbe954922	-0.29157358
125	0xbe4b691f	-0.1986432
126	0x3e4245c8	0.18971932
127	0xbdf8b246	-0.12143378
128	0x3d624f7f	0.055251595
129	0x3e06c5fd	0.13161464
130	0xbe7aa808	-0.24478161
131	0xbe216ef3	-0.1576498
132	0x3c561dc0	0.013068616
133	0x3ea619b1	0.32441476
134	0xbdbece84	-0.093167335
135	0xbd134a96	-0.035959803
136	0xbdc74bd9	-0.09731264
137	0xbe0077bb	-0.12545674
138	0xbe978fec	-0.2960199
139	0xbe2321ae	-0.15930817
140	0xbd122d97	-0.03568801
141	0xbecd1145	-0.40052238
142	0xbca54ad7	-0.020177288
143	0x3e26da14	0.16294128
144	0x3e752706	0.23940668
145	0x3e16722a	0.14691988
146	0x3e206e90	0.15667176
147	0xbea2fed3	-0.3183504
148	0xbe3b976c	-0.18319482
149	0x3e02b2e9	0.12763561
150	0x3dcb53c5	0.09928087
151	0xbe22e32c	-0.15906972
152	0x3de3164a	0.11088236
153	0x3e3c4426	0.18385372
154	0xbea295a0	-0.3175478
155	0xbd6ceace	-0.057841115
156	0x3e451acb	0.19248502
157	0xbc75a0c6	-0.014991945
158	0x3cd05f4f	0.025436072
159	0x3d72605e	0.059173934
160	0x3c9ceb26	0.019155096
161	0x3dd9fd06	0.106439635
162	0xbe823ec0	-0.254385
163	0xbe5633a8	-0.20918143
164	0xbc172644	-0.009225432
165	0x3e263d16	0.1623424
166	0xbe4aee55	-0.19817479
167	0xbebed632	-0.37272793
168	0xbe8d9a13	-0.27656612
169	0x3e2a26ff	0.16616438
170	0x3e134a26	0.14383754
171	0xbe344fd5	-0.17608579
172	0x3e75edeb	0.2401654
173	0xbe2d72f8	-0.16938388
174	0xbe4bcfe8	-0.19903529
175	0x3d265487	0.040607955
176	0xbd9b758d	-0.075907804
177	0xbe038205	-0.12842567
178	0x3e5ea0a3	0.21740966
179	0xbe019f49	-0.12658419
180	0x3d9ec685	0.07752708
181	0x3e77448d	0.24147244
182	0xbdb7467c	-0.08948991
183	0x3e1c2a0c	0.15250415
184	0xbcd20783	-0.025638347
185	0x3caa43d9	0.020784305
186	0xbdf3df6d	-0.119078495
187	0x3e22bb3b	0.15891735
188	0x3dcf8963	0.10133626
189	0x3e348b7f	0.17631339
190	0xbdae5492	-0.08512224
191	0x3ebe0598	0.37113643
192	0xbe9f8910	-0.31159258
193	0xbe9c52da	-0.3053196
194	0x3e60f7a9	0.21969475
195	0x3e15e164	0.14636761
196	0xbdc917f6	-0.09819023
197	0x3e9f24fe	0.3108291
198	0x3d9364f5	0.071969904
199	0x3ea75948	0.32685304
200	0x3d77332d	0.06035154
201	0x3e8cec8d	0.27524224
202	0xbd3d0130	-0.04614371
203	0xbd7eb872	-0.06218762
204	0x3d8eb9b6	0.06969015
205	0x3e98f1c2	0.29871947
206	0x3e458e87	0.19292651
207	0x3e771db9	0.24132432
208	0x3db45377	0.08804982
209	0xbd48d5e0	-0.049032092
210	0x3e1ce182	0.153204
211	0xbd9d3d19	-0.07677669
212	0x3e9ccb69	0.3062394
213	0xbe55fade	-0.2089648
214	0xbecfd79e	-0.4059419
215	0x3b886908	0.0041629113
216	0x3e2e7df6	0.17040238
217	0x3d5c5dcc	0.05380039
218	0x3ec08630	0.37602377
219	0x3ea9ac69	0.3313935
220	0x3dbae5b2	0.09125842
221	0x3e990380	0.29885483
222	0xbcb5e37b	-0.022203198
223	0x3e40acaa	0.18815866
224	0xbe7a1fd1	-0.244262
225	0x3d8fa8a8	0.070145905
226	0xbcfface3	-0.031210368
227	0x3ed99490	0.42496157
228	0x3e6a8fbd	0.22906394
229	0xbe38bb48	-0.18040192
230	0x3dfe11ed	0.12405763
231	0xbe75ddea	-0.24010435
232	0x3c4c6214	0.0124745555
233	0x3e63f808	0.22262585
234	0x3d8a8a76	0.067646906
235	0xbdbc56c2	-0.09196235
236	0x3e81c88f	0.25348327
237	0x3dad6281	0.08466054
238	0x3d538069	0.051636133
239	0x3df3b721	0.119001634
240	0x3e007374	0.12544042
241	0x3e8d11bc	0.27552593
242	0x3e96af10	0.29430437
243	0xbe2f0bc1	-0.17094328
244	0xbe650d1e	-0.22368285
245	0x3d0788f9	0.03308961
246	0xbdd5ba97	-0.1043598
247	0x3e258d72	0.16167238
248	0xbd4558ff	-0.048180576
249	0xbe9a88ba	-0.3018244
250	0x3e560651	0.20900847
251	0xbe977dc3	-0.29588136
252	0x3e5bd06d	0.21466227
253	0x3e08caa2	0.13358548
254	0x3f000a5d	0.50015813
255	0xbdd780e3	-0.1052263

l2.weight f4 [256, 256]
0	0x3e8475a0	0.2587099
1	0x3cfa4683	0.0305512
2	0x3db78be2	0.089622274
3	0x3c953036	0.018211465
4	0x3e6a1e18	0.22863042
5	0x3e234cc0	0.15947247
6	0x3de6a62e	0.11262165
7	0xbe5d61e0	-0.21619368
8	0x3e078b4a	0.13236728
9	0x3e96e32f	0.29470202
10	0x3dc785b6	0.097423
11	0x3e202ad4	0.15641338
12	0x3ebc90c0	0.36829185
13	0xbb5063db	-0.00317978
14	0xbe90d1cc	-0.28285062
15	0xbd6321a2	-0.055451997
16	0x3e73ffde	0.23828074
17	0x3e1f61f5	0.15564711
18	0x3dc10c16	0.09426133
19	0x3dda2a38	0.10652584
20	0x3e94473f	0.28960606
21	0x3de6ad80	0.11263561
22	0xbe85658b	-0.26054034
23	0x3ef0c711	0.47026876
24	0x3e7c9dd0	0.24669576
25	0xbd8e1739	-0.06938023
26	0x3cbbe15a	0.022934604
27	0xbd22d9ca	-0.03975848
28	0xbe45943d	-0.1929483
29	0x3e93ca1e	0.2886514
30	0x3e565a1b	0.2093281
31	0x3d4e50d9	0.05037007
32	0x3e50e427	0.20399533
33	0xbda49a37	-0.08037227
34	0xbe856d8f	-0.2606015
35	0x3e660f43	0.2246676
36	0x3e3aff88	0.1826154
37	0xbe3e77bb	-0.18600361
38	0x3ea5940f	0.32339522
39	0x3dc93886	0.09825234
40	0xbea11e49	-0.31468418
41	0x3e38cec8	0.18047631
42	0x3de7c01a	0.11315937
43	0xbe565803	-0.20932011
44	0x3ecd7db0	0.40134954
45	0x3dbd79a6	0.09251718
46	0xbd37347d	-0.04472779
47	0x3e171b03	0.14756398
48	0xbd04a6e0	-0.032385707
49	0xbd34fb5f	-0.04418504
50	0xbd598b68	-0.053111464
51	0xbd9bfb72	-0.07616319
52	0x3da68962	0.081316724
53	0xbd86bcfe	-0.06579016
54	0x3c6a9066	0.014316654
55	0xbd7ccf1b	-0.06172095
56	0x3d8b2140	0.06793451
57	0x3ddd99b2	0.10820331
58	0x3e29a389	0.1656629
59	0x3df7c40a	0.12097938
60	0xbdaab8ed	-0.08336053
61	0x3de75f45	0.11297468
62	0xbd5db6ed	-0.05412953
63	0x3ef7c53b	0.48392662
64	0xbc9de248	-0.019272938
65	0x3e5ec07c	0.21753114
66	0x3ec2e36c	0.38064134
67	0x3e8bb46b	0.27286085
68	0x3eb8d3d0	0.360991
69	0x3e0d9c32	0.13829115
70	0x3d577517	0.0526019
71	0x3d403393	0.046924185
72	0x3de40a4a	0.11134775
73	0x3c5cd4ea	0.013478497
74	0x3dad63c2	0.08466293
75	0xbdcd96ce	-0.10038529
76	0xbda75c00	-0.081718445
77	0xbe33e343	-0.17567162
78	0xbd3d836d	-0.046267916
79	0x3e3369e2	0.1752086
80	0x3db1c6ad	0.086804725
81	0x3e19f04c	0.15033072
82	0xbe886eb1	-0.2664695
83	0x3c2b2658	0.010446154
84	0x3d66cea7	0.056349423
85	0xbc8ed932	-0.017437551
86	0x3ea42c95	0.32065263
87	0xbcc56371	-0.024095269
88	0xbdfb9ea4	-0.12286118
89	0x3e269cb7	0.1627072
90	0x3d31df64	0.043425933
91	0xbd5eff7e	-0.054442875
92	0x3e106d97	0.14104305
93	0xbd583d73	-0.052792978
94	0x3e13e60a	0.14443222
95	0x3dd25326	0.102697656
96	0x3e670007	0.22558604
97	0x3e0001b4	0.1250065
98	0x3e554564	0.20827252
99	0xbd9cc183	-0.07654097
100	0xbe2dfe30	-0.16991496
101	0x3e84951b	0.25895008
102	0xbe0efdde	-0.1396403
103	0x3db60ba7	0.08888941
104	0x3cf290e6	0.029610109
105	0x3d721084	0.05909778
106	0xbd85906a	-0.065216854
107	0x3efe5ce6	0.4968025
108	0x3e42ef53	0.19036607
109	0x3caf689d	0.021412188
110	0x3d119bf9	0.035549138
111	0x3e842caf	0.2581534
112	0x3dd2df5e	0.1029651
113	0x3e38a14c	0.1803028
114	0xbdbe999b	-0.09306642
115	0xbe4b4ed6	-0.19854292
116	0xbd480d19	-0.048840616
117	0xbdbe1c19	-0.09282703
118	0x3b1eac96	0.0024211756
119	0x3e39ed9c	0.18157047
120	0x3da9f8d6	0.08299415
121	0x3e84ef8a	0.25964004
122	0xbdeaaffb	-0.11459347
123	0x3e97c562	0.2964278
124	0x3e0f723c	0.1400842
125	0xbd9b956c	-0.07596859
126	0xbe47248c	-0.19447535
127	0x3b489b73	0.0030610233
128	0xbe96f876	-0.29486436
129	0x3d858143	0.06518795
130	0x3e1dd8a5	0.15414675
131	0xbdc1c2ab	-0.09460958
132	0xbcb10028	-0.02160652
133	0x3de0ded7	0.10980003
134	0xbe0ac719	-0.13552512
135	0xbd6126f2	-0.05496878
136	0x3e1941a2	0.14966443
137	0xbe5fbf1a	-0.21850243
138	0xbd878ff4	-0.06619254
139	0x3d099611	0.03359038
140	0x3cdca5c3	0.02693451
141	0xbb723814	-0.0036959695
142	0xbdd46681	-0.103711136
143	0xbd7edb8a	-0.062221088
144	0xbd58c72a	-0.052924313
145	0x3d352fb5	0.04423495
146	0xbd0695ab	-0.03285758
147	0xbe8a6720	-0.27031803
148	0x3df08dfc	0.11745831
149	0xbccc1cb0	-0.024916023
150	0x3e49195b	0.19638579
151	0x3e80021c	0.2500161
152	0x3d91d17d	0.07120035
153	0xbdb6c479	-0.08924193
154	0x3e004e4a	0.12529865
155	0x3e4dcd3b	0.2009782
156	0x3e131eb0	0.14367175
157	0x3e38cb07	0.18046199
158	0xbe52fc1f	-0.20603989
159	0xbc2e80fa	-0.010650868
160	0x3e2c0604	0.1679917
161	0xbe853e76	-0.26024216
162	0x3e634996	0.2219604
163	0x3e3ec6db	0.18630545
164	0x3ede2b18	0.43392253
165	0xbdb37f48	-0.08764511
166	0x3e94f6c7	0.29094526
167	0xbd994641	-0.07484103
168	0xbeac0347	-0.3359625
169	0xbd5892d0	-0.052874386
170	0xbd61c6a9	-0.055121098
171	0x3e35a4eb	0.17738692
172	0x3e6a5186	0.22882661
173	0xbc695458	-0.0142413005
174	0x3df5b58c	0.11997518
175	0x3ce96597	0.028490825
176	0x3d7711a8	0.060319573
177	0x3e604c7e	0.2190418
178	0xbd246a20	-0.04014027
179	0x3cee9e7e	0.02912831
180	0x3d2e8059	0.04260287
181	0x3e8e72d1	0.27821973
182	0xbd6acc52	-0.05732376
183	0x3da91e80	0.082577705
184	0x3ed49611	0.41520742
185	0x3db6ca61	0.089253195
186	0xbe9b8eff	-0.30382535
187	0xbf6cfefb	-0.9257657
188	0xbd659cfb	-0.05605791
189	0xbd1e61df	-0.038667556
190	0xbd29fe91	-0.04150254
191	0x3cde3068	0.027122691
192	0x3ea53e66	0.3227417
193	0x3e66b978	0.22531688
194	0x3b8914c5	0.004183384
195	0x3e598ebe	0.21245858
196	0x3d07c201	0.033144
197	0x3d590547	0.05298355
198	0x3d5f980a	0.054588355
199	0xbdfea50b	-0.12433823
200	0xbebd7b82	-0.3700829
201	0xbe24f18a	-0.16107765
202	0x3e158f2a	0.14605394
203	0x3e9da4af	0.30789706
204	0x3ea3a35e	0.31960577
205	0xbc6e0581	-0.014527679
206	0x3dfd7f01	0.1237774
207	0x3e205fdf	0.15661572
208	0x3e3a5ca9	0.1819941
209	0x3e703f41	0.2346163
210	0xbd8278e4	-0.06370714
211	0x3ecf06b0	0.4043479
212	0x3d394c17	0.04523858
213	0x3e118051	0.14209105
214	0x3eb9ebec	0.36312807
215	0x3de95d19	0.1139471
216	0x3e60a1db	0.21936743
217	0xbdbb04a7	-0.09131747
218	0x3cd824b4	0.026384689
219	0x3e8b39cd	0.27192536
220	0x3e42c616	0.19020876
221	0x3d3c9ed9	0.046049926
222	0x3e4095f4	0.18807203
223	0x3e7897a9	0.24276604
224	0xbc973b93	-0.018461024
225	0xbec55135	-0.3853852
226	0x3e167769	0.14693989
227	0x3a6d2e95	0.0009047774
228	0x3ea90e80	0.33018875
229	0xbe3b2d10	-0.18278909
230	0x3dc0fbc2	0.09423019
231	0xbda2b0c8	-0.079438746
232	0xbccb6b17	-0.024831338
233	0xbd9774bc	-0.07395312
234	0x3e54c26b	0.2077729
235	0x3d2cbc38	0.042171687
236	0x3e0e6ead	0.13909407
237	0xbe34fd7f	-0.17674826
238	0x3e76733e	0.24067399
239	0xbeeb612a	-0.45972568
240	0x3e257d65	0.16161115
241	0x3e14427f	0.14478491
242	0xbe0c031b	-0.1367306
243	0xbe10f72e	-0.14156792
244	0xbf207475	-0.626777
245	0x3d9f9213	0.07791533
246	0x3e2bd1f0	0.16779304
247	0x3e9c97d9	0.305846
248	0x3dfbab3e	0.12288521
249	0x3da1efcb	0.07907065
250	0x3cd15963	0.025555318
251	0x3d5185b2	0.051152892
252	0x3d03fd19	0.032223795
253	0x3e2d71f7	0.16938005
254	0xbea72187	-0.32642767
255	0x3e2be2b4	0.16785699

l2.bias f4 [256]
0	0x3e9c09b4	0.30476153
1	0x3e397818	0.18112218
2	0x3e5d721c	0.2162556
3	0xbe5e60a4	-0.21716553
4	0xbe5f6978	-0.21817577
5	0x3e908754	0.28228247
6	0x3ecb3930	0.39692068
7	0x3e7c539c	0.2464127
8	0x3ea72307	0.3264391
9	0x3e34ab27	0.17643414
10	0xbd3e3fe6	-0.046447657
11	0x3e524499	0.2053398
12	0xbe4e223a	-0.20130244
13	0xbdb58931	-0.08864058
14	0x3ebbf316	0.36708897
15	0x3e10ef4d	0.14153786
16	0xbe4e39ac	-0.20139188
17	0x3e405546	0.18782529
18	0x3eafd78f	0.34344146
19	0x3e522e4f	0.20525478
20	0xbe21632d	-0.15760489
21	0xbda5cb03	-0.08095362
22	0x3e6db878	0.232149
23	0x3e01ca6f	0.12674879
24	0xbe618d79	-0.22026624
25	0x3e87728e	0.26454586
26	0x3eb1ff4a	0.34765083
27	0xbdc551d3	-0.09634747
28	0xbe00570e	-0.12533209
29	0x3e3dba22	0.18528035
30	0x3e8dd8e4	0.27704537
31	0x3e8476e9	0.2587197
32	0x3e80e0a8	0.251714
33	0xbe8aee5e	-0.27134985
34	0xbe263386	-0.16230592
35	0xbd32d338	-0.043658465
36	0x3e4f2daf	0.2023227
37	0x3e424210	0.18970513
38	0xbe47be6f	-0.19506238
39	0x3eacc6e9	0.33745506
40	0xbea3ee59	-0.32017782
41	0x3cbf378e	0.02334192
42	0x3e9e858b	0.3096126
43	0xbe175f3f	-0.14782427
44	0x3ea43397	0.3207061
45	0x3e160e9e	0.14654014
46	0xbe5fabbf	-0.2184286
47	0xbe7bbbb1	-0.24583317
48	0x3b30cc0f	0.0026977097
49	0x3e90f914	0.28315032
50	0x3eb3d2fa	0.351219
51	0xbd2ad303	-0.041705143
52	0xbe0daee5	-0.13836248
53	0xbe06963c	-0.13143247
54	0xbe8682da	-0.26271707
55	0x3ece2646	0.40263575
56	0x3e8950df	0.26819512
57	0x3de82750	0.11335623
58	0xbe855a8d	-0.26045647
59	0x3ea254d6	0.3170535
60	0xbe414359	-0.18873347
61	0x3e39d48f	0.18147491
62	0xbe5132f8	-0.204296
63	0xbe894d68	-0.2681687
64	0x3e4ee1bf	0.20203303
65	0x3b831158	0.0039998703
66	0xbd9c976f	-0.07646071
67	0xbe6b0e8e	-0.22954771
68	0xbe7ec373	-0.24879245
69	0x3e7b0871	0.24514939
70	0xbe4213c9	-0.1895286
71	0x3e997255	0.2997004
72	0x3e66a363	0.22523265
73	0xbe055af8	-0.13022983
74	0x3e4a53b9	0.197585
75	0xbd82225f	-0.06354212
76	0x3e840c16	0.2579047
77	0xbdc3abf2	-0.0955428
78	0xbe530461	-0.20607139
79	0x3ed9cd2b	0.42539343
80	0x3e663f45	0.22485073
81	0x3d98d84b	0.074631296
82	0x3e4ed9c2	0.20200256
83	0x3e838641	0.25688365
84	0xbce62585	-0.028094063
85	0xbdaef8eb	-0.08543571
86	0xbdcf25b0	-0.1011461
87	0x3e862648	0.2620108
88	0x3eb867b3	0.36016616
89	0xbe821815	-0.25408998
90	0xbe27a96a	-0.1637322
91	0xbe075248	-0.13214982
92	0x3e3f0225	0.18653162
93	0x3df2ef4e	0.1186205
94	0xbe314e38	-0.17314994
95	0x3ea9dcdf	0.33176324
96	0x3e559fb3	0.20861702
97	0xbe6c8b43	-0.23099999
98	0xbe776a47	-0.24161635
99	0x3e54211a	0.20715752
100	0xbcb35ddc	-0.021895342
101	0xbe524b44	-0.20536524
102	0x3e85eed4	0.26158774
103	0x3e411dcc	0.18859023
104	0x3e8a9a4a	0.27070838
105	0xbdcdafb5	-0.10043279
106	0x3e73a29e	0.23792502
107	0xbe8f126a	-0.27943736
108	0x3e81253a	0.25223714
109	0x3e99cd66	0.3003952
110	0xbd401a92	-0.04690034
111	0xbe848f71	-0.25890687
112	0xbe8c3e3a	-0.27391225
113	0xbc9a875f	-0.018863378
114	0xbe65a948	-0.22427857
115	0x3e48bd3c	0.19603437
116	0x3e9663b4	0.29372942
117	0x3e54b3a6	0.20771655
118	0x3e8822a5	0.26588932
119	0xbe02899d	-0.12747808
120	0x3ea82f08	0.32848382
121	0xbe24455a	-0.1604208
122	0x3c9b8606	0.018984806
123	0xbdeb7649	-0.114971705
124	0x3deeee8e	0.116665944
125	0x3eb5ec79	0.35531977
126	0xbe8908ed	-0.26764622
127	0xbe37e3b5	-0.17957957
128	0xbe197c4f	-0.14988826
129	0x3e705ef4	0.23473722
130	0xbe27dd90	-0.16393113
131	0xbe16c046	-0.14721784
132	0xbe4f35f6	-0.20235428
133	0x3e9013a7	0.28139994
134	0x3e219651	0.15779997
135	0xbda98b2b	-0.08278497
136	0x3ea50012	0.32226616
137	0xbe6e944d	-0.2329876
138	0xbe47dcf2	-0.19517878
139	0xbe61bfd1	-0.22045828
140	0xbe36e216	-0.17859682
141	0x3a27bbab	0.0006398509
142	0xbe31496d	-0.17313166
143	0x3edb180a	0.42791778
144	0x3e75d448	0.2400676
145	0xbdebe1b9	-0.115176626
146	0x3dfffa4c	0.12498912
147	0xbe0312d5	-0.12800153
148	0x3e774802	0.24148563
149	0x3e1aaf3e	0.15105912
150	0xbe1b8761	-0.15188362
151	0x3e3f94b5	0.18709071
152	0xbe1ae284	-0.15125471
153	0xbe925cce	-0.2858643
154	0x3e7023f9	0.23451222
155	0x3c0fc0c6	0.008773988
156	0xbde6be8b	-0.11266812
157	0xbe4eb8b4	-0.20187646
158	0xbe7e4d77	-0.24834238
159	0xbe4db299	-0.20087661
160	0xbe86cb38	-0.2632692
161	0xbe38d223	-0.18048911
162	0xbe2b4073	-0.16723804
163	0x3e6b6d82	0.22990993
164	0xbe8c469e	-0.27397627
165	0xbe13b740	-0.14425373
166	0xbe0c5155	-0.137029
167	0x3ca9589b	0.020672133
168	0xbd0a0065	-0.033691783
169	0x3e4d9b5e	0.20078799
170	0xbd6a5601	-0.057210926
171	0x3e80d065	0.25158992
172	0x3e9f8923	0.31159315
173	0x3e713bf7	0.23558031
174	0x3ec8050e	0.39066356
175	0x3ec2694e	0.37970966
176	0xbd84e297	-0.06488531
177	0xbe75ce8d	-0.24004574
178	0x3e8ed530	0.27897024
179	0xbe0b2624	-0.13588768
180	0x3d19427e	0.037416928
181	0xbb104683	-0.0022014685
182	0x3e65b0e4	0.2243076
183	0xbdba7ac4	-0.09105447
184	0x3e425c5a	0.18980542
185	0x3eaff5c8	0.34367204
186	0xbdeb71d3	-0.114963196
187	0x3eb6f639	0.35734728
188	0x3ddc202d	0.107483245
189	0xbe6a0599	-0.22853698
190	0x3e1a63ad	0.15077086
191	0xbe1cbe82	-0.15307048
192	0xbea01e65	-0.3127319
193	0x3e77a4d1	0.24183966
194	0xbd4ff542	-0.050771005
195	0x3e9136e9	0.28362206
196	0x3e93bee0	0.28856564
197	0xbe34847b	-0.17628662
198	0x3e7bd616	0.24593386
199	0xbe2f317b	-0.17108719
200	0x3e238df3	0.15972118
201	0xbe1cc605	-0.15309913
202	0xbe80fb82	-0.25191885
203	0x3e555fca	0.20837322
204	0xbdbaddbe	-0.09124325
205	0xbe327974	-0.17429143
206	0x3e5180d9	0.20459308
207	0xbe4de17b	-0.20105545
208	0xbdd1b76f	-0.10240065
209	0xbe01aab5	-0.12662776
210	0x3e55da1e	0.20883986
211	0x3e87e0c4	0.2653867
212	0xbe473ee2	-0.19457582
213	0xbe1e862d	-0.15480871
214	0x3ec27d1a	0.3798607
215	0x3e50e977	0.2040156
216	0x3e8084d6	0.25101346
217	0xbe3dead7	-0.18546616
218	0x3e7c6350	0.2464726
219	0x3ed4ede2	0.4158774
220	0x3e98aca4	0.29819214
221	0x3ea76f9d	0.32702342
222	0xbe7d53dd	-0.24739023
223	0xbe01bcc4	-0.12669665
224	0xbe3e603c	-0.18591398
225	0xbe3ea549	-0.18617739
226	0x3e8f65bd	0.28007308
227	0xbe0f2426	-0.13978633
228	0xbe310720	-0.17287874
229	0x3e921320	0.28530216
230	0xbe257366	-0.16157302
231	0xbe35fa27	-0.17771207
232	0xbe48bf22	-0.19604161
233	0x3e51286c	0.20425576
234	0xbe3f5977	-0.18686472
235	0x3ead261b	0.33818135
236	0x3e5b1c63	0.21397547
237	0xbd36d21d	-0.044633973
238	0xbe801aad	-0.25020352
239	0xbe45b119	-0.19305839
240	0x3b901922	0.0043975273
241	0xbde7172f	-0.11283719
242	0xbe2026f4	-0.1563986
243	0x3e2f5a70	0.17124343
244	0xbe28ac02	-0.16471866
245	0x3e562374	0.20911962
246	0x3eacf2f2	0.33779103
247	0x3e9d4329	0.30715302
248	0x3eb1519c	0.34632576
249	0xbd8f78b5	-0.07005445
250	0x3e7b115f	0.24518345
251	0xbe398825	-0.18118341
252	0xbda4bd12	-0.08043875
253	0x3e4c63f8	0.1996001
254	0xbdf92bb9	-0.121665426
255	0xbdc48b61	-0.09596897

l3.weight f4 [1, 256]
0	0x3eb4548b	0.3522075
1	0x3f45dacb	0.77286977
2	0x3fa63d49	1.2987453
3	0xbf8894a3	-1.067036
4	0xc014f87a	-2.3276658
5	0x3ee0de00	0.43919373
6	0x3f25c55c	0.6475427
7	0x3eeb5f33	0.4597107
8	0x3f067478	0.5252147
9	0x3f7c29d3	0.9850132
10	0xc069339d	-3.6437752
11	0xc038337c	-2.8781424
12	0xbfda78ff	-1.7068175
13	0xbf5e5b70	-0.8685827
14	0x3f0d2545	0.55134994
15	0x3f49a8c5	0.78773147
16	0xbfacd82a	-1.3503468
17	0x3f412013	0.75439566
18	0x3f23dddb	0.640104
19	0x3edb9bd9	0.4289234
20	0xbfdee1be	-1.7412641
21	0xbf75c8df	-0.9600963
22	0x3f366cd3	0.712598
23	0x3fd3684c	1.6516204
24	0xbfc83626	-1.5641525
25	0x3f37a8a3	0.71741694
26	0x3e90e6b0	0.28301
27	0xbfa1b825	-1.2634321
28	0xbf8ab52a	-1.0836537
29	0x3f688434	0.90826726
30	0x3ead79c0	0.3388195
31	0x400595a7	2.087259
32	0x3f3dd063	0.741461
33	0xbf5108c4	-0.81654
34	0xbf84bb83	-1.0369724
35	0x3b1b8441	0.0023729953
36	0x3f722f3b	0.9460332
37	0x3ec1471a	0.3774956
38	0xbf7b2567	-0.98103946
39	0x4011e815	2.2797902
40	0xbf886637	-1.0656193
41	0xbc76ee49	-0.01507146
42	0x3f43d36b	0.76494473
43	0xbf637002	-0.88842785
44	0x3ea278e8	0.3173287
45	0x3f8afef9	1.0859061
46	0xc01b9019	-2.43067
47	0xbf817a85	-1.0115515
48	0xc00e6dca	-2.225451
49	0x3fa82a5f	1.3137931
50	0x3f0eace0	0.55732536
51	0xbfae71e6	-1.3628509
52	0xbfd0d848	-1.6316004
53	0xc00723f9	-2.1115706
54	0xbf7be591	-0.98397166
55	0x3ea8a699	0.32939604
56	0x3f15d033	0.5852081
57	0x4012ab66	2.2917113
58	0xbf8b483a	-1.0881417
59	0x3ed5b1ca	0.41737205
60	0xbfb33f64	-1.400372
61	0x3f770e64	0.96506333
62	0xbf436f84	-0.76342034
63	0xbf8df53d	-1.1090466
64	0x3f2f5636	0.6849092
65	0x3fad0482	1.3517001
66	0xbf9d00ab	-1.2265829
67	0xbfa2ed1d	-1.2728611
68	0xbfa90c79	-1.3206931
69	0x3f45492d	0.7706478
70	0xc0023c21	-2.03492
71	0x40369994	2.8531237
72	0x3f177bd1	0.59173304
73	0xbf7d2b9d	-0.98894674
74	0x3ef366dd	0.47539416
75	0xbf92d335	-1.1470705
76	0x3f52cff0	0.8234854
77	0xc01307ac	-2.2973433
78	0xbf7df374	-0.99199605
79	0x3e9be67b	0.3044928
80	0x3f6c0671	0.9219733
81	0x3f8300b7	1.0234593
82	0x3f5ab3be	0.85430515
83	0x3f40c48a	0.75299895
84	0x3c2e87ea	0.010652522
85	0xbfe1c30d	-1.763765
86	0xc042c264	-3.0431147
87	0x3f9eeef0	1.2416668
88	0x3eed5420	0.46353245
89	0xbfa3ec59	-1.2806503
90	0xbfa1a872	-1.262953
91	0xbfa03c80	-1.2518463
92	0x3ea70f7e	0.32629007
93	0x3f7a688b	0.9781577
94	0xbf8d41b5	-1.1035677
95	0x3f712402	0.9419557
96	0x3f6a1218	0.9143386
97	0xbf418644	-0.755955
98	0xbfb60f96	-1.4223506
99	0x3ed23d0f	0.4106221
100	0xbfda531c	-1.7056613
101	0xbf852cf4	-1.0404344
102	0x3ee18610	0.44047594
103	0x400a6ef7	2.1630228
104	0x3f90ea08	1.1321421
105	0xbfae751a	-1.3629487
106	0x3fa03f9c	1.2519412
107	0xbfc4f3fd	-1.5386959
108	0x3f34cc2a	0.7062403
109	0x3efc268f	0.49248168
110	0xbcc11bba	-0.023572791
111	0xbf769aac	-0.9632976
112	0xbfcd0594	-1.6017327
113	0xc02a8ed8	-2.6649685
114	0xbfd1c6df	-1.6388816
115	0x3ed64fd2	0.41857773
116	0x3eaa0dd4	0.33213675
117	0x3eb6aa2b	0.35676703
118	0x3ed335a3	0.4125186
119	0xbf8e0b42	-1.1097186
120	0x3ecbdee4	0.3981849
121	0xbf5ab57a	-0.8543316
122	0xbfe8cccb	-1.8187498
123	0xbf64f589	-0.89437157
124	0x3faa3c56	1.3299663
125	0x3ea8a81f	0.32940766
126	0xbf90f7ed	-1.1325661
127	0xbfb17b10	-1.3865681
128	0xbf60f09f	-0.8786716
129	0x3eb5e2cb	0.35524592
130	0xbfb06a72	-1.3782485
131	0xbf697fb7	-0.912105
132	0xbf90dd3e	-1.1317518
133	0x3fb30394	1.3985467
134	0x3f844aa6	1.0335281
135	0xbfb659bb	-1.4246134
136	0x3e9ef74f	0.31048056
137	0xbfb2d977	-1.3972615
138	0xc040ada6	-3.0105987
139	0xbf7a8e0b	-0.9787299
140	0xbfae3011	-1.3608419
141	0xbfa11abd	-1.2586285
142	0xbfa0921f	-1.2544593
143	0x3ea33010	0.31872606
144	0x3f54ec61	0.83173186
145	0xc03e1d80	-2.9705505
146	0x3f5eacfc	0.86982703
147	0xbfa12e17	-1.259219
148	0x3f5f3dc7	0.8720364
149	0x3f967aa0	1.1756172
150	0xbf8da2c4	-1.1065297
151	0x4027b52c	2.6204329
152	0xbf9126b5	-1.1339937
153	0xbfea44a3	-1.8302196
154	0x3ee14bd7	0.44003174
155	0xbfbce657	-1.4757794
156	0xbf5b11e2	-0.8557416
157	0xbfc274f8	-1.5191946
158	0xbf975217	-1.1821927
159	0xbf7cb421	-0.98712355
160	0xbf53de5f	-0.82761186
161	0xbfa89be2	-1.3172572
162	0xbf9db66e	-1.2321298
163	0x3f90daf0	1.1316814
164	0xbf950e07	-1.1644906
165	0xbf9402a0	-1.1563301
166	0xbfbb2867	-1.4621705
167	0xc019687a	-2.3970017
168	0xc03be99a	-2.936133
169	0x3f5fbe1c	0.8739946
170	0xc01d31ba	-2.45616
171	0x3ec41061	0.38293746
172	0x3ea8ffd1	0.33007672
173	0x3ed68bc4	0.41903508
174	0x4003d371	2.0597804
175	0x3ec2956c	0.38004625
176	0x3d4d49cd	0.05011921
177	0xbfc223b8	-1.516715
178	0x3f42f68c	0.7615745
179	0xbfc8dcc4	-1.5692372
180	0x4043f612	3.061894
181	0xc00b90d5	-2.1807148
182	0x3f335889	0.7005697
183	0xbf87964a	-1.059274
184	0x3f11efbf	0.5700645
185	0x3f196bc1	0.59930044
186	0xbf8e8f8a	-1.1137555
187	0x3f188c83	0.59589404
188	0xc0044103	-2.066468
189	0xbf91a7bc	-1.1379313
190	0xc0239348	-2.5558643
191	0xbf976672	-1.1828139
192	0xbf9bbf84	-1.2167821
193	0x3f16e003	0.58935565
194	0xbf64374e	-0.8914689
195	0x3fb5d319	1.4205047
196	0x3e9ac40d	0.302277
197	0xbf6b762c	-0.9197719
198	0x3f1f60b9	0.6225696
199	0xbfc14d65	-1.5101744
200	0x40118acc	2.2740965
201	0xbfc26287	-1.5186318
202	0xc01389c1	-2.3052828
203	0x3eff0c60	0.4981413
204	0xbf9b9739	-1.2155524
205	0xbf99718d	-1.1987778
206	0x3f8c101d	1.0942417
207	0xbf995e8a	-1.1981976
208	0xbf80be1d	-1.0058018
209	0xbfb1dbeb	-1.3895239
210	0x3ef66bee	0.4812922
211	0x3f64da1d	0.89395314
212	0xbf9fb7d9	-1.2477981
213	0xbfc1dc09	-1.5145274
214	0x3f5cf801	0.86315924
215	0x3f072434	0.52789617
216	0x3ed57443	0.41690263
217	0xbf5e7333	-0.8689453
218	0x3f3d7081	0.7399979
219	0x3ea9294a	0.33039314
220	0x3f0346ef	0.5128011
221	0x3ed97552	0.4247232
222	0xbfa5639e	-1.2921026
223	0xbfc320ee	-1.5244424
224	0xbfbf429b	-1.4942201
225	0xbf63eeef	-0.8903646
226	0x3ef0c617	0.4702613
227	0xbf87c1f8	-1.060607
228	0xbff3b4df	-1.9039572
229	0x3ed1b939	0.40961626
230	0xbf825472	-1.0182021
231	0xbfaaeac3	-1.3352894
232	0xbfffab31	-1.9974118
233	0x3f133a6f	0.5751104
234	0xc0179dcc	-2.3690062
235	0x3eaa8217	0.33302376
236	0x3f36d149	0.71413094
237	0xbf8bca43	-1.09211
238	0xbfa95a8b	-1.3230757
239	0xbf98d854	-1.1941018
240	0x40381793	2.8764389
241	0xbfa1848a	-1.2618573
242	0xbfeb32fc	-1.8374934
243	0x3f471036	0.7775911
244	0xbf87cf15	-1.0610071
245	0x3f81f832	1.0153868
246	0x3f130596	0.574304
247	0x3f02d209	0.5110174
248	0x3fdaac20	1.7083778
249	0xbf3d2905	-0.73890716
250	0x3eeb9b5b	0.46016964
251	0xbfce5bda	-1.6121781
252	0xbfc83f0b	-1.5644239
253	0x3f6560c5	0.89600784
254	0xbfb53667	-1.4157227
255	0xbfdb499e	-1.7131841

l4.weight f4 [256, 32]
0	0xbe6ca87c	-0.23111147
1	0xbdb18cf2	-0.08669461
2	0xbdaa187d	-0.08305452
3	0xbfa2e7cd	-1.272699
4	0x3e225af5	0.1585501
5	0x3ec13e7d	0.37742987
6	0xbddf3c2c	-0.10900149
7	0x3d65e4a1	0.05612624
8	0x3ede486f	0.43414637
9	0xbcdc70be	-0.026909228
10	0x3eb2ba89	0.3490794
11	0x3eaba8dd	0.3352727
12	0xbe020b60	-0.12699652
13	0xbef3a21f	-0.47584626
14	0x3daee229	0.085392304
15	0x3e0900f8	0.13379276
16	0x3eb7b17e	0.35877603
17	0x3cad9f08	0.021193996
18	0x3e954787	0.29156134
19	0xbe32e98a	-0.174719
20	0x3e23f8b0	0.16012836
21	0xbe2e6a83	-0.17032818
22	0x3e8ce259	0.2751644
23	0x3e4f4088	0.2023946
24	0x3e1e94fb	0.15486519
25	0x3ec4055b	0.38285336
26	0x3e436659	0.19082011
27	0xbe020218	-0.12696111
28	0x3e177a0a	0.14792648
29	0x3e0a4b56	0.13505301
30	0xbd8cf980	-0.06883526
31	0x3e7c330e	0.24628851
32	0xbe8e6e83	-0.2781869
33	0xbcf6c0ad	-0.030121172
34	0xbe5451a0	-0.20734262
35	0x3e93ea5e	0.28889745
36	0xbddbe6ae	-0.10737358
37	0x3f4bd70d	0.79625016
38	0xbde06886	-0.10957436
39	0x3d9cafed	0.07650743
40	0x3f16f439	0.58966404
41	0x3ec4ca44	0.38435566
42	0xbe991329	-0.2989743
43	0xbeff12fa	-0.49819165
44	0x3e820e6d	0.2540163
45	0xbde5738e	-0.11203681
46	0x3f0f2dd3	0.559293
47	0x3e096b91	0.1341994
48	0xbe9a45ee	-0.30131477
49	0xbe5d914d	-0.21637459
50	0xbeb78cf9	-0.3584974
51	0x3e932416	0.2873847
52	0xbd170011	-0.036865298
53	0x3e3df51e	0.18550536
54	0x3f17bff2	0.5927726
55	0x3dc5f3fb	0.09665676
56	0xbdb02e87	-0.086026244
57	0x3b1ae61f	0.0023635698
58	0x3e23b65c	0.15987533
59	0xbc27a6c7	-0.010232634
60	0xbe954b6a	-0.291591
61	0x3ea48afb	0.32137284
62	0xbead7780	-0.33880234
63	0x3d2638c1	0.04058147
64	0x3e8bbdca	0.27293235
65	0xbbad2694	-0.00528414
66	0xbd43d509	-0.047810588
67	0x3f5937a3	0.8485052
68	0xbdd44cca	-0.10366209
69	0xbea5cb5f	-0.32381722
70	0x3df03d1c	0.11730406
71	0xbd10c030	-0.035339534
72	0xbf096d99	-0.5368286
73	0xbee63476	-0.449619
74	0xbeccf8f7	-0.40033695
75	0xbe04492d	-0.1291854
76	0x3e8700e5	0.2636787
77	0x3d8bf2f3	0.06833448
78	0xbf1ac7ad	-0.6046093
79	0xbf25f1a8	-0.64821863
80	0xbf19d145	-0.60084945
81	0xbed48297	-0.41505882
82	0x3eb9adf5	0.3626553
83	0xbe94998e	-0.29023403
84	0xbe6a2296	-0.22864756
85	0x3d5cc0fe	0.05389499
86	0x3d45652b	0.048192184
87	0x3e856eb4	0.26061022
88	0x3f2e832a	0.6816889
89	0xbf001354	-0.5002949
90	0xbd23dc55	-0.040005047
91	0x3e0ab17e	0.1354427
92	0xbbd2adac	-0.0064293947
93	0xbcb3130a	-0.021859664
94	0xbd9ef406	-0.077613875
95	0xbc7af5ca	-0.01531739
96	0x3ec3ca13	0.38240108
97	0x3e0a0de4	0.13481861
98	0x3dff5236	0.12466852
99	0xbdc0f980	-0.09422588
100	0xbda02369	-0.07819254
101	0xbd916329	-0.070989914
102	0xbdc25aac	-0.094899505
103	0x3e67ae28	0.22625029
104	0x3e0002e4	0.12501103
105	0x3cafa1ce	0.02143946
106	0xbe28bcd6	-0.16478285
107	0xbd8ceeb4	-0.068814665
108	0x3e7d721e	0.24750564
109	0xbc8f4d06	-0.017492782
110	0xbe74ea1c	-0.2391743
111	0x3ea3d678	0.31999564
112	0x3ec5026a	0.38478404
113	0x3e8003cb	0.25002894
114	0xbed171f2	-0.40907246
115	0xbe980163	-0.29688558
116	0x3e3b0f59	0.18267573
117	0x3d88f7fe	0.06687926
118	0xbe39056b	-0.18068473
119	0xbc9daebd	-0.01924836
120	0xbde700f1	-0.112794764
121	0xbefdbb33	-0.49556884
122	0xbd91edc5	-0.07125429
123	0xbdbd65b0	-0.09247911
124	0xbd6d38fa	-0.057915665
125	0xbc2496a3	-0.01004568
126	0x3d5c2953	0.053750347
127	0xbe12a1fd	-0.14319606
128	0x3c32080e	0.010866178
129	0xbe043c44	-0.12913615
130	0x3d863492	0.06552996
131	0x3f15e0d4	0.58546185
132	0xbda2b089	-0.07943828
133	0xbe9d77f1	-0.3075557
134	0xbe15c154	-0.1462453
135	0x3ec5866d	0.3857912
136	0x3c8bc499	0.017061519
137	0x3f0d32b3	0.55155486
138	0x3e2f1e61	0.17101432
139	0xbf454f93	-0.77074546
140	0xbe10cde9	-0.14141048
141	0x3e3ad2cf	0.1824448
142	0xbe576050	-0.21032834
143	0x3d810590	0.06299889
144	0x3e7e3ce5	0.24827917
145	0x3cf4ea9b	0.029897025
146	0xbf4fe48e	-0.8120812
147	0xbd4844b6	-0.048893653
148	0x3e1c4191	0.15259387
149	0x3cc89826	0.024486613
150	0x3e308205	0.17237099
151	0xbc67f6f7	-0.014158002
152	0xbf375f87	-0.7163014
153	0x3e75ddfa	0.24010459
154	0x3dff707c	0.124726266
155	0xbe86061f	-0.26176545
156	0xbd2bcf3b	-0.041945677
157	0xbe7f3f9f	-0.24926613
158	0x3dcf656b	0.10126766
159	0xbe83a60a	-0.25712615
160	0x3e9d7204	0.3075105
161	0xbd420bbb	-0.04737447
162	0xbd034a5e	-0.032053344
163	0x3f8e2024	1.1103559
164	0x3e1faf81	0.15594293
165	0x3f28c716	0.6592878
166	0x3e21c322	0.15797094
167	0x3efa52b6	0.48891228
168	0xbe9fcfcc	-0.31213224
169	0xbf13081c	-0.5743425
170	0x3ccdcfbc	0.02512347
171	0xbd982eab	-0.07430776
172	0x3cd47be3	0.02593798
173	0x3d8c6c04	0.0685654
174	0xbdcc5c14	-0.099785
175	0xbd60014f	-0.054688748
176	0xbf352425	-0.7075828
177	0xbdbbdb71	-0.091727145
178	0xbda217be	-0.07914685
179	0x3d7f8d18	0.062390417
180	0x3cf7dcc1	0.03025663
181	0x3ec11436	0.37710732
182	0x3d9377a0	0.07200551
183	0x3caf36aa	0.02138837
184	0x3e710fac	0.23541135
185	0x3dd91bf1	0.106010325
186	0xbd3a77d5	-0.045524437
187	0xbd7afb05	-0.061274547
188	0x3d92e422	0.07172419
189	0x3ac6b2c4	0.0015159477
190	0x3dc0b8d3	0.094102524
191	0x3d881838	0.06645244
192	0x3eca930d	0.39565316
193	0x3dada409	0.08478553
194	0x3e5ece28	0.2175833
195	0x3f7ddde3	0.991667
196	0xbc44ee6a	-0.012019733
197	0x3f41d4f2	0.75715554
198	0x3ddc1dd6	0.10747878
199	0xbe713c7e	-0.23558232
200	0x3d15f418	0.03660974
201	0x3f14b543	0.58089083
202	0x3a999c18	0.0011719493
203	0xbe48af97	-0.19598232
204	0x3e90a2cf	0.28249213
205	0x3d95e971	0.07319916
206	0xbe97162e	-0.2950911
207	0x3e394df1	0.18096139
208	0xbd7605f3	-0.060064267
209	0x3d81f5d1	0.06345714
210	0x3e52d964	0.2059074
211	0x3d9dcf7e	0.077055916
212	0x3d60c15d	0.054871906
213	0x3da0007a	0.07812591
214	0x3e77e218	0.24207342
215	0xbd92f3cc	-0.07175407
216	0x3e9907f8	0.29888892
217	0xbdc465f6	-0.0958976
218	0x3d2cd2e0	0.042193294
219	0x3cd209ce	0.02563944
220	0xbe0737d8	-0.13204896
221	0x3d6c865f	0.057745334
222	0xbd4a1a35	-0.0493414
223	0x3d70581e	0.058677785
224	0xbe3df3af	-0.18549989
225	0x3e078035	0.13232501
226	0xbd250a4d	-0.040293027
227	0xbf066d2d	-0.5251034
228	0xbdc8c337	-0.09802859
229	0xbdc795bf	-0.09745359
230	0x3de4d7f6	0.11174004
231	0xbd9d4c83	-0.07680609
232	0x3f5cff4a	0.8632704
233	0x3ead6064	0.33862603
234	0xbef94279	-0.48683527
235	0x3e003ea4	0.12523896
236	0x3d826c47	0.063683085
237	0x3e8c41f1	0.2739406
238	0x3e9b31e9	0.30311516
239	0xbe4e12cd	-0.2012436
240	0xbefc14e9	-0.49234703
241	0xbf0345ea	-0.51278555
242	0xbfa63aca	-1.2986691
243	0xbe37569a	-0.1790413
244	0x3d64f78f	0.055900153
245	0xbe18910e	-0.14899084
246	0xbed8e1b0	-0.42359686
247	0x3e443486	0.19160661
248	0xbfdc40e1	-1.72073
249	0xbe1a6c7e	-0.15080449
250	0xbc2cc106	-0.010544067
251	0xbd57d267	-0.05269089
252	0x3e57f373	0.21088962
253	0xbcc95f6e	-0.024581637
254	0x3df04ab0	0.117329955
255	0xbdaa88bb	-0.083268605

l4.bias f4 [256]
0	0xbd64b1d3	-0.05583365
1	0xbeef34f7	-0.46720096
2	0xbd96faa8	-0.07372028
3	0x3de3f34a	0.11130388
4	0xbdf2a64c	-0.11848125
5	0xbd02fa20	-0.03197682
6	0x3e9ccd82	0.3062554
7	0xbcb3a092	-0.021927152
8	0x3cbda8af	0.023151724
9	0x3e41874c	0.18899268
10	0xbe14248e	-0.1446707
11	0xbe90bdcb	-0.282698
12	0x3da4257a	0.080149606
13	0xbe88f096	-0.26746053
14	0xbd4b91f4	-0.04969974
15	0xbdc955d4	-0.098308235
16	0xbe78f92e	-0.24313805
17	0x3d66d176	0.0563521
18	0x3e8d9669	0.27653816
19	0x3e46d7a5	0.194182
20	0xbe08212a	-0.13293901
21	0xbd942915	-0.07234398
22	0x3dbf59da	0.0934331
23	0xbe7e4f8b	-0.2483503
24	0x3d9d0f11	0.07668889
25	0x3d011a6f	0.03151935
26	0x3e961d58	0.29319263
27	0xbd6f00dc	-0.05835043
28	0xbe579d7a	-0.21056166
29	0x3e8d29f6	0.27571076
30	0x3e831f90	0.25610018
31	0xbee7d55d	-0.4527997
32	0x3d186b8a	0.037211932
33	0x3ebfbb19	0.37447432
34	0xbd8d5e2d	-0.06902728
35	0x3ea60de0	0.3243246
36	0x3d8b090b	0.06788834
37	0x3e82c41a	0.2554024
38	0x3e8aed35	0.271341
39	0x3dcf13b9	0.10111184
40	0x3e3c40e6	0.18384132
41	0xbd912590	-0.070872426
42	0x3cfd8345	0.030946383
43	0x3dff224e	0.12457715
44	0xbd6d64c5	-0.05795743
45	0x3e88aa27	0.26692316
46	0xbddae6b4	-0.106885344
47	0xbe1265b6	-0.14296612
48	0x3eb39b2b	0.3507932
49	0xbd71c54f	-0.05902606
50	0xbdafe506	-0.08588605
51	0x3de7783d	0.113022305
52	0xbdffa782	-0.124831215
53	0x3df831b8	0.12118858
54	0x3e3ae28d	0.18250485
55	0x3da44dfd	0.080226876
56	0xbc2fe6cf	-0.010736181
57	0xbc81bf7d	-0.015838379
58	0xbdaa4abb	-0.08315035
59	0xbc6460a7	-0.013939059
60	0xbe88f5a0	-0.26749897
61	0xbe8d846a	-0.27640086
62	0xbcd7c0b6	-0.026337009
63	0x3e387dd4	0.1801675
64	0xbe3465e1	-0.17616989
65	0xbdefcb1e	-0.117086634
66	0xbd2345c1	-0.039861444
67	0x3c406b75	0.01174437
68	0xbda9dedb	-0.082944594
69	0x3e5e15bb	0.21687977
70	0xbd28927d	-0.041155327
71	0x3d9fe2e2	0.07806946
72	0x3d750a62	0.059824355
73	0xbe12309f	-0.1427636
74	0xbe4fd0d2	-0.20294502
75	0x3e3d73fe	0.18501279
76	0x3c7058ad	0.014669579
77	0x3e8cc3a6	0.27493018
78	0xbe32cefe	-0.17461774
79	0xbd41b553	-0.047292065
80	0xbe097453	-0.1342328
81	0xbb2e26db	-0.0026573453
82	0xbd625e14	-0.0552655
83	0x3e415f4c	0.18884009
84	0x3e5ba467	0.21449433
85	0xbe5f318e	-0.21796247
86	0x3e662f60	0.2247901
87	0xbe8c112b	-0.27356848
88	0x3e913651	0.28361753
89	0x3e80a6d0	0.25127268
90	0xbd8090f7	-0.0627765
91	0x3cb6e95e	0.022328075
92	0x3e46acd3	0.19401865
93	0xbe980f5f	-0.29699227
94	0xbe10865c	-0.14113754
95	0x3e4a9cb7	0.19786344
96	0x3c9dda00	0.01926899
97	0x3dd12467	0.10212021
98	0x3e834a4d	0.25642624
99	0xbe0830fd	-0.13299938
100	0x3dd6826c	0.10474095
101	0x3e439b2f	0.19102167
102	0x3e9886c8	0.2979033
103	0x3ea8e207	0.32984945
104	0xbdc94768	-0.09828073
105	0xbe075b18	-0.13218343
106	0x3efbed55	0.49204507
107	0xbe8208ae	-0.25397247
108	0xbe8a377b	-0.26995453
109	0xbb6fe22d	-0.0036603317
110	0x3d8ffa96	0.07030217
111	0xbca7af1d	-0.020469243
112	0xbe98cc61	-0.2984343
113	0x3e4274d8	0.18989885
114	0xbe9e6229	-0.30934265
115	0x3e1662ce	0.14686128
116	0x3d125b24	0.03573145
117	0xbda45908	-0.08024794
118	0x3e210b1e	0.15726897
119	0xbe2186b7	-0.15774046
120	0x3e3de4a1	0.18544246
121	0x3e841fdc	0.25805557
122	0x3e564a9a	0.20926896
123	0x3d8264db	0.06366893
124	0x3e070bc3	0.1318808
125	0xbeab0388	-0.33401132
126	0x3d497f05	0.0491934
127	0x3e70d977	0.23520456
128	0xbde037ff	-0.109481804
129	0x3dececaf	0.11568581
130	0x3d72b660	0.059255958
131	0xbe3ace04	-0.18242651
132	0x3e31dfca	0.17370525
133	0xbeab738a	-0.33486587
134	0x3e97f20e	0.2967686
135	0xbd196e4a	-0.037458695
136	0x3d37571c	0.04476081
137	0x3dd449d7	0.10365646
138	0x3e10327f	0.14081763
139	0x3ea1dc33	0.3161331
140	0xbe3785c3	-0.1792212
141	0x3d95807e	0.072998986
142	0x3e16b21c	0.14716381
143	0x3e976a4b	0.29573283
144	0x3cbf503d	0.02335369
145	0xbe882dcf	-0.2659745
146	0x3eb3d113	0.35120448
147	0x3e1ba125	0.1519819
148	0xbd09d7e6	-0.033653162
149	0x3e832939	0.25617388
150	0x3e4e9630	0.2017448
151	0xbeabd27f	-0.33559033
152	0xbe934704	-0.28765118
153	0xbdf53227	-0.119724564
154	0xbe25543c	-0.16145414
155	0xbe8cb204	-0.27479565
156	0xbe668122	-0.22510198
157	0x3e08ddf4	0.13365918
158	0x3dc9f6f7	0.09861558
159	0xbcbfbcb8	-0.023405418
160	0x3e646d3e	0.22307298
161	0xbd9d0708	-0.07667357
162	0x3e805471	0.25064424
163	0xbd50f8a3	-0.05101837
164	0x3e2e78ee	0.17038319
165	0x3e6ef668	0.23336184
166	0xbe753d14	-0.2394908
167	0x3e6f2458	0.23353708
168	0xbe97a509	-0.296181
169	0x3e142286	0.14466295
170	0x3e05a335	0.1305054
171	0xbe111aec	-0.14170426
172	0x3dd754f8	0.105142534
173	0x3e9e2064	0.30884087
174	0xbdaf93d5	-0.085731186
175	0x3e698eb6	0.22808346
176	0xbebab9e4	-0.36469948
177	0xbdb383ed	-0.08765397
178	0x3eb7f226	0.35926932
179	0xbc34e370	-0.011040553
180	0x3e7d59fb	0.24741356
181	0x3e1b5263	0.15168147
182	0x3e4236d3	0.18966226
183	0x3ce619b9	0.028088437
184	0x3e721d6b	0.23644035
185	0x3d0b15f7	0.033956494
186	0x3d478028	0.048706204
187	0xbe99a091	-0.30005315
188	0xbe9a4de1	-0.30137542
189	0xbd88913a	-0.06668325
190	0xbe92f574	-0.2870289
191	0x3e72309b	0.23651354
192	0x3e890f8f	0.26769683
193	0xbd6ecb7b	-0.058299523
194	0xbdab77f9	-0.08372492
195	0xbe5f559c	-0.21810001
196	0x3e8b1dce	0.27171177
197	0x3e1ee93b	0.15518658
198	0xbd2c2ed8	-0.04203686
199	0xbe96146e	-0.29312462
200	0xbe330fbd	-0.17486472
201	0x3e99d92a	0.30048496
202	0x3c6ae703	0.014337304
203	0xbec795c3	-0.38981447
204	0xbd1f7df3	-0.038938474
205	0xbd045d99	-0.032315824
206	0xbec76ecb	-0.38951716
207	0x3dffb986	0.12486558
208	0x3da55842	0.080734745
209	0x3d04aa97	0.03238925
210	0x3d987117	0.07443445
211	0xbe7c3e67	-0.2463318
212	0xbe1b8633	-0.15187912
213	0x3e93a622	0.28837687
214	0x3ebf72bf	0.37392232
215	0x3e2d8439	0.1694497
216	0x3e5103cf	0.20411609
217	0x39b80036	0.00035095372
218	0xbe2a0fef	-0.1660764
219	0x3cd02535	0.025408367
220	0xbeab760c	-0.334885
221	0xbdd6fcef	-0.10497462
222	0xbeacf79e	-0.33782667
223	0x3db75f6c	0.08953747
224	0x3e9e6e33	0.3094345
225	0xbe4cc4fa	-0.19997016
226	0xbe354168	-0.17700732
227	0xbe8c9b83	-0.27462396
228	0xbdf46e2f	-0.11935078
229	0xbc4e3c1c	-0.012587573
230	0x3d1d6602	0.03842736
231	0x3b4223fb	0.0029623497
232	0x3e7e81e2	0.24854234
233	0x3dcccfc4	0.10000566
234	0x3e40d971	0.18832947
235	0xbce06b17	-0.027394814
236	0xbe385c98	-0.18004072
237	0x3dbc1afb	0.091848336
238	0x3d60237d	0.054721344
239	0x3e6bf681	0.23043253
240	0x3e690549	0.22755922
241	0x3e2b5664	0.16732174
242	0xbe49c3c1	-0.1970358
243	0x3e9f6d14	0.31137908
244	0x3e9ac6fc	0.30229938
245	0xbd83c9c8	-0.06434971
246	0x3e987927	0.29779932
247	0x3eb02413	0.34402522
248	0x3e474370	0.19459319
249	0x3e38b027	0.18035947
250	0x3e8c95cd	0.2745804
251	0xbe3ed0da	-0.18634358
252	0xbe09e5b4	-0.13466531
253	0x3e5d2166	0.21594772
254	0xbe97b569	-0.29630592
255	0xbda0141d	-0.07816336
