p2/0.5HalfCheetahBulletEnv-v0_TD3_BC_1234_1638594853_td3_bc.pth (torch, 898805 bytes, 16 tensors)

l1.weight f4 [256, 32]
0.076595806 0.04824849 0.05762716 0.30151182 -0.11836784 0.13222104 0.25828847 0.08807798
-0.07430419 0.10746808 -0.111964084 -0.26914254 -0.15104157 -0.20961791 0.23232098 0.13505442
-0.27317563 0.059399005 0.24178328 0.18980609 0.049865127 -0.23435622 0.008105884 0.12736765
-0.2504808 0.14677149 0.07267646 -0.0030451827 -0.19676825 0.15056531 -0.019284088 0.049656563
-0.7094635 0.00019322222 0.014224065 -0.16116267 -0.083887845 0.47172195 -0.04270835 0.105455734
0.1401381 0.4500904 -0.054608114 -0.106360726 -0.04272848 0.30113772 0.24754016 -0.52779233
-0.022398384 -0.5200162 -0.086355835 0.043773565 0.0509671 -0.122586906 -0.09703847 -0.07513706
0.28362292 0.18424176 4.4691555e-05 0.049891617 0.16775589 -0.01067302 -0.20068432 0.030977584
0.37407947 -0.041743208 0.23882926 -0.9524499 0.077768624 -0.36147732 -0.071083836 -0.13419443
-0.044534493 0.35956594 0.29694867 0.22582106 0.2515627 -0.0072420794 -0.4836735 -0.02625695
0.36758724 0.1320526 -0.1983939 0.14582533 0.055901855 0.45093095 -0.07880304 0.040572394
0.07706189 -0.11325224 -0.081804395 -0.0024621538 -0.042021863 0.020931337 0.01998873 -0.058014754
-0.34779572 0.0789676 0.044819783 -0.3059106 0.06472424 -0.30948955 -0.28603575 -0.09634673
-0.032425404 -0.08662936 -0.20289472 -0.26429138 -0.31495568 0.22789384 0.3261925 0.059975293
0.16813207 0.0060766707 0.22621852 -0.24867095 0.122947015 -0.05276404 -0.093558885 -0.100936264
0.41136304 -0.19714265 -0.0016186694 -0.01618987 0.06999091 0.035159238 0.122762375 -0.13988167
-0.55639327 -0.11144326 -0.20718646 0.009537147 -0.13565996 0.95078415 0.03467191 0.29213127
-0.10409181 0.067429945 -0.14664978 0.13614821 0.04598161 0.18439034 0.21857558 0.7623074
0.27285928 0.40150136 -0.48799062 -0.023038898 0.09784817 -0.2591283 0.0012271377 -0.17409149
-0.05706897 -0.2754544 -0.010104972 -0.015103478 0.11671426 -0.06574044 0.06136667 -0.032308627
0.48433486 -0.11000441 0.02917498 -0.09038838 -0.054977823 -0.11277422 0.34375942 -0.039755225
-0.3086656 -1.5668899 -0.54349625 -0.7727722 -0.5938098 -0.13586092 -0.39804363 -0.08014686
0.44435167 0.14372273 -0.014376317 0.07372978 0.03526936 0.014933093 0.058764227 0.10545464
-0.5768123 0.12660636 -0.106121145 0.04952223 0.05933732 0.030563982 -0.012210695 0.02956731
0.075728826 -0.15567014 0.039765935 0.46687502 -0.027627237 0.43889046 -0.16784035 -0.038444296
0.07938221 0.33561406 0.12681088 0.24194846 0.18603833 0.03347988 0.33071336 0.27994743
0.0066199116 -0.12814182 -0.4001871 -0.22874424 0.117797725 0.26718163 0.08300085 -0.003047986
0.30319598 0.24524629 -0.0019104513 0.02091921 -0.0360653 -0.016824687 -0.0047941487 -0.023380624
-0.18355428 0.16241461 -0.20357278 -0.36512846 -0.07574288 0.4002473 0.29652214 0.10725381
0.09578925 0.48507625 -0.30326822 -0.15100093 -0.67241883 -0.15861101 -0.054456424 0.24599314
-0.63717085 0.11087053 0.18180767 -0.1860334 -0.28364357 -0.0934603 -0.005194906 0.4239071
0.12715447 0.21515761 0.25025323 -0.17552459 -0.05170305 -0.15088151 0.07923593 -0.14690074
00000000: 43de 9c3d 35a0 453d 750a 6c3d c25f 9a3e
00000010: d76a f2bd f464 073e 633e 843e 3a62 b43d
00000020: cc2c 98bd 3a18 dc3d 6d4d e5bd 0dcd 89be
00000030: a4aa 1abe 14a6 56be 8de5 6d3e b54b 0a3e
00000040: addd 8bbe 5f4c 733d 0996 773e 875c 423e
00000050: 603f 4c3d 14fb 6fbe 8bce 043c aa6c 023e
00000060: 053f 80be 444b 163e 65d7 943d b091 47bb
00000070: 9e7d 49be cb2d 1a3e aaf9 9dbc ae64 4b3d
00000080: 669f 35bf b29b 4a39 0d0c 693c d407 25be
00000090: 64cd abbd 8a85 f13e f3ee 2ebd 2df9 d73d
000000a0: 5d80 0f3e 4072 e63e c2ac 5fbd a7d3 d9bd
000000b0: 0f04 2fbd b92e 9a3e 2b7b 7d3e 661d 07bf
000000c0: d17c b7bc c81f 05bf 54db b0bd e94b 333d
000000d0: e1c2 503d d80e fbbd 1bbc c6bd 75e1 99bd
000000e0: 0637 913e dfa9 3c3e 3173 3b38 275b 4c3d
000000f0: 33c8 2b3e e4dd 2ebc 3180 4dbe b4c4 fd3c
00000100: 5887 bf3e edfa 2abd a88f 743e c2d3 73bf
00000110: 2845 9f3d 8e13 b9be 6794 91bd 446a 09be
00000120: cd69 36bd 0719 b83e a809 983e a33d 673e
00000130: d4cc 803e f74e edbb 0ea4 f7be d118 d7bc
00000140: 6534 bc3e cc38 073e c527 4bbe 3c53 153e
00000150: 58f9 643d 6ce0 e63e 7d63 a1bd 3d2f 263d
00000160: a0d2 9d3d caf0 e7bd 1089 a7bd 165c 21bb
00000170: 1e1f 2cbd 3278 ab3c 68bf a33c e1a0 6dbd
00000180: 4812 b2be c4b9 a13d f394 373d 50a0 9cbe
00000190: 248e 843d 6a75 9ebe 4773 92be 6f51 c5bd
000001a0: 80d0 04bd bc6a b1bd a2c3 4fbe 3351 87be
000001b0: df41 a1be 015d 693e b402 a73e a7a8 753d
000001c0: d02a 2c3e cf1e c73b d4a5 673e 99a3 7ebe
000001d0: a5cb fb3d 1b1f 58bd cd9b bfbd acb7 cebd
000001e0: 2d9e d23e c3df 49be 8829 d4ba 9ea0 84bc
000001f0: 6557 8f3d 2203 103d d76a fb3d 243d 0fbe
00000200: ca6f 0ebf 5d3c e4bd b028 54be b241 1c3c
00000210: 72ea 0abe 9766 733f 2204 0e3d 3b92 953e
00000220: 162e d5bd b618 8a3d 5c2b 16be 706a 0b3e
00000230: 3657 3c3d d2d0 3c3e 47d2 5f3e 9426 433f
00000240: 36b4 8b3e 9691 cd3e e8d9 f9be 12bc bcbc
00000250: 9f64 c83d 77ac 84be e9d7 a03a 0a45 32be
00000260: 27c1 69bd 5c08 8dbe 538f 25bc 9474 77bc
00000270: e307 ef3d eca2 86bd 9e5b 7b3d 0d56 04bd
00000280: bdfa f73e fe49 e1bd 5e00 ef3c 8b1d b9bd
00000290: 6d30 61bd 2cf6 e6bd 3c01 b03e 60d6 22bd
000002a0: 6b09 9ebe d98f c8bf 9222 0bbf 66d4 45bf
000002b0: eb03 18bf 201f 0bbe 60cc cbbe 0924 a4bd
000002c0: 1082 e33e 0d2c 133e a58a 6bbc a4ff 963d
000002d0: 9b76 103d efa9 743c c2b2 703d 9af8 d73d
000002e0: f9a9 13bf 19a5 013e 0b56 d9bd d2d7 4a3d
000002f0: b10b 733d 5161 fa3c 5e0f 48bc 2537 f23c
00000300: b717 9b3d fe67 1fbe 9be1 223d 3e0a ef3e
00000310: 8452 e2bc 40b6 e03e 57de 2bbe c477 1dbd
00000320: 2493 a23d 9bd5 ab3e b6da 013e 56c1 773e
00000330: d580 3e3e 3322 093d 4353 a93e 4555 8f3e
00000340: d8eb d83b 9c37 03be 53e5 ccbe ee3b 6abe
00000350: ef3f f13d 08cc 883e 5afc a93d b8c0 47bb
00000360: 813c 9b3e d821 7b3e 1c68 faba c35e ab3c
00000370: 35b9 13bd edd3 89bc 3c18 9dbb b988 bfbc
00000380: a7f5 3bbe 0450 263e 6275 50be 1ef2 babe
00000390: 151f 9bbd 37ed cc3e c0d1 973e e3a7 db3d
000003a0: 282d c43d ea5b f83e f945 9bbe fd9f 1abe
000003b0: a423 2cbf ed6a 22be b30d 5fbd a0e5 7b3e
000003c0: a11d 23bf 1710 e33d ca2b 3a3e 8a7f 3ebe
000003d0: bb39 91be 1d68 bfbd 083a aabb 5a0a d93e
000003e0: c834 023e 4752 5c3e 3121 803e b8bc 33be
000003f0: 94c6 53bd af80 1abe 7346 a23d 266d 16be

l1.bias f4 [256]
0.24744254 -0.08676243 0.40466446 0.05086299 -0.25754112 0.038622227 0.08070823 -0.11067396
0.12712884 -0.20484743 0.09267122 -0.22152925 -0.07683645 -0.033498105 0.0146951545 0.39778516
-0.24519436 -0.14820756 -0.050793733 -0.19091144 -0.11216049 -0.24995844 0.3285435 -0.24497959
0.357655 -0.095401615 -0.09991885 -0.13800637 0.067734435 -0.12892327 0.062121656 0.11184917
-0.07338897 0.15068619 -0.1365175 0.030494174 0.4294142 0.120737605 -0.23101178 0.2954879
0.12721439 -0.32884246 0.28100815 0.2343569 -0.003977612 -0.031339504 -0.116713464 -0.029143333
0.14541517 -0.25460115 -0.075541966 0.27244276 -0.16992974 -0.01501711 0.15730773 -0.15769431
0.011380337 -0.09479335 0.2669121 0.15063861 0.32616588 -0.19839217 -0.06941901 0.029171119
0.15867805 -0.2410931 -0.19254494 -0.099537924 -0.16369958 0.08642176 0.21616918 0.32870176
-0.06457752 0.16512236 -0.19795002 -0.010923398 0.33343828 0.38142338 0.22337902 0.10087847
-0.07305056 0.44468796 0.047925 0.020030832 -0.07875429 -0.16081019 0.37537897 0.16073385
0.066533305 0.08125409 -0.3300143 0.35460323 0.22118714 -0.016882023 -0.033068374 0.026091306
0.43893376 -0.04888422 0.15873577 -0.014974688 -0.17357388 0.034295917 0.19415636 0.078572385
-0.12869018 -0.4464586 0.39856014 -0.30549237 -0.1377558 0.0713659 0.18361235 0.12440104
-0.1540857 0.16568999 0.26004824 -0.10903364 0.13118649 0.048388958 -0.079138 0.20445904
0.05779512 -0.07373745 0.13466944 -0.21544124 -0.05040869 0.0544513 -0.14281125 0.16293466
0.13003436 0.031050785 -0.14378195 -0.06709076 -0.008369813 0.12369012 -0.16287972 0.121367745
-0.025137085 0.038150728 0.13699247 -0.1532696 -0.19239397 0.23399746 -0.1260554 0.107212745
0.013575181 -0.18220784 -0.37700534 0.430773 0.29393756 -0.14751633 0.19093508 -0.36618018
-0.16057926 -0.05921087 0.22851317 0.18445513 -0.049381495 -0.0822601 0.1886854 -0.29815954
-0.043165583 0.04770399 -0.32724583 0.060191162 -0.055376176 0.21599267 -0.18674432 0.08709213
0.17525843 0.18063119 0.08270784 0.121447116 0.1053652 -0.037988003 0.056468125 0.24412476
-0.115467735 -0.23217002 0.1530187 0.049383245 -0.19405566 -0.12664181 0.057188578 0.28628033
-0.20835772 -0.1565372 0.074307956 0.21453246 -0.03364453 0.12137275 -0.1606593 -0.15813112
-0.0050269403 0.18089093 0.10665311 0.021634713 0.15596852 -0.13186136 -0.12814163 0.0583727
0.24217443 0.17709623 0.09728693 0.2029962 0.0018096198 0.20719025 0.08328137 -0.02712223
0.097352535 0.03945316 0.2697141 -0.008063871 0.17175263 0.19365042 -0.15492809 -0.24379617
-0.27453715 0.008673943 -0.04290562 -0.26501003 0.07463754 0.09603139 -0.21761186 0.15960269
0.29126146 -0.035229247 0.25858387 -0.20029528 0.31417066 0.027004424 0.25603402 0.16146329
0.20372185 0.12963405 0.00047639466 0.31907508 0.007663323 -0.2272978 0.12463026 -0.393389
0.12178162 -0.12505129 -0.0021225074 0.14849247 0.3124207 -0.09291541 -0.12234875 0.30251113
-0.008852337 -0.18885034 -0.019412734 -0.16452186 -0.29798627 0.46597493 0.116593644 -0.24480085
00000000: 9461 7d3e 80b0 b1bd 2e30 cf3e b655 503d
00000010: 6edc 83be 5732 1e3d 5b4a a53d 07a9 e2bd
00000020: 102e 023e 86c3 51be 69ca bd3d 90d8 62be
00000030: 6e5c 9dbd 4f35 09bd f2c3 703c 7faa cb3e
00000040: 3b14 7bbe b9c3 17be 170d 50bd 4a7e 43be
00000050: 66b4 e5bd 1bf5 7fbe db36 a83e eedb 7abe
00000060: 8e1e b73e ec61 c3bd 41a2 ccbd 8b51 0dbe
00000070: 5ab8 8a3d 7604 04be 4773 7e3d 2d11 e53d
00000080: f54c 96bd 7b4d 1a3e 3ecb 0bbe ebce f93c
00000090: 2edc db3e 4745 f73d 5a8e 6cbe 314a 973e
000000a0: 7d44 023e 0a5e a8be 4de0 8f3e 41fb 6f3e
000000b0: a156 82bb da5d 00bd 7807 efbd 00be eebc
000000c0: b7e7 143e 155b 82be bfb5 9abd 9e7d 8b3e
000000d0: 1002 2ebe 530a 76bc 4715 213e 9e7a 21be
000000e0: 9874 3a3c 0423 c2bd b4a8 883e 0241 1a3e
000000f0: 37ff a63e 5127 4bbe 8e2b 8ebd 45f8 ee3c
00000100: 807c 223e 1ce1 76be 802a 45be 8ada cbbd
00000110: dda0 27be e4fd b03d 745b 5d3e 994b a83e
00000120: 3841 84bd d615 293e 69b3 4abe 0df8 32bc
00000130: 6cb8 aa3e ed49 c33e 78bd 643e 5f99 ce3d
00000140: 889b 95bd 24ae e33e 014d 443d b317 a43c
00000150: ee49 a1bd 6dab 24be ac31 c03e 6a97 243e
00000160: 9d42 883d 8b68 a63d a2f7 a8be 8e8e b53e
00000170: e27e 623e 2b4c 8abc b472 07bd 6fbd d53c
00000180: edbb e03e d23a 48bd a18b 223e 6558 75bc
00000190: 5abd 31be e079 0c3d edd0 463e 8fea a03d
000001a0: 5cc7 03be 3996 e4be 1310 cc3e 7f69 9cbe
000001b0: db0f 0dbe 4928 923d e004 3c3e f9c5 fe3d
000001c0: a4c8 1dbe a3aa 293e 0b25 853e 074d dfbd
000001d0: c055 063e 8033 463d 1b13 a2bd b65d 513e
000001e0: 93ba 6c3d a903 97bd c9e6 093e a19c 5cbe
000001f0: 5879 4ebd 5408 5f3d 1d3d 12be 58d8 263e
00000200: ba27 053e 375e fe3c 933b 13be e166 89bd
00000210: 8a21 09bc 3f51 fd3d f1c9 26be a78f f83d
00000220: 4aec cdbc f043 1c3d c147 0c3e b5f2 1cbe
00000230: ed02 45be 089d 6f3e ab14 01be 5b92 db3d
00000240: 706a 5e3c b194 3abe d806 c1be 478e dc3e
00000250: fc7e 963e 850e 17be 7c84 433e f87b bbbe
00000260: e46e 24be 1987 72bd 5bff 693e cee1 3c3e
00000270: 4044 4abd fc77 a8bd bf36 413e 5ea8 98be
00000280: 65ce 30bd 4265 433d c48c a7be 028b 763d
00000290: 21d2 62bd 2f2d 5d3e e739 3fbe 5c5d b23d
000002a0: f276 333e 62f7 383e ba62 a93d 44b9 f83d
000002b0: b6c9 d73d 4f99 1bbd 1f4b 673d d7fb 793e
000002c0: 597a ecbd fabd 6dbe efb0 1c3e 1646 4a3d
000002d0: 87b6 46be 64ae 01be 923e 6a3d 5693 923e
000002e0: ba5b 55be 4a4b 20be c52e 983d 66ae 5b3e
000002f0: d9ce 09bd 4792 f83d df83 24be 20ed 21be
00000300: 08b9 a4bb 793b 393e f26c da3d 483b b13c
00000310: 36b6 1f3e aa06 07be 8f37 03be 3618 6f3d
00000320: 93fc 773e b758 353e 5f3e c73d 3cde 4f3e
00000330: c430 ed3a ae29 543e 6c8f aa3d 702f debc
00000340: c460 c73d a399 213d f717 8a3e 541e 04bc
00000350: ecdf 2f3e 4c4c 463e 78a5 1ebe b4a5 79be
00000360: 2290 8cbe 271d 0e3c cebd 2fbd 65af 87be
00000370: 91db 983d 1bac c43d a5d5 5ebe e36e 233e
00000380: 3920 953e 8b4c 10bd 1b65 843e 351a 4dbe
00000390: fada a03e 6238 dd3c e416 833e a256 253e
000003a0: 769c 503e cabe 043e 9cc4 f939 cf5d a33e
000003b0: 9d1c fb3b c1c0 68be 263e ff3d 486a c9be
000003c0: a468 f93d 720d 00be c419 0bbb 690e 183e
000003d0: 9bf5 9f3e 6f4a bebd fb91 fabd bde2 9a3e
000003e0: 6409 11bc fc61 41be 7407 9fbc 6b78 28be
000003f0: a891 98be 4494 ee3e a6c8 ee3d 13ad 7abe

l2.weight f4 [256, 256]
0.06228603 0.050377958 0.14603762 -0.060599655 0.27426955 0.047768082 0.09978615 -0.65065145
-0.03406889 0.26265293 0.1298209 -0.56594515 0.008676536 -0.13044678 0.09129838 -0.029540105
0.19126222 -0.059751157 -0.049677216 0.21722335 0.02503058 -0.13218524 -0.0547463 -0.112606816
-0.05428729 -0.26102912 -0.18639517 0.053083368 0.13877036 0.036166206 0.018285984 0.47819582
0.13064426 0.09258056 -0.06849901 0.08218968 0.118188165 -0.28392574 0.11140733 0.08987211
0.025455717 0.24179457 -0.23264953 -0.00535514 0.23425534 0.14575864 0.09132528 -0.31864515
0.12560913 -0.4514196 -0.3108523 -0.25261188 0.11451 -0.23048447 -0.11864213 -0.12685643
-0.002091312 -0.19019975 -0.023899112 -0.35876232 0.083368294 -0.03345534 -0.053400658 -0.5015997
0.17743137 0.11869034 -0.014136758 0.010397864 -0.18439443 -0.022238884 -0.015438483 0.059150085
0.019974167 0.14159629 0.0010517113 0.10846387 -0.009242774 -0.116701305 0.019732906 0.11768034
-0.4930426 0.23231564 0.049333554 -1.3962873 0.22746293 0.011309147 -0.43001592 -0.115571626
0.102621645 0.01320066 0.07647937 -0.1255017 0.1234759 -0.24634865 -0.3765179 0.0005280787
-0.1415422 0.28004616 -0.20479196 0.08253394 -0.18581899 -0.1132538 -0.19297066 -0.2936198
-0.101215854 -0.7619887 0.030549752 -0.16207916 0.07440569 0.0704891 0.13824216 0.0039067823
0.20599623 -0.00044675704 0.07179208 -0.27727485 -0.1771469 0.0067325667 0.010329773 -0.042264864
0.11234325 -0.29235777 -0.41719523 0.26902428 -0.060072687 0.068052314 0.60036844 -0.17638683
0.051545806 0.083113134 -0.01904151 0.25721064 0.15511814 0.021618156 0.34777617 0.027414704
0.13275678 0.029026266 0.10443816 -0.3925638 0.8850948 0.06313486 -0.04155286 0.08685159
-0.21207477 0.09432848 -1.3272942 0.11747762 0.10868303 0.33308378 -0.3873567 -1.3842065
-0.02118936 0.14484839 0.19128507 0.034351222 0.010106413 -0.11262105 0.08314726 1.0278964
0.19854338 -0.07425113 0.092381254 -0.068207175 0.22624674 0.11052392 -0.02217296 0.010693637
-0.27650654 0.07352585 -0.22745916 0.19511671 0.13348824 0.21825822 0.0054756296 0.044448316
0.0053435685 0.1913565 0.19803847 0.34762138 0.16749187 0.09756725 -0.80343837 0.17951046
0.27202976 -0.018224461 -0.16198924 0.24923895 -0.08225564 0.079574816 -0.051579244 0.15473957
-0.067686565 0.084343515 0.03707741 0.12733966 -0.24392182 -0.18342908 -0.053075694 -0.14286722
0.2841392 -0.16830577 -0.0119927805 0.16829906 0.07344907 -0.30992666 0.06718687 0.053004242
0.05332046 -0.107962556 -0.376942 -0.039660234 0.050507974 0.07166458 0.14362283 0.16094975
0.38364172 0.068007365 0.060685482 -0.13861693 -0.06797352 0.1520935 -0.47645384 0.096081614
0.19790772 0.11274415 0.07285403 0.14542338 0.16090928 0.005827413 0.11929079 0.1371272
0.40150097 0.036172263 0.24883132 0.055896435 -0.04374104 0.12382901 -0.8179927 -1.4197977
-1.3500671 0.14703839 -0.124391444 0.072377406 0.07259518 0.022261936 0.061212502 -0.024312329
0.1640275 -0.072174184 -0.97298545 0.103128694 -0.020551404 -0.12956367 0.12565088 0.16396362
00000000: a31f 7f3d 1e59 4e3d e38a 153e 5837 78bd
00000010: 0f6d 8c3e 77a8 433d ae5c cc3d 1891 26bf
00000020: d28b 0bbd 727a 863e c5ef 043e c8e1 10bf
00000030: 0828 0e3c d793 05be a5fa ba3d 17fe f1bc
00000040: 3eda 433e a1bd 74bd 567a 4bbd cc6f 5e3e
00000050: ee0c cd3c 915b 07be a83d 60bd 679e e6bd
00000060: 595c 5ebd 9ca5 85be 60de 3ebe f26d 593d
00000070: d119 0e3e 0423 143d 7dcc 953c 15d6 f43e
00000080: 9cc7 053e e09a bd3d 3549 8cbd 1053 a83d
00000090: a30c f23d b75e 91be 8729 e43d de0e b83d
000000a0: 8288 d03c ff98 773e ae3b 6ebe 2c7a afbb
000000b0: a2e0 6f3e c141 153e c008 bb3d 7525 a3be
000000c0: ae9f 003e 7820 e7be 0828 9fbe 5856 81be
000000d0: 3884 ea3d 1f04 6cbe a5fa f2bd a7e6 01be
000000e0: 650e 09bb b9c3 42be 12c8 c3bc b2af b7be
000000f0: ffbc aa3d 7708 09bd a6ba 5abd d768 00bf
00000100: 92b0 353e ec13 f33d dc9d 67bc cd5b 2a3c
00000110: e5d1 3cbe 522e b6bc b1f1 7cbc 5c47 723d
00000120: dda0 a33c 9efe 103e 93d9 893a 4e22 de3d
00000130: 016f 17bc 1801 efbd e7a6 a13c 6402 f13d
00000140: 1470 fcbe 27e4 6d3e fb11 4a3d 8bb9 b2bf
00000150: 0bec 683e 004a 393c 0c2b dcbe d1b0 ecbd
00000160: 4c2b d23d 9547 583c 37a1 9c3d 8583 00be
00000170: efe0 fc3d d242 7cbe f4c6 c0be c36e 0a3a
00000180: 70f0 10be 3662 8f3e fcb4 51be 8e07 a93d
00000190: 5547 3ebe 9cf1 e7bd 1a9a 45be 5655 96be
000001a0: 424a cfbd b111 43bf 7943 fa3c 14f8 25be
000001b0: 0362 983d 975c 903d 5a8f 0d3e 7704 803b
000001c0: adf0 523e b73a eab9 ba07 933d f8f6 8dbe
000001d0: ff65 35be dd9c dc3b 353e 293c ec1d 2dbd
000001e0: 3814 e63d ebaf 95be 9d9a d5be 8dbd 893e
000001f0: c70e 76bd 035f 8b3d bfb1 193f c09e 34be
00000200: b221 533d 3837 aa3d f1fc 9bbc 1db1 833e
00000210: 4ad7 1e3e 8f18 b13c b80f b23e cd94 e03c
00000220: 65f1 073e 7ec8 ed3c ade3 d53d 1ffe c8be
00000230: 9395 623f d94c 813d 5533 2abd 3fdf b13d
00000240: 212a 59be 4a2f c13d c7e4 a9bf 1b98 f03d
00000250: 3595 de3d f589 aa3e 9e53 c6be ae2d b1bf
00000260: 4f95 adbc 2353 143e 3ce0 433e deb3 0c3d
00000270: 5e95 253c dda5 e6bd 1c49 aa3d 1c92 833f
00000280: f54e 4b3e fa10 98bd 6232 bd3d 34b0 8bbd
00000290: 3aad 673e 5d5a e23d 11a4 b5bc 5d34 2f3c
000002a0: 4492 8dbe b994 963d 0eeb 68be adcc 473e
000002b0: 24b1 083e 157f 5f3e e96c b33b 700f 363d
000002c0: 1a19 af3b f5f2 433e 99ca 4a3e 6efb b13e
000002d0: fd82 2b3e 57d1 c73d 23ae 4dbf 97d1 373e
000002e0: 7c47 8b3e 774b 95bc 82e0 25be 7f38 7f3e
000002f0: a575 a8bd 1ff8 a23d c244 53bd 0d74 1e3e
00000300: 419f 8abd 4bbc ac3d 7bde 173d 5465 023e
00000310: a4c6 79be d5d4 3bbe e665 59bd c94b 12be
00000320: b17a 913e 5958 2cbe 5e7d 44bc 9756 2c3e
00000330: 776c 963d b5ae 9ebe 4599 893d fa1a 593d
00000340: 8e66 5a3d 791b ddbd 8bfe c0be c572 22bd
00000350: 73e1 4e3d e1c4 923d dd11 133e 03d0 243e
00000360: b06c c43e 7247 8b3d 5791 783d 99f1 0dbe
00000370: b335 8bbd 66be 1b3e c2f1 f3be 70c6 c43d
00000380: 52a8 4a3e 68e6 e63d 7e34 953d dee9 143e
00000390: 67c5 243e e2f3 be3b bb4e f43d 136b 0c3e
000003a0: 8991 cd3e 5e29 143d a3cd 7e3e a9f3 643d
000003b0: ce29 33bd 109a fd3d f867 51bf eebb b5bf
000003c0: 00cf acbf 3b91 163e f1c0 febd 9b3a 943d
000003d0: c8ac 943d aa5e b63c f6b9 7a3d a62a c7bc
000003e0: d3f6 273e 0fd0 93bd 9315 79bf 2335 d33d
000003f0: 6b5b a8bc 57ac 04be a0aa 003e 14e6 273e

l2.bias f4 [256]
0.27143294 0.2390315 0.3184116 0.1630169 0.03743604 0.29498768 -0.10674987 0.37184915
0.35818356 0.3182827 -0.19493185 0.32238144 0.3904661 -0.1189885 0.2429202 0.37035364
0.35309577 -0.008828991 -0.08974313 0.32865837 0.25667113 0.2645035 0.28000718 0.26769403
-0.260691 0.2944939 0.13982658 -0.35079068 -0.073851205 0.026124284 0.21779273 0.19144961
-0.18048447 0.11895667 0.27018806 0.16483328 -0.053910587 -0.046164095 0.007071091 0.2705829
0.27859306 -0.0093941875 0.29236495 -0.20813875 0.28120205 0.054190498 0.35825327 -0.14755806
0.19453709 0.22506176 -0.1689851 0.3645295 -0.1438085 0.07016878 -0.11741777 -0.025874993
0.03843853 -0.03476347 0.26420787 0.3263716 -0.2577335 -0.1270398 -0.2052852 0.17744423
0.18240833 -0.12872878 0.2391149 0.19660014 0.04053912 -0.12345164 -0.10189042 0.23134656
0.19833675 0.29019076 -0.10925298 0.28696787 -0.14628182 0.1831706 -0.17281726 0.23827608
0.25021344 -0.04627362 0.34519622 0.22152147 0.23494317 0.20156954 0.019904561 0.075050294
-0.2149639 0.24732642 -0.2666768 0.22666807 0.32513815 0.23379727 0.24313365 0.18017113
-0.17915665 0.24231935 -0.24088566 0.15927117 -0.06334341 -0.02658967 -0.22951655 -0.12154355
0.36079952 -0.16251728 -0.09953052 0.2998548 0.3164898 -0.22779405 0.081589684 -0.21091704
0.21265744 -0.3100053 0.32746917 0.3423225 0.27871257 0.18672873 -0.068631895 -0.19307765
0.24675855 -0.17016795 0.086835995 -0.046855316 -0.16867718 0.17185211 -0.20183206 0.3613878
-0.22045764 -0.31670028 -0.005037366 0.26703984 0.17912744 0.12633884 0.3285173 0.06889284
-0.22035079 -0.086416066 0.26096642 -0.22795323 0.23096858 0.30765188 -0.34780905 0.23038705
-0.12969403 0.32648236 0.21378464 0.25991017 0.24346544 0.12367396 0.21362175 0.25705037
-0.111489944 -0.20119351 0.28931484 0.35839763 -0.21286486 0.14073415 -0.10822822 0.28557625
-0.16485293 -0.18606248 0.25225666 0.33615273 0.23085639 0.17334865 -0.18035528 -0.21581578
0.26213148 0.27526104 -0.17087306 0.36226854 -0.06564565 -0.16081698 -0.23157938 0.20374978
0.27355835 -0.21719812 0.3255305 -0.29205564 -0.13109466 -0.18130578 0.3302652 0.2755122
-0.12342237 0.2444097 0.27798727 0.32875967 0.26662415 0.16669562 -0.052490737 -0.075248286
0.29491046 0.20000279 0.28696337 0.2620252 0.25955582 -0.359655 -0.16811155 -0.1480262
-0.46817738 -0.013487713 0.21714179 0.23286566 0.28488418 0.275472 -0.28139353 -0.0004185605
-0.1494206 0.31853917 0.28724352 0.3568765 -0.22297037 -0.14269787 -0.11054097 -0.04046278
0.22516096 -0.20666936 -0.11620717 0.266037 0.29005224 0.26570925 0.36110628 0.34019634
-0.109752804 -0.0230427 0.14001518 0.36110204 -0.28783455 0.32199627 -0.11435679 -0.21439068
-0.21174629 -0.111636005 0.35667157 0.23325016 0.25967985 0.1980331 0.08902775 0.30425128
0.39701906 0.097272314 0.2362411 -0.19636464 0.35747892 0.37767214 0.33138397 -0.12191244
-0.17904785 0.30266523 0.2134775 0.0030959959 0.19972984 -0.15166199 0.0036486287 -0.107722655
00000000: 42f9 8a3e acc4 743e d806 a33e e7ed 263e
00000010: 8856 193d a008 973e ad9f dabd 0363 be3e
00000020: d663 b73e f3f5 a23e 379c 47be 2e0f a53e
00000030: 2ceb c73e 3eb0 f3bd 13c0 783e fe9e bd3e
00000040: f8c8 b43e 79a7 10bc 3fcb b7bd e945 a83e
00000050: 666a 833e 016d 873e 1a5d 8f3e 310f 893e
00000060: 4a79 85be e8c7 963e b32e 0f3e d69a b3be
00000070: 4d3f 97bd 9802 d63c 0f05 5f3e 5e0b 443e
00000080: ecd0 38be 8e9f f33d 1756 8a3e 0eca 283e
00000090: 59d1 5cbd 9016 3dbd 9cb4 e73b d889 8a3e
000000a0: c0a3 8e3e 14ea 19bc dcb0 953e 5322 55be
000000b0: b7f9 8f3e dbf6 5d3d f96c b73e 7619 17be
000000c0: bb34 473e 9776 663e 6e0a 2dbe 9ca3 ba3e
000000d0: 8942 13be a6b4 8f3d ba78 f0bd cbf7 d3bc
000000e0: b871 1d3d 2464 0ebd 4146 873e 2e1a a73e
000000f0: a5f5 83be b916 02be 4936 52be f1b3 353e
00000100: 40c9 3a3e 7ad1 03be 89da 743e 8c51 493e
00000110: 590c 263d 37d4 fcbd edab d0bd 1de6 6c3e
00000120: ca18 4b3e e293 943e 07c0 dfbd 74ed 923e
00000130: e7ca 15be 1391 3b3e 02f7 30be a5fe 733e
00000140: fa1b 803e 6889 3dbd 8fbd b03e 86d6 623e
00000150: f194 703e 3f68 4e3e e40e a33c f8b3 993d
00000160: 7f1f 5cbe 2343 7d3e dd89 88be ad1b 683e
00000170: 8278 a63e 8d68 6f3e 07f8 783e c87e 383e
00000180: d774 37be 9022 783e bbaa 76be fb17 233e
00000190: 31ba 81bd 94d2 d9bc 6306 6bbe d3eb f8bd
000001a0: b7ba b83e ee6a 26be a8d6 cbbd 9186 993e
000001b0: f30a a23e d842 69be 7e18 a73d a3fa 57be
000001c0: dfc2 593e 04b9 9ebe 0aaa a73e e544 af3e
000001d0: 6ab3 8e3e d135 3f3e e18e 8cbd 26b6 45be
000001e0: 46ae 7c3e 8240 2ebe 12d7 b13d 5ceb 3fbd
000001f0: b6b9 2cbe 00fa 2f3e 10ad 4ebe d207 b93e
00000200: a6bf 61be 8a26 a2be 7d10 a5bb 72b9 883e
00000210: 2f6d 373e f85e 013e 6b33 a83e b017 8d3d
00000220: a3a3 61be e8fa b0bd 649d 853e 926c 69be
00000230: 0783 6c3e 8c84 9d3e 0714 b2be 95ea 6b3e
00000240: 83ce 04be b228 a73e 5cea 5a3e f212 853e
00000250: 014f 793e c648 fd3d a9bf 5a3e 1b9c 833e
00000260: d754 e4bd ac05 4ebe 1321 943e e57f b73e
00000270: 3ff9 59be 9d1c 103e c2a6 ddbd 0d37 923e
00000280: 35cf 28be 2a87 3ebe c927 813e 361c ac3e
00000290: 9e65 6c3e 4f82 313e 0eaf 38be d0fe 5cbe
000002a0: 1936 863e 04ef 8c3e 59f9 2ebe 437b b93e
000002b0: 3a71 86bd 35ad 24be 2523 6dbe c8a3 503e
000002c0: d70f 8c3e 2f69 5ebe efab a63e 5188 95be
000002d0: ae3d 06be 39a8 39be 8518 a93e ef0f 8d3e
000002e0: dec4 fcbd 8946 7a3e 5954 8e3e 3053 a83e
000002f0: f682 883e 42b2 2a3e 8700 57bd c61b 9abd
00000300: 81fe 963e 88cd 4c3e ddec 923e 2b28 863e
00000310: 80e4 843e b324 b8be 6f25 2cbe 2e94 17be
00000320: f2b4 efbe 92fb 5cbc 6b5a 5e3e 5674 6e3e
00000330: 57dc 913e aa0a 8d3e d012 90be 3d72 dbb9
00000340: b701 19be 9117 a33e 9511 933e 84b8 b63e
00000350: 5852 64be 641f 12be 4e63 e2bd 4dbc 25bd
00000360: 9890 663e 22a1 53be 06fe edbd 0036 883e
00000370: ba81 943e 0b0b 883e ece2 b83e 372e ae3e
00000380: 14c6 e0bd 0bc4 bcbc 2460 0f3e 5ee2 b83e
00000390: 0d5f 93be b2dc a43e e533 eabd 3b89 5bbe
000003a0: 05d4 58be 6ba1 e4bd a89d b63e 21d9 6e3e
000003b0: c2f4 843e 30c9 4a3e 2e54 b63d d3c6 9b3e
000003c0: 1546 cb3e b536 c73d 30e9 713e d013 49be
000003d0: 7a07 b73e 3e5e c13e 29ab a93e 3bad f9bd
000003e0: 5258 37be f0f6 9a3e d999 5a3e 31e6 4a3b
000003f0: fb85 4c3e 484d 1bbe d51d 6f3b b29d dcbd

l3.weight f4 [1, 256]
0.2727813 0.33811167 0.21566671 0.40240926 -1.8261704 0.27924135 -0.9894613 0.22432512
0.22356245 0.20622374 -1.2961751 0.25160435 0.2161969 -1.2334026 0.2885353 0.21831541
0.19842388 0.0151293995 -0.31553835 0.22896141 0.15770894 0.2873126 0.35021767 2.379877
-0.62869537 0.23080628 0.21885484 -1.947494 -2.0423434 -2.0052862 0.6118269 0.3014814
-0.9740857 1.8754985 0.38135487 0.31549618 -2.8269222 -2.1117885 -1.2457052 0.37315157
0.423237 -2.3232386 0.40762496 -0.30981442 0.3745329 -1.2600999 0.24207747 -2.5192058
2.4324124 0.19634937 -0.62328 0.18435527 -0.63157547 -1.8062468 -1.0759106 -1.3359632
-1.8855872 -1.0448045 0.23745659 0.27332172 -0.7590501 -1.0843757 -2.431256 0.279767
-2.5255048 -2.611951 0.30335048 -1.8863556 -0.78457505 -1.4168731 -1.9470941 0.26982623
0.22077285 0.26659968 -0.38034794 0.21333803 -0.28892338 0.26332203 -1.3045627 0.27367362
0.6182952 -1.1885178 0.25011832 0.22052003 0.2839084 0.23066482 -1.2621207 -2.1933255
-2.0756078 0.20330465 -1.0987663 0.29219577 0.20281486 0.20325372 0.3316635 0.41905347
-0.8637555 0.35086435 -1.9721941 0.19572453 -1.0727346 -3.3961582 -3.0602477 -1.1568651
0.23833895 -1.6802609 -0.3109518 0.28161758 0.21869454 -1.9820719 2.746615 -0.9200712
0.46124417 -1.8730378 0.3260051 0.22185144 0.1891341 2.133752 -1.797756 -1.8428025
0.23555069 -1.7387149 2.3800123 -1.1082096 -0.3481153 0.2461582 -0.81127155 0.22227964
-1.0580014 -1.6425638 2.131305 0.2567022 2.0694954 -1.4052336 0.23167156 1.4895898
-0.31689015 -0.91684514 -1.8661445 -0.45514968 0.33447942 0.1807754 -1.9748787 0.40045908
-0.6537099 0.6143811 0.17102225 0.21016973 0.4776345 -1.76983 0.3170073 0.12399051
-1.5649527 -2.653737 0.306294 0.22027841 -0.8983849 -2.17301 -1.1696299 0.5245504
-1.596265 -1.5712398 0.24736348 0.17932148 0.2998216 0.27402017 -0.27707618 -0.903866
0.40503624 0.2173807 -0.27191362 0.2193123 -0.0059037507 -0.98549825 -4.07646 0.30155426
0.42522746 -1.3587022 0.2487075 -1.6291078 -0.79506934 -1.2083089 0.21792807 0.19685641
-1.2047931 0.2691143 0.224459 0.25164044 0.24169506 0.35925353 -1.337613 -1.1444168
0.6313741 0.33825886 0.30551898 0.25658855 0.22345725 -1.1615944 -0.87695503 -0.5125927
-2.7037787 -1.027487 0.2702694 0.5037906 0.15751536 0.21597767 -2.1830146 -1.5343428
1.8817486 0.25919035 0.47946632 0.21789642 -0.49114594 -1.9394405 -1.8308069 -1.4206952
0.26856673 -0.71074927 -1.2552537 0.39560008 0.30933285 0.22735378 0.24093467 0.2394981
-1.5918003 -2.1266892 -2.3790765 0.22414416 -1.1222901 0.24089085 -1.219551 -1.2548494
-0.9463173 -0.2461225 0.23529667 0.2519202 0.27514133 0.2968383 -2.7570877 0.26013276
0.22968388 -2.1459045 0.19125418 -1.2444276 0.23086251 0.2588197 0.1985861 -1.1360146
-1.128618 0.44136906 0.34973973 -2.0657172 0.3098868 -1.9631213 -1.5222114 -1.2405026
00000000: fea9 8b3e f91c ad3e bcd7 5c3e 9608 ce3e
00000010: f4bf e9bf b9f8 8e3e 564d 7dbf 7cb5 653e
00000020: 8eed 643e 512c 533e 11e9 a5bf 49d2 803e
00000030: b862 5d3e 23e0 9dbf e6ba 933e 138e 5f3e
00000040: a12f 4b3e 4de1 773c 3e8e a1be dc74 6a3e
00000050: 747e 213e a31a 933e bb4f b33e e84f 1840
00000060: 2ef2 20bf 7b58 6c3e 7c1b 603e 7c47 f9bf
00000070: c1b5 02c0 9c56 00c0 b0a0 1c3f c55b 9a3e
00000080: ae5d 79bf 5610 f03f f240 c33e b788 a13e
00000090: 4bec 34c0 8b27 07c0 4573 9fbf b90d bf3e
000000a0: 85b2 d83e f1af 14c0 38b4 d03e ff9f 9ebe
000000b0: c7c2 bf3e f44a a1bf 28e3 773e ab3a 21c0
000000c0: a5ac 1b40 cf0f 493e 478f 1fbf a1c7 3c3e
000000d0: eeae 21bf 1833 e7bf 70b7 89bf d800 abbf
000000e0: ec5a f1bf 27bc 85bf d227 733e d3f0 8b3e
000000f0: 1b51 42bf d3cc 8abf b399 1bc0 9f3d 8f3e
00000100: dfa1 21c0 352a 27c0 c150 9b3e 1a74 f1bf
00000110: e9d9 48bf 195c b5bf 613a f9bf aa26 8a3e
00000120: 4712 623e c17f 883e f7bc c2be 4975 5a3e
00000130: c4ed 93be 25d2 863e e9fb a6bf f31e 8c3e
00000140: 9848 1e3f 5a21 98bf 820f 803e 01d0 613e
00000150: 715c 913e 6633 6c3e 2c8d a1bf 725f 0cc0
00000160: c2d6 04c0 182f 503e 60a4 8cbf af9a 953e
00000170: b3ae 4f3e be21 503e cccf a93e 2d8e d63e
00000180: 151f 5dbf 7ea4 b33e db70 fcbf 036c 483e
00000190: 5e4f 89bf a85a 59c0 19db 43c0 2814 94bf
000001a0: 200f 743e ca12 d7bf 1335 9fbe 2e30 903e
000001b0: 76f1 5f3e 88b4 fdbf 8ac8 2f40 c989 6bbf
000001c0: 3228 ec3e b4bf efbf 24ea a63e 062d 633e
000001d0: 5fac 413e 658f 0840 de1c e6bf f4e0 ebbf
000001e0: 3334 713e 368e debf 1f52 1840 d0d9 8dbf
000001f0: 2b3c b2be e510 7c3e 7eaf 4fbf 469d 633e
00000200: 976c 87bf 883f d2bf 4d67 0840 796e 833e
00000210: 9d72 0440 b2de b3bf 4f3b 6d3e e1aa be3f
00000220: 6d3f a2be 5db6 6abf d3dd eebf 6109 e9be
00000230: e340 ab3e 301d 393e d3c8 fcbf f908 cd3e
00000240: 8859 27bf 1448 1d3f 7520 2f3e bc36 573e
00000250: 828c f43e ca89 e2bf c84e a23e bdee fd3d
00000260: 5f50 c8bf d4d6 29c0 91d2 9c3e aa90 613e
00000270: 8efc 65bf 9912 0bc0 6fb6 95bf ef48 063f
00000280: 6952 ccbf 631e c9bf da4c 7d3e 0da0 373e
00000290: 3782 993e 5f4c 8c3e eedc 8dbe c363 67bf
000002a0: e960 cf3e 0c99 5e3e 4338 8bbe 6793 603e
000002b0: 4074 c1bb 9d49 7cbf 5c72 82c0 5265 9a3e
000002c0: 6ab7 d93e f4e9 adbf 2ead 7e3e 9b86 d0bf
000002d0: aa89 4bbf dea9 9abf 8928 5f3e ba94 493e
000002e0: a936 9abf 59c9 893e 95d8 653e 04d7 803e
000002f0: e97e 773e 14f0 b73e e736 abbf 407c 92bf
00000300: bca1 213f 4430 ad3e fc6c 9c3e 935f 833e
00000310: fad1 643e 20af 94bf 2080 60bf 4639 03bf
00000320: b60a 2dc0 b284 83bf c060 8a3e 6cf8 003f
00000330: b54b 213e 4029 5d3e 83b6 0bc0 5865 c4bf
00000340: 23dd f03f 99b4 843e 9c7c f53e 3d20 5f3e
00000350: 7b77 fbbe 963f f8bf e157 eabf 57d9 b5bf
00000360: 9481 893e aaf3 35bf 27ac a0bf 188c ca3e
00000370: e060 9e3e 6ecf 683e 94b7 763e fd3e 753e
00000380: 1dc0 cbbf ad1b 08c0 ca42 18c0 0c86 653e
00000390: 34a7 8fbf 17ac 763e 3f1a 9cbf e89e a0bf
000003a0: da41 72bf 8907 7cbe 9cf1 703e affb 803e
000003b0: 53df 8c3e 31fb 973e 2074 30c0 1f30 853e
000003c0: 4032 6b3e 8056 09c0 23d8 433e 6749 9fbf
000003d0: 3967 6c3e 0484 843e 285a 4b3e ed68 91bf
000003e0: 8e76 90bf 20fb e13e 1611 b33e b634 04c0
000003f0: 7ca9 9e3e 8f47 fbbf d3d7 c2bf cac8 9ebf

l4.weight f4 [256, 32]
-0.26569098 0.17598379 0.22777215 0.22352366 0.10290022 -0.22882931 -0.30208826 -0.04580618
-0.1140327 0.16103819 0.05780111 -0.07455947 -0.03949626 -0.016305868 0.10564056 0.13050285
-0.057943348 0.21469437 -0.027364563 -0.10234744 0.13954088 0.22780278 0.047033314 0.1737713
0.060985476 -0.27037194 -0.057143502 0.24023281 -0.061058626 0.11640565 -0.08939496 -0.14670543
0.85587275 0.03355462 0.18304059 -0.073748544 0.07765582 0.20244396 -0.16603242 -0.49718696
-0.30088696 0.6482375 -0.001967828 -0.78660816 -0.35456696 -0.18545924 0.02346805 -0.018599093
0.17085011 -0.06878802 0.029730305 -0.00981923 -0.021828983 0.5066245 0.08750872 -0.29095146
0.4105953 -0.7158177 0.08103099 -0.10512017 0.29648027 -0.017917806 0.04739253 0.013807375
0.42189485 -0.015981747 0.25939012 -0.016734818 0.12922607 -0.3748231 -0.32934555 -0.03614031
-0.083257854 -0.16895323 -0.36570543 -0.2563266 -0.37012115 0.18349071 -0.16719477 0.34841713
-0.14440739 0.20009921 0.13113469 0.037906703 0.036531426 -0.113278486 0.09492773 -0.13630733
0.28100574 0.25472036 0.17169622 -0.09983668 -0.0048047 -0.1371188 0.026259003 -0.040748883
0.05007996 0.044718817 0.023528405 -0.2748175 0.17395616 0.23822251 0.07786104 0.3657609
0.21170183 1.1370035 -0.14283662 0.49086696 0.021390103 0.2337465 0.008537326 0.6296905
0.32751727 0.2975854 -0.22736365 0.07711888 0.09847439 -0.30737898 0.5170468 -0.18617572
0.44926175 -0.07300657 0.03736624 0.0014125567 0.06282499 0.029006451 -0.02698835 -0.06297477
-0.4384802 0.05234297 -0.1266873 0.48334095 -0.07777661 -0.46597305 -0.037100974 0.15022466
0.41286245 0.22660728 0.058469243 -0.26882282 0.34083062 -0.09687697 -0.1859714 0.05690378
0.16479646 0.101048514 0.36532128 0.13754432 -0.08179999 -0.0010841306 0.24401365 -0.014294086
-0.19781233 0.26832232 0.10299614 -0.07896337 -0.05200672 -0.15105514 -0.01341175 0.0025944884
-0.42142588 -0.061188877 -0.08845154 -0.68526495 -0.06614008 0.47594944 -0.058029458 -0.043331362
0.2852024 -0.20331715 0.11975287 -0.99244606 0.49482378 0.17835054 0.09933811 -0.020586282
-0.8063152 -0.2754834 -0.04051018 -0.19749515 -0.098069176 -0.3662467 0.17602102 0.1716774
-0.28506598 0.69812095 -0.06931394 -0.26264498 0.016092308 0.10705986 -0.23777415 0.03354194
0.017842643 0.105931126 0.27776742 0.15848428 -0.1358939 1.1615545 0.016892333 -0.004838188
0.027681492 -0.64445186 -0.13250235 0.1139108 0.16669825 0.058524303 -0.31785312 -0.5345503
-0.0034552112 0.056340847 0.11164476 0.13688755 0.0070173093 -0.15268704 -0.45191243 -0.02966967
0.18526126 0.3866174 -0.031273432 0.051462512 0.0044989693 -0.13471363 0.22160837 0.050061345
0.21751603 -0.121459715 0.14628053 -0.09355961 0.09592037 -0.87105095 -0.099146016 -0.23380429
-0.26563647 0.044068806 -0.10630905 -0.13219792 -0.06323069 0.029195296 -0.6294659 -0.4170912
-0.2569364 -0.12315665 0.6061069 0.054951955 0.045167785 0.107836284 -0.48606032 -0.23256034
0.3700532 -0.12431569 0.0021380675 -0.010345583 0.039261036 0.006861849 -0.02351716 0.0025964668
00000000: a608 88be 1835 343e 1a3d 693e 63e3 643e
00000010: 5abd d23d 3b52 6abe 50ab 9abe 439f 3bbd
00000020: fa89 e9bd 32e7 243e dbc0 6c3d a3b2 98bd
00000030: d5c6 21bd e293 85bc 145a d83d 8aa2 053e
00000040: 0156 6dbd d7d8 5b3e a62b e0bc 899b d1bd
00000050: cee3 0e3e 2245 693e 01a6 403d 1bf1 313e
00000060: e8cb 793d 316e 8abe 4e0f 6abd 97ff 753e
00000070: 9c18 7abd 1666 ee3d b414 b7bd f339 16be
00000080: 7a1a 5b3f 9270 093d fe6e 3b3e 7a09 97bd
00000090: 040a 9f3d 784d 4f3e 6704 2abe 4a8f febe
000000a0: db0d 9abe e5f2 253f adf6 00bb 275f 49bf
000000b0: cd89 b5be 07e9 3dbe 1140 c03c 205d 98bc
000000c0: 55f3 2e3e bce0 8cbd f88c f33c d6e0 20bc
000000d0: b2d2 b2bc 25b2 013f c637 b33d 97f7 94be
000000e0: 8c39 d23e d43f 37bf 93f3 a53d 3e49 d7bd
000000f0: 43cc 973e 5dc8 92bc ab1e 423d 5438 623c
00000100: 9a02 d83e 27ec 82bc c8ce 843e 7517 89bc
00000110: d753 043e d0e8 bfbe fb9f a8be dd07 14bd
00000120: 1883 aabd 1302 2dbe be3d bbbe 3d3d 83be
00000130: 8580 bdbe fde4 3b3e 1b35 2bbe bb63 b23e
00000140: 88df 13be cfe6 4c3e 2c48 063e 0f44 1b3d
00000150: faa1 153d 8dfe e7bd 7869 c23d 2694 0bbe
00000160: fcdf 8f3e b56a 823e 22d1 2f3e 2c77 ccbd
00000170: bf70 9dbb df68 0cbe 1f1d d73c 4de8 26bd
00000180: a520 4d3d 142b 373d a4be c03c e1b4 8cbe
00000190: 9021 323e 9af0 733e 9c75 9f3d 0345 bb3e
000001a0: 5dc8 583e 5589 913f c343 12be ea52 fb3e
000001b0: 4c3a af3c 3e5b 6f3e 24e0 0b3c 6633 213f
000001c0: 58b0 a73e 1d5d 983e 04d2 68be 81f0 9d3d
000001d0: f1ac c93d c760 9dbe 2e5d 043f d9a4 3ebe
000001e0: a305 e63e 7884 95bd 580d 193d 8a25 b93a
000001f0: 63aa 803d f09e ed3c ac16 ddbc ebf8 80bd
00000200: 7a80 e0be 9565 563d 51ba 01be 7778 f73e
00000210: 5849 9fbd 0594 eebe 31f7 17bd 7ed4 193e
00000220: b562 d33e bd0b 683e 727d 6f3d 25a3 89be
00000230: 5a81 ae3e 6f67 c6bd 496f 3ebe f013 693d
00000240: 67c0 283e 86f2 ce3d 640b bb3e 6bd8 0c3e
00000250: c186 a7bd 6319 8eba b7de 793e be31 6abc
00000260: 518f 4abe 8b61 893e a4ef d23d 8cb7 a1bd
00000270: 0005 55bd 33ae 1abe f5bc 5bbc 4b08 2a3b
00000280: 22c5 d7be 30a1 7abd 1526 b5bd 866d 2fbf
00000290: 7374 87bd a5af f33e 4cb0 6dbd 3a7c 31bd
000002a0: 0d06 923e 5f32 50be fe40 f53d f210 7ebf
000002b0: 8b59 fd3e 86a1 363e c771 cb3d 90a4 a8bc
000002c0: ac6a 4ebf 290c 8dbe 01ee 25bd 2b3c 4abe
000002d0: 7ed8 c8bd b084 bbbe db3e 343e 33cc 2f3e
000002e0: 2bf4 91be 0eb8 323f 78f4 8dbd 6779 86be
000002f0: 04d4 833c 3342 db3d 117b 73be 4663 093d
00000300: bc2a 923c 6bf2 d83d 8837 8e3e b449 223e
00000310: c527 0bbe d1ad 943f ca61 8a3c aa89 9ebb
00000320: 4cc4 e23c ccfa 24bf b2ae 07be 114a e93d
00000330: f2b2 2a3e 2eb7 6f3d a5bd a2be 4ad8 08bf
00000340: d370 62bb a9c5 663d 02a6 e43d 402c 0c3e
00000350: 75f1 e53b fe59 1cbe 1161 e7be cf0d f3bc
00000360: 21b5 3d3e b7f2 c53e 9218 00bd 5bca 523d
00000370: 176c 933b 5ff2 09be 4eed 623e 200d 4d3d
00000380: 86bc 5e3e dfbf f8bd 90ca 153e 2e9c bfbd
00000390: e671 c43d 32fd 5ebf 110d cbbd 646a 6fbe
000003a0: 8101 88be 7e81 343d 8fb8 d9bd e45e 07be
000003b0: 187f 81bd f92a ef3c ad24 21bf fa8c d5be
000003c0: 2b8d 83be 8e39 fcbd d229 1b3f 4d15 613d
000003d0: db01 393d 45d9 dc3d e6dc f8be 4c24 6ebe
000003e0: 9d77 bd3e 3999 febd d21e 0c3b 8580 29bc
000003f0: 2ed0 203d 5dd9 e03b 0fa7 c0bc 7c29 2a3b

l4.bias f4 [256]
0.26587027 0.01013415 0.28307796 -0.09507869 -0.05887193 0.09646428 0.3075353 -0.008916235
-0.22589146 0.122194365 0.016492182 0.27117115 0.047749944 -0.2744398 -0.16089518 -0.021942874
-0.27179268 0.33416885 0.08438262 -0.03266783 0.17416143 0.1484057 0.2109671 -0.14575085
0.43016723 0.00023177468 0.076854415 -0.0739445 -0.12547128 -0.32098144 -0.13802727 0.2615046
0.19251382 0.18961707 -0.23435599 0.33639005 -0.14553666 0.1512504 -0.16599582 -0.23140512
-0.27838746 0.13016102 -0.029434688 0.25644112 -0.023228899 -0.34056276 -0.25784156 0.30025104
0.0837581 -0.2803962 -0.17662543 0.18458408 0.12239046 -0.1751579 -0.2052014 -0.09558235
0.12959884 0.28135976 -0.011543842 -0.09460239 -0.2704207 0.4596256 0.11360399 0.077082925
-0.27595234 -0.1825456 0.03900503 -0.010771298 -0.091912374 0.0055794013 -0.18004915 -0.17545746
-0.23797111 -0.0044471165 -0.18826573 0.2959431 0.109118655 0.11668686 -0.03049675 0.0240807
-0.00020472417 -0.1922161 0.115473315 -0.019128336 -0.23622543 0.10572604 0.21247543 0.038323477
-0.27179864 -0.2770609 -0.1804563 0.0269478 -0.29824618 0.0037717305 0.24167578 -0.20068051
0.069018506 -0.21937966 -0.2791444 0.16494367 -0.036986526 -0.34264365 0.2298051 0.38623425
-0.15065086 0.20704083 0.26797622 0.19299708 -0.21951993 0.16175598 0.20894212 0.04851145
0.27119878 0.1551689 0.018790003 -0.047385886 0.010854635 0.14488137 0.10343307 -0.061284926
-0.10616068 -0.1536047 -0.24208212 -0.06365825 0.2662291 0.025810143 -0.02823816 0.33983967
-0.07115644 -0.07011959 0.09798595 0.13762754 -0.38494012 0.11724722 -0.081824705 -0.05566093
0.12447108 -0.07231047 0.31427556 -0.2949745 -0.18144798 0.13353728 -0.31757304 0.19155933
-0.40705436 0.17932117 0.05885804 0.007929937 -0.07232341 0.13567266 -0.16307664 0.22933842
-0.32995638 0.11936438 0.23138446 0.13921335 0.11116823 -0.14886174 0.09124834 -0.023279076
0.026223462 0.045456357 -0.30625924 0.14361286 0.1876762 0.17557856 0.015187224 -0.17549421
0.028015813 0.052533604 -0.2978242 -0.014012899 0.0125899045 -0.040881783 -0.028917678 0.10083578
0.095608264 0.15272611 -0.19580151 0.20044886 0.047497537 0.23700598 -0.083701074 0.31245437
0.16346276 -0.29890773 -0.102338895 0.18882091 0.035331696 0.052239347 0.13417983 -0.16835964
0.17839858 -0.37858745 -0.03332558 0.0353598 0.13910213 0.14737998 0.18742889 0.16870297
-0.24271113 0.16075394 0.017237676 -0.027097736 0.0027629412 -0.16640837 -0.25664634 0.10038025
-0.26053807 -0.067355335 -0.029384483 0.11644655 0.3900964 0.32764575 0.08862163 -0.2443261
-0.0814234 0.051021475 -0.31653896 0.22420229 0.02201877 -0.03112899 0.08116319 0.30986264
0.06235345 -0.22218339 0.6004436 0.015146863 -0.009890207 0.12398436 0.23906472 0.11523876
-0.08015607 0.057440575 -0.26638538 0.13909453 -0.038311094 0.013996572 -0.108216174 0.17292094
-0.13701804 -0.2012703 0.13193798 0.08958415 0.26220623 0.08025063 -0.107058875 0.00998192
-0.042997077 -0.32632518 0.28014147 0.06806977 -0.04987457 0.1371522 0.08640376 0.16738056
00000000: 2620 883e b509 263c 98ef 903e 9eb8 c2bd
00000010: b123 71bd 108f c53d 4475 9d3e 6615 12bc
00000020: 1750 67be 0a41 fa3d 9d1a 873c f2d6 8a3e
00000030: 7295 433d 6083 8cbe b5c1 24be 8bc1 b3bc
00000040: 6928 8bbe 2e18 ab3e ccd0 ac3d b4ce 05bd
00000050: 6057 323e aaf7 173e c207 583e b63f 15be
00000060: e13e dc3e 8b08 7339 d965 9d3d 3770 97bd
00000070: 8b7b 00be ae57 a4be 0557 0dbe eee3 853e
00000080: 5822 453e fa2a 423e 04fb 6fbe 513b ac3e
00000090: 9007 15be 63e1 1a3e cffa 29be 77f5 6cbe
000000a0: cd88 8ebe ee48 053e 0421 f1bc 404c 833e
000000b0: 884a bebc 3e5e aebe cf03 84be 81ba 993e
000000c0: 5e89 ab3d 1790 8fbe 4cdd 34be 9c03 3d3e
000000d0: d9a7 fa3d 985c 33be 5120 52be aec0 c3bd
000000e0: 8fb5 043e 630e 903e 6222 3dbc e6be c1bd
000000f0: 9574 8abe 0c54 eb3e 35a9 e83d a7dd 9d3d
00000100: a049 8dbe 3ced 3abe bdc3 1f3d 197a 30bc
00000110: 8e3c bcbd 69d3 b63b ce5e 38be 1fab 33be
00000120: b3ae 73be 1eb9 91bb bbc8 40be db85 973e
00000130: 9a79 df3d 85f9 ee3d 52d4 f9bc e344 c53c
00000140: 3aab 56b9 4cd4 44be 467d ec3d 07b3 9cbc
00000150: 14e5 71be e586 d83d 2993 593e 14f9 1c3d
00000160: 3129 8bbe edda 8dbe 89c9 38be a2c1 dc3c
00000170: b9b3 98be 232f 773b db79 773e 317f 4dbe
00000180: 9359 8d3d 10a5 60be 04ec 8ebe fee6 283e
00000190: 2f7f 17bd fd6e afbe 0752 6b3e 7fc0 c53e
000001a0: 3844 1abe 8302 543e 2e34 893e 07a1 453e
000001b0: d5c9 60be 5ca3 253e ecf4 553e f1b3 463d
000001c0: 91da 8a3e 99e4 1e3e 7eed 993c b417 42bd
000001d0: a4d7 313c c85b 143e b8d4 d33d e705 7bbd
000001e0: c56a d9bd 8d4a 1dbe 60e4 77be 425f 82bd
000001f0: 2e4f 883e cb6f d33c b753 e7bc 77ff ad3e
00000200: 78ba 91bd dc9a 8fbd dcac c83d 3cee 0c3e
00000210: df16 c5be 4f1f f03d b693 a7bd b7fc 63bd
00000220: b2ea fe3d 8317 94bd bae8 a03e e606 97be
00000230: 80cd 39be ffbd 083e ef98 a2be 2128 443e
00000240: 6e69 d0be f89f 373e 2115 713d 91ec 013c
00000250: 4c1e 94bd c6ed 0a3e 90fd 26be b1d7 6a3e
00000260: 0bf0 a8be 5075 f43d 0cf0 6c3e f28d 0e3e
00000270: 2bac e33d 366f 18be 69e0 ba3d c3b3 bebc
00000280: 96d2 d63c 7230 3a3d 03ce 9cbe 400f 133e
00000290: 312e 403e deca 333e d6d3 783c c1b4 33be
000002a0: 6b81 e53c 7a2d 573d 6a7c 98be 5c96 65bc
000002b0: e345 4e3c a873 27bd c4e4 ecbc fd82 ce3d
000002c0: 44ce c33d 3c64 1c3e 3180 48be 7742 4d3e
000002d0: c78c 423d b2b1 723e 786b abbd 05fa 9f3e
000002e0: c862 273e 6f0a 99be 0e97 d1bd 455a 413e
000002f0: f8b7 103d edf8 553d 7066 093e 7866 2cbe
00000300: 1eae 363e 37d6 c1be 6780 08bd 70d5 103d
00000310: ca70 0e3e c7ea 163e 5ced 3f3e 79c0 2c3e
00000320: 4489 78be ae9c 243e 0736 8d3c 12fc ddbc
00000330: 7612 353b f566 2abe 2667 83be 2994 cd3d
00000340: 3f65 85be 98f1 89bd bab7 f0bc 877b ee3d
00000350: b7ba c73e 2fc1 a73e 427f b53d 9f30 7abe
00000360: 50c1 a6bd e5fb 503d 6511 a2be 4995 653e
00000370: b560 b43c 3902 ffbc e338 a63d 51a6 9e3e
00000380: 5566 7f3d 0b84 63be acb6 193f 8c2a 783c
00000390: 890a 22bc 83eb fd3d 62cd 743e 4d02 ec3d
000003a0: de28 a4bd cf46 6b3d aa63 88be cc6e 0e3e
000003b0: 18ec 1cbd e151 653c 71a0 ddbd 3012 313e
000003c0: 754e 0cbe cd19 4ebe c01a 073e e577 b73d
000003d0: e53f 863e 715a a43d af41 dbbd 358b 233c
000003e0: b41d 30bd 1814 a7be b46e 8f3e 2a68 8b3d
000003f0: 4749 4cbd a071 0c3e 74f4 b03d cf65 2b3e

l5.weight f4 [256, 256]
0.20266885 -0.06434808 0.12066822 0.02861281 -0.07785189 -0.010616555 0.053592514 0.4664149
0.10484624 -0.43556654 0.13779093 0.09799463 -0.0024571235 0.11343679 0.1635465 0.024051769
0.017389223 0.15111683 0.07874212 0.09891382 0.15901923 0.046169937 0.08238008 -0.124770634
-0.14312255 0.07480779 0.06431857 0.089013204 0.058417484 0.15452734 -0.27940223 0.25190195
0.14159934 0.008396103 0.24513258 -0.15488514 0.10781696 -0.014510438 0.09068689 0.15194625
0.058288354 0.15781361 0.16160055 0.12779886 0.0265445 0.1329114 -0.08782283 0.07212358
0.024990307 -0.2530568 0.11668956 0.06330328 -0.09948044 0.11409032 0.37611714 0.082739145
-0.013010296 0.09575164 -0.17652023 0.1405024 0.0111599015 0.020688696 0.064592086 0.14609236
0.15013635 0.06626828 0.03157214 -0.072465524 -0.17234536 0.016065702 0.05937799 -1.0407363
-0.22349092 0.17029896 -0.5295246 -0.15635028 0.16208003 0.115097284 0.1367443 0.20001015
-0.14770922 0.059652325 0.17235462 -0.32022408 0.2463686 -0.19106413 -0.10112116 -0.116336584
0.093196996 -0.054760743 0.037476454 -0.01724737 0.12180308 0.4140864 0.032755047 0.33669853
-0.01144053 0.059395984 0.15903273 0.007461712 -0.028961308 0.100845665 0.23679471 -0.15102613
-0.17497131 0.11820959 0.12672082 0.1062392 0.08932113 -0.12035043 0.023976982 -0.106161594
0.14991716 0.101127625 -0.025910331 -0.18255453 0.088381246 0.16766784 -0.047071837 0.2629983
0.08273804 0.1860255 -0.011536442 0.022352982 0.14441888 0.19525276 0.012721332 -0.53849286
0.08951694 -0.343621 0.1936032 0.14849226 -0.40535277 0.12950718 0.05601474 -0.03429295
0.18609065 0.041487962 0.07561028 0.046522476 0.056643955 0.21786022 -0.0038855607 0.051843993
0.24813405 0.24032493 0.14570162 -0.98722994 0.2018497 0.22869794 0.062423386 0.11233978
-0.019591672 0.10561208 -0.0928576 0.12856895 -0.018897556 0.07732095 0.032843392 0.008980403
-0.03621721 0.12252532 0.019739302 0.07052218 0.16181937 0.14802827 0.057380494 0.052144222
0.0989039 0.13166589 -0.15531823 0.1812331 -0.5927317 0.036130793 -0.3865636 0.10369862
-0.071730904 0.13294517 0.15456975 -0.19097348 0.13980131 0.16526026 -0.5144537 0.2031321
-0.12593044 -0.09996571 0.10563396 0.07460785 0.083267495 0.13044767 -0.12101163 -0.7140177
0.21102807 -0.2968792 0.14902472 0.15273795 -0.16619724 -0.11141206 0.01017612 0.18483892
0.056986157 0.19257267 0.2055019 0.06926827 0.06721068 0.045719452 0.38032424 0.12258851
0.025624255 0.09037528 0.18695517 0.15972711 0.22103415 0.013421096 0.23104915 0.15755892
0.09950268 0.06469361 0.11642081 0.090581946 -0.08165887 0.20239256 0.071634926 0.07614991
0.23884495 0.1922863 0.078296654 0.1622429 -0.0064257267 0.1564924 -0.023125298 0.2620065
0.07011823 -0.05553722 0.081045106 0.12495651 0.2510473 0.12661096 0.17949171 0.3040539
-0.46468228 0.08832598 -0.18160592 -0.90158087 0.16683336 0.12631036 0.12770791 0.08526793
0.088900656 -0.083940506 0.18620665 -0.2946697 0.055995107 0.14936541 0.14935337 0.14118847
00000000: 6c88 4f3e edc8 83bd e620 f73d 6965 ea3c
00000010: d070 9fbd 0ff1 2dbc d383 5b3d efcd ee3e
00000020: a0b9 d63d 9402 dfbe 1119 0d3e 69b1 c83d
00000030: b107 21bb 8c51 e83d bc78 273e 3708 c53c
00000040: d873 8e3c 5fbe 1a3e 8c43 a13d 5493 ca3d
00000050: f0d5 223e b01c 3d3d e3b6 a83d bf87 ffbd
00000060: b88e 12be d434 993d 74b9 833d 8e4c b63d
00000070: 2c47 6f3d 6a3c 1e3e cf0d 8fbe 4bf9 803e
00000080: 6bff 103e cf8f 093c 0904 7b3e 369a 1ebe
00000090: 23cf dc3d 30bd 6dbc 0cba b93d cc97 1b3e
000000a0: c5bf 6e3d e499 213e 9d7a 253e b4dd 023e
000000b0: da73 d93c ed19 083e 75dc b3bd 87b5 933d
000000c0: 79b8 cc3c a990 81be f0fa ee3d 26a5 813d
000000d0: 67bc cbbd 30a8 e93d 6d92 c03e 2473 a93d
000000e0: 2329 55bc 7019 c43d b8c1 34be dcdf 0f3e
000000f0: 05d8 363c 577b a93c db48 843d 3c99 153e
00000100: 58bd 193e aab7 873d ca51 013d ce68 94bd
00000110: 4d7b 30be 389c 833c 5636 733d d936 85bf
00000120: ceda 64be da62 2e3e ed8e 07bf 4a1a 20be
00000130: 4ff8 253e 20b8 eb3d b306 0c3e 76cf 4c3e
00000140: 1641 17be ff55 743d bb7d 303e 69f4 a3be
00000150: 0d48 7c3e 51a6 43be 9c18 cfbd e041 eebd
00000160: 11de be3d cd4c 60bd e980 193d 5b4a 8dbc
00000170: e573 f93d 2203 d43e 282a 063d c063 ac3e
00000180: 1071 3bbc 3449 733d 7ad9 223e 6181 f43b
00000190: 4440 edbc 2c88 ce3d 507a 723e 98a6 1abe
000001a0: ae2b 33be df17 f23d 1ac3 013e f093 d93d
000001b0: ffed b63d 497a f6bd 606b c43c 406b d9bd
000001c0: e283 193e 001c cf3d e741 d4bc 93ef 3abe
000001d0: 3a01 b53d 1eb1 2b3e 66ce 40bd b7a7 863e
000001e0: 9072 a93d 787d 3e3e 5803 3dbc 9a1d b73c
000001f0: 8be2 133e 57f0 473e 226d 503c abda 09bf
00000200: a854 b73d 17ef afbe eb3f 463e 5b0e 183e
00000210: 668a cfbe 889d 043e b66f 653d c476 0cbd
00000220: 8c8e 3e3e 48ef 293d 90d9 9a3d 5a8e 3e3d
00000230: 7e03 683d c016 5f3e e4a4 7ebb 5e5a 543d
00000240: da16 7e3e bd17 763e ce32 153e 1abb 7cbf
00000250: b0b1 4e3e cb2f 6a3e aaaf 7f3d 6612 e63d
00000260: b77e a0bc 254b d83d 202c bebd 94a7 033e
00000270: 0ccf 9abc 725a 9e3d cb86 063d 8a22 133c
00000280: 7f58 14bd 8eee fa3d 51b4 a13c ef6d 903d
00000290: fab3 253e b994 173e cf07 6b3d 2e95 553d
000002a0: 218e ca3d 6cd3 063e be0b 1fbe 2b95 393e
000002b0: 44bd 17bf e2fd 133d aaeb c5be f15f d43d
000002c0: a7e7 92bd c722 083e 8847 1e3e 8d8e 43be
000002d0: 1328 0f3e fc39 293e 3db3 03bf dc01 503e
000002e0: e9f3 00be d2ba ccbd 9e56 d83d 00cc 983d
000002f0: 2688 aa3d 1394 053e f2d4 f7bd ddc9 36bf
00000300: be17 583e 8d00 98be f099 183e 5667 1c3e
00000310: 9c2f 2abe 022c e4bd beb9 263c 6a46 3d3e
00000320: 516a 693d c531 453e 176f 523e 86dc 8d3d
00000330: c1a5 893d 5244 3b3d dcb9 c23e af0f fb3d
00000340: f5e9 d13c ad16 b93d 2d71 3f3e 818f 233e
00000350: c756 623e 28e4 5b3c 2698 6c3e 2057 213e
00000360: 10c8 cb3d 157e 843d 096e ee3d 0783 b93d
00000370: c43c a7bd ff3f 4f3e 55b5 923d 7cf4 9b3d
00000380: c593 743e b3e6 443e ff59 a03d 0123 263e
00000390: e78e d2bb 8b3f 203e 4471 bdbc b725 863e
000003a0: 269a 8f3d ff7a 63bd fafa a53d 33e9 ff3d
000003b0: 4689 803e 4ea6 013e adcc 373e f4ac 9b3e
000003c0: d6ea edbe 40e4 b43d e7f6 39be 01ce 66bf
000003d0: 5dd6 2a3e 8157 013e ddc5 023e f4a0 ae3d
000003e0: 8c11 b63d 00e9 abbd f5ac 3e3e f2de 96be
000003f0: 205b 653d 3ff3 183e 17f0 183e b693 103e
