p2/0.5HalfCheetahBulletEnv-v0_TD3_BC_5678_1638610335_td3_bc.pth (torch, 898805 bytes, 16 tensors)

l1.weight f4 [256, 32]
-0.39275244 -0.0897381 0.17450584 0.65616703 -0.009089937 0.371998 0.51578885 0.055646166
0.24567693 -0.5131904 -0.024242925 -0.19698074 -0.27561757 -0.09970152 0.2885847 0.43488315
-0.34304574 0.019972436 -0.10502859 0.03959556 -0.03280886 -0.0037166018 -0.4042783 0.013888146
-0.8409727 -0.54126483 -0.010581361 -0.05291513 0.0053994963 0.041972656 -0.09434732 0.0018260278
0.35862222 -0.11240727 0.27735844 0.15107404 0.1621701 -0.45196593 0.0019462666 -0.27507642
-0.22701003 -0.33378184 -0.2148009 -0.47152466 -0.08014537 -0.043690816 -0.10421965 -0.15585376
0.16836952 -0.019781746 -0.17870468 0.07177621 0.13653013 0.22848748 -0.06353078 0.12712382
0.25654158 0.13585515 0.11563876 -0.11055287 0.11579988 -0.038041793 0.060883462 -0.09133496
0.016368734 0.16057561 -0.05874024 -0.02313058 0.0202119 0.29633114 -0.23418216 -0.38143235
-0.42976362 -0.46161377 0.21173258 -0.04047687 -0.20049177 -0.36546078 0.063311756 -0.11784646
-0.23226151 -0.27904418 -0.38859832 -0.22567694 -0.021406023 -0.25589392 -0.053230207 0.24917087
0.071645826 -0.25913012 0.12596017 0.0049108784 0.21987277 0.13929963 0.110158965 -0.15327357
0.20690872 -0.03080627 -0.12234992 -0.29595906 0.06865991 -0.3843343 0.10504792 0.64563483
-0.05007288 0.7613623 -0.06596448 0.104367875 -0.5968457 -0.3460219 -0.15431507 0.34512657
0.03740903 0.17255035 0.08243659 0.06136295 0.0005394964 0.035922263 0.13719773 0.03438119
-0.011547337 -0.38255715 0.08729267 0.05718025 -0.32796472 0.098304875 0.058505166 0.012209067
0.012390583 0.1420106 -0.11415675 -1.4211742 0.11070805 0.46866193 -0.45783404 0.31196076
0.35633436 0.51462454 -0.2557299 0.13614683 0.509998 0.01281835 0.020697916 -0.29655236
-0.45420533 -0.17782903 -0.4597106 -0.027660051 -0.054173127 -0.038501423 -0.50594676 0.035325658
0.2496798 0.010064241 0.045531154 0.09609537 -0.08089357 0.023269856 -0.021608373 -0.048185565
-0.56970817 -0.12751438 -0.11243464 0.35540223 -0.07604836 0.6577795 -0.3120217 0.30418772
0.09351063 -0.57638395 0.3808235 -0.6110393 0.1153668 -0.052975755 0.28569928 -0.1462452
-0.25014442 -0.24750382 0.26130748 -0.043558814 -0.1459843 0.34126076 -0.12665549 0.100659095
-0.50296813 -0.22267453 0.08678356 -0.24991652 -0.073397666 -0.056848574 -0.13227583 0.15340069
0.30543822 -0.13476752 0.21765752 -0.91837794 -0.098812126 0.5714138 -0.2121033 0.070558295
0.061990466 0.14144604 -0.32424557 -0.42781875 -0.41267148 0.14390697 0.17578815 0.41681632
-0.5080055 0.24358708 -0.06712281 -0.022997852 0.006157319 0.008688914 0.16599518 0.22268511
-0.23171605 -0.22677292 0.004175307 -0.06104402 0.08810866 0.064832225 -0.10375497 -0.02997278
0.3321406 -0.09428035 0.3684666 -1.0660902 0.083996035 0.35580444 -0.24693273 -1.2533321
0.26734567 -0.07262033 0.43266758 0.25604147 0.02447561 -0.031507976 -0.17752618 -0.24151999
-0.03231624 -0.1382817 0.028511709 -0.11373781 -0.029220765 -0.03588046 -0.5821703 -0.05357823
-0.84730434 -0.07621472 -0.09276313 0.13265477 -0.11071818 -0.04122197 -0.0295918 0.04336993
00000000: d916 c9be 9cc8 b7bd a9b1 323e 90fa 273f
00000010: f6ed 14bc 8676 be3e bd0a 043f 3ced 633d
00000020: bc92 7b3e 7260 03bf 1999 c6bc 52b5 49be
00000030: bf1d 8dbe 4f30 ccbd 60c1 933e 01a9 de3e
00000040: b1a3 afbe 3c9d a33c 3b19 d7bd f42e 223d
00000050: 9562 06bd 3b92 73bb 91fd cebe 1b8b 633c
00000060: fd49 57bf 5590 0abf 725d 2dbc 89bd 58bd
00000070: 42ee b03b 85eb 2b3d 2b39 c1bd 5357 ef3a
00000080: 559d b73e c835 e6bd ed01 8e3e 27b3 1a3e
00000090: eb0f 263e 1468 e7be df19 ff3a d1d6 8cbe
000000a0: 5175 68be 74e5 aabe c4f4 5bbe ae6b f1be
000000b0: 4123 a4bd 24f5 32bd 1d71 d5bd 2198 1fbe
000000c0: 0f69 2c3e 540d a2bc 5cfe 36be 68ff 923d
000000d0: 8ece 0b3e 9ff8 693e 6d1c 82bd bf2c 023e
000000e0: 6b59 833e 9d1d 0b3e 04d4 ec3d 8b69 e2bd
000000f0: 7d28 ed3d b6d1 1bbd f060 793d d30d bbbd
00000100: b917 863c ef6d 243e 9b99 70bd 587c bdbc
00000110: 6d93 a53c b7b8 973e 73cd 6fbe 1a4b c3be
00000120: fa09 dcbe a458 ecbe 6dd0 583e 13cb 25bd
00000130: b74d 4dbe ad1d bbbe 98a9 813d 7c59 f1bd
00000140: f6d5 6dbe e1de 8ebe 5cf6 c6be db17 67be
00000150: af5b afbc 8704 83be eb07 5abd a626 7f3e
00000160: 0cbb 923d b4ac 84be b4fb 003e 6feb a03b
00000170: 5426 613e 90a4 0e3e 069b e13d bff3 1cbe
00000180: e1df 533e 6e5d fcbc 9892 fabd f287 97be
00000190: 919d 8c3d 77c7 c4be 5d23 d73d 5348 253f
000001a0: 3819 4dbd a4e8 423f 6318 87bd d3be d53d
000001b0: e1ca 18bf c829 b1be c504 1ebe 6eb4 b03e
000001c0: 363a 193d 0ab1 303e 84d4 a83d b757 7b3d
000001d0: fe6c 0d3a 3923 133d 907d 0c3e 4ad3 0c3d
000001e0: 0b31 3dbc 88de c3be 80c6 b23d d635 6a3d
000001f0: feea a7be 1154 c93d 1da3 6f3d 8a08 483c
00000200: df01 4b3c 3a6b 113e 04cb e9bd 09e9 b5bf
00000210: e7ba e23d 75f4 ef3e 3969 eabe 52b9 9f3e
00000220: 7571 b63e 6fbe 033f 08ef 82be 136a 0b3e
00000230: 3b8f 023f 0f04 523c ad8e a93c b6d5 97be
00000240: 9a8d e8be d018 36be 305f ebbe 5597 e2bc
00000250: a4e4 5dbd abb3 1dbd ba85 01bf a3b1 103d
00000260: 10ac 7f3e 7ce4 243c e07e 3a3d a6cd c43d
00000270: 87ab a5bd 6da0 be3c 0b04 b1bc 3a5e 45bd
00000280: 65d8 11bf 2193 02be 2244 e6bd 48f7 b53e
00000290: 3ebf 9bbd 3d64 283f 4fc1 9fbe 7ebe 9b3e
000002a0: 8082 bf3d e68d 13bf 4cfb c23e 126d 1cbf
000002b0: 6e45 ec3d 1bfd 58bd 2d47 923e 4dc1 15be
000002c0: ee12 80be a471 7dbe 18ca 853e ba6a 32bd
000002d0: e97c 15be bbb9 ae3e fab1 01be 5b26 ce3d
000002e0: 85c2 00bf cb04 64be 94bb b13d 1eea 7fbe
000002f0: 8451 96bd 0dda 68bd 5173 07be 1215 1d3e
00000300: 6662 9c3e 7f00 0abe 9de1 5e3e d11a 6bbf
00000310: 035e cabd 2d48 123f 9c31 59be de80 903d
00000320: b7e9 7d3d 3bd7 103e 8403 a6be 0f0b dbbe
00000330: ad49 d3be 595c 133e cf01 343e f368 d53e
00000340: a60c 02bf e46e 793e af77 89bd fe65 bcbc
00000350: 56c3 c93b f25b 0e3c a4fa 293e 9107 643e
00000360: f946 6dbe 2937 68be 04d1 883b 4b09 7abd
00000370: 5072 b43d c2c6 843d 7c7d d4bd 7a89 f5bc
00000380: 550e aa3e 0e16 c1bd a7a7 bc3e a575 88bf
00000390: 1d06 ac3d 002c b63e efdb 7cbe 306d a0bf
000003a0: 88e1 883e f8b9 94bd 9b86 dd3e de17 833e
000003b0: 1381 c83c 820e 01bd 6cc9 35be 0451 77be
000003c0: 095e 04bd b899 0dbe 6391 e93c 5eef e8bd
000003d0: 6360 efbc 64f7 12bd 1d09 15bf d974 5bbd
000003e0: f0e8 58bf 7716 9cbd 99fa bdbd a7d6 073e
000003f0: 37c0 e2bd 5ed8 28bd 816a f2bc aba4 313d

l1.bias f4 [256]
0.07174495 0.14646776 -0.011944493 -0.24025147 -0.24599649 -0.2513877 -0.118474476 0.29229397
0.20175193 0.011201562 -0.2283184 -0.028699977 -0.11484258 -0.13653995 -0.06020234 0.21008812
-0.042554203 -0.18026394 0.22014904 -0.14691798 0.054037068 0.1787397 -0.20625167 0.1396962
-0.31445137 0.1967281 0.2799192 0.16659953 0.21078677 0.01888108 0.13210836 0.062391505
0.14232795 -0.4485719 -0.2453788 -0.18554652 0.16850673 -0.10985201 -0.15319513 0.18483332
-0.06047359 -0.012042533 0.192957 0.21884863 -0.37546745 -0.020237956 -0.056903005 0.060144782
0.25093174 0.056056045 0.029861202 -0.10288279 -0.12484244 -0.3053213 0.29111403 -0.13131908
-0.05847724 -0.13473384 0.42408818 -0.17994028 0.083538674 -0.18756728 0.023923332 0.20954052
0.19876173 0.18663028 -0.2698034 0.004176833 0.28652623 -0.04640869 0.2869849 -0.13549705
0.08462918 0.16218406 -0.12992264 0.030535838 -0.09440751 0.111116074 -0.08770295 -0.1813787
0.021831522 -0.11850932 0.0056851697 0.2432209 0.26650992 0.007943106 0.14959009 -0.29241058
-0.082306005 -0.0771577 0.29276028 0.1540477 0.11961929 0.010046291 0.121259354 -0.02800627
-0.23971124 0.17171478 0.030386696 -0.16424783 0.12745817 -0.21557155 -0.21818376 0.07144905
0.07380005 -0.055685464 -0.04293347 0.023459723 0.3059338 -0.23117442 -0.110177904 0.00680352
-0.34010172 0.26742822 -0.08679952 0.19226481 -0.18029779 0.030016417 -0.013552626 0.15304677
-0.45793122 0.18887469 0.016014695 -0.1560666 -0.3334763 -0.061663408 -0.04834204 0.06558106
0.13940504 0.25664636 -0.24546213 -0.16086382 -0.10056506 0.16403392 -0.18518227 -0.24237229
-0.048634846 -0.13579269 -0.27991652 -0.3043905 0.2607422 -0.2995527 -0.067499064 0.15667906
0.1022529 0.15964733 0.022847911 -0.042341284 -0.40294036 0.04520378 0.07151725 -0.21598493
0.13472867 0.093142346 0.13644123 -0.022320082 0.2055586 -0.22370665 -0.04317648 -0.1296037
0.21699397 0.008041631 -0.29703113 -0.33646065 0.15398528 0.13790454 -0.07488852 -0.21040544
-0.3944651 -0.26492193 -0.1958317 -0.12403735 0.19240738 -0.16302927 -0.18133709 0.16736259
-0.023964455 -0.3881148 0.15178001 -0.09228294 0.13132606 0.27833593 0.10375919 0.15918371
-0.0758101 -0.15945023 -0.20127809 0.31611288 0.08366181 0.30838808 -0.041356392 0.31579563
-0.24961823 -0.30136997 0.11256231 -0.20792139 0.026501669 0.32969162 -0.06058134 0.24277645
-0.042225644 0.2548319 0.15816726 -0.18754596 -0.08721156 0.32453042 0.17028709 0.09066668
0.1718893 0.14270177 0.17474511 -4.787306e-05 0.27071962 -0.13966516 -0.2326665 -0.07545285
0.21638168 -0.122099146 0.19068547 0.28266725 0.2168388 0.20797405 0.29791465 -0.08412089
-0.34478265 -0.043992996 0.20257737 0.012898867 0.058076214 -0.16728668 0.05756138 -0.08891221
0.05678995 0.11605369 -0.12679225 0.26246393 0.2525633 -0.26094583 0.01803254 0.38869268
0.18344176 0.32329378 0.21417698 -0.27551445 -0.318882 0.008978233 -0.12121785 0.07847761
0.18849511 -0.1942568 0.16520855 -0.28014502 0.19488731 0.032737408 0.1908555 -0.12657969
00000000: 04ef 923d a5fb 153e d6b2 43bc 7b04 76be
00000010: 81e6 7bbe e3b5 80be bfa2 f2bd 8ea7 953e
00000020: 0f98 4e3e c286 373c 4ccc 69be 371c ebbc
00000030: 9632 ebbd 21d1 0bbe bb96 76bd 5721 573e
00000040: 514d 2ebd 1c97 38be c06e 613e ab71 16be
00000050: f955 5d3d 8a07 373e a333 53be 850c 0f3e
00000060: c5ff a0be 1773 493e 9251 8f3e 1199 2a3e
00000070: 7dd8 573e 7fac 9a3c 6a47 073e 3c8e 7f3d
00000080: 6bbe 113e 37ab e5be 9544 7bbe e8ff 3dbe
00000090: 078d 2c3e 17fa e0bd 2fdf 1cbe f244 3d3e
000000a0: 28b3 77bd 0b4e 45bc 8596 453e db19 603e
000000b0: 453d c0be 12ca a5bc 2013 69bd 605a 763d
000000c0: 207a 803e 069b 653d 7b9f f43c 36b4 d2bd
000000d0: 65ad ffbd 1353 9cbe e60c 953e 8278 06be
000000e0: d585 6fbd abf7 09be 1622 d93e 4442 38be
000000f0: 5316 ab3d a311 40be ddfa c33c ca91 563e
00000100: 3288 4b3e 021c 3f3e ac23 8abe d1dd 883b
00000110: 91b3 923e 0a17 3ebd afef 923e bdbf 0abe
00000120: 1052 ad3d 9413 263e 710a 05be 4b26 fa3c
00000130: b958 c1bd d390 e33d 9b9d b3bd 57bb 39be
00000140: 05d8 b23c 04b5 f2bd a94a ba3b e60e 793e
00000150: fd73 883e cd23 023c 252e 193e d7b6 95be
00000160: 0d90 a8bd db04 9ebd ade4 953e aebe 1d3e
00000170: f5fa f43d 3399 243c d356 f83d 686d e5bc
00000180: dd76 75be 00d6 2f3e 85ed f83c 9530 28be
00000190: 6584 023e cabe 5cbe 906b 5fbe e153 923d
000001a0: 7b24 973d 7116 64bd 02db 2fbd 9b2e c03c
000001b0: 5ba3 9c3e fdb8 6cbe f4a4 e1bd 10f0 de3b
000001c0: d021 aebe 5aec 883e f2c3 b1bd 11e1 443e
000001d0: fc9f 38be fde4 f53c d50b 5ebc 4bb8 1c3e
000001e0: f675 eabe 5e68 413e 4031 833c eccf 1fbe
000001f0: 68bd aabe c592 7cbd 4e02 46bd 5d4f 863d
00000200: 32c0 0e3e 2767 833e 6d5a 7bbe 7cb9 24be
00000210: 0ef5 cdbd 82f8 273e 6ca0 3dbe 7130 78be
00000220: 5535 47bd 3d0d 0bbe 3851 8fbe 12d9 9bbe
00000230: 0080 853e f95e 99be f33c 8abd 7a70 203e
00000240: f869 d13d 977a 233e 8b2b bb3c 0e6e 2dbd
00000250: 334e cebe 9927 393d a377 923d 272b 5dbe
00000260: 50f6 093e 6ac1 be3d 40b7 0b3e 9bd8 b6bc
00000270: f47d 523e 5b13 65be d2d9 30bd d5b6 04be
00000280: ab33 5e3e 0cc1 033c 7714 98be 9244 acbe
00000290: 51ae 1d3e d936 0d3e 275f 99bd 8674 57be
000002a0: 54f7 c9be d9a3 87be 1b88 48be 4b07 febd
000002b0: 7106 453e 25f1 26be 6eb0 39be 1961 2b3e
000002c0: 1b51 c4bc fcb6 c6be 386c 1b3e d7fe bcbd
000002d0: 577a 063e 0c82 8e3e b37f d43d 0e01 233e
000002e0: 5342 9bbd ec46 23be d81b 4ebe 8cd9 a13e
000002f0: e256 ab3d 0be5 9d3e 5265 29bd f7af a13e
00000300: ec9b 7fbe 2a4d 9abe 1287 e63d 58e9 54be
00000310: 071a d93c 57cd a83e 2424 78bd 649a 783e
00000320: ccf4 2cbd 5479 823e 99f6 213e 0c0c 40be
00000330: f99b b2bd da28 a63e bd5f 2e3e 74af b93d
00000340: c003 303e 6a20 123e 62f0 323e 4fcb 48b8
00000350: c39b 8a3e 6204 0fbe 2140 6ebe 0687 9abd
00000360: 2993 5d3e 1e0f fabd 0d43 433e c3b9 903e
00000370: fe0a 5e3e 26f7 543e 4588 983e 9347 acbd
00000380: 5a87 b0be 0032 34bd 7170 4f3e c555 533c
00000390: 53e1 6d3d 334d 2bbe 7bc5 6b3d 9b17 b6bd
000003a0: 949c 683d 8fad ed3d d4d5 01be ac61 863e
000003b0: fa4f 813e b19a 85be fab8 933c ba02 c73e
000003c0: 28d8 3b3e c386 a53e 3651 5b3e 3b10 8dbe
000003d0: 8044 a3be 7019 133c 1041 f8bd dfb8 a03d
000003e0: dd04 413e 41eb 46be 6e2c 293e 2b6f 8fbe
000003f0: 8a90 473e a917 063d a06f 433e 1b9e 01be

l2.weight f4 [256, 256]
0.21362062 0.18376291 -0.0780807 0.27426943 0.08396219 0.12602821 0.13543847 -0.1522633
0.12787013 0.19132702 0.08158207 0.29487506 0.20253502 0.19132441 0.077092364 0.08785615
0.16619855 0.070201516 0.17375907 0.13498056 0.1941701 0.115547426 0.16328982 0.24109903
0.15948118 0.121121794 0.027439786 -0.031312186 0.1633001 0.23634732 0.14409597 0.1541999
0.20625325 0.28758812 0.30062285 -0.07061567 0.24841355 0.13477825 0.005411047 0.13424343
0.020996701 0.1749292 0.21316142 0.08921422 0.14663523 0.093755126 0.064672254 0.12910311
0.056694657 0.11552214 0.12540853 0.051089663 0.076605245 0.019370098 0.119933166 -0.121333286
0.11789745 0.04581087 0.15612978 0.1796291 0.024771055 0.14705743 0.12959065 0.03948697
0.42679465 0.42023808 0.27779755 0.20581232 0.52090293 0.1090313 0.1508194 0.17160755
-0.008565578 0.100713074 0.0734857 0.10338144 0.15048137 0.2059877 0.024474941 0.293793
0.04751164 0.013971023 0.045687124 0.07291492 0.39306968 0.10938665 0.18723655 0.08235298
0.05010464 0.13960704 0.1559408 0.09270082 0.057745982 0.14601171 0.20076461 0.08558301
0.26252106 0.057783075 0.21640806 0.23723786 0.070966914 0.15418355 0.15036418 0.15569277
0.243969 0.14471965 0.03563223 0.28432772 0.11659754 0.04575803 0.14693516 0.08344184
0.0752708 0.42308214 0.20665154 0.09261379 0.14558744 0.10282275 0.425338 0.093967766
0.15525891 0.047726188 0.029217323 0.1464262 0.30570382 0.040780913 -0.009793677 -0.1046834
0.10187898 0.0366529 0.17850678 0.018799473 0.142062 0.14233996 0.21047612 0.0559039
0.21842462 0.20867667 0.051406376 0.08733129 0.38417917 0.0418091 0.21174143 0.00628502
0.2131824 0.117212296 0.14165135 0.15441164 0.23441385 0.08409849 0.22953506 0.23419121
0.18324152 0.1748016 0.28136247 0.21480425 0.2571827 0.15008958 -0.09127023 0.027468119
0.23758627 0.07681918 0.3973285 0.14536619 0.21122862 0.20280929 0.34324247 0.17618005
-0.021007642 0.17756362 0.111844815 0.21712644 0.22607757 0.038740043 0.15633379 0.26377502
0.20572902 0.0015069129 0.06135776 0.24122545 0.058141034 0.14270933 -0.009663072 0.20665367
0.32220542 0.08323511 -0.05537549 -0.012304269 -0.023299767 0.03299435 -0.0050707636 0.22726272
0.18139702 0.3415795 0.062175155 0.041950285 0.21291073 0.14754644 0.26655442 0.04176398
0.38124564 0.116536535 0.46027526 0.21679597 0.18931517 0.16904092 0.22567168 0.18145733
0.1316651 0.2216521 0.13144815 0.19062956 0.17235367 0.15762539 0.0967722 0.12645657
0.21782881 0.054866873 0.09167469 0.43623108 0.19235627 0.13330398 0.2663616 -0.0139824515
0.17392297 0.06735449 0.11814858 0.18077141 0.1195941 -0.01361385 0.171265 0.072155334
0.1206743 0.09015336 0.22725059 0.3959411 0.21369772 0.060304865 0.122347735 0.0037012547
0.31913045 0.28747228 0.014356395 0.22592956 0.057198085 0.14303344 0.3301412 0.123837985
0.23478518 0.01972897 0.1773019 0.19733465 0.12454922 0.1743245 0.13612261 0.24104716
00000000: 5dbf 5a3e 582c 3c3e c6e8 9fbd 0b6d 8c3e
00000010: 5ef4 ab3d 8a0d 013e 62b0 0a3e e9ea 1bbe
00000020: 63f0 023e 3beb 433e 8014 a73d ddf9 963e
00000030: 5765 4f3e 8cea 433e 9ae2 9d3d eded b33d
00000040: f42f 2a3e d0c5 8f3d e6ed 313e 5838 0a3e
00000050: 87d4 463e 21a4 ec3d 7235 273e aae2 763e
00000060: 094f 233e b40e f83d 67c9 e03c 3541 00bd
00000070: 2438 273e 0805 723e e58d 133e 94e6 1d3e
00000080: 0d34 533e c03e 933e 3deb 993e f39e 90bd
00000090: 1f60 7e3e 4f03 0a3e 274f b13b 1c77 093e
000000a0: 4601 ac3c a420 333e fd46 5a3e f2b5 b63d
000000b0: 8c27 163e b002 c03d e372 843d 9b33 043e
000000c0: a838 683d df96 ec3d 186b 003e 6543 513d
000000d0: 36e3 9c3d 0aae 9e3c 859f f53d 967d f8bd
000000e0: 3874 f13d 2ea4 3b3d 7ce0 1f3e b1f0 373e
000000f0: abec ca3c 3996 163e 69b3 043e 17bd 213d
00000100: d484 da3e 7229 d73e 7b3b 8e3e 77c0 523e
00000110: e559 053f cd4b df3d 6770 1a3e e4b9 2f3e
00000120: a356 0cbc a842 ce3d ac7f 963d a6b9 d33d
00000130: ca17 1a3e 71ee 523e ac7f c83c 096c 963e
00000140: 919b 423d b8e6 643c 6c22 3b3d 6b54 953d
00000150: 6e40 c93e 1c06 e03d f0ba 3f3e aea8 a83d
00000160: 863a 4d3d 26f5 0e3e f2ae 1f3e edd9 bd3d
00000170: 0d87 6c3d 1884 153e 3d95 4d3e 2546 af3d
00000180: 2969 863e f2ad 6c3d 139a 5d3e 7bee 723e
00000190: 1a57 913d 4be2 1d3e 11f9 193e ed6d 1f3e
000001a0: 02d3 793e 6331 143e 1af3 113d 6793 913e
000001b0: b1ca ee3d c66c 3b3d 2c76 163e 8ee3 aa3d
000001c0: 9427 9a3d 399e d83e 769c 533e 4cac bd3d
000001d0: e014 153e bc94 d23d e7c5 d93e 2c72 c03d
000001e0: 31fc 1e3e 897c 433d 2b59 ef3c c0f0 153e
000001f0: 3685 9c3e e309 273d a975 20bc 4064 d6bd
00000200: eda5 d03d 5a21 163d 7bca 363e 5a01 9a3c
00000210: b378 113e 91c1 113e 0d87 573e 7dfb 643d
00000220: b4aa 5f3e 56af 553e 7e8f 523d bfda b23d
00000230: 22b3 c43e 0540 2b3d bfd2 583e 92f2 cd3b
00000240: 7d4c 5a3e 000d f03d 0d0d 113e 161e 1e3e
00000250: 2f0a 703e d43b ac3d 3d0b 6b3e d2cf 6f3e
00000260: aaa3 3b3e 31ff 323e be0e 903e a5f5 5b3e
00000270: 73ad 833e 15b1 193e e3eb babd d204 e13c
00000280: d149 733e 6053 9d3d a46e cb3e e0da 143e
00000290: 514c 583e 3dad 4f3e 7abd af3e 8b68 343e
000002a0: 3818 acbc 3dd3 353e e50e e53d 6556 5e3e
000002b0: e180 673e e1ad 1e3d f715 203e 850d 873e
000002c0: a1aa 523e 9b83 c53a 4652 7b3d ce03 773e
000002d0: 4b25 6e3d 6522 123e dd51 1ebc 059d 533e
000002e0: 1cf8 a43e 2b77 aa3d 69d1 62bd d897 49bc
000002f0: 27df bebc 1525 073d a628 a6bb 8fb7 683e
00000300: 24c0 393e 82e3 ae3e 60ab 7e3d 10d4 2b3d
00000310: 4505 5a3e 6a16 173e d279 883e b510 2b3d
00000320: a132 c33e b5aa ee3d 33a9 eb3e c3ff 5d3e
00000330: d6db 413e 1019 2d3e 7a16 673e f3cf 393e
00000340: 37d3 063e c5f8 623e 589a 063e 6534 433e
00000350: 7b7d 303e 8d68 213e 8130 c63d d57d 013e
00000360: 840e 5f3e 16bc 603d f1bf bb3d ae59 df3e
00000370: 0bf9 443e d780 083e 8c60 883e a716 65bc
00000380: dd18 323e 27f1 893d e2f7 f13d 241c 393e
00000390: c0ed f43d a00c 5fbc 1860 2f3e 2dc6 933d
000003a0: 1624 f73d 53a2 b83d 61b4 683e cbb8 ca3e
000003b0: 93d3 5a3e 3c02 773d 7391 fa3d c090 723b
000003c0: 1165 a33e 912f 933e 1637 6b3c 145a 673e
000003d0: 8a48 6a3d 5c77 123e 4408 a93e c59e fd3d
000003e0: 876b 703e a69e a13c a18e 353e 1812 4a3e
000003f0: a913 ff3d 1f82 323e ba63 0b3e 11d5 763e

l2.bias f4 [256]
0.3685715 0.1626767 0.24640454 -0.16912219 -0.13219716 0.38245305 0.4019566 0.23694906
0.25703713 0.21867386 0.022973107 0.20520125 -0.020534035 -0.19349442 0.29537517 0.31899187
-0.14124869 0.20796458 0.29743782 0.28465956 -0.0805543 -0.10105187 0.21534912 0.10078194
-0.27887446 0.09352442 0.30290776 -0.14631042 0.08983691 0.2714622 0.2710368 -0.07050183
0.24830167 -0.05515041 -0.069934025 -0.04311064 0.35095936 0.24637093 -0.20276846 0.36091816
-0.19003496 0.030612273 0.3016279 -0.12999079 0.3110762 0.22803219 -0.09869588 -0.14342478
0.110102475 0.28495353 0.3457964 0.043086026 -0.18013303 0.24963255 -0.16684291 0.3186732
0.21341357 -0.072684 -0.20914584 0.33721492 0.026849883 0.18372664 -0.03154677 -0.07406738
0.23224589 0.21044688 0.32796365 0.13276565 -0.1584261 0.28303692 0.02545585 0.14249115
0.22342165 -0.07058842 0.24564302 -0.112026066 0.3842409 0.15419114 -0.28329757 0.3823459
0.25665045 0.17307761 0.19145289 0.20139956 -0.039217036 -0.21657456 -0.1273803 0.31715932
0.27685183 0.12748262 -0.17405303 -0.12974006 0.24592113 0.24839985 -0.13370033 0.3301582
0.30920404 -0.020288212 -0.25028715 0.18800284 -0.052518714 -0.11948756 0.27694133 0.26145858
0.25510567 -0.11953674 0.27058706 -0.11400476 0.26806593 0.22495726 -0.05498275 -0.2428534
-0.114755146 0.08518745 -0.19712697 0.26903212 0.31628028 0.23307788 0.2266426 -0.14623693
0.30965385 -0.013326539 -0.19045317 -0.08134806 0.19744816 0.32373732 -0.16300924 -0.11495003
-0.13712455 0.27426836 -0.10618473 -0.30173755 -0.11362599 0.31384024 0.17710556 -0.12478391
0.27907112 -0.10050941 -0.15047401 -0.09715582 -0.17002968 -0.07312818 -0.10597997 0.35289615
0.3964276 0.28248325 0.20944999 -0.21413793 0.3212655 0.22213583 -0.101451196 0.19045396
-0.20535783 -0.035791587 0.2137401 0.12191917 0.015540413 -0.1131265 -0.2277974 -0.14524142
-0.09056122 -0.053208113 0.015470619 0.26484066 -0.13426885 -0.015440698 -0.04647774 0.1796561
-0.20779763 0.20274334 -0.041233752 0.29979008 0.37981692 0.24491979 0.36982092 0.31715378
-0.061609283 -0.10631582 0.34123656 0.34880406 0.21567735 -0.13920932 0.26168886 0.0047201742
0.19146174 0.34847668 -0.119228974 0.29068926 0.022241484 -0.1794578 0.07614095 -0.14035478
0.0076600695 0.22039959 -0.09696227 0.3365594 0.4007175 -0.10269989 0.20237377 -0.03323836
0.12811252 -0.06767009 -0.29198176 -0.037466194 -0.19695093 -0.052282322 0.2824492 -0.05686161
0.06489064 -0.08903282 0.21561334 0.401 -0.065502465 -0.18815865 0.3014792 0.218656
0.3198226 -0.19755729 0.3278067 0.3061891 0.2444696 0.26401442 -0.14059705 -0.13792002
-0.1315847 -0.02221301 0.3794818 -0.09871918 -0.030267632 0.32260042 -0.15344155 -0.18373889
-0.036250547 0.2377693 -0.00528135 0.22760877 0.26224577 -0.05938754 -0.20373462 -0.08309124
0.21724439 0.15382579 0.111411 0.23399904 -0.1816135 0.24859896 0.39194414 0.34390622
0.26756027 -0.03971484 0.36636057 -0.17857017 0.18206125 0.24088393 -0.11344008 0.120624624
00000000: 67b5 bc3e b994 263e 7951 7c3e 5e2e 2dbe
00000010: b15e 07be e3d0 c33e 41cd cd3e c6a2 723e
00000020: 5f9a 833e 0aec 5f3e 1932 bc3c 4720 523e
00000030: fe36 a8bc 6723 46be 6a3b 973e e752 a33e
00000040: 7fa3 10be abf4 543e c549 983e e6be 913e
00000050: a7f9 a4bd 48f4 cebd 7b84 5c3e c366 ce3d
00000060: a2c8 8ebe bb89 bf3d ba16 9b3e 66d2 15be
00000070: 6afc b73d 18fd 8a3e 56c5 8a3e 4363 90bd
00000080: cb42 7e3e 65e5 61bd 9239 8fbd c894 30bd
00000090: f2b0 b33e a948 7c3e 89a2 4fbe 44ca b83e
000000a0: 8698 42be 97c6 fa3c f96e 9a3e 4e1c 05be
000000b0: 6145 9f3e 4581 693e 1121 cabd f2dd 12be
000000c0: 687d e13d 6ee5 913e 3a0c b13e f97a 303d
000000d0: cb74 38be ad9f 7f3e ded8 2abe 2229 a33e
000000e0: 1689 5a3e 59db 94bd 542a 56be 6fa7 ac3e
000000f0: 49f4 db3c d622 3c3e 3037 01bd a3b0 97bd
00000100: ded1 6d3e 637f 573e daea a73e b8f3 073e
00000110: 743a 22be 37ea 903e c988 d03c 33e9 113e
00000120: a5c8 643e a990 90bd d889 7b3e ec6d e5bd
00000130: 39bb c43e 48e4 1d3e 610c 91be d8c2 c33e
00000140: b067 833e 423b 313e 3a0c 443e b03b 4e3e
00000150: 0ba2 20bd b9c5 5dbe fb6f 02be b562 a23e
00000160: 86bf 8d3e ce8a 023e f53a 32be 94da 04be
00000170: c0d2 7b3e 885c 7e3e bde8 08be 7f0a a93e
00000180: fe4f 9e3e 7733 a6bc a325 80be d183 403e
00000190: dd1d 57bd e5b5 f4bd 41cb 8d3e e6dd 853e
000001a0: 369d 823e aecf f4bd 638a 8a3e 547b e9bd
000001b0: f03f 893e 325b 663e 9835 61bd 90ae 78be
000001c0: bf04 ebbd c276 ae3d a7db 49be 94be 893e
000001d0: 7def a13e f8ab 6e3e ff14 683e 22bf 15be
000001e0: f38a 9e3e 8e57 5abc 2806 43be d099 a6bd
000001f0: da2f 4a3e e6c0 a53e e5eb 26be ec6a ebbd
00000200: 616a 0cbe e76c 8c3e 6177 d9bd 587d 9abe
00000210: beb4 e8bd abaf a03e 295b 353e b58e ffbd
00000220: 69e2 8e3e e1d7 cdbd dc15 1abe a1f9 c6bd
00000230: 431c 2ebe 3ac4 95bd 070c d9bd ceae b43e
00000240: 8ff8 ca3e a5a1 903e 0f7a 563e f946 5bbe
00000250: e97c a43e 9377 633e a5c5 cfbd 5d06 433e
00000260: 5349 52be 339a 12bd afde 5a3e c2b0 f93d
00000270: 379d 7e3c deae e7bd b943 69be 2bba 14be
00000280: 2978 b9bd c0f0 59bd 7b78 7d3c 3299 873e
00000290: c67d 09be fbfa 7cbc 715f 3ebd c5f7 373e
000002a0: e7c8 54be f39b 4f3e b9e4 28bd 167e 993e
000002b0: 5d77 c23e 41cc 7a3e 2b59 bd3e fb61 a23e
000002c0: 045a 7cbd 1cbc d9bd 8fb6 ae3e 7296 b23e
000002d0: 86da 5c3e e38c 0ebe 15fc 853e b1ab 9a3b
000002e0: 8c0e 443e 896b b23e 522e f4bd 39d5 943e
000002f0: c633 b63c c9c3 37be c9ef 9b3d 2ab9 0fbe
00000300: 5201 fb3b 6eb0 613e 2894 c6bd 8451 ac3e
00000310: d82a cd3e 5254 d2bd 123b 4f3e f224 08bd
00000320: ee2f 033e 9e96 8abd a27e 95be 2776 19bd
00000330: 81ad 49be fd25 56bd 2e9d 903e b8e7 68bd
00000340: 62e5 843d d756 b6bd bec9 5c3e df4f cd3e
00000350: 2826 86bd a9ac 40be 7b5b 9a3e 5ce7 5f3e
00000360: cabf a33e 754c 4abe 48d6 a73e d1c4 9c3e
00000370: 3d56 7a3e e62c 873e acf8 0fbe e83a 0dbe
00000380: 24be 06be 0ff8 b5bc 704b c23e 482d cabd
00000390: d3f3 f7bc e22b a53e c81f 1dbe 0c26 3cbe
000003a0: 747b 14bd cc79 733e 2d0f adbb 4612 693e
000003b0: 1445 863e 5940 73bd cf9f 50be bd2b aabd
000003c0: 5075 5e3e 8284 1d3e 732b e43d 729d 6f3e
000003d0: e4f8 39be ba90 7e3e e7ac c83e 7a14 b03e
000003e0: a9fd 883e 07ac 22bd 9d93 bb3e 19db 36be
000003f0: 446e 3a3e 47aa 763e 4653 e8bd 0b0a f73d

l3.weight f4 [1, 256]
0.23085284 0.49698454 0.31231558 -0.33073032 -1.6198567 0.21191475 0.20678163 0.38414463
0.30866697 0.1967769 -0.03739484 -2.5041282 -1.6389347 -2.0359442 0.15226464 0.22464001
-2.0299683 0.39185983 0.21750432 0.23673573 -2.5953605 -1.4452091 0.23113047 2.9224207
-0.99982 1.7704408 0.20483531 -1.2761029 -2.1270895 0.70120937 0.23212495 0.03057556
0.23162213 -0.028710933 -0.6165575 -0.0022838314 0.20854183 0.27202222 -0.561978 0.20459774
-1.2776314 -0.014738823 0.25162265 -0.7570648 0.21767052 0.3278133 -0.83230907 -1.2676733
-1.6634094 0.34529665 0.23861068 -0.9632115 -0.19105452 -2.2966077 -2.4966888 0.19100015
0.42727473 0.044013493 -0.61633027 0.21769457 -0.6723498 0.5738442 -4.035398 -0.35022792
0.24584179 0.25977278 -3.298056 -2.137342 -1.6153736 0.19471668 -1.8684219 2.6444387
0.4357687 -2.2355776 0.27315462 -0.22114787 0.24048188 -2.2321115 -4.3717585 0.20056051
0.2956007 0.52013063 0.18574871 0.3122434 -0.00881835 -2.445988 -1.8298137 0.18813214
0.52613103 -1.3015524 -0.24651815 -0.29009703 0.231557 0.20192222 -0.36259624 0.23209754
0.20145291 -2.1157274 -0.9833565 0.25476792 -1.9614749 -0.8573595 0.24124254 0.19645649
0.5792472 -1.8068116 0.24560438 -1.8140793 0.20330924 0.23743668 -0.018401215 -0.8741953
-2.7342129 -2.1527233 -0.91298413 0.2140172 0.20097955 0.18758443 0.32988018 -0.95519423
0.27958423 -1.4046504 -0.8547813 -0.23771705 0.56439483 0.21639739 -1.5713637 -0.44499272
-0.29267713 0.21614514 -0.1674318 -1.5090318 -1.1767124 0.8317803 0.5842885 -0.48848116
0.19338877 -0.27553576 -1.1802782 -0.26500672 -0.15143466 -1.3213658 -4.270664 0.19742283
0.21906833 -2.5297036 0.5002206 -1.0974604 0.2137445 0.39464137 -1.1900524 1.938319
-0.64306134 -2.690971 0.21247454 -2.011511 -2.5013506 -2.164744 -0.26080546 -2.3796892
-1.7448831 -0.9706334 -0.8229537 0.37433648 -0.94210726 -1.959537 -1.0451286 -1.2067323
-2.438931 0.330685 -1.7320215 0.26921844 0.23443715 0.30065855 0.2606197 0.23250552
0.05367992 -0.3338166 0.25581414 0.36652824 0.31457856 -1.2442495 0.18099925 -1.9560895
0.3534863 0.21673255 -1.3202962 0.3961634 -1.1802336 -0.28453335 -1.8555734 -0.6000835
-0.00024998107 0.3449855 -2.529632 0.22162974 0.21539669 -1.1271342 0.64148974 -1.6114396
1.5405258 -1.4577004 -2.348912 0.5656104 -2.1850998 -1.0439332 0.21094386 -0.8369122
-1.0897691 -0.9395051 0.5385066 0.24059322 -1.7223905 -0.43047166 0.21310557 0.25743
0.2413048 -0.5540597 0.24352679 0.43287158 0.27910128 0.4118515 -0.70606697 -1.1101079
-0.30189955 -2.2243173 0.21756418 -0.25330132 -2.6003668 0.26729703 -0.20283121 -0.53741384
-0.9288 0.15887389 -2.2670267 0.19396372 0.2830502 -2.1779752 -1.3485594 -0.8804685
0.38663572 -3.570939 -1.6442019 0.26455373 -0.22599907 0.22109331 0.21578029 0.25383186
0.552357 -1.6718105 0.23478785 -0.70047617 -2.8064222 0.25473905 -1.3488145 -1.7470754
00000000: b064 6c3e c274 fe3e d4e7 9f3e 7c55 a9be
00000010: 7757 cfbf 2e00 593e 90be 533e 9bae c43e
00000020: 9909 9e3e e27f 493e 552b 19bd a343 20c0
00000030: 9dc8 d1bf e94c 02c0 43eb 1b3e 0808 663e
00000040: 00eb 01c0 daa1 c83e 74b9 5e3e da6a 723e
00000050: 631a 26c0 9dfc b8bf 77ad 6c3e f108 3b40
00000060: 34f4 7fbf ce9d e23f 59c0 513e 5757 a3bf
00000070: 3c22 08c0 7582 333f 2ab2 6d3e 9979 fa3c
00000080: 5a2e 6d3e 3133 ebbc b6d6 1dbf 55ac 15bb
00000090: fd8b 553e 7f46 8b3e cadd 0fbf 1282 513e
000000a0: 6d89 a3bf 1b7b 71bc afd4 803e 00cf 41bf
000000b0: 05e5 5e3e 25d7 a73e 3512 55bf 1e43 a2bf
000000c0: 99ea d4bf b9ca b03e 5c56 743e 0795 76bf
000000d0: cca3 43be 9ffb 12c0 c0c9 1fc0 8b95 433e
000000e0: c1c3 da3e 7e47 343d d2c7 1dbf 53eb 5e3e
000000f0: 1e1f 2cbf 74e7 123f fb21 81c0 1351 b3be
00000100: f3bd 7b3e f000 853e 5913 53c0 36ca 08c0
00000110: 90c4 cebf cf63 473e 7328 efbf 7c3e 2940
00000120: 131d df3e b413 0fc0 ecda 8b3e 9674 62be
00000130: e240 763e eada 0ec0 72e5 8bc0 bc5f 4d3e
00000140: fa58 973e 4827 053f e934 3e3e 5ede 9f3e
00000150: d77a 10bc 118b 1cc0 5637 eabf b6a5 403e
00000160: 86b0 063f 4599 a6bf 416f 7cbe 9987 94be
00000170: 471d 6d3e b3c4 4e3e 37a6 b9be faaa 6d3e
00000180: ac49 4e3e 1468 07c0 40bd 7bbf f170 823e
00000190: 9c11 fbbf ea7b 5bbf 4908 773e e42b 493e
000001a0: 8b49 143f 9a45 e7bf b77f 7b3e c033 e8bf
000001b0: 4c30 503e 9a22 733e 25be 96bc 43cb 5fbf
000001c0: 58fd 2ec0 38c6 09c0 54b9 69bf 5327 5b3e
000001d0: 95cd 4d3e 2216 403e 0ee6 a83e 9c87 74bf
000001e0: aa25 8f3e 96cb b3bf f3d2 5abf 196c 73be
000001f0: 2e7c 103f 4797 5d3e 7222 c9bf 16d6 e3be
00000200: c7d9 95be 2755 5d3e 3e73 2bbe f427 c1bf
00000210: 839e 96bf 8eef 543f ee93 153f 341a fabe
00000220: b507 463e 0613 8dbe 5b13 97bf f6ae 87be
00000230: b011 1bbe 8422 a9bf 48a9 88c0 3629 4a3e
00000240: 7353 603e aae6 21c0 750e 003f 9579 8cbf
00000250: d7df 5a3e 6f0e ca3e a353 98bf d61a f83f
00000260: ab9f 24bf de38 2cc0 ed92 593e 99bc 00c0
00000270: 2116 20c0 2a8b 0ac0 4b88 85be d44c 18c0
00000280: 5458 dfbf 6e7b 78bf 18ad 52bf 08a9 bf3e
00000290: f12d 71bf 1cd2 fabf c6c6 85bf 3476 9abf
000002a0: 7217 1cc0 8b4f a93e e1b2 ddbf 00d7 893e
000002b0: 4b10 703e ebef 993e f26f 853e ed15 6e3e
000002c0: 7adf 5b3d 02ea aabe 12fa 823e 97a9 bb3e
000002d0: 7110 a13e 9143 9fbf de57 393e 2461 fabf
000002e0: 28fc b43e 23ef 5d3e 77ff a8bf eed5 ca3e
000002f0: e511 97bf 5bae 91be 6e83 edbf 129f 19bf
00000300: e40f 83b9 f1a1 b03e 7ee5 21c0 e8f2 623e
00000310: f390 5c3e ef45 90bf ac38 243f a743 cebf
00000320: f32f c53f ed95 babf 9354 16c0 d8cb 103f
00000330: add8 0bc0 9a9f 85bf ab01 583e e13f 56bf
00000340: 8e7d 8bbf 6883 70bf 92db 093f 125e 763e
00000350: 4b77 dcbf c866 dcbe 5938 5a3e ddcd 833e
00000360: 9b18 773e dbd6 0dbf 165f 793e 58a1 dd3e
00000370: 5de6 8e3e 33de d23e cec0 34bf 0418 8ebf
00000380: 9492 9abe 375b 0ec0 25c9 5e3e b6b0 81be
00000390: 696c 26c0 28db 883e fcb2 4fbe f493 09bf
000003a0: d6c5 6dbf d6af 223e f716 11c0 6d9e 463e
000003b0: f5eb 903e f263 0bc0 989d acbf 6266 61bf
000003c0: 1ef5 c53e 448a 64c0 3575 d2bf 9673 873e
000003d0: 4d6c 67be 4966 623e 82f5 5c3e 40f6 813e
000003e0: 4567 0d3f e3fd d5bf 3a6c 703e 6852 33bf
000003f0: 6c9c 33c0 286d 823e f4a5 acbf 2ba0 dfbf

l4.weight f4 [256, 32]
0.5564767 -0.08669461 0.35197464 -1.9332002 0.1585501 -0.3208401 0.30559987 -0.22026359
0.16822767 0.7552141 0.32929254 0.1957434 0.33069903 0.040317375 -0.09320246 0.021607874
-0.2672591 0.10989914 -0.19398376 0.006413236 0.004795455 -0.05679568 0.04522733 -0.01915097
-0.03824898 -0.19736849 -0.002060999 0.015732924 0.021306245 -0.00021477813 -0.0005036776 -0.0093861185
-0.06602108 -0.030121172 -0.0075736614 1.0485803 -0.10737358 -0.7316752 -0.5770083 0.18175535
0.16791783 -0.3299859 -0.07915058 -0.4222147 0.20636483 0.14570516 0.17259721 -0.12759559
-0.11769905 0.04506132 -0.010193751 0.09734293 0.006361964 0.14456551 -0.05274429 -0.09839422
-0.23053598 -0.1807547 0.044838905 -0.16316 0.17326534 0.041617505 -0.031152936 -0.018730873
0.41115186 -0.00528414 -0.047316827 0.044650722 -0.10366209 -0.8337802 0.25890428 -0.20935269
-0.044698164 0.41244593 -0.30215755 0.08337884 0.5124324 0.15874064 -0.2686979 -0.0020976001
-0.101377495 -0.30288133 0.10178389 -0.24394834 -0.1275675 0.045259647 -0.01790069 0.010869272
-0.042825796 0.024618344 -0.011275921 -0.053112876 0.043794416 0.11725817 -0.02281535 -0.01819332
0.3018119 0.13481861 0.13755736 -0.12201847 -0.07819254 0.02259156 0.10574598 -0.05209958
-0.16677022 -0.18141077 -0.2743331 -0.23902738 0.31021264 -0.057339527 -0.042079177 0.42888865
0.16875762 0.3838399 -0.33151013 0.14334136 0.045676462 -0.0012789799 -0.03173246 0.009895718
-1.0549303 -0.4326601 0.04883212 -0.06135684 0.029476073 -0.061410394 0.08310462 0.062304426
0.38256267 -0.12913615 0.13773687 0.14870787 -0.07943828 0.6170961 -0.19097471 0.91153425
0.06275377 0.39691144 0.29655427 -0.45755464 -0.07291221 -0.023607798 -0.4320544 0.025870997
0.3201476 -0.03996985 -0.12163697 -0.07601544 0.022489592 0.05227274 -0.18009979 -0.051524892
-0.2829478 0.3198997 0.017432766 -0.05644348 0.042598065 -0.03125475 0.021543747 -0.011741655
-0.05149701 -0.04737447 -0.14211628 0.6621631 0.15594293 0.9754069 0.43564594 -0.06108519
-0.22685486 -0.16692698 0.04190814 -0.011478013 0.13392337 -0.024642915 -0.06750179 1.2576115
-0.051993705 0.3808207 -0.099563695 0.0853185 0.11340762 0.18609732 0.2521975 0.0016651951
0.42339978 -0.931054 -0.006005395 -0.06865386 0.025513995 0.24766505 -0.12350148 0.021955827
0.37966856 0.08478553 -0.01931327 -0.40283257 -0.012019733 0.271659 -0.15404065 -0.1538235
-0.06299444 0.9264638 0.18104988 -0.68143356 0.15992792 -0.06193325 -0.11081305 -0.17774382
-0.076875396 -0.0038854182 0.071991876 0.04122273 -0.13544519 0.6031347 0.19154969 -0.015489985
-0.45110196 0.27164719 0.28547767 -0.33994287 -0.23099777 -0.11183271 -0.13790025 0.045910686
0.037349463 0.13232501 -0.109898366 0.48555943 -0.09802859 -0.92736447 0.7991631 -0.25985116
0.35191357 1.0348569 0.40111354 0.22882561 0.84206814 -0.020904835 -0.19163442 0.22577804
0.26285002 -0.015482803 -0.64583284 -0.12366866 -0.0051221605 0.021412909 0.2429698 0.10133429
-0.037752923 0.0641429 0.14822327 -0.34628877 0.1559611 0.015350906 -0.110524595 -0.20636013
00000000: 4275 0e3f f28c b1bd 0536 b43e 1b73 f7bf
00000010: f55a 223e 2745 a4be 9677 9c3e c78c 61be
00000020: e043 2c3e b655 413f 0899 a83e f570 483e
00000030: 6251 a93e d523 253d eee0 bebd ff02 b13c
00000040: 2fd6 88be cd12 e13d aea3 46be 1f26 d23b
00000050: 3123 9d3b 96a2 68bd 4b40 393d 7fe2 9cbc
00000060: f6aa 1cbd f71a 4abe d311 07bb 55e2 803c
00000070: 6f8a ae3c 1136 61b9 3b09 04ba 3cc8 19bc
00000080: 0f36 87bd adc0 f6bc 7a2c f8bb e137 863f
00000090: aee6 dbbd 114f 3bbf d1b6 13bf 131e 3a3e
000000a0: a7f2 2b3e e9f3 a8be b319 a2bd 862c d8be
000000b0: 4d51 533e bc33 153e 53bd 303e 6ba8 02be
000000c0: 330c f1bd 3892 383d b103 27bc bb5b c73d
000000d0: 0678 d03b fb08 143e 660a 58bd e982 c9bd
000000e0: a011 6cbe c317 39be 00a9 373d 6a13 27be
000000f0: 786c 313e 1e77 2a3d 7134 ffbc 7d71 99bc
00000100: 7f82 d23e 9426 adbb 4acf 41bd ade3 363d
00000110: ca4c d4bd 9f72 55bf 1a8f 843e 8d60 56be
00000120: 6c15 37bd 1d2c d33e 65b4 9abe 86c2 aa3d
00000130: c52e 033f e88c 223e c592 89be e477 09bb
00000140: 019f cfbd 4313 9bbe 1274 d03d 98cd 79be
00000150: 0ea1 02be 2e62 393d 78a4 92bc 0815 323c
00000160: 1a6a 2fbd 69ac c93c a4be 38bc e38c 59bd
00000170: c661 333d 0d25 f03d 42e7 babc 280a 95bc
00000180: 1787 9a3e e40d 0a3e d6db 0c3e d2e4 f9bd
00000190: 6923 a0bd ef11 b93c 5991 d83d 5f66 55bd
000001a0: d0c5 2abe bfc3 39be 6375 8cbe 98c3 74be
000001b0: 31d4 9e3e dadc 6abd 375b 2cbd 4b97 db3e
000001c0: ccce 2c3e aa86 c43e b2bb a9be 14c8 123e
000001d0: 3e17 3b3d 72a3 a7ba e5f9 01bd a621 223c
000001e0: f507 87bf a085 ddbe 3004 483d 4f51 7bbd
000001f0: ce77 f13c 7789 7bbd c132 aa3d ed32 7f3d
00000200: 41df c33e 443c 04be e50a 0d3e e046 183e
00000210: 89b0 a2bd 03fa 1d3f e08e 43be 4f5a 693f
00000220: 0c85 803d fa37 cb3e f6d5 973e 9a44 eabe
00000230: ff52 95bd 2465 c1bc 3c36 ddbe 6aef d33c
00000240: 63ea a33e 6db7 23bd ce1c f9bd fcad 9bbd
00000250: 183c b83c f11b 563d 146c 38be c40b 53bd
00000260: 89de 90be e5c9 a33e 29cf 8e3c 4731 67bd
00000270: 4f7b 2e3d fb04 00bd 837c b03c 1260 40bc
00000280: 87ee 52bd bb0b 42bd ee86 11be 8583 293f
00000290: 81af 1f3e 44b4 793f fc0c df3e 7734 7abd
000002a0: a44c 68be e8ee 2abe dfa7 2b3d 470e 3cbc
000002b0: 3523 093e f0df c9bc 613e 8abd 6af9 a03f
000002c0: 5af7 54bd eefa c23e 0de8 cbbd 77bb ae3d
000002d0: 4142 e83d 4c90 3e3e 0820 813e ad42 da3a
000002e0: dbc7 d83e 8e59 6ebf e8c8 c4bb 659a 8cbd
000002f0: ba02 d13c e89b 7d3e 58ee fcbd b5dc b33c
00000300: eb63 c23e 09a4 ad3d dd36 9ebc 1240 cebe
00000310: 6aee 44bc e316 8b3e d5bc 1dbe e883 1dbe
00000320: 3b03 81bd bb2c 6d3f 2465 393e 6e72 2ebf
00000330: 25c4 233e b8ad 7dbd f4f1 e2bd 7a02 36be
00000340: d970 9dbd 80a2 7ebb 7a70 933d 2ad9 283d
00000350: 25b2 0abe 0967 1a3f 9a25 443e b5c9 7dbc
00000360: d6f6 e6be 5715 8b3e 212a 923e fe0c aebe
00000370: ae8a 6cbe 8c08 e5bd b935 0dbe d80c 3c3d
00000380: c0fb 183d 3580 073e 6512 e1bd 3f9b f83e
00000390: 37c3 c8bd c267 6dbf f495 4c3f 360b 85be
000003a0: 042e b43e 3176 843f c15e cd3e 4351 6a3e
000003b0: c791 573f 9e40 abbc d03b 44be 5c32 673e
000003c0: 4794 863e 95ab 7dbc 4d55 25bf ff45 fdbd
000003d0: ccd7 a7bb 206a af3c 13cd 783e 5a88 cf3d
000003e0: cfa2 1abd 5a5d 833d d7c7 173e c34c b1be
000003f0: 44b4 1f3e 5e82 7b3c b85a e2bd 1250 53be

l4.bias f4 [256]
0.39280006 -0.26906696 -0.07041166 0.12537426 -0.047130093 -0.13424748 0.06832971 -0.015357557
-0.16889457 0.5888168 0.12187209 -0.3170256 -0.00991232 -0.24911393 -0.1435197 0.22668175
-0.19312942 0.020273764 0.18955667 0.4616126 -0.085771345 -0.07556725 0.04466867 -0.16103521
-0.29900178 -0.16124605 0.09618564 -0.05909618 -0.289826 0.22915189 0.1433384 -0.13092285
0.06803569 0.15955111 -0.2909228 0.28885436 0.16558911 0.1795129 0.19296671 0.08877314
0.28896466 -0.21262506 -0.09535169 0.18649566 0.0940777 0.056143146 -0.01786768 0.084482856
0.24243142 -0.0516869 -0.19510558 0.1998131 -0.14405741 0.02893065 -0.048843157 0.049321946
0.122400254 0.13687168 -0.2263018 -0.042284228 0.19003628 -0.2660109 -0.14835426 0.05721905
0.07371734 -0.07185509 -0.18821552 0.080391325 -0.05087343 -0.034488138 0.22038338 0.19576582
-0.2868112 -0.16916409 -0.14521241 0.22623618 0.18383858 0.1369447 -0.2904334 0.07725058
-0.009815127 -0.016706152 -0.22069587 -0.24740575 0.1340629 0.0177059 0.21466976 0.030524373
0.17713971 0.3849269 -0.1691159 -0.008289338 0.2387267 -0.25478193 -0.2976576 -0.034471355
0.08736541 0.2610696 0.19488987 -0.07933923 -0.40554404 0.17699958 0.2702722 0.27046478
0.08933964 -0.05557415 0.38232228 -0.10123191 -0.37842813 -0.12317958 0.07568755 0.12333901
0.04856261 0.24137129 -0.17669778 0.023562867 -0.10856036 0.16242419 -0.088972084 -0.44907212
0.20094922 0.26340848 0.20784357 0.33452326 -0.25281188 -0.22474581 0.053718213 -0.049015872
0.004808919 0.1999372 0.046875887 -0.16173448 0.05555625 -0.13619274 0.26871762 -0.04321281
0.003673642 0.02559729 0.1797864 0.012753794 -0.13280873 -0.076417394 0.17628685 0.270624
0.1589311 -0.09742265 0.28088716 0.11117906 0.20621176 0.3128601 0.1385661 -0.3010648
-0.37459692 0.03651699 -0.04795573 -0.22671066 -0.23196623 0.0712789 -0.03456863 0.03855769
0.029184416 -0.2959907 0.10046702 -0.12201497 0.19480416 0.2222989 0.061665498 0.22056602
-0.2061668 -0.38393444 0.065116495 -0.01972831 0.050891165 0.25578853 -0.1215484 0.19247766
-0.2317379 -0.08525606 0.27728802 0.085530706 0.26857844 0.17232724 0.23168051 -0.054175537
-0.17329352 0.20945771 -0.03692289 -0.03602076 -0.22885376 -0.09253993 -0.08253263 0.114349775
0.089292064 -0.13443139 -0.05054239 -0.1462807 0.22482416 0.046761192 -0.43453702 -0.5621881
-0.25823274 0.04140029 -0.2074072 -0.50402755 -0.051935453 -0.14518222 -0.20421526 -0.13802335
0.10515573 -0.031738088 0.07252037 -0.1562784 -0.07611529 0.3011038 0.20967604 0.09540825
0.06200289 0.12095727 0.035743427 0.08721681 -0.011536429 0.13683273 -0.030247837 0.0024786796
0.118138984 -0.27777308 0.07269733 -0.14928849 -0.20871115 0.10554421 -0.30465633 -0.098529294
0.09479307 0.14281516 0.027904047 0.37322912 -0.3285801 0.47193426 0.040969063 0.33345026
0.21706389 -0.1579366 0.10938266 0.28526223 0.29361653 0.2880118 0.3055361 0.28632072
0.1283873 0.108524874 0.090853065 -0.33876184 -0.24458511 0.09886392 -0.1605124 -0.27783823
00000000: 171d c93e 25c3 89be fd33 90bd 1c62 003e
00000010: 7c0b 41bd 2c78 09be 72f0 8b3d 439e 7bbc
00000020: b3f2 2cbe b3bc 163f 1398 f93d 2e51 a2be
00000030: 4967 22bc b917 7fbe d4f6 12be 431f 683e
00000040: b8c3 45be 2a15 a63c 251b 423e 7d58 ec3e
00000050: e3a8 afbd 01c3 9abd 7ff6 363d 6ae6 24be
00000060: c316 99be af1d 25be fafc c43d d60e 72bd
00000070: 1364 94be cba6 6a3e 4dc7 123e a410 06be
00000080: 4c56 8b3d 5e61 233e d5f3 94be b8e4 933e
00000090: 3190 293e 3bd2 373e 1199 453e b1ce b53d
000000a0: 2df3 933e 62ba 59be bf47 c3bd b8f8 3e3e
000000b0: cfab c03d 5bf6 653d 3e5f 92bc 5905 ad3d
000000c0: f13f 783e a5b5 53bd c2c9 47be ce9b 4c3e
000000d0: c983 13be f8ff ec3c c30f 48bd cf05 4a3d
000000e0: fcac fa3d 1728 0c3e a9bb 67be 3a32 2dbd
000000f0: df98 423e 9532 88be 2eea 17be 865e 6a3d
00000100: 1ef9 963d c328 93bd 92bb 40be 35a4 a43d
00000110: a860 50bd 6f43 0dbd 2eac 613e d676 483e
00000120: ebd8 92be 5a39 2dbe 90b2 14be 75aa 673e
00000130: 2e40 3c3e 3b3b 0c3e b0b3 94be 8d35 9e3d
00000140: a0cf 20bc 57db 88bc 19fe 61be ef57 7dbe
00000150: c947 093e f70b 913c 64d2 5b3e 400e fa3c
00000160: 1d64 353e 2315 c53e b82c 2dbe 01d0 07bc
00000170: c674 743e c772 82be 9466 98be d631 0dbd
00000180: a3ec b23d eaaa 853e 3691 473e 9b7c a2bd
00000190: 78a3 cfbe 613f 353e 1e61 8a3e 5c7a 8a3e
000001a0: b4f7 b63d b8a1 63bd bfbf c33e ad52 cfbd
000001b0: 55c1 c1be 9345 fcbd 1302 9b3d 2a99 fc3d
000001c0: 96e9 463d 092a 773e 43f0 34be ea06 c13c
000001d0: e554 debd 8752 263e ff36 b6bd c8ec e5be
000001e0: a2c5 4d3e 7add 863e f2d4 543e a246 ab3e
000001f0: 8f70 81be c423 66be a107 5c3d dec4 48bd
00000200: 2394 9d3b 56bc 4c3e ee00 403d b99d 25be
00000210: f38e 633d 1c76 0bbe 5b95 893e eaff 30bd
00000220: 7cc1 703b 68b1 d13c ed19 383e 4af5 503c
00000230: 03ff 07be b980 9cbd 8a84 343e 3b8f 8a3e
00000240: d6be 223e 8785 c7bd 71d0 8f3e d9b1 e33d
00000250: 2d29 533e 332f a03e 46e4 0d3e 2a25 9abe
00000260: 2bcb bfbe d792 153d 3a6d 44bd d726 68be
00000270: 8e88 6dbe acfa 913d d697 0dbd abee 1d3d
00000280: 2814 ef3c 188c 97be a7c1 cd3d fce2 f9bd
00000290: be7a 473e 53a2 633e f694 7c3d 0fdc 613e
000002a0: 641d 53be 0e93 c4be cc5b 853d 449d a1bc
000002b0: 4173 503d b7f6 823e 5eee f8bd dd18 453e
000002c0: b34c 6dbe bb9a aebd b2f8 8d3e b92a af3d
000002d0: 1d83 893e 8d76 303e a83d 6d3e 2be7 5dbd
000002e0: db73 31be 157c 563e 753c 17bd 818a 13bd
000002f0: a458 6abe 9385 bdbd de06 a9bd 3730 ea3d
00000300: c2de b63d 62a8 09be 8a05 4fbd 9cca 15be
00000310: 4e38 663e aa88 3f3d a37b debe 8feb 0fbf
00000320: 1537 84be 5a93 293d 8e62 54be f307 01bf
00000330: 45ba 54bd a6aa 14be ce1d 51be fe55 0dbe
00000340: e35b d73d ccff 01bd 8f85 943d 7207 20be
00000350: 55e2 9bbd 472a 9a3e 51b5 563e 6765 c33d
00000360: bef6 7d3d 72b8 f73d b367 123d ba9e b23d
00000370: 4a03 3dbc e11d 0c3e 50ca f7bc 5871 223b
00000380: daf2 f13d 4638 8ebe 56e2 943d 15df 18be
00000390: 60b8 55be 9027 d83d eafb 9bbe bac9 c9bd
000003a0: de22 c23d 233e 123e 0797 e43c e317 bf3e
000003b0: a73b a8be 5ea1 f13e 2dcf 273d feb9 aa3e
000003c0: ff45 5e3e 22ba 21be 0404 e03d e40d 923e
000003d0: e854 963e 4876 933e 3a6f 9c3e a198 923e
000003e0: f677 033e 4a42 de3d 2c11 ba3d 3172 adbe
000003f0: 8574 7abe 2b79 ca3d 5d5d 24be d040 8ebe

l5.weight f4 [256, 256]
-0.032318622 -0.046411473 0.091705576 0.11016749 -0.012400458 0.09680689 -0.2010263 -0.5274128
-0.019909201 -0.36066094 0.0134552745 0.2638786 0.12437194 -0.30004075 -0.5100351 0.110111065
0.03829036 0.2642882 0.1855918 0.09687213 0.07419732 0.1289187 0.2130387 -0.03772727
-0.021527171 -0.19305035 0.023303282 0.0019481743 -0.08901485 0.06824047 -0.01635761 0.063430935
0.08714306 0.040296167 -0.030732341 -0.0832999 -0.20572214 -0.16506591 0.0887927 0.16947617
-0.34732637 -0.065814815 0.14359681 -0.07255783 0.005188423 -0.020965211 0.15482695 0.21207544
0.085049346 0.037953164 -0.18033527 0.18676014 -0.07455842 0.07513462 0.05887811 0.051588852
0.07226934 -0.41004565 -0.031971093 -0.01516911 0.24786778 -0.07381074 -0.09200876 0.047598284
0.030116439 -0.007592484 0.2907444 0.08132772 -0.034234233 -0.053953998 -0.466578 0.15431108
0.3319613 0.18036246 -0.13346095 0.106279865 0.28466973 0.1829012 0.5272456 0.3425559
0.18110399 0.01564828 0.041698474 -0.74081326 -0.05699231 0.034979448 0.15395938 0.022813512
0.08971606 0.057996433 0.3740704 -0.11073217 0.08066994 -0.13586922 0.11292949 0.14792976
-0.014024463 0.084714994 0.07653557 0.103194155 0.27414238 0.17142789 0.06507275 0.14110075
0.032805305 -0.028927648 -0.0501844 -0.04237364 -0.0014631855 -0.028867597 0.10917054 -0.24525648
-0.036506224 0.08363074 0.15524422 0.009760074 0.011775074 0.16906433 0.1360269 -0.27236527
0.3775761 0.13717769 0.13858528 -0.2498543 -0.008844027 -0.103515275 0.07169944 0.08061712
0.045089867 0.12698126 0.11706411 0.03755158 0.07813269 -0.240267 -0.060161177 0.03375665
-0.1877249 0.05653538 0.051204223 0.020780642 0.0009661036 -0.05355008 -0.006012302 0.19613232
0.10978509 0.17506386 -0.017576033 0.06271875 0.019603843 -0.09281125 0.062140126 0.081792355
0.119587414 0.07262405 -0.65357614 0.08845462 0.17668688 0.0070625516 0.0033662182 0.601629
-0.101579614 0.06648611 -0.07407082 0.090518445 0.015420428 0.07745672 0.0976108 0.03526808
0.055938702 -0.05925077 0.037508715 0.08927725 0.06527679 0.14047569 0.041940372 0.08971539
-0.06877811 -0.026563143 0.084153555 -0.17470151 0.12776244 0.028578706 0.07912255 0.0597354
0.14542194 0.15778497 0.11939207 0.08419063 0.01624787 -0.09791043 0.008635571 0.018032273
-0.31520993 -0.04955798 -0.20049639 0.046477668 0.1615369 0.14003603 -0.11794165 0.023010945
-0.045475215 -0.1868085 0.09715021 0.14018854 0.10897126 -0.093118675 -0.0979707 -0.0139155565
-0.049298745 0.11379657 0.034120616 0.03742764 0.22611742 0.12225778 -0.31923425 -0.3949526
0.032584593 0.13982445 0.0365911 0.06808835 0.087458655 0.020599632 0.028449144 0.07602428
0.04813081 0.3114063 0.6762487 0.043992043 0.010296649 0.064258605 0.02394018 0.035323404
0.10583696 0.16895486 0.08605881 -0.04859869 0.015284985 0.11493826 -0.008374255 -0.2801932
0.056182526 0.10506167 -0.057241958 0.15314919 0.19482504 -0.036286123 -0.0095528215 0.13454454
0.12536593 0.10371667 0.09946689 0.059219718 0.14699726 0.11220898 0.25740406 0.05649988
00000000: 8860 04bd f519 3ebd 22d0 bb3d 7e9f e13d
00000010: 4a2b 4bbc b142 c63d d7d9 4dbe 8604 07bf
00000020: 9f18 a3bc 8da8 b8be 8373 5c3c 191b 873e
00000030: b7b6 fe3d f19e 99be a991 02bf e981 e13d
00000040: 5ad6 1c3d c850 873e c70b 3e3e e564 c63d
00000050: c4f4 973d 4403 043e d126 5a3e e987 1abd
00000060: c059 b0bc feae 45be 86e6 be3c e259 ff3a
00000070: 6b4d b6bd a9c1 8b3d 6500 86bc 14e8 813d
00000080: 1078 b23d 980d 253d 64c2 fbbc 2399 aabd
00000090: d3a8 52be 0a07 29be f2d8 b53d 298b 2d3e
000000a0: c3d4 b1be ebc9 86bd 0b0b 133e 3399 94bd
000000b0: a603 aa3b 3cbf abbc f58a 1e3e 4e2a 593e
000000c0: 5a2e ae3d c774 1b3d cfa9 38be 0d3e 3f3e
000000d0: 16b2 98bd 2ee0 993d 2c2a 713d d54e 533d
000000e0: f301 943d 81f1 d1be 1ff4 02bd dc87 78bc
000000f0: 0dd1 7d3e 162a 97bd 176f bcbd 6bf6 423d
00000100: c0b6 f63c 5fca f8bb 73dc 943e 268f a63d
00000110: 3239 0cbd defe 5cbd 50e3 eebe b903 1e3e
00000120: d5f6 a93e f0b0 383e fda9 08be 42a9 d93d
00000130: 3bc0 913e 744a 3b3e 91f9 063f 7d63 af3e
00000140: 5373 393e d230 803c 05cc 2a3d f0a5 3dbf
00000150: c570 69bd 9c46 0f3d 87a7 1d3e 67e3 ba3c
00000160: 0ebd b73d ab8d 6d3d 2886 bf3e 8cc7 e2bd
00000170: 4836 a53d 4d21 0bbe 9447 e73d e67a 173e
00000180: dcc6 65bc 0e7f ad3d aebe 9c3d 7557 d33d
00000190: 645c 8c3e cb8a 2f3e dd44 853d b77c 103e
000001a0: db5e 063d adf9 ecbc 288e 4dbd fb8f 2dbd
000001b0: 5cc8 bfba bd7b ecbc ce94 df3d 8424 7bbe
000001c0: 8d87 15bd 9846 ab3d 57f8 1e3e b8e8 1f3c
000001d0: 3dec 403c 331f 2d3e a34a 0b3e 7673 8bbe
000001e0: a851 c13e 4f78 0c3e 4de9 0d3e ced9 7fbe
000001f0: 8ae6 10bc d1ff d3bd 28d7 923d 971a a53d
00000200: 27b0 383d 6007 023e 4fbf ef3d b0cf 193d
00000210: 0804 a03d 8d08 76be 916b 76bd 6a44 0a3d
00000220: f53a 40be a591 673d 85bb 513d 2a3c aa3c
00000230: 1d42 7d3a 5457 5bbd d802 c5bb e9d6 483e
00000240: 01d7 e03d f143 333e 9dfb 8fbc b072 803d
00000250: 3d98 a03c d313 bebd a586 7e3d c082 a73d
00000260: 3fea f43d ebbb 943d c450 27bf b227 b53d
00000270: 68ed 343e fa6c e73b c59b 5c3b 5c04 1a3f
00000280: f908 d0bd df29 883d 71b2 97bd bc61 b93d
00000290: f6a5 7c3c a1a1 9e3d 2ce8 c73d 4375 103d
000002a0: fb1f 653d efb0 72bd bda2 193d fed6 b63d
000002b0: d6af 853d dcd8 0f3e abc9 2b3d b4bc b73d
000002c0: 8adb 8cbd f39a d9bc b358 ac3d f4e4 32be
000002d0: 28d4 023e e41d ea3c 010b a23d 1bad 743d
000002e0: 7de9 143e 6292 213e d483 f43d 236c ac3d
000002f0: 411a 853c 4385 c8bd 367c 0d3c 6bb8 933c
00000300: 3263 a1be 4ffd 4abd ed4e 4dbe 5e5f 3e3d
00000310: ee69 253e 9b65 0f3e 648b f1bd 7381 bc3c
00000320: 3844 3abd ba4a 3fbe b0f6 c63d 968d 0f3e
00000330: 532c df3d 01b5 bebd dda4 c8bd 13fe 63bc
00000340: 7bed 49bd 2d0e e93d 0fc2 0b3d ba4d 193d
00000350: 538b 673e 4962 fa3d ac72 a3be 3a37 cabe
00000360: 6c77 053d 242e 0f3e 8de0 153d e871 8b3d
00000370: 861d b33d 8fc0 a83c 2e0e e93c 9eb2 9b3d
00000380: d024 453d a670 9f3e a31e 2d3f 0031 343d
00000390: 47b3 283c 049a 833d 321e c43c 46af 103d
000003a0: 0cc1 d83d 8102 2d3e 9a3f b03d 6c0f 47bd
000003b0: e06d 7a3c c064 eb3d 2c34 09bc 7c75 8fbe
000003c0: a61f 663d 932a d73d 8b76 6abd 24d3 1c3e
000003d0: 3780 473e c2a0 14bd 7083 1cbc 0bc6 093e
000003e0: ed5f 003e 6869 d43d 4cb5 cb3d 6090 723d
000003f0: 7386 163e d2cd e53d 77ca 833e 6b6c 673d
