p2/1HalfCheetahBulletEnv-v0_TD3_BC_9101_1638626781_td3_bc.pth (torch, 898825 bytes, 16 tensors)

l1.weight f4 [256, 32]
0	0xbf1c45c6	-0.61043966
1	0xbd238c91	-0.039928976
2	0xbd2a3f38	-0.041564196
3	0x3d2e9b03	0.0426283
4	0xbe256595	-0.16152032
5	0x3e9e89f0	0.30964613
6	0xbe8d542b	-0.27603278
7	0xbf346b9f	-0.70476717
8	0x3ecede38	0.40403914
9	0x3e4aaf22	0.1979337
10	0x3e31051c	0.17287105
11	0x3e9572b9	0.2918909
12	0x3d365c90	0.04452187
13	0x3c8ab294	0.016930856
14	0xbe89dbd1	-0.2692552
15	0xbf1aba2d	-0.6044033
16	0xbf25033f	-0.6445808
17	0xbf352ee6	-0.70774686
18	0x3e5ccd49	0.21562685
19	0xbe33cdbd	-0.17558952
20	0xbea85728	-0.32878995
21	0x3eadad11	0.33921102
22	0xbe912c2e	-0.2835402
23	0xbcec02f0	-0.028809994
24	0xbe9556cb	-0.2916778
25	0xbd9f1a5f	-0.07768702
26	0x3d8a20ef	0.06744563
27	0xbdc2ed8d	-0.095179655
28	0x3e39c466	0.18141326
29	0x3e76a45a	0.24086133
30	0xbea42f82	-0.32067496
31	0x3d95ea84	0.07320121
32	0xbd971d91	-0.07378686
33	0x3aa27e62	0.0012397284
34	0xbe3bb6b0	-0.18331409
35	0x3e9348c9	0.28766468
36	0xbba575fe	-0.005049466
37	0x3f5a101e	0.8518084
38	0x3d0d83ea	0.03454963
39	0x3e63129b	0.22175066
40	0x3e926720	0.28594303
41	0x3ed58cd8	0.41709018
42	0xbe7abbee	-0.24485752
43	0x3ea75dd8	0.32688785
44	0x3eaec525	0.34134784
45	0xbf076e9c	-0.5290315
46	0xbcdd3f53	-0.027007734
47	0x3c986900	0.018604755
48	0x3e478879	0.19485654
49	0xbdefc2c5	-0.11707071
50	0x3daa63c9	0.08319814
51	0x3cbecb76	0.023290377
52	0xbbb449a5	-0.005501943
53	0xbf6a4884	-0.915169
54	0xbc30906c	-0.01077662
55	0xbd9028fc	-0.07039067
56	0xbd9b27b4	-0.07575932
57	0x3e0f6af8	0.14005649
58	0xbd288165	-0.041139025
59	0x3ace1ff5	0.0015726077
60	0xbe143d45	-0.14476497
61	0xbe0853a4	-0.13313156
62	0xbd682472	-0.056675382
63	0x3d68444c	0.056705758
64	0xbedddf28	-0.43334317
65	0x3c8227ee	0.01588818
66	0x3e64ac8c	0.22331446
67	0x3e2078d5	0.15671094
68	0xbe2e8861	-0.17044212
69	0xbebede25	-0.37278858
70	0x3f0fb18e	0.561303
71	0xbe46fee7	-0.19433175
72	0xbd628ccf	-0.055310067
73	0xbdf35aed	-0.11882577
74	0xbd78fcc4	-0.06078793
75	0xbdf0a834	-0.11750832
76	0xbf165dd1	-0.587369
77	0xbe5f9a0c	-0.21836108
78	0x3ea45426	0.3209545
79	0x3dfbda27	0.12297469
80	0xbe8038a9	-0.25043228
81	0x3cb71106	0.022346985
82	0xbda3ff92	-0.080077305
83	0x3d0a4f95	0.0337673
84	0xbe3d5c04	-0.18492132
85	0xbd6cc6b6	-0.057806693
86	0xbe8ac16b	-0.2710069
87	0x3dcbbc6c	0.09948048
88	0xbdffa84e	-0.124832734
89	0x3c4ae817	0.012384436
90	0x3ae3fcf3	0.001739411
91	0xbc9f40ae	-0.019440021
92	0xbcb4ef7a	-0.022086848
93	0x3c13e5c1	0.009026946
94	0xbc43585b	-0.011922921
95	0xbbffb591	-0.007803627
96	0xbeadd7b8	-0.33953643
97	0x3e0ad13c	0.13556379
98	0x3d803d0e	0.06261645
99	0x3ef2b860	0.47406292
100	0xbddb32ec	-0.10703072
101	0x3f17ac8e	0.5924767
102	0xbedbfc1c	-0.42965782
103	0x3e3b565e	0.18294665
104	0x3efbf04d	0.49206772
105	0xbeeef095	-0.46667925
106	0x3d76179c	0.06008111
107	0xbe1e13d9	-0.15437259
108	0x3eb2a782	0.34893423
109	0x3db16076	0.086609766
110	0x3d5eb597	0.054372396
111	0x3f07f17c	0.5310285
112	0x3f1674d0	0.5877199
113	0x3e7b8b93	0.24564962
114	0x3e34454a	0.17604557
115	0x3d912055	0.07086245
116	0xbbe6311f	-0.0070248987
117	0xbee42e8e	-0.44566768
118	0x3db5a7bc	0.088698834
119	0xbdf3ae5b	-0.1189849
120	0x3e61c5cb	0.22048108
121	0xbec5237d	-0.38503638
122	0x3c688b7e	0.014193414
123	0x3d5f4d70	0.05451721
124	0x3d9a2532	0.07526626
125	0xbd4d9ebd	-0.050200213
126	0xb9f800ba	-0.00047302787
127	0x3d097b80	0.033565044
128	0xbf3159ed	-0.6927784
129	0xbc10a882	-0.008829238
130	0xbe927b61	-0.28609756
131	0xbe11c29f	-0.14234398
132	0xbc315f4e	-0.010825945
133	0x3d02a5fe	0.031896584
134	0xbeeca3e7	-0.46218798
135	0xbc9d8a66	-0.019231033
136	0x3e99273b	0.29912743
137	0xbf271ed2	-0.65281403
138	0x3d6ddb8c	0.058070704
139	0xbd30fbc0	-0.043208838
140	0x3ecc78fb	0.3993605
141	0x3d0f88dc	0.03504263
142	0xbd153ad8	-0.03643307
143	0xbef9c076	-0.4877965
144	0x3eb6cd4f	0.35703513
145	0xbea093ca	-0.31362754
146	0x3ea8b359	0.3294933
147	0xbe406990	-0.18790269
148	0x3ca0acef	0.019613711
149	0x3e5acb7b	0.21366684
150	0xbd9c1f91	-0.07623208
151	0x3d7f187e	0.062279217
152	0x3edf9859	0.4367092
153	0x3db04230	0.08606374
154	0xbe03a61e	-0.12856337
155	0xbe1d6b16	-0.15372881
156	0x3d4b5e4b	0.04965047
157	0xbadf2723	-0.0017025213
158	0xbd933711	-0.071882375
159	0xbdb7073f	-0.08936929
160	0xbc9307b7	-0.017948015
161	0xbe106a39	-0.1410302
162	0xbe48d0b4	-0.19610864
163	0xbe82dd36	-0.25559396
164	0xbd8d8684	-0.069104224
165	0x3ef8006c	0.48437822
166	0x3dd12342	0.10211803
167	0xbf8d84fc	-1.1056209
168	0x3ee33016	0.44372624
169	0x3ce4ca78	0.027928576
170	0x3e204813	0.15652494
171	0xbdccfd89	-0.100092955
172	0xbf5d49e0	-0.8644085
173	0xbe624e58	-0.22100198
174	0xbe145887	-0.14486896
175	0xbe46dfd5	-0.19421323
176	0xbd9971e8	-0.07492429
177	0xbd20b700	-0.039237022
178	0xbed3a22b	-0.41334662
179	0x3e2074f2	0.15669611
180	0xbd3e2e1c	-0.046430692
181	0xbc38438f	-0.011246576
182	0xbbbba4c8	-0.0057264306
183	0x3cd9d409	0.026590364
184	0x3da6a05c	0.08136055
185	0xbf55c069	-0.8349672
186	0xbd4a05df	-0.049322005
187	0xbce715e7	-0.028208686
188	0xbd5d2e47	-0.05399921
189	0x3d00a90e	0.031411223
190	0xbd212280	-0.039339542
191	0x3cf4240b	0.029802343
192	0x3e81dcf7	0.25363895
193	0x3d444674	0.04791875
194	0x3d099432	0.033588596
195	0x3ece55d6	0.40299863
196	0xbd68981d	-0.05678569
197	0x3d3a277b	0.045447808
198	0x3e392f6b	0.18084495
199	0xbcf1bd47	-0.0295092
200	0xbeb30ffd	-0.34973136
201	0xbf0cad10	-0.5495157
202	0xbd8173f4	-0.063209444
203	0xbc7f494d	-0.015581441
204	0x3d3ed47b	0.046589356
205	0x3ea86d3c	0.3289584
206	0x3e924a88	0.28572488
207	0xbdf40d92	-0.11916651
208	0xbeb3e786	-0.35137576
209	0xbcbb145b	-0.022836855
210	0xbcd633ab	-0.026147684
211	0x3df3a325	0.11896352
212	0xbd1bba3f	-0.038019415
213	0xbe814aca	-0.25252372
214	0xbe8d1ad8	-0.27559543
215	0xbe4662ee	-0.19373676
216	0xbf33b64d	-0.70200044
217	0x3e961064	0.2930938
218	0xbd9c5c9b	-0.076348506
219	0xbd7edc64	-0.0622219
220	0x3d7fb3fa	0.0624275
221	0x3d3d0548	0.046147615
222	0xbddd8940	-0.10817194
223	0xbd464285	-0.04840328
224	0xbd93830b	-0.07202729
225	0xbde6aa7c	-0.11262986
226	0xbef34d08	-0.47519708
227	0x3cc3200e	0.023818996
228	0xbe02a0a6	-0.12756595
229	0x3d8faaff	0.07015037
230	0x3eb591c9	0.35462788
231	0xbed5cba5	-0.4175693
232	0xbdd40e09	-0.103542395
233	0xbeac14ac	-0.3360952
234	0xbe19c597	-0.15016781
235	0xbe0e56b0	-0.13900256
236	0xbc12b4ef	-0.008954271
237	0xbd586828	-0.052833706
238	0x3ed1387f	0.40863416
239	0x3e1f2aeb	0.15543716
240	0x3f1fe994	0.62465787
241	0x3d91dd63	0.07122304
242	0x3e68681b	0.22695963
243	0x3c704c44	0.014666621
244	0xbed24a41	-0.41072276
245	0x3d350e7b	0.044203263
246	0x3dfe080c	0.124038786
247	0xbc897cd4	-0.016783156
248	0x3daa99b5	0.083300985
249	0x3c9a5021	0.018837037
250	0xbc977e0a	-0.018492717
251	0xbc03d24e	-0.008045746
252	0xba57df73	-0.00082348956
253	0x3c0023dd	0.0078210505
254	0x3cdc8f7c	0.026923887
255	0x3cbcf682	0.023066763

l1.bias f4 [256]
0	0x3da26f27	0.07931357
1	0xbdae3ae0	-0.08507323
2	0x3e7d4ba1	0.24735881
3	0xbdb4962f	-0.08817708
4	0xbe9f9320	-0.31166935
5	0xbe19d1c1	-0.15021421
6	0x3d94ef35	0.072721876
7	0xbea8d93d	-0.3297824
8	0x3d905669	0.070477314
9	0xbe2b0fe2	-0.16705278
10	0xbeb543b9	-0.3540323
11	0x3d153d16	0.03643521
12	0xbc8991ff	-0.01679325
13	0x3e035ca4	0.12828308
14	0xbf00d064	-0.5031798
15	0x3dfc4afd	0.123189904
16	0x3da6e5b4	0.08149281
17	0x3e4f9473	0.20271473
18	0xbe7dfe6e	-0.24804088
19	0x3e562995	0.209143
20	0xbece13ac	-0.40249383
21	0xbc648963	-0.013948771
22	0xbe217b5e	-0.15769717
23	0xbe00f62e	-0.1259391
24	0x3d8ee11a	0.069765285
25	0xbdec2876	-0.11531155
26	0x3d6bb0c1	0.057541613
27	0xbe49d445	-0.1970988
28	0xbe0f07c9	-0.13967814
29	0xbd8dcaa5	-0.06923417
30	0x3eda55ef	0.42643687
31	0xbd8703ca	-0.065925196
32	0x3e29612b	0.16540973
33	0x3e1a295d	0.15054841
34	0x3ed37455	0.41299692
35	0x3e676f4a	0.22601047
36	0x3d57ef4c	0.052718446
37	0x3d831eca	0.06402357
38	0xbe6d58b0	-0.23178363
39	0x3de96018	0.113952816
40	0xbe3aed31	-0.18254544
41	0xbd0b4180	-0.033998013
42	0xbe6b0f6b	-0.229551
43	0x3e940f07	0.28917715
44	0xbd28ae8f	-0.041182097
45	0x3e6c39d7	0.23068939
46	0xbe3c1b8f	-0.18369888
47	0x3d98ca93	0.07460513
48	0xbca76e6b	-0.020438394
49	0xbd4d4386	-0.050113223
50	0x3ed92bd3	0.42416248
51	0x3cc98006	0.02459718
52	0xbe826eb8	-0.25475097
53	0x3dc00321	0.09375597
54	0xbe4ceb34	-0.20011598
55	0x3e6c4847	0.23074447
56	0xbeaf627a	-0.3425482
57	0x3e2adda3	0.1668611
58	0x3d09e1dc	0.033662662
59	0x3dc5c98e	0.09657584
60	0xbe279442	-0.1636515
61	0x3e54180c	0.20712298
62	0x3e3a5580	0.18196678
63	0xbe8075c7	-0.25089857
64	0xbe2adaea	-0.16685072
65	0x3caea142	0.021317128
66	0xbe053df3	-0.13011913
67	0x3e85fbd2	0.26168686
68	0x3de230fb	0.110444985
69	0xbdc8301c	-0.09774801
70	0x3df09f04	0.1174908
71	0xbe18333e	-0.14863297
72	0xbdc8c060	-0.098023176
73	0x3e473ba2	0.19456342
74	0xbdeb7e87	-0.114987426
75	0xbdec5d1c	-0.11541197
76	0x3d1f14fc	0.03883837
77	0xbc93badb	-0.018033436
78	0xbe737362	-0.23774484
79	0x3e96aac7	0.29427168
80	0xbe017638	-0.12642753
81	0xbe0671b0	-0.13129306
82	0xbe836279	-0.25661066
83	0x3e160c2d	0.14653082
84	0x3dcb1499	0.09916038
85	0xbdb1e1c1	-0.08685637
86	0x3e65ba4d	0.2243435
87	0xbcbc3a40	-0.022976995
88	0xbe2e3814	-0.1701358
89	0xbda7205a	-0.081604674
90	0xbd9a8359	-0.07544584
91	0xbb8a528a	-0.004221265
92	0x3bf697bc	0.0075254124
93	0x3e0d3e74	0.13793355
94	0xbdb7bef4	-0.08971968
95	0xbdc135c9	-0.09434087
96	0x3ecd9c4a	0.40158302
97	0xbe96367b	-0.2933844
98	0xbe00a924	-0.12564522
99	0x3e3953e6	0.18098411
100	0x3d966624	0.073437005
101	0xbe6ede7b	-0.23327057
102	0xbe819004	-0.25305188
103	0x3dc75582	0.09733106
104	0xbeeef920	-0.46674442
105	0xbe7e8d90	-0.2485869
106	0x3e28c8e1	0.16482879
107	0xbe06d12f	-0.13165735
108	0x3e1c1277	0.15241419
109	0xbea21661	-0.316577
110	0xbde13b82	-0.10997678
111	0xbe134abe	-0.1438398
112	0x3e41bb32	0.18919066
113	0x3e663f5f	0.22485112
114	0x3c5d8517	0.013520501
115	0xbda61f9a	-0.08111496
116	0x3e864566	0.26224822
117	0xbdb039ad	-0.08604751
118	0x3e877cdb	0.26462445
119	0x3e0a213d	0.13489242
120	0x3e2d9172	0.16950014
121	0x3e1558b8	0.14584625
122	0x3e5f8d5e	0.21831271
123	0xbda844cb	-0.08216246
124	0xbcdeae65	-0.027182767
125	0x3d89f49a	0.06736107
126	0x3cac8ecc	0.021064185
127	0x3dc0affe	0.09408568
128	0x3e8961ed	0.26832524
129	0x3d2fa32e	0.04288023
130	0x3e263c67	0.16233979
131	0xbd449c5f	-0.04800069
132	0x3dc92cb6	0.09822981
133	0xbd4d50d9	-0.05012593
134	0x3c93f47b	0.018060913
135	0x3e0cf9bb	0.1376714
136	0x3d94a45f	0.07257914
137	0xbe786131	-0.24255826
138	0x3eb818c6	0.359564
139	0x3df16d93	0.11788478
140	0xbd8c8938	-0.0686211
141	0x3e1db057	0.153993
142	0xbe404a10	-0.18778253
143	0xbe12dede	-0.1434283
144	0xbdcc8eff	-0.09988212
145	0x3dbbac8c	0.0916377
146	0x3e870812	0.26373345
147	0xbdfbfa52	-0.12303604
148	0x3ea411cd	0.3204483
149	0x3d9ef6a0	0.07761884
150	0x3d349976	0.044091664
151	0x3d8bb50b	0.068216406
152	0x3dcbd395	0.099524654
153	0xbd1e2af1	-0.03861517
154	0xbd041be9	-0.03225318
155	0x3d5de6a1	0.054175023
156	0xbebd05b1	-0.36918405
157	0xbda1a6db	-0.07893153
158	0x3e027bc1	0.12742521
159	0xbe1154a0	-0.14192438
160	0xbc0a87f6	-0.008455267
161	0x3ed0fc04	0.40817273
162	0xbdb83055	-0.089935936
163	0xbe64aa69	-0.22330631
164	0xbd9abcb7	-0.07555526
165	0xbe17a4aa	-0.14808908
166	0xbde18651	-0.11011947
167	0xbe04d705	-0.12972648
168	0xbdde98c5	-0.10868982
169	0x3e6b4512	0.22975567
170	0x3e3317fb	0.17489617
171	0x3e3b107b	0.18268006
172	0x3e016f2f	0.1264007
173	0xbe1e52f3	-0.1546133
174	0xbcd28c02	-0.025701527
175	0x3d9b1512	0.07572378
176	0x3d9d8388	0.07691103
177	0x3e83a052	0.25708252
178	0xbdaeb46c	-0.085305065
179	0x3c243107	0.010021455
180	0x3e9e5396	0.30923146
181	0x3e9f16b7	0.31072018
182	0xbe8b41c7	-0.27198622
183	0x3ea36939	0.31916216
184	0x3d19fe91	0.03759629
185	0x3d62412e	0.05523794
186	0x3df47090	0.11935532
187	0x3ea478a7	0.321233
188	0x3d9dc351	0.07703269
189	0xbe371cb9	-0.1788205
190	0xbda9285e	-0.082596526
191	0x3e3b7924	0.1830793
192	0xbe9ccbff	-0.30624387
193	0x3d8a1803	0.06742861
194	0x3dfc148e	0.12308608
195	0xbdf088be	-0.117448315
196	0x3d2b67ac	0.041846916
197	0xbd6ca7ad	-0.057777096
198	0xbce6b1f0	-0.02816102
199	0xbe041b15	-0.12900956
200	0xbeb244ad	-0.3481802
201	0xbce46010	-0.027877837
202	0x3e671b9d	0.22569127
203	0x3e7b68b9	0.24551667
204	0x3e607aab	0.21921794
205	0x3e21a29a	0.15784684
206	0x39b26e13	0.00034032817
207	0x3e11cd35	0.14238437
208	0x3c460e3f	0.0120883575
209	0x3e90f22a	0.28309757
210	0x3cab6f88	0.020927206
211	0x3d2e7e90	0.04260117
212	0xbe2c0f31	-0.1680267
213	0x3dd8153c	0.10550925
214	0x3c0ac654	0.008470137
215	0x3d2f2546	0.042760156
216	0xbe273add	-0.16331048
217	0xbda5b092	-0.08090319
218	0x3e4bc049	0.1989757
219	0x3e311258	0.17292154
220	0x3d280d91	0.041028563
221	0xbe4010b5	-0.18756373
222	0x3e7bdebe	0.24596688
223	0xbd05e1d4	-0.03268607
224	0xbd9f42bf	-0.07776403
225	0xbdf138f5	-0.11778442
226	0xbeab51e6	-0.3346092
227	0xbd17615c	-0.036958084
228	0xbee6b88b	-0.4506267
229	0x3db2a3e5	0.08722667
230	0x3e8853b9	0.26626375
231	0x3dcd72cf	0.100316636
232	0x3ec9baa3	0.39400205
233	0xbd22cc73	-0.03974576
234	0xbe06e363	-0.13172679
235	0x3ca78bb5	0.02045236
236	0x3e61453b	0.21999066
237	0x3e47b5a9	0.19502892
238	0x3e9042b7	0.281759
239	0x3b6fd00f	0.0036592518
240	0x3e8cab63	0.27474508
241	0xbe00c0ea	-0.12573591
242	0x3ed93dbf	0.4242992
243	0x3de04a5f	0.10951685
244	0xbe6a05ff	-0.2285385
245	0x3ea42580	0.3205986
246	0x3d807c73	0.06273737
247	0xbe10fcce	-0.14158937
248	0x3e4e8b4e	0.20170328
249	0x3c8ddc1e	0.017316874
250	0xbda3acfa	-0.07991977
251	0xbe65ddbe	-0.22447869
252	0xbcb92bf4	-0.022603966
253	0x3ea1512f	0.3150725
254	0x3e6e30cc	0.23260802
255	0x3e5f67d6	0.21816954

l2.weight f4 [256, 256]
0	0xbd7e567e	-0.062094204
1	0x3c902b54	0.017598785
2	0x3d5e14af	0.054218944
3	0xbca441fc	-0.020050995
4	0xbc8f5c8b	-0.017500183
5	0xbd33777a	-0.043815114
6	0xbd56fbb8	-0.05248615
7	0x3d203d3a	0.03912089
8	0x3cbfbe09	0.023406046
9	0xbd3fd6b7	-0.046835627
10	0xbcb70fdc	-0.02234643
11	0xbd435785	-0.047690887
12	0xbc97007e	-0.018432852
13	0x3c9cc282	0.019135717
14	0xbd501b70	-0.050807416
15	0x3d2553c8	0.040363103
16	0xbcd500f1	-0.026001425
17	0xbc6d278a	-0.014474759
18	0xbce43453	-0.027856981
19	0x3d08b859	0.033378933
20	0x3d3ed19d	0.04658662
21	0xbd1d6e09	-0.038435016
22	0xbc32f905	-0.010923629
23	0xbd6a1082	-0.05714465
24	0xbcaae2d3	-0.020860111
25	0xbd166c96	-0.03672465
26	0xbd638c3a	-0.055553652
27	0xbc0202b8	-0.0079352185
28	0x3d293854	0.041313484
29	0xbd6a3e48	-0.057188302
30	0xbd706798	-0.058692545
31	0xbd169d4a	-0.036771096
32	0xbd6db479	-0.05803344
33	0xbccf4fc0	-0.025306582
34	0xbd14c740	-0.036322832
35	0x3bd44175	0.0064775296
36	0xbd3719e9	-0.044702444
37	0xbd54fa1b	-0.05199633
38	0x3d0fbb64	0.03509082
39	0xbd596f98	-0.05308494
40	0xbd3b74b9	-0.045765612
41	0x3bc43140	0.0059873164
42	0x3d14af0c	0.03629975
43	0xbc98dbf7	-0.018659575
44	0xbd10c2f6	-0.03534218
45	0xbd45d91d	-0.04830276
46	0x3c8676a3	0.016413992
47	0x3d2a4271	0.04156727
48	0xbd2988e0	-0.0413903
49	0x3d62782a	0.05529038
50	0xbcabafa4	-0.020957775
51	0x3d5dd703	0.05416013
52	0x3c94a164	0.018143363
53	0xbd2889ed	-0.04114716
54	0x3b5c3060	0.003359817
55	0xbd395e51	-0.045255963
56	0x3c8e1973	0.01734612
57	0xbc9eb338	-0.019372568
58	0xbd65d84f	-0.05611449
59	0x3c890fa7	0.016731096
60	0xbb09f1c0	-0.0021048635
61	0xbbb197ef	-0.005419723
62	0xbc01df51	-0.007926778
63	0xbd527e90	-0.05139023
64	0xb8312800	-4.223734e-05
65	0xbc711cc8	-0.014716335
66	0x3c97123a	0.018441308
67	0xbd2d2c75	-0.042278726
68	0xbd8221a3	-0.06354072
69	0xbc232268	-0.009956934
70	0xbc90bc5b	-0.01766794
71	0x3d15a40e	0.036533408
72	0xbc2ae4c9	-0.010430523
73	0xbd5cd0f1	-0.0539102
74	0x3d35e54d	0.04440813
75	0x3d028308	0.031863242
76	0xbd82f012	-0.06393446
77	0xbd770f9e	-0.060317628
78	0xbd4eb23c	-0.050462946
79	0xbd55ccfc	-0.05219744
80	0xbd573858	-0.052543968
81	0xbd59b6e2	-0.053152926
82	0x3d7454b6	0.0596511
83	0x3cb671e1	0.022271099
84	0x3d6d5f32	0.057952113
85	0xbced83dd	-0.028993541
86	0xbc57404f	-0.013137891
87	0xbd2451aa	-0.040116943
88	0xbc83aefd	-0.016074652
89	0x3c9a4e81	0.018836262
90	0xbd335ea8	-0.043791443
91	0x3d49cc18	0.049266905
92	0x3bee1810	0.007266052
93	0x3d7a32ac	0.06108348
94	0xbd811af5	-0.0630397
95	0xbcab1b03	-0.020886904
96	0xbd18cda7	-0.0373055
97	0x3cc1d589	0.023661392
98	0x3d3b2f40	0.045699358
99	0x3d15c774	0.036567166
100	0x3cfeed86	0.03111912
101	0xbcfe3fa4	-0.031036206
102	0xbd2b7a49	-0.041864667
103	0x3d2f7a6e	0.042841367
104	0xbc8bb460	-0.017053783
105	0xbd53a88c	-0.05167441
106	0xbd5f62aa	-0.054537453
107	0x3cee274f	0.029071478
108	0xbcbadf1d	-0.022811467
109	0xbb1c8284	-0.0023881504
110	0xbcfb8c63	-0.03070659
111	0x3ca07687	0.019587768
112	0xbc9717b4	-0.01844392
113	0xbc9aed36	-0.01891194
114	0xbd2a7e20	-0.04162419
115	0xbd1e8062	-0.038696654
116	0x3d0eee53	0.034895252
117	0xbd115a11	-0.035486285
118	0xbcff3bfc	-0.031156532
119	0xbd395403	-0.045246135
120	0xbd291090	-0.04127556
121	0x3d0ac1ac	0.033876106
122	0x3d238146	0.039918207
123	0x3b710282	0.0036775176
124	0xbd0e7748	-0.034781724
125	0xbcbf8728	-0.023379877
126	0xbd5cc8f2	-0.053902574
127	0x3d71c04a	0.05902127
128	0x3d701d9f	0.058622
129	0xbd7e0cee	-0.06202405
130	0xbcd361cc	-0.02580347
131	0x3cca7178	0.02471231
132	0xbc3917f0	-0.011297211
133	0xbb767417	-0.0037605816
134	0xbd151cc6	-0.036404394
135	0x3d543d60	0.051816344
136	0x3baa0e5a	0.005189699
137	0xba2d4d00	-0.00066109
138	0x3d04a58c	0.03238444
139	0x3c1afc48	0.009459563
140	0xbd000720	-0.031256795
141	0x3cf5969e	0.029979046
142	0x3d126151	0.03573734
143	0xbcce246c	-0.025163852
144	0x3cffed76	0.03124116
145	0xbd380818	-0.044929594
146	0x3c6aa0f3	0.0143206
147	0x3c616904	0.013757948
148	0x3c7adc40	0.015311301
149	0xbc0488ae	-0.008089228
150	0xbd3a116b	-0.045426767
151	0xbd01c1c5	-0.031678934
152	0x3c3bbe59	0.011458957
153	0xbd7c3ec6	-0.061583303
154	0xbcb3d63d	-0.021952743
155	0xbc5bf5b3	-0.0134252785
156	0x3cfcea74	0.030873515
157	0x3ccd4060	0.02505511
158	0x3c87aebd	0.016562814
159	0x3cc51d70	0.024061888
160	0x3ce6bb98	0.028165624
161	0xbc5ba090	-0.01340498
162	0xbbc66ee0	-0.006055698
163	0x3d428f1b	0.047499757
164	0xbd4005b4	-0.04688044
165	0xbcbada6a	-0.022809226
166	0xbb429c20	-0.0029695109
167	0xbca68c28	-0.020330504
168	0x3d3cb4c7	0.04607084
169	0xbc06ba4d	-0.0082231285
170	0x3b9a8d20	0.0047165304
171	0xbd2837fd	-0.04106902
172	0xbd559144	-0.05214049
173	0xbd55ac40	-0.052166224
174	0xbb95a640	-0.0045669377
175	0xbcbbfa88	-0.022946611
176	0xbd135d48	-0.03597763
177	0x3cc03a9c	0.023465447
178	0xbc0fa6f3	-0.008767831
179	0xbbbe9bc0	-0.0058169067
180	0xbd323cab	-0.04351489
181	0xbd248012	-0.0401612
182	0xbc397bfd	-0.011321065
183	0xbc215358	-0.009846531
184	0xbd478645	-0.048712034
185	0x3d609133	0.054825973
186	0xbc9216cc	-0.017833136
187	0xbc9c92f8	-0.019113049
188	0x3d1d2b8a	0.0383716
189	0xbd4e6094	-0.050385073
190	0xbcc30ca8	-0.023809746
191	0xbd1dc67f	-0.03851938
192	0x3ba2345a	0.0049500884
193	0x3c004e00	0.007831097
194	0x3d07d99e	0.03316652
195	0xbd68170a	-0.056662597
196	0xbaaec26a	-0.0013333086
197	0xbc9e6675	-0.019335965
198	0x3d6f9996	0.05849608
199	0x3d48e798	0.04904899
200	0xbd6bdfb0	-0.057586372
201	0x398abae4	0.00026460655
202	0x3cc83ba8	0.024442509
203	0x3d68d2ab	0.056841534
204	0xbcda826e	-0.026673522
205	0xbd1324d9	-0.035923813
206	0xbd74caf4	-0.059763864
207	0xbd1e6ed0	-0.038679898
208	0xbd417ec2	-0.047240026
209	0x3cf3f250	0.02977863
210	0x3cba70f4	0.022758938
211	0x3cff9baa	0.031202156
212	0xbc4e5d78	-0.012595527
213	0xbc7acc58	-0.015307508
214	0xbd5090bc	-0.05091928
215	0x3d1c34f7	0.03813645
216	0x3d2b95a7	0.041890766
217	0xbd5ca0c8	-0.05386427
218	0x3d49f2fc	0.049303994
219	0xbcd18a77	-0.02557872
220	0xbca05ed0	-0.01957646
221	0xbd010b58	-0.03150496
222	0x3c0a2613	0.008431929
223	0xbd5d7c80	-0.05407381
224	0x3cc57ba5	0.02410681
225	0xbc9d7ec8	-0.019225493
226	0x3cda4302	0.02664328
227	0x3c9ad342	0.018899564
228	0x3d4d54f4	0.050129846
229	0xbd6ca5a9	-0.057775173
230	0x3d360ea9	0.044447575
231	0xbcf004c5	-0.02929915
232	0x3d4c94a7	0.049946453
233	0x3d7c2194	0.06155546
234	0x3c377401	0.011197091
235	0x3d1c5b1e	0.038172834
236	0xbc960f8c	-0.01831796
237	0xbca47c07	-0.020078672
238	0x3aeb7adc	0.0017965692
239	0xbcd976b0	-0.026545852
240	0x3d705426	0.058674
241	0x3d4c6956	0.049905144
242	0xbcb9ed28	-0.022696093
243	0xbcc4bff1	-0.024017306
244	0xbd5ac554	-0.053410843
245	0xbb02a764	-0.0019936198
246	0xbbe294a6	-0.006914693
247	0xbd0d5e38	-0.034513682
248	0xbd331aee	-0.043726854
249	0x3b69e97d	0.0035692148
250	0x3d1a9074	0.037735417
251	0xbd27187c	-0.040794834
252	0xbc9f949c	-0.019480042
253	0xbd6d56c5	-0.057944078
254	0x3d4071a2	0.04698337
255	0x3c7ba10a	0.015358219

l2.bias f4 [256]
0	0xbd7f668e	-0.062353663
1	0x3e9453a9	0.28970078
2	0x3e41fb1a	0.18943444
3	0xbd8eae4f	-0.069668405
4	0x3e966b90	0.2937894
5	0x3e958d62	0.2920943
6	0xbe9e81c5	-0.3095838
7	0x3ea9feae	0.33202118
8	0x3ea37a6e	0.31929344
9	0x3ea0bb6b	0.3139299
10	0xbdf7cd60	-0.12099719
11	0x3e80f0dd	0.25183764
12	0x3e920ceb	0.2852548
13	0x3e86046d	0.26175252
14	0xbeaabc58	-0.3334682
15	0x3e8f2fda	0.27966195
16	0x3e764c86	0.24052629
17	0x3ea0a12a	0.31372958
18	0xbd6306c7	-0.055426385
19	0x3edd93e4	0.43276894
20	0xbe75c7e4	-0.24002033
21	0x3e9cdf33	0.30639037
22	0x3eb29f6d	0.34887257
23	0xbe76d8a4	-0.2410608
24	0x3ea4901d	0.321412
25	0x3e98cf06	0.29845446
26	0xbe8e41b4	-0.27784503
27	0x3ea02f7f	0.31286237
28	0x3e7205cc	0.23635024
29	0xbdf8cd56	-0.1214854
30	0x3dc7cd97	0.0975601
31	0xbdb49eec	-0.088193744
32	0xbbeb3fe9	-0.0071792495
33	0xbe4a84cb	-0.19777219
34	0x3e5d618e	0.21619245
35	0x3eaa519b	0.33265385
36	0xbdb116ac	-0.086469024
37	0x3e84e960	0.259593
38	0x3e9302ef	0.28713176
39	0x3e988a83	0.29793176
40	0x3e92fbb4	0.2870766
41	0x3ea0dedf	0.31420037
42	0x3eab38ad	0.33441678
43	0xbe9529e0	-0.2913351
44	0x3ea4d026	0.32190055
45	0x3ea4169d	0.32048503
46	0x3ebfdaf0	0.37471724
47	0xbd9a8dae	-0.075465545
48	0x3e977300	0.29579926
49	0xbc9dcc64	-0.0192625
50	0x3ea96faa	0.33093005
51	0x3e8fffd9	0.28124884
52	0xbcb1c374	-0.021699645
53	0xbe27995c	-0.16367096
54	0xbe495939	-0.19662942
55	0xbcf738ed	-0.030178512
56	0x3e97829b	0.29591832
57	0xbecdd351	-0.40200284
58	0x3bc66334	0.0060543064
59	0xbde1c5c9	-0.11024053
60	0x3e045dea	0.1292645
61	0x3e8411d7	0.2579486
62	0xbd12f2a3	-0.035875928
63	0x3e9c2cc9	0.30502918
64	0xbd7748b6	-0.060372077
65	0xbe8a0c19	-0.26962355
66	0xbbdc5ea7	-0.0067251506
67	0x3ddbfea8	0.10741931
68	0x3ea22638	0.31669784
69	0x3ea3ae00	0.3196869
70	0xbd87a0cc	-0.066224664
71	0x3e9d1a59	0.30684164
72	0xbdb6a86c	-0.08918843
73	0x3d3065f6	0.043065988
74	0x3e571376	0.21003518
75	0x3e59910d	0.21246739
76	0x3eb15028	0.34631467
77	0xbed7f219	-0.42176893
78	0xbda85344	-0.08219007
79	0xbe844cc8	-0.2583983
80	0xbd684321	-0.056704644
81	0x3e948c04	0.29013073
82	0xbdf99457	-0.12186497
83	0x3db70fcd	0.08938561
84	0x3e8f6cf3	0.2801281
85	0x3d6cc81e	0.057808034
86	0x3e44e744	0.19228846
87	0xbe9ca01e	-0.3059091
88	0x3ce7d757	0.028300924
89	0x3e4c942d	0.199784
90	0x3e758c20	0.23979235
91	0xbcf101ad	-0.029419744
92	0x3e59e364	0.21278149
93	0x3e8211cb	0.254042
94	0x3e5dda7d	0.21665378
95	0x3ea4320f	0.32069442
96	0x3e8cba39	0.27485827
97	0xbd07ca90	-0.033152163
98	0xbe2f0edf	-0.17095517
99	0xbe07e94b	-0.13272588
100	0x3eaee46c	0.34158647
101	0xbe4122dc	-0.18860954
102	0x3e7f513e	0.24933335
103	0x3e9ef58c	0.31046712
104	0x3eade663	0.33964834
105	0x3b4dbdfd	0.003139376
106	0x3e6ed5dc	0.23323768
107	0xbe5fb4a0	-0.21846247
108	0x3e8de916	0.27716893
109	0xbcd5e0f6	-0.026108246
110	0xbd22051b	-0.03955565
111	0x3e2d1fcf	0.16906665
112	0x3e5da39d	0.21644445
113	0xbe2ca0ea	-0.16858259
114	0xbcfdaba1	-0.030965628
115	0xbddccaa7	-0.1078084
116	0x3c2a16ae	0.010381384
117	0xbdd55635	-0.10416833
118	0x3e97e2b3	0.29665145
119	0x3e71fabc	0.23630804
120	0xbe375e4f	-0.1790707
121	0x3eb1e6c9	0.34746388
122	0xbe0bb80b	-0.13644426
123	0x3e25632a	0.1615111
124	0x3e6b9650	0.23006558
125	0xbe2e74f0	-0.17036796
126	0x3d80b3d9	0.06284303
127	0xbeea738e	-0.45791286
128	0x3d7e5db3	0.062101077
129	0x3d7accb1	0.061230365
130	0x3e7dcb59	0.24784602
131	0x3e8f770d	0.28020516
132	0x3cef74df	0.029230533
133	0x3e9103db	0.28323254
134	0x3ec04151	0.37549832
135	0x3ec9a9c2	0.39387327
136	0x3ecb747a	0.39737302
137	0x3e54c20d	0.2077715
138	0x3e9b4557	0.3032634
139	0x3ea741c3	0.3266736
140	0xbe1685a2	-0.14699414
141	0x3e6e13d9	0.23249759
142	0x3ec8f5a1	0.392499
143	0xbc5115ea	-0.012761572
144	0xbccc3601	-0.024928095
145	0x3e99e7a5	0.30059543
146	0x3e98062c	0.2969221
147	0xbddda66f	-0.1082276
148	0xbe0e1138	-0.13873756
149	0x3e92d387	0.28677008
150	0x3d482b44	0.048869386
151	0x3e8a5c89	0.27023724
152	0x3e39b657	0.18135963
153	0x3ea060c6	0.31323832
154	0x3ebb95a4	0.36637604
155	0x3e6c5efb	0.23083107
156	0x3e9c9460	0.3058195
157	0x3e9b9427	0.3038647
158	0xbe1b21b7	-0.1514958
159	0xbdabddcf	-0.08391916
160	0x3e678ced	0.22612353
161	0xbe52cd6c	-0.20586175
162	0x3e90816f	0.2822375
163	0x3cc207fd	0.02368545
164	0xbdd2383f	-0.10264634
165	0x3ecc8bb6	0.3995034
166	0x3e88d1eb	0.26722655
167	0x3e872605	0.26396194
168	0xbe546ff0	-0.20745826
169	0xbdde00b9	-0.108399816
170	0xbba45a67	-0.0050156596
171	0xbe40049a	-0.18751755
172	0x3e9232e2	0.28554446
173	0xbdf13346	-0.11777358
174	0x3b0160b7	0.0019741484
175	0xbdbd5a1d	-0.09245703
176	0x3e8c3150	0.27381372
177	0xba21a78a	-0.0006166628
178	0xbe3c4ceb	-0.18388717
179	0x3e55bf1e	0.20873687
180	0x3e929b6d	0.28634205
181	0x3ecb457c	0.3970145
182	0x3eb1f866	0.34759825
183	0xbb72496e	-0.0036970037
184	0xbe2a92e2	-0.16657594
185	0xbe1177e2	-0.14205888
186	0x3e98fc19	0.29879835
187	0x3e84b017	0.25915596
188	0xbd184921	-0.037179116
189	0xbe39aebc	-0.18133062
190	0x3e8e4b68	0.27791905
191	0xbd79e2d4	-0.061007336
192	0x3e90cdb3	0.28281936
193	0x3e9171dd	0.28407183
194	0xbdd29c9f	-0.10283779
195	0x3e9b8ae8	0.30379415
196	0xbde09d43	-0.10967495
197	0xbe3bc797	-0.18337856
198	0xbdd2f468	-0.10300523
199	0xbd0e0641	-0.034673933
200	0x3e98c1f0	0.29835463
201	0x3e973eee	0.295402
202	0x3e9e9df2	0.30979878
203	0x3eae7172	0.34070927
204	0xbe3f28bd	-0.18667884
205	0x3ead191b	0.33808216
206	0x3ebb9e14	0.36644042
207	0x3b33d02a	0.0027437308
208	0x3e7ca40c	0.24671954
209	0x3e8815f6	0.26579255
210	0x3c89548a	0.016763944
211	0x3d12e94d	0.035867024
212	0x3e958236	0.29200906
213	0x3cfdaf12	0.03096727
214	0xbdfedba6	-0.12444238
215	0x3eb2c7b1	0.34917977
216	0xbe7bb16a	-0.24579397
217	0x3e8c3b40	0.27388954
218	0x3eb730b8	0.35779357
219	0xbd52c51d	-0.051457513
220	0xbdfe0feb	-0.1240538
221	0x3e8184c7	0.25296614
222	0x3e6882c4	0.22706133
223	0xbe49c082	-0.19702342
224	0x3ea065b0	0.3132758
225	0x3e776c7d	0.24162479
226	0x3d8677b7	0.065658025
227	0x3d030e4b	0.031996053
228	0xbc85f4a9	-0.016352015
229	0x3eb43945	0.35199943
230	0xbe929531	-0.2862945
231	0x3e78daa2	0.24302152
232	0x3e2bf493	0.16792516
233	0xbe1a4402	-0.15065005
234	0x3e17e1ed	0.14832278
235	0x3ea77017	0.32702705
236	0x3db7108b	0.08938702
237	0x3e96967b	0.29411682
238	0x3d9d0517	0.076669864
239	0xbd86230a	-0.06549652
240	0x3e9c71de	0.30555624
241	0x3e79f38b	0.2440931
242	0xbe9ffccf	-0.31247565
243	0xbdbc7959	-0.09202833
244	0x3ec8d6c8	0.39226365
245	0x3eb9d51f	0.3629541
246	0x3e415477	0.18879877
247	0x3e8905bd	0.2676219
248	0x3ec45394	0.38345015
249	0x3e473347	0.19453155
250	0x3dae6527	0.08515387
251	0xbd713f40	-0.05889821
252	0x3e6da463	0.2320724
253	0x3d71065d	0.05884396
254	0xbd8a3f3a	-0.06750341
255	0x3e9b45e7	0.3032677

l3.weight f4 [1, 256]
0	0x3cdad5df	0.02671331
1	0x3e679cc6	0.22618398
2	0x3ebb7498	0.3661239
3	0xc041bc1b	-3.027106
4	0x3e4d30ea	0.2003819
5	0x3e83f9e5	0.25776592
6	0xbf862817	-1.0480984
7	0x3e6d132d	0.23151846
8	0x3e60c356	0.21949515
9	0x3e66bb08	0.22532284
10	0xbfaf8c08	-1.3714609
11	0x3e2dcb2e	0.16972038
12	0x3e762dba	0.24040881
13	0x3eb4e1f1	0.3532863
14	0xbfbfe532	-1.499182
15	0x3e2820f1	0.16418816
16	0x3e3a4c22	0.18193105
17	0x3e4ced3a	0.2001237
18	0xbffdb47e	-1.9820707
19	0x3e951044	0.29113972
20	0xbf718f8c	-0.9435966
21	0x3e2aa91d	0.16666074
22	0x3e4b301c	0.19842571
23	0xbf404111	-0.75099283
24	0x3ea85407	0.32876608
25	0x3e52ea78	0.20597255
26	0xbf84d941	-1.0378801
27	0x3e32e117	0.17468677
28	0x3eb13d72	0.34617192
29	0xc055ead8	-3.3424587
30	0x400172d6	2.022634
31	0xbf9ff9ff	-1.2498168
32	0xbf926271	-1.1436292
33	0xbeb21a9a	-0.3478592
34	0xc005379b	-2.081519
35	0x3e2734fc	0.16328806
36	0xbf3376e3	-0.7010328
37	0x3e605eed	0.21911211
38	0xc033b289	-2.807772
39	0x3ec9da4b	0.39424357
40	0x3e9fd6c8	0.31218553
41	0x3e4e0e14	0.20122558
42	0x4006c51d	2.1057808
43	0xbfb9b0be	-1.4507062
44	0x3e6384b4	0.22218591
45	0x3e4455b4	0.19173318
46	0x3e39547e	0.18098637
47	0xc00176a1	-2.0228655
48	0x3e47295f	0.19449376
49	0xbf8c7007	-1.0971688
50	0x3e4e3524	0.20137459
51	0x3e709e4a	0.23497882
52	0xbd72f843	-0.059318792
53	0xc04567ff	-3.0844724
54	0xbf9b726d	-1.2144295
55	0xbf42cd9c	-0.76094985
56	0x3ea530ce	0.32263798
57	0xbff3dafe	-1.9051206
58	0xbf926328	-1.143651
59	0xbffdcbf3	-1.9827865
60	0x3fe9068b	1.8205122
61	0x3e403cac	0.18773144
62	0xbf2da59e	-0.67830837
63	0x3e9443fb	0.28958115
64	0xbd285b7c	-0.04110287
65	0xbfa933ba	-1.3218911
66	0xbf48360c	-0.7820747
67	0xbf7a7956	-0.97841394
68	0x3e70edad	0.23528166
69	0x3e488177	0.19580637
70	0xbfb6a994	-1.4270501
71	0x3e48206f	0.19543622
72	0xbfd68727	-1.6759995
73	0xbfd0311c	-1.6264987
74	0x3dfaedbd	0.12252376
75	0x3e373dec	0.17894715
76	0x3e59109a	0.21197739
77	0xc0418e17	-3.0242975
78	0x402610ae	2.594768
79	0xc02d8c69	-2.711695
80	0xbf8367e0	-1.0266075
81	0x3e0edc24	0.13951164
82	0xbed51d0a	-0.41623718
83	0x3ff64ac4	1.9241567
84	0x3e4825f4	0.19545728
85	0xbfe04c32	-1.7523253
86	0x3e9f0472	0.3105808
87	0xbfb4fdfb	-1.4140009
88	0xbf7b24aa	-0.9810282
89	0x3eb69029	0.3565686
90	0xc01f3988	-2.4878864
91	0xbf48697d	-0.7828596
92	0x3ea30f4e	0.31847614
93	0x3e79df3b	0.24401562
94	0x3eeda2ad	0.46413174
95	0x3e49bb70	0.19700408
96	0x3e2b7e41	0.16747381
97	0xc00d95e0	-2.2122726
98	0xbf8b2101	-1.0869447
99	0xbfe6cbd7	-1.8030957
100	0x3e253466	0.1613327
101	0xbfd84177	-1.6894978
102	0x3e8a6b7e	0.27035135
103	0xc00de935	-2.2173588
104	0x3e1f0b89	0.15531744
105	0xbfa15983	-1.2605442
106	0x3e3e806b	0.18603675
107	0xbf7918ee	-0.97303665
108	0x3e8c4645	0.2739736
109	0xc007383f	-2.112808
110	0xbcab97a7	-0.020946337
111	0xbfc8930a	-1.5669873
112	0x3e9cd3db	0.30630383
113	0xbeb1b5c0	-0.34708977
114	0xbfe08add	-1.7542378
115	0xbef75ab0	-0.48311377
116	0xbf91f000	-1.1401367
117	0xbf7c3b58	-0.9852805
118	0x3e3aafc9	0.18231119
119	0x3ea0fb98	0.3144195
120	0xbf7bd7ef	-0.98376364
121	0x3e348893	0.17630224
122	0xbf9374d7	-1.1520032
123	0xbf82fbc2	-1.023308
124	0x3f311be5	0.6918319
125	0xbecdfc76	-0.40231675
126	0xc0198da8	-2.399271
127	0xc009cfea	-2.153315
128	0xbff5199d	-1.9148442
129	0xbf6fdafb	-0.9369351
130	0xbf8ab113	-1.0835289
131	0xc00d14bc	-2.2043905
132	0xbfb74262	-1.4317133
133	0x3e6f1323	0.23347144
134	0x3e46d1a4	0.19415909
135	0x3e2e1c65	0.17003019
136	0x3e296fd4	0.16546565
137	0x3eb9f1de	0.36317343
138	0xc04f8299	-3.242346
139	0x3e2dd2f5	0.16975005
140	0xbf0407b4	-0.51574254
141	0x3e9a9465	0.3019134
142	0x3e5a80d7	0.21338211
143	0xbfb357d0	-1.4011173
144	0xbfb89d08	-1.4422922
145	0x3e8b9ccb	0.2726806
146	0x3e4f9114	0.20270187
147	0xbf946b11	-1.1595174
148	0xbfde75c4	-1.7379689
149	0x3e839a4c	0.25703657
150	0x40256817	2.5844781
151	0x3e9decfc	0.30844867
152	0x3fea1743	1.8288349
153	0x3e8dcfe7	0.2769768
154	0x3e666ed0	0.22503209
155	0xc020160c	-2.5013456
156	0x3e2b952c	0.16756123
157	0x3e8eb027	0.2786877
158	0xbf508cae	-0.8146466
159	0xc03265fc	-2.7874746
160	0x3ed2836c	0.41115892
161	0xbfd39388	-1.6529398
162	0x3e674a3e	0.22586915
163	0xbca996b6	-0.020701747
164	0xbfd3d2a6	-1.654866
165	0x3e39fe2d	0.18163367
166	0x3ea3af1b	0.31969532
167	0x3e8ba686	0.27275485
168	0xbfa9c6a5	-1.3263747
169	0xc005ba23	-2.089486
170	0xc0030663	-2.0472648
171	0xbece4645	-0.40287986
172	0x3e15b30a	0.14619079
173	0xbfc3fea3	-1.5312084
174	0xbf785199	-0.9699951
175	0xbfe5d807	-1.7956551
176	0x3e284638	0.16433036
177	0xc0215253	-2.5206497
178	0xbfa3f1d6	-1.2808177
179	0x3e46eccb	0.19426267
180	0x3ed2afe0	0.41149807
181	0x3e367c64	0.17820889
182	0x3e1d6e62	0.15374139
183	0xbf639953	-0.8890583
184	0xc02178c8	-2.522997
185	0xbf4caa3f	-0.79947275
186	0x3e53b683	0.20675091
187	0x3e598a20	0.21244097
188	0xbf68625a	-0.9077507
189	0xbf22f9df	-0.63662523
190	0x3da1477f	0.07874965
191	0x3bdf9818	0.006823551
192	0x3e83b405	0.25723282
193	0x3e47e99a	0.19522706
194	0xbfaf7c1b	-1.3709749
195	0x3e9d044e	0.30667347
196	0xbf216dfc	-0.6305845
197	0xc00744fb	-2.1135852
198	0xbfaaf9ac	-1.3357444
199	0xbf850ed4	-1.039515
200	0x3ed94b14	0.42440093
201	0x3e2654b8	0.16243255
202	0x3e97788e	0.29584163
203	0x3e25ffa0	0.16210794
204	0xc00a2977	-2.1587808
205	0x3e7ff82a	0.24997011
206	0x3e73d959	0.2381338
207	0xc01cad70	-2.4480858
208	0x3f07d2ce	0.5305604
209	0x3e65e543	0.22450738
210	0xbff2aabe	-1.8958356
211	0xbfc46861	-1.5344354
212	0x3e547d61	0.20750953
213	0xbfbf0714	-1.4924035
214	0xbfc57c3a	-1.5428536
215	0x3e6e76b2	0.23287466
216	0xbf6c09e6	-0.92202604
217	0x3ea3ceae	0.31993622
218	0x3e558460	0.20851278
219	0x3ba9f5b6	0.0051867617
220	0xc009df51	-2.1542552
221	0x3e29b4f7	0.16572939
222	0x3eaeadbf	0.34116933
223	0xbefa9e61	-0.4894896
224	0x3e6defa0	0.23235941
225	0x3e4c6695	0.19961007
226	0xbfe8ae39	-1.8178169
227	0x3d16ec7c	0.036846623
228	0xbf431d78	-0.7621684
229	0x3ead7033	0.33874664
230	0xbfc74e1f	-1.5570716
231	0x3e8eebf3	0.2791439
232	0xbfc1adb2	-1.5131133
233	0xbf36986f	-0.71326345
234	0xbfdd42ca	-1.7286007
235	0x3e488e1c	0.1958546
236	0xbf4e69dc	-0.8063028
237	0x3e389cb0	0.18028522
238	0xbffeee0d	-1.9916397
239	0xbfdc29df	-1.7200278
240	0x3e45ae79	0.19304837
241	0x3fe44b0f	1.7835406
242	0xc020194d	-2.5015442
243	0xc0172602	-2.3616948
244	0x3e363dbd	0.17796989
245	0x3e600688	0.21877491
246	0x3eb19ebb	0.34691414
247	0x3e86a896	0.26300496
248	0x3e5411fe	0.20709988
249	0x3fe603e5	1.7969939
250	0xc00b4230	-2.1759148
251	0xbfb4ff63	-1.4140438
252	0x3e9f8280	0.3115425
253	0xbf233bb6	-0.63762987
254	0xc06612b8	-3.5948925
255	0x3e5f6cc7	0.21818839

l4.weight f4 [256, 32]
0	0x3f798ee4	0.9748366
1	0xbd773406	-0.060352348
2	0x3e423871	0.18966843
3	0x3e0763d5	0.13221677
4	0xbd8a7845	-0.06761221
5	0xbe7d3016	-0.24725375
6	0xbea681ce	-0.32520908
7	0x3f0182ea	0.50590384
8	0x3e0c48d3	0.13699655
9	0xbd178712	-0.036994047
10	0x3be2196a	0.0069000022
11	0x3d15ab82	0.036540516
12	0x3d83a938	0.0642876
13	0x3cfb9180	0.030709028
14	0xbee4689c	-0.4461106
15	0xbf2c095f	-0.672018
16	0xbe59a56d	-0.21254511
17	0xbebc77d1	-0.36810163
18	0xbe2647c6	-0.16238317
19	0xbe0382d4	-0.12842876
20	0x3ead202e	0.33813614
21	0x3a3be8fe	0.00071682024
22	0xbe6383d3	-0.22218256
23	0xbc82eea4	-0.015982933
24	0xbbeafd8a	-0.0071713375
25	0x3df864aa	0.12128575
26	0x3b6a6cf3	0.0035770505
27	0x3b8e32f8	0.004339572
28	0x3d0777a5	0.033073086
29	0xbc15db06	-0.009146458
30	0x3c4d399b	0.012525941
31	0xbb6d1318	-0.003617471
32	0xbdbef117	-0.09323328
33	0xbdfc4330	-0.123175025
34	0x3da9544c	0.082680315
35	0xbe914a7e	-0.28377146
36	0x3dc6654d	0.0968729
37	0x3d899d74	0.06719485
38	0xbf88d307	-1.06894
39	0xbfcff0d9	-1.6245376
40	0xbe66b8da	-0.22531453
41	0xbf3a8bcb	-0.7286956
42	0xbe5675fa	-0.20943442
43	0xbe45f5c8	-0.1933204
44	0x3e81fedf	0.25389764
45	0x3d4f6028	0.05062881
46	0x3ed4128d	0.41420403
47	0x3ea75add	0.3268651
48	0xbe2e45bf	-0.17018794
49	0x3df5ddcf	0.12005197
50	0xbe981274	-0.2970158
51	0x3d064ff3	0.03279109
52	0x3aa7c355	0.0012799302
53	0xbe12e804	-0.1434632
54	0x3e25e424	0.1620031
55	0x3cce7699	0.025203036
56	0x3caa9bf6	0.020826321
57	0xbe8c140c	-0.27359045
58	0xbddc42db	-0.10754939
59	0x3cf1089b	0.029423049
60	0x3d67eb59	0.05662093
61	0xbb9ee070	-0.0048485324
62	0xbdc9ab7b	-0.098471604
63	0xbc968a20	-0.01837641
64	0x3ee3d26a	0.4449647
65	0xbe24083b	-0.16018765
66	0x3e8989ef	0.26863047
67	0x3dd2c66d	0.10291753
68	0x3dbd51f9	0.09244151
69	0xbf668d06	-0.90058935
70	0xbe9b39a8	-0.30317426
71	0x3e077738	0.13229072
72	0x3e6f8639	0.23391046
73	0xbea74e72	-0.32677037
74	0xbe2dae1b	-0.16960947
75	0xbe0613d7	-0.13093506
76	0xbcfb79b6	-0.030697685
77	0x3d41a35f	0.047274943
78	0xbda03129	-0.078218766
79	0x3c217631	0.009854839
80	0x3e371f4b	0.17883031
81	0x3e74fe8c	0.23925227
82	0x3e3d847d	0.18507572
83	0x3d8e050c	0.06934556
84	0x3d3f50bc	0.046707854
85	0xbeddc447	-0.4331381
86	0xbe3b75d3	-0.18306665
87	0xbe06693c	-0.13126081
88	0xbf1f7af1	-0.6229697
89	0xbebbc5bb	-0.36674294
90	0xbd91ad2c	-0.07113108
91	0xbdbf4db4	-0.093409926
92	0xbccec6f1	-0.025241347
93	0x3e192545	0.14955623
94	0x3e06d577	0.13167368
95	0xbda4015c	-0.08008072
96	0xbeb11059	-0.34582785
97	0x3d8aba35	0.067737974
98	0xbe3fc396	-0.18726954
99	0x3f15dff1	0.5854483
100	0x3c8e1f2a	0.017348845
101	0xbebf68f8	-0.37384772
102	0xbe51c719	-0.20486106
103	0xbe0051a4	-0.12531143
104	0x3e81b510	0.25333452
105	0x3ea7758f	0.32706878
106	0xbe79ae5c	-0.24382919
107	0xbe3e4bfc	-0.18583673
108	0x3e4f3ca2	0.20237973
109	0x3e70ac78	0.23503292
110	0x3dd05e63	0.10174253
111	0x3efaedc5	0.4900953
112	0x3dea39a5	0.11436776
113	0x3e605f3e	0.21911332
114	0x3e211de7	0.15734063
115	0x3de4ba97	0.11168402
116	0x3d39740e	0.045276694
117	0x3d7a731d	0.061144937
118	0x3dcce76b	0.10005077
119	0xbe2ccdf4	-0.1687544
120	0xbe3198ec	-0.17343491
121	0x3dbd53a3	0.09244468
122	0x3ddacd1d	0.106836535
123	0xbe0a7425	-0.13520868
124	0x3e2e8b52	0.17045334
125	0x3d49a636	0.049230777
126	0x3dc384e3	0.095468305
127	0xbce2b76b	-0.027675351
128	0xbef7fa95	-0.48433366
129	0xbe1d2666	-0.15346679
130	0x3e93e54e	0.28885883
131	0x3ea03618	0.3129127
132	0x3c30ae9d	0.010783819
133	0xbf6cb47a	-0.92462885
134	0xbef4e719	-0.47832564
135	0x3c8080e1	0.015686454
136	0x3ea5dad0	0.32393503
137	0x3e69b254	0.22821933
138	0xbe225735	-0.1585358
139	0xbe2a6c9a	-0.1664299
140	0x3eb1f2e7	0.34755632
141	0x3e4ff9f2	0.2031019
142	0x3e184829	0.14871277
143	0x3dd49625	0.103802
144	0xbe6adb23	-0.22935157
145	0x3e18e21a	0.14930001
146	0x3ef8e182	0.4860955
147	0x3e55f8d4	0.20895702
148	0x3d66e4a4	0.056370392
149	0x3da4ee76	0.08053295
150	0xbda830fb	-0.08212467
151	0xbda9e456	-0.08295505
152	0x3d9efbaf	0.077628486
153	0xbeaade4f	-0.33372733
154	0x3d0e1517	0.03468808
155	0xbc061e32	-0.00818591
156	0x3ca29d69	0.01985045
157	0x3c22d955	0.009939511
158	0xbe1ed733	-0.1551178
159	0xbc13551b	-0.008992459
160	0xbebfadf4	-0.37437403
161	0x3e0a2bb2	0.13493231
162	0xbe4844c2	-0.19557479
163	0x3dab021e	0.08350013
164	0xbe326be6	-0.17423972
165	0xbe06d937	-0.13168798
166	0xbdba467e	-0.090954766
167	0x3e904911	0.28180745
168	0x3e65142e	0.22370979
169	0x3e9adabd	0.3024501
170	0xbd84713f	-0.064669125
171	0x3e81f783	0.2538415
172	0x3edfd83c	0.4371966
173	0x3d37c137	0.044862
174	0x3ba0dd79	0.004909214
175	0x3e256a07	0.16153727
176	0xbda0db22	-0.07854296
177	0x3e09cb54	0.1345647
178	0x3e8fc692	0.28081185
179	0x3e0e8388	0.13917363
180	0xbe9d3cdf	-0.30710503
181	0xbe856569	-0.26053932
182	0x3d44b688	0.048025638
183	0x3d4aea10	0.049539626
184	0x3ea696c1	0.3253689
185	0xbde1b9e4	-0.11021784
186	0xbd0baf89	-0.03410295
187	0xbb8247ff	-0.0039758678
188	0x3d01036c	0.031497404
189	0x3c95411c	0.018219523
190	0x3c4dc48a	0.012559066
191	0x3cd26ed3	0.02568761
192	0xbe4644ff	-0.19362257
193	0xbe1fa44a	-0.15590015
194	0xbdf04d6e	-0.117335185
195	0xbe871748	-0.2638495
196	0xbe1c2c14	-0.1525119
197	0x3d90c82e	0.07069431
198	0xbe2b61c0	-0.16736507
199	0x3f3e182c	0.74255633
200	0x3ea0b5da	0.31388742
201	0x3e36cab1	0.17850758
202	0x3eb933e7	0.3617241
203	0x3e09cdab	0.13457362
204	0x3c026de2	0.007960768
205	0x3d29a108	0.041413337
206	0xbd89f6c2	-0.067365184
207	0xbee59c96	-0.44846028
208	0x3dd36298	0.1032154
209	0xbe7ddc63	-0.24791102
210	0xbb32fb7f	-0.0027310548
211	0xbd922d5d	-0.071375586
212	0x3ea5683f	0.32306096
213	0xbc5f80ed	-0.013641578
214	0x3da8b07a	0.08236785
215	0xbe00a674	-0.12563497
216	0xbf5932a7	-0.84842914
217	0x3dd6f9ce	0.10496865
218	0x3c693749	0.014234372
219	0xbbaa6077	-0.005199488
220	0x3c4f835f	0.012665599
221	0x3c607904	0.013700727
222	0x3cf2040e	0.029542949
223	0x3cc9c39c	0.024629407
224	0x3e98ab60	0.2981825
225	0xbdf89f58	-0.121397674
226	0xbe36d8e2	-0.17856172
227	0xbea52248	-0.32252717
228	0xbe17d68e	-0.1482794
229	0x3e4e7d9c	0.20165104
230	0xbe8feca6	-0.28110236
231	0x3e141e30	0.1446464
232	0xbe781f0c	-0.24230593
233	0x3d489975	0.048974473
234	0xbe26edbd	-0.16301627
235	0xbdc2ddf3	-0.0951499
236	0xbf06ef2a	-0.52708685
237	0xbe87fecb	-0.2656158
238	0x3eab3918	0.33441997
239	0x3db4c3bb	0.08826395
240	0x3e9bc302	0.30422217
241	0xbd84a4bf	-0.06476735
242	0xbe322fc8	-0.1740104
243	0xbe6934aa	-0.22773996
244	0xba1e1cf7	-0.0006031538
245	0xbefcb10e	-0.49353832
246	0xbd242ce0	-0.04008186
247	0xbd3dd4ae	-0.046345405
248	0x3e5cddec	0.21569031
249	0xbdda4283	-0.10657217
250	0x38266e64	3.9680293e-05
251	0x3d291183	0.041276466
252	0xbeb3c816	-0.3511359
253	0xbd3be9be	-0.04587721
254	0x3dba1218	0.09085482
255	0xbd46bef5	-0.048521955

l4.bias f4 [256]
0	0x3dacae05	0.08431629
1	0x3d7ee3ed	0.062229086
2	0x3e8948cc	0.26813352
3	0xbd829c0e	-0.06377421
4	0x3e422c8d	0.18962307
5	0xbebcb7f1	-0.36859086
6	0xbd189132	-0.037247844
7	0xbe704d27	-0.23466931
8	0xbdee5116	-0.1163656
9	0xbe2253c1	-0.15852262
10	0xbe1a0292	-0.15040043
11	0xbe80e18c	-0.2517208
12	0xbe96b30d	-0.2943348
13	0xbd209e92	-0.039213724
14	0x3d738a98	0.059458345
15	0x3e18479d	0.14871068
16	0xbd13d259	-0.036089275
17	0x3ea576a5	0.3231708
18	0x3df0b496	0.11753194
19	0xbda971b0	-0.08273637
20	0x3c8eff9b	0.017455867
21	0xbd5cbe69	-0.053892527
22	0x3d90c645	0.07069067
23	0xbe533755	-0.20626576
24	0x3e7debb3	0.24796943
25	0xbe0633fa	-0.13105765
26	0xbe96396d	-0.29340687
27	0x3ea6e54a	0.3259681
28	0x3e87afb1	0.2650123
29	0x3d8f66f6	0.0700206
30	0x3d568205	0.05237009
31	0x3e1b804b	0.15185659
32	0x3c60804a	0.0137024615
33	0xbdfda93c	-0.123857945
34	0x3e68e097	0.22741924
35	0xbe04d31e	-0.1297116
36	0x3e9232fb	0.2855452
37	0xbe89cbd1	-0.26913312
38	0x3e4a9395	0.1978286
39	0x3d60f231	0.05491847
40	0xbd577751	-0.052604023
41	0x3e09c6da	0.13454762
42	0xbe727570	-0.23677611
43	0x3e4cfdd0	0.20018697
44	0x3e92f1e5	0.28700176
45	0x3e8f0b91	0.27938512
46	0x3d276e5f	0.040876742
47	0x3dd09afc	0.10185811
48	0xbdf8cf4d	-0.121489145
49	0xbd6cd913	-0.057824206
50	0xbccdf669	-0.025141912
51	0xbf0f59f2	-0.5599662
52	0x3d88db18	0.06682414
53	0x3d660876	0.056160413
54	0x3e5fc3c3	0.21852021
55	0x3d829f69	0.06378061
56	0xbe6aacd2	-0.22917488
57	0xbdd7b6ea	-0.10532935
58	0xbc3ba947	-0.011453933
59	0x3ea09c53	0.31369266
60	0xbe12a121	-0.14319278
61	0x3dc6ca87	0.09706598
62	0xbec45e31	-0.38353112
63	0x3ce0bb4a	0.027433056
64	0xbe2ade95	-0.16686471
65	0xbccdee55	-0.02513806
66	0x3e687835	0.22702105
67	0x3e6c50fb	0.23077767
68	0xbdf5ada7	-0.11996012
69	0x3e5e867d	0.2173099
70	0x3eac1424	0.33609116
71	0x3dfcdae4	0.123464376
72	0xbec67528	-0.38761258
73	0x3d3700bc	0.044678435
74	0xbd8c53e3	-0.068519376
75	0x3def4cda	0.1168458
76	0xbdcd2792	-0.10017313
77	0x3ec6b041	0.38806346
78	0x3c80a8a3	0.015705412
79	0xbc0971cc	-0.008388948
80	0x3d86bec6	0.06579356
81	0x3e498448	0.19679368
82	0x3d4b086e	0.049568586
83	0xbab4c5ec	-0.0013791895
84	0xbe3b7a6e	-0.18308422
85	0xbd2d04cf	-0.042240914
86	0x3e2918cb	0.16513364
87	0x3d327421	0.04356778
88	0x3e207959	0.1567129
89	0xbda951da	-0.08267565
90	0x3e90a756	0.28252667
91	0x3e335d22	0.17515996
92	0x3e121ffb	0.14270012
93	0x3da327e3	0.07966592
94	0xbe4bb314	-0.19892532
95	0xbd9eee98	-0.07760352
96	0xbee5082b	-0.44732794
97	0x3cd9da01	0.02659321
98	0x3cea96cd	0.02863636
99	0xbe142e83	-0.14470868
100	0xbea8c5cc	-0.32963407
101	0x3ea2ed82	0.3182183
102	0x3e4d9f38	0.20080268
103	0xbdd16775	-0.10224811
104	0x3de71c4b	0.11284693
105	0xbe400509	-0.18751921
106	0x3e4baaba	0.19889346
107	0xbd2098b5	-0.039208133
108	0xbe02be65	-0.12767942
109	0x3e2a724d	0.16645165
110	0x3e1bddc9	0.15221323
111	0x3e04eb93	0.1298049
112	0x3d7909e1	0.060800437
113	0xbd06b392	-0.032886095
114	0x3e8634a3	0.26212034
115	0x3d375fc4	0.044769064
116	0x3cdf1937	0.027233703
117	0x3e616fe2	0.22015336
118	0xbe65aaa6	-0.22428378
119	0x3d37792c	0.044793293
120	0xbe88f067	-0.26745912
121	0xbe80513c	-0.25061977
122	0x3e31b161	0.17352821
123	0xbe839222	-0.25697428
124	0x3ecb7740	0.39739418
125	0x3e693691	0.22774722
126	0x3d9a02fc	0.075201005
127	0x3dc86bc8	0.09786183
128	0x3d783916	0.060601316
129	0xbe2137a4	-0.15743881
130	0xbe205742	-0.15658286
131	0xbe9b337c	-0.30312717
132	0xbc675f4a	-0.01412184
133	0xbb805220	-0.00391604
134	0x3d376578	0.044774503
135	0xbe4920e1	-0.19641449
136	0xbb0234d3	-0.0019867911
137	0x3e4975ea	0.19673887
138	0x3e0b5891	0.13608004
139	0xbd9b7562	-0.07590748
140	0x3e11eb89	0.14250006
141	0x3dd0756a	0.10178645
142	0xbd453495	-0.04814585
143	0xbd8f8a4b	-0.07008799
144	0x3ea05ce2	0.31320864
145	0xbdd34537	-0.10315936
146	0xbe10e685	-0.14150436
147	0xbe5d57a9	-0.21615471
148	0x3e14fb38	0.14548957
149	0xbd95ba1b	-0.073108874
150	0x3e6cc5f8	0.23122394
151	0x3e55f60b	0.20894639
152	0x3dd963e2	0.10614754
153	0xbcf41ea7	-0.029799772
154	0xbdd112a1	-0.10208631
155	0xbe1ba53c	-0.1519975
156	0x3e1b9c5b	0.15196364
157	0xbdcbd8e1	-0.09953476
158	0xbec7f579	-0.39054468
159	0x3d3440a9	0.044006977
160	0x3e782467	0.24232636
161	0x3d900506	0.07032208
162	0xbd83b08a	-0.064301565
163	0x3e543644	0.20723826
164	0x3e695172	0.22784975
165	0xbdaab8d8	-0.083360374
166	0x3da39cd3	0.07988896
167	0x3dd32ee9	0.10311682
168	0x3e8aab92	0.27084023
169	0x3e338083	0.17529492
170	0x3eae8e5f	0.34092996
171	0x3e1d3040	0.15350437
172	0xbe5c4b7f	-0.21513174
173	0x3e990519	0.29886702
174	0xbe137f97	-0.1440414
175	0xbd9ad66f	-0.07560431
176	0x3d9e5cd6	0.07732551
177	0x3e170c29	0.14750732
178	0xbd7959ba	-0.060876586
179	0x3c566a51	0.013086871
180	0x3e9a6265	0.30153194
181	0x3dfecaa8	0.12440997
182	0x3e6d1bec	0.23155183
183	0xbd3ff6e1	-0.0468663
184	0x3e6d5f51	0.23180892
185	0xbda7f41c	-0.08200857
186	0x3e5be3e4	0.21473652
187	0xbc1efcff	-0.009703874
188	0x3dd7b0fe	0.105318055
189	0x3ad9be26	0.0016612455
190	0xbcd9ecd8	-0.026602194
191	0xbe8af9f3	-0.2714382
192	0x3cd63155	0.02614657
193	0x3e1a80ab	0.15088145
194	0xbdfa299d	-0.12214968
195	0x3e981054	0.29699957
196	0x3e16e8d8	0.1473726
197	0x3eb9c177	0.36280414
198	0xbd170332	-0.03686828
199	0xbe81ff7e	-0.25390238
200	0xbd426a97	-0.047464933
201	0xbd49df71	-0.049285356
202	0xbe46b3e5	-0.19404562
203	0xbe57b91f	-0.21066712
204	0xbe893bb9	-0.26803377
205	0x3e3ad73f	0.18246172
206	0x3e403f2d	0.187741
207	0xbd5bc221	-0.053651933
208	0xbd93bece	-0.072141275
209	0x3e9f0bab	0.3106359
210	0x3ebea99a	0.3723877
211	0xbd8679d1	-0.065662034
212	0x3c508373	0.012726652
213	0xbe498762	-0.1968055
214	0x3e1ae107	0.15124904
215	0x3e49a1d9	0.19690646
216	0x3e356a59	0.1771635
217	0x3e4c67e1	0.19961502
218	0xbd1f2963	-0.03885783
219	0x3e37d07c	0.17950624
220	0xbe616f77	-0.22015177
221	0xbe05fc11	-0.13084437
222	0x3e73c2cb	0.23804776
223	0xbd6b6972	-0.057473607
224	0xbd3fb6c7	-0.04680517
225	0x3e07a9db	0.13248388
226	0xbe4d6bf8	-0.20060718
227	0x3e7c2284	0.24622542
228	0xbe86491c	-0.26227653
229	0x3d6e478d	0.058173705
230	0x3e0e1a55	0.13877232
231	0xbcb6492a	-0.022251684
232	0xbe94931a	-0.2901848
233	0x3d37a465	0.044834513
234	0x3e414036	0.18872151
235	0x3caa3d7c	0.020781271
236	0xbc4cc455	-0.012497981
237	0xbd07df3a	-0.03317187
238	0x3e3d3da1	0.18480541
239	0x3d883693	0.06651034
240	0x3e2c8e67	0.16851197
241	0xbc8e4356	-0.017366093
242	0x3dba6bb4	0.09102574
243	0xbe8e9d56	-0.27854413
244	0x3e88f8ae	0.26752228
245	0xbdc22926	-0.09480505
246	0xbe329fb9	-0.17443742
247	0x3e8ad112	0.27112633
248	0x3eaeb73a	0.34124166
249	0x3edb319c	0.42811286
250	0xbd31b681	-0.04338694
251	0xbe47bad3	-0.19504862
252	0x3e4a4997	0.19754635
253	0x3e06d180	0.13165855
254	0xbea51916	-0.32245702
255	0xbdbc26b4	-0.091870695
