p2/1HalfCheetahBulletEnv-v0_TD3_BC_5678_1638624214_td3_bc.pth (torch, 898825 bytes, 16 tensors)

l1.weight f4 [256, 32]
00000000: eb2f 96be 9cc8 b7bd 6c61 7a3e 3d81 b03e
00000010: f6ed 14bc 6592 5cbe b50f 613e 08ec d8ba
00000020: 3fdd 9ebb 5ef8 e2bd a5da 91bc 45f7 953c
00000030: 719a 18bf 3bfa 7fbe 442f 763e 5ebe 81bd
00000040: 30b7 77bd 739a 67bd 9f17 2ebd d3cc 7cbd
00000050: aa86 9f3d ecb6 09bf 8c78 adbe f6ac b2bd
00000060: 9721 6dbf 2e14 4c3e c95c f5bb 6c2c 343b
00000070: 1d0c 82bc 8353 033d 4329 f73a 34d3 bd3c
00000080: aed0 dd3e c835 e6bd 5703 8a3e 3e84 433d
00000090: eb0f 263e c94f 8ebd 517b 58be 669a 4dbe
000000a0: 4111 f4bd 25fd 8abe 6e23 58be a985 a1be
000000b0: 5a6c 06bd d893 56bc b046 8cbd 7f80 953c
000000c0: a343 7f3d 9c60 3abc 562e 4cbe a28a b5bc
000000d0: 0c2e 4d3e a163 40bd 1dfc 583d 4c63 6f3c
000000e0: 13aa 8fbd df46 f03c 7a33 343e 468f 2ebe
000000f0: b829 06bc e435 0dbe 1658 db3d 44d5 183d
00000100: f47a 863e ef6d 243e 0801 08be 894b f0be
00000110: 6d93 a53c 4d69 80be 70a3 2dbf fe05 69bf
00000120: b47e 13bf 5bd8 92bd c9e1 d5be f38c 873d
00000130: 99ad 5fbe 5c81 a1bd 70b2 0a3e 960b 7e3e
00000140: e9a4 2e3d fc0f 573b ac04 71be 78f2 13be
00000150: 98c0 bdbc bfc4 57bd 0a35 8b3e 80f7 573e
00000160: 1d3a ab3e c737 a9be 9cb1 b33c b9f6 7cbc
00000170: 6a4e 573c b35b c83c 2ee9 2c3c 470b 29bd
00000180: 870e 033d 6e5d fcbc 45ff 08be 1126 dabe
00000190: 919d 8c3d 0b90 c9be ca92 353d 3b9a 193f
000001a0: b320 f3bd 611f 123f 4d68 7a3e 827a 363d
000001b0: d84b 14bf db2a 9dbe 1cec 98bd 0111 ac3d
000001c0: 09a1 163e 57a2 c23d 9c1e 503e 814c 163e
000001d0: 8a99 663d 3df6 1dbe 78c2 5dbd 84d8 173d
000001e0: d484 0c3d 7e40 c7be d84a e93d fff3 d83c
000001f0: 657c 9dbe edef 863d 16eb 0a3d cae1 133d
00000200: e09c b43d 3a6b 113e 39fe 983d c121 9fbd
00000210: e7ba e23d 5536 633f b16d 94be 9e39 d43e
00000220: a30f 533e 3302 aa3e 1083 86be 0e5c 3b3e
00000230: 74bc 383e 73dd c0bc 8f16 843e aa26 b83e
00000240: 916f 6fbf a4f7 25be cad3 c7bd 1538 f1bd
00000250: 5d7e ebbd 93e7 81bd 8072 08be 2bc0 1bbe
00000260: 9ad1 85be 9d6e 5e3e 9042 c4bd 6518 8a3e
00000270: 9e19 bb3d 541e 023e c532 b4bd d119 8fbc
00000280: e35f 11bf 2193 02be 6370 d1bd c7fa 963d
00000290: 3ebf 9bbd 12f2 b4be 5ce1 523e f546 983e
000002a0: 14ae 1e3e d9cf dbbe 2b35 d43e c48a 0ebf
000002b0: d60c a33d 7042 f43d e6c0 593e cbb6 8abe
000002c0: ce78 a3be 0a9d 6dbe 92b4 693e 389b b9bd
000002d0: fdca 1cbd eef2 3c3e 3f02 143e e530 a53e
000002e0: 450c 51be d794 033e 8338 94bc 76d2 c2bd
000002f0: b9ac a1bd deb8 0b3c 5fd5 2d3b fe6f 2f3e
00000300: e3f5 1c3d 7f00 0abe c405 4a3e d31d 3b3f
00000310: 035e cabd 12fb 043f e24b b63e f7d5 0cbe
00000320: 9377 a73e 8038 b1bf d7c7 913b 8191 25bf
00000330: 8594 1f3e 3e19 8a3e 4f5a c33e 3bbe aa3d
00000340: 9e2a d9be 41a7 c23c ae7f 9dbe c93d 73bd
00000350: 36ca 02bc 9642 58be cf92 24be 9d56 f63d
00000360: 23ca 90bc 4e09 8c3e 2cf9 67bd bde4 4bbc
00000370: 351c 293c 2399 afbc 4ac6 79bd 4bc0 ebb9
00000380: bc08 273f 0e16 c1bd a22b 7a3e 94f8 7c3e
00000390: 1d06 ac3d d289 373e 94a5 b0be 7dd7 a6be
000003a0: d7a0 8b3e d690 123e c27f ee3e 1209 c23d
000003b0: 5119 863e 20fd b23d bb61 b23e 3e76 74be
000003c0: bb53 56bf 4107 68be 7ad2 903d 49db 25bc
000003d0: 9220 003d 5547 cbbd 282c 9abe 7a20 ab3d
000003e0: 29a8 0abe c250 883d 564c 383c c7b6 33bd
000003f0: 60a4 d8bc f2bf 7b3c 3676 90bd 353a e33c
-0.29333434 -0.0897381 0.24451226 0.344736 -0.009089937 -0.2154022 0.21978648 -0.0016549835
-0.004848152 -0.110825285 -0.017804453 0.018306384 -0.5961066 -0.24997799 0.24041468 -0.06335138
-0.060477436 -0.05654378 -0.042502996 -0.061718773 0.07789357 -0.5379474 -0.33881032 -0.08724396
-0.9262938 0.19929573 -0.0074878675 0.0027492298 -0.015874917 0.032062065 0.0018856901 0.023171999
0.43323272 -0.11240727 0.26955673 0.047733538 0.1621701 -0.069488116 -0.21140791 -0.2007843
-0.119173534 -0.2714626 -0.21107265 -0.31547287 -0.032818176 -0.013096772 -0.0684942 0.018249748
0.062320363 -0.0113755725 -0.19939551 -0.022160832 0.20037097 -0.046970014 0.05297481 0.014611077
-0.07014861 0.029330669 0.17597762 -0.17046842 -0.008188657 -0.13790089 0.107101604 0.03731276
0.2626568 0.16057561 -0.13281643 -0.4693263 0.0202119 -0.25080338 -0.6782751 -0.9102477
-0.5761521 -0.07170173 -0.41773823 0.06618681 -0.21843566 -0.078860015 0.13544631 0.24809107
0.04263774 0.0032815924 -0.23536938 -0.14447963 -0.023163125 -0.052677866 0.27188903 0.21090508
0.33442774 -0.33050367 0.021935277 -0.015439683 0.013141254 0.024457788 0.010553641 -0.04127052
0.031996276 -0.03080627 -0.13378628 -0.42607167 0.06865991 -0.3936771 0.044329442 0.6000096
-0.11871471 0.5707913 0.2445385 0.044550426 -0.5792823 -0.3069676 -0.07466909 0.08401681
0.14709868 0.0950362 0.20324177 0.14677621 0.05629877 -0.15425964 -0.054140538 0.03707172
0.034306362 -0.3891639 0.113912284 0.026483534 -0.30758968 0.06588731 0.0339156 0.036104
0.08818984 0.1420106 0.07470364 -0.0777011 0.11070805 0.8875478 -0.28989938 0.41450208
0.20611434 0.33204803 -0.26271868 0.18296835 0.18040639 -0.023543095 0.2579846 0.35966998
-0.9352961 -0.16207749 -0.097571924 -0.11778275 -0.11498711 -0.063429974 -0.13324928 -0.15210025
-0.26136476 0.21721883 -0.09583008 0.26971737 0.091357455 0.12706882 -0.08798746 -0.017468365
-0.56786937 -0.12751438 -0.10226514 0.07372051 -0.07604836 -0.35340935 0.2059378 0.29741636
0.15496093 -0.42932013 0.41446814 -0.5568049 0.07961433 0.119267344 0.21264991 -0.27092585
-0.31928104 -0.23204437 0.22822788 -0.09062809 -0.038279522 0.18452045 0.14453982 0.32263866
-0.20414837 0.12849747 -0.018093353 -0.095127985 -0.07894272 0.0085279625 0.0026524884 0.17132565
0.038320433 -0.13476752 0.19728762 0.73092383 -0.098812126 0.519456 0.3560477 -0.13753496
0.32708415 -1.3845367 0.0044488716 -0.64675146 0.15584 0.26972383 0.38154837 0.08337065
-0.42415327 0.023761394 -0.30761474 -0.059385095 -0.007982781 -0.2111915 -0.16071628 0.12028239
-0.017674511 0.2735085 -0.056634113 -0.012444672 0.0103216665 -0.021435326 -0.06098012 -0.00044965962
0.652477 -0.09428035 0.24430707 0.247042 0.083996035 0.17923668 -0.34501326 -0.3258628
0.2727115 0.14313063 0.46581846 0.09474386 0.2619119 0.08739686 0.34840187 -0.23873231
-0.8372151 -0.22659017 0.07071395 -0.010123082 0.03128106 -0.09925715 -0.30111814 0.08355804
-0.1354071 0.06656028 0.011248669 -0.043875482 -0.026445568 0.015365588 -0.07053797 0.027737716

l1.bias f4 [256]
00000000: cb66 0d3e 88a2 0d3e 6193 d4bd 56f3 8dbe
00000010: 34f3 2dbd 0a4d 69be 243a bfbd 44a0 343e
00000020: 502e 153d eb5d e73b 376c f7bd 07bd 9d3d
00000030: 9e57 b1bd 8378 6b3c b652 07be d246 813e
00000040: d25a a83a df70 41be 31a5 2d3e 8700 fabd
00000050: 78a6 543e 5f34 033e 620b 50bd 0ee5 4e3e
00000060: b88f d3be dd97 563e 9c30 723e 5828 cabd
00000070: ce5e 4c3e f922 a6bd 7a08 553d f73b b2bd
00000080: 6067 883e 913c 05bf 8576 953c f8d7 573d
00000090: afa7 7c3e 55d0 c5bd e2cc 15be 1d54 173e
000000a0: 2efd 17be 57c6 283e d300 473e 0535 113e
000000b0: d6bc 63be dda8 c83c b60b aabd b0ae 383e
000000c0: 6589 873e de48 c5bb 7ae7 653d 4357 d4bd
000000d0: 9863 adbd 1b7f 7bbe a062 9e3e 52cf e1bd
000000e0: 9fba e7bd fdcb 1a3e 2877 553e 155e fabd
000000f0: a2ec 8d3d 9bcb 12be fe19 b7be a6b4 b53d
00000100: 2937 523d af0e 253e 4514 f7bd a127 77bd
00000110: 9cc4 863e b28f 273e 15dc 9c3e 60b1 063d
00000120: 9849 ed3c 1b48 5a3e d607 9abb bac3 013e
00000130: 0fca e93d 1b14 673e 6fc6 213d ba07 64be
00000140: 54ff 8fbc 8f86 9fbd 02d1 06be b9aa 8a3e
00000150: 3913 ce3e 56c4 efbc 70c6 43bd d0bd 9dbd
00000160: ec3c 30be a22d 8fbd 96b2 bb3e 4d6e e83d
00000170: 8577 8f3e fb3c 39be 3ad9 c43d 091f b6bd
00000180: ace1 55be 6a17 7f3d f2a2 ebbc 2be8 493c
00000190: e0f2 283e 2644 7abb 007d 9ebe cc54 bf3d
000001a0: 9b1e 3d3c 9af0 01be 1feb 3c3e 0c33 b93d
000001b0: 7d2e 823e 81eb 99bd 56a5 28be 314f 583d
000001c0: d81b 77be a597 673e ad9c 2e3d d30d 783e
000001d0: fa1e 2abe 054a 2dbd a5ab 53be f140 3b3e
000001e0: bc63 87be f25b 583e 6d15 efbd e045 a7be
000001f0: 3f72 d1be e1cd e23c 6e7f 933d ff73 2dbd
00000200: b9ad f63d 44c8 a23d ab73 9dbe 3b61 93bd
00000210: 81ce f9bb 505a 8f3e 235e 95be 83bc 6dbe
00000220: 74e4 02be a502 82bd c9d9 76be 3149 f5bd
00000230: 1315 963e 7e71 06bf 4fed c4bd 444e 713e
00000240: cba6 053e bdd3 f53d 18cf 73be 2220 b0bd
00000250: 6ec3 cabe 3e4c 2c3e 5a64 9e3c cdeb abbd
00000260: 8286 7639 0e5a 2c3e 3751 6bbc 6d0a 1d3d
00000270: b642 503e 0386 19be c296 71be 528f 263d
00000280: 9f5e 8a3e b049 ef3d 423a 9abe 7c71 b6be
00000290: 69b6 2d3e 7473 113e 22cc 47be 0a3b 34be
000002a0: a85b c1be 0067 903d 0b9a 36bd a8e6 0fbe
000002b0: d592 413e 6f21 5f3d edbe a2bd 72bb 993e
000002c0: 3db0 cabd c0bf 38be 3e73 443e 35d0 48be
000002d0: 92f1 0a3e 88b9 8bbb f6e0 4fbd 8c6f 0b3e
000002e0: 015c 24bc d293 9abd 3446 41be 645e 9e3e
000002f0: 782b f03d e426 403e 8b43 ab3d 4f0c ac3e
00000300: 16d7 aa3e 752e b9be 5e89 bc3d 7d39 c63d
00000310: fbed 8abc 5c34 9b3e c437 0abc 4fd9 8b3e
00000320: 68a1 c43d bf0b 983e 71a5 e03d ae84 08bd
00000330: 8812 97be 74dc 883e f205 603e 8523 003d
00000340: fca5 f03d cce0 34bb ed2f 9f3d fd12 043d
00000350: 7ce5 ae3e 0202 b7be 50e4 fdbd 6e35 b03b
00000360: 0413 5a3e e43e 4b3e 2507 923e f630 753e
00000370: df97 cd3e 4d4b 7c3e e6c7 123a 233c c8bd
00000380: faea 0abe 2828 50bd de75 913d 1826 4a3c
00000390: 4b7e ed3d 8ac4 85bc 702d ad3d 09eb 16be
000003a0: 824a 423e 5dd4 c63d 5e37 a2bd dc99 d13d
000003b0: 36ca 8b3e 0ecc 3abe bd7e 91bd ab76 d03e
000003c0: 4c86 023e ff73 063e 6e8a a63e 677f dd3a
000003d0: cf01 8dbe 44fc 023d 43ee 8cbc 86eb 083d
000003e0: 2463 703e 02a3 253d 7ecc 243e 1e5b 6bbe
000003f0: 8aaf 603e 652a 67be 206b 9b3e eb96 623e
0.13808744 0.13831532 -0.10379673 -0.27724713 -0.042468265 -0.22783294 -0.09337261 0.17639261
0.03642112 0.0070607564 -0.12081187 0.0770207 -0.0865929 0.014371994 -0.13215145 0.25249344
0.0012844449 -0.18890713 0.16957547 -0.12207132 0.20766628 0.12812947 -0.050792105 0.20204565
-0.41320586 0.20956369 0.23651356 -0.09870976 0.1995804 -0.08112139 0.052010037 -0.08702844
0.2664137 -0.5204554 0.018244991 0.0526962 0.24673341 -0.09658877 -0.14628938 0.1477818
-0.14842674 0.1648191 0.19433908 0.14180382 -0.22240004 0.024494583 -0.08303015 0.18035388
0.2647201 -0.0060206493 0.056128956 -0.10368206 -0.084662616 -0.24560206 0.3093462 -0.11025871
-0.11314892 0.15116878 0.20846236 -0.12224976 0.069299 -0.14335482 -0.35762018 0.088723466
0.051322136 0.16118883 -0.12064413 -0.060340527 0.26321876 0.16363409 0.3063666 0.032884
0.028965756 0.21316569 -0.004700641 0.1267232 0.11415493 0.22566263 0.03949588 -0.22268572
-0.017577805 -0.07789337 -0.13165668 0.27083376 0.4024904 -0.029268425 -0.047796667 -0.077022195
-0.1721074 -0.06991126 0.36659688 0.11349163 0.28020874 -0.18089668 0.09611745 -0.08892638
-0.20886868 0.06227819 -0.028764222 0.01232342 0.164989 -0.0038187592 -0.30954742 0.093423456
0.011542941 -0.12689438 0.18449067 0.090429395 0.25426093 -0.07515622 -0.1646932 0.052809898
-0.24131715 0.22616442 0.042629886 0.24224024 -0.16613379 -0.04230692 -0.20670946 0.18286492
-0.2644328 0.21128824 -0.116740085 -0.32670498 -0.40907475 0.027686061 0.0720204 -0.04234695
0.12044854 0.07948354 -0.3075231 -0.071962796 -0.007623494 0.2799859 -0.29173383 -0.23216443
-0.1278246 -0.06348161 -0.24106516 -0.11976851 0.29312953 -0.52516925 -0.096155755 0.23565012
0.13051908 0.120032765 -0.23809469 -0.08599879 -0.39602226 0.16825959 0.01933496 -0.08394585
0.00023510496 0.16831228 -0.014362625 0.03834002 0.20337948 -0.14992528 -0.23592666 0.040664025
0.27025315 0.11683977 -0.30122572 -0.35633457 0.16964115 0.14204198 -0.19511464 -0.17600647
-0.3776524 0.07050896 -0.0445805 -0.14052832 0.18903668 0.054475244 -0.079465725 0.30025822
-0.09896896 -0.18041897 0.19184586 -0.19610675 0.13568714 -0.0042640604 -0.05075165 0.1361677
-0.010031701 -0.07547726 -0.18874437 0.3093139 0.11727041 0.18764836 0.08362492 0.3360314
0.33367223 -0.36168256 0.09205888 0.09678934 -0.016959181 0.30313385 -0.008436147 0.2731423
0.09601098 0.29696462 0.109690554 -0.03332966 -0.29506326 0.26730692 0.21877268 0.031283874
0.11750409 -0.002759981 0.07772813 0.03224467 0.34159458 -0.3574372 -0.12397063 0.005377463
0.21296316 0.1984821 0.28521076 0.23944458 0.4015493 0.246381 0.0005599245 -0.09777095
-0.13566199 -0.050819546 0.071025595 0.012338184 0.11596354 -0.016329069 0.08455932 -0.14738096
0.18973735 0.09708474 -0.07920717 0.102344245 0.27302712 -0.18241903 -0.071042515 0.40715536
0.12746543 0.13130186 0.32527488 0.0016898931 -0.27540442 0.03197886 -0.017203456 0.033427738
0.23475319 0.04043866 0.16093633 -0.22983977 0.21941963 -0.22574766 0.30355167 0.22127883

l2.weight f4 [256, 256]
00000000: 93d5 783e 311e 023e d76f c53d 8040 3a3e
00000010: 6e7b 313e 9760 623e 9279 c33d f424 a23e
00000020: ee43 b83d 8c8f 113e 2b84 c93e a8a0 873e
00000030: 2a4b 953e 5e8d 4e3d 3dad b03d 0562 c03d
00000040: f1df 253e 57c1 eb3a b10d 053e 9213 c13d
00000050: 6a42 573e 77a0 ad3d 5c6a 7a3d 8228 953e
00000060: 664f bc3e 5d0d 243e 8613 d13d a113 463e
00000070: 3cd8 243e 3961 453e b8b8 1f3e a7d9 2d3e
00000080: 61c9 4f3e 20ad 95bd 0f4c 3b3e 0a94 a43d
00000090: 78cc 6d3e fc38 023e 3629 91be c4b8 b93d
000000a0: 70b7 553e 163d 143e e531 1c3e 239d ec3d
000000b0: 4c83 01bd 1de4 b73d 9e98 d93c 1518 a53d
000000c0: e279 4e3e cc25 053e 2293 db3d b88a 203e
000000d0: c2be bf3d d35f de3d 18f0 d43d cb5d 88bd
000000e0: 7478 a53d fef8 d33d 9ab4 023e b6a0 433e
000000f0: 40bb a63d 8bf1 f33d 17d7 a53d fef0 d33e
00000100: da3a fa3d 214e be3d 90d5 5b3e 0fe5 073e
00000110: f2c1 213e f3fa c23b d6c5 e43d 7483 723e
00000120: bd65 783e 20ea 243e 7027 bc3d 29b7 443e
00000130: 588c 733e 1e2c 8b3e 88fb 3bbc bc66 753e
00000140: 9a74 853d 796c 06be f328 c73d 35b6 703d
00000150: 6c8c cf3e fa06 0b3e 6d79 043e 4f24 ab3c
00000160: 2375 6abc 947f 133e 9f2b fe3d d1d0 ef3c
00000170: 5451 093e 323d 803e 0fb2 353e 3aee 393e
00000180: 7cc4 823e 1f4c 183a 5223 143e 3969 3a3e
00000190: ff66 cb3d efa3 5e3e 8244 713c d95f 0d3e
000001a0: 8236 8b3d d13e fd3c 3c6a ae3d bd72 0c3e
000001b0: 8aa7 bf3d 7cc4 6a3d eb76 2c3e e210 1ebc
000001c0: 9c95 fb3d 244c c33e 2a4f 273e d7c7 ac3c
000001d0: 790e e73c 9b85 f53d 2e09 8c3e 5322 df3d
000001e0: d804 213e 6e8c 913d 9de9 9fbd 1048 0c3f
000001f0: 6135 5d3e 882e c83c 564e f83c 6f05 64bd
00000200: 79b5 9e3d 188d 4e3e 9270 223d 4661 373d
00000210: 42d0 183e d18c 5b3e c762 633e a724 c63d
00000220: b925 7c3e 70a4 e33d 2f91 b73d f205 ba3d
00000230: 9748 593e 0688 343d 3b10 583d b114 9d3d
00000240: c92c 003e 843d aa3d f5aa 593f 51f4 fb3d
00000250: 51c9 8d3d 1724 e13d 1e46 193e 0c07 383e
00000260: 07da d23d f6be 683e e52a f43d f9a0 893e
00000270: 202a 533e be38 353e 182e 47be 6c6a 023d
00000280: 846b 6e3e a153 c7bc 06e5 2f3e 3f56 863d
00000290: f10a 243e 4a3f 553e 646a 3d3e 62a5 c63d
000002a0: e1f3 8f3d c693 483d a393 d43d 5e4e 773e
000002b0: cd1d 5b3e f0c8 903d b7a7 d33d e3fc 693e
000002c0: f99a 513e abc6 9b3d c29e 8e3d a67a f93d
000002d0: 57ff ec3d 0491 c03d b295 a03c 7cdb 033e
000002e0: 7ec2 9b3e 5798 ac3d 671d 89bd 0ae7 d3ba
000002f0: 6d0e 3ebc a69d e93d ec85 7b3e 05f5 8e3e
00000300: 66ee 573e 88f6 8d3e 3e27 b13d ead7 0b3e
00000310: dd03 7d3e d1c6 243e 287e 113e a2e5 f43d
00000320: 923d 0b3e 1f71 863d d793 a33e e123 5d3e
00000330: b5a9 1d3e bc35 4a3e b7a4 6f3e dc95 d83d
00000340: a4c2 3f3d 3485 7f3e b82a c13d b880 de3d
00000350: f1ff 2f3e 47d9 4e3e 29b7 d43d b587 ca3d
00000360: f11e 553e 8bef 8ebd 9ffd 51bd fa51 9a3e
00000370: aa07 553e 82c4 1c3e 37cf 343e b8f2 2abe
00000380: 1faf fb3d 6f39 8c3d c3d5 d73d b22a 8a3d
00000390: e9f7 993d e2f4 97bb a344 2b3e 918f c53b
000003a0: 090e 163e bcaf d93d c760 ae3e 0941 663d
000003b0: 33bb 753e 7ad3 a03d b370 273e f243 353e
000003c0: ec7b 673e 107f 783e 90e7 ac3c 00df 063e
000003d0: 9908 253d fc0a 093e 700a b33e aa6f 3c3d
000003e0: 5632 913d b9d2 aa3d 6ea5 323e a139 223e
000003f0: 1473 1f3e 6315 c63d 6248 663e b6bd 293e
0.24300222 0.1270683 0.096404724 0.18188667 0.17332241 0.22107159 0.09544672 0.31668818
0.089973316 0.14214915 0.3935865 0.26489758 0.29158908 0.050427787 0.086267926 0.09393696
0.16198708 0.0017986697 0.12993504 0.09427561 0.21021429 0.08477872 0.06113659 0.29132468
0.36779326 0.16020723 0.10208802 0.19343425 0.16098112 0.19275369 0.15597808 0.16977559
0.20291664 -0.073084116 0.18290733 0.08036049 0.2322253 0.1271705 -0.28351754 0.09068444
0.20870757 0.14476427 0.15253408 0.11553409 -0.031619355 0.08979056 0.026562031 0.08061234
0.20163682 0.130027 0.10721423 0.15677917 0.09362556 0.10858121 0.10397357 -0.066585146
0.08079615 0.10350226 0.12764207 0.19104275 0.08141184 0.11911305 0.08097666 0.413948
0.12218256 0.09292246 0.21468186 0.13270973 0.1579664 0.0059503256 0.11170547 0.23682958
0.2425756 0.16104937 0.091872096 0.19210495 0.23784006 0.27182096 -0.011473544 0.23964971
0.065163806 -0.13127317 0.09724607 0.058767516 0.4053682 0.1357688 0.12936945 0.020891337
-0.014310154 0.14404136 0.12410664 0.029274376 0.1340993 0.25046688 0.17743705 0.18157282
0.2554053 0.0005809683 0.14466599 0.18204202 0.09931754 0.21742223 0.014725806 0.13806094
0.06797506 0.030913742 0.08516356 0.13715644 0.093581274 0.05731629 0.16842239 -0.00964758
0.12284395 0.38144028 0.16338792 0.021091385 0.028205143 0.11988374 0.27350754 0.10895219
0.15724504 0.07106863 -0.0780823 0.5479746 0.21602394 0.02443625 0.030310791 -0.055669244
0.07749457 0.2017101 0.039658137 0.0447705 0.14923194 0.21440436 0.2220565 0.0967496
0.24623765 0.11115348 0.089632384 0.09083165 0.21219097 0.044075035 0.052749854 0.07669962
0.12517084 0.083125144 0.85026485 0.12302459 0.06923164 0.10993212 0.14968154 0.17971438
0.10295492 0.22729096 0.11922244 0.26880625 0.20621538 0.17697427 -0.19451177 0.031839773
0.23283201 -0.02433187 0.1717721 0.06559419 0.16019799 0.20824924 0.18497616 0.09699513
0.07028938 0.048969053 0.10379722 0.24150988 0.21398087 0.07069576 0.103347234 0.22850375
0.20469274 0.07606252 0.069638744 0.121815965 0.1157214 0.094026595 0.01960263 0.12876695
0.30421823 0.08427494 -0.06695061 -0.0016166877 -0.011600119 0.11407022 0.24562806 0.2792131
0.21087036 0.2772715 0.08650063 0.13656583 0.24708505 0.16091467 0.14208281 0.119578615
0.13597706 0.06564545 0.3194873 0.21595718 0.1539677 0.1974706 0.23402677 0.105754584
0.046816483 0.24953157 0.09431976 0.10864395 0.17187478 0.20200072 0.103864975 0.09889165
0.20812584 -0.06979283 -0.051267263 0.30140668 0.20803705 0.15309337 0.17657171 -0.16694152
0.12289261 0.06846892 0.10538819 0.06746425 0.07517988 -0.0046373466 0.16725402 0.0060290773
0.14653791 0.10629222 0.3405821 0.056214366 0.23997192 0.07852836 0.16351585 0.177017
0.22605866 0.2426722 0.021106511 0.13171005 0.040291402 0.13383096 0.349689 0.04600493
0.07089679 0.083409734 0.17445919 0.15842296 0.15571243 0.09672048 0.2248855 0.16576275

l2.bias f4 [256]
00000000: b9ce b73e 81bc 9d3e a4d3 8b3e a5d7 55be
00000010: fa94 5fbe 40a6 a93e 7d5b c63e b52c 8b3e
00000020: a8af 6d3e e01a 6f3e 1668 c4bd d856 aa3c
00000030: 8714 febd 891a 4abe 0fa9 963e 949f a53e
00000040: 4535 56bd ee11 543e 3122 953e 2ab1 8f3e
00000050: 3aea b73d a601 2cbe c2b5 6d3e 2d09 4e3e
00000060: 0dcb efbd 109a 073e fc48 9b3e 9853 583e
00000070: be0c 49be 15e2 623e 2cf1 843e 503f 983d
00000080: c1c8 8d3e 57a5 7cbe 5ef8 00bd 188e 6c3e
00000090: 1ee9 8f3e c52d 703e d6b9 11be 67d5 bd3e
000000a0: 49f8 f1bd cda1 e33c 845d 8a3e 1a28 9fbc
000000b0: 00c3 973e 4794 883e 5cc1 8fbc 0b5c 66be
000000c0: 7aba f83a acd0 a53e 53ca b53e c57d 683e
000000d0: 2f91 fcbb 238b af3e 9b1f ea3c 2e9f b93e
000000e0: 2275 523e 3c00 2b3e 1e7b 26be 5c65 c33e
000000f0: 811e bc3d 7aa0 8b3e 4e11 76be 95f7 72bd
00000100: 9662 953e fda6 423e 03cc fe3c fd6b 59bc
00000110: adf0 18be e1be 893e 14dc 75bc 0dd8 28bd
00000120: 7f5a 8d3e 40e4 9cbd 5940 5a3e 274d 2abd
00000130: a076 be3e 1726 6fbb 6257 dbbc 04db bc3e
00000140: feb8 773e 7d41 493e 280e 693e 7a6b 6f3e
00000150: e4f0 50be 5fab 49be b9d7 e5bd a964 853e
00000160: 420b 983e 9bb7 473e 0831 a43c 9f32 fabd
00000170: 3617 623e 9111 983e caa4 f0bd d988 9c3e
00000180: 0440 723e 9b1a f6bd 9242 5bbe 3ca3 6d3e
00000190: 265b 4abe 14e1 dcbd 8de6 7d3e 42e0 8f3e
000001a0: 4d3f 8b3e 122b fabb ba3e a73e d98b c73c
000001b0: 010f 9b3e cb27 b13e 5832 3cbd 3b15 05be
000001c0: fe5d febd 5fae 1dbe 3124 ebbd 3d27 9f3e
000001d0: d349 b63e 76e8 963e b29e 553e 30ef f0bd
000001e0: 50d1 7a3e ce17 8d3d 1612 94bd 3573 cdbc
000001f0: 476f 5d3e f670 9e3e d01d 06be e845 f8bd
00000200: 215b 14bc 907b 9f3e 0e3f cebd c3a3 c4bc
00000210: ffd1 993d 6962 963e ef7b 5c3e 7b9d ffbd
00000220: 678c 753e e772 2fbe bd6e 00be ad9a 923d
00000230: 705a d3bd fa6c 37bd f20a cdbd 38c5 c53e
00000240: 3ffa c53e 8547 803e eaad 613e 2e74 84bc
00000250: 4187 9d3e e25a 9c3e 4586 2ebd 6fe1 af3d
00000260: 2a3e 28be 90e4 bbbd 3c4d 643e 5818 c73c
00000270: d0d2 6d3e fabd f5bd 9e01 5cbe 3712 b5bd
00000280: 40b8 e8bd 18f5 62be 0149 763e 3b95 863e
00000290: 386f a9bd bf44 8b3d a77f 16be 6e3c 943e
000002a0: 02e4 c33d 820a 713e 4e19 ba3d df83 7f3e
000002b0: 1a7f bd3e 81bd 8c3e fc16 893e 5055 a93e
000002c0: 1693 86bd 3efc 10be 2217 613e 7ca9 953e
000002d0: acbb 563e f498 febd 41f2 413e f8f1 703e
000002e0: b45e 513e b788 ca3e 7dc9 32be e31c 8e3e
000002f0: 9bd3 2a3e 9662 98bd e340 8e3e 7915 0fbe
00000300: 54cd c63b b7fe 473e c984 acbd 1959 b13e
00000310: e4c7 c53e bbeb a8bd 4eef 9c3e b997 02be
00000320: 960f a9bd 4998 06be 46b8 713d 1cbc 0f3d
00000330: 73ab 8fbe 9830 b6bd b114 953e d633 02bd
00000340: 475d 883e 20ab b43d 7672 b03e f806 a33e
00000350: 95d2 c6bd 5cec 45be c2ee 983e 28fc 7c3e
00000360: 50fc b83e 7d36 723d 5725 913e 6229 913e
00000370: 64a8 953e 3355 bf3e 5021 d4bd 2ab3 37be
00000380: 1a22 29be b1b6 01bc 4fb8 ac3e fefc 0cbe
00000390: a276 30be 4a26 653e 80a3 2ebe 4063 6cbd
000003a0: 9f37 28be 4873 743e 1fbb 2ebe 44eb 8f3e
000003b0: 7506 b33e 52ef 2a3d 0c4b adbe 5eac 0dbd
000003c0: 8e3e a93e 8762 163e f99f 5f3e 84e0 673e
000003d0: 0db0 14be 087f 523e 270a c33e bfc5 c83e
000003e0: 311f ca3e 66b5 7a3d c0a2 993e a6db aabc
000003f0: 093b 0b3e d8d5 573e c1c7 c2bd 87f4 363e
0.35899904 0.3080788 0.27309906 -0.20883043 -0.21834174 0.3313465 0.38741675 0.27182546
0.23211539 0.23350096 -0.09590165 0.020793363 -0.12406259 -0.19736685 0.29425856 0.3234831
-0.052296896 0.20709965 0.29127648 0.28064853 0.08980222 -0.16797504 0.23213866 0.20120688
-0.11708651 0.13242364 0.3032912 0.21125638 -0.19633767 0.22156556 0.2596525 0.07433951
0.27692226 -0.24672447 -0.03148686 0.2310108 0.28107542 0.2345496 -0.14231047 0.37076876
-0.11814935 0.027787114 0.27024472 -0.019428302 0.2964096 0.26675627 -0.017548256 -0.22496049
0.0018976473 0.32385767 0.35505924 0.22704227 -0.007707737 0.3428584 0.028579524 0.36254257
0.20552495 0.16699308 -0.16257903 0.3816327 0.09185506 0.2727087 -0.24030039 -0.059318144
0.29176778 0.19009013 0.03110314 -0.013270375 -0.1493556 0.26903442 -0.015006084 -0.041221667
0.27608106 -0.07660723 0.21313609 -0.041577484 0.3719988 -0.003649121 -0.026775066 0.36885846
0.24191663 0.19653888 0.22759306 0.23380843 -0.20404392 -0.19694279 -0.112227865 0.2605336
0.2969609 0.19503634 0.020042911 -0.122166865 0.22079167 0.29700902 -0.11750181 0.30573156
0.23657233 -0.12016793 -0.21412113 0.232068 -0.19761333 -0.10785118 0.2479498 0.28100783
0.27196732 -0.007634529 0.32665044 0.024358677 0.30284885 0.34600672 -0.04594645 -0.1299638
-0.12420271 -0.15398549 -0.11481512 0.31084624 0.35603198 0.2947423 0.20861319 -0.117643714
0.24493909 0.06889306 -0.07230012 -0.025079349 0.2162448 0.30945557 -0.1309731 -0.121227086
-0.00905493 0.31148958 -0.100706205 -0.024003869 0.07510757 0.29371956 0.21531652 -0.12481209
0.2397934 -0.17133676 -0.12542243 0.07158408 -0.10319984 -0.044781663 -0.10011853 0.38627028
0.38667485 0.25054565 0.22038999 -0.01616868 0.30767253 0.30538088 -0.04260852 0.0858792
-0.16429964 -0.09174454 0.22295088 0.0243036 0.2322495 -0.11999126 -0.21484992 -0.08841365
-0.11363268 -0.22163808 0.24051286 0.2628573 -0.082731664 0.06800222 -0.14697133 0.28952354
0.095649734 0.23539165 0.09086858 0.24952649 0.37011033 0.2748833 0.26775348 0.330729
-0.06571023 -0.14158723 0.2198148 0.2923087 0.20970029 -0.12431517 0.18940069 0.23529804
0.20446283 0.3955743 -0.17459674 0.27756414 0.16682284 -0.07440679 0.2778388 -0.13973035
0.0060669575 0.1953076 -0.08423764 0.3463829 0.38629067 -0.08248087 0.30651325 -0.1275319
-0.08254926 -0.1314403 0.059013627 0.035091504 -0.28060493 -0.08895987 0.2911735 -0.031787716
0.26633665 0.08821702 0.34462327 0.31841254 -0.09708134 -0.19328445 0.29869658 0.24705565
0.3613 0.059133995 0.283488 0.28351885 0.29230034 0.3736969 -0.10357916 -0.1793944
-0.16516915 -0.007917092 0.33734366 -0.13768384 -0.17232755 0.22377887 -0.17054558 -0.05771184
-0.16427468 0.23872101 -0.17063569 0.2810918 0.34965864 0.04173214 -0.3384632 -0.03458821
0.33055538 0.14686023 0.21838368 0.2264424 -0.14520283 0.20556271 0.38093683 0.39213368
0.39476922 0.06120815 0.3000698 -0.02085669 0.13596739 0.21077669 -0.09510756 0.17866717

l3.weight f4 [1, 256]
00000000: c5ac 4c3e 7c4a 4d3e 4517 223e 6e25 a5be
00000010: ee87 35bf 5c23 363e f0c9 363e 0452 713e
00000020: e046 c83e 311a cd3e 79d3 1fc0 6382 2ebd
00000030: 98b4 b4bf cf42 aabf cd09 443e f9ae 4e3e
00000040: a03f abbf fe16 fa3e f93d 553e bb37 523e
00000050: 94f2 1ac0 490d bbbf 04c6 203e 4532 0f40
00000060: 78c5 c1be e73b 4440 51ad 363e 88c9 9ebf
00000070: 2e50 c3bf 466d 4d3e fd60 163e c4fc 0840
00000080: ad16 df3e 3d70 34c0 45e1 a8bf 26e6 5d3e
00000090: 4eb1 1b3e 2c78 bb3e 972e ebbe 1bf8 403e
000000a0: 9769 2fbf 3e5f 8fbc 3e43 7e3e 4227 0cbf
000000b0: ff33 453e 9e84 6e3e 87f4 8ebf f43e 85bf
000000c0: cf10 ccbb f079 573e 3d77 623e 1998 83bf
000000d0: efef b5bf 2975 07c0 d982 26bf 8610 2b3e
000000e0: 4b28 a63e c41a 593e 723f 3ebf bd58 463e
000000f0: ff38 8dbf 811e 593e b6dd 21c0 71bc e2bf
00000100: c655 383e 3860 8c3e 840d debb 4061 23c0
00000110: 2460 08c0 7972 293e 92cf cdbb cc1e 5f3c
00000120: 4f73 193e efde d1bf bd4f 613e e289 23c0
00000130: 43ad 4e3e 6131 86bc e771 f9bc ac40 353e
00000140: f5cd d63e 8070 9c3e 596d a33e 1110 1c3e
00000150: c8cf 8140 6dc0 aabf a431 bdbf 5b64 483e
00000160: a037 133f 9fd8 80c0 3c0b 1dc0 9a60 a0bf
00000170: 6810 5f3e 9869 383e 9493 87bf 360e 713e
00000180: 88e2 c03e 48c2 1ebf cb46 08c0 5e1d d53e
00000190: 9d83 f9bf c70f a9bf 53c4 443e 3b97 2f3e
000001a0: 1e6e a73e 0c87 3e36 da86 623e d523 63c0
000001b0: fe28 163e 2f12 553e 8a62 fbbc 79ae 2bbf
000001c0: 5935 d1bf 1d9a bebf dbd9 1abf 8aba 3e3e
000001d0: da26 273e 3830 2e3e 2ab6 213e 0d7e c4bf
000001e0: 8b2e 723e 7a4b bdbf 0443 41bf f6cc 0ac0
000001f0: 2412 e53e 9e43 3b3e 6351 e3bf 1af9 dabf
00000200: b62b 52c0 8298 343e b774 40bf d5f7 09c0
00000210: 1c35 24bf 1541 8c3e 73c4 173f 7b10 a3be
00000220: fd8e 573e 4478 95bf 059c 04c0 f730 18c0
00000230: 991a a5bf e19b f2bf 43ad 1fbf 7969 233e
00000240: 30b8 433e d1bd 22c0 f467 c93e 038a 02bf
00000250: e0b5 403e f258 313e 3bf0 ccbf 4fe4 fc3f
00000260: 6def 7ebf 52c5 81c0 0f49 203e 64c0 73bf
00000270: ef53 07c0 7e7e e5bf 7f14 72be 0b0a e5bf
00000280: cdc5 83bf a8b2 9bbf fe51 f6bf 57b5 163f
00000290: 6469 adbf 2e04 2dc0 b04d fabe 5bd5 e3bf
000002a0: 4cc9 10c0 1e20 483e 37a5 02c0 fdb4 623e
000002b0: 8a22 583e b82f 6d3e 27ec 333e 8d16 653e
000002c0: aa21 473d a723 80bf 7d3a c53e 04dd e23e
000002d0: a5c5 6a3e 3a16 2dbe 3034 c53e 83d5 77c0
000002e0: e3e4 bc3e 6869 5a3e 4f86 45c0 4f54 a13e
000002f0: bc9d 72bf d670 9cbf abf8 9fbf afde cfbe
00000300: 651d a1bb c85e 363e 60e0 97bf 6972 5b3e
00000310: 7f2e 3e3e 90b4 3dbf 6f02 393e b926 1dbf
00000320: 1b2a b23c 9dda 70bf 3738 c2bf 6f51 1b40
00000330: 267f d8bf 827c e9bf 7cf4 423e ec4a 14bf
00000340: 2cea c1bf 2266 43bf ffcb 613e 56ab 9c3e
00000350: 5609 51bf 6bd7 95be b657 663e 8f82 453e
00000360: 8650 533e af2f debf 1eb9 443e 6ee7 713e
00000370: e713 603e 241f 5d3e f89a b6bf 1ce1 f5be
00000380: feca 2cbe 21c7 4cbf f84e 433e 51ce 6ebe
00000390: 3bf1 89be 6c21 423e e5db 87be cdab d1bf
000003a0: 3ea8 80be 1efc 163e 2d7a 53c0 ef4d 293e
000003b0: 96a1 5d3e 89fa bfbf 8f36 2cc0 4784 00bf
000003c0: f2d4 613e 6006 04c0 f38d ccbf 899e 823e
000003d0: 437c 3dbf 8915 403e 6e25 433e 0c1c 683e
000003e0: 7ab7 5e3e 1547 8abf 9763 363e 9fa3 4bc0
000003f0: 2e2e e0bf 77b0 373e 98f2 abbf 56f2 a2bf
0.19987781 0.20047945 0.15829189 -0.3225512 -0.7091054 0.17786926 0.1785047 0.23566443
0.39116573 0.40059045 -2.4972823 -0.042604815 -1.4117613 -1.3301638 0.19144364 0.20183934
-1.3378792 0.48845667 0.20824422 0.20529072 -2.4210558 -1.4613429 0.15700537 2.2374432
-0.3784597 3.0661561 0.17839552 -1.2405252 -1.5258844 0.20061216 0.14685436 2.1404276
0.43571988 -2.8193505 -1.3193747 0.21669826 0.15204355 0.3661512 -0.45933983 0.18844645
-0.6852049 -0.01750147 0.24830338 -0.547474 0.19258116 0.23292777 -1.1168374 -1.0409837
-0.0062275897 0.21042609 0.22115798 -1.0280792 -1.4213847 -2.116526 -0.6504341 0.16705522
0.32452616 0.21201617 -0.7431556 0.19369788 -1.1033019 0.21203043 -2.5291572 -1.7713758
0.1800147 0.2741716 -0.0067765135 -2.5528107 -2.130868 0.16547574 -0.006280848 0.013618182
0.14985393 -1.6396159 0.22003074 -2.5552907 0.20183282 -0.016380968 -0.03044982 0.17700452
0.41954008 0.3055458 0.31919363 0.15240504 4.056614 -1.3339974 -1.4780774 0.19569533
0.5750675 -4.026443 -2.4538107 -1.252948 0.21783602 0.18009031 -1.0591912 0.23540577
0.3767283 -0.620152 -2.1293209 0.41623968 -1.949329 -1.320794 0.19215517 0.17147534
0.327012 2.8390814e-06 0.22121754 -3.549062 0.14664075 0.20807718 -0.030686636 -0.670631
-1.6344405 -1.4890782 -0.6048867 0.18625847 0.16323414 0.17010581 0.15792146 -1.5350968
0.23650567 -1.4788659 -0.7549288 -2.1687598 0.44740403 0.18287513 -1.7759212 -1.710727
-3.283918 0.17636302 -0.7517809 -2.1557515 -0.6414354 0.27393404 0.5928413 -0.3184851
0.2105064 -1.1677327 -2.0720227 -2.3779886 -1.2898742 -1.895382 -0.6237375 0.15958203
0.1911323 -2.5428355 0.39337122 -0.5099184 0.1881938 0.17319086 -1.6010813 1.9757174
-0.99584085 -4.055337 0.1565287 -0.9521544 -2.114498 -1.7929227 -0.23640631 -1.789369
-1.0294739 -1.2163897 -1.9243772 0.5887045 -1.3547788 -2.70338 -0.48887396 -1.7799486
-2.2622862 0.19543502 -2.041334 0.22139354 0.21106926 0.23162735 0.17570554 0.22371884
0.04861609 -1.001088 0.38521186 0.44309247 0.22926958 -0.1690301 0.38516378 -3.8724067
0.36893377 0.21329272 -3.0863225 0.31509635 -0.94771934 -1.2221935 -1.2497762 -0.40599582
-0.004916834 0.17809594 -1.1865349 0.21430363 0.18572424 -0.7410364 0.18067335 -0.6138721
0.021748593 -0.9408358 -1.5173405 2.4268453 -1.6913803 -1.8241122 0.19038576 -0.5792682
-1.5149589 -0.7632772 0.22050475 0.3059947 -0.8165487 -0.29265913 0.22494397 0.19288085
0.20636186 -1.7358302 0.19211242 0.2362344 0.21882592 0.2159391 -1.4266043 -0.48023307
-0.1687431 -0.79991347 0.19073093 -0.23320891 -0.26941857 0.18958062 -0.26534954 -1.6380554
-0.2512836 0.14744613 -3.304332 0.16533636 0.21643671 -1.4998332 -2.69083 -0.5020184
0.22053888 -2.062889 -1.598082 0.25511578 -0.74017733 0.18758215 0.19057247 0.22666949
0.21749678 -1.0802943 0.17811428 -3.1818616 -1.7514093 0.1793841 -1.3433409 -1.2730205

l4.weight f4 [256, 32]
00000000: d5e3 1abf f28c b1bd 1f7f cfbc f47f d1be
00000010: f55a 223e 0196 84be a301 14bf 2956 93be
00000020: c845 81be 81ba c13e 8dd8 f83d 1924 163d
00000030: 4028 1ebf b66e 80bd f750 ea3d 1b52 483d
00000040: 10e0 413d 08e4 863d aa96 973e 5132 543d
00000050: 799c 813c b27a 23be 67a7 943c 125c 353d
00000060: f4fb 1b3e 4b6d e9bd b1ca c43d 94c6 6d3a
00000070: 57d3 9cbd 6e2b 983d 40bb 003b 82aa 083c
00000080: 1f5f d2bd adc0 f6bc 54b4 c73d 44e9 163f
00000090: aee6 dbbd f42d 15bc 381a 83be 1efd 9f3e
000000a0: 4e00 4d3e f60b 72be 936e 86be 81c5 47be
000000b0: 9e50 883e f370 ea3d a295 2d3e 87f4 f33d
000000c0: d99d 1ebe c2b2 3a3d c437 b1bd 291d f53c
000000d0: ab82 f0bc 9a3f 21be 1390 383e b2ae 3cbe
000000e0: b1d3 b63d eec6 483e c9a2 ccbb 96ba 0ebd
000000f0: 7277 ab3b a82b 9ebc c0ee f23c 833b 3ebd
00000100: daa8 413f 9426 adbb 49fc 36bc 8f68 c0bd
00000110: ca4c d4bd fa16 21bf 7cc0 88be 9a2c f7bd
00000120: e9ea 59be fc59 f43e 5e0e babe 0224 253e
00000130: bbfc ce3e 3aca f73c 0960 b0be 2a3b 05be
00000140: 0b44 9dbe c1a1 f3bd f8f6 ea3d b920 0cbe
00000150: 1ffa ddbd 49bb 3b3e f9a0 883e 07ac bdbd
00000160: 147c f43e 360e b53d 8a99 c93c c73a 693c
00000170: 26c3 713d d556 a03d ab5e 85bd 809e 2dbd
00000180: 613b 643e e40d 0a3e c4fd b13d 178b 7cbd
00000190: 6923 a0bd 5daa 073f 5fc0 e8bc a058 a3bd
000001a0: c50b 9cbe dcd6 03bd 4020 67be af94 c6bc
000001b0: dd49 3c3e aed7 273c d705 30be c422 733f
000001c0: f6fb 993c a4f5 043f 6553 cabe 4049 f73d
000001d0: fbd7 693e e8c7 ad3d 6f5b 88bd e569 8d3d
000001e0: 5b5c 75bf 9d44 293d 8097 303d 3820 673b
000001f0: 8f06 06bd 0a35 8fbb 7a53 a13d 0ac8 7abd
00000200: 10c9 b4be 443c 04be a7bc 2d3e 5f7b a5be
00000210: 89b0 a2bd 783b 683e 6d3f adbe c8d4 4b3f
00000220: 6047 e3bd a081 b9bd 83e0 b43e 137d 7abe
00000230: 900e 40bd ebe2 ae3c f7d3 a7be 10db a5be
00000240: 48bb 25bd 2bb0 85be 93b2 1dbe fed0 77be
00000250: 5842 643e eb2c 613d 4592 5dbd d217 02bf
00000260: c913 26bf ee56 b23e 70a6 be3a 6212 323d
00000270: 6e7a 8bbe 1c03 8f3b 149b 57bd 4e23 a0bb
00000280: 2398 05be bb0b 42bd 004b edbd c3ef 443f
00000290: 81af 1f3e f75e cb3f 70ec 733e 8e44 e33d
000002a0: 799c 69be 698d d5be a9dd 2b3d a9f3 2ebe
000002b0: d377 80bd 5192 12bd 19cd 2fbd 174d 403f
000002c0: 733a 7d3d 1ba9 493e a15f 2dbe c48e 89bc
000002d0: 2bc4 143e a748 ea3e 2185 0c3c db4e 41bd
000002e0: ca3c 583e 2387 fa3e 2533 b63c 7944 6abd
000002f0: 838a d8b9 8063 133d c4a4 b5bd 4579 9fbb
00000300: eb68 13bd 09a4 ad3d 3160 503d 8467 4fbf
00000310: 6aee 44bc 4014 b6be 79ea 143f 1d5b 80be
00000320: 6b0a 0ebf d021 153f 845e 8f3e 2734 b2bd
00000330: b5ad 873e 7dd1 d53d baad c1be a71d 853e
00000340: a9c0 b5be a087 2ebb cd34 aebe 699e 38be
00000350: eb97 76be bae7 ff3e ed83 523e 37d4 15be
00000360: cd89 453e 9377 063f 564d 3b3e 8ee8 3cbe
00000370: b9d9 d03c c946 dfbc 9fd5 04be 1be3 94bd
00000380: 63dd 81be 3580 073e 81a2 0bbf f93e 39bf
00000390: 37c3 c8bd 62b1 d9bd 80ac 84be e597 283e
000003a0: 5ced bcbd ab90 873e 47fb 37be 44ac 5d3d
000003b0: 8da5 643f 05be 0a39 840b aebd 0ab3 65be
000003c0: 82a2 65be 531c 97bd 7016 4ebe 406c e1bc
000003d0: 356b 8bba 2d65 ab3d f2cc 153c 48d1 833d
000003e0: efbd 46be 49b3 aa3d 8185 66bb 51b1 65bc
000003f0: 1808 513c b807 f33b 5d41 45bc c723 2d3a
-0.60503894 -0.08669461 -0.02532917 -0.40917933 0.1585501 -0.25895694 -0.57815 -0.28776672
-0.2524855 0.37837604 0.12150679 0.03665552 -0.61780167 -0.062711164 0.11441224 0.048906427
0.047332823 0.06586462 0.29607135 0.051805798 0.015821682 -0.15964773 0.01814623 0.04427726
0.15232831 -0.11397799 0.09608973 0.0009070423 -0.076574974 0.074301586 0.001964286 0.0083414335
-0.10272049 -0.030121172 0.09751192 0.58949685 -0.10737358 -0.009105194 -0.2560594 0.312478
0.20019647 -0.23637375 -0.26256236 -0.19508936 0.26624006 0.114473246 0.16951612 0.11911874
-0.15489902 0.045580633 -0.086532146 0.029921131 -0.029359182 -0.15746918 0.1802371 -0.18426016
0.08927096 0.19607136 -0.0062449914 -0.03484591 0.005232745 -0.019307926 0.02965486 -0.046443474
0.7564827 -0.00528414 -0.011168548 -0.09394943 -0.10366209 -0.62925684 -0.26709354 -0.12069054
-0.21281017 0.47724903 -0.36339086 0.16127017 0.40427193 0.030247796 -0.3444827 -0.1301085
-0.30715975 -0.118960865 0.11472887 -0.13684358 -0.108387224 0.18333162 0.26685312 -0.09261327
0.47750914 0.08840601 0.024609346 0.014235205 0.059024 0.07829062 -0.06512197 -0.042387486
0.22288276 0.13481861 0.0869098 -0.061656084 -0.07819254 0.5299433 -0.028412042 -0.07975888
-0.3047773 -0.032187328 -0.22570896 -0.02424082 0.18387552 0.010244293 -0.17189728 0.94974923
0.018796902 0.5193732 -0.3951675 0.12074518 0.22836296 0.08485395 -0.066580646 0.069049634
-0.9584405 0.0413252 0.04311323 0.0035267007 -0.0327211 -0.0043703364 0.0787725 -0.06122593
-0.3530965 -0.12913615 0.16966496 -0.32320687 -0.07943828 0.22678936 -0.33837453 0.79621553
-0.11097598 -0.09057927 0.3532754 -0.24461775 -0.046888888 0.021348437 -0.32778904 -0.32393694
-0.04046181 -0.26110968 -0.15400152 -0.24200818 0.22290933 0.054974478 -0.05409457 -0.50817597
-0.6487394 0.34831947 0.0014545452 0.043474562 -0.27241844 0.0043643843 -0.05263813 -0.004887021
-0.13046317 -0.04737447 -0.11586571 0.7692835 0.15594293 1.5888356 0.23820662 0.1109706
-0.22813596 -0.4170945 0.04195944 -0.17085136 -0.06272855 -0.03578407 -0.042920206 0.7511763
0.06182332 0.19693415 -0.16931011 -0.016791709 0.14527957 0.45758554 0.008576662 -0.047194343
0.21116939 0.48931226 0.022241184 -0.057194207 -0.0004130193 0.035983562 -0.08869317 -0.0048667514
-0.03598873 0.08478553 0.050872985 -0.8101733 -0.012019733 -0.35562325 0.58170277 -0.25069514
-0.55484647 0.5825472 0.28001797 -0.087013535 0.26499715 0.10440347 -0.37827855 0.25999185
-0.3549855 -0.0026631132 -0.3402466 -0.18029179 -0.2408139 0.4998148 0.20558138 -0.14631735
0.19290848 0.52526206 0.1829122 -0.18448088 0.025494443 -0.027255433 -0.12972115 -0.072698794
-0.25364217 0.13232501 -0.54544836 -0.72361714 -0.09802859 -0.10629536 -0.25912857 0.16464193
-0.0922496 0.2647756 -0.17966948 0.054119363 0.8931511 0.00013231493 -0.0849829 -0.22431579
-0.22425273 -0.07378449 -0.20125747 -0.027517438 -0.0010636809 0.08368907 0.009143101 0.064364016
-0.19408391 0.08334977 -0.003517479 -0.014019326 0.012758277 0.0074166916 -0.01203951 0.00066047575

l4.bias f4 [256]
00000000: b5b8 b6bb 0b5d 27be a3ab 4abd d845 953d
00000010: 0297 9cbc 441b e8bd 839f 603e 7512 05bf
00000020: b8ae febd ece6 c63e beb0 013e df94 92be
00000030: f6f5 f03d 35fc 723d 75f6 3ebd a616 833c
00000040: a235 c0bd 59d2 363e 4560 5a3e e90f ce3e
00000050: c9a1 15be d560 3dbe 4114 c13d 900e f7bd
00000060: 8e18 05be 4a04 5e3d 5791 5c3e b1d3 86bb
00000070: 14be ecbd 7680 873e df65 e53d 6386 133e
00000080: bdfa 4dbc b5e6 7d3e b17b eabd bdca 12be
00000090: 3496 b53e 5667 2b3e 1c1c f23d 4ff9 233d
000000a0: c474 cfbb 6421 85bc 370a e6bd bc9c 0c3e
000000b0: aa12 cd3d e145 223e 35ec 803c 1f99 bd3c
000000c0: ad45 903e 96fc a0bd 5807 c5bc 905b 7f3e
000000d0: 83a1 80be c1d9 f6bb d87c 6d3c 357f 42bd
000000e0: 2b23 0b3e 65b6 293e 3e9b 6fbe 15cd 2fbe
000000f0: a013 cd38 60c9 aabe 4686 a8bd 9525 8b3e
00000100: 5720 f4bb 193a e8b9 a8bc bdbd 3ac1 1cbd
00000110: 8bc8 08be 745c 1a3d 3013 73be 62b2 693e
00000120: 5f83 25be 6e6d d93d 7f30 98be 7f6a 913e
00000130: 12e5 e9bd 8ebf 2b3e 862a 5abe cac7 613e
00000140: 0f81 5abd c5b0 793e 1961 e6bd 8470 febd
00000150: 1290 c33e ea29 6dbd 2fcc 493e 3aef b7bd
00000160: a8f4 1e3e 66c7 3e3e 555e cfbd 9a90 fbbc
00000170: 4f0c 873e 1f50 2ebe 14db b3be fac4 903e
00000180: 523a cf3d 8b1a 5f3e dac7 433e 73d4 cbbd
00000190: 366c 67be 3d47 983d 73c8 8e3e 9158 8d3e
000001a0: d963 573d 0852 92be 3309 1c3f bfaf d3bc
000001b0: e24c c3be 5f2e 83bc db65 ac3d 0d5b 143e
000001c0: cb1b 03be 17c7 023e 8f8a 1bbe d0a5 eabd
000001d0: 7067 5d3e 091d c0bd b1bc af3d 6467 e8bd
000001e0: 794d 933d a651 8d3e 9a72 3e3e 2f58 d23c
000001f0: e64c 50be b433 a6be b7b6 e43b e8a2 92bd
00000200: 8a26 79be 5f01 563d c4de df3c 13cb 16be
00000210: d0b5 af3d 0596 12be 3892 873e 4794 f2bc
00000220: cdbe a73b 5cdb c2bd 9c93 1d3e 9721 053e
00000230: 8de8 40be 7d71 84bd d897 393e d63a bc3e
00000240: d208 523e fbd4 c9bd bf96 c03e 87af 233e
00000250: f454 f43d 9559 8a3e 25ca b53d 946a 2cbe
00000260: e5bf 97be f3da 573d 557b 0a3e 36c0 8cbe
00000270: 454f b8be 4ef4 6f3d c0b8 2abd cb45 143e
00000280: 2b0d d13d b788 bebe 5c5b 053e be5a 8cbd
00000290: 1d63 2d3e 3ebb 7d3e d0f2 883c a3ad 643e
000002a0: 89f1 8cbe ee27 8dbe 9611 7e3d 32c4 5cbd
000002b0: c09d acbb b9cc 813e 927b 05be a46e 063d
000002c0: ce6f ffbd d7d9 14be 62d8 8c3e 6537 963b
000002d0: 1d8a c63e 33b6 703e 1fae 5f3e b979 43bd
000002e0: 0f39 08be 1037 633e 15e6 b8bd fdf3 c5bc
000002f0: aa53 0cbe 4ce0 82bc 1e97 36bd f659 6c3e
00000300: e4cb a8bd 00a3 0bbe 0195 74bd b4bc 78be
00000310: 091e 6f3e d15f 053e 4de1 2fbe 11d8 84be
00000320: edb7 40be 9e08 29be ad4d 93be 55cd ebbe
00000330: 1ffa 74bd 2cca 413b 305e 94be df3b 5bbd
00000340: f440 173e 4c5c 36bd 4b0a dcbd 136c 39be
00000350: a846 80bc 05d0 7a3e 9113 433e 6332 ea3e
00000360: fc94 6c3d 1379 de3d 8008 8b3d 98b7 9e3d
00000370: 5066 133e ce39 183e 6b3a 7cbe 11ff a03d
00000380: fd1d 763e 81a7 89be 3795 453e b7c0 1c3d
00000390: 4402 d0be 4c2c b53d f09f 42bc f1e2 1d3d
000003a0: d8ee 37bd 5ff6 cf3d 46c5 4b3e c18a 36be
000003b0: d731 2ebe aa0c 81be 32ed ef3c 89b2 ac3e
000003c0: dc1e 2f3e cb8e 9a3e da41 863d 7621 833e
000003d0: 1b6d 8a3e 6627 723e 5549 933e 99e4 983e
000003e0: c401 4d3e 0893 f83d d572 a83d 23b3 9ebe
000003f0: 12ea ebbb 5217 083e 978b 97bd a517 31be
-0.005576218 -0.16344087 -0.04948009 0.07288712 -0.019114975 -0.113333255 0.21935849 -0.5198129
-0.12435669 0.38848054 0.12665078 -0.28629205 0.11765663 0.059322555 -0.04662176 0.01600201
-0.0938523 0.17853679 0.21325786 0.40246513 -0.14612497 -0.1849397 0.09427691 -0.120633245
-0.12997648 0.05420331 0.21539818 -0.004114591 -0.11559692 0.26465195 0.11201071 0.14406733
-0.012571988 0.24795039 -0.114493735 -0.14335151 0.35466158 0.16738638 0.11821768 0.04003268
-0.006331058 -0.016251273 -0.11232417 0.13731664 0.100133255 0.15846969 0.015737632 0.023144303
0.28178158 -0.07860677 -0.024051353 0.24937272 -0.25123224 -0.0075332825 0.014495097 -0.047484595
0.13587634 0.16573484 -0.23399064 -0.17168076 9.778817e-05 -0.33356762 -0.082287356 0.2717711
-0.0074501443 -0.00044293774 -0.09264499 -0.038270213 -0.13357751 0.037685826 -0.23737788 0.22821954
-0.16163395 0.10616575 -0.297245 0.28401563 -0.11420645 0.16772291 -0.21305284 0.2204887
-0.053345736 0.24383838 -0.11248989 -0.124238044 0.38195854 -0.0579013 0.19706796 -0.08981176
0.15523016 0.18630752 -0.10125414 -0.0307086 0.26376578 -0.17022751 -0.3512808 0.2827528
0.101185456 0.21787469 0.19119206 -0.09952631 -0.22599873 0.074354626 0.27887306 0.27606633
0.052585457 -0.2857821 0.60951537 -0.025840638 -0.38144594 -0.016013322 0.08417865 0.14487858
-0.12803571 0.12771259 -0.15189575 -0.114574075 0.2162149 -0.09380538 0.08580912 -0.11347845
0.07192511 0.27601355 0.18598405 0.025676815 -0.20341834 -0.3246132 0.006979789 -0.07159978
-0.24331108 0.0522474 0.027327903 -0.14725904 0.085796 -0.1431504 0.26478744 -0.02961172
0.005119181 -0.09514496 0.1538834 0.13001095 -0.18838711 -0.06466959 0.1812433 0.36763638
0.20511177 -0.09855076 0.3761501 0.15984927 0.11930266 0.2702147 0.08876447 -0.16837531
-0.2963859 0.05269904 0.1352361 -0.27490395 -0.35997978 0.058582596 -0.041680098 0.14479749
0.1020759 -0.3721368 0.13023132 -0.06853245 0.1693234 0.24778458 0.016717345 0.22331862
-0.27528027 -0.27569526 0.06202849 -0.053898044 -0.0052678287 0.25351503 -0.1303542 0.03282036
-0.12472497 -0.14536224 0.27508837 0.0045842403 0.38777247 0.23507003 0.21843766 -0.047723506
-0.13303016 0.22188973 -0.0902826 -0.024164194 -0.1370379 -0.015976094 -0.04457771 0.23081192
-0.08242014 -0.13636398 -0.059712414 -0.24290735 0.23351301 0.13024832 -0.17175789 -0.25946096
-0.18820162 -0.16507193 -0.287702 -0.46055093 -0.059808847 0.0029569967 -0.2897811 -0.053523894
0.14770871 -0.044521615 -0.10744151 -0.18107633 -0.015658692 0.24493416 0.19050433 0.45741567
0.05775927 0.10862937 0.067887306 0.077498615 0.14394498 0.148658 -0.2463166 0.0786115
0.24034877 -0.26885608 0.19295202 0.038269725 -0.4062673 0.088463396 -0.011878952 0.038546506
-0.044905514 0.101544134 0.19899473 -0.17826368 -0.170112 -0.25204974 0.029287908 0.33729962
0.17101616 0.30187067 0.06555529 0.25611466 0.27036366 0.23647842 0.28766885 0.29861906
0.20020205 0.12137419 0.082250275 -0.30996045 -0.007199534 0.13290146 -0.073996715 -0.17294176

l5.weight f4 [256, 256]
00000000: 0b7d c63c 05db b23d 8107 54be 4437 c83d
00000010: 40a7 ce3e fc9c 313e 3e26 d6bd 25a9 10c1
00000020: 6a68 58bc b840 96bd 6b78 8ebc 8c8c 36be
00000030: ea53 973d ac93 5bbf 625c 70bf be5a d23d
00000040: df7e 693e 3cbc 55bf e440 533d aa19 fb3d
00000050: 7270 253d c654 1a3e d1bb b43d da67 0cbf
00000060: fc71 75be dbbd 123e 3bbf cf3d 161e 2b3e
00000070: dd70 de3d 2536 563d 70fa 3cbc 0228 213c
00000080: 5026 da3d b650 173e 8ba5 53bc 5c40 973e
00000090: 5912 81be 7148 a5be 5328 803e c084 f7bb
000000a0: d35a 973c 84d5 aa3d 9aa0 eb3d 86df a8bd
000000b0: 17ce 81bd ca88 843d c8ca 2cbb b5fb e63d
000000c0: 0759 063e fbaa 4b3c 4754 9fbd bf1a ff3c
000000d0: 9018 5d3d 14de 683e c0a9 74be c16e 3a3d
000000e0: 2d60 8d3d 06ec 94bf cfe7 0a3c 787a 7abe
000000f0: 7257 00be ecdf 57be 847a 123e bfc4 053f
00000100: a9b8 c4bd 51ea 083c 6b34 333e 725e b7bc
00000110: 159c 9c3c d9d2 003e bd45 acbe e301 893b
00000120: 75d9 593d 0755 1ebf 7ec5 3abf 21a2 0b3e
00000130: 1f76 d7be 841c 213e 3e9e 57be 8116 acbe
00000140: 90df 153e 3505 c33d b2db 58be 88e1 5ec0
00000150: d982 633f de3f d0be fc9d 613e e40e 12bd
00000160: 54ad 3a3d 16ad b73e 1cb2 6bbe 44be 04bd
00000170: 33f1 f6bd 417d 3bbd f846 80bd b9c9 2bbe
00000180: eaee 08be 9185 433c cf3a 253e 2ea6 f93d
00000190: ba95 1dbe 948d 28bd ba60 023e 7f21 093e
000001a0: 2262 9cbd 7ffa 1fbd ba23 05bf b524 013d
000001b0: 9c1b 1ebd 8192 fc3d 48d8 603d 6621 ffbd
000001c0: e1c8 1c3e 4702 7b3d cbe4 edbd ea84 13be
000001d0: 45be 20bd 7e47 013e ca0d b23b 6f7d b9be
000001e0: 033b 0cbd 6215 943d bab6 f33c 82e5 393c
000001f0: f4a0 933c 31ca 00bf f228 93bc 172b 85bd
00000200: 8c42 febe 6dea 8b3d 4f11 573c 1b04 dd3c
00000210: 315c 123c 29dd 1ec0 7695 c23d 37b5 9bbe
00000220: 0911 64bf fa59 c63c 65e0 b1bb 2c43 f63e
00000230: 3c01 09be 4975 af3d 2dd3 acbd d95c 2dc0
00000240: 1b49 f13d 3377 763c 9904 8a3e c3e2 06bd
00000250: 4061 babb d15a a03c 501c 9d3c 984c 863d
00000260: 35ae b23d 7ee7 eb3c b04e 68be fc1d dd3d
00000270: 6a39 c2bd 873a 03bd 8065 383d 1d2b f8bd
00000280: 7d1a 55be e730 38bf 4fc8 123e ed3d 2c3e
00000290: 4723 a23d 2927 843d 35b1 74bc 21c7 3f3d
000002a0: 42e7 e3bd 8d0b e3bd 797d c93d ac59 433c
000002b0: 56c5 9fbd 0712 8a3d b6b0 e23a 5ce8 bc3d
000002c0: fac3 843c 3e4e e83c 797c 073a 00b4 d7bd
000002d0: 75e8 b73d fd59 d9ba 41de 9f3e 5eea ac3d
000002e0: 583d 13bf 2cd8 d73d 895e c4bd e306 cdbe
000002f0: 2aa2 86bd 33b6 a1be ac0a 93bc d93b 05be
00000300: fefe 30bf 3b86 013e 87a3 32be 55a2 053e
00000310: 27a3 043e c24f f63d c3ae 2c3e 9490 143d
00000320: 6413 48bd 85c2 1ebf 5162 753d 2713 7fbd
00000330: f868 203e 345e 213e 4e05 0abf 3a03 9ebb
00000340: 5e53 debe 44dd ad3d 5788 723d 1f7a bb3d
00000350: 0d79 6dbd 7077 acbc 3ce4 c4bc 4ec6 863e
00000360: fa5b b7bc 5864 d2bd 9ff5 6a3d 95e3 02bc
00000370: f28c 90ba 1574 4f3d 7249 7d3d db9b 783b
00000380: f455 98be e40c cdbd a2c9 2c3e 4280 103e
00000390: 49b7 91bf 4f84 eabc 8a16 bdbd db1a a43d
000003a0: 5d48 3e3e 2a64 94bc 7d97 6dbe 7b7f 313e
000003b0: 4fd5 433e d40c 32be bb33 873d 7cf1 f6bd
000003c0: c2bd 543d 6438 71bd 1dd1 d3bc 25b8 3b3e
000003d0: b5e4 173e 2c1d 973d f527 c2bd 5b03 183e
000003e0: 300d 50be 0794 e53c 6de7 debd 8120 52bd
000003f0: bcc9 b03d 81c5 933d 864c 003d a4e0 d43d
0.024229547 0.08733181 -0.20705988 0.09776166 0.40361977 0.17345041 -0.10456513 -9.041295
-0.013208488 -0.07336563 -0.017391404 -0.17827052 0.07389052 -0.85772204 -0.93890965 0.10271214
0.22802304 -0.8349035 0.051575556 0.122607544 0.04039044 0.15071401 0.08824886 -0.54845965
-0.23969263 0.14330237 0.10143896 0.16710696 0.10861371 0.05229773 -0.011534318 0.009836199
0.10651839 0.14776883 -0.0129178865 0.2954129 -0.2520931 -0.3228183 0.25030765 -0.007553667
0.018475926 0.08341506 0.11505242 -0.08245759 -0.06338137 0.06471403 -0.0026365984 0.11278478
0.13119899 0.012430902 -0.077797465 0.031140683 0.053978503 0.22740966 -0.2389288 0.04551578
0.0690311 -1.1634529 0.008478119 -0.2446078 -0.12533358 -0.21081513 0.14304549 0.52253336
-0.09605534 0.008356647 0.17500465 -0.022383902 0.019117394 0.12580432 -0.33646956 0.004181133
0.0531859 -0.6184849 -0.729576 0.13636066 -0.42082307 0.15733534 -0.21056458 -0.3361092
0.14636064 0.095224775 -0.21177557 -3.4825153 0.8887153 -0.40673727 0.22032923 -0.035658732
0.045575455 0.35874242 -0.23017162 -0.032408014 -0.12057724 -0.04577375 -0.06263536 -0.1677617
-0.13372388 0.0119337 0.16135715 0.121898994 -0.15389147 -0.041150644 0.12732211 0.13391684
-0.07635905 -0.03905725 -0.5200764 0.031529147 -0.03860055 0.12332631 0.054893762 -0.12457542
0.15311004 0.06128147 -0.116159044 -0.14406171 -0.039243955 0.12624928 0.0054337727 -0.3622851
-0.034235965 0.07230641 0.029750217 0.011346223 0.018021084 -0.5030852 -0.01796386 -0.06502359
-0.49660146 0.068318225 0.013126685 0.026979497 0.008933113 -2.4822485 0.09501164 -0.30411693
-0.89088494 0.024212826 -0.0054283612 0.48098123 -0.13379377 0.08567292 -0.08438716 -2.708792
0.11781522 0.015043068 0.26956633 -0.0329311 -0.0056878626 0.019574555 0.01917854 0.06557578
0.087246336 0.028796908 -0.22686267 0.10796735 -0.09483607 -0.032038238 0.045018673 -0.12117598
-0.20810886 -0.7194962 0.14334224 0.16820498 0.07916885 0.06452782 -0.014934828 0.046820763
-0.11128093 -0.110861875 0.09838385 0.011923235 -0.07801311 0.0674172 0.0017295096 0.092240065
0.01620673 0.028357621 0.0005168389 -0.10532379 0.089798845 -0.0016582605 0.31224254 0.084431395
-0.5751548 0.105392784 -0.09588344 -0.40044317 -0.06573899 -0.3158432 -0.017949425 -0.13011111
-0.6913909 0.12648861 -0.17445193 0.13050206 0.12952863 0.12026931 0.16863541 0.036270693
-0.048846617 -0.62015563 0.059908215 -0.062274124 0.15665042 0.15758592 -0.53914344 -0.004822162
-0.4342298 0.08489469 0.059212055 0.09154152 -0.05797677 -0.021053046 -0.024034612 0.2632317
-0.022382725 -0.10273045 0.05736315 -0.00798883 -0.0011028333 0.050647814 0.06183762 0.0037934694
-0.29753077 -0.10012224 0.16873792 0.14111426 -1.1384059 -0.028627543 -0.092328146 0.08012935
0.18582292 -0.018114168 -0.2320232 0.17333786 0.1912434 -0.17387706 0.06601664 -0.12057778
0.05193878 -0.05889167 -0.025856549 0.18331964 0.14833339 0.07378611 -0.094802774 0.1484503
-0.2031753 0.028024687 -0.10883985 -0.05130053 0.08632228 0.07215405 0.03132298 0.10394409
