p2/Ablation_TD3_BC_HalfCheetahBulletEnv-v0_9101_0.25.pth (torch, 898823 bytes, 16 tensors)

l1.weight f4 [256, 32]
0	0xbeb7e6a1	-0.35918143
1	0xbd238c91	-0.039928976
2	0x3da6d51f	0.081461184
3	0xbe19d062	-0.15020898
4	0xbe256595	-0.16152032
5	0x3fa6f3ef	1.3043193
6	0x3d953f3c	0.072874516
7	0x3c44933b	0.011997993
8	0x3e89ad54	0.2689005
9	0x3ee9bf01	0.45653537
10	0x3edc0a03	0.42976388
11	0x3e0defbf	0.13860987
12	0xbda1e590	-0.07905114
13	0x3eae3098	0.3402145
14	0xbe72595c	-0.236669
15	0xbdf4801f	-0.119385
16	0xbe926292	-0.28590828
17	0xbe9283fa	-0.28616315
18	0x3ebfb2bf	0.3744106
19	0xbe0f68a3	-0.1400476
20	0xbcf709d0	-0.030156046
21	0xbe3c7601	-0.1840439
22	0xbebabe35	-0.3647324
23	0xbda15737	-0.07877963
24	0x3dac591e	0.08415435
25	0x3e56256a	0.2091271
26	0x3d2f5b1e	0.042811505
27	0xbdd345c7	-0.10316043
28	0x3d907f23	0.070554994
29	0x3d92cf4d	0.07168446
30	0xbe05a794	-0.13052207
31	0xbd67de95	-0.056608755
32	0xbd7737bb	-0.060355883
33	0x3aa27e62	0.0012397284
34	0xbe1134d7	-0.14180313
35	0x3d44cb81	0.04804564
36	0xbba575fe	-0.005049466
37	0xbed5baf1	-0.41744187
38	0xbe073b36	-0.13206181
39	0x3d4844a4	0.048893586
40	0x3ee148fd	0.44000998
41	0x3f719be6	0.9437851
42	0xbe3dfa67	-0.18552552
43	0x3e892d4d	0.26792374
44	0x3e08cb81	0.1335888
45	0xbe0f403b	-0.13989346
46	0xbe78e5e2	-0.24306443
47	0xbdccdcf2	-0.100030795
48	0x3ea58a2c	0.3233198
49	0xbe5b85da	-0.21437779
50	0x3e5e970b	0.21737306
51	0xbe9f2d56	-0.31089276
52	0x3dc36e9c	0.095425814
53	0xbe8c9d49	-0.2746375
54	0x3ef22b5c	0.47298706
55	0x3c6e843f	0.014557897
56	0x3c989eed	0.01863047
57	0x3ea44213	0.3208166
58	0xbd93304b	-0.071869455
59	0xbd0851eb	-0.033281248
60	0xbe322192	-0.17395619
61	0xbed23c5b	-0.41061673
62	0xbe64eff7	-0.22357164
63	0x3cf4ac5a	0.02986734
64	0x3d009787	0.031394508
65	0x3c8227ee	0.01588818
66	0x3e550d13	0.20805769
67	0x3f9236af	1.1422938
68	0xbe2e8861	-0.17044212
69	0xbdc2b699	-0.09507484
70	0x3ebad8d4	0.36493552
71	0xbe99d34e	-0.30044025
72	0x3e608599	0.21925963
73	0xbe6f668d	-0.23378964
74	0xbe161ab7	-0.14658628
75	0xbd198210	-0.037477553
76	0xbef2706f	-0.47351405
77	0xbe7acc74	-0.24492055
78	0x3d9223b3	0.07135715
79	0xbe270530	-0.16310573
80	0xbdd282c5	-0.102788486
81	0xbe666020	-0.22497606
82	0xbe0f74e7	-0.14009438
83	0xbe38d876	-0.18051323
84	0x3d44bd4b	0.048032086
85	0xbe51902a	-0.2046515
86	0xbdaf35da	-0.08555193
87	0x3d10ce48	0.035352975
88	0x3dc7829f	0.09741711
89	0xbb0d53a8	-0.0021564756
90	0xbc52b47d	-0.012860415
91	0x3d4e6753	0.050391506
92	0xbe8bc933	-0.2730194
93	0xbc8c0c03	-0.017095571
94	0x3cf1e60a	0.029528636
95	0xbd37b080	-0.044846058
96	0xbd67da2c	-0.05660455
97	0x3e0ad13c	0.13556379
98	0xbd559fce	-0.052154355
99	0x3f842de4	1.0326505
100	0xbddb32ec	-0.10703072
101	0x3ea85f2e	0.32885116
102	0xbe7d6f6b	-0.24749534
103	0x3eb4a9f5	0.35285917
104	0x3eaac29f	0.3335161
105	0x3c5c4e1a	0.013446355
106	0xbe4e9b0d	-0.20176335
107	0x3d774000	0.06036377
108	0x3ee9c900	0.45661163
109	0x3e441075	0.19146903
110	0xbbde5b0a	-0.006785755
111	0x3eba12c6	0.36342448
112	0x3e732cc2	0.23747543
113	0x3e479ff6	0.19494614
114	0x3e2466d9	0.16054858
115	0x3e0adaf6	0.1356009
116	0x3d2490a5	0.040177006
117	0x3e9d1741	0.30681804
118	0xbd287885	-0.04113056
119	0xbd4b0a2d	-0.04957025
120	0x3eb3c3e7	0.351104
121	0xbcf320c0	-0.029678702
122	0x3d1d2b11	0.03837115
123	0xbd59768e	-0.05309158
124	0x3e3986e5	0.18117864
125	0x3b8bb822	0.0042638937
126	0xbc54fd14	-0.012999792
127	0xbdab3fa6	-0.08361749
128	0xbf0af1d7	-0.5427527
129	0xbc10a882	-0.008829238
130	0xbe37f187	-0.17963229
131	0x3a89c52f	0.0010511036
132	0xbc315f4e	-0.010825945
133	0xbdcd904c	-0.10037288
134	0x3bde0dbe	0.0067765405
135	0xbd443a80	-0.047907352
136	0x3e4913a1	0.19636394
137	0xbea1474b	-0.31499705
138	0x3e4cec9d	0.20012136
139	0xbcecb53c	-0.028895013
140	0x3ed53174	0.41639292
141	0xbc943d18	-0.018095538
142	0x3e64d7f1	0.22348
143	0xbf0cf463	-0.55060405
144	0x3e7915c0	0.24324703
145	0xbec00ca8	-0.37509656
146	0x3e31d49d	0.17366262
147	0xbe359181	-0.17731287
148	0xbd9d3f9c	-0.07678148
149	0x3daccdb5	0.08437673
150	0xbe6bd999	-0.23032226
151	0xbd9a91b4	-0.07547322
152	0xbf169fe5	-0.5883773
153	0x3e26872b	0.162625
154	0xbd37cbc0	-0.044872046
155	0xbdc80246	-0.097660586
156	0x3e840677	0.25786182
157	0x3cf07eaf	0.029357282
158	0xbdc4e57c	-0.09614083
159	0xbd211c48	-0.03933361
160	0xbd4463cb	-0.047946732
161	0xbe106a39	-0.1410302
162	0xbeed1287	-0.46303198
163	0x3ec0e83a	0.37677175
164	0xbd8d8684	-0.069104224
165	0x3dbe0727	0.09278708
166	0x3ecef513	0.40421352
167	0xbf8cb10e	-1.0991533
168	0xbd0b977f	-0.034080025
169	0xbd8fc041	-0.070190914
170	0xbe3b4b32	-0.18290403
171	0x3cd0f35c	0.025506668
172	0xbebbae97	-0.3665664
173	0x3b1d17d8	0.002397051
174	0x3e6d9235	0.23200305
175	0x3e88aa84	0.26692593
176	0x3e1535c3	0.1457129
177	0x3dee5955	0.116381325
178	0xbec8f3d8	-0.39248538
179	0xbc1ede0a	-0.009696493
180	0x3e21d035	0.15802081
181	0xbd5c5d10	-0.05379969
182	0xbe2f9391	-0.17146136
183	0xbdad6e5b	-0.08468314
184	0x3d428961	0.047494296
185	0xbecd1d8a	-0.400616
186	0x3b4feffc	0.0031728735
187	0x3c9485dd	0.018130237
188	0xbcc4c72b	-0.024020752
189	0x3c5456bd	0.012960133
190	0x3c78e959	0.015192353
191	0x3d409256	0.047014557
192	0x3eec89a9	0.46198776
193	0x3d444674	0.04791875
194	0x3d52f8be	0.05150675
195	0x3cdffb38	0.02734147
196	0xbd68981d	-0.05678569
197	0xbfa580b1	-1.2929899
198	0xbe1a15c5	-0.15047367
199	0xbe7cabb1	-0.2467487
200	0xbd4ac922	-0.04950822
201	0xbf1b14ed	-0.60578805
202	0xbe98158e	-0.29703945
203	0xbe6436b6	-0.22286496
204	0xbd43435d	-0.047671665
205	0x3e6a4e67	0.2288147
206	0x3e415f97	0.18884121
207	0xbd6b589f	-0.057457563
208	0xbd956cbe	-0.072961316
209	0x3db9aa76	0.09065716
210	0xbd827ee7	-0.06371861
211	0x3eb1a6f4	0.34697688
212	0xbe19208b	-0.1495382
213	0xbe4120e6	-0.18860206
214	0xbeb35945	-0.35029045
215	0x3e03b50e	0.12862036
216	0xbe11936a	-0.1421639
217	0x3f17a99b	0.5924317
218	0xbe2a94da	-0.16658345
219	0xbcaf5936	-0.021404844
220	0x3e0e0d5e	0.13872287
221	0x3e2b842d	0.1674964
222	0x3e478f03	0.19488148
223	0x3e13d05f	0.14434956
224	0xbe9e88cc	-0.30963743
225	0xbde6aa7c	-0.11262986
226	0xbec065b5	-0.37577596
227	0xbdbe7642	-0.092999
228	0xbe02a0a6	-0.12756595
229	0x3e378f79	0.17925824
230	0xbe94014c	-0.2890724
231	0xbf9ccabf	-1.2249373
232	0x3e7efd31	0.24901272
233	0x3e15cacb	0.1462814
234	0xbd176860	-0.036964774
235	0x3d7ad2ec	0.061236307
236	0xbd005990	-0.031335413
237	0x3d426707	0.047461536
238	0x3f00a562	0.50252354
239	0x3e2c680c	0.16836566
240	0x3ea90ff2	0.33019978
241	0x3d03d054	0.0321811
242	0x3eb9fcba	0.36325628
243	0xbb37e7d6	-0.002806177
244	0xbc329626	-0.010900056
245	0xbdbd7dbb	-0.09252497
246	0x3d92ab03	0.07161524
247	0x3d81b8ca	0.06334074
248	0x3e355c28	0.17710936
249	0xbda94096	-0.08264272
250	0x3b058a4f	0.0020376628
251	0xbbadedba	-0.00530788
252	0xbc5d2780	-0.013498187
253	0x3d292937	0.04129907
254	0x3d07465c	0.033026084
255	0xb91899af	-0.00014553101

l1.bias f4 [256]
0	0x3e828d4c	0.25498426
1	0xbd498b9f	-0.04920542
2	0x3e7ffb75	0.24998267
3	0xbe572b88	-0.210127
4	0xbe508cd8	-0.20366228
5	0xbe779704	-0.24178702
6	0x3d9c4be5	0.07631663
7	0xbeb1d884	-0.347355
8	0x3dd6f2e2	0.10495545
9	0xbd7d9993	-0.061914038
10	0xbe89953a	-0.26871663
11	0xbd807802	-0.0627289
12	0xbe1aaa82	-0.15104106
13	0x3be04ca1	0.0068450724
14	0xbe97d1f2	-0.29652363
15	0x3c9a6b25	0.018849919
16	0xbdb61883	-0.08891394
17	0xbd541d92	-0.051786013
18	0xbe79f69d	-0.24410482
19	0xbe3014df	-0.17195462
20	0xbe9f624f	-0.3112969
21	0xbe0c7dd2	-0.13719872
22	0x3d114a24	0.035471097
23	0xbe3b90bd	-0.18316932
24	0x3e08a56f	0.13344358
25	0xbd96daf4	-0.07365981
26	0xbcaf4d50	-0.02139917
27	0xbe0af6b3	-0.13570671
28	0xbe61c0d3	-0.22046213
29	0xbd597fe5	-0.053100485
30	0x3f0fc6d4	0.5616276
31	0xbd3c1d82	-0.04592658
32	0x3e2e8c4c	0.17045707
33	0x3e29f58d	0.16597576
34	0x3d75a6d2	0.059973545
35	0x3e7dbb24	0.2477842
36	0x3e8e543a	0.27798635
37	0x3dd4ca73	0.103901766
38	0xbe263503	-0.1623116
39	0x3dabea90	0.083943486
40	0xbe7e13e2	-0.24812272
41	0xbe322bf1	-0.17399575
42	0xbd49e2ac	-0.049288437
43	0x3ea15ea6	0.31517524
44	0x3b9ab982	0.0047218213
45	0x3d0781da	0.03308282
46	0xbdfdb491	-0.12387956
47	0x3e213568	0.15743029
48	0x3d813d8d	0.06310568
49	0x3d0c3123	0.034226548
50	0x3e9d6bdc	0.30746353
51	0x3be075b2	0.006849968
52	0xbe630c74	-0.22172719
53	0x3c2710ce	0.010196878
54	0xbe3fd0b2	-0.18731955
55	0x3e3fdc11	0.18736292
56	0xbed00ca4	-0.40634644
57	0x3e1c4140	0.15259266
58	0xbd62d345	-0.055377264
59	0x3da3b6de	0.079938635
60	0xbe4ca994	-0.19986564
61	0x3e68d116	0.2273601
62	0x3dc57a71	0.096424945
63	0xbe504efd	-0.20342632
64	0xbe3d2186	-0.1846982
65	0xbdb5a387	-0.08869081
66	0x3e06e8fe	0.13174817
67	0x3e82eed6	0.25572842
68	0xbd02ff37	-0.031981673
69	0xbe05e3ab	-0.1307513
70	0x3def8235	0.11694757
71	0xbe021f4a	-0.12707248
72	0xbd46ad49	-0.0485051
73	0x3e321a02	0.17392734
74	0xbd89027d	-0.06689928
75	0xbe169ebc	-0.1470899
76	0x3dda891f	0.10670685
77	0xbd82e424	-0.063911706
78	0xbe04380c	-0.12912005
79	0x3e4178a0	0.18893671
80	0xbcb91e51	-0.022597464
81	0xbdb96078	-0.09051603
82	0xbeafb43d	-0.34317198
83	0x3ca3d630	0.019999593
84	0x3d35fb4d	0.044429112
85	0xbe5fc491	-0.21852328
86	0x3e53ec04	0.20695502
87	0xbe2a4e81	-0.1663151
88	0xbd0a6208	-0.033784896
89	0xbb1e0510	-0.0024111904
90	0x3dc00b92	0.09377207
91	0xbe326207	-0.17420207
92	0x3ddfcb5c	0.109274596
93	0x3e2296c1	0.1587782
94	0x3d3e7ceb	0.04650585
95	0xbca0e093	-0.019638335
96	0x3ea3206b	0.3186067
97	0xbe95687e	-0.29181284
98	0x3d80dcd1	0.062921174
99	0x3e5e20d3	0.21692209
100	0xbe065515	-0.13118394
101	0xbdf55154	-0.11978403
102	0xbe8fcd19	-0.28086165
103	0x3caa72fe	0.020806786
104	0xbe7c604c	-0.2464611
105	0xbe906b22	-0.28206736
106	0x3dcd99a2	0.10039069
107	0xbe8296ea	-0.25505763
108	0xbb015dfc	-0.0019739857
109	0xbe364a3a	-0.17801753
110	0xbdd21025	-0.102569856
111	0xbe658c6d	-0.2241685
112	0x3d8572d5	0.06516043
113	0x3e332d55	0.17497762
114	0x3e27889e	0.16360709
115	0xbe66e768	-0.22549212
116	0x3ebd06eb	0.3691934
117	0xbe0fa054	-0.14026004
118	0x3e6c4479	0.23072995
119	0xbb2aa59f	-0.002603866
120	0x3e2dc98d	0.16971417
121	0x3d12ff93	0.035888266
122	0x3e2de35d	0.16981263
123	0xbe1c9d87	-0.15294467
124	0xbdbaecf8	-0.091272295
125	0xbdb382d2	-0.08765186
126	0x3e322900	0.17398453
127	0x3e1a70e4	0.15082127
128	0xbeb54ac3	-0.354086
129	0x3d0de064	0.034637824
130	0x3e6b0942	0.2295275
131	0xbdf4ff86	-0.119628
132	0x3df19b70	0.117972255
133	0xbe7a0e0a	-0.24419418
134	0xba9e0461	-0.0012055748
135	0x3e170f89	0.1475202
136	0x3af774b7	0.0018879388
137	0x3e4aea9f	0.19816063
138	0x3eaee246	0.34157008
139	0xbd94aa88	-0.07259089
140	0xbedbf84e	-0.4296288
141	0x3e05d078	0.13067806
142	0xbe64ecc9	-0.22355951
143	0xbde0987e	-0.109665856
144	0xbde241fd	-0.110477425
145	0x3d361a3d	0.044458617
146	0x3e555152	0.20831802
147	0xbe20331c	-0.15644497
148	0x3e4756ab	0.19466655
149	0x3d958d6b	0.07302364
150	0x3dd23265	0.10263518
151	0x3da5016f	0.08056914
152	0x3cc84992	0.024449144
153	0xbcc22f37	-0.023704154
154	0xbcbdeeb1	-0.023185106
155	0xbe2e25c4	-0.17006594
156	0xbe4d61ee	-0.20056888
157	0xbdaa8a48	-0.08327156
158	0x3dd97f1a	0.10619946
159	0xbe5653c0	-0.20930386
160	0x3cbbea0e	0.022938754
161	0x3ea69283	0.32533655
162	0xbda985fe	-0.0827751
163	0xbdad77d1	-0.08470119
164	0xbe430741	-0.19045736
165	0xbdbe6f8f	-0.09298622
166	0x3c24751d	0.010037688
167	0xbe5c12aa	-0.21491495
168	0x3bdc694f	0.006726421
169	0x3e9f8e94	0.31163466
170	0x3da19e69	0.078915425
171	0x3d5473c6	0.051868223
172	0x3eaa23ce	0.33230442
173	0xbe934f94	-0.2877165
174	0xbca80153	-0.020508444
175	0xbe01a5c1	-0.12660886
176	0x3da122e9	0.07867987
177	0x3e7988c9	0.24368586
178	0xbe0bc4ce	-0.13649294
179	0xbce6f5f4	-0.028193451
180	0x3e97b96a	0.29633647
181	0x3e6418fb	0.22275154
182	0xbe223da3	-0.15843825
183	0x3d5bd3ab	0.05366866
184	0xbe4fb2b8	-0.2028302
185	0x3e99d2de	0.3004369
186	0x3df11716	0.117719814
187	0xbd0b1e92	-0.0339647
188	0x3d267869	0.040642176
189	0xbeba11b3	-0.36341628
190	0x3b6d5dd4	0.0036219256
191	0x3dca3ef7	0.09875291
192	0xbe013143	-0.12616448
193	0x3e650a54	0.22367221
194	0x3e05014c	0.12988776
195	0xbe3a7581	-0.18208887
196	0x3e330d4f	0.17485546
197	0xbe940436	-0.28909463
198	0xbdfc51c2	-0.123202816
199	0x3e21ac23	0.15788321
200	0xbe90c094	-0.28271925
201	0xbcf8fdd0	-0.030394465
202	0x3c3b7521	0.0114415
203	0x3ea2e80e	0.3181767
204	0x3e741ab0	0.23838305
205	0x3deb1c47	0.11480003
206	0xbe7daa30	-0.24771953
207	0x3e1f71af	0.1557071
208	0xbd98e9a4	-0.074664384
209	0x3e60ca30	0.21952128
210	0x3e237070	0.1596086
211	0x3d73654d	0.05942278
212	0x3cfa6150	0.03056398
213	0xbebd6c79	-0.3699682
214	0xbe863db7	-0.2621896
215	0x3e459121	0.19293644
216	0xbe879819	-0.2648323
217	0xbe42117c	-0.18951982
218	0x3df34b17	0.118795566
219	0x3e888129	0.2666104
220	0xbd99b73f	-0.075056545
221	0xbe2cbad0	-0.16868138
222	0x3e811dd6	0.25218076
223	0xbba75227	-0.005106229
224	0x3cff1474	0.031137682
225	0xbd9bee87	-0.07613855
226	0xbe81010d	-0.25196114
227	0xbdc57a5c	-0.09642479
228	0xbe3f45af	-0.18678926
229	0xbdbf872a	-0.093519524
230	0x3e4f9ee7	0.2027546
231	0x3e067567	0.13130723
232	0x3e629b20	0.22129488
233	0x3d2080cc	0.03918533
234	0xbe155fee	-0.14587376
235	0x3e32225c	0.1739592
236	0x3e53905f	0.20660542
237	0x3dddb6cf	0.108258836
238	0x3dd18141	0.10229731
239	0x3e50060f	0.20314811
240	0x3e088ef3	0.13335781
241	0x3d87177d	0.06596277
242	0x3e5058d8	0.20346391
243	0x3e17adfc	0.14812464
244	0xbe652c50	-0.22380185
245	0x3d428fa9	0.047500286
246	0x3cf587aa	0.029971916
247	0xbabc622c	-0.0014372519
248	0x3e680ae4	0.22660404
249	0x3e82eccb	0.25571284
250	0xbde8fd43	-0.11376431
251	0xbdc0bec5	-0.094113864
252	0xbde55e8f	-0.11199676
253	0x3e9c1642	0.3048573
254	0x3e47ae84	0.19500166
255	0x3e58dce2	0.2117801

l2.weight f4 [256, 256]
0	0xbd7be0bd	-0.061493624
1	0x3c902b54	0.017598785
2	0x3d5c5034	0.053787425
3	0xbca441fc	-0.020050995
4	0xbc91c332	-0.017793272
5	0xbd33777a	-0.043815114
6	0xbd50885a	-0.050911285
7	0x3d203d3a	0.03912089
8	0x3cab07c8	0.020877734
9	0xbd3a8a63	-0.045542132
10	0xbcb70fdc	-0.02234643
11	0xbd43c9d6	-0.047799908
12	0xbc9fb3c3	-0.019494897
13	0x3c935bea	0.017988164
14	0xbd5d1789	-0.053977523
15	0x3d13f5cc	0.036123082
16	0xbce99263	-0.028512185
17	0xbc8bf84d	-0.017086172
18	0xbcda1af9	-0.02662419
19	0x3cff6fec	0.031181298
20	0x3d3d3167	0.046189692
21	0xbd1b47b6	-0.037910186
22	0xbc1e7284	-0.009670857
23	0xbd7754fd	-0.060383786
24	0xbcb891f9	-0.022530543
25	0xbd167ced	-0.036740232
26	0xbd5d7e3d	-0.05407547
27	0xbbf6bfc0	-0.0075301826
28	0x3d2711d7	0.040788498
29	0xbd6a3e48	-0.057188302
30	0xbd72da30	-0.05929011
31	0xbd13313d	-0.03593563
32	0xbd703137	-0.058640685
33	0xbccf4f88	-0.025306478
34	0xbd14c740	-0.036322832
35	0x3b88e4c9	0.004177664
36	0xbd3ad083	-0.04560901
37	0xbd583970	-0.05278915
38	0x3d0fbb77	0.03509089
39	0xbd5cb613	-0.053884577
40	0xbd3b746b	-0.04576532
41	0x3bc43140	0.0059873164
42	0x3d12f483	0.035877716
43	0xbc9d1de4	-0.019179292
44	0xbd125477	-0.035725083
45	0xbd483d89	-0.04888681
46	0x3c86798a	0.016415376
47	0x3d27acd5	0.04093631
48	0xbd2d3cb4	-0.04229422
49	0x3d627870	0.05529064
50	0xbcb96dff	-0.022635458
51	0x3d59d338	0.05317995
52	0x3c8e8a34	0.017399885
53	0xbd270231	-0.040773574
54	0x3b5c3060	0.003359817
55	0xbd3d0df4	-0.046155885
56	0x3c73592f	0.014852806
57	0xbca61cd7	-0.020277424
58	0xbd6a9dda	-0.057279445
59	0x3c854d4e	0.016272213
60	0xbb09f1c0	-0.0021048635
61	0xbb5ba2a8	-0.0033513699
62	0xbc1d0962	-0.009584757
63	0xbd527e90	-0.05139023
64	0xb8312800	-4.223734e-05
65	0xbc711cc8	-0.014716335
66	0x3c9c669e	0.0190919
67	0xbd36eab5	-0.044657428
68	0xbd81b94d	-0.063341714
69	0xbc51e2fe	-0.012810467
70	0xbc931a8b	-0.017956993
71	0x3d15a40e	0.036533408
72	0xbc1973a8	-0.0093659535
73	0xbd54a560	-0.051915526
74	0x3d35e581	0.044408325
75	0x3cf6bf0e	0.030120399
76	0xbd82f001	-0.06393433
77	0xbd764149	-0.060120855
78	0xbd4c9ac2	-0.049952276
79	0xbd5996aa	-0.0531222
80	0xbd637d74	-0.055539563
81	0xbd60d15f	-0.05488717
82	0x3d653a53	0.055963825
83	0x3cc00740	0.023440957
84	0x3d6b19d4	0.05739768
85	0xbce21382	-0.027597193
86	0xbc334f0c	-0.010944139
87	0xbd2451aa	-0.040116943
88	0xbc8079a7	-0.015683008
89	0x3c95ae57	0.018271608
90	0xbd2f6543	-0.04282118
91	0x3d49cc18	0.049266905
92	0x3bc617cc	0.0060453173
93	0x3d804fb6	0.06265204
94	0xbd8624da	-0.06549998
95	0xbcab19b6	-0.020886283
96	0xbd1b932e	-0.03798216
97	0x3cc6a683	0.02424932
98	0x3d3b2f40	0.045699358
99	0x3d12dfb8	0.035857886
100	0x3d023729	0.031790886
101	0xbcfe3fa4	-0.031036206
102	0xbd2c047e	-0.04199647
103	0x3d2f60ec	0.04281704
104	0xbca677c9	-0.02032079
105	0xbd53a88c	-0.05167441
106	0xbd627fdb	-0.055297714
107	0x3ce86ee6	0.028373193
108	0xbca78042	-0.0204469
109	0xbb5e050e	-0.0033877525
110	0xbcf69648	-0.030100957
111	0x3ca0a854	0.019611515
112	0xbc9edf54	-0.0193936
113	0xbc83d7d7	-0.016094131
114	0xbd2a7e20	-0.04162419
115	0xbd280c63	-0.041027438
116	0x3d0d3254	0.034471825
117	0xbd140e40	-0.036146402
118	0xbd029729	-0.03188244
119	0xbd3ff786	-0.046866916
120	0xbd229f85	-0.03970291
121	0x3d016a29	0.031595383
122	0x3d1fd498	0.039021105
123	0x3b4c5b0e	0.0031182203
124	0xbd155660	-0.036459327
125	0xbcca4d41	-0.02469504
126	0xbd5b2400	-0.05350113
127	0x3d71c04a	0.05902127
128	0x3d6c5c78	0.057705373
129	0xbd7e0cee	-0.06202405
130	0xbcdce5fe	-0.026965138
131	0x3cb11b86	0.02161957
132	0xbc5896b8	-0.013219528
133	0xbb767242	-0.0037604724
134	0xbd129dba	-0.03579495
135	0x3d543d60	0.051816344
136	0x3b2e2631	0.0026573057
137	0xbae8904f	-0.0017743203
138	0x3d050e78	0.0324845
139	0x3c1afc48	0.009459563
140	0xbd000720	-0.031256795
141	0x3cf08ad0	0.029363066
142	0x3d1261ac	0.03573768
143	0xbcdbd913	-0.026836907
144	0x3d04996a	0.03237287
145	0xbd3d3d5b	-0.04620109
146	0x3c5b13e3	0.013371441
147	0x3c6c8e99	0.014438295
148	0x3c7adc40	0.015311301
149	0xbbcfcd82	-0.006341637
150	0xbd37dd0c	-0.04488854
151	0xbd05b0f1	-0.032639448
152	0x3c415b3b	0.011801536
153	0xbd7c3ec6	-0.061583303
154	0xbcb7c3d6	-0.022432249
155	0xbc78cb5b	-0.0151852025
156	0x3cf61589	0.030039566
157	0x3ccd4060	0.02505511
158	0x3c8cfbcd	0.017209912
159	0x3cc51d70	0.024061888
160	0x3cd7b7d0	0.026332766
161	0xbc6168e8	-0.013757922
162	0xbbfd6768	-0.0077332743
163	0x3d3faf53	0.04679806
164	0xbd39daa3	-0.045374524
165	0xbcb58ad6	-0.022160929
166	0xbabae8a4	-0.0014260006
167	0xbca68c28	-0.020330504
168	0x3d3cb4dc	0.04607092
169	0xbc04be91	-0.008102075
170	0x3b9a8d20	0.0047165304
171	0xbd2aea4b	-0.041727345
172	0xbd559144	-0.05214049
173	0xbd55ac40	-0.052166224
174	0xbbb71e8d	-0.0055883587
175	0xbcd9bc53	-0.026579058
176	0xbd135c9f	-0.035977002
177	0x3cb9c4f8	0.02267693
178	0xbc057645	-0.008145873
179	0xbbbe9bc0	-0.0058169067
180	0xbd33039f	-0.043704625
181	0xbd1ae148	-0.0378125
182	0xbc3b4bd2	-0.011431651
183	0xbc56bdb4	-0.013106752
184	0xbd4925ef	-0.049108442
185	0x3d667170	0.056260526
186	0xbc9dabac	-0.019246899
187	0xbcbdd9af	-0.023175089
188	0x3d19b472	0.0375256
189	0xbd5bc86f	-0.053657945
190	0xbcd7401e	-0.02627569
191	0xbd21c9bd	-0.039499033
192	0x3b44a3fb	0.0030004967
193	0x3bb7ac05	0.005605223
194	0x3d071e35	0.032987792
195	0xbd6e9e2e	-0.05825632
196	0xbaaebf4d	-0.0013332159
197	0xbc9e52f6	-0.019326668
198	0x3d6f9996	0.05849608
199	0x3d48e798	0.04904899
200	0xbd78a5b7	-0.060704913
201	0xba32cc7b	-0.0006820631
202	0x3cc25d3f	0.023726104
203	0x3d740f51	0.05958492
204	0xbcdc7dc8	-0.026915446
205	0xbd16b4cb	-0.03679351
206	0xbd7b5129	-0.061356697
207	0xbd22ba0c	-0.03972821
208	0xbd3b56b3	-0.04573698
209	0x3ce15eee	0.027511086
210	0x3cba70f4	0.022758938
211	0x3cffc2de	0.03122085
212	0xbc39003a	-0.011291558
213	0xbc6fc0d1	-0.014633373
214	0xbd53e6b4	-0.051733688
215	0x3d1bb931	0.03801841
216	0x3d3581a6	0.044313096
217	0xbd56b7d3	-0.052421402
218	0x3d43b77c	0.047782406
219	0xbcd58815	-0.026065866
220	0xbca05ed0	-0.01957646
221	0xbd010b58	-0.03150496
222	0x3bde7b2e	0.0067895865
223	0xbd5d7c80	-0.05407381
224	0x3cc87f60	0.0244748
225	0xbc9d7ec8	-0.019225493
226	0x3cd32a3e	0.025776979
227	0x3c971ee9	0.018447356
228	0x3d4f4550	0.05060321
229	0xbd6d1301	-0.05787945
230	0x3d3268e7	0.043557074
231	0xbcf7c930	-0.0302473
232	0x3d4e344c	0.050342843
233	0x3d7c2194	0.06155546
234	0x3c1bcbd6	0.0095090475
235	0x3d17de87	0.037077453
236	0xbc9e09c5	-0.019291768
237	0xbca2a753	-0.019855177
238	0x3b3fc538	0.0029261839
239	0xbcce5256	-0.025185745
240	0x3d6edd8c	0.058316752
241	0x3d4bd71d	0.049765695
242	0xbcb16b1c	-0.021657519
243	0xbccbf598	-0.024897382
244	0xbd5ac554	-0.053410843
245	0xbad07e05	-0.0015906697
246	0xbb9cb25a	-0.0047820034
247	0xbd0d5e38	-0.034513682
248	0xbd331aee	-0.043726854
249	0x3b5c96f2	0.0033659306
250	0x3d189c98	0.037258714
251	0xbd27187c	-0.040794834
252	0xbc930cdd	-0.01795047
253	0xbd6345ea	-0.055486597
254	0x3d3b96af	0.045798
255	0x3c74eb7b	0.014948721

l2.bias f4 [256]
0	0xbd8077fe	-0.06272887
1	0x3e678054	0.22607547
2	0x3df79039	0.12088055
3	0xbdbb0164	-0.091311246
4	0x3e7b2a72	0.2452791
5	0x3e4f8dc8	0.20268929
6	0xbe4e55e0	-0.20149946
7	0x3e789292	0.24274662
8	0x3e63131b	0.22175257
9	0x3e2d0594	0.16896659
10	0xbe5736a9	-0.21016945
11	0x3e32c529	0.17458023
12	0x3e29352f	0.16524194
13	0x3e63d5f6	0.22249588
14	0xbe3ed6cc	-0.18636626
15	0x3e44dfe5	0.19226034
16	0x3e2e4270	0.17017531
17	0x3e22095d	0.15823884
18	0xbc85794b	-0.016293189
19	0x3e2cf185	0.16889007
20	0xbe086dc4	-0.13323122
21	0x3e9c5b47	0.3053839
22	0x3e3f0ff6	0.18658432
23	0xbe400ee0	-0.18755674
24	0x3d00c9e1	0.031442527
25	0x3e28893b	0.164586
26	0xbdd479ed	-0.10374818
27	0x3e32676d	0.17422266
28	0x3e243385	0.16035278
29	0xbe3fe483	-0.18739514
30	0x3e77e4e5	0.2420841
31	0xbdc817ef	-0.0977019
32	0xbdf851f5	-0.12125007
33	0xbe0efc6c	-0.13963479
34	0xbd1444be	-0.03619837
35	0x3e761fa6	0.2403551
36	0xbe08f3d0	-0.13374257
37	0x3e5e29b2	0.21695593
38	0x3e8c5615	0.27409425
39	0x3e83d4b5	0.2574822
40	0x3e35f900	0.17770767
41	0x3e431317	0.19050251
42	0xbe1d65de	-0.1537089
43	0xbe2bbe97	-0.16771923
44	0x3e7ad57e	0.24495503
45	0x3e691ca6	0.22764835
46	0x3e91d513	0.28482875
47	0xbe0c6aa7	-0.1371256
48	0x3e3109f9	0.1728896
49	0xbdf24158	-0.118288696
50	0x3e78a67e	0.24282262
51	0x3e399bc2	0.18125823
52	0xbd7a721a	-0.061143972
53	0x3b2cbc43	0.002635733
54	0xbe1c62db	-0.15272085
55	0xbd95690f	-0.07295429
56	0x3e3eaa34	0.18619615
57	0xbe5a7a64	-0.21335751
58	0xbe127c00	-0.14305115
59	0xbde56c3b	-0.11202284
60	0xbe4e885e	-0.20169207
61	0x3e16646b	0.14686744
62	0xbe14c320	-0.1452756
63	0x3e8ec73f	0.27886388
64	0xbe0445ce	-0.12917253
65	0xbe1a2ee5	-0.15056951
66	0xbe27bd7a	-0.16380873
67	0xbcd80ff5	-0.026374796
68	0x3e5c30a3	0.21502928
69	0x3e324298	0.17408216
70	0xbe1b1422	-0.15144399
71	0x3e55d412	0.2088168
72	0xbe1479e0	-0.14499617
73	0x3d9f950f	0.077921025
74	0x3e3d2a92	0.1847327
75	0x3e3b21b5	0.18274577
76	0x3e866d01	0.26255038
77	0xbe21df23	-0.15807776
78	0xbd808e84	-0.06277183
79	0xbe20dee0	-0.1571002
80	0xbc1e1c2b	-0.00965027
81	0x3e80bd0f	0.2514424
82	0xbe05f582	-0.13081935
83	0xbdb9943b	-0.09061476
84	0x3e3c0a32	0.18363264
85	0xbe0fd424	-0.14045769
86	0x3e1bdaad	0.15220137
87	0xbd1bb722	-0.038016446
88	0x3d69879f	0.057014104
89	0x3dd7058f	0.10499107
90	0x3e38da79	0.1805209
91	0x3e18701e	0.1488652
92	0xbe908e3d	-0.2823352
93	0x3ded2c4a	0.11580713
94	0x3e1cc706	0.15310296
95	0x3e8d55f3	0.27604637
96	0x3e4318ff	0.19052504
97	0xbdf35134	-0.11880723
98	0xbe0ac04b	-0.13549916
99	0x3de22537	0.110422544
100	0x3e52c55e	0.20583102
101	0xbe42dc07	-0.19029246
102	0x3e7113bd	0.23542686
103	0x3e581fd7	0.21105896
104	0x3e6c4086	0.23071489
105	0xbe033139	-0.12811746
106	0x3e08fd19	0.13377799
107	0xbbb89377	-0.0056328136
108	0x3e838fb9	0.2569559
109	0xbc9fe1e5	-0.019516895
110	0x3d919652	0.071087494
111	0xbd444a0d	-0.047922183
112	0x3de49232	0.11160697
113	0x3c54358a	0.012952218
114	0xbe2934ca	-0.16524044
115	0xbd95a9f5	-0.07307807
116	0xbdadf796	-0.08494489
117	0xbe30ba60	-0.17258596
118	0x3e93c9e8	0.2886498
119	0x3e477779	0.19479169
120	0x3d8e7c40	0.069572926
121	0x3e6256b7	0.22103392
122	0xbe0879a1	-0.13327648
123	0x3d0f6a78	0.035013646
124	0x3dfb2aed	0.12264047
125	0xbe36bf49	-0.17846407
126	0xbe2585c7	-0.16164313
127	0xbb2b08cd	-0.0026097775
128	0xbda893a3	-0.082312845
129	0xbd87bcae	-0.06627785
130	0x3d8f6ac6	0.07002787
131	0x3e24548b	0.16047876
132	0x3c44d60e	0.012013925
133	0x3e01925f	0.12653492
134	0x3e5eeb9f	0.2176957
135	0x3e933b93	0.2875639
136	0xbcdfe9ef	-0.027333228
137	0x3e4b4751	0.19851424
138	0xbd875cdd	-0.06609509
139	0x3e89e127	0.2692959
140	0xbe65a8fd	-0.22427745
141	0x3e485b83	0.19566159
142	0x3e80f653	0.2518793
143	0xbe03e2b1	-0.12879445
144	0xbd6180cb	-0.055054467
145	0x3e8302f8	0.25588202
146	0x3e655158	0.22394311
147	0xbd9d7bb9	-0.07689614
148	0xbc9f0af5	-0.019414404
149	0x3e6dcc91	0.23222567
150	0x3d4af51e	0.04955017
151	0x3e6a69e1	0.22891952
152	0x3e72c975	0.23709662
153	0x3e5cd825	0.21566828
154	0x3e89311e	0.26795286
155	0xbe84f611	-0.25968984
156	0x3e36a522	0.1783643
157	0x3e7f6878	0.24942195
158	0xbe176272	-0.14783648
159	0xbe070d10	-0.13188577
160	0x3e4ef927	0.20212232
161	0xbdd2a8d0	-0.10286105
162	0x3e1516ac	0.1455943
163	0x3dcb971d	0.09940932
164	0xbde9b5ad	-0.11411605
165	0x3e7a4a1b	0.24442331
166	0x3e240dd7	0.16020904
167	0x3e7d03c2	0.24708465
168	0xbe22479d	-0.15847631
169	0xbe3b7816	-0.18307528
170	0xbd8a0dd9	-0.067409225
171	0xbe287cdd	-0.16453882
172	0x3e65d117	0.22443043
173	0xbdfefb56	-0.12450282
174	0xbc7011da	-0.014652694
175	0xbe2c5d3e	-0.16832444
176	0x3e832b2a	0.2561887
177	0xbdcf0abf	-0.101094715
178	0xbe85051d	-0.25980464
179	0x3e400a9b	0.18754046
180	0x3e3ef03d	0.18646331
181	0x3e59c878	0.21267879
182	0x3e912c18	0.28353953
183	0xbdfe3f47	-0.12414413
184	0xbe59059c	-0.21193546
185	0xbe0e5092	-0.13897923
186	0x3e49250e	0.19643041
187	0x3e3a4fa9	0.1819445
188	0x3c01bcd5	0.007918556
189	0xbe125bb2	-0.14292791
190	0x3e8e0f2d	0.27745953
191	0x3e40b2d0	0.18818212
192	0x3e9160fe	0.28394312
193	0x3df814d8	0.12113351
194	0x3e2082d9	0.15674914
195	0x3e69b67a	0.22823516
196	0x3e794b09	0.2434503
197	0x3dcf64b4	0.101266295
198	0xbe3b43b1	-0.18287541
199	0xbcaa9844	-0.020824559
200	0x3e9bcf0a	0.30431396
201	0x3e4d07b0	0.20022464
202	0x3e97152e	0.29508346
203	0x3e8cd884	0.27508938
204	0x3e395b78	0.18101299
205	0x3e7309be	0.23734185
206	0x3e94d9da	0.29072458
207	0xbda132bd	-0.07871006
208	0x3d77f1a2	0.060533173
209	0xbe5273c9	-0.20551981
210	0xbdf8da7f	-0.1215105
211	0xbd0ff64c	-0.035146996
212	0x3e808f57	0.2510936
213	0xbe043800	-0.12911987
214	0xbce58937	-0.02801953
215	0x3e8301e0	0.25587368
216	0x3de76995	0.11299435
217	0x3e6ee53d	0.23329635
218	0x3e71e241	0.23621465
219	0xbd32f70b	-0.04369263
220	0xbe033cc8	-0.12816155
221	0x3e511697	0.20418774
222	0x3e715034	0.23565751
223	0xbe0be2dd	-0.1366076
224	0x3ea014f1	0.31265977
225	0x3e44b4dc	0.19209617
226	0xbd2e6ff1	-0.042587224
227	0x3cf98385	0.030458221
228	0xbe25928f	-0.16169189
229	0x3e8f87ca	0.28033286
230	0xbbbc2790	-0.005742021
231	0x3e4a2702	0.19741443
232	0xbcb9e581	-0.022692444
233	0xbe398b21	-0.1811948
234	0x3e1b28f2	0.15152338
235	0x3e707d98	0.2348541
236	0xbdd587c6	-0.10426287
237	0x3e76579c	0.24056858
238	0xbd10c46a	-0.035343565
239	0x3dd9039a	0.1059639
240	0x3e7bd6e7	0.24593697
241	0xbdfbccc9	-0.12294919
242	0xbe60516d	-0.21906061
243	0xbd656d86	-0.056012653
244	0x3e76da8c	0.24106807
245	0x3e8b8575	0.27250257
246	0x3e35ae87	0.17742358
247	0x3e39cdb1	0.18144871
248	0x3e6248b8	0.22098053
249	0xbe242984	-0.16031462
250	0xbc98ddfc	-0.018660538
251	0xbe29d21c	-0.16584057
252	0xbd7e3386	-0.062060855
253	0xbdf0fe30	-0.117672324
254	0xbddd7a0a	-0.10814293
255	0x3e5a7645	0.21334179

l3.weight f4 [1, 256]
0	0x3cf5d02b	0.030006489
1	0x3e9df380	0.30849838
2	0x3efb5c60	0.49093914
3	0xbf0fe38e	-0.56206596
4	0x3e6837fe	0.2267761
5	0x3e8a457f	0.27006146
6	0xbfe65bcb	-1.7996763
7	0x3e8d72b8	0.27626586
8	0x3f065191	0.5246821
9	0x3e8373ed	0.25674382
10	0xc003c835	-2.0590947
11	0x3e62b67f	0.22139929
12	0x3ec5a0c7	0.38599226
13	0x3f15ff91	0.5859309
14	0xbfb04abe	-1.377281
15	0x3e727a9e	0.23679587
16	0x3ebac49c	0.36478126
17	0x3e380150	0.1796925
18	0xbd01b669	-0.0316681
19	0x3f3104fb	0.69148225
20	0xbf593eb3	-0.84861296
21	0x3ea114fd	0.31461325
22	0x3e3a14ae	0.18171951
23	0xbf37230c	-0.7153785
24	0x3d07a893	0.03311975
25	0x3f51c75c	0.81944823
26	0xbfb5c2b0	-1.4200039
27	0x3ebf253d	0.37333098
28	0x3ece9cfe	0.4035415
29	0xbefb13a9	-0.49038437
30	0x3e66d577	0.22542368
31	0xbf813e8d	-1.0097214
32	0xbfa23c7a	-1.2674706
33	0xbed51c5f	-0.41623208
34	0xbf3bd986	-0.7337879
35	0x3e3a769b	0.18209307
36	0xbfc387e6	-1.5275848
37	0x3e862e67	0.26207277
38	0xbfe05aa8	-1.7527666
39	0x3e836e8a	0.25670272
40	0x3f7e0c67	0.99237674
41	0x3e9d3566	0.30704802
42	0xbf68e1ed	-0.90969735
43	0xbf378771	-0.7169104
44	0x3f11a3fb	0.5689084
45	0x3e5a4ae4	0.21317631
46	0x3e5fcb8f	0.21854995
47	0xbfaacf06	-1.3344429
48	0x3ece8050	0.4033227
49	0xbfaaa493	-1.3331474
50	0x3e6dbcca	0.23216549
51	0x3f30380f	0.6883554
52	0xc065e30f	-3.5919836
53	0xc04125f6	-3.017942
54	0xbf08f744	-0.535023
55	0xbf4cde78	-0.8002696
56	0x3f074e45	0.52853805
57	0xbf7b5c49	-0.9818769
58	0xbff22a88	-1.891923
59	0xbfc4d99a	-1.5378907
60	0xbfe9d9b4	-1.8269563
61	0x3e9eb5ff	0.30998227
62	0xbf4b0ada	-0.79313433
63	0x3e8ec3da	0.27883798
64	0xbf8e8645	-1.1134726
65	0xbf545f69	-0.82958084
66	0xbf693f62	-0.9111234
67	0xbf669652	-0.9007312
68	0x3e9f3fab	0.31103262
69	0x3f2c7cde	0.6737803
70	0xc01c4fc0	-2.4423676
71	0x3e5b0c7a	0.21391478
72	0xbf512c04	-0.8170779
73	0xbfe484f1	-1.785307
74	0x3e866d4a	0.26255256
75	0x3e70b9f9	0.23508443
76	0x3e868ccb	0.26279292
77	0xbf5917fb	-0.84802216
78	0x3d477402	0.048694618
79	0xbf6d7450	-0.92755604
80	0xbf756cf5	-0.9586938
81	0x3e60322d	0.2189414
82	0xbf4392bc	-0.76395774
83	0xbf2a8bed	-0.6661976
84	0x3e635e32	0.22203901
85	0xbf343da3	-0.7040655
86	0x3ec4c127	0.38428614
87	0xc00434c9	-2.0657218
88	0xbf9f858d	-1.2462631
89	0x3fa96eeb	1.3236974
90	0xc035995c	-2.8374853
91	0xbf90c142	-1.1308978
92	0x403eedf1	2.9832728
93	0x3f6b6fae	0.91967285
94	0x3eb2483f	0.34820744
95	0x3e80f3df	0.2518606
96	0x3e65fba5	0.22459276
97	0xbff27326	-1.894139
98	0xbf53f322	-0.82792866
99	0xbf9e5eba	-1.2372658
100	0x3f1e6f79	0.61888844
101	0xbf81a5c8	-1.0128717
102	0x3e5d91cd	0.2163765
103	0xbfae2bae	-1.360708
104	0x3e871345	0.2638189
105	0xbf58af46	-0.84642446
106	0x3ea237c7	0.3168318
107	0xbfb0d7ec	-1.3815894
108	0x3f4c92d7	0.7991156
109	0xc001752d	-2.0227768
110	0xbff9f0e6	-1.9526641
111	0xbfd23150	-1.6421299
112	0x3edc684e	0.43048328
113	0xc044e216	-3.0762992
114	0xbf92a953	-1.1457924
115	0xbf17a210	-0.5923166
116	0xbf715867	-0.94275516
117	0xbf5bd7c3	-0.858761
118	0x3e87d01f	0.2652597
119	0x3e9ea03b	0.3098162
120	0xbfe83827	-1.8142136
121	0x3e737cf8	0.2377814
122	0xbefe8d6f	-0.4971728
123	0xbfc8179a	-1.5632203
124	0x3fffb667	1.997754
125	0xbfd04619	-1.6271392
126	0xbfa98129	-1.3242542
127	0xbf9e7121	-1.2378274
128	0xbfab7e24	-1.339787
129	0xbf37b556	-0.7176107
130	0xbf9b339b	-1.2125124
131	0xbfa2e08c	-1.2724776
132	0xbf99a8bd	-1.200462
133	0x3f67bb11	0.90519816
134	0x3ed678ab	0.41888937
135	0x3e3900a6	0.18066654
136	0xbf4999e9	-0.78750473
137	0x3f141b06	0.57853734
138	0xbf612862	-0.87952244
139	0x3e5e7d55	0.21727498
140	0xbfb424bd	-1.4073712
141	0x3e762654	0.24038059
142	0x3e9f88d9	0.31159094
143	0xbf315f9a	-0.692865
144	0xbf334f1d	-0.7004259
145	0x3efab7fa	0.48968488
146	0x3e76f647	0.24117385
147	0xbf734904	-0.9503329
148	0xc004fea7	-2.0780427
149	0x3f3086a5	0.6895545
150	0x3fee3e93	1.8612846
151	0x3e99cbfc	0.3003844
152	0x3f8c7bb6	1.0975254
153	0x3f364b76	0.71208894
154	0x3e7bbd5c	0.24583954
155	0xbfe4b339	-1.7867194
156	0x3e53f9f3	0.20700817
157	0x3e87c9d2	0.26521164
158	0xbf9dd1c7	-1.2329644
159	0xbf6da0a3	-0.9282324
160	0x3f13b9aa	0.57705176
161	0xbf7fb629	-0.9988733
162	0x3f5f66af	0.8726606
163	0xc04041ac	-3.0040083
164	0xbf3d7710	-0.740098
165	0x3ee0c6b6	0.43901604
166	0x3eae2123	0.34009656
167	0x3e57d7a5	0.21078356
168	0xc01ccf2c	-2.4501448
169	0xc02abf47	-2.6679246
170	0xbf2698df	-0.6507701
171	0xbefeea5e	-0.49788183
172	0x3e3dbfaf	0.18530153
173	0xbf47eae0	-0.78092766
174	0xbf553ee8	-0.8329911
175	0xbf6b6011	-0.9194346
176	0x3e866e23	0.26255903
177	0xbf87f723	-1.0622295
178	0xbfc93246	-1.5718467
179	0x3e863580	0.26212692
180	0x3f2da603	0.6783144
181	0x3f019c82	0.50629437
182	0x3e4c5140	0.1995287
183	0xbf05dc41	-0.52289206
184	0xc0217eb4	-2.5233583
185	0xbf5f0dd9	-0.87130505
186	0x3ef09968	0.4699204
187	0x3f233a2c	0.6376064
188	0xbfd18c57	-1.6370953
189	0xbf9bb9ff	-1.2166137
190	0x3e6abc00	0.22923279
191	0x4001247c	2.0178518
192	0x3e75486c	0.23953408
193	0x3f9dd151	1.2329503
194	0xbfd266a9	-1.6437579
195	0x3f2886ca	0.6583067
196	0xc01ef84c	-2.4839048
197	0xc00d62d8	-2.209158
198	0xbfa4902a	-1.2856495
199	0xbfb2c158	-1.3965254
200	0x3e530c9a	0.20610276
201	0x3f45bcb6	0.77241075
202	0x3e6e3761	0.23263313
203	0x3e501c11	0.20323206
204	0x3eada3fe	0.3391418
205	0x3f1671e3	0.5876753
206	0x3e959971	0.2921863
207	0xbf3dadc3	-0.74093264
208	0x401a77c6	2.4135604
209	0xbf777bc9	-0.96673256
210	0xbf1dd6fb	-0.6165616
211	0xbf250c58	-0.6447196
212	0x3e84c1ab	0.25929007
213	0xbfd24510	-1.6427326
214	0xbfcbbea3	-1.5917553
215	0x3e84eaef	0.2596049
216	0xbfd48a72	-1.660475
217	0x3f385813	0.7200939
218	0x3eac21ac	0.3361944
219	0x3c7bfe01	0.0153803835
220	0xbf59f59e	-0.8514041
221	0x3e636fac	0.22210568
222	0x3f16eb63	0.5895292
223	0xbf0dfc55	-0.55463153
224	0x3e90ede3	0.28306493
225	0x3f026d8c	0.50948405
226	0xbf26235a	-0.6489769
227	0x3d093ecc	0.033507153
228	0xbff24f1c	-1.8930392
229	0x3ea7e684	0.32793057
230	0xbf818db8	-1.0121374
231	0x3f12941d	0.5725725
232	0xbf013fdc	-0.50488067
233	0xbf794033	-0.97363585
234	0xbfb195b5	-1.3873812
235	0x3e7350e9	0.23761334
236	0xbf0a3ed0	-0.54002094
237	0x3e771155	0.24127705
238	0xbd087e97	-0.03332385
239	0xc0114683	-2.2699287
240	0x3e728aee	0.2368581
241	0xbf9bf1d5	-1.2183176
242	0xbfe45167	-1.7837342
243	0xbf3bb975	-0.7332986
244	0x3f38ec98	0.72236013
245	0x3e80a075	0.2512242
246	0x3ed8695d	0.42267886
247	0x3ee49199	0.44642332
248	0x3ece16b4	0.40251696
249	0xc00096de	-2.0092082
250	0xc0059c9f	-2.0876844
251	0xbf99a366	-1.200299
252	0x3c9def97	0.019279284
253	0xbfb92514	-1.446444
254	0xbfb58db9	-1.4183875
255	0x3e79317d	0.24335285

l4.weight f4 [256, 32]
0	0xbd90ba74	-0.07066813
1	0xbd773406	-0.060352348
2	0x3e1e25fd	0.15444179
3	0xbeb6d54a	-0.35709602
4	0xbd8a7845	-0.06761221
5	0xbe97ccb5	-0.29648367
6	0x3def194c	0.11674747
7	0x3ddae3f1	0.106880076
8	0x3e901e51	0.2814813
9	0x3d44a6d9	0.04801068
10	0x3d104f8b	0.035232108
11	0x3bf40d2e	0.00744786
12	0x3e96e947	0.2947485
13	0x3e2410c4	0.1602202
14	0xbda53353	-0.0806643
15	0xbf26bd56	-0.65132654
16	0x3dc72d09	0.09725387
17	0xbe58aa73	-0.21158771
18	0xbded2dfd	-0.11581037
19	0xbe21a101	-0.15784074
20	0x3e989af3	0.29805717
21	0xbf03361c	-0.5125444
22	0xbd9e3fff	-0.0772705
23	0xbe74de44	-0.23912913
24	0xbf2133aa	-0.6296946
25	0x3e791487	0.24324237
26	0xbd531198	-0.05153045
27	0xbd82e9eb	-0.063922726
28	0x3e56ea38	0.20987785
29	0xbded133e	-0.11575936
30	0x3cdaa346	0.026689183
31	0xbda100aa	-0.07861455
32	0x3e601d20	0.2188611
33	0xbdfc4330	-0.123175025
34	0x3e02286a	0.12710729
35	0xbef589c6	-0.47956675
36	0x3dc6654d	0.0968729
37	0xbf85c8bf	-1.0451888
38	0xbe42a4fa	-0.19008246
39	0x3da78b0a	0.081808165
40	0xbdbc96fc	-0.092084855
41	0x3ba201b5	0.004944051
42	0x3e801f9e	0.25024122
43	0xbdec3917	-0.115343265
44	0xbc5d8633	-0.013520765
45	0x3d7a739c	0.06114541
46	0xbe39664b	-0.18105428
47	0xbecfd230	-0.40590048
48	0xbf458d26	-0.771685
49	0xbee8a1bc	-0.45435894
50	0xbf742b86	-0.9537891
51	0xbf271ba4	-0.6527655
52	0x3e3a22d1	0.18177344
53	0xbf012266	-0.5044311
54	0xbeac3a3c	-0.3363818
55	0xbd961a66	-0.07329254
56	0x3e98546f	0.29751918
57	0x3ea7f66e	0.32805198
58	0xbdb12460	-0.08649516
59	0xbcfea168	-0.031082824
60	0x3d22d18f	0.039750632
61	0x3d426469	0.04745904
62	0xbd874280	-0.06604481
63	0xbe32d15f	-0.17462681
64	0x3e9e9d14	0.30979216
65	0xbe24083b	-0.16018765
66	0x3e5ea0fc	0.21741098
67	0x3eace2ee	0.33766884
68	0x3dbd51f9	0.09244151
69	0x3cf3e69c	0.029773049
70	0xbea32bd1	-0.31869367
71	0xbc1c420d	-0.009537232
72	0x3e272699	0.16323318
73	0xbe50a6ac	-0.2037608
74	0xbd7a82ba	-0.061159827
75	0x3e232c2b	0.15934817
76	0x3e0b256d	0.13588496
77	0xbda3aac0	-0.07991552
78	0xbbcc5210	-0.0062353685
79	0xbdac89f7	-0.08424752
80	0x3e820aa8	0.25398755
81	0x3e2c6043	0.16833596
82	0x3ee8429f	0.45363328
83	0x3e9c6fd3	0.30554065
84	0x3e4984a2	0.19679502
85	0xbe8914b2	-0.26773602
86	0xbb992a02	-0.004674197
87	0xbea8a05b	-0.32934842
88	0xbf8ae7af	-1.0851954
89	0xbd2bda4c	-0.04195623
90	0xbd8fb4ea	-0.070169285
91	0xbd981521	-0.07425905
92	0xbdaba979	-0.08381934
93	0xbc0b5a5d	-0.008505431
94	0xbd41c237	-0.04730436
95	0x3db5ed85	0.08883194
96	0xbf245ecb	-0.6420714
97	0x3d8aba35	0.067737974
98	0xbe250e68	-0.16118777
99	0x3f097225	0.53689796
100	0x3c8e1f2a	0.017348845
101	0xbdba3f52	-0.09094109
102	0xbe14e0e3	-0.14538912
103	0x3dd46d00	0.103723526
104	0x3e830a84	0.2559396
105	0xbda5deb4	-0.08099118
106	0x3dae338e	0.08505927
107	0xbd2e58f2	-0.042565294
108	0x3ec36544	0.38163197
109	0x3e6ba302	0.23011401
110	0x3e764ffa	0.24053946
111	0xbd9e4698	-0.077283084
112	0x3f2a7c96	0.66596353
113	0x3dceadaf	0.10091721
114	0x3da24a29	0.07924301
115	0xbd356b11	-0.04429156
116	0x3c1c5372	0.009541379
117	0x3e6cdeed	0.23131914
118	0x3e67e8c0	0.22647381
119	0xbe2c6dce	-0.16838762
120	0x3ee0618b	0.4382442
121	0x3d33bf52	0.04388363
122	0x3bdcba0a	0.006736045
123	0xbdafedcc	-0.08590278
124	0x3d131e4c	0.035917565
125	0xbc11c480	-0.008896947
126	0x3da84460	0.082161665
127	0xbdeb08f9	-0.11476321
128	0xbe78bb85	-0.24290283
129	0xbe1d2666	-0.15346679
130	0x3e6f5dea	0.23375669
131	0x3f167448	0.5877118
132	0x3c30ae9d	0.010783819
133	0xbecbfed1	-0.39842847
134	0x3e8d5812	0.27606255
135	0x3d3ba90c	0.045815513
136	0x3f014a37	0.5050387
137	0x3fcf9e57	1.6220196
138	0xbe2dd9a1	-0.1697755
139	0xbccd286a	-0.025043685
140	0x3d0a0fe0	0.033706546
141	0xbdb0f428	-0.08640319
142	0x3df39f49	0.118956156
143	0xbe1c1d11	-0.15245463
144	0xbefe49fe	-0.49665827
145	0x3e164d81	0.14678003
146	0x3f08793a	0.5330998
147	0x3f2564b9	0.64606816
148	0xbe98db93	-0.29855022
149	0x3e7a485a	0.24441662
150	0x3d43787d	0.04772233
151	0xbdee26d3	-0.11628499
152	0x3efe7717	0.49700233
153	0x3f686a9d	0.9078768
154	0x3ed62b05	0.41829696
155	0xbd95f308	-0.07321745
156	0xbe1db1dc	-0.15399879
157	0x3dffaa77	0.124836855
158	0xbdb9c0c6	-0.09069972
159	0xbddf1dec	-0.10894379
160	0xbeadbb7d	-0.33932105
161	0x3e0a2bb2	0.13493231
162	0xbe35596e	-0.17709896
163	0xbe3ed789	-0.18636908
164	0xbe326be6	-0.17423972
165	0xbe42760d	-0.18990345
166	0xbef9b569	-0.48771217
167	0x3eaaaad9	0.3333347
168	0x3eaca43e	0.33719057
169	0x3e589dbb	0.2115392
170	0xbdd187e8	-0.10231
171	0x3e949cb5	0.29025808
172	0x3e9f2ba8	0.31087995
173	0x3e76c2fe	0.24097821
174	0x3da2f1d6	0.07956283
175	0x3e81fcae	0.25388092
176	0xbe6818db	-0.22665732
177	0x3e3e7518	0.18599355
178	0x3ecab1db	0.39588818
179	0x3d48fe4b	0.049070638
180	0xbe3bb826	-0.18331966
181	0x3d7e7380	0.062121868
182	0x3d56fb9a	0.05248604
183	0xbcf63075	-0.030052403
184	0x3f136172	0.57570565
185	0xbd7054de	-0.058674686
186	0xbd868a3d	-0.065693356
187	0x3d30a934	0.043130115
188	0x3e0b3165	0.13593061
189	0x3d6dd87b	0.05806778
190	0x3d0e8a93	0.034800123
191	0x3a8f499b	0.001093197
192	0xbe58b7a1	-0.21163799
193	0xbe1fa44a	-0.15590015
194	0xbde3f219	-0.11130161
195	0x3d4cce7e	0.050001614
196	0xbe1c2c14	-0.1525119
197	0xbe9f63ab	-0.31130728
198	0x3e932163	0.2873641
199	0x3ebecb86	0.3726465
200	0x3e25c172	0.16187075
201	0xbb730e54	-0.0037087398
202	0x3eddde13	0.43333492
203	0x3dd6c5c7	0.10486942
204	0x3c95b179	0.018273102
205	0xbc674fb9	-0.014118128
206	0x3d208cbf	0.039196726
207	0xbe869952	-0.2628885
208	0x3ef7b683	0.48381433
209	0xbdc5491a	-0.09633084
210	0xbd89ac17	-0.06722277
211	0x3d138977	0.03601977
212	0x3e720c27	0.23637448
213	0xbdd8efe2	-0.10592629
214	0xbe28453b	-0.1643266
215	0xbba1d793	-0.0049390285
216	0xbf675b20	-0.9037342
217	0xbedadf1e	-0.4274835
218	0x3bb0ee09	0.0053994698
219	0x3ce57eaf	0.028014509
220	0xbd18aa9f	-0.037272092
221	0xbc986c49	-0.018606322
222	0x3d6eeabc	0.05832933
223	0x3b769ba4	0.003762939
224	0x3dfdc12c	0.1239036
225	0xbdf89f58	-0.121397674
226	0xbea3b10a	-0.31971008
227	0x3ed86c71	0.42270234
228	0xbe17d68e	-0.1482794
229	0x3d4bbdd1	0.04974157
230	0x3e6cef69	0.23138203
231	0xbe2eca32	-0.17069319
232	0xbe8d9d68	-0.27659154
233	0xbe55be40	-0.20873356
234	0x3d8b7aa5	0.06810502
235	0x3e9af43f	0.3026447
236	0xbe43a747	-0.1910678
237	0xbe80a6a3	-0.25127134
238	0x3e82709d	0.25476542
239	0x3e25f39f	0.16206215
240	0x3f353ea9	0.70798737
241	0xbde4e221	-0.11175943
242	0xbe10da11	-0.14145686
243	0x3dc6d28d	0.09708128
244	0xbd4de23d	-0.050264586
245	0xbe709d77	-0.23497568
246	0x3e218ae2	0.15775636
247	0x3c81c9b1	0.015843244
248	0x3e14b3ad	0.14521666
249	0x3ef19559	0.47184256
250	0x3ca369e1	0.019947948
251	0xbc2e35b0	-0.010632917
252	0xbdd35716	-0.10319345
253	0x3e90d4db	0.28287396
254	0x3d4a7318	0.04942617
255	0xbd3f8025	-0.046753068

l4.bias f4 [256]
0	0x3d5d37f2	0.05400843
1	0x3de055ba	0.10953851
2	0x3e5b0d59	0.2139181
3	0xbd1c1761	-0.038108233
4	0x3e36a73e	0.17837235
5	0xbeb5e620	-0.35527134
6	0xbd032e3c	-0.032026514
7	0xbea35bde	-0.31906027
8	0xbed604ea	-0.41800624
9	0x3df3ddf8	0.119075716
10	0xbd28c218	-0.041200727
11	0xbd9e480d	-0.07728586
12	0xbeadd9fe	-0.33955377
13	0xbe58f469	-0.21186985
14	0xbdef32d4	-0.116796166
15	0x3cda3a84	0.02663923
16	0xbd30ead4	-0.0431927
17	0x3ea5334e	0.32265705
18	0xbe3707a3	-0.17874007
19	0x3dfe35d0	0.12412608
20	0xbdf6b5f6	-0.12046425
21	0xbcf79dce	-0.030226614
22	0x3c7e1307	0.015507466
23	0x3e131061	0.14361717
24	0x3e89618a	0.2683223
25	0xbbeb2d1b	-0.007177008
26	0xbdf0ab56	-0.1175143
27	0x3ed1818d	0.40919152
28	0x3e5ae46b	0.21376197
29	0x3e3603da	0.17774907
30	0xbd5a6669	-0.053320322
31	0x3e229840	0.15878391
32	0x3d5dcba4	0.054149285
33	0xbd549cbe	-0.051907293
34	0x3cf8cac4	0.030370124
35	0xbd7abd01	-0.061215404
36	0x3e5fb993	0.21848135
37	0xbe5119fd	-0.2042007
38	0x3df64a49	0.120258875
39	0x3de6a5b9	0.11262078
40	0xbcaa651c	-0.020800166
41	0xbd5fb40b	-0.05461506
42	0xbec61df1	-0.38694718
43	0x3e453697	0.19259106
44	0x3e60fb36	0.2197083
45	0x3e55ab34	0.2086609
46	0xbc6f7ccd	-0.014617157
47	0x3adf4e18	0.0017036824
48	0x3c8d04cf	0.017214207
49	0xbdfc261d	-0.12311957
50	0xbd4621fc	-0.048372254
51	0xbe46ba24	-0.19406945
52	0x3e18cde7	0.14922296
53	0x3bb95c69	0.005656768
54	0xbc84a4ca	-0.016191859
55	0x3cd905f7	0.026492102
56	0xbe376dda	-0.17912999
57	0x3cce5efc	0.025191776
58	0xbdc2c2f9	-0.09509844
59	0x3caaebff	0.020864485
60	0xbd722fb6	-0.059127532
61	0x3e28c743	0.16482262
62	0xbe310c4d	-0.17289849
63	0xbde9de03	-0.114192985
64	0xbe293bb4	-0.16526681
65	0x3db37543	0.087626
66	0x3e2ae2bc	0.16688055
67	0x3e60a2fc	0.21937174
68	0x3da37f20	0.079832315
69	0x3e74152d	0.23836203
70	0x3e9232cd	0.28554383
71	0xbcdf6dc9	-0.02727403
72	0xbed047ad	-0.40679684
73	0x3dba0309	0.0908261
74	0x3e8d1029	0.27551392
75	0xbe4ca022	-0.19982961
76	0x3e221af1	0.1583059
77	0x3e618c74	0.22026235
78	0x3e1e5d04	0.1546517
79	0x3b6bf7b0	0.0036005788
80	0xbe496726	-0.19668254
81	0x3de39131	0.111116774
82	0x3d447322	0.04796136
83	0xbd2980aa	-0.04138247
84	0xbe33e02d	-0.17565985
85	0x3daa3825	0.0831149
86	0x3c98f12a	0.018669683
87	0xbd30fcf6	-0.043209992
88	0x3e91af5e	0.28454107
89	0xbe8c1dc9	-0.27366474
90	0xbd8c049d	-0.068368174
91	0x3e2201d2	0.15821007
92	0x3e13b79c	0.1442551
93	0x3d8c5f3a	0.068541005
94	0xbdd93f19	-0.10607738
95	0xbce37aab	-0.027768454
96	0xbe88b626	-0.26701468
97	0x3df4f830	0.119614005
98	0x3c9fc076	0.019500952
99	0x3d3e7bf2	0.046504922
100	0x3b697439	0.0035622253
101	0x3e7e6bff	0.24845885
102	0x3e2024b3	0.15639
103	0x3c1e324a	0.0096555445
104	0x3df70601	0.12061692
105	0xbe8e0173	-0.2773548
106	0xbdf7ca8c	-0.120991796
107	0x3d80167a	0.06254287
108	0xbe997e6f	-0.29979274
109	0x3dd46110	0.10370076
110	0x3d8d43cd	0.068976976
111	0x3e7350ca	0.23761287
112	0x3ef6a4d6	0.48172635
113	0xbe3b834d	-0.18311806
114	0x3d1eff18	0.038817495
115	0x3d266a63	0.040628802
116	0xbde00ccd	-0.109399416
117	0x3e233f3c	0.15942091
118	0xbeea9aa3	-0.45821103
119	0x3e04e4d9	0.12977923
120	0xbd5e9952	-0.054345436
121	0xbe14d299	-0.14533462
122	0xbe18876e	-0.14895412
123	0x3da3e110	0.08001912
124	0x3e8c08d1	0.27350476
125	0x3e35ee03	0.17766576
126	0x3e7dd871	0.24789597
127	0x3e01fdd6	0.12694487
128	0xbdd73260	-0.10507655
129	0x3e00f7d9	0.12594546
130	0xbed67b8b	-0.4189113
131	0xbd19ffb8	-0.037597388
132	0xbcb1f96e	-0.021725383
133	0xbb122096	-0.0022297255
134	0xbd90d632	-0.070721045
135	0xbeca7f29	-0.3955014
136	0xbe0c204e	-0.13684198
137	0x3b3d9053	0.0028925135
138	0x3dea8980	0.11452007
139	0xbe086d76	-0.13323006
140	0x3e167b81	0.1469555
141	0x3e093ab9	0.13401307
142	0xbda05dda	-0.07830401
143	0xbe37d1ec	-0.17951173
144	0x3e954039	0.2915056
145	0x3e9a4cf0	0.30136824
146	0xbe9f3a9f	-0.31099412
147	0xbe1f1129	-0.1553389
148	0xbd115f02	-0.035490997
149	0x3c73792e	0.014860434
150	0x3e314ac4	0.17313677
151	0x3e639245	0.22223766
152	0x3dc1047e	0.09424685
153	0xbe4107e1	-0.18850662
154	0xbd3984b9	-0.04529259
155	0xbe46558b	-0.1936857
156	0x3e147b45	0.14500149
157	0xbda515a6	-0.0806077
158	0xbe577169	-0.21039356
159	0x3d814c30	0.0631336
160	0x3e223b77	0.15842997
161	0x3d4178ee	0.04723447
162	0xbc77d183	-0.015125635
163	0x3d87764b	0.066143595
164	0x3e60a0b1	0.21936299
165	0xbd0dbfd8	-0.034606785
166	0xbbdd0a7c	-0.0067456346
167	0x3dca613a	0.09881826
168	0x3e84241f	0.25808808
169	0x3e23cc68	0.15995944
170	0x3eee58d2	0.4655214
171	0x3d4a119e	0.049333207
172	0xbea0af39	-0.31383684
173	0x3eaa7def	0.33299205
174	0xbedd2fc8	-0.43200517
175	0x3d5906d4	0.052985027
176	0x3e15cca3	0.14628844
177	0x3e44eb12	0.19230297
178	0xbe183c68	-0.14866793
179	0x3dfc4bbf	0.12319135
180	0x3e85e1dc	0.2614888
181	0x3e9d18e0	0.3068304
182	0x3ea27593	0.31730327
183	0xbdb30155	-0.087404884
184	0x3dcdf66c	0.10056767
185	0xbd56c2cc	-0.052431867
186	0xbd9256fb	-0.071454965
187	0xbd9a8d80	-0.0754652
188	0xbccca2ba	-0.024979938
189	0xbda2549b	-0.079262935
190	0xbe6ca56d	-0.2310998
191	0xbe885d0f	-0.26633498
192	0xbe3a9414	-0.1822055
193	0x3dd25612	0.10270323
194	0xbe4d3d06	-0.2004281
195	0x3e598538	0.21242225
196	0x3de5e051	0.112244256
197	0x3e9906e7	0.2988808
198	0xbd86d835	-0.06584207
199	0xbeb2c10b	-0.34912905
200	0xbe28b24e	-0.16474268
201	0xbd275594	-0.040853098
202	0xbd59f7af	-0.053214725
203	0xbec4249a	-0.38309175
204	0xbe8a7c23	-0.27047834
205	0x3e6d9022	0.23199514
206	0x3d993c84	0.074822456
207	0xbe11c599	-0.14235534
208	0xbd27ca17	-0.040964212
209	0x3e2e1291	0.1699927
210	0x3e0f397f	0.13986777
211	0xbe8ac600	-0.27104187
212	0xbdab6cac	-0.08370337
213	0xbe097f5c	-0.1342749
214	0x3db0c991	0.08632196
215	0x3dd972a8	0.10617572
216	0x3dbd05d2	0.09229626
217	0x3e39a685	0.18129928
218	0xbeade58e	-0.339642
219	0x3e7b4a44	0.24540049
220	0xbe930a60	-0.28718853
221	0xbd7c2ecb	-0.061568063
222	0x3e6e5882	0.2327595
223	0x3d039c0d	0.032131243
224	0xbe4e2b9a	-0.2013382
225	0x3e410599	0.18849792
226	0xbe605bd9	-0.21910037
227	0x3e7acc09	0.24491896
228	0xbdb90f10	-0.09036076
229	0x3de8f3af	0.11374604
230	0x3e50ad29	0.20378555
231	0xbdf9e1ab	-0.12201246
232	0xbe6e1f4b	-0.23254125
233	0xbdcba868	-0.0994423
234	0x3dd93060	0.1060493
235	0xbdd9fc24	-0.10643795
236	0x3d5aa7d4	0.05338271
237	0x3b3045fe	0.0026897187
238	0x3e83280d	0.25616494
239	0xbda824a7	-0.08210116
240	0x3e510ba7	0.20414601
241	0x3d8bed80	0.06832409
242	0x3e266eb7	0.16253172
243	0xbe8bd875	-0.2731358
244	0xb9e97127	-0.00044525528
245	0x3e1b0c5e	0.15141436
246	0xbe90079d	-0.28130808
247	0x3e5ad0c6	0.21368703
248	0x3ea1b56a	0.3158372
249	0x3e6f3bc7	0.23362647
250	0x3e208ae3	0.15677981
251	0xbe9c69fe	-0.30549616
252	0x3e574ef1	0.21026208
253	0x3e8bd5c8	0.2731154
254	0xbe5e9707	-0.217373
255	0xbe250f4a	-0.16119114
