p2/m0.25HalfCheetahBulletEnv-v0_TD3_BC_5678_1638629582_td3_bc.pth (torch, 898800 bytes, 16 tensors)

l1.weight f4 [256, 32]
-0.09069493 -0.0897381 0.11549536 1.0013747 -0.009089937 0.6824674 0.5158767 -0.04694469
0.21369839 -0.39538383 0.011948666 -0.11765335 -0.2884303 -0.27218238 0.13276719 0.43310976
-0.31585687 -0.095179275 0.22129135 -0.150804 0.12023753 0.20341957 -0.26709604 -0.11487387
-0.84637296 -0.24537002 -0.08028578 -0.03225083 -0.034332123 -0.032577235 -0.13619557 0.08167189
0.41955987 -0.11240727 0.21495864 -0.025910102 0.1621701 0.46045795 -0.20707437 -0.5142835
-0.22902383 -0.39124304 -0.052300766 -0.5232873 0.033277765 0.13175665 -0.09152774 0.04240147
0.18657424 -0.06650344 -0.14961939 0.044766665 0.21978989 -0.17736585 -0.111361094 -0.041109324
0.1193949 -0.053391334 -0.006857749 -0.34338042 0.19369084 0.060903024 0.21778612 0.1555172
-0.30993295 0.16057561 -0.08248122 -0.19536377 0.0202119 -0.8312045 -0.77959543 -0.8742476
-0.44518146 -0.51108754 0.21491578 -0.24841537 -0.11198492 0.1410831 -0.043119624 0.2103229
-0.47677076 -0.08682763 -0.5705516 -0.27604225 0.19267192 -0.046117425 0.2990489 0.39137506
-0.1735985 -0.72346395 0.20464206 0.101569414 0.08382763 0.43513662 -0.20104288 -0.4462892
0.2690962 -0.03080627 -0.15706366 -1.5706718 0.06865991 -0.55542326 0.82587594 0.35176232
0.15736951 0.68026185 -0.39851454 -0.13148323 -0.23870683 -0.21898629 -0.30930945 0.34503168
-0.11212587 0.18901217 0.21279292 -0.11632446 -0.029181452 -0.4603054 0.1567284 -0.06929235
-0.52865005 -1.1336244 0.1776069 -0.08664866 -0.26579416 0.05983827 0.037270665 -0.04374674
-0.042933326 0.1420106 -0.022072842 -0.6459993 0.11070805 0.6740221 -0.4898919 0.46481454
0.24001242 0.2164103 0.09708368 0.15427727 0.49088815 -0.014190327 0.14018576 -0.51172423
-0.6041343 -0.22949891 -0.28593442 -0.07259735 0.028403556 -0.08979862 -0.427379 -0.029708637
-0.8690492 -0.066901915 0.0034490074 -0.0023324194 -0.023731872 0.020656671 -0.0080515435 0.0019914496
-0.20337339 -0.12751438 -0.0954021 0.078398384 -0.07604836 0.7092582 0.011544664 0.10595839
0.048409138 -0.13811852 0.3072021 -0.18183939 0.0799152 0.15777957 0.22352761 -0.25613785
-0.013925535 -0.31208384 0.4044553 -0.012341402 -0.074765466 0.4642705 0.09534416 -0.021111159
-1.3086784 0.6095534 -0.034501284 -0.24121125 -0.12004246 -0.35153073 0.09789311 0.1615429
0.6079064 -0.13476752 0.16820793 0.35652742 -0.098812126 0.12019759 -0.15221374 -0.15982413
0.06616491 -0.3658129 -0.41913298 -0.24690083 -0.5221505 -0.035264015 0.2462427 0.33235928
-0.46943069 0.12857862 0.16475481 -0.07943164 -0.0109743485 0.024084037 -0.65963674 -0.0045322375
0.20257306 -1.5907775 -0.016573546 -0.14193064 -0.02127431 -0.035578404 -0.0016184397 0.103803985
-0.08260668 -0.09428035 0.010694325 0.065335274 0.083996035 -0.38424703 -0.14529845 -0.2665988
0.058521055 -0.5546527 0.29373595 -0.07616324 0.06245171 -0.01752633 0.25751144 0.7226536
-0.03725948 0.007378837 0.35949665 -0.3468995 0.077617355 -0.20109959 -1.0031085 0.0702655
-0.35426903 -0.5236853 0.06055114 0.037546992 0.11319012 -0.26742342 0.120009154 0.022269297
00000000: 43be b9bd 9cc8 b7bd d588 ec3d 0c2d 803f
00000010: f6ed 14bc 2fb6 2e3f 7f10 043f 1349 40bd
00000020: c0d3 5a3e c06f cabe 56c4 433c 3df4 f0bd
00000030: 23ad 93be 7d5b 8bbe 1ff4 073e 90c0 dd3e
00000040: feb7 a1be 5aed c2bd 339a 623e 5d6c 1abe
00000050: 183f f63d 384d 503e d0c0 88be fe42 ebbd
00000060: e6ab 58bf 4742 7bbe df6c a4bd 7219 04bd
00000070: d79f 0cbd b56f 05bd da76 0bbe 9843 a73d
00000080: 8dd0 d63e c835 e6bd 1e1e 5c3e 6c41 d4bc
00000090: eb0f 263e 25c1 eb3e 4e0b 54be 15a8 03bf
000000a0: 3985 6abe 0251 c8be 5439 56bd 28f6 05bf
000000b0: 444e 083d 37eb 063e e572 bbbd 2aad 2d3d
000000c0: 510d 3f3e f532 88bd d335 19be 405d 373d
000000d0: 9a10 613e 659f 35be 4911 e4bd 4062 28bd
000000e0: 5085 f43d dfb0 5abd f8b6 e0bb 8fcf afbe
000000f0: e456 463e 7375 793d 5303 5f3e e73f 1f3e
00000100: 88af 9ebe ef6d 243e eaeb a8bd 710d 48be
00000110: 6d93 a53c d1c9 54bf 9193 47bf b1ce 5fbf
00000120: d3ee e3be a2d6 02bf e212 5c3e 9960 7ebe
00000130: 5a58 e5bd 1778 103e 349e 30bd e35e 573e
00000140: 4c1b f4be afd2 b1bd ab0f 12bf 6955 8dbe
00000150: ca4b 453e a0e5 3cbd f01c 993e 5062 c83e
00000160: cec3 31be ef34 39bf b08d 513e a003 d03d
00000170: d2ad ab3d 3aca de3e 2fde 4dbe 0580 e4be
00000180: fac6 893e 6e5d fcbc 4cd5 20be c60b c9bf
00000190: 919d 8c3d 3830 0ebf 9b6c 533f 311a b43e
000001a0: 7925 213e a425 2e3f 190a ccbe 8aa3 06be
000001b0: 906f 74be f13d 60be cf5d 9ebe fea7 b03e
000001c0: 40a2 e5bd 688c 413e 63e6 593e 853b eebd
000001d0: f10d efbc 26ad ebbe 697d 203e 26e9 8dbd
000001e0: 9c55 07bf 9b1a 91bf 95de 353e da74 b1bd
000001f0: 2c16 88be f918 753d 20a9 183d c82f 33bd
00000200: dbda 2fbd 3a6b 113e 1bd2 b4bc 3660 25bf
00000210: e7ba e23d b68c 2c3f 1cd3 fabe 2cfc ed3e
00000220: d1c5 753e a99a 5d3e cfd3 c63d dcfa 1d3e
00000230: b155 fb3e 8c7e 68bc db8c 0f3e 5c00 03bf
00000240: 8ca8 1abf c301 6bbe ff65 92be ebad 94bd
00000250: 93ae e83c 57e8 b7bd 6cd1 dabe 875f f3bc
00000260: 027a 5ebf df03 89bd be08 623b 81db 18bb
00000270: 5869 c2bc 2e38 a93c 9fea 03bc fb82 023b
00000280: 1d41 50be 2193 02be 2d62 c3bd 558f a03d
00000290: 3ebf 9bbd f291 353f d525 3d3c b600 d93d
000002a0: a948 463d f16e 0dbe 9849 9d3e 1b34 3abe
000002b0: 95aa a33d f890 213e 6ce4 643e 8024 83be
000002c0: ed27 64bc 74c9 9fbe c414 cf3e 9733 4abc
000002d0: a31e 99bd ddb4 ed3e cd43 c33d 4ff1 acbc
000002e0: c682 a7bf b10b 1c3f 3851 0dbd 1500 77be
000002f0: d2d8 f5bd d6fb b3be 2f7c c83d 816b 253e
00000300: c19f 1b3f 7f00 0abe b33e 2c3e c38a b63e
00000310: 035e cabd 272a f63d ebdd 1bbe f0a8 23be
00000320: 7881 873d d44b bbbe 9998 d6be 92d3 7cbe
00000330: a8ab 05bf 0071 10bd 0c27 7c3e ff2a aa3e
00000340: 3859 f0be 1daa 033e 7cb5 283e 0ead a2bd
00000350: c1cd 33bc e34b c53c f4dd 28bf 2a83 94bb
00000360: 506f 4f3e 999e cbbf 3fc5 87bc 4456 11be
00000370: 7647 aebc a9ba 11bd d321 d4ba 2f97 d43d
00000380: b12d a9bd 0e16 c1bd 4037 2f3c 80ce 853d
00000390: 1d06 ac3d 07bc c4be 1ec9 14be a37f 88be
000003a0: c6b3 6f3d b8fd 0dbf 8f64 963e 79fb 9bbd
000003b0: 5dcd 7f3d 6193 8fbc 8ad8 833e d4ff 383f
000003c0: 669d 18bd 2cca f13b f20f b83e d09c b1be
000003d0: d9f5 9e3d 0ded 4dbe dc65 80bf 5ce7 8f3d
000003e0: c062 b5be 3d10 06bf 7904 783d e0ca 193d
000003f0: 39d0 e73d b9eb 88be 5cc7 f53d 1a6e b63c

l1.bias f4 [256]
0.017823027 0.08116325 -0.07149244 -0.06520036 -0.15130381 -0.2317095 -0.14188541 -0.053034786
0.29845667 -0.11291671 -0.20470761 0.045856882 -0.08869331 -0.124225244 -0.110637315 0.15055205
0.018758098 -0.15270959 0.20695467 -0.13983656 -0.092562445 0.1898239 -0.13649556 0.1250778
-0.2996356 0.18981406 0.03474587 0.08624802 0.1315088 -0.102514654 0.12751715 0.017749174
0.075709514 -0.3444735 -0.023412142 -0.11602209 0.23464023 0.013340917 -0.20623127 0.2559354
0.030187473 -0.029799135 0.095019646 0.20030065 -0.16427585 -0.009652199 0.02204905 0.0031432195
0.2742307 0.06822307 -0.047930814 -0.18637566 -0.29806367 -0.3021249 0.24133849 -0.06440362
-0.06698763 0.27622065 0.17789777 -0.037580583 0.29315257 0.005103775 0.05847887 0.36150435
-0.020218229 0.11893974 -0.23442791 0.104638696 0.092247605 0.007001489 0.27949733 -0.20951644
0.4070479 0.29917985 -0.05163771 0.07100155 -0.11398151 0.032783795 -0.22309853 -0.21387179
0.03325622 -0.11012052 0.13929974 0.3445402 0.22489408 -0.050309252 0.043780863 -0.18769974
-0.05562304 -0.20937218 0.3177878 0.15988722 0.2580155 -0.025807109 0.021117989 -0.045958634
0.25773236 0.23332395 0.10243321 -0.12113165 0.1391222 -0.034412645 -0.23085405 0.054759055
-0.15286666 0.11275985 0.25643587 0.1988273 0.25264 -0.022453036 -0.15536718 0.028668368
-0.305947 0.18659832 -0.054823518 0.1660686 -0.2369975 0.023217132 -0.055952188 0.2141278
-0.3761522 0.1360234 0.048085738 -0.17348772 -0.13693711 -0.071015134 0.13193224 -0.1517626
0.05902387 0.17193308 -0.23356104 -0.16594557 -0.04406548 -0.01886139 -0.20921104 -0.02954899
-0.08508062 -0.09834705 -0.19402052 -0.22400123 0.3082397 -0.2738402 -0.0044465065 0.17518769
0.19424486 0.08156533 -0.043323528 -0.121399805 -0.3269752 0.20573978 -0.024859639 -0.47221333
-0.10840291 0.18237688 0.12568004 -0.11185277 0.1818178 -0.17072524 -0.17902964 -0.048929032
0.13964172 0.037181403 -0.35773152 -0.19474809 0.058452617 0.113485515 -0.31230548 -0.28842014
-0.24415103 -0.11239288 0.46649614 -0.253282 0.17521572 -0.031193795 -0.13342237 0.24840839
-0.049393952 -0.21792187 0.06466314 -0.061341483 0.039100606 0.22086725 -0.023704922 0.1792659
-0.055401497 0.06884141 -0.13771154 0.1305303 0.19389038 0.2670977 0.047730073 0.3245697
-0.13964182 -0.18619797 0.17761089 0.119223654 0.14506005 0.26811847 -0.053590875 0.22143318
-0.06902027 0.25074464 -0.28933036 -0.16199584 -0.51610374 0.28636515 0.11917856 0.17102067
-0.014931527 0.062673755 0.13111651 -0.19852073 0.24450944 -0.16576649 -0.40914536 0.07507163
0.18245327 -0.09202287 0.3221782 0.36124614 0.24272506 0.23401552 -0.03246442 -0.08133181
-0.14274806 -0.009694672 0.11474582 0.0005138898 0.14716868 -0.12968297 -0.016167508 -0.18060063
0.1636658 0.16312736 -0.07994493 -0.18954396 0.25819325 0.012080586 0.18336502 0.26360503
0.12868355 0.15824005 0.47784802 -0.19744928 -0.16662347 0.012081635 -0.048787158 0.1545733
0.2491755 -0.08146715 0.14527132 -0.24534333 0.14370012 0.22371507 0.19516568 -0.16567692
00000000: 9901 923c eb38 a63d a16a 92bd c487 85bd
00000010: 63ef 1abe 4145 6dbe 694a 11be 013b 59bd
00000020: 50cf 983e e040 e7bd df9e 51be 6dd4 3b3d
00000030: d7a4 b5bd ce69 febd d195 e2bd 512a 1a3e
00000040: 95aa 993c e75f 1cbe edeb 533e 5131 0fbe
00000050: 6191 bdbd 3261 423e 7ec5 0bbe 6514 003e
00000060: d669 99be 9e5e 423e af51 0e3d cda2 b03d
00000070: 3eaa 063e 34f3 d1bd db93 023e b766 913c
00000080: 970d 9b3d d55e b0be d2ca bfbc fd9c edbd
00000090: 8745 703e dd93 5a3c 4a2e 53be f709 833e
000000a0: b84b f73c 511d f4bc a999 c23d 9d1b 4d3e
000000b0: ee37 28be 4224 1ebc 36a0 b43c 79fe 4d3b
000000c0: f767 8c3e 89b8 8b3d 1a53 44bd 43d9 3ebe
000000d0: cd9b 98be 1db0 9abe 7021 773e 0ce6 83bd
000000e0: d030 89bd cb6c 8d3e d52a 363e 19ee 19bd
000000f0: 1818 963e 913d a73b 8a87 6f3d 1917 b93e
00000100: b3a0 a5bc ae96 f33d df0d 70be d04c d63d
00000110: 50ec bc3d bf6c e53b 461a 8f3e 7a8b 56be
00000120: 9568 d03e 1a2e 993e 1082 53bd 4369 913d
00000130: 236f e9bd 4d48 063d f173 64be 3501 5bbe
00000140: ad37 083d de86 e1bd 97a4 0e3e 9367 b03e
00000150: a24a 663e 1311 4ebd 9053 333d 5c34 40be
00000160: fcd4 63bd a965 56be 15b5 a23e 7ab9 233e
00000170: 9c1a 843e 6e69 d3bc a2ff ac3c 1f3f 3cbd
00000180: 7ff5 833e 79ec 6e3e 81c8 d13d df13 f8bd
00000190: 0d76 0e3e 46f4 0cbd 0165 6cbe 084b 603d
000001a0: 1489 1cbe a3ee e63d 904b 833e 6299 4b3e
000001b0: 085a 813e 6eef b7bc 9318 1fbe edd9 ea3c
000001c0: 16a5 9cbe a113 3f3e a08e 60bd e30d 2a3e
000001d0: 79af 72be db31 be3c 1f2e 65bd 5144 5b3e
000001e0: 0597 c0be b849 0b3e 8df5 443d c4a6 31be
000001f0: 3e39 0cbe 6270 91bd 3f19 073e a867 1bbe
00000200: 03c3 713d 3a0f 303e a02a 6fbe a3ed 29be
00000210: 017e 34bd 3483 9abc 6b3b 56be b910 f2bc
00000220: c03e aebd 2e6a c9bd 51ad 46be 9460 65be
00000230: 98d1 9d3e c834 8cbe 00b4 91bb 6764 333e
00000240: 20e8 463e b90b a73d 0374 31bd 76a0 f8bd
00000250: 4b69 a7be 73ad 523e 71a6 cbbc f2c5 f1be
00000260: 5802 debd 01c1 3a3e 45b2 003e 1113 e5bd
00000270: 722e 3a3e 99d2 2ebe 8c53 37be cf69 48bd
00000280: 3dfe 0e3e 874b 183d 9628 b7be 0b6c 47be
00000290: 036c 6f3d 186b e83d 81e6 9fbe ceab 93be
000002a0: ba02 7abe 3d2e e6bd 95d8 ee3e 2eae 81be
000002b0: c06b 333e 218a ffbc e09f 08be c55e 7e3e
000002c0: 5051 4abd e926 5fbe 1c6e 843d 3541 7bbd
000002d0: f527 203d 062b 623e d330 c2bc 7b91 373e
000002e0: aeec 62bd bafc 8c3d 4104 0dbe bca9 053e
000002f0: 338b 463e 08c1 883e 9c80 433d 002e a63e
00000300: 44fe 0ebe aeaa 3ebe a1df 353e 882b f43d
00000310: 9f8a 143e d346 893e 1b82 5bbd 61bf 623e
00000320: 805a 8dbd 9a61 803e 1c23 94be 3de2 25be
00000330: 601f 04bf 749e 923e e413 f43d 0b20 2f3e
00000340: 5da3 74bc 195b 803d 6843 063e 0549 4bbe
00000350: af60 7a3e b1be 29be 807b d1be 28bf 993d
00000360: 08d5 3a3e 7d76 bcbd 8bf4 a43e 41f5 b83e
00000370: eb8c 783e c4a1 6f3e 69f9 04bd 4b91 a6bd
00000380: 8c2c 12be 67d6 1ebc dbff ea3d 90b6 063a
00000390: 63b3 163e 9dcb 04be b971 84bc 5fef 38be
000003a0: 0298 273e dc0a 273e 2bba a3bd d017 42be
000003b0: e831 843e a6ed 453c 0ac4 3b3e 3df7 863e
000003c0: 9fc5 033e ae09 223e 7fa8 f43e 2530 4abe
000003d0: 589f 2abe 0df2 453c 0bd5 47bd 7748 1e3e
000003e0: dd27 7f3e 40d8 a6bd 01c2 143e 483b 7bbe
000003f0: 2026 133e 9015 653e 83d9 473e 36a7 29be

l2.weight f4 [256, 256]
0.1510191 0.100384675 -0.011852248 -0.040184103 0.28839934 0.108448476 0.22058244 0.14661014
0.097371 0.098434 0.22954038 0.25726673 0.26935112 0.37417123 0.06731802 0.030775193
0.2021902 0.127462 0.16608234 0.073168255 0.27957582 0.115170136 0.090914406 0.26638964
0.2945598 0.006208868 0.091068454 0.22483596 0.1560097 0.28162512 0.20893562 0.1565568
0.19586466 0.02049402 0.28728023 0.026300896 0.21220915 0.17340215 0.09646911 0.1730907
0.23614365 0.22587259 0.21283114 0.12150925 0.07708186 0.11300944 0.03163519 0.09600367
0.0962437 0.09636284 0.1010398 0.2543569 0.05993945 0.045993906 0.08240734 -0.12443693
0.074470416 0.18706512 0.104973465 0.18929274 0.19631852 0.19390522 0.16844301 0.16625322
0.17849623 0.2286127 0.48226508 0.20946121 0.39545536 0.14148812 0.15003371 0.15661916
-0.124321535 0.00028406605 0.16042945 0.03750098 0.17673954 0.22483405 -0.012188954 0.31545725
-0.050031606 0.34771666 0.026871756 0.042365506 0.15116984 0.09053524 0.29576665 -0.108022004
0.02926845 0.13731316 0.11592402 0.0674027 0.12804046 0.22463061 0.22765449 0.1477894
0.09614267 0.113651976 0.2682616 0.08503104 0.078381106 0.22999196 0.22993189 0.1874123
0.00484464 0.10578838 0.04000163 0.32219934 0.12544042 -0.0045819837 0.05864919 -0.020193946
-0.10753254 0.2132166 0.13890262 0.07233867 0.08988669 0.12717304 0.2705111 0.122229755
0.0019067262 0.3578069 0.022837581 0.2140401 0.14755382 0.08884204 0.009951258 0.0789614
0.06566667 0.059964497 0.099563934 0.047448598 0.16054496 0.081201814 0.1524565 0.24520445
0.44737118 0.4237432 -0.0057560843 0.11096514 0.31255928 0.14346151 -0.14870322 0.06481792
0.27793133 0.11348101 -0.004698408 0.12664118 0.09714432 0.100516774 0.1110505 0.32354465
0.2002696 0.17157105 0.2187543 0.34253988 0.22220258 0.04105669 0.06277046 0.057358302
0.2906992 0.06149006 0.2698894 0.12966551 0.17953733 0.1843498 0.3416375 0.17807597
0.12335171 0.06449976 -0.18582954 0.17464466 0.23138492 0.18982586 0.034568466 0.20530881
0.16129246 0.14297673 0.04549695 0.12516497 0.113174506 0.26091343 0.04379442 0.11871488
0.32088873 0.1765563 -0.08717805 -0.06985722 0.01706761 -0.041777547 0.03633273 0.20071636
0.005576241 0.15516938 0.16010354 -0.0858543 0.30060187 0.13569725 0.17781028 0.10912929
0.20484567 0.03839242 0.221097 0.32443804 -0.052111316 0.11019195 0.21372858 0.16206631
0.11057563 0.053434853 0.046866 0.29751197 0.083768375 0.19521694 0.29207313 0.1315183
0.26324525 0.22780155 -0.05572557 0.21924396 0.20143236 0.1808928 0.2584157 0.16831882
0.10441031 -0.04030055 0.13240513 0.14718789 0.2032307 -0.026727393 0.17872468 -0.14751953
0.11365067 0.124443114 0.48080593 0.016950237 0.23671497 0.059020985 0.1408031 -0.04254517
0.27050054 0.3369884 -0.10925369 0.21631448 0.118247814 0.21619797 0.15196691 0.05806542
-0.025994983 0.14787309 0.095875226 0.3796827 0.13916108 0.24057338 0.4219827 0.19671376
00000000: c0a4 1a3e 7b96 cd3d ee2f 42bc 1698 24bd
00000010: 14a9 933e 3c1a de3d 5de0 613e f820 163e
00000020: 726a c73d c497 c93d a20c 6b3e 77b8 833e
00000030: 64e8 893e 5f93 bf3e 08de 893d 421c fc3c
00000040: f30a 4f3e 6685 023e 7d11 2a3e 3dd9 953d
00000050: 9024 8f3e 52de eb3d 5531 ba3d 3964 883e
00000060: 8bd0 963e c373 cb3b 1982 ba3d 663b 663e
00000070: 02c1 1f3e 2b31 903e 38f3 553e 6d50 203e
00000080: bf90 483e 13e3 a73c 6516 933e fa74 d73c
00000090: 5b4d 593e 5590 313e 9991 c53d b03e 313e
000000a0: a4cf 713e 254b 673e 68f0 593e d7d9 f83d
000000b0: 18dd 9d3d 7e71 e73d e793 013d 929d c43d
000000c0: 6b1b c53d e159 c53d f4ed ce3d 113b 823e
000000d0: 1283 753d 1b64 3c3d 2ec5 a83d cad8 febd
000000e0: f283 983d 008e 3f3e 54fc d63d f5d5 413e
000000f0: b907 493e 178f 463e 537c 2c3e 493e 2a3e
00000100: b7c7 363e 7319 6a3e 73eb f63e 007d 563e
00000110: 2079 ca3e 43e2 103e 70a2 193e c660 203e
00000120: 4a9c febd b3ee 9439 9e47 243e a19a 193d
00000130: 36fb 343e e63a 663e 2eb4 47bc 9d83 a13e
00000140: f1ed 4cbd eb07 b23e 2822 dc3c 7487 2d3d
00000150: 44cc 1a3e 8a6a b93d ba6e 973e a43a ddbd
00000160: 63c4 ef3c d29b 0c3e 9369 ed3d 6d0a 8a3d
00000170: 0a1d 033e 9105 663e 421e 693e 1b56 173e
00000180: 73e6 c43d 5ec2 e83d 9659 893e c124 ae3d
00000190: 4686 a03d 0383 6b3e 4473 6b3e 03e9 3f3e
000001a0: c9bf 9e3b 94a7 d83d c0d8 233d 50f7 a43e
000001b0: 7473 003e 7724 96bb 223a 703d c66d a5bc
000001c0: 053a dcbd 7455 5a3e 7d3c 0e3e 4c26 943d
000001d0: 8316 b83d a639 023e 6e80 8a3e 9853 fa3d
000001e0: 1deb f93a 7732 b73e e115 bb3c 542d 5b3e
000001f0: 5918 173e d1f2 b53d 9a0a 233c 84b6 a13d
00000200: 3f7c 863d 559d 753d 2de8 cb3d 7659 423d
00000210: e665 243e 234d a63d 8f1d 1c3e e016 7b3e
00000220: d60d e53e def4 d83e 899d bcbb b141 e33d
00000230: c507 a03e 93e7 123e a845 18be 42bf 843d
00000240: 044d 8e3e bb68 e83d 1af5 99bb 3aae 013e
00000250: 9af3 c63d bddb cd3d 726e e33d a5a7 a53e
00000260: 7913 4d3e 52b0 2f3e 2101 603e 6361 af3e
00000270: 1389 633e 0f2b 283d cd8d 803d 8af0 6a3d
00000280: 87d6 943e 00dd 7b3d f22e 8a3e 09c7 043e
00000290: a2d8 373e 32c6 3c3e 1ceb ae3e 8c59 363e
000002a0: d29f fc3d 7318 843d 194a 3ebe 0dd6 323e
000002b0: 2bf0 6c3e b661 423e aa97 0d3d 793c 523e
000002c0: da29 253e 7e68 123e 035b 3a3d 3f2b 003e
000002d0: 09c8 e73d 7296 853e c761 333d c920 f33d
000002e0: 874b a43e 2dcb 343e 688a b2bd 4d11 8fbd
000002f0: 5fd1 8b3c ef1e 2bbd a1d1 143d 9788 4d3e
00000300: e6b8 b63b b9e4 1e3e 2ff2 233e 61d4 afbd
00000310: 7de8 993e 38f4 0a3e e613 363e 2d7f df3d
00000320: 10c3 513e 5f41 1d3d 4167 623e be1c a63e
00000330: ad72 55bd 51ac e13d aadb 5a3e b6f4 253e
00000340: 7a75 e23d 81de 5a3d 90f6 3f3d 7d53 983e
00000350: c18e ab3d f3e6 473e 9c8a 953e bcac 063e
00000360: 15c8 863e cf44 693e 7f40 64bd 7d81 603e
00000370: 4944 4e3e f63b 393e 104f 843e c55b 2c3e
00000380: 13d5 d53d 3112 25bd 3695 073e 6cb8 163e
00000390: b51b 503e 68f3 dabc 9a03 373e 5c0f 17be
000003a0: afc1 e83d 08dc fe3d 322c f63e 39db 8a3c
000003b0: 6965 723e fdbf 713d b02e 103e d843 2ebd
000003c0: 0c7f 8a3e be89 ac3e 66c0 dfbd 8b81 5d3e
000003d0: e92b f23d 0063 5d3e 379d 1b3e 01d6 6d3d
000003e0: 6ef3 d4bc 0b6c 173e 3b5a c43d c565 c23e
000003f0: 3e80 0e3e de58 763e 1e0e d83e 556f 493e

l2.bias f4 [256]
0.32685122 0.19937892 0.2724915 -0.15287822 -0.15270056 0.3427238 0.35137203 0.22180301
0.25098103 0.15888582 0.1557694 0.35698473 -0.1209218 -0.108959526 0.23095123 0.15592667
-0.10470934 0.16446245 0.2277175 0.13224022 -0.037492126 -0.09085573 0.13745876 0.05028693
-0.1732796 0.055651505 0.2750806 0.12813203 -0.14091401 0.21270642 0.22537293 0.15541898
0.19903287 -0.056068745 -0.10803041 0.06337781 0.16809146 0.16951993 -0.12576358 0.22314262
-0.1998451 0.032159075 0.21752256 -0.17093292 0.26268783 0.15257686 -0.19583724 -0.1833124
0.047288258 0.21170796 0.30573586 -0.0024156407 0.092387624 0.12613176 -0.11091973 0.25963292
0.13378778 -0.082381435 -0.16002123 0.31949604 -0.06549014 0.22314976 -0.11631873 -0.1088846
0.25010344 0.21994063 0.13432898 -0.04508521 -0.1912422 0.12560678 -0.05459991 0.19824895
0.13559277 -0.07558798 0.11661878 -0.16648936 0.24702412 0.1334656 -0.18691672 0.33088166
0.2505889 0.14441735 0.2501562 0.25136954 -0.025105733 -0.22425427 -0.044731572 0.25160345
0.25233817 -0.13015896 -0.12574923 -0.08430455 0.13806279 0.22159429 -0.10380394 0.24863753
0.21182352 -0.15442525 -0.20729415 0.2461009 -0.08821307 -0.058206767 0.24577701 0.21239857
0.19269225 -0.13606668 0.22524726 -0.07109263 0.2735861 0.20403934 -0.048134226 -0.2077885
0.15079364 0.1259343 -0.16841677 0.25396213 0.22659345 0.14606552 0.22158098 -0.026256748
0.16549921 -0.060661033 0.11274425 -0.067753784 0.20245115 0.20334858 -0.118314244 -0.0966422
-0.11105676 0.27119347 -0.18594319 -0.11755022 -0.13931589 0.25979212 0.16805428 -0.049296003
0.19978613 -0.079885624 -0.056897666 -0.086431354 -0.11167127 0.017664254 -0.15576068 0.28026795
0.27343565 -0.07827666 0.14261056 -0.09561788 0.24871854 0.28238428 -0.19291899 0.21170178
-0.16613014 -0.055726442 0.28494817 0.15067191 -0.119975865 -0.21324788 -0.22157751 -0.16188528
-0.2620935 0.009553808 -0.13967861 0.21516767 -0.16747777 -0.121330015 0.042718954 0.17994267
-0.17927851 0.25304204 0.10916633 0.14789326 0.2565227 0.2750894 0.18127109 0.29622442
0.06049315 -0.15452865 0.2520734 0.28457215 -0.07767777 -0.10605532 0.17271045 -0.12763323
0.15146823 0.32324043 -0.09826775 0.25649616 0.13109286 -0.21004838 0.17864278 -0.11973978
-0.17094298 0.18399678 -0.12615462 0.208335 0.26973334 -0.18541308 0.17622167 -0.115391456
-0.17011334 -0.11969703 -0.014211781 0.23041685 -0.033362184 -0.15614982 0.21857156 -0.14001934
-0.0065315627 -0.037782673 0.26415005 0.13795799 -0.09337311 -0.2311688 0.24609298 0.15794425
0.24955426 -0.14944431 0.28272796 0.2591045 0.2826871 0.3146631 -0.15249272 -0.14837024
0.21527275 -0.08559765 0.2321608 -0.09937253 -0.16993174 0.2796222 -0.1198699 -0.22344944
-0.15399227 0.17035753 -0.0245185 0.20419352 0.23164351 -0.07984497 -0.20109431 -0.28080815
0.20257153 0.14969303 -0.037419945 0.17265825 -0.08302828 0.21005481 0.27560568 0.30409896
0.30767193 -0.16408697 0.32370678 -0.1442156 0.0689933 0.17347696 -0.15332861 -0.06625712
00000000: 0b59 a73e fd29 4c3e 0284 8b3e 1c8c 1cbe
00000010: 895d 1cbe 7e79 af3e 09e7 b33e 5420 633e
00000020: 9680 803e f7b2 223e 0382 1f3e b4c6 b63e
00000030: d9a5 f7bd 2c26 dfbd 7b7e 6c3e 3eab 1f3e
00000040: da71 d6bd d868 283e c72e 693e fb69 073e
00000050: 5891 19bd 9212 babd fdc1 0c3e abf9 4d3d
00000060: 3570 31be d5f2 633d 5dd7 8c3e 0b35 033e
00000070: c34b 10be b6cf 593e 29c8 663e 2726 1f3e
00000080: 46cf 4b3e 57a8 65bd 0c3f ddbd 3acc 813d
00000090: 2b20 2c3e a296 2d3e 2bc8 00be 807f 643e
000000a0: 32a4 4cbe 3cb9 033d 3cbe 5e3e 0a09 2fbe
000000b0: 057f 863e 1c3d 1c3e 8f89 48be 3fb6 3bbe
000000c0: 55b1 413d f9c9 583e 6989 9c3e ba4f 1ebb
000000d0: b935 bd3d af28 013e e229 e3bd 9bee 843e
000000e0: aaff 083e 99b7 a8bd 9bdc 23be fc94 a33e
000000f0: b21f 86bd 5f81 643e 8438 eebd e4fe debd
00000100: 8f0d 803e 1e38 613e 898d 093e 45ab 38bd
00000110: ffd4 43be 109f 003e 28a4 5fbd c601 4b3e
00000120: d5d8 0a3e dfcd 9abd d4d5 ee3d 307c 2abe
00000130: e4f3 7c3e 35ab 083e 1967 3fbe 5269 a93e
00000140: 304d 803e 24e2 133e 7914 803e 82b3 803e
00000150: 8aaa cdbc e9a2 65be 7438 37bd 2bd2 803e
00000160: 7832 813e 6448 05be 68c4 00be dda7 acbd
00000170: 5560 0d3e 9de9 623e 2997 d4bd d69a 7e3e
00000180: 44e8 583e a721 1ebe eb44 54be e001 7c3e
00000190: 0ea9 b4bd 386a 6ebd f8ac 7b3e 037f 593e
000001a0: 1e51 453e 1055 0bbe 38a7 663e 0399 91bd
000001b0: 7a13 8c3e b0ef 503e 6528 45bd 82c6 54be
000001c0: a669 1a3e ecf4 003e 7275 2cbe 5307 823e
000001d0: 1d08 683e 3392 153e 20e6 623e 6418 d7bc
000001e0: a078 293e b477 78bd 75e6 e63d 7fc2 8abd
000001f0: 5b4f 4f3e 9c3a 503e bd4e f2bd 59ec c5bd
00000200: ba71 e3bd dfd9 8a3e e467 3ebe 2bbe f0bd
00000210: d3a8 0ebe 7903 853e 6c16 2c3e 9bea 49bd
00000220: bc94 4c3e 139b a3bd 870d 69bd ec02 b1bd
00000230: e8b3 e4bd a0b4 903c ba7f 1fbe 487f 8f3e
00000240: c2ff 8b3e 834f a0bd 8108 123e 4fd3 c3bd
00000250: 13b0 7e3e ac94 903e 8e8c 45be 5ac8 583e
00000260: 051e 2abe 6941 64bd bae4 913e bd49 1a3e
00000270: e8b5 f5bd a75d 5abe 37e5 62be 41c5 25be
00000280: 1f31 86be 9387 1c3c e907 0fbe ea54 5c3e
00000290: 4b7f 2bbe df7b f8bd 12fa 2e3d e442 383e
000002a0: c994 37be ba8e 813e 9992 df3d 5571 173e
000002b0: f156 833e 85d8 8c3e 219f 393e baaa 973e
000002c0: aac7 773d c23c 1ebe c40f 813e 71b3 913e
000002d0: 8615 9fbd 8833 d9bd 02db 303e 49b2 02be
000002e0: 7d1a 1b3e c57f a53e 9a40 c9bd 7753 833e
000002f0: 353d 063e ec16 57be 22ee 363e 213a f5bd
00000300: ad0b 2fbe a769 3c3e ad2e 01be c555 553e
00000310: 7d1a 8a3e eddc 3dbe 7473 343e 5b52 ecbd
00000320: 3132 2ebe b723 f5bd 88d8 68bc 65f2 6b3e
00000330: c9a6 08bd bde5 1fbe 39d1 5f3e 3b61 0fbe
00000340: b806 d6bb 01c2 1abd ad3e 873e dc44 0d3e
00000350: 673a bfbd 84b7 6cbe ccff 7b3e 23bc 213e
00000360: 278b 7f3e ee07 19be b8c1 903e 58a9 843e
00000370: 5dbc 903e 861b a13e 0d27 1cbe 5eee 17be
00000380: 7670 5c3e d24d afbd 90bb 6d3e d383 cbbd
00000390: 9602 2ebe a42a 8f3e 5a7e f5bd eecf 64be
000003a0: 26b0 1dbe 3472 2e3e 05db c8bc 1b18 513e
000003b0: f533 6d3e c285 a3bd abeb 4dbe 16c6 8fbe
000003c0: e96e 4f3e 2149 193e a845 19bd 53cd 303e
000003d0: bb0a aabd 9c18 573e 301c 8d3e dcb2 9b3e
000003e0: 2d87 9d3e 6a06 28be e5bc a53e 41ad 13be
000003f0: 5c4c 8d3d f2a3 313e 2d02 1dbe d0b1 87bd

l3.weight f4 [1, 256]
0.25363967 0.5930257 0.21078764 -0.5467035 -0.6517057 0.26132646 0.22634232 0.45409366
0.45004517 0.36310884 -2.3612313 -3.0400958 -0.5838253 -0.5384035 0.27269426 0.49398735
-1.112035 0.31383345 0.5667459 0.62263775 -1.4350754 -2.0527427 0.4118535 2.0765905
-1.5069402 3.1160576 0.23791032 -1.7630697 -1.6795157 0.4931265 0.25723398 0.29728103
0.3414717 -0.028195517 -0.9877443 2.6486306 0.5605111 0.27915227 -0.5140791 0.46576592
-1.2677042 -0.02384277 0.41815296 -0.5172879 0.23508972 0.35607976 -1.2054906 -0.6378484
-1.9232577 0.25885692 0.28440014 -2.2080364 -1.3290999 -2.0897613 -0.4636729 0.22955683
0.6307615 3.7078478 -1.4452269 0.28602433 -1.3110352 0.29115394 -1.1764987 -0.780002
0.23739149 0.3399247 -1.9601095 -0.025992924 -0.91068524 0.44225752 -2.7178316 2.6719773
0.8325762 -0.6030714 0.5606634 -0.8171046 0.2754493 -2.5878036 -0.69771725 0.21589988
0.39552233 0.89732176 0.23411371 0.23327841 0.008918486 -0.48549837 -3.4528527 0.2669732
0.71236104 -0.86584824 -1.4780467 -0.66002065 0.26833308 0.25959343 -0.5534936 0.24860667
0.5028432 -1.2495264 -0.64777994 0.29571623 -1.908351 -1.8491111 0.27795944 0.2908937
0.37006265 -1.8349346 0.5996886 -1.0202904 0.2612745 0.29278627 -0.022493597 -1.7808157
0.3161944 -2.802773 -0.6766886 0.24889357 0.22647198 0.3067456 0.2578241 -1.4899958
0.7764613 -1.1396489 -2.063049 -1.1625639 0.4092594 0.3183565 -0.64488786 -0.51291335
-0.5473652 0.23018396 -2.1442938 -1.1169115 -0.8379492 0.6274268 0.5892313 -1.5261074
0.29150966 -0.8769918 -0.4830314 -0.97823155 -0.95746934 -1.4658979 -1.15029 0.22323999
0.19814564 -1.633171 0.89097154 -1.1418142 0.21572228 0.22595611 -2.3539922 2.6232762
-0.75891435 -2.4551115 0.26294866 -2.3208554 -1.3974922 -0.6801788 -0.840524 -1.3083318
-1.4264908 -1.3508463 -1.7564192 0.38277438 -0.6368893 -0.8047633 -1.6357434 -1.755984
-2.367945 0.2940298 -3.353709 0.3432646 0.27588445 0.20828049 0.8671995 0.27979046
3.727489 -1.3447936 0.3127989 0.21461517 0.038354184 -0.9061955 0.34057733 -1.3688763
0.23166429 0.24067885 -0.51518285 0.5863309 -1.4798607 -0.69538766 -2.0938103 -0.88678586
-0.83536935 0.38263404 -1.7278796 0.37908837 0.26561242 -0.75731397 0.79406154 -1.1136669
2.0724804 -1.4142761 -0.029420208 0.55258906 -1.9491832 -0.5905424 0.26307434 -0.8469536
-1.4501681 -1.2979531 0.29394084 2.149299 -1.5099216 -0.66824657 0.58102304 0.36787128
0.27549043 -0.36900535 0.26741338 0.5217111 0.3035223 0.2906773 -1.4512343 -0.84912795
-2.6476116 -0.7539265 0.43266138 -0.50572205 -0.45192373 0.2926094 -0.46631402 -0.6829156
-1.9745076 0.29832253 -2.209587 0.49967867 0.91111225 -1.1875365 -2.1935244 -2.018362
0.56919026 -1.8765475 -1.4642553 0.23762628 -0.9141704 0.26953548 0.3909999 0.30489865
0.29968527 -1.9390844 0.2697451 -0.44235367 -2.0546038 0.47276908 -1.3729213 -0.5859434
00000000: 0fdd 813e 88d0 173f b7d8 573e c3f4 0bbf
00000010: 2fd6 26bf 95cc 853e 48c6 673e f77e e83e
00000020: 526c e63e 67e9 b93e 6a1e 17c0 ee90 42c0
00000030: 9375 15bf d0d4 09bf 959e 8b3e e9eb fc3e
00000040: 2a57 8ebf c7ae a03e 4216 113f 3065 1f3f
00000050: 8db0 b7bf 2360 03c0 76de d23e dce6 0440
00000060: 6be3 c0bf 7d6d 4740 c39e 733e 45ac e1bf
00000070: 5ffa d6bf 147b fc3e 2cb4 833e 3835 983e
00000080: 61d5 ae3e 49fa e6bc cfdc 7cbf 2a83 2940
00000090: a87d 0f3f 0ced 8e3e b09a 03bf df78 ee3e
000000a0: 2244 a2bf ea51 c3bc 2518 d63e fb6c 04bf
000000b0: 5cbb 703e 1650 b63e 844d 9abf 084a 23bf
000000c0: 4f2d f6bf e588 843e e59c 913e 7850 0dc0
000000d0: f21f aabf a6be 05c0 8966 edbe f210 6b3e
000000e0: 9679 213f 614d 6d40 32fd b8bf c871 923e
000000f0: 00d0 a7bf 2112 953e 8297 96bf 36ae 47bf
00000100: c116 733e 9c0a ae3e dee4 fabf 1def d4bc
00000110: ab22 69bf 946f e23e f4f0 2dc0 ad01 2b40
00000120: b723 553f e362 1abf a387 0f3f c42d 51bf
00000130: b107 8d3e 939e 25c0 999d 32bf dc14 5d3e
00000140: e781 ca3e e1b6 653f 81bb 6f3e 89e0 6e3e
00000150: d71e 123c 3e93 f8be 8afb 5cc0 b6b0 883e
00000160: 4b5d 363f 3ba8 5dbf a230 bdbf 1df7 28bf
00000170: f462 893e 6ee9 843e c2b1 0dbf bf92 7e3e
00000180: 55ba 003f 7bf0 9fbf e8d4 25bf 1e68 973e
00000190: d844 f4bf acaf ecbf b350 8e3e 05f0 943e
000001a0: da78 bd3e 23df eabf 3185 193f e098 82bf
000001b0: c5c5 853e 15e8 953e 7e44 b8bc c5f1 e3bf
000001c0: 3be4 a13e a260 33c0 773b 2dbf f5dd 7e3e
000001d0: 45e8 673e c20d 9d3e 8501 843e 2fb8 bebf
000001e0: 2bc6 463f 04e0 91bf ff08 04c0 e5ce 94bf
000001f0: 738a d13e a0ff a23e 5f17 25bf 4a4e 03bf
00000200: 2020 0cbf 58b5 6b3e 1c3c 09c0 f5f6 8ebf
00000210: d783 56bf 0b9f 203f ddd7 163f 7d57 c3bf
00000220: c140 953e 8982 60bf e44f f7be 626d 7abf
00000230: b61c 75bf 8ba2 bbbf b43c 93bf 0699 643e
00000240: b1e6 4a3e bf0b d1bf b616 643f f826 92bf
00000250: 4de6 5c3e 0a61 673e cfa7 16c0 c2e3 2740
00000260: 3648 42bf 8c20 1dc0 35a1 863e e588 14c0
00000270: 06e1 b2bf 3320 2ebf 952c 57bf 6b77 a7bf
00000280: 4097 b6bf 88e8 acbf 58d2 e0bf 01fb c33e
00000290: 2d0b 23bf f804 4ebf 0a60 d1bf 15c4 e0bf
000002a0: 698c 17c0 138b 963e 2ba3 56c0 61c0 af3e
000002b0: ba40 8d3e 7b47 553e c900 5e3f b240 8f3e
000002c0: 2e8f 6e40 3222 acbf 2d27 a03e 14c4 5b3e
000002d0: 4719 1d3d 6efc 67bf 2760 ae3e 5737 afbf
000002e0: 6739 6d3e 8474 763e 06e3 03bf c819 163f
000002f0: 136c bdbf ed04 32bf fd00 06c0 6604 63bf
00000300: c4da 55bf 9ce8 c33e 292b ddbf df17 c23e
00000310: 5afe 873e 54df 41bf 9e47 4b3f a38c 8ebf
00000320: 85a3 0440 0007 b5bf a602 f1bc 7a76 0d3f
00000330: d67e f9bf c92d 17bf aeb1 863e f3d1 58bf
00000340: 1c9f b9bf 5423 a6bf 6a7f 963e 1d8e 0940
00000350: 1c45 c1bf 3512 2bbf edbd 143f a059 bc3e
00000360: 150d 8d3e 45ee bcbe 68ea 883e dc8e 053f
00000370: 4667 9b3e a8d3 943e 0cc2 b9bf 7360 59bf
00000380: 7872 29c0 5401 41bf cb85 dd3e 0077 01bf
00000390: 8c62 e7be e6d0 953e b6c0 eebe 8fd3 2ebf
000003a0: aabc fcbf bbbd 983e e069 0dc0 e2d5 ff3e
000003b0: a73e 693f 3201 98bf b462 0cc0 d82c 01c0
000003c0: 74b6 113f b532 f0bf b86c bbbf 4e54 733e
000003d0: 1207 6abf 8e00 8a3e 2431 c83e ad1b 9c3e
000003e0: 5970 993e eb33 f8bf 081c 8a3e 2e7c e2be
000003f0: a17e 03c0 ca0e f23e e3bb afbf 6300 16bf

l4.weight f4 [256, 32]
-0.00040576325 -0.08669461 -0.13570686 -0.7767529 0.1585501 0.5107824 -0.21075177 -0.1152501
-0.2502005 0.16046855 0.090810426 0.12052029 -0.18137893 -0.20718408 0.45052162 -0.16952556
-0.20484348 0.076864295 -0.025677629 0.15276174 -0.010578936 -0.17720613 0.10421749 0.30896312
0.09768179 0.41944894 0.2833613 -0.13643657 0.00434959 -0.15319112 -0.012135109 -0.030099096
-0.3078208 -0.030121172 0.16573669 -1.3344721 -0.10737358 -0.651605 0.124116525 0.19664344
0.85002977 0.8851178 0.5220654 -0.21004255 0.72014546 0.15426676 -0.12601061 -0.07552745
0.11470326 -0.10422605 -0.22107382 -0.004632896 -0.13251388 -0.724961 0.14840677 -0.26778483
0.23366067 0.44849956 0.36328188 -0.377223 0.09432219 0.01076521 -0.23161365 -0.021171987
0.34813994 -0.00528414 -0.015402809 -0.48319265 -0.10366209 -0.59048814 0.14464065 -0.41784418
0.02699888 0.3544879 -0.22653872 -0.095160864 0.5724549 0.0649842 -0.19555438 0.18970002
0.020687148 -0.11119358 0.14268151 -0.07277593 -0.1849531 0.03728768 -0.12411805 0.042269677
0.28945363 0.11732739 0.07492604 -0.080714546 0.07250228 0.08730706 -0.041769065 -0.01010099
0.24587148 0.13481861 0.174222 0.25052118 -0.07819254 -0.07656363 -0.10318896 0.07449802
-0.11533828 0.1894804 -0.1526064 -0.036754522 0.45993763 0.035553265 -0.1275749 0.47460923
0.07691348 0.18749791 -0.25105962 0.00075786666 0.069908604 -0.14874089 -0.30643672 -0.10912541
-1.263934 -0.6950092 0.034476858 -0.031281937 -0.07284979 0.067878485 0.12384267 0.0610036
-0.08296184 -0.12913615 -0.044780485 0.4175854 -0.07943828 -0.31699613 0.19791386 0.6595516
0.0020699138 0.23617736 0.114747666 -0.7458446 -0.065901026 -0.11513342 -0.20322971 -0.46464664
0.19272359 -0.33539957 -0.3942029 0.037842903 0.28289047 -0.28429818 -0.09617243 -0.124261335
-0.5243831 0.33340496 0.060999706 -0.24113438 -0.008825169 -0.01926311 0.06867234 0.049618434
-0.35099515 -0.04737447 -0.13182352 1.3160567 0.15594293 0.7743065 0.15370965 0.3012395
-0.19745636 -0.4346753 0.21055345 -0.08301582 0.11370315 -0.005906325 0.08487854 0.43580085
-0.38990834 -0.05979852 -0.02558782 -0.0041907304 0.11658524 -0.009246586 -0.007835002 -0.0070800856
-0.5449807 -0.018655887 0.10311264 0.015513657 0.07365324 0.05772908 -0.11452499 -0.024224862
0.020430682 0.08478553 0.052015938 -0.17590077 -0.012019733 -0.029280927 0.35105494 -0.33105218
-0.05482729 0.58043545 0.036350306 0.124997884 0.34516978 0.09941359 -0.2811454 0.6112376
0.58624864 0.41574857 -0.10067199 -0.005431656 0.032240115 0.6173176 -0.18282118 -0.22770609
-0.32282984 -0.4753885 0.010274582 0.059091363 0.062138926 -0.017454794 0.06650028 -0.0049434383
-0.021479582 0.13232501 0.00037499986 -1.0994169 -0.09802859 -0.2385109 0.6397269 0.09398502
0.6319686 0.44266295 -0.24219687 0.11300696 0.63479865 0.22103938 0.01855201 -0.085397966
-0.54720044 -0.24732335 -1.0840702 -0.33341417 0.09909745 0.013549156 -0.24213918 -0.06581725
-0.39918905 -0.17412706 -0.004418118 -0.13220455 0.13613309 0.13944095 -0.04309082 -0.09470652
00000000: 9fbc d4b9 f28c b1bd bdf6 0abe 47d9 46bf
00000010: f55a 223e a3c2 023f 50cf 57be 3f08 ecbd
00000020: 481a 80be de51 243e d1fa b93d 58d3 f63d
00000030: 66bb 39be 1028 54be c5aa e63e 1c98 2dbe
00000040: 7dc2 51be 076b 9d3d e459 d2bc 936d 1c3e
00000050: 4653 2dbc 8675 35be fb6f d53d 6a30 9e3e
00000060: 640d c83d 03c2 d63e bb14 913e 07b6 0bbe
00000070: 0187 8e3b 22de 1cbe 56d2 46bc 6192 f6bc
00000080: b09a 9dbe adc0 f6bc e1b6 293e fbcf aabf
00000090: aee6 dbbd 96cf 26bf ce30 fe3d e65c 493e
000000a0: 8d9b 593f 1597 623f 14a6 053f 6515 57be
000000b0: 745b 383f 1bf8 1d3e ed08 01be 23ae 9abd
000000c0: 8be9 ea3d 7874 d5bd 2d61 62be 8ccf 97bb
000000d0: b8b1 07be 0b97 39bf f2f7 173e 181b 89be
000000e0: be44 6f3e bca1 e53e 1500 ba3e 6023 c1be
000000f0: fe2b c13d 9060 303c 212c 6dbe e070 adbc
00000100: 663f b23e 9426 adbb 105c 7cbc 0765 f7be
00000110: ca4c d4bd 3b2a 17bf ae1c 143e acef d5be
00000120: c12c dd3c 707f b53e c4f9 67be b3e3 c2bd
00000130: 688c 123f 7016 853d 683f 48be b940 423e
00000140: 1878 a93c 76b9 e3bd 1a1b 123e 8c0b 95bd
00000150: 5864 3dbe f7ba 183d 9b31 febd f822 2d3d
00000160: 4433 943e 5849 f03d d372 993d ab4d a5bd
00000170: 137c 943d 0bce b23d 0a16 2bbd 9f7e 25bc
00000180: bcc5 7b3e e40d 0a3e 4167 323e 5044 803e
00000190: 6923 a0bd 64cd 9cbd bc54 d3bd 6b92 983d
000001a0: 7a36 ecbd 2607 423e da44 1cbe e98b 16bd
000001b0: f27c eb3e 4da0 113d ffa2 02be fbff f23e
000001c0: d184 9d3d 74ff 3f3e e38a 80be 92ab 463a
000001d0: 3e2c 8f3d 884f 18be 46e5 9cbe 257d dfbd
000001e0: 97c8 a1bf 1fec 31bf 9b37 0d3d 7d21 00bd
000001f0: 4532 95bd e003 8b3d 3aa1 fd3d e9de 793d
00000200: e6e7 a9bd 443c 04be be6b 37bd c1cd d53e
00000210: 89b0 a2bd 514d a2be eea9 4a3e 60d8 283f
00000220: 64a7 073b 7ad8 713e d300 eb3d acef 3ebf
00000230: 1ef7 86bd 12cb ebbd 731b 50be 2ae6 edbe
00000240: 5559 453e 7eb9 abbe f6d4 c9be 2901 1b3d
00000250: 05d7 903e 888f 91be 0df6 c4bd ba7c febd
00000260: f93d 06bf 0eb4 aa3e d4da 793d eeeb 76be
00000270: 7197 10bc abcd 9dbc 15a4 8c3d b33c 4b3d
00000280: a3b5 b3be bb0b 42bd bffc 06be 8c74 a83f
00000290: 81af 1f3e f338 463f 1066 1d3e 103c 9a3e
000002a0: 0032 4abe c38d debe 539b 573e 3304 aabd
000002b0: 32dd e83d d889 c1bb cdd4 ad3d 4a21 df3e
000002c0: 11a2 c7be 4bef 74bd 8c9d d1bc 6552 89bb
000002d0: 3ec4 ee3d fe7e 17bc 615e 00bc 1000 e8bb
000002e0: db83 0bbf 3bd4 98bc b82c d33d fe2c 7e3c
000002f0: 83d7 963d 5475 6c3d 148c eabd 3873 c6bc
00000300: 3f5e a73c 09a4 ad3d aa0e 553d 551f 34be
00000310: 6aee 44bc 8ede efbc 79bd b33e ac7f a9be
00000320: 9592 60bd 6b97 143f 0fe4 143d e4fe ff3d
00000330: 18ba b03e 5a99 cb3d 4af2 8fbe 117a 1c3f
00000340: 6414 163f ffdc d43e 1e2d cebd 08fc b1bb
00000350: 360e 043d 8708 1e3f 7a35 3bbe c92b 69be
00000360: f449 a5be 1f66 f3be b856 283c c909 723d
00000370: 6385 7e3d 5bfd 8ebc 4c31 883d 91fc a1bb
00000380: f3f5 afbc 3580 073e a19b c439 b1b9 8cbf
00000390: 37c3 c8bd 343c 74be 24c5 233f 387b c03d
000003a0: b2c8 213f b8a4 e23e 7502 78be 3170 e73d
000003b0: 2a82 223f 2658 623e 63fa 973c 21e5 aebd
000003c0: 5415 0cbf 5542 7dbe d0c2 8abf 43b5 aabe
000003d0: 9bf3 ca3d 47fd 5d3c 55f3 77be 32cb 86bd
000003e0: 8262 ccbe 5d4e 32be dcc5 90bb a160 07be
000003f0: 7966 0b3e 9cc9 0e3e 0080 30bd 7ef5 c1bd

l4.bias f4 [256]
-0.11593004 -0.06832488 -0.03828237 0.15777472 -0.21188335 -0.12927537 0.16946638 0.13591653
0.044813443 0.1413529 -0.07100602 -0.37902635 0.06454597 -0.18167186 -0.17275071 0.119073115
-0.022678047 0.15384647 0.26940235 0.38322675 -0.13611239 -0.1247345 0.072031476 -0.104593165
-0.23478086 0.0757384 0.10150637 -0.102330804 -0.21390568 0.26012874 0.15406491 -0.13504563
0.054258946 0.265533 -0.19442941 0.30846673 0.43023103 -0.01844693 0.07069691 0.09820869
0.33578908 -0.42725953 0.017409246 0.09088919 -0.01907895 0.117680304 -0.016114207 -0.05662694
0.2320284 0.050297815 -0.014127966 0.012164414 0.0020711494 -0.03435754 0.1489901 -0.03615958
-0.094260566 -0.090428986 -0.08979086 -0.1131725 -0.022455212 -0.14799312 -0.043193705 0.3397013
-0.053612616 -0.07964298 -0.14678624 -0.025156995 -0.010727134 -0.036693387 -0.056623057 0.105032854
-0.13872725 -0.07926693 -0.1611311 0.2141968 0.099534914 0.1345793 -0.3476426 0.027839795
-0.0056954417 -0.05541405 -0.24004698 -0.27594516 0.17072673 -0.034624558 0.060254563 -0.09424963
0.18278655 0.34686354 -0.12551834 -0.06241343 0.41476792 -0.3072271 -0.18321663 0.0020242322
-0.04468721 0.06981723 0.19108838 0.04936343 -0.011852308 0.21549581 0.26354447 0.24971394
0.024824206 -0.13693206 0.36412 -0.0637893 -0.27525124 -0.10826061 0.06115537 0.16801748
0.09803767 0.24255544 -0.19403851 -0.030379597 -0.085447714 -0.0687857 0.045390084 -0.3016149
0.096054114 0.2271319 0.16942292 0.12488274 -0.15527976 -0.10137686 -0.092733696 0.08475178
0.15141478 0.016763031 0.01789576 -0.14180592 0.059359286 -0.058298144 0.30316967 -0.100675724
-0.007885566 -0.10056079 0.02455056 -0.18488646 -0.1529341 -0.087099396 0.13045135 0.2007929
0.0684418 -0.023023406 0.15082192 0.06166176 0.1002646 0.19586305 0.1136432 -0.2539515
-0.34011143 0.07605295 -0.162966 -0.18190566 -0.09697703 0.096371405 -0.01044271 0.09560659
0.21087678 -0.04568527 0.12583995 -0.046031743 0.16952309 0.17512734 0.15235506 0.18002647
-0.25651324 -0.3567286 0.08790667 -0.1164161 -0.16602726 0.24146317 -0.31835225 -0.07772055
-0.26464483 -0.2103701 0.22650775 0.012395269 0.23160926 0.14621373 0.17439127 0.06386555
0.32510492 0.20871674 -0.1770012 -0.2620125 -0.072710365 0.044403378 -0.39382502 0.27577433
0.290601 0.18537265 -0.06868882 0.017347138 0.28839704 0.017587027 -0.2655046 -0.21960841
-0.20978312 -0.06002767 -0.13711736 -0.4666368 -0.13981889 -0.11325986 -0.1921084 0.12674841
0.038299043 -0.10716813 0.008861246 -0.10150924 -0.019902784 0.30405986 -0.042745836 0.04302825
0.22904928 0.23752913 -0.07394379 0.12142022 0.24164073 0.055926606 -0.31151643 0.044216014
0.059484538 -0.0067943716 0.017119672 -0.011103008 -0.16560303 0.11305644 0.045153502 -0.07799401
-0.24337374 0.22622143 0.1712757 0.2067985 -0.5276368 0.12395819 0.04940581 0.50925875
0.16639848 -0.1558982 0.06611188 0.15553506 0.27848873 -0.00026814855 0.33776686 0.2901867
0.3966895 0.088133425 0.18963245 -0.16013277 -0.1479057 0.15743002 -0.25302744 -0.2482513
00000000: bb6c edbd eaed 8bbd f9cd 1cbd b28f 213e
00000010: f3f7 58be c360 04be 9888 2d3e b42d 0b3e
00000020: 4d8e 373d d1be 103e 9b6b 91bd be0f c2be
00000030: ad30 843d 3008 3abe 90e5 30be 9bdc f33d
00000040: 50c7 b9bc ee89 1d3e 1bef 893e 4c36 c43e
00000050: 0c61 0bbe cd74 ffbd 3d85 933d f134 d6bd
00000060: 656a 70be bc1c 9b3d 92e2 cf3d d092 d1bd
00000070: 170a 5bbe 982f 853e 31c3 1d3e 6749 0abe
00000080: a13e 5e3d f1f3 873e 8118 47be 5aef 9d3e
00000090: 3e47 dc3e 041e 97bc 8bc9 903d a321 c93d
000000a0: 8cec ab3e c3c1 dabe d69d 8e3c 1d24 ba3d
000000b0: 754b 9cbc 5f02 f13d f101 84bc a6f1 67bd
000000c0: da98 6d3e 1505 4e3d fc78 67bc 404d 473c
000000d0: 1fbc 073b 7eba 0cbd dc90 183e 111c 14bd
000000e0: af0b c1bd d532 b9bd 45e4 b7bd fcc6 e7bd
000000f0: fef3 b7bc 828b 17be e2eb 30bd 54ed ad3e
00000100: e798 5bbd dc1b a3bd 224f 16be 0b16 cebc
00000110: dcc0 2fbc ce4b 16bd 94ed 67bd 771b d73d
00000120: 840e 0ebe b356 a2bd 8dff 24be 6856 5b3e
00000130: f6d8 cb3d 28cf 093e 36fe b1be 4810 e43c
00000140: d4a0 babb d8f9 62bd e0ce 75be af48 8dbe
00000150: fdd2 2e3e 7bd2 0dbd 7dcd 763d f305 c1bd
00000160: 662c 3b3e 1998 b13e e187 00be 3aa5 7fbd
00000170: 765c d43e df4c 9dbe 249d 3bbe fba8 043b
00000180: f009 37bd 56fc 8e3d acac 433e 4f31 4a3d
00000190: 2f30 42bc efaa 5c3e 4def 863e 03b5 7f3e
000001a0: 225c cb3c eb37 0cbe f06d ba3e f7a3 82bd
000001b0: bbed 8cbe bdb7 ddbd 0e7e 7a3d c60c 2c3e
000001c0: f9c7 c83d 7460 783e 08b2 46be a2de f8bc
000001d0: 36ff aebd 84df 8cbd f4ea 393d 456d 9abe
000001e0: 05b8 c43d 4495 683e 347d 2d3e 86c2 ff3d
000001f0: a801 1fbe ac9e cfbd 2aeb bdbd 5792 ad3d
00000200: 7a0c 1b3e a052 893c 219a 923c 9235 11be
00000210: b922 733d 09ca 6ebd 0e39 9b3e 132f cebd
00000220: 7632 01bc d1f2 cdbd 421e c93c e052 3dbe
00000230: c29a 1cbe 2b61 b2bd 0a95 053e a79c 4d3e
00000240: 372b 8c3d 959b bcbc 1071 1a3e 0b91 7c3d
00000250: 8757 cd3d 5390 483e c4bd e83d ee05 82be
00000260: 1623 aebe a6c1 9b3d 8fe0 26be 7a45 3abe
00000270: e59b c6bd 5f5e c53d e617 2bbc 63cd c33d
00000280: 15f0 573e 7a20 3bbd 30dc 003e c88b 3cbd
00000290: 7697 2d3e 9554 333e f702 1c3e dc58 383e
000002a0: b455 83be 22a5 b6be 6a08 b43d 906b eebd
000002b0: 0d03 2abe 1f42 773e 11ff a2be f42b 9fbd
000002c0: 877f 87be 426b 57be a6f1 673e 8715 4b3c
000002d0: fa2a 6d3e 0db9 153e a093 323e f1cb 823d
000002e0: 2774 a63e d7b9 553e cd3f 35be 8126 86be
000002f0: 2ce9 94bd 51e0 353d 6fa3 c9be 4b32 8d3e
00000300: a7c9 943e 54d2 3d3e b9ac 8cbd 961b 8e3c
00000310: c7a8 933e ab12 903c 38f0 87be 07e1 60be
00000320: 63d1 56be 93df 75bd 7e68 0cbe 05eb eebe
00000330: af2c 0fbe c9f4 e7bd 10b8 44be 56ca 013e
00000340: 75df 1c3d f77a dbbd c22e 113c 14e4 cfbd
00000350: 2a0b a3bc bcad 9b3e 4216 2fbd 643e 303d
00000360: e58b 6a3e d63a 733e d76f 97bd 2aab f83d
00000370: ab70 773e 4c13 653d 157f 9fbe da1b 353d
00000380: 0fa6 733d 52a3 debb 8e3e 8c3c 64e9 35bc
00000390: d793 29be 238a e73d e1f2 383d 53bb 9fbd
000003a0: f736 79be 97a6 673e e662 2f3e fcc2 533e
000003b0: 3513 07bf cbdd fd3d bf5d 4a3d c85e 023f
000003c0: 5d64 2a3e c7a3 1fbe aa65 873d 9544 1f3e
000003d0: 1396 8e3e 4a96 8cb9 c7ef ac3e 5a93 943e
000003e0: e31a cb3e 4c7f b43d 022f 423e d8f9 23be
000003f0: 9874 17be 5635 213e d08c 81be 9735 7ebe

l5.weight f4 [256, 256]
0.06260115 -0.075536646 0.0064804363 0.13240235 0.17018785 -0.030101977 0.0721021 -0.052176546
-0.04892193 -0.030541696 0.08451236 -0.07084104 0.08755125 -0.015727188 0.23185946 0.08501467
0.05457828 0.09344677 0.06399376 0.19280347 0.0040507545 0.12211192 0.12111304 -0.1449723
0.079914406 -0.10410997 0.07648546 0.039873105 -0.02816883 0.099205546 0.040283304 -0.074460074
0.16539833 0.01717883 0.03876014 -0.0784881 -0.02743541 0.08077862 -0.1668341 0.15420945
-0.070956826 0.10748167 -0.13524164 0.06298821 -0.04313249 0.086527355 0.10775336 0.30729833
0.09223429 0.074471295 0.012997592 0.12479718 0.019993661 0.07967473 0.18438603 0.0868061
-0.06818764 -0.16598713 -0.12838912 0.11328783 0.081069656 -0.009254838 0.33567032 0.0030405559
-0.12086909 0.07727312 0.018164245 -0.046599913 -0.04688718 -0.13263218 0.30348676 0.06027293
0.28263512 -0.086406544 0.19213054 0.13843144 0.25615573 0.14510578 0.19442488 0.2202559
0.13512717 0.22518942 -0.012035009 0.08455996 -0.0984182 0.020135878 -0.26161206 0.0103599625
0.13975972 -0.09381246 0.11920423 0.22272578 5.4341283e-05 0.12822177 0.0143547505 -0.034230698
0.04462467 0.25594217 0.023339583 0.2644125 -0.11568056 0.15128739 0.12980093 0.16870952
0.007111261 -0.16290057 0.1181199 0.05199488 0.09182626 -0.12427021 0.10674074 0.042236015
0.19139968 0.09601381 0.117029816 0.10063471 0.07504577 0.02695845 -0.24988247 0.16363883
-0.03423573 0.11398099 0.08576961 -0.02675314 0.0067386976 -0.15763676 -0.006917559 -0.068521194
-0.016194401 0.048181035 0.08159083 -0.02305307 -0.036741424 -0.10626516 -0.100573 -0.03454301
0.057937562 0.053730022 -0.038136266 0.00044726586 0.0015485259 0.0892645 0.06831105 0.12747294
0.12538093 0.21009368 0.11828735 -0.056067128 0.15510792 -0.0019966154 0.124429576 0.12547965
0.098378755 0.057225525 0.0744374 -0.058216043 0.038091227 0.04656622 0.11035117 -0.09277168
0.09213666 -0.11746245 0.16081212 0.14430587 0.05253929 -0.08362303 0.07457392 0.06807312
0.14347437 0.150594 0.097253464 0.12528853 -0.021300728 0.13136904 0.09592337 -0.15829141
-0.06481896 0.011551786 0.0516878 -0.036243238 0.09171219 -0.27243698 0.13770267 -0.091775134
0.04331666 0.067987144 0.036532775 0.3005623 0.15695518 -0.009068335 0.11911469 -0.22268057
-0.1677031 -0.1747148 -0.24590279 0.10420042 0.072313264 0.0468095 0.075244434 0.0033652827
0.08205388 -0.2839946 0.13860194 0.013913215 0.07947699 -0.013027165 -0.07663426 0.09402811
0.26804972 0.13426149 0.007930659 0.043982647 0.08524178 0.0074855587 -0.10345133 0.08376895
0.087749 -0.2964385 0.060914427 -0.22371528 0.06407525 0.054846406 -0.042700015 -0.14063372
0.2521202 0.09155473 0.12589362 0.08664353 -0.08075247 0.045632247 -0.00014319939 -0.11539431
0.0322491 0.034071892 -0.056505065 0.040318985 -0.013439356 0.032029938 0.08551186 0.0059263795
0.068182155 -0.04961167 -0.11502717 0.087845504 0.19420898 -0.031580128 0.06893308 0.08909262
0.08675811 -0.04765404 0.11487669 0.0048345686 0.19291835 0.17090935 0.07041918 0.022001699
00000000: 0835 803d f5b2 9abd d759 d43b 7b94 073e
00000010: b945 2e3e 6c98 f6bc 44aa 933d 13b7 55bd
00000020: 5d62 48bd 9432 fabc d114 ad3d 1b15 91bd
00000030: 124e b33d 4ed6 80bc 916c 6d3e 2c1c ae3d
00000040: 798d 5f3d 0561 bf3d 290f 833d 466e 453e
00000050: 31bc 843b d015 fa3d 1d0a f83d 9e73 14be
00000060: 2aaa a33d 9c37 d5bd 69a4 9c3d fb51 233d
00000070: 51c2 e6bc 472c cb3d 1b00 253d 867e 98bd
00000080: 2e5e 293e 9eba 8c3c f4c2 1e3d 5ebe a0bd
00000090: 3ac0 e0bc 436f a53d 8fd6 2abe 15e9 1d3e
000000a0: d051 91bd 5a1f dc3d c97c 0abe f6ff 803d
000000b0: b2ab 30bd 4135 b13d cbad dc3d 3556 9d3e
000000c0: 55e5 bc3d 6884 983d daf3 543c aa95 ff3d
000000d0: bfc9 a33c 812c a33d b1cf 3c3e 66c7 b13d
000000e0: f6a5 8bbd 88f8 29be 7078 03be 7303 e83d
000000f0: d907 a63d 9ba1 17bc fbdc ab3e 1044 473b
00000100: 378a f7bd 5f41 9e3d 2fcd 943c 8ddf 3ebd
00000110: c60c 40bd bbd0 07be 9e62 9b3e bfe0 763d
00000120: 8db5 903e eaf5 b0bd debd 443e f9c0 0d3e
00000130: d826 833e 9c96 143e 5117 473e c38a 613e
00000140: c75e 0a3e 0e98 663e 7d2e 45bc c62d ad3d
00000150: 7b8f c9bd fff3 a43c 04f2 85be d5bc 293c
00000160: 2c1d 0f3e bf20 c0bd 5921 f43d 3a12 643e
00000170: 82ec 6338 914c 033e 3030 6b3c 7d35 0cbd
00000180: 5cc8 363d da0a 833e a732 bf3c 1361 873e
00000190: eee9 ecbd 15eb 1a3e 89ea 043e 30c2 2c3e
000001a0: 9505 e93b 68cf 26be d9e8 f13d 95f8 543d
000001b0: 680f bc3d 6181 febd e49a da3d acff 2c3d
000001c0: 47fe 433e e3a2 c43d 54ad ef3d 9219 ce3d
000001d0: 99b1 993d f8d7 dc3c 31e1 7fbe f090 273e
000001e0: c43a 0cbd de6e e93d faa7 af3d 6729 dbbc
000001f0: 4bd0 dc3b 886b 21be b1ac e2bb d754 8cbd
00000200: 1faa 84bc 7a59 453d 1819 a73d cbd9 bcbc
00000210: 2d7e 16bd 8ca1 d9bd 38f9 cdbd f97c 0dbd
00000220: f04f 6d3d 0314 5c3d c634 1cbd 027f ea39
00000230: e8f7 ca3a 4ed0 b63d aae6 8b3d 4488 023e
00000240: dc63 003e cc22 573e a340 f23d a5a6 65bd
00000250: 9cd4 1e3e a6d9 02bb efd4 fe3d bd7d 003e
00000260: cd7a c93d 5065 6a3d a372 983d f273 6ebd
00000270: 8c05 1c3d 38bc 3e3d cbff e13d 14ff bdbd
00000280: 25b2 bc3d 2790 f0bd efab 243e ebc4 133e
00000290: 7033 573d 8d42 abbd 36ba 983d ec69 8b3d
000002a0: f2ea 123e 5035 1a3e d32c c73d a34b 003e
000002b0: dd7e aebc 9b85 063e 7973 c43d 2517 22be
000002c0: cebf 84bd b443 3d3c 96b6 533d ca73 14bd
000002d0: 9ad3 bb3d dc7c 8bbe ee01 0d3e 9af4 bbbd
000002e0: cf6c 313d d83c 8b3d 64a3 153d 4de3 993e
000002f0: dcb8 203e 5b93 14bc 67f2 f33d 6006 64be
00000300: 5dba 2bbe 70e8 32be f1cd 7bbe 0867 d53d
00000310: fa18 943d 51bb 3f3d c119 9a3d 138c 5c3b
00000320: dd0b a83d bd67 91be abed 0d3e 41f4 633c
00000330: d5c4 a23d e46f 55bc 6cf2 9cbd cf91 c03d
00000340: d03d 893e d87b 093e 98ef 013c 2627 343d
00000350: 3e93 ae3d 6b49 f53b 4ade d3bd 0e8f ab3d
00000360: bfb5 b33d c9c6 97be 6881 793d 9e15 65be
00000370: e239 833d a0a6 603d 36e6 2ebd 4902 10be
00000380: e615 813e 0c81 bb3d 42ea 003e 2a72 b13d
00000390: 8d61 a5bd e1e8 3a3d cb27 16b9 da53 ecbd
000003a0: a217 043d f88e 0b3d db71 67bd 8525 253d
000003b0: bf30 5cbc d331 033d d820 af3d 1332 c23b
000003c0: 16a3 8b3d 9b35 4bbd 5d93 ebbd 58e8 b33d
000003d0: b8de 463e 2a5a 01bd c92c 8d3d 3176 b63d
000003e0: 3cae b13d e230 43bd 7844 eb3d 4d6b 9e3b
000003f0: 638c 453e dc02 2f3e ee37 903d e83c b43c
