p2/m0.25HalfCheetahBulletEnv-v0_TD3_BC_1234_1638628073_td3_bc.pth (torch, 898833 bytes, 16 tensors)

l1.weight f4 [256, 32]
0	0x3d944ee3	0.07241609
1	0x3d45a035	0.04824849
2	0x3bc0e594	0.005886743
3	0x3ed090a1	0.40735343
4	0xbdf26ad7	-0.11836784
5	0xbe366f47	-0.17815886
6	0xbeec2405	-0.4612123
7	0xbd896e95	-0.06710545
8	0x3d2aa74b	0.04166345
9	0xbefef0e8	-0.49793172
10	0xbdf6850f	-0.12037098
11	0xbea1b59d	-0.31583872
12	0xbe6772ce	-0.22602388
13	0xbe99b1c0	-0.30018425
14	0x3dec1328	0.11527091
15	0x3e6eb5c1	0.23311521
16	0xbe005b8f	-0.12534927
17	0x3d2e67a4	0.04257931
18	0x3e836ea0	0.25670338
19	0xbb85e6dc	-0.0040863585
20	0xbd08f541	-0.033437017
21	0xbe4ba83c	-0.19888395
22	0x3ea41a8e	0.3205151
23	0x3e02c9ae	0.12772247
24	0xbebbf102	-0.36707312
25	0x3eb3580f	0.3502812
26	0xbd889601	-0.06669236
27	0xbe12c6ff	-0.14333723
28	0xbe2704f8	-0.16310489
29	0x3e80b618	0.25138927
30	0xbdd77200	-0.10519791
31	0xbb5a0f30	-0.0033273213
32	0xbe5d56e5	-0.21615179
33	0x394a9bb2	0.00019322222
34	0x3d315815	0.043296892
35	0x3ea1d9a4	0.3161136
36	0xbdabcd64	-0.083887845
37	0x3f0b5fc5	0.5444301
38	0xbf4f0929	-0.8087335
39	0x3db5b624	0.08872631
40	0x3db16088	0.0866099
41	0xbeff4c20	-0.49862766
42	0x3dff586d	0.12468038
43	0xbbee48d5	-0.007271866
44	0x3dcf4ca4	0.1012204
45	0x3f4c0697	0.79697555
46	0x3ddbb1d0	0.107272744
47	0xbea03820	-0.3129282
48	0x3ed9fd12	0.4257589
49	0xbe4cfced	-0.20018359
50	0xbe434fc9	-0.19073404
51	0xbd6f298a	-0.058389224
52	0xbd477f5a	-0.048705436
53	0x3dbf928f	0.09354126
54	0xbe259df0	-0.1617353
55	0x3d5c5c11	0.05379874
56	0x3d437047	0.047714498
57	0x3e2478e7	0.16061746
58	0xbe27e0ed	-0.16394396
59	0x3d6e62af	0.05819958
60	0x3e9ba0ae	0.30396026
61	0x3d77d711	0.060507838
62	0x3e08ecb9	0.13371553
63	0xbc3c9503	-0.011510137
64	0x3e672729	0.22573532
65	0xbd2afaed	-0.041743208
66	0x3e32c317	0.17457233
67	0x3e5b6a9e	0.2142739
68	0x3d9f4528	0.077768624
69	0xbf501be3	-0.8129255
70	0xbeeb9bf3	-0.46017417
71	0xbd2fa813	-0.042884897
72	0xbdb08ab7	-0.08620208
73	0xbd926b1c	-0.07149336
74	0x3e808db5	0.25108114
75	0x3e553113	0.20819502
76	0x3e65f7eb	0.22457854
77	0xbaf02c2c	-0.0018323711
78	0xbe50e42f	-0.20399545
79	0xbd5d3d5b	-0.05401359
80	0x3df3bf41	0.11901713
81	0x3dbd1f9a	0.09234543
82	0xbdb74ee5	-0.08950595
83	0x3e13b235	0.1442345
84	0xb9fc8805	-0.00048166528
85	0x3e82f297	0.25575706
86	0xbedbf60e	-0.42961162
87	0x3dee5764	0.11637762
88	0xbe62b2ce	-0.22138521
89	0xbe26e3af	-0.16297792
90	0xbe24938b	-0.16071908
91	0x3ceb3086	0.028709661
92	0x3ca831a8	0.02053149
93	0xbccdc2e5	-0.025117347
94	0x3d6b87c3	0.05750252
95	0xbcedff39	-0.029052364
96	0xbec1f2b5	-0.37880483
97	0x3da1b9c4	0.0789676
98	0x3d2c5732	0.042075343
99	0xbf5bb097	-0.8581633
100	0x3d848e24	0.06472424
101	0x3d308cb3	0.04310293
102	0xbeaf547e	-0.3424415
103	0xbe657b27	-0.2241026
104	0x3b3b10e6	0.0028544008
105	0xbe945a22	-0.28975016
106	0xbe2cd70f	-0.16878913
107	0xbe5e129b	-0.21686785
108	0xbecc77bf	-0.3993511
109	0x3e9ec7f8	0.3101194
110	0x3e3d86b1	0.18508412
111	0x3eb17942	0.34662825
112	0xbda726c5	-0.081616916
113	0x3c6eb601	0.01456976
114	0x3eada292	0.33913094
115	0xbe8231df	-0.25428674
116	0x3e525176	0.20538887
117	0x3e53107e	0.2061176
118	0x3a18140e	0.0005801328
119	0xbe19ce1f	-0.15020035
120	0xbe933d47	-0.28757688
121	0xbdb7499e	-0.08949588
122	0xbe65ce9f	-0.22442101
123	0xbe6bb883	-0.23019604
124	0x3e62917c	0.2212581
125	0xbb123754	-0.002231081
126	0x3dc4d92f	0.09611737
127	0xbe1a8060	-0.15088034
128	0xbdfc337e	-0.12314509
129	0xbde43c5d	-0.11144326
130	0xbe427462	-0.18989709
131	0xbe831f2f	-0.2560973
132	0xbe0aea72	-0.13565996
133	0x3f3254cd	0.69660646
134	0x3eb0074a	0.3438056
135	0x3f0d0386	0.550835
136	0xbe70ac8d	-0.23503323
137	0xbf1beca9	-0.6090799
138	0xbe95a56d	-0.29227772
139	0xbd87b507	-0.06626325
140	0x3df39d0a	0.11895187
141	0xbc5e3a6e	-0.013563735
142	0x3ee90ebe	0.4551906
143	0x3eb3a29b	0.35084996
144	0x3d81d10f	0.06338703
145	0x3e21f144	0.15814692
146	0xbf1f7f5e	-0.6230372
147	0xbe7dda2b	-0.24790256
148	0xbd967472	-0.07346429
149	0xbef00a7e	-0.46883005
150	0xbe3dabad	-0.1852252
151	0xbdee7936	-0.11644213
152	0x3f1ac16f	0.60451406
153	0x3ef34f78	0.47521567
154	0xbd404a79	-0.046946023
155	0xbaf3a479	-0.0018588445
156	0x3d20e133	0.039277267
157	0xbd8359ac	-0.06413588
158	0x3d83d7fb	0.064376794
159	0xbd9ed333	-0.07755127
160	0x3e951130	0.29114676
161	0xbde149fe	-0.11000441
162	0x3e0983b2	0.13429144
163	0xbda5ebcf	-0.081016175
164	0xbd61306d	-0.054977823
165	0xbee82885	-0.45343414
166	0xbd0908b4	-0.033455566
167	0xbc8af964	-0.016964622
168	0xbe0739e3	-0.13205676
169	0xbf5a1054	-0.85181165
170	0xbedb17ba	-0.4279154
171	0xbf891ce5	-1.0711943
172	0xbf112c9c	-0.56708694
173	0xbdc8e400	-0.098091125
174	0xbe6cb77b	-0.23116867
175	0x3d66f74d	0.05638819
176	0x3d3d8d36	0.046277247
177	0x3deb701b	0.11495992
178	0xbea4b45e	-0.3216886
179	0xbd31c48a	-0.043400325
180	0x3b2774fe	0.002555191
181	0x3dd4dfc4	0.103942424
182	0xbdd6e479	-0.104927965
183	0x3e828d45	0.25498405
184	0xbf2e4e34	-0.6808808
185	0x3e465a9d	0.19370504
186	0x3df8acb0	0.121423125
187	0xbecee442	-0.40408522
188	0x3e0ba141	0.13635732
189	0x3cfd8b6a	0.030950267
190	0x3d659279	0.05604789
191	0xbd43c96c	-0.047799513
192	0x3e4bf870	0.1991899
193	0xbe1f67fe	-0.15567014
194	0x3e4e154f	0.20125316
195	0x3f26ceb8	0.6515918
196	0xbce25284	-0.027627237
197	0x3ef1799f	0.47163102
198	0xbe9fc97d	-0.3120841
199	0xbe965f23	-0.2936946
200	0x3dbb4594	0.0914413
201	0x3e5de6d0	0.21670079
202	0x3dbc4248	0.0919233
203	0x3e20ae78	0.15691555
204	0x3dc44c45	0.0958486
205	0x3c85f988	0.016354337
206	0x3ee3c61e	0.4448709
207	0x3b44862f	0.0029987206
208	0xbec3cff0	-0.3824458
209	0xbe08fac0	-0.13376904
210	0xbe3ebcd3	-0.18626718
211	0xbd92c179	-0.07165808
212	0xbd128980	-0.03577566
213	0x3e09a66d	0.13442393
214	0x3dd0fadb	0.10204097
215	0xbe54cf62	-0.20782235
216	0xbe4ce7b8	-0.20010269
217	0x3e6d6bc9	0.23185648
218	0x3d08fd27	0.03344455
219	0xbcafcff9	-0.021461474
220	0x3bd74593	0.006569573
221	0xbcfea3a0	-0.031083882
222	0xbc0f1c2b	-0.008734743
223	0xbbbcc591	-0.0057608564
224	0xbeebd85f	-0.46063516
225	0x3e265004	0.16241461
226	0xbeb2ff5e	-0.34960455
227	0x3f1c6759	0.61095196
228	0xbd9b1f15	-0.07574288
229	0x3f2d15c6	0.6761135
230	0xbea17dbc	-0.3154124
231	0xbd521ff4	-0.051300004
232	0xbd86d646	-0.06583838
233	0x3e95a7e4	0.29229653
234	0xbe09adda	-0.13445225
235	0x3e54d2d9	0.20783557
236	0xbf091f6b	-0.53563565
237	0xbd2bb765	-0.041922946
238	0xbd708729	-0.05872265
239	0x3ee77bf0	0.45211744
240	0x3d96222a	0.07330735
241	0x3d743d1f	0.059628602
242	0x3f01e12b	0.50734204
243	0xbc261aeb	-0.010138254
244	0x3d28e12d	0.04123037
245	0xbdb92dcd	-0.09041939
246	0xbc218faa	-0.009860912
247	0xbd290cf6	-0.041272126
248	0x3f309a1d	0.6898516
249	0x3e93c3c3	0.28860292
250	0x3d58bda5	0.052915234
251	0x3c097b9e	0.008391289
252	0xbc00447b	-0.007828827
253	0x3dadc815	0.08485428
254	0xbd0f0ea9	-0.03492609
255	0xbcfc361a	-0.030787516

l1.bias f4 [256]
0	0x3e418e1f	0.18901871
1	0xbd795b4e	-0.06087809
2	0x3eacc9f0	0.33747816
3	0x3d2844d6	0.041081272
4	0xbe503a4a	-0.20334736
5	0x3dfb4290	0.12268555
6	0x3e7a59a4	0.24448258
7	0xbe8d512b	-0.2760099
8	0xbd10bccf	-0.035336312
9	0xbe4160dc	-0.18884605
10	0x3e81f772	0.25384098
11	0xbe623c6c	-0.22093362
12	0xbe3dc7ef	-0.185333
13	0x3d9ab988	0.075549185
14	0xbcb23832	-0.021755312
15	0x3e85366b	0.2601808
16	0x3d1389a2	0.03601993
17	0xbdaa6d7e	-0.08321665
18	0xbdcfdc41	-0.10149432
19	0xbde714ea	-0.11283286
20	0xbcbb97a5	-0.022899458
21	0xbe736c3a	-0.23771754
22	0x3ebba2ae	0.36647552
23	0xbe70e47a	-0.23524657
24	0x3edbe204	0.42945874
25	0xbe27a504	-0.16371542
26	0x3c7eb3d7	0.015545807
27	0xbe3fda25	-0.1873556
28	0x3d1db69b	0.038504224
29	0x3e0c8f41	0.13726522
30	0x3d289b51	0.041163746
31	0x3c9a4eb5	0.018836359
32	0xbce330bf	-0.027733205
33	0x3ddccc43	0.10781147
34	0xbda8ec7c	-0.08248231
35	0x3eafe0d5	0.3435122
36	0x3ebf5f65	0.37377468
37	0x3debe49f	0.115182154
38	0xbe085199	-0.13312377
39	0x3e8e296b	0.27765974
40	0x3e451097	0.1924461
41	0xbe9bf156	-0.30457562
42	0x3da132ec	0.07871041
43	0x3e2c8b96	0.16850123
44	0xbda059b4	-0.078296095
45	0x38dd320c	0.00010547423
46	0x3d150c1a	0.036388494
47	0xbcdae4a4	-0.026720352
48	0x3e0fcc08	0.14042675
49	0xbe29d90a	-0.165867
50	0xbd4cbc4b	-0.049984258
51	0x3d748f36	0.05970689
52	0xbdd7ce35	-0.10537378
53	0x3e325c96	0.17418131
54	0x3d0b4fda	0.0340117
55	0xbddac654	-0.10682359
56	0xbda77793	-0.08177104
57	0xbe4f9605	-0.20272072
58	0x3eb3ec74	0.35141337
59	0x3da73d53	0.081659935
60	0x3e8cf820	0.27533054
61	0xbe804e5a	-0.25059777
62	0xbdd8ca19	-0.10585422
63	0xbe45cf9a	-0.19317475
64	0x3dea5022	0.11441065
65	0xbd69d90f	-0.05709177
66	0xbdd97791	-0.106185086
67	0xbd54f81f	-0.05199444
68	0xbe5e63f0	-0.2171781
69	0x3ddafade	0.1069238
70	0x3e4fa5dc	0.20278114
71	0x3e82d235	0.25551
72	0xbc9bdd6b	-0.019026479
73	0xbdbcb27d	-0.092137314
74	0x3d9dfa16	0.07713716
75	0xbd4dd608	-0.050252944
76	0x3ed3c96d	0.41364613
77	0x3d8597c2	0.06523086
78	0x3e374345	0.17896755
79	0x3db0714d	0.086153604
80	0xbe007c09	-0.12547316
81	0x3e82df31	0.25560907
82	0x3d7b542a	0.061359562
83	0xbc480cd1	-0.012210087
84	0xbe67f21b	-0.2265095
85	0x3c407997	0.011747739
86	0x3e445c13	0.19175749
87	0x3e88e1e7	0.2673485
88	0x3d271918	0.040795416
89	0xbc94b143	-0.018150931
90	0xbe032ef0	-0.12810874
91	0x3e87119b	0.2638062
92	0x3ea717cf	0.32635352
93	0x3c9cca07	0.019139303
94	0xbd6cef0b	-0.057845157
95	0x3d03a8b6	0.032143317
96	0x3ed2fe1c	0.41209495
97	0xbd92d8ec	-0.07170281
98	0x3db078ab	0.086167656
99	0x3c09f495	0.008420129
100	0xbb47b241	-0.0030471238
101	0x3da77860	0.081772566
102	0x3e02b8ee	0.12765858
103	0x3e368670	0.17824721
104	0xbe499f91	-0.19689776
105	0xbeae71da	-0.34071237
106	0x3e856340	0.26052284
107	0xbd8dd5e2	-0.069255605
108	0xbda05ee8	-0.07830602
109	0x3dcb8c79	0.099389024
110	0x3e198713	0.14992933
111	0x3e08d9fc	0.13364404
112	0xbd8fb5f9	-0.070171304
113	0x3e586dde	0.21135661
114	0x3ea2e3e3	0.3181449
115	0xbdaa446f	-0.08313834
116	0x3e3c3722	0.18380406
117	0x3dabd644	0.08390477
118	0xbd922dc2	-0.07137634
119	0x3d647b2a	0.05578152
120	0x3d921978	0.07133764
121	0xbec6c730	-0.38823843
122	0x3e5526bd	0.20815559
123	0x3d933a1c	0.07188818
124	0x3d89eacc	0.06734237
125	0x3d3830a3	0.04496826
126	0xbe34192a	-0.17587724
127	0x3e513b1c	0.20432705
128	0x3e39a01a	0.1812748
129	0xbdbd056d	-0.092295505
130	0xbdf593ad	-0.119910575
131	0xbd0521dd	-0.032502998
132	0x3e371105	0.17877586
133	0x3e152c92	0.14567783
134	0x3e1ee7cc	0.15518111
135	0x3d5761e2	0.052583583
136	0xbda1d6b6	-0.07902281
137	0x3cd806c7	0.02637042
138	0x3e6c3a30	0.23069072
139	0x3e02d0c4	0.1277495
140	0xbe9b3dde	-0.30320638
141	0x3e15df39	0.14635934
142	0xbd96d610	-0.07365048
143	0x3e6cd7f1	0.2312925
144	0xbbcf961a	-0.006335032
145	0xbd93ba45	-0.072132625
146	0xbe9d4755	-0.30718485
147	0x3f07223e	0.52786624
148	0x3e592bf7	0.21208178
149	0xb90beae6	-0.0001334358
150	0xbdd29beb	-0.10283645
151	0xbe9dac0a	-0.30795318
152	0xbdf55e06	-0.11980824
153	0xbe0c013a	-0.13672343
154	0x3e3cdeaf	0.18444322
155	0x3e103a5d	0.14084764
156	0xbe971aff	-0.29512784
157	0xbdf9671f	-0.12177872
158	0x3e89f6f0	0.2694621
159	0xbdf37ad5	-0.11888663
160	0xbdd3c497	-0.10340231
161	0x3da3862c	0.07984576
162	0xbe937ae9	-0.2880471
163	0x3d99030e	0.07471286
164	0x3df2fa6e	0.11864172
165	0x3e7cd026	0.24688777
166	0xbc8abc6e	-0.016935553
167	0xbd275a66	-0.040857695
168	0x3e451d98	0.1924957
169	0x3d92be1d	0.071651675
170	0xbd557311	-0.05211169
171	0x3d0cde18	0.034391493
172	0x3da1e615	0.07905213
173	0x3d8b447c	0.06800172
174	0x3c0b2e4c	0.008494925
175	0x3e8a927f	0.27064893
176	0xbe1c9ea7	-0.15294896
177	0xbca3208a	-0.019912977
178	0x3e7f55ec	0.2493512
179	0xbe6e6139	-0.23279275
180	0xbdef2522	-0.116770044
181	0xbf1de239	-0.61673313
182	0xbdb50998	-0.088397205
183	0x3ea91472	0.3302341
184	0xbdc140f9	-0.09436221
185	0xbdd52ceb	-0.10408958
186	0xbc019a5c	-0.007910337
187	0x3e047cd2	0.1293824
188	0x3ce066ce	0.027392771
189	0x3e470858	0.19436777
190	0xbe92eb36	-0.28695077
191	0xbe8ab0c8	-0.27087998
192	0x3d41e44e	0.04733687
193	0x3e415168	0.1887871
194	0x3dfc2890	0.12312424
195	0x3c96b554	0.01839701
196	0x3e28d057	0.16485725
197	0xbec5f131	-0.38660577
198	0x3dd037f6	0.10166924
199	0xbe247ba7	-0.16062795
200	0x3e8277e1	0.25482085
201	0xbc835e53	-0.016036188
202	0x3e1cf38b	0.1532728
203	0x3d0346ec	0.03205006
204	0x3e022802	0.12710574
205	0x3d81c1a7	0.063357644
206	0x3d785589	0.060628448
207	0x36ad2724	5.1603583e-06
208	0x3e436c48	0.19084275
209	0x3d981d52	0.074274674
210	0x3d9f8bbd	0.07790325
211	0xbcc5d9ff	-0.0241518
212	0x3d66d3fe	0.056354515
213	0x3deda022	0.116028085
214	0xbdd42bba	-0.10359903
215	0xbeb4d5f7	-0.35319492
216	0xbe72522c	-0.23664159
217	0x3c3279ac	0.010893267
218	0xbd90bd90	-0.07067406
219	0xbe13cb4b	-0.14433019
220	0x3da332a8	0.07968646
221	0x3db80d95	0.089869656
222	0xbec6de88	-0.38841653
223	0x3e1f1722	0.15536168
224	0x3e8b02a5	0.27150455
225	0x3c97e5f3	0.018542266
226	0x3e23aeeb	0.15984695
227	0xbd5f5318	-0.054522604
228	0x3e903dfc	0.2817229
229	0xbdc6e18f	-0.09710991
230	0x3e9da623	0.30790815
231	0xbd7e7055	-0.062118847
232	0x3c66206b	0.014045815
233	0x3e7d4e70	0.24736953
234	0xbe4b2d0a	-0.198414
235	0x3e928837	0.2861955
236	0x3cc1080c	0.023563407
237	0xbe8c059a	-0.27348024
238	0x3c3e06a6	0.011598265
239	0xbd85627d	-0.06512926
240	0xbe6b3f03	-0.22973256
241	0xbe667722	-0.22506383
242	0x3d9cd1b1	0.07657183
243	0x3e06a734	0.1314972
244	0x3e8146bf	0.25249287
245	0xbde029e8	-0.10945493
246	0xbe2bcd15	-0.16777451
247	0x3e8c181b	0.2736214
248	0xbd3f6103	-0.046723377
249	0xbe337f35	-0.17528994
250	0x3de2c851	0.110733636
251	0xbe382f95	-0.17986901
252	0xbe4b4224	-0.1984945
253	0x3e9afcca	0.30270988
254	0x3e63c9bf	0.22244929
255	0xbdcf5120	-0.10122895

l2.weight f4 [256, 256]
0	0x3e0a083c	0.13479704
1	0xbd6c24c0	-0.057652235
2	0x3e26fef7	0.16308199
3	0xbc51f900	-0.012815714
4	0x3ddcfda8	0.107905686
5	0x3e215d03	0.15758137
6	0x3d7fd464	0.06245841
7	0xbe0c2f5a	-0.13689938
8	0xbc8c133f	-0.017099021
9	0x3d95fc8f	0.07323562
10	0xbbdae21e	-0.0066797873
11	0xbee2f0b4	-0.44324267
12	0xbdeccd9d	-0.11562655
13	0xbe7267a9	-0.23672356
14	0xbc7f1c5f	-0.015570729
15	0xbdacce82	-0.08437826
16	0xbc68eec4	-0.014217082
17	0xbea339ec	-0.31880128
18	0xbe3ecdf2	-0.1863325
19	0xbde07943	-0.10960629
20	0xbe0f77f1	-0.14010598
21	0xbe9f9021	-0.3116465
22	0x3ca092cc	0.019601248
23	0xbe954204	-0.29151928
24	0x3e22c950	0.15897107
25	0xbe2a6f51	-0.16644026
26	0x3de2e1d4	0.110782295
27	0xbe3cae04	-0.18425757
28	0x3d7d00d3	0.061768364
29	0xbda3714d	-0.07980595
30	0xbdff17d3	-0.12455716
31	0x3cefe321	0.029283108
32	0x3d5ed915	0.054406244
33	0x3cfceabc	0.030873649
34	0xbd9e1a8e	-0.07719909
35	0x3e9a838a	0.3017848
36	0x3e2c1772	0.16805819
37	0xbea9674d	-0.33086625
38	0xbcfb7a58	-0.030697986
39	0x3dfd2a58	0.12361592
40	0x3dd4a029	0.103821106
41	0x3e7f96b1	0.24959828
42	0xbee92d30	-0.45542288
43	0x3d795933	0.060876083
44	0xbe2c566c	-0.16829842
45	0xbd2c67b1	-0.042091075
46	0x3e151692	0.14559391
47	0xbecb0e30	-0.39659262
48	0x3e92d886	0.2868082
49	0xbe14c119	-0.14526786
50	0xbd39945c	-0.045307502
51	0xbe0f5fb6	-0.14001355
52	0xbda1a7b7	-0.07893317
53	0xbf42b3ef	-0.76055807
54	0xbe883f32	-0.26610714
55	0x3d34b6d6	0.04411968
56	0xbcb05989	-0.021527069
57	0x3dd61c45	0.10454611
58	0xbcb5a8da	-0.022175241
59	0xbd82cf78	-0.06387228
60	0x3d8a4adf	0.06752562
61	0xbd332870	-0.043739736
62	0xbea75a5d	-0.3268613
63	0x3e1db32f	0.15400384
64	0x3d8f30d1	0.06991733
65	0x3dda5fe3	0.1066282
66	0xbe404f04	-0.18780142
67	0xbefd717b	-0.4950064
68	0xbe209ea1	-0.15685512
69	0xbea89f3d	-0.3293399
70	0x3d39a103	0.04531957
71	0x3dcdad7d	0.10042856
72	0xbd5c4881	-0.053780083
73	0x3f023183	0.508568
74	0xbd394ca3	-0.045239102
75	0x3da4da6d	0.08049474
76	0x3e2e42d8	0.17017686
77	0x3d2de384	0.042453304
78	0x3ce88340	0.028382897
79	0x3e187012	0.14886501
80	0xbee61150	-0.44935083
81	0x3f2838d2	0.657117
82	0xbd30ed96	-0.04319533
83	0xbea0f2b8	-0.3143518
84	0x3d1f2a58	0.03885874
85	0xbe91c5b6	-0.28471154
86	0xbd80da21	-0.06291605
87	0x3dad4014	0.084594876
88	0x3c86e4a1	0.01646644
89	0xbeff810b	-0.4990314
90	0x3e0dfb26	0.13865337
91	0x3d7edbc5	0.062221307
92	0x3e342af7	0.17594515
93	0xbe21879d	-0.15774389
94	0xbe753d1e	-0.23949096
95	0x3e1d3518	0.15352285
96	0x3dd01d57	0.10161846
97	0x3e2e58ea	0.17026106
98	0xbd8fc7bd	-0.07020519
99	0x3d8da1ff	0.06915664
100	0xbd89dfac	-0.06732115
101	0x3f05349c	0.520334
102	0xc028b223	-2.6358726
103	0xbe6c8f25	-0.2310148
104	0x3d252ecd	0.040327836
105	0xbf36d4cf	-0.7141847
106	0x3ee599f4	0.4484402
107	0xbdc2f83b	-0.095200025
108	0x3c2a576b	0.010396819
109	0xbe0660d0	-0.13122869
110	0x3e0532eb	0.13007705
111	0x3e09bb51	0.13450362
112	0x3d7d503a	0.061844088
113	0xbd5ba799	-0.05362663
114	0x3e1c91ed	0.15290041
115	0xbe3e7d0b	-0.18602388
116	0xbc8485c0	-0.016177058
117	0xbd2ef13b	-0.042710524
118	0xbe108cef	-0.14116262
119	0xbdbb8f51	-0.09158195
120	0x3d999f98	0.07501143
121	0xbf23fdc0	-0.64059067
122	0xbcff5755	-0.031169573
123	0x3cd37eff	0.025817392
124	0x3e6fde46	0.23424634
125	0x3d257ccd	0.040402222
126	0xbdcc6a4e	-0.099812135
127	0x3d941fed	0.07232652
128	0x3d536e80	0.051619053
129	0x3b9fcf32	0.0048769945
130	0x3b874721	0.0041283523
131	0x3e7d4d24	0.24736458
132	0x3e9b4c45	0.30331627
133	0x3d976c44	0.07393697
134	0x3e3f29d0	0.18668294
135	0x3d4088ea	0.04700557
136	0x3e2058b3	0.15658836
137	0x3d55bd77	0.05218264
138	0x3db8dc4b	0.090263925
139	0xbe8a5f88	-0.2702601
140	0x3e97731e	0.29580015
141	0x3dd0801b	0.10180684
142	0xbdf10d23	-0.11770084
143	0xbc02f98e	-0.007994069
144	0x3c4365c6	0.01192612
145	0xbdaeef31	-0.08541716
146	0xbf2fdd6c	-0.6869724
147	0xbec0ad6f	-0.3763232
148	0x3dc2088e	0.09474288
149	0xbe52dd42	-0.20592216
150	0x3dd3d990	0.10344231
151	0x3e039a99	0.12851943
152	0x3e63bbad	0.22239561
153	0x3d82f014	0.063934475
154	0x3e5eb428	0.21748412
155	0x3ddc8775	0.10768024
156	0x3d81f045	0.06344656
157	0x3d435b1a	0.047694303
158	0x3e9911f5	0.29896513
159	0x3f7ac544	0.97957253
160	0x3e6429c3	0.22281556
161	0x3d1439a3	0.03618778
162	0x3d68c2da	0.05682645
163	0x3e84841e	0.25882047
164	0x3d501f3d	0.05081104
165	0x3d8fabb2	0.0701517
166	0xbd71060d	-0.05884366
167	0x3bc3a785	0.0059708976
168	0xbdd2d839	-0.102951474
169	0x3e13da09	0.14438643
170	0x3c565607	0.013082034
171	0x3e77a8d5	0.24185498
172	0x3df87a9b	0.1213276
173	0x3d733195	0.059373457
174	0xbe6fbdac	-0.23412198
175	0x3db72a18	0.089435756
176	0xbee29ade	-0.4425878
177	0x3ce5084c	0.027958058
178	0x3e23672b	0.15957324
179	0x3e8e0245	0.27736107
180	0xbe4cf4a9	-0.20015205
181	0xbd92cd18	-0.07168025
182	0xbd7fa0f9	-0.062409375
183	0x3e0de5fb	0.13857262
184	0x3e4babcb	0.19889753
185	0xbdaf874a	-0.08570726
186	0x3e851c5f	0.25998208
187	0xbd346213	-0.044038843
188	0xbde847da	-0.113418296
189	0xbc995030	-0.018714994
190	0xbe59f23f	-0.21283816
191	0x3e1b6f1e	0.15179107
192	0x3c89570e	0.016765144
193	0x3e14e615	0.14540894
194	0xbe204e0e	-0.15654776
195	0x3e6fbc1b	0.234116
196	0xbcab06a5	-0.020877192
197	0x3ef308a2	0.47467524
198	0xbf2cedea	-0.6755053
199	0xbebe16a4	-0.37126648
200	0x3e5f71da	0.21820775
201	0x3e9e619c	0.30933845
202	0xbcbab21e	-0.022790011
203	0x3d0c2025	0.034210343
204	0x3d3d711f	0.04625046
205	0xbe97906d	-0.29602376
206	0x3d5acd21	0.053418282
207	0xbbb067c0	-0.0053834617
208	0xbf5bdd3c	-0.8588445
209	0xbe67d5e6	-0.2264019
210	0x3f280c2b	0.65643567
211	0x3dadd375	0.08487598
212	0x3d94d444	0.07267049
213	0x3db1d9b8	0.08684105
214	0x3e404403	0.18775944
215	0xbd062d54	-0.032758072
216	0xbf901eca	-1.1259396
217	0xbbf2534e	-0.0073951846
218	0x3d2894bd	0.041157473
219	0xbdbdd06a	-0.092682675
220	0x3d985c04	0.074394256
221	0xbba3043d	-0.0049748705
222	0xbf1cd528	-0.6126275
223	0x3e10f979	0.14157666
224	0x3dd75a70	0.105152965
225	0xb96b037d	-0.00022412646
226	0xbd2bac35	-0.041912276
227	0x3bc091da	0.005876762
228	0x3d2a02b2	0.041506477
229	0xbe6aba8c	-0.22922724
230	0x3e850c01	0.2598572
231	0x3e46c0ff	0.1940956
232	0xbcf3b832	-0.029750917
233	0x3e82ac42	0.25522047
234	0x3eb295d9	0.3487995
235	0x3e240926	0.16019115
236	0x3d3a98b4	0.045555785
237	0xbc653fd6	-0.01399227
238	0xbf55f0c0	-0.8357048
239	0xbf579b5f	-0.8422145
240	0xbcaf2b42	-0.021382932
241	0xbbf59080	-0.0074940324
242	0xbe1398b4	-0.1441372
243	0xbc52cdf8	-0.01286649
244	0x3d693013	0.056930613
245	0xba12e7bb	-0.00056039885
246	0xbb57d86b	-0.0032935392
247	0xba2660a0	-0.00063467957
248	0xbe4b9c1e	-0.19883773
249	0xbe559a62	-0.20859674
250	0xbe267efd	-0.1625938
251	0xbd1c76b0	-0.038199127
252	0xbf11ddab	-0.56978863
253	0xbd8c11c5	-0.06839327
254	0x3de937ae	0.11387573
255	0x3e3e48f2	0.18582514

l2.bias f4 [256]
0	0x3e740287	0.23829089
1	0x3e59d16b	0.21271293
2	0x3e7b76dc	0.2455706
3	0x3e137c98	0.14402997
4	0xbe978357	-0.29592392
5	0x3e89bd99	0.26902464
6	0xbd6fd4f4	-0.058552697
7	0x3e9b2d9d	0.30308238
8	0x3e8eb1ec	0.2787012
9	0x3e7160c3	0.23572068
10	0xbe35b433	-0.17744522
11	0x3e7d96ec	0.24764603
12	0x3e9917b2	0.2990089
13	0x3ddfc676	0.10926525
14	0x3e6c0be6	0.23051414
15	0x3e96f8af	0.29486606
16	0x3e9a3cb0	0.30124426
17	0x3e1686ce	0.14699861
18	0xbde54593	-0.11194911
19	0x3e7803fd	0.24220271
20	0x3e67e852	0.22647217
21	0x3e7f5684	0.24935347
22	0x3e4f46c4	0.20241839
23	0x3d09ae1d	0.033613313
24	0xbe71be0c	-0.23607653
25	0x3e482bea	0.19548002
26	0x3e51a920	0.20474672
27	0xbe438540	-0.190938
28	0x3cdf7cda	0.027281214
29	0x3cc386bc	0.023867957
30	0x3e30d4b0	0.17268634
31	0x3d92de2a	0.07171281
32	0xbe5984b0	-0.21242023
33	0x3e24c876	0.16092095
34	0x3e51e45f	0.20497273
35	0xbcd0e90f	-0.025501756
36	0xbe0920db	-0.1339144
37	0xbde1ffd9	-0.11035127
38	0xbe1338f6	-0.14377198
39	0x3e41fe3a	0.18944636
40	0x3e5f3a6f	0.21799634
41	0xbe0e8fc9	-0.13922037
42	0x3e8a82b0	0.27052832
43	0xbe3f6cb0	-0.18693805
44	0x3e656d38	0.22404945
45	0xbde2c4d8	-0.11072701
46	0x3e9155c3	0.28385743
47	0xbe1f9e15	-0.15587647
48	0x3e0a9755	0.13534291
49	0x3e2104cc	0.15724486
50	0xbdb64f0f	-0.08901798
51	0x3e9cd8f3	0.3063427
52	0xbe0ee3dc	-0.13954109
53	0xbde1e523	-0.110300325
54	0x3d88df9e	0.066832766
55	0xbde28f3e	-0.110624775
56	0xbe18b5f6	-0.14913163
57	0xbe64d3f5	-0.2234648
58	0x3e395a1b	0.18100779
59	0x3e63a2e4	0.22230107
60	0xbe499373	-0.19685154
61	0xbe1bd3bd	-0.1521749
62	0xbe212cb7	-0.15739714
63	0x3e67da14	0.22641784
64	0xbe384c22	-0.17997792
65	0xbe2633b9	-0.16230668
66	0x3e816ab5	0.25276724
67	0x3e0ede87	0.13952075
68	0xbd41df2b	-0.04733197
69	0xbdaa2213	-0.083072804
70	0x3b3108d1	0.0027013312
71	0x3e40daa0	0.18833399
72	0x3e568d0f	0.20952247
73	0x3e812f69	0.25231484
74	0xbdb23d1b	-0.08703061
75	0x3e3cd6c3	0.184413
76	0xbd8f0fc2	-0.069854274
77	0x3dd8e3f1	0.105903514
78	0x3e162c21	0.14665271
79	0x3e420d1f	0.18950318
80	0x3e8b7afb	0.27242264
81	0xbcd6eca8	-0.026235893
82	0x3e8471e1	0.25868133
83	0x3e41a7e6	0.18911704
84	0x3e6da47a	0.23207274
85	0x3e5b3032	0.21405104
86	0x3e0c6516	0.13710436
87	0x3c92c5ae	0.017916527
88	0xbcca9e52	-0.024733696
89	0x3e4ab08e	0.19793913
90	0xbdf9a1d9	-0.12189073
91	0x3e066dcb	0.1312782
92	0x3e66ff3b	0.225583
93	0x3e23bb3a	0.1598939
94	0x3e5063d8	0.20350587
95	0x3dd36c7a	0.10323425
96	0xbda0359d	-0.07822726
97	0x3e97bd5b	0.29636654
98	0xbdd008c3	-0.10157921
99	0x3e1b1d9f	0.15148018
100	0x3a9ba14a	0.0011873629
101	0xbd901c30	-0.07036626
102	0xbde11ec1	-0.10992194
103	0xbe20b9b2	-0.15695837
104	0x3e92a06f	0.28638026
105	0xbea69886	-0.3253824
106	0xbdc41086	-0.09573464
107	0x3e2539fc	0.161354
108	0x3e678c23	0.22612052
109	0x3d1585cd	0.036504555
110	0x3e500132	0.20312956
111	0xbdc0db36	-0.09416811
112	0x3e298d35	0.16557772
113	0xbe3b8cc7	-0.18315421
114	0x3e866e19	0.26255873
115	0x3e8cbeea	0.27489406
116	0x3e41dc96	0.18931803
117	0x3e110e34	0.14165574
118	0xbe035b82	-0.12827876
119	0xbd835808	-0.06413275
120	0x3e39cca6	0.18144473
121	0xbe66ef2e	-0.22552177
122	0xbaf96e43	-0.0019030053
123	0xbdae5776	-0.085127756
124	0xbd923a0e	-0.07139979
125	0x3e096e5d	0.13421007
126	0xbe0a1273	-0.134836
127	0x3e941cda	0.28928262
128	0xbe41836e	-0.18897793
129	0xbe5ca4f9	-0.21547307
130	0x3e4d698f	0.20059799
131	0x3e6a2acc	0.22867888
132	0x3e39191d	0.18075986
133	0x3dd8e7b2	0.105910674
134	0x3e6f549a	0.23372117
135	0xbd8db06e	-0.06918417
136	0xbe3a7f9e	-0.18212745
137	0xbe256279	-0.16150846
138	0x3d5b300f	0.05351263
139	0xbe10b315	-0.14130814
140	0x3e65e552	0.2245076
141	0x3e9569cd	0.29182282
142	0xbdfa20a4	-0.12213257
143	0x3e72720d	0.2367632
144	0xbe1a6fd4	-0.15081722
145	0x3e77731c	0.24165004
146	0x3e48bb2a	0.19602647
147	0x3e5d8948	0.216344
148	0x3e8a5058	0.27014422
149	0xbe91b05a	-0.28454858
150	0x3dcc3d22	0.09972598
151	0x3e826559	0.25467947
152	0xbddb9c24	-0.10723141
153	0xbde538f7	-0.11192506
154	0x3e401621	0.18758442
155	0x3e9d7436	0.30752724
156	0xbe474aaa	-0.19462076
157	0xbe43320a	-0.19062057
158	0xbd8f0241	-0.06982852
159	0x3e2654c8	0.16243279
160	0xbded054f	-0.11573278
161	0xbe058a97	-0.13041149
162	0x3e535692	0.20638493
163	0x3e8674cf	0.26260993
164	0x3e894e3d	0.26817504
165	0xbe868866	-0.2627594
166	0xbe67f472	-0.22651842
167	0xbdf5e0cf	-0.120057695
168	0x3e85bc57	0.26120254
169	0x3e4240ab	0.18969981
170	0xbe27d864	-0.1639114
171	0x3e8f1210	0.27943468
172	0x3d970e60	0.07375789
173	0xbdc35189	-0.09537036
174	0xbe77d3d1	-0.24201895
175	0xbd898492	-0.06714739
176	0x3e8c7098	0.27429652
177	0xbe2afc6e	-0.16697857
178	0x3e2c109a	0.16803208
179	0xbe2f36ab	-0.17110698
180	0xbd98e0e2	-0.07464768
181	0xbe3035a8	-0.17207968
182	0x3e684098	0.2268089
183	0x3e52b945	0.20578487
184	0xbeabb04f	-0.3353295
185	0x3e1eb16c	0.15497369
186	0x3e264ffe	0.16241452
187	0x3e611b1b	0.21982996
188	0x3e42e7d8	0.19033754
189	0x3e3a2585	0.18178375
190	0xbd98e92a	-0.074663475
191	0xbdaf77da	-0.08567782
192	0x3e8914e9	0.26773766
193	0x3e1e880a	0.15481582
194	0x3e9254b6	0.28580254
195	0x3e502278	0.20325649
196	0x3e5aebd5	0.21379025
197	0xbe83051d	-0.2558984
198	0xbe11316c	-0.14179009
199	0xbe1a41b8	-0.15064132
200	0xbe8176b5	-0.2528588
201	0xbd6674e7	-0.05626383
202	0x3e6b28f9	0.22964849
203	0x3e858964	0.26081383
204	0x3e7e4916	0.24832568
205	0x3e51bfd9	0.2048334
206	0xbdb5e659	-0.08881826
207	0xbdc9288e	-0.09822188
208	0x3ccab991	0.024746688
209	0x3e901436	0.2814042
210	0x3e926001	0.2858887
211	0x3e9a58ed	0.3014597
212	0xbe22aaeb	-0.15885513
213	0x3e908ad9	0.28230932
214	0xbdef77f2	-0.116928
215	0xbe6c963e	-0.23104188
216	0x3df917ff	0.1216278
217	0xbe470d23	-0.19438605
218	0xbde05643	-0.10953953
219	0x3e71a69a	0.2359871
220	0x3e9cbf83	0.30614862
221	0x3e48dbca	0.19615093
222	0x3e8af4df	0.27139947
223	0x3e602b8b	0.2189161
224	0xbe06891c	-0.1313824
225	0xbe62c9e9	-0.22147335
226	0xbe89926f	-0.26869532
227	0x3e8f75e5	0.28019634
228	0xbe43ea80	-0.19132423
229	0x3e6dad9b	0.23210756
230	0xbe3c38c0	-0.18381023
231	0xbe2f6c69	-0.17131199
232	0xbe118a47	-0.14212905
233	0xbd9b060b	-0.07569512
234	0x3e597f69	0.2124001
235	0x3e417b21	0.18894626
236	0xbc231c13	-0.009955424
237	0x3e41cac8	0.18925011
238	0xbda727f5	-0.08161918
239	0x3e823472	0.25430638
240	0x3ea6d4a4	0.32584107
241	0xbc4ff627	-0.012692965
242	0x3e6dd57e	0.23225972
243	0xbe320739	-0.17385568
244	0x3e8d67f5	0.27618375
245	0x3e9d10fb	0.30677018
246	0x3e77f425	0.24214227
247	0xbd41d821	-0.047325257
248	0xbe6808b3	-0.22659568
249	0x3e8a9d4b	0.2707313
250	0x3dc4c325	0.09607533
251	0xbd3f3f6a	-0.046691336
252	0x3e3bcdab	0.18340175
253	0xbe3283e6	-0.17433128
254	0xbe2bace3	-0.1676517
255	0xbdfa1829	-0.122116394

l3.weight f4 [1, 256]
0	0x3ead0997	0.3379638
1	0x3ec849b1	0.39118722
2	0x3e5074ac	0.20357007
3	0x3f19046f	0.5977239
4	0xbfea6975	-1.8313433
5	0x3e77165e	0.24129626
6	0xbf37c0d9	-0.7177864
7	0x3e774424	0.24147087
8	0x3e627d2b	0.2211806
9	0x3e5c1a93	0.21494512
10	0xbf17a4bf	-0.5923576
11	0x3e749e7f	0.23888586
12	0x3e48d2af	0.1961162
13	0xc02752be	-2.6144252
14	0x3f1b4972	0.60658944
15	0x3e546e10	0.2074511
16	0x3ea92ebe	0.33043474
17	0x3fff819a	1.9961426
18	0xbf6218a3	-0.8831884
19	0x3e802592	0.25028664
20	0x3e9dba68	0.3080628
21	0x3effeaf3	0.4998394
22	0x3eda5774	0.42644846
23	0x3b195776	0.0023398078
24	0xbfe4b20a	-1.7866833
25	0x3e4f250e	0.20228979
26	0x3e664da4	0.22490555
27	0xbfd7f7e1	-1.6872522
28	0xbfd11ff4	-1.6337876
29	0xbfe65f83	-1.7997898
30	0x3eb4e2e2	0.35329348
31	0x402756b0	2.614666
32	0xbfb7a6d5	-1.4347788
33	0x3f0d0f5b	0.55101556
34	0x3ee1760c	0.44035375
35	0x40220eeb	2.5321605
36	0xbfbb4d91	-1.4633046
37	0xbf7434d3	-0.95393103
38	0xbfcfda9a	-1.6238587
39	0x3f8055c0	1.0026169
40	0x3e9d33ef	0.30703685
41	0xc02249ab	-2.5357463
42	0x3f03cac6	0.5148128
43	0xbfa73463	-1.3062862
44	0x3f125bc0	0.5717125
45	0xbfaa13a0	-1.3287239
46	0x3e72da60	0.23716116
47	0xbf474d24	-0.7785208
48	0x4015e03c	2.3418112
49	0x3e6bc3e1	0.2302394
50	0xbf469c43	-0.77582186
51	0x3e4ad527	0.19807874
52	0xbf4098dc	-0.75233245
53	0xbf26ee03	-0.6520693
54	0xbfcbf277	-1.5933369
55	0xbf53f786	-0.82799566
56	0xbfbebfda	-1.4902298
57	0xc02c6fc5	-2.6943219
58	0x3e82da04	0.25556958
59	0x3e9bf648	0.30461335
60	0xbfd8d7c0	-1.6940842
61	0xbf828784	-1.0197606
62	0xbfa10c32	-1.2581847
63	0x3e589b8b	0.21153085
64	0xc00802fe	-2.1251826
65	0xbfaf844f	-1.3712252
66	0x3e46ed87	0.19426547
67	0xc00fe99a	-2.248633
68	0xbecbe89d	-0.39825907
69	0xbf91ef3d	-1.1401135
70	0xbfd766ea	-1.6828282
71	0x3ed68b9a	0.41903383
72	0x3f3df4bf	0.7420158
73	0x3edc112c	0.4298185
74	0xbf71acef	-0.944045
75	0x3f62354f	0.8836259
76	0xbf4f7a1f	-0.81045717
77	0x3f62c101	0.8857575
78	0xc00a6e2b	-2.162974
79	0x3ee3a396	0.44460744
80	0x3f447f76	0.7675699
81	0xc02a7aba	-2.6637406
82	0x3f0fa155	0.5610555
83	0x3e1e5734	0.15462953
84	0x3efa70ef	0.48914286
85	0x3efe493e	0.49665254
86	0xbf9ae7c2	-1.2101977
87	0xbfc91c57	-1.5711774
88	0xbf2651ec	-0.6496875
89	0x3e3957bc	0.18099874
90	0xbf0eef7b	-0.5583417
91	0x3e7c26a4	0.24624115
92	0x3e6c5374	0.2307871
93	0x3e976cc3	0.29575166
94	0x3f1f5606	0.62240636
95	0x3f50e810	0.816041
96	0xbfa2fa45	-1.2732626
97	0x3e64698d	0.2230589
98	0xbfd3cebf	-1.6547469
99	0x3e101848	0.14071763
100	0xbee50778	-0.4473226
101	0xbec26be0	-0.37972927
102	0xbf7d6abf	-0.98991007
103	0xbf10f4aa	-0.5662333
104	0x3e6f59ab	0.2337405
105	0xc00c6cdf	-2.194145
106	0xbfc97eb6	-1.5741794
107	0x3f19c368	0.6006379
108	0x3e760fce	0.24029467
109	0xbfdbcaef	-1.7171305
110	0x3e6fc361	0.23414375
111	0xbf17d395	-0.59307224
112	0x3f15e540	0.5855293
113	0xbf89f545	-1.0777975
114	0x3f065652	0.52475464
115	0x3e5dbc3e	0.2165384
116	0x3e2ba63c	0.16762632
117	0x400c4d70	2.1922264
118	0xbfe387cc	-1.7775817
119	0xbf218556	-0.6309408
120	0x3e8d9969	0.27656105
121	0xbf659830	-0.89685345
122	0x402c2fd4	2.6904192
123	0xbfb97d06	-1.4491279
124	0xbf2f72d7	-0.68534607
125	0x3eee6186	0.4655878
126	0xbf967392	-1.1754019
127	0x3f13221b	0.57473916
128	0xbf4784c4	-0.7793696
129	0xc002eadd	-2.045585
130	0x3ea72c54	0.32651007
131	0x3f098cf9	0.5373073
132	0x3f0c3e53	0.547826
133	0xbfdf0755	-1.7424113
134	0x3ef7a2a7	0.4836628
135	0x3ffa2fce	1.9545839
136	0xbf517142	-0.8181344
137	0xc02d7d28	-2.710764
138	0xbfd2460b	-1.6427625
139	0xbee6f789	-0.4511073
140	0x3ece5e22	0.40306193
141	0x3e809edc	0.251212
142	0xbfc46d0a	-1.5345776
143	0x3ee52e48	0.44761872
144	0xbf867fca	-1.0507748
145	0x3f2ceceb	0.6754901
146	0x3e8364a6	0.25662726
147	0x3f23753c	0.6385076
148	0x3e42ae17	0.19011723
149	0xc01091eb	-2.2589061
150	0x3f5ed267	0.870398
151	0x3e505f57	0.2034887
152	0xbfa2a6be	-1.2707136
153	0xbfe36e2a	-1.7767994
154	0x3ed532c1	0.41640285
155	0x3e6e2b7b	0.23258774
156	0xbf653b44	-0.8954356
157	0xbf890a7e	-1.0706327
158	0xbfbf86bb	-1.4962991
159	0x3f586de1	0.8454266
160	0xbf6dbba5	-0.9286445
161	0xbf87e161	-1.0615655
162	0x3f47e2f9	0.7808071
163	0x3e2eb893	0.17062597
164	0x3eebe76d	0.46075
165	0xbf653130	-0.8952818
166	0xbf60aa4b	-0.87759846
167	0xbf297154	-0.6618855
168	0x3e5c8ec2	0.21538833
169	0x3e615da1	0.22008373
170	0xbf438732	-0.76378167
171	0x3e559d84	0.20860869
172	0xc0296318	-2.6466732
173	0xbf410da9	-0.7541147
174	0xbfde6abf	-1.7376326
175	0x3ff30bd3	1.8987983
176	0x3f16881e	0.5880145
177	0xbfbe526d	-1.4868904
178	0x3f20102b	0.6252467
179	0xbf100167	-0.5625214
180	0xbf266621	-0.64999586
181	0xbf36e49d	-0.71442586
182	0x3f20cacb	0.6280944
183	0x3e4d9657	0.20076881
184	0xbffa68a3	-1.9563183
185	0x3ee55450	0.44790888
186	0x3f7c58ca	0.9857298
187	0x3e802ba0	0.25033283
188	0x3e7e50e1	0.2483554
189	0x3e8fbcf1	0.28073838
190	0xbfa19be5	-1.26257
191	0xbf73a255	-0.95169574
192	0x3e905efe	0.28197473
193	0x3f135387	0.5754933
194	0x3eea30c5	0.45740333
195	0x3e9773e6	0.2958061
196	0x3e54d10d	0.20782872
197	0xbf8581f8	-1.0430288
198	0xbfd117c8	-1.6335382
199	0xbf8f69c8	-1.1204157
200	0xc0664743	-3.5980995
201	0xbf3d037e	-0.73833454
202	0x3edb7d9a	0.42869264
203	0x3e649d0c	0.22325534
204	0x3eb20190	0.34766817
205	0x3e669488	0.22517598
206	0xbf362623	-0.7115194
207	0xbf409d48	-0.7523999
208	0x40275a24	2.6148767
209	0x3ec49d36	0.38401192
210	0x3e6d8785	0.23196228
211	0x3e4fc947	0.20291625
212	0xbfd78a31	-1.6839048
213	0xc012b6a1	-2.2923968
214	0xbfaf0c76	-1.3675678
215	0xbf6b94cb	-0.92023915
216	0x3e804beb	0.2505792
217	0xbf48febf	-0.7851371
218	0xbfbc7e6e	-1.4726083
219	0x3ebfbfb7	0.37450954
220	0x3f37fb48	0.718678
221	0x3e558f8e	0.20855543
222	0x3e78adbe	0.24285027
223	0x3e950550	0.29105616
224	0xbec8b0d1	-0.391974
225	0xbfd804da	-1.687648
226	0xc00c3b8f	-2.1911352
227	0x3e538e9c	0.2065987
228	0xbf3c229e	-0.7349032
229	0x3f025c70	0.509223
230	0xbf9043a2	-1.127064
231	0xbfa3dc74	-1.2801652
232	0xbfe9f381	-1.8277436
233	0xbef25086	-0.4732706
234	0x3eae1d66	0.34006804
235	0x3f146efe	0.5798186
236	0x3b9a96be	0.004717677
237	0x3e178ca8	0.1479975
238	0xc0018912	-2.023991
239	0x3e79df32	0.24401549
240	0x3e6a54b6	0.22883877
241	0xc000d08e	-2.0127292
242	0x3e525430	0.20539927
243	0xbf7bb847	-0.9832806
244	0x3e59fb2a	0.21287218
245	0x3e811fe0	0.2521963
246	0x3e495792	0.19662312
247	0xc03a6439	-2.912367
248	0xbfa44da9	-1.28362
249	0x3f5dfe58	0.8671622
250	0x3ec5d719	0.3864067
251	0xbff67fae	-1.9257715
252	0x3e31ad48	0.17351258
253	0xc00b9ee2	-2.1815724
254	0xbfb36f45	-1.4018332
255	0xbfa09ada	-1.2547257

l4.weight f4 [256, 32]
0	0xbe57ef4e	-0.21087381
1	0x3e343518	0.17598379
2	0x3e06d9d2	0.1316903
3	0x3d8217f4	0.06352225
4	0x3dd2bd5a	0.10290022
5	0x3e57e176	0.210821
6	0xbf1bbd76	-0.6083597
7	0xbe621a88	-0.22080433
8	0x3cc48568	0.023989394
9	0xbd31234d	-0.043246556
10	0x3d3167e0	0.043311954
11	0x3d62e999	0.055398557
12	0x3db71e36	0.08941309
13	0x3e474d51	0.19463088
14	0x3d349948	0.044091493
15	0x3edc0f58	0.42980456
16	0xbc8e5684	-0.017375238
17	0x3edcabc6	0.43099803
18	0xbe3c422e	-0.1838462
19	0xbd90a902	-0.07063486
20	0x3c7c7dad	0.015410823
21	0xbe634746	-0.22195157
22	0x3eaffab9	0.34370974
23	0x3d3b8d44	0.04578902
24	0x3ea44187	0.32081243
25	0x3d11fdc6	0.035642408
26	0x3c16ae32	0.009196805
27	0x3dcd7a88	0.100331366
28	0xbe570ff8	-0.21002185
29	0x3ed47e04	0.41502392
30	0xbe38a3dd	-0.18031259
31	0xbe74406f	-0.23852704
32	0x3ee5f27f	0.44911572
33	0x3d097092	0.03355462
34	0x3e4eb0f5	0.20184691
35	0xbf29b209	-0.66287285
36	0x3d9f0a04	0.07765582
37	0x3f289f9f	0.6586856
38	0x3e93a143	0.2883397
39	0xbede1107	-0.43372366
40	0xbd1f3f8b	-0.03887896
41	0x3ee66330	0.4499755
42	0xbe672e37	-0.22576223
43	0xbebe4aa3	-0.37166318
44	0xbecf8ac4	-0.40535557
45	0xbed9576e	-0.42449516
46	0x3e4dda9c	0.20102924
47	0x3e0903d4	0.13380367
48	0xbebbba2a	-0.3666547
49	0xbd8eeddd	-0.069789626
50	0xbeb7eb85	-0.35921875
51	0xbd44f9f0	-0.04808992
52	0x3e01fedb	0.12694876
53	0x3d8a1e83	0.06744101
54	0xbf336c0f	-0.7008676
55	0xbdde7320	-0.10861802
56	0x3e632672	0.22182634
57	0xbec1f43c	-0.3788165
58	0x3d86fa30	0.06590688
59	0xbdd01f11	-0.101621754
60	0x3da7d8a2	0.08195616
61	0x3eddff4c	0.4335884
62	0xbe613f27	-0.21996747
63	0x3bb6ed62	0.0055824975
64	0x3e4afb05	0.19822319
65	0xbc82ec27	-0.015981747
66	0x3e59433a	0.21217051
67	0x3d9fcb7c	0.078024834
68	0x3e0453d7	0.12922607
69	0x3ebc503b	0.3677996
70	0xbe29050c	-0.16505831
71	0x3ea859ae	0.3288092
72	0x3e3a8384	0.18214232
73	0xbe1951d9	-0.14972629
74	0xbf17ca0f	-0.5929269
75	0xbc3cdf53	-0.011527854
76	0xbec10412	-0.37698418
77	0x3e52a2f0	0.20569968
78	0xbe159050	-0.14605832
79	0x3e9aed1d	0.30259028
80	0xbe8513c7	-0.2599165
81	0x3d6f93fc	0.05849074
82	0xbeaf1470	-0.3419528
83	0x3ddf1edc	0.10894558
84	0xbd0a9b57	-0.03383955
85	0xbe160471	-0.14650132
86	0xbe97c9ce	-0.29646152
87	0xbe1dd1f1	-0.15412118
88	0x3e31054e	0.1728718
89	0x3e0e1cf4	0.13878232
90	0xbdee4564	-0.11634329
91	0xbe98f1eb	-0.2987207
92	0x3e648dc1	0.223197
93	0xbca0c4be	-0.019625064
94	0x3d227945	0.039666433
95	0xbdc30c71	-0.095238574
96	0xbe23cf47	-0.15997039
97	0x3d372b14	0.044718817
98	0x3e251e00	0.16124725
99	0xbdac0831	-0.084
100	0x3e322190	0.17395616
101	0xbf3903e5	-0.7227157
102	0x3e7461ab	0.23865382
103	0x3f1221d8	0.5708289
104	0x3ca73f94	0.020416059
105	0x3f3fc5d4	0.74911237
106	0xbcb835de	-0.022486623
107	0x3ed72272	0.42018467
108	0xbe6d93ae	-0.23200867
109	0x3dc3c82f	0.09559666
110	0x3ea3d161	0.3199568
111	0x3e3cfdc0	0.18456173
112	0xbd06a725	-0.032874245
113	0xbd36f6e5	-0.04466905
114	0xbf0f3185	-0.55934936
115	0x3d10a766	0.035315894
116	0x3cd5fa15	0.026120225
117	0xbe9a5bca	-0.30148154
118	0x3ce104b9	0.027468072
119	0xbdb3c874	-0.08778468
120	0xbe8dd9d4	-0.27705252
121	0x3eb5e94d	0.35529557
122	0x3d5f8cb9	0.054577563
123	0x3dc9273f	0.09821939
124	0x3c407301	0.011746169
125	0x3df54d02	0.11977579
126	0x3c67d6c3	0.014150324
127	0xbcc6b67e	-0.02425694
128	0xbf408248	-0.75198793
129	0x3d566595	0.05234297
130	0xbdb23a60	-0.087025404
131	0x3ebaa0fb	0.36450943
132	0xbd9f4958	-0.07777661
133	0x3db20ffa	0.086944535
134	0x3dafed02	0.085901275
135	0x3e2b774b	0.16744725
136	0x3f1e0ef5	0.6174157
137	0x3f14d494	0.5813687
138	0x3eb7e22f	0.35914752
139	0x3ef5b501	0.47989658
140	0x3ed76222	0.42067057
141	0x3de72539	0.112863965
142	0xbdc06dc2	-0.09395935
143	0xbc3e3866	-0.011610126
144	0x3dcb04cd	0.09913025
145	0xbe02f751	-0.12789656
146	0x3ea3d415	0.31997743
147	0xbd5451d8	-0.051835865
148	0x3d1f29f5	0.038858373
149	0xbc42f029	-0.011898079
150	0xbd09c9df	-0.033639785
151	0xbd82a616	-0.06379335
152	0xbf1659b2	-0.58730614
153	0x3dfc68e0	0.12324691
154	0x3a7df82e	0.0009688166
155	0x3cac9a9b	0.021069815
156	0x3d5a93df	0.053363677
157	0xbca39a73	-0.019971108
158	0xbc8f3028	-0.017479017
159	0xbb97abde	-0.0046286425
160	0xbea738b6	-0.32660455
161	0xbd7aa130	-0.061188877
162	0x3d21c948	0.039498597
163	0xbf2fe32e	-0.68706024
164	0xbd877473	-0.06614008
165	0xbf5bf9b4	-0.8592789
166	0x3e03754d	0.12837715
167	0xbdc44bd3	-0.09584775
168	0x3ddde966	0.10835533
169	0x3e9ed270	0.31019926
170	0xbe57a292	-0.2105811
171	0xbee932b7	-0.45546505
172	0x3d6cf681	0.057852272
173	0x3da7a63e	0.08186005
174	0x3dbec0c8	0.09314114
175	0x3cbdc5bc	0.023165576
176	0xbf2b4152	-0.66896546
177	0xbdad1dc5	-0.08452944
178	0xbe1a41af	-0.15064119
179	0xbe2870ad	-0.16449232
180	0x3c80e633	0.015734768
181	0xbe13d821	-0.14437915
182	0x3edf0469	0.43558052
183	0x3dcfec3d	0.10152481
184	0xbf112c41	-0.5670815
185	0xbea64841	-0.32477
186	0x3d0f3404	0.034961715
187	0xbe322117	-0.17395435
188	0xbc4bf5dc	-0.012448754
189	0x3d4ebc6d	0.050472666
190	0xbc2b70ad	-0.010463876
191	0x3de85dde	0.11346029
192	0x3e95a978	0.29230857
193	0x3dd8f26b	0.105931126
194	0x3e7b4465	0.24537809
195	0x3f6ca392	0.9243709
196	0xbe0b27c5	-0.1358939
197	0x3f32151e	0.6956347
198	0x3dafd068	0.08584672
199	0xbe873e37	-0.26414654
200	0x3e925c6c	0.28586137
201	0xbe2f53ee	-0.1712186
202	0xbdcea9a2	-0.10090949
203	0x3e6d0b0f	0.2314875
204	0x3e89d137	0.2691743
205	0xbe1ab7fe	-0.1510925
206	0xbe8ca899	-0.2747238
207	0x3d65b85b	0.05608402
208	0x3c141996	0.009039303
209	0x3e0a0221	0.13477375
210	0x3e684acf	0.22684787
211	0x3e6ca72e	0.23110649
212	0x3df676c8	0.120343745
213	0x3e203ec2	0.1564894
214	0x3e78817a	0.24268141
215	0xbd7d30e1	-0.061814193
216	0x3efbc7c0	0.49175835
217	0xbd984fb3	-0.074370764
218	0x3e52dfb4	0.20593148
219	0x3c3ed3a5	0.01164714
220	0xbc73926a	-0.014866451
221	0xbcfc016c	-0.030762397
222	0x3daf343a	0.08554883
223	0xbe536b1e	-0.2064633
224	0xbe7db1b0	-0.24774814
225	0xbdf8bfdf	-0.121459715
226	0x3ce60169	0.028076844
227	0xbe99eff1	-0.30065873
228	0x3dc471e6	0.09592037
229	0xbcae7545	-0.021296153
230	0xbde3e961	-0.11128498
231	0x3ee224d3	0.4416872
232	0xbe1717ba	-0.14755145
233	0x3c95deba	0.01829468
234	0x3edc1dee	0.42991585
235	0x3e3e72a6	0.18598422
236	0x3efee1c3	0.49781618
237	0xbc9e7252	-0.019341622
238	0xbe0eca6c	-0.13944405
239	0x3d2a9e84	0.04165508
240	0xbee51d2e	-0.44748825
241	0x3d9ee196	0.07757871
242	0x3e37112b	0.17877643
243	0x3dc7347d	0.09726808
244	0xbe203b36	-0.15647587
245	0xbef9dcbf	-0.48801228
246	0xbf127e4f	-0.5722398
247	0xbe6b2aa2	-0.22965482
248	0xbe2e6ee5	-0.1703449
249	0x3dc9a0de	0.09845136
250	0xbd9169f1	-0.07100285
251	0x3db5425b	0.08850547
252	0xbc6e6e9d	-0.014552739
253	0x3bc9badf	0.00615631
254	0x3b72839e	0.003700472
255	0xbb3b0f63	-0.0028543107

l4.bias f4 [256]
0	0x3e2d7798	0.16940153
1	0x3d88fae8	0.066884816
2	0x3e741692	0.23836735
3	0x3d52c6a5	0.051458973
4	0xbd0c7d73	-0.034299325
5	0x3e5a67a5	0.213286
6	0x3e8bb066	0.2728302
7	0xbe0699fd	-0.1314468
8	0xbe3ff7f6	-0.18746933
9	0x3e683f7a	0.22680464
10	0x3ea7fd59	0.32810476
11	0x3eabd748	0.33562684
12	0x3dc1718a	0.09445484
13	0xbe3f70b1	-0.18695332
14	0xbe2e597e	-0.17026326
15	0xbe1f1c29	-0.15538086
16	0xbe5022f9	-0.20325841
17	0x3e868177	0.2627065
18	0xbd4bee52	-0.049787827
19	0xbdb93e6e	-0.09045111
20	0x3e2a7880	0.1664753
21	0xbcb5e82c	-0.022205435
22	0x3e58c527	0.21168958
23	0xbe09cd5a	-0.13457242
24	0x3ec0c508	0.37650323
25	0x3cece69d	0.028918559
26	0x3d547e20	0.051878095
27	0xbe33e1de	-0.1756663
28	0xbc453446	-0.012036389
29	0xbe92ffe1	-0.28710845
30	0xbe4534de	-0.19258448
31	0x3e257063	0.16156153
32	0x3e4af2b3	0.19819145
33	0x3e125402	0.14289859
34	0xbe257ccf	-0.16160892
35	0x3e33a0da	0.17541829
36	0xbe0dbf32	-0.13842466
37	0x3e0d301a	0.1378788
38	0xbe763249	-0.2404262
39	0xbeaa7b16	-0.33297032
40	0xbe9b33d6	-0.30312985
41	0x3e16c048	0.14721787
42	0xbdaf9c70	-0.0857476
43	0x3e8cb911	0.27484944
44	0x3e3b107a	0.18268004
45	0xbe909335	-0.2823731
46	0xbe91134e	-0.2833504
47	0x3dd94070	0.106079936
48	0x3d3a45ae	0.045476608
49	0x3de005c5	0.109386005
50	0xbd6c390b	-0.057671588
51	0x3e340474	0.17579824
52	0xbc0a787f	-0.00845158
53	0x3dd1028c	0.10205564
54	0x3d56565d	0.052328456
55	0xbde45b0f	-0.111501805
56	0xbe0cb32e	-0.13740227
57	0x3e167791	0.14694048
58	0xbd6414ba	-0.05568383
59	0xbe093548	-0.13399231
60	0xbe6f8abb	-0.23392765
61	0x3e2abb62	0.16673043
62	0x3dae5e39	0.08514065
63	0x3d72353c	0.0591328
64	0xbeb5f6b1	-0.35539773
65	0xbe2c347f	-0.168169
66	0x3e50cbf1	0.20390297
67	0xbdfc2dd6	-0.1231343
68	0xbd90352d	-0.070413925
69	0xbc89defa	-0.016829956
70	0x3d1ae5bb	0.037816744
71	0x3d9d199a	0.07670899
72	0xbd6f75f3	-0.058462095
73	0xbe095c74	-0.13414174
74	0xbdc59a8e	-0.096486196
75	0x3e8f6147	0.28003904
76	0x3dcd5ced	0.1002749
77	0x3e731450	0.23738217
78	0x3d5f48ad	0.05451267
79	0x3c2d0dd2	0.010562377
80	0x3e09ff4c	0.13476294
81	0xbe4059a2	-0.18784192
82	0x3deb2823	0.11482265
83	0xbd90e112	-0.07074179
84	0xbe6f43f7	-0.2336577
85	0x3e34f09f	0.17669915
86	0x3c5ab70b	0.013349305
87	0x3b8f67c3	0.004376383
88	0xbed959e6	-0.424514
89	0xbe4fc310	-0.20289254
90	0x3e04b20f	0.12958549
91	0x3def6bdd	0.11690495
92	0x3c7371ac	0.014858644
93	0xbda52938	-0.080645025
94	0x3d66ecae	0.05637806
95	0xbea6551d	-0.3248681
96	0xbde53417	-0.11191576
97	0xbe223184	-0.15839201
98	0xbe66a523	-0.22523932
99	0x3e12a341	0.14320089
100	0xbd4eda4d	-0.050501157
101	0xbeb3a532	-0.35086972
102	0x3e804b8c	0.25057638
103	0x3eaac0ac	0.33350122
104	0xbe08656f	-0.13319944
105	0x3e405dd8	0.18785799
106	0x3e31afd0	0.17352223
107	0x3e473cdb	0.19456808
108	0xbe494ee8	-0.19659007
109	0x3e604f61	0.2190528
110	0x3e06149f	0.13093804
111	0xbd92aba0	-0.07161641
112	0x3e68c2c9	0.22730555
113	0x3e644bf8	0.22294605
114	0x3e0ffef3	0.14062099
115	0xbdb5a130	-0.08868635
116	0x3e1ddc02	0.15415958
117	0x3e1878f5	0.14889891
118	0x3d5693e6	0.05238714
119	0xbba2491c	-0.004952563
120	0xbe8d381d	-0.27581874
121	0xbe9fc90f	-0.31208083
122	0xbe2030be	-0.15643594
123	0xbeb9a649	-0.36259678
124	0xbd4d2391	-0.050082747
125	0x3dc6f3b3	0.09714451
126	0x3c0e4979	0.008684509
127	0x3e28ecd8	0.16496599
128	0xbe0e634c	-0.13905066
129	0xbc57b38e	-0.013165368
130	0x3cc9adae	0.02461895
131	0x3df04007	0.11730962
132	0xbe7e32e4	-0.248241
133	0x3e22796b	0.1586663
134	0xbcb2e009	-0.021835344
135	0xbd2ab44c	-0.04167585
136	0x3df1bec9	0.118039675
137	0xbd86c46e	-0.06580435
138	0x3e957457	0.29190323
139	0xbe0cc9ac	-0.13748807
140	0x3c9fbf95	0.019500533
141	0x3e3027a5	0.17202623
142	0xbea80f62	-0.32824236
143	0x3e5c6f0f	0.2152674
144	0xbe8e16d3	-0.27751788
145	0x3e19fd6d	0.1503808
146	0x3e51bbb1	0.20481755
147	0xbe8a66ce	-0.2703156
148	0xbd015668	-0.031576544
149	0xbe6716b3	-0.22567253
150	0xbe0c8731	-0.13723446
151	0x3e4bc8b2	0.19900778
152	0xbe3da1cc	-0.18518752
153	0x3e82fcf7	0.25583622
154	0xbd785576	-0.060628377
155	0x3db1b97e	0.08677958
156	0xbd66279a	-0.05619011
157	0xbdd66705	-0.10468868
158	0xbc9db5ab	-0.019251665
159	0xbe6af91a	-0.22946587
160	0x3cbef0dd	0.023308212
161	0x3d9f38a1	0.07774473
162	0xbd8eb665	-0.06968383
163	0x3d7b9ea3	0.061430585
164	0x3e1b324f	0.1515591
165	0x3e3e1188	0.18561375
166	0x3d640dc4	0.05567719
167	0xbe3d4484	-0.18483168
168	0xbdbd2944	-0.092363864
169	0x3e22f56e	0.15913936
170	0xbea8aed9	-0.32945898
171	0x3d937e6b	0.07201847
172	0xbe513a24	-0.20432335
173	0x3ce02de6	0.027365636
174	0xbe000023	-0.12500052
175	0x3dfc8e54	0.123318344
176	0x3dc11553	0.094278954
177	0xbc667016	-0.014064809
178	0xbe548a57	-0.20755897
179	0x3e992842	0.29913527
180	0x3e021f96	0.12707362
181	0x3e3c3943	0.18381219
182	0x3e187210	0.14887261
183	0x3e28c23a	0.16480342
184	0xbdd671cd	-0.104709245
185	0xbe275f60	-0.16344976
186	0xbdc26663	-0.09492185
187	0x3e03649a	0.12831345
188	0xbcbc9b7a	-0.023023356
189	0x3d6ca7b1	0.05777711
190	0xbaf96d10	-0.0019029696
191	0x3e249acc	0.16074675
192	0x3dceb118	0.10092372
193	0xbec7b00a	-0.39001495
194	0xbe31b53d	-0.17354293
195	0x3e46aaa5	0.19401033
196	0x3db326f7	0.08747666
197	0x3da2b5d9	0.07944841
198	0x3e4fc41e	0.20289657
199	0x3e5931b5	0.21210368
200	0xbcdf803f	-0.027282832
201	0x3e368c46	0.17826948
202	0xbcb7d469	-0.022440152
203	0x3d07fbb9	0.033199046
204	0xbe8423ef	-0.25808665
205	0xbc71ff4c	-0.01477034
206	0xbe6f2af4	-0.23356229
207	0x3df6d286	0.12051873
208	0xbe34abee	-0.17643711
209	0xbdc9dd1c	-0.098566264
210	0xbd11f708	-0.035635978
211	0xbd79faea	-0.061030306
212	0x3e988d39	0.29795244
213	0x3ecb7376	0.39736527
214	0x3e424a12	0.18973568
215	0xbe409641	-0.18807317
216	0xbdc4fa11	-0.09618009
217	0xbe04e188	-0.12976658
218	0xbe845bb9	-0.2585123
219	0x3e5fa339	0.21839608
220	0xbe8d1bea	-0.2756036
221	0x3cacfeac	0.02111753
222	0x3df1a5e7	0.117992215
223	0x3e8c9e21	0.27464393
224	0x3e0e7673	0.13912372
225	0xbe060e61	-0.13091423
226	0x3e71a94b	0.23599736
227	0xbc1cb44b	-0.00956447
228	0x3d7f3e9a	0.06231556
229	0x3e464899	0.19363631
230	0x3e9aaac0	0.30208397
231	0x3e4ee6e5	0.20205267
232	0xbe4c733c	-0.19965833
233	0x3e3b56a3	0.18294768
234	0xbe14be77	-0.14525782
235	0x3e07a061	0.13244773
236	0x3e076054	0.1322034
237	0x3d5de579	0.05417392
238	0xbe0533eb	-0.13008086
239	0x3e2feba7	0.17179738
240	0xbd8dbd97	-0.06920927
241	0xbe77d67a	-0.2420291
242	0xbd48f747	-0.049063947
243	0x3e3ad631	0.1824577
244	0x3e8590a2	0.2608691
245	0x3dc596f7	0.09647935
246	0xbd94722c	-0.07248339
247	0x3cc03184	0.02346111
248	0x3d6604c4	0.05615689
249	0xbdfeb9c5	-0.124377765
250	0x3e9fbcfb	0.31198868
251	0x3e8a489c	0.27008522
252	0x3d787845	0.060661573
253	0xbd9a8f76	-0.07546894
254	0x3e10d265	0.14142759
255	0x3eb7976a	0.35857707
