p2/TD3_BC_HalfCheetahBulletEnv-v0_1638586743_0.25.pth (torch, 898801 bytes, 16 tensors)

l1.weight f4 [256, 32]
00000000: 5002 843e 8573 eabd b24f a93d ddae 7bbf
00000010: 2609 46bd a84a 05bf 1413 483e 3fd9 1f3e
00000020: b596 a03e 6358 7d3e 9b38 f5bd bd02 48bf
00000030: 4116 a03e 5b3d 103c 00c7 ba3d 9426 b0be
00000040: 25c5 36be 7e6e 1cbd 8b22 65be 29a2 edb9
00000050: 9926 843e ca43 41bf 13c6 853e 0600 8ebe
00000060: 5fbd 98be b9d9 a73d f880 dbbd ded8 e2bd
00000070: 2081 f9bc 110b 193d de83 dfbd 1d0b be3d
00000080: f8b5 01bd ced2 98bd 3b1c ba3e 7223 c2bf
00000090: 7067 8f3c 63ef 5c3e a4ad c0be c3f9 4abe
000000a0: 0212 c63e 0d47 673e 8e63 173e 96a2 be3d
000000b0: 3650 e6bd 8df4 9a3d 28b5 3bbe c1a6 aebd
000000c0: 32e6 d1be b621 03be f893 8f3e 9f40 c8bd
000000d0: 7aff 603d 5491 61bc 553d aabd 13b4 8b3d
000000e0: b275 09bf 83ee 033e be99 6ebb 7c8c 20bb
000000f0: f493 1ebb 77d5 efbc 5664 3dbb 4a89 503c
00000100: a048 9a3c bcbb 2bbe a12f 44bc 1d3c 963e
00000110: 52b7 b03c c47c 3cbf 800d 943e f1eb b03d
00000120: 4d5b 803d 2573 b8be f5c3 4bbe 3e1c 963d
00000130: c42a f6be cff3 5e3d 6a85 763e 5d31 693e
00000140: 87ef 353d b8d5 1a3e dd26 b43e 250e 1a3d
00000150: 6fb6 4cbd 1e24 53bd f574 1a3e 2fde 1b3d
00000160: e677 8fbe a987 113e 59ea 9ebd 3404 bdbc
00000170: 4469 03be 38b9 3a3e 4c60 5bbd 5fce 2ebe
00000180: 8ff8 ca3e b683 02be 0fa5 54be 0df2 81bf
00000190: cc06 003d 5267 a73e f345 d8be 34a1 293f
000001a0: cc91 aabd c09c 433f a567 58be f2d2 a33e
000001b0: f00b 04bf 0231 8e3d 9a39 cfbd aaf3 553e
000001c0: 9723 c0bd 5d5e 863c 9987 89be cd70 9ebd
000001d0: ddb2 bc3e d4bf 943e c123 14be f7ef d1bd
000001e0: 52b5 dbbe 2d6e 3b3f 3ab1 833d 8612 9ebc
000001f0: 117f 3fbe 7223 d73c 8672 d8bd 8d90 39bd
00000200: cb71 88be 3c24 e8bd 0725 b9be 35fb 453d
00000210: 3654 913d 3af2 3f3f 0008 8fbe f22f 0c3f
00000220: d245 8fbd 0e76 6c3c c136 653e b26e ed3d
00000230: 96f0 63be 4d44 6abd 0340 b63d 18de 733d
00000240: e975 ba3e 2299 0c3e d063 6c3e 094a 413e
00000250: b04f 2bbd cfff 45be d115 a43d a1f3 b83d
00000260: 6e6a 3e3e 3b11 acbd 04a8 64bd 148b a83c
00000270: e9e6 84bc 6625 1bbe 2774 2a3e 5f70 ed3c
00000280: f745 d0bd f522 0fbe 4dd5 92bc f5d8 6a3f
00000290: bd7e 32be 29de 343f 7959 a3be b939 09be
000002a0: 248d 753e e85b 5cbf 2152 b2be f21d bcbe
000002b0: e644 fbbe 55e1 4dbe 6092 ddb8 075c 523e
000002c0: a2d7 a9be b1da 5f3d 95bd 193e 595e 583d
000002d0: f246 ba3d eb49 c2ba b16e 25bf eb6d 633e
000002e0: fa0d 513e 7c32 bcbd 9c63 43bd 6f20 19bd
000002f0: 1ea1 95bc bcee e03b 5ec5 cabc f3b7 bfbc
00000300: b28f 9dbd fc29 8bbc bb22 95be 6d22 03bf
00000310: 4a43 0a3b e469 0cbf 12e1 f6be 3d84 c0be
00000320: b696 a6be 3aee 1ebf 51d5 073e 839c cabd
00000330: 8afe bfbc b090 04be 18fe 41bd e091 9d3e
00000340: b096 1c3e debf b1be 4400 973e 8033 3c3e
00000350: fc4f 723d 9038 96be 12b5 0c3f 74a1 e23d
00000360: 45ce 08bf c4aa f43e 0a10 74bd c787 243d
00000370: 92d1 1dbe 8730 d33e e17a 92be e135 893d
00000380: b64e 7c3e 934b 01be 02bb 583c 81c1 d0bd
00000390: 41ac 18be b518 503f e346 33bf 1080 c8be
000003a0: 5876 cbbe 41a4 0d3e fee5 003e 2a4d 783e
000003b0: d776 4ebd 897c 33be 03e2 b7be aa08 e0be
000003c0: f1f8 583e 228f 1ebe 0256 a13e 26b4 a73e
000003d0: 8972 073e 6ddc 63be 7ef2 c63e f793 8f3b
000003e0: 6203 9e3e a722 783a 79e9 c83d 3477 433d
000003f0: f8ea 023d 954e d53c d3b7 1ebe 6565 cb3d
0.25783014 -0.11447815 0.08267154 -0.98313695 -0.04834857 -0.5206704 0.19538528 0.15610217
0.3136498 0.24740748 -0.11973687 -0.7812918 0.31266978 0.008803691 0.091199875 -0.34404433
-0.17848642 -0.03819131 -0.22376458 -0.0004532498 0.25810698 -0.7549406 0.2612768 -0.27734393
-0.2983198 0.08195824 -0.10717958 -0.110765204 -0.03045708 0.03736407 -0.109138235 0.092794634
-0.03166768 -0.07462083 0.36349663 -1.5167067 0.017505378 0.21575694 -0.37632477 -0.19821839
0.38685614 0.22585697 0.14784071 0.093083546 -0.11245768 0.075661756 -0.18330824 -0.085278995
-0.40995938 -0.12805828 0.2804258 -0.097779505 0.05493114 -0.013767559 -0.083124794 0.06821456
-0.53695214 0.12883954 -0.0036407555 -0.0024497798 -0.0024197074 -0.029276593 -0.0028898916 0.012728045
0.018833458 -0.16770834 -0.011974246 0.29342738 0.021571789 -0.7362788 0.2891655 0.08638752
0.06267414 -0.36025348 -0.1989897 0.073296055 -0.48079503 0.054431733 0.24074331 0.22772737
0.044417884 0.1512059 0.351859 0.037611146 -0.04997867 -0.051548116 0.15083678 0.038053688
-0.28021163 0.14211906 -0.07759542 -0.023073293 -0.12833124 0.18234718 -0.053558633 -0.17070912
0.3964276 -0.12745556 -0.2076609 -1.0151993 0.031256482 0.32696015 -0.42240867 0.662616
-0.0832859 0.76411057 -0.21133287 0.31996876 -0.51580715 0.06942941 -0.101184085 0.20893732
-0.09381788 0.016402418 -0.26861265 -0.07736359 0.36855212 0.29052603 -0.14466764 -0.10250848
-0.42911774 0.7321499 0.06430288 -0.019295942 -0.18700816 0.026262019 -0.105687186 -0.04530387
-0.26649317 -0.11335036 -0.36161062 0.048335273 0.0709614 0.74978983 -0.2793579 0.5476066
-0.06995739 0.014432443 0.22384168 0.11593379 -0.22259745 -0.057194043 0.08898928 0.059537977
0.36418083 0.1373029 0.2308495 0.18875898 -0.041824043 -0.19335864 0.08011974 0.090308435
0.18595287 -0.08401724 -0.055824295 0.02057413 -0.016223388 -0.15150985 0.16645871 0.028984247
-0.10169595 -0.13978179 -0.017923975 0.917373 -0.1743116 0.7065149 -0.319042 -0.13400926
0.23979622 -0.8607774 -0.34828284 -0.36741596 -0.49076003 -0.20105489 -0.00010565366 0.20542918
-0.33172327 0.05465192 0.15013726 0.052824352 0.09095563 -0.0014823055 -0.64622027 0.22209899
0.20415488 -0.09189317 -0.047702417 -0.037384447 -0.018265303 0.006864397 -0.024752315 -0.023403144
-0.07693423 -0.016987793 -0.2912806 -0.51224405 0.0021097236 -0.54849076 -0.4821859 -0.3760089
-0.32536858 -0.62082255 0.13264968 -0.098931335 -0.023436803 -0.12945819 -0.047361463 0.30775356
0.15291858 -0.34716696 0.2949239 0.1837902 0.05915831 -0.2934003 0.5496379 0.11065951
-0.5343974 0.47786534 -0.05958561 0.04016855 -0.15411976 0.4124796 -0.28609374 0.0669973
0.24639401 -0.12626486 0.01322818 -0.10193158 -0.1490946 0.812877 -0.7003004 -0.39160204
-0.39738727 0.13832189 0.12587735 0.24248186 -0.050406303 -0.17527975 -0.3591462 -0.4375661
0.21188714 -0.15484288 0.3151093 0.3275463 0.13227285 -0.22252055 0.38856882 0.0043816525
0.30861956 0.0009465613 0.098101564 0.047721103 0.031962365 0.026038447 -0.15499811 0.09931449

l1.bias f4 [256]
00000000: fa08 f73d 8bcf af3e d7f0 213e f18b 87bd
00000010: 0eae 94be 7892 723d 3461 69bd e32b 893e
00000020: 1c1b 293e d02c 533e 334b 0abe aa01 0ebd
00000030: 5121 07bd 42bc 63bb 8611 843e 47d8 023e
00000040: 4594 883e 5300 013e 3546 003e 6752 93be
00000050: b86a 61bd 461c 5cbe 6ba4 103c 8608 c8bd
00000060: 5ef8 363e ccd5 ad3e e628 5a3e 3d70 813d
00000070: 2de1 933e abcd 093e a67c 92bd afcb 343e
00000080: 3ed1 853e 8705 923e f8b3 a9bd ce9d 82bd
00000090: 540a 573e 4136 92bd 41e4 7d3e 32db 97bc
000000a0: bed1 d7bb b826 7dbd dfbf 973d 8788 643e
000000b0: 9b3f 683d c661 923d 3167 583e e35b 013e
000000c0: d527 713e bbd9 96bd 7ed0 eb3d f1ff 023e
000000d0: 70f7 493e d392 663e 0d29 6bbd a99a 313e
000000e0: 447d 7ebe 8597 553e 5649 40be 6264 733e
000000f0: 8244 22be 0651 6abe 24aa 653d 3b70 883e
00000100: fef2 bd3c 9416 86be 4c9c 7e3d d6f9 5abe
00000110: d054 bbbd 07b7 153e b15a babe 747a 143e
00000120: 96c1 a23c 35c9 fdbd 5e70 19be 131f 21be
00000130: f63a 203e e335 17bd 5ae5 0fbe 8c66 243d
00000140: 5ad0 b1be bb31 873d ff30 3cbe 3a42 ccbc
00000150: 624a a23e 2156 0bbe 4a56 85bd 80fa 593d
00000160: 47e5 52be 7081 763d d756 0abe e116 a13c
00000170: b9c2 15be 3a50 d93d 05f8 2cbe dead e63d
00000180: 5c1d d33d 011c 733e 1a87 9ebd 32a5 143e
00000190: 7fc7 00be 4e74 3d3e ea7f 6d3d b5bd 113e
000001a0: 4ba5 143e f30f 453e 4bfc 25be e8e7 aabd
000001b0: 65ea e63e 043c 193e 78a0 70be 3c09 b23d
000001c0: 6e77 a4bd 5626 a1bd 89c1 09bf a689 75bd
000001d0: a045 303e 9d17 113e 0e73 903e 9bb6 563e
000001e0: 91b2 d9be acad e73d 3374 7b3e 7ae8 663d
000001f0: 37fd a3bd a71b 98be 7d62 20be f140 20be
00000200: 9d14 8a3e d999 723e 39c1 bcbc 2316 c0bc
00000210: 8a7b 873d 2062 3f3c a51f 753d 345f 3abe
00000220: a12f 6abe 27a8 a43e f527 a73e 4d52 6b3e
00000230: b92c 0b3d c69e b53d 4044 4cbe e0da 25be
00000240: 464c cbbe b3e7 07be a29d a5bd 7b5c a1bd
00000250: f35f 94bd c464 14be d64f 8cbd aa2c 953e
00000260: 8eb1 c8bd 757c 72be 3a5a b83d aaa5 863d
00000270: b065 f9bd ed76 8d3e 77e8 d33d 1594 a8bd
00000280: b53d 403e 079b e1bd a564 db3d b5b7 3cbe
00000290: 9f51 2ebc 483a acbd 0b01 72bd 89f6 3cbe
000002a0: fe3a 99bd f17e 103e 14b8 08be ab50 7ebe
000002b0: eac8 a43e 6564 9bbd 406c 0e3e c44f 473e
000002c0: 0c22 88be b67b 0f3e 718d 813e c583 3e3e
000002d0: c2cd fd3d e337 a1bc cc74 7b3d dd52 1d3e
000002e0: e07a ba3e 91cf edbd 12dd 88be eaec bf3a
000002f0: 1f98 69be 5816 0d3e 9e04 bf3e 6bb4 5cbe
00000300: d98b 7bbe 1822 22be 8be3 a3be 6141 efbd
00000310: 0f01 bebd 4db0 d63d 8650 9c3e f045 0cbe
00000320: 2495 ecbd c7d2 373e 5a92 ad3d 2af2 b63d
00000330: a831 2abd 51f4 3fbd 58fe b5bc d2f9 ddbd
00000340: 97d4 bfbd d5c8 12be dd9b 09bd f353 163e
00000350: 27d8 32be cbca e8bd e946 7f3b 9c37 42be
00000360: 5b94 6bbe ec35 b3be cad5 e63d eec2 d5bd
00000370: 37a9 a33e c793 0cbe 814c 03bc 0bfc 8cbe
00000380: cef3 8abd a9e3 cbbd 4719 473e 5cb9 bc3d
00000390: 5419 a93d 40d0 9fbd 8e85 6f3c d19e ef3d
000003a0: 2646 16be 484f 813e 5553 d8bc e175 07be
000003b0: a986 20be f83d f53d b33b 2bbe c0ce 4abe
000003c0: 9a04 7b3c a858 a0bd 08b7 f23d a969 6c3e
000003d0: 0b59 e8bd c9f8 4abe d7d0 1d3d ceb7 c53d
000003e0: 7184 813d 607a 7cbc f9a9 ca3d bdba e4bd
000003f0: a694 55be 3d8c 893c 0d2b 883e 9453 95bd
0.12062259 0.3433803 0.1581453 -0.066184886 -0.29039043 0.059221715 -0.056977466 0.26791295
0.16514248 0.20622563 -0.13505249 -0.034669556 -0.032990757 -0.0034749662 0.2579462 0.12777816
0.2667562 0.1259778 0.12526782 -0.28773805 -0.055033416 -0.2149516 0.008828263 -0.09767251
0.17868182 0.33952177 0.21304664 0.06320236 0.28882733 0.13457362 -0.07152681 0.17655824
0.26136202 0.28519842 -0.082862794 -0.06377755 0.21000034 -0.07139254 0.24794103 -0.018537138
-0.0065862825 -0.061804503 0.074096434 0.22317706 0.056701284 0.07147555 0.21133114 0.12632708
0.23550351 -0.073657475 0.11514376 0.12792946 0.19723296 0.22516946 -0.057412196 0.17344154
-0.24852473 0.20858581 -0.18777975 0.23768762 -0.15846446 -0.2288247 0.056070462 0.26648125
0.023187157 -0.261891 0.062160775 -0.21384367 -0.09147036 0.146206 -0.36397317 0.14499837
0.0198677 -0.12391893 -0.14984271 -0.1573451 0.15647492 -0.036916625 -0.14052334 0.04013686
-0.34729272 0.06601282 -0.18378066 -0.024933923 0.31697375 -0.13607074 -0.06510599 0.05321741
-0.20595275 0.060182035 -0.1350969 0.01966423 -0.14625062 0.10611005 -0.16891487 0.11263631
0.10308334 0.23741151 -0.07740612 0.14516142 -0.12576102 0.18501398 0.057983316 0.14232524
0.1451618 0.19244365 -0.16209523 -0.08345014 0.45100704 0.149643 -0.23498714 0.086931676
-0.08030592 -0.0786864 -0.53810936 -0.059945725 0.1721406 0.14169164 0.2821278 0.20968096
-0.42519048 0.11312422 0.24556045 0.05637405 -0.08007281 -0.29708597 -0.1566257 -0.15649773
0.26968852 0.236915 -0.023041354 -0.023448056 0.0661536 0.01168111 0.05984463 -0.1820038
-0.22869731 0.3215954 0.32647672 0.22980614 0.033978198 0.08868174 -0.1994791 -0.16196775
-0.3970663 -0.1327198 -0.08086707 -0.078789674 -0.07244863 -0.14491564 -0.06851165 0.29135638
-0.09799491 -0.23680289 0.09001584 0.06574567 -0.121775985 0.27629796 0.103470735 -0.082313694
0.1877354 -0.11015897 0.10712556 -0.18429454 -0.010639577 -0.08409554 -0.059083026 -0.1845342
-0.07481955 0.14110924 -0.1335147 -0.2483546 0.32184535 -0.07587508 0.13908482 0.19464022
-0.26588476 0.14012036 0.25303224 0.18604954 0.12392761 -0.01967997 0.061390683 0.15363641
0.3642187 -0.11611856 -0.26731163 0.001464275 -0.22811936 0.13778055 0.3730821 -0.21553199
-0.24565066 -0.15833318 -0.3200954 -0.11682392 -0.09277546 0.104828455 0.30530185 -0.13698554
-0.11551884 0.17951499 0.0847518 0.08932908 -0.041551262 -0.046863858 -0.022216007 -0.10838665
-0.0936672 -0.14334424 -0.03359591 0.14680462 -0.17465268 -0.11366805 0.0038952178 -0.18966526
-0.23005812 -0.35002077 0.11271246 -0.104375705 0.31965038 -0.13728248 -0.008013845 -0.27536044
-0.06784783 -0.09955532 0.19443236 0.09215042 0.08256784 -0.078033924 0.014619244 0.11700214
-0.14675197 0.252558 -0.026406923 -0.13228561 -0.15676369 0.1197471 -0.16721992 -0.19805431
0.015320921 -0.0782941 0.11851317 0.23087181 -0.113451086 -0.19821467 0.038529243 0.096541986
0.06324089 -0.015410036 0.09895701 -0.1116843 -0.20857486 0.016790504 0.26595345 -0.07291332

l2.weight f4 [256, 256]
00000000: cabe 063e 05d1 2e3c 861d 573c b2ab bf3e
00000010: 2495 9fbd db66 1c3e 38ba da3c 7b70 3c3d
00000020: ae1a eebc b62d 4f3d 4f33 cb3d e885 7c3e
00000030: 93d0 66be f835 583d 9901 823c 5ef5 d3bd
00000040: e8dd ae3e 3fe0 26bd a237 f3bd 1431 43bd
00000050: 035f 07bb 5221 92be bc81 543d 4ba4 863e
00000060: 89c0 0b3e 589b 8a3d 8ae7 993c 6a08 ca3d
00000070: 0246 033e 56c6 5f3d bafd ea3d 5fc3 513c
00000080: 3ac9 9f3e 3d55 4dbe b557 c1bd e0bc cf3c
00000090: 46d5 efbe 4732 f03e d359 df3d e7d0 b23e
000000a0: a768 f33c 18e8 023e 41a9 b8bd caa6 1e3e
000000b0: 6275 dcbc 8e5d cf3b 6b35 bd3e c54d 263e
000000c0: 0a55 f3be feea cbbe 8515 2bbf 6dc1 e4be
000000d0: c692 bd3d ef23 7c3d 1c08 1e3d 4040 e63c
000000e0: 1cc2 ccbd 850e ac3d 5cf5 fbbc 54aa b13d
000000f0: 4686 12bd 9fde cb3d 4461 ac3b 4e84 52bc
00000100: d052 2fbe b84b e2bd 95f4 903d 2391 e9bc
00000110: 1844 7b3e becb 843e fdff 983d 35b8 fb3d
00000120: 4541 f7be 204e 6d3e 92ea 97be 5b58 573c
00000130: d267 21bc 9d0c 1b3e 2ae3 b23e 78f8 40be
00000140: a63d 8fbe c85c 563e 0767 80bf 339d a9bd
00000150: faaa a43d 82f7 8d3e eb3e 91be 2979 863e
00000160: 6c63 dbbf e158 a73d 5b42 16bf 86a8 953d
00000170: 8c8b 283e f204 873e 2009 01be 1761 87bd
00000180: 0b6a 01be c81f 053e 1a2d 893e 1c2d 343e
00000190: f82a 043e 87d5 913b 2ae2 b33d 19be 0dbf
000001a0: 805c b03e 4540 ee3d abf9 cc3e a6f3 5f3d
000001b0: 8a7a 543e 01ae 80be 50e5 48be 0e38 52bc
000001c0: a648 3d3e c4b5 aebf 69f0 ff3d 78d3 d8bd
000001d0: a231 103d 45e5 733d 3fbd 0a3c d300 d5bc
000001e0: c03c 4c3e 05bc f43c 3091 f0be 91d5 3c3e
000001f0: 7b30 753e 1619 83bd b2d5 03be 5525 983e
00000200: 4da1 913d 0096 ec3a 8047 3c3e 558b 94be
00000210: 2e98 7c3e 1f9a a3bb 4a4e 263d 7e6f 503d
00000220: 070c 0abe 9bd3 f9bd 36a5 5bbc dda3 913e
00000230: a9b5 943c a0cb 103c 6c75 88be a4d3 ee3d
00000240: e28c f53e 6eec 433d f0e4 663c 8086 8c3e
00000250: 1da7 20be 5e7d 2fbe 940b ce3d 8de5 aabe
00000260: 76c8 0a3e e232 4fbd 99e6 e43c 2a2b 113d
00000270: 8f14 22be a757 89bd 6b73 aebd fe27 ee3d
00000280: b511 56be 6c22 b4bb 9d1e df3d 9553 8fbe
00000290: 13a5 1f3e 626f 1b3e cd1d db3c f2d4 e3bd
000002a0: c48a d3be 8c2e dc3d 7d54 ac3e 493a 70bd
000002b0: 6ca8 21bd 1326 61bd b91d 163e d6f4 be3d
000002c0: db30 94be 5e67 963d d7ed 853d 02d1 4d3c
000002d0: 537a 083e 2c51 753d 99ca 5fbe 4512 063e
000002e0: 6134 89bb 49b5 183e cc6a af3d e63a 803d
000002f0: bfd4 c6bf be60 4abe 0077 13bd 2bd3 883d
00000300: e3a5 c53e 4228 ca3d fbe6 d93e 994b 4f3d
00000310: c03d b3be 0f5f 3ebe 2dca 963d 04af f6be
00000320: dbd4 0a3d fe06 3d3e a160 313e 99e0 003e
00000330: cdf5 ee3d e512 99be 124e 113e 51fa 7abe
00000340: eeb4 173e bdb7 adbd f1dc 5c3e c7e2 1bbe
00000350: 2e86 57bd f38e 2f3e 1a3a 8b3d 6c9c 02be
00000360: a1f0 333e 239a 25bd 2c0a 4b3e fc4c dabc
00000370: 4a57 633d de6f 9d3e 2025 af3d f6ec 3c3d
00000380: fe76 babb 7796 27be 3126 b03d 4e70 a73d
00000390: a940 45bd 7e03 7bbe beb0 71bd 4047 743d
000003a0: 8fb0 cc3d 3be2 c63d 6a59 d0bb 734d f63d
000003b0: 38df 663d ed96 283e 50af b93d dd22 233e
000003c0: e7fd 723d 04f9 a2bd 816b 093e 4a57 0b3d
000003d0: abb4 533e 64e1 ddbd d7ea 85be 5e63 233e
000003e0: 32ad a3bd da2f 99be 43d6 093f e0b0 093d
000003f0: 4046 85be d294 3ebd 287e 093e 1375 363e
0.13158718 0.010669951 0.0131295975 0.3743568 -0.07792118 0.15273611 0.026700124 0.046005707
-0.029065456 0.050580703 0.09921896 0.24660456 -0.22540502 0.052785844 0.015869902 -0.103495345
0.34153676 -0.0407412 -0.118758455 -0.047654226 -0.0020655997 -0.28541046 0.051881537 0.2629722
0.13647665 0.06767911 0.018787164 0.09864886 0.12819675 0.054632507 0.11474176 0.012802928
0.3120821 -0.20052047 -0.09440557 0.025358617 -0.46842402 0.4691336 0.109058045 0.34925005
0.029712988 0.12783849 -0.090166576 0.15493312 -0.026911441 0.0063282913 0.36954817 0.16240604
-0.47525817 -0.39827722 -0.6682971 -0.44678822 0.092565104 0.061557706 0.038581952 0.028106809
-0.09997961 0.08401207 -0.030756645 0.08675066 -0.035772584 0.09954571 0.0052606184 -0.012848927
-0.17121434 -0.110495985 0.070779 -0.02851159 0.24537694 0.25936693 0.07470701 0.12290994
-0.48291984 0.23174334 -0.2967115 0.013143624 -0.009851413 0.1514153 0.34938937 -0.18844783
-0.27976722 0.2093383 -1.0031441 -0.082819365 0.08040424 0.27727896 -0.28368315 0.26264313
-1.7139716 0.08171249 -0.58695 0.07307534 0.16459483 0.2637096 -0.12601137 -0.06610315
-0.12638108 0.13000405 0.26792222 0.17595333 0.12907016 0.0044505033 0.08783372 -0.5536819
0.34445572 0.11633352 0.40034232 0.05467572 0.2074987 -0.25132754 -0.19618726 -0.012830747
0.18484744 -1.364922 0.124970265 -0.105872095 0.035203584 0.05954482 0.008467971 -0.02600137
0.1994505 0.029874811 -0.4698577 0.18440844 0.23944275 -0.06401269 -0.12874487 0.29715982
0.07110844 0.0018050075 0.1838665 -0.29012552 0.24667427 -0.004992738 0.040602006 0.050887577
-0.1348115 -0.12198564 -0.013406089 0.2844533 0.018153029 0.0088376105 -0.26652086 0.11661461
0.47959048 0.0478329 0.014092669 0.27446365 -0.15688749 -0.17137668 0.10060802 -0.33378258
0.13553032 -0.050585635 0.027941989 0.035441555 -0.15828155 -0.067061715 -0.08518108 0.11628722
-0.20905192 -0.0054972675 0.10894511 -0.27993456 0.15590315 0.15179208 0.026747609 -0.111246005
-0.41316807 0.107510656 0.3365821 -0.058649335 -0.03946726 -0.05496795 0.14659776 0.093240425
-0.28943524 0.073439345 0.06539505 0.012562038 0.13327913 0.059891865 -0.21854629 0.13092907
-0.0041871523 0.14912905 0.08565292 0.06261234 -1.5533675 -0.19763467 -0.03600216 0.06680902
0.38603124 0.0987096 0.42559037 0.050609205 -0.3500805 -0.1859095 0.07362781 -0.481804
0.0338944 0.18459699 0.17322017 0.12585677 0.116679765 -0.29897228 0.14189938 -0.2450955
0.14815113 -0.08482311 0.21568657 -0.15223227 -0.052618198 0.17144375 0.06798191 -0.12754983
0.17572261 -0.0404302 0.19828099 -0.026648037 0.055503167 0.3074941 0.08552003 0.04612442
-0.0056904545 -0.16365992 0.086010344 0.08175717 -0.048157368 -0.24513051 -0.059006445 0.05963826
0.099946134 0.09711119 -0.0063583152 0.12026491 0.05636522 0.16463824 0.09066641 0.15931268
0.05932417 -0.07957652 0.13419916 0.034018792 0.20674388 -0.108340055 -0.2615573 0.15955874
-0.07992019 -0.2991932 0.5384256 0.033615947 -0.2603016 -0.046528645 0.13427031 0.17818098

l2.bias f4 [256]
00000000: 61df 853e 64a6 803e c24f 72be d7d1 8fbd
00000010: 3337 f7bd d2b3 ef3d 1c43 27be 275b 6bbe
00000020: 6a0e 373e 5241 c8bd 6f55 693e 2d35 4d3e
00000030: b049 853e 0dab a73d c69d 90be b317 353e
00000040: 5efe 333e 7f07 2e3e bb49 ecbd c203 fbbd
00000050: c550 233e 690c 2abd c54c 6a3e 5541 2bbe
00000060: 1853 cb3c aed1 05be 4e21 46be 6fad 0fbe
00000070: 36f0 e9bd f828 a93e 632a 5e3e 88b1 ebbd
00000080: 3961 7c3e b343 50be 1d59 523e 8779 5bbe
00000090: a133 5dbe 1865 e2bd 5cee 3d3e d512 8dbd
000000a0: 1f73 28be 2888 733e a62a adbd 176c c2bd
000000b0: 1e9c 103e 5386 1a3e c9a2 643e eadf 41be
000000c0: af60 323e 9cc2 0e3e 02ee 243e 8a58 283e
000000d0: 082f 62be 5390 8a3e 652a 99bc b572 8b3e
000000e0: 39f7 8b3e dc8b 963e 6e86 7f3e a4e9 00be
000000f0: 237e 733e 3017 623e 9c03 bcbd 837e 1abe
00000100: 2248 53be e0e6 33be 9d9d 843e f5c2 5c3e
00000110: 7d3a 8e3d b0f4 503e 657f 003c 19be 753e
00000120: 4309 35be 474d 473e 8a1e 66be b363 32be
00000130: 2d08 753e bd3e 5c3e 82a8 e4bd a786 2abc
00000140: 5255 04be 0b50 68be cdc0 f3bd 52f8 713e
00000150: 474e 263d 5f47 013e 379a 40be 3702 793e
00000160: 816a 9b3e c4df 8c3e 40d4 90be 930d 903e
00000170: 0686 03be 2c97 46be 335b d63d 85f6 8ebd
00000180: be83 33be 6607 753e 9942 a83e d9f6 913e
00000190: 1fe5 18be 0f52 003e 222d 1bbe 7157 273e
000001a0: 3ed0 adbd b948 2bbd 4c02 843e 5329 203e
000001b0: e2b7 103d 806f 5d3e 5287 b53e 4eb0 8d3e
000001c0: c9a9 e03c c048 2a3e 8e57 673e 1625 e93d
000001d0: 1166 48bd 82bf 3c3e bfde 5dbe 3ef1 d2bd
000001e0: dde1 52be 57ba 53be fc1b 633e 9f1f 833e
000001f0: 40b5 4bbe 7d28 81bd 6184 fbbd ee2a 9c3e
00000200: adf7 4f3d 2b78 283e 2d80 d33b d7c1 6cbc
00000210: a02f 02be c269 883e 4e40 28be 507b e2bd
00000220: ab8d 583e 5d42 00be 6f3b 773e b770 81be
00000230: 1c70 9bbd 566f 3ebe 1d81 3bbe 0745 4f3e
00000240: 2c3e 3ebc ed21 863e 92c5 1abd 2f5f 5c3e
00000250: 82c4 23be 2691 e2bb 7d0b 64be da96 40bd
00000260: 08aa aebd 1de6 69bc 037d 473e f31b 1ebe
00000270: d1ab 183e e0f8 ddbd 81cd 10be 3e22 9a3e
00000280: 0c53 7d3e f1cd 0ebe 4d07 063d 1c3e 07be
00000290: ec1a 82bd fbf9 743e 37b8 a63e fa95 1e3e
000002a0: 0ee9 25be 2bd1 94bd d414 503e 56b7 dc3c
000002b0: 851e 1d3e 9ee4 98be 8b20 64be 9e86 8e3d
000002c0: 97fb 483e dc66 bbbd 3a02 8fbc 7390 24be
000002d0: 62fc 8e3e 66fe 59be 1d96 3fbd cd49 603e
000002e0: 080b 5b3e 8ff7 7f3d 4f61 853e 981d 613e
000002f0: 32d2 65be e281 babd e648 8b3e 6638 12be
00000300: febf d83d 61ea e8bc 0324 833e 26ae 933e
00000310: 29f8 313e edb6 8a3e 8147 00be c108 863e
00000320: 22c4 27be dbc7 393e 88ac b2bd 9786 56bd
00000330: 8d7e 923e 07de 733e ad50 823e f918 bd3b
00000340: 0fcf 813e 105c 603e 050a 713e 1f22 163e
00000350: 81b9 513e bd14 d3bd e472 1bbe 39cd 89bd
00000360: f4fd 8bbd 20fc 673e cb91 9fbc 8b56 dbbd
00000370: 6dfe 093e e338 27be a77b 14be 3a5d 263e
00000380: aada dcbc 6c17 993e abfd 0abe fc1e 363e
00000390: 36ba 713e 64e7 053e 2ac0 763e 1966 963e
000003a0: 5682 713e 113c 14be 8b70 55be a34a 25be
000003b0: 9966 553e 40ad 333e 0168 b7bb 177a 373e
000003c0: 34df 6c3e 5b6e 27be b9fe dbbd 4ec0 8e3e
000003d0: d5b0 12bd 8c97 f83d d3bd 07ba 14aa 803e
000003e0: 3afb 163e 8226 643e 76c2 8c3e 6d59 53be
000003f0: 40db 7e3e b63f 12be bfc8 b23e 0f3d 743d
0.26146987 0.25126946 -0.23663238 -0.07022446 -0.12071075 0.1170422 -0.16334194 -0.2298399
0.17876592 -0.09778084 0.22786497 0.20039816 0.26032782 0.08186922 -0.28245372 0.17684822
0.17577502 0.16995047 -0.115375005 -0.12256576 0.1594878 -0.04151574 0.22880848 -0.16724141
0.024819896 -0.13068268 -0.19348642 -0.14031003 -0.1142277 0.3303907 0.21695857 -0.11508471
0.24646463 -0.20338325 0.20541807 -0.21433078 -0.21601726 -0.11054438 0.18547958 -0.068883575
-0.16450165 0.23782408 -0.084554 -0.09493273 0.14122054 0.15090303 0.22327723 -0.18933073
0.17419694 0.13941425 0.16106418 0.16440025 -0.22088253 0.27063236 -0.018696973 0.27235952
0.27337053 0.2940358 0.24953625 -0.12589127 0.23778586 0.22079158 -0.09180376 -0.15087323
-0.20632985 -0.1756854 0.259015 0.21558745 0.069447495 0.20405841 0.007842873 0.23998298
-0.17679314 0.19463073 -0.22472587 -0.17420845 0.239289 0.21508308 -0.11164953 -0.01040808
-0.12923172 -0.22686784 -0.11902008 0.23629883 0.040601995 0.12624882 -0.18808828 0.24317251
0.30354694 0.2751447 -0.28286934 0.28135356 -0.12844095 -0.19393605 0.104666136 -0.069806136
-0.17530724 0.23928604 0.3286331 0.28508642 -0.14931153 0.12531303 -0.15153936 0.1634195
-0.08486985 -0.0418174 0.25783002 0.15640764 0.035331614 0.21624565 0.35454804 0.27673572
0.02742471 0.16629314 0.22591993 0.11384027 -0.048925463 0.1843243 -0.21667002 -0.102999195
-0.20593973 -0.20676552 0.22178644 0.25610062 -0.1989336 -0.06306551 -0.12281109 0.30501503
0.05077331 0.1645209 0.0064544887 -0.014450512 -0.1271348 0.26643187 -0.1643078 -0.11058676
0.21147792 -0.12525316 0.24143766 -0.25281307 -0.075897425 -0.18597159 -0.18310972 0.20241176
-0.011611503 0.26197758 -0.037786074 0.21520685 -0.1599293 -0.0069142757 -0.22270007 -0.047018863
-0.08528525 -0.014276055 0.19481282 -0.1544035 0.14909293 -0.10838485 -0.14140894 0.3010425
0.24738711 -0.13945748 0.032721806 -0.13207287 -0.06352791 0.23923485 0.3256242 0.15486899
-0.16202185 -0.07266458 0.20320445 0.02694289 0.15343674 -0.2986192 -0.22278039 0.0695927
0.19627224 -0.09150478 -0.017457116 -0.16070728 0.27926928 -0.21288452 -0.04677402 0.21903153
0.21390927 0.06249195 0.26050803 0.21983945 -0.22443464 -0.091068044 0.27204055 -0.14279327
0.105834946 -0.028432073 0.25613412 0.28843802 0.17379822 0.27092686 -0.12527277 0.26178554
-0.16383412 0.18142645 -0.08724314 -0.05237445 0.28612176 0.23815165 0.25452176 0.0057707992
0.25353286 0.21910119 0.23538978 0.14661454 0.2048092 -0.1030669 -0.15180546 -0.06728596
-0.06835547 0.22654772 -0.0194787 -0.10709866 0.13475962 -0.16330294 -0.14500295 0.162465
-0.026959736 0.29900682 -0.13573329 0.17785257 0.2360619 0.1307655 0.24096742 0.2937477
0.23584875 -0.14476039 -0.20843713 -0.16141753 0.20839919 0.17546558 -0.005597115 0.17917667
0.2313202 -0.16350691 -0.10741944 0.27881092 -0.03581317 0.1213828 -0.00051781273 0.2512976
0.14744273 0.22280315 0.27492112 -0.20639582 0.24888325 -0.14282116 0.34918782 0.059628543

l3.weight f4 [1, 256]
00000000: 37cd 983e b0b5 a23e f8fa 1cc0 5ec4 88bf
00000010: dec0 44bf 2740 a03f 74e2 55bf ba83 3ebf
00000020: ad8c 3e3f 8d9d 0cbf 5b97 883e b077 693e
00000030: 70c4 913e c38c 03c0 ae26 8fbf acca 8c3e
00000040: 53bb 503f 613e ee3e 2973 aebf 6d2d 99bf
00000050: 1a2e c03f 5bd9 26bc e5cc 8c3e d18f e5bf
00000060: 17b1 1440 6712 f3be 2867 d8bf 69f3 8dbf
00000070: 2643 11bf 63ca 763e 7991 0540 950a 37c0
00000080: 7ca9 b63e ec02 aebf 0633 313e 426f 60bf
00000090: c59b 6abf 455e 48bf 5c41 8a3e 2e02 08c0
000000a0: 8a05 a1bf a648 623e 88f1 1dbf b852 86bf
000000b0: 289c 7c3f 809a 313f 412e 713e 2869 76bf
000000c0: 5479 793e dd64 a03e 3b89 b53e 0de2 b13e
000000d0: c4eb 5440 b92b 763e 1eea 00c0 2f56 873e
000000e0: 6129 973e afb4 383e 2d67 7c3e bcf2 68bf
000000f0: 8d82 3f3f 1084 523e c0a5 46bf 380c a7bf
00000100: efd3 7cbf f882 98bf 6968 673f 48a0 423e
00000110: 05ef 8bbf b993 d53e 066d edbf f766 783e
00000120: 2c5c c3bf a0a1 313f 83f6 d3bf 059d 41bf
00000130: d0b7 b93e 2499 943e c3e1 0740 a676 b1bf
00000140: 96a5 e5bf 6a0d 9bbf e85b 61c0 100c c73e
00000150: f54f 2f40 7b6b ffbf 1208 e1bf 4990 203e
00000160: 3326 703e b47d 873e 9275 9fbf 62f1 723e
00000170: abb6 88bf 5b47 9ebf 1a4d 813f f2b8 a6bf
00000180: b979 0bc0 10b8 333e 07c3 8b3e 0c88 4a3e
00000190: 2145 a5bf cf9e 9a3e 760a a6bf a308 a73e
000001a0: 920e 41bf 7537 edbe 88de c93e 0b87 853e
000001b0: 1ab5 1b40 1806 d43e 4fcf 5b3e 403c 0c3f
000001c0: 7357 9cbf 0b2a db3e 853f 423f 259b 273f
000001d0: 76ea 1bc0 dc19 e63e e353 91bf fb1b 72bf
000001e0: 5fa4 4abf 163c eebf 3be4 403f 4f10 d63e
000001f0: c0c8 74bf 9399 6cbf 260f 51bf 25b0 873e
00000200: dc59 b7bf 49d4 1c3e 8479 b9bf 26a5 6bc0
00000210: 4c8c 67bf 4ad8 983e 1c78 b4bf a902 9abf
00000220: 102f 4c3f 98b3 0bbf 8952 333e 5f07 01c0
00000230: f39a 93bf 348b 63bf f7d5 3ebf a6bc 3c3f
00000240: 937f d5bf 1d5a 853e 3897 cb3c 9f13 843e
00000250: af3c 60bf 43ee 14c0 d9ee e4bf 9b8f d7bc
00000260: b68e 85bf 3bbc df3f 4cf6 cd3e 26e4 2ec0
00000270: 728c 703f 9756 eabf 3021 53bf 7c72 863e
00000280: 0f05 543e 15d5 06c0 9fe6 d3bf 8471 4abf
00000290: 889a 113d eba6 393f 073f 823e 1686 413f
000002a0: 74bc 41bf ff33 2fbf 8d72 fa3e 5f6f 8cbf
000002b0: f57d 673f 7c5f 3dc0 2df7 67bf 078f c0bf
000002c0: ce0e 533f 78f9 14c0 5da7 1fc0 21e1 3fbf
000002d0: 7b50 553f fb84 c0bf c814 febe 236c 3e3f
000002e0: d5e2 333f f65f ff3f 1286 d83e 0490 7c3e
000002f0: c70f 06c0 f79f 0fbf 35dc cfbf 322e 9dbf
00000300: 87b7 a83f 5fa8 d9bf 0689 993e 302a d73e
00000310: 6977 463f 1680 0d3f 06fc 8bbf 95c8 803e
00000320: d7c8 babf 345d d23e 257b 62bf 4577 0ac0
00000330: 032f 823e 1b29 d93e be6f 743e 8210 07c0
00000340: 3b29 803e 4544 bf3e 3c0f 823e 5fd7 5f3f
00000350: cb96 e73e 4c36 81bf 2bf5 2cbf ff26 36bf
00000360: c780 fabf 66d4 f23e c27b 3bbf b10d b2bf
00000370: 4936 ac3e 9c49 f5bf d235 37bf f520 223f
00000380: 7c9c 16bc 7f4a 6c3e 6c51 43bf 7be0 833f
00000390: 9bbf 6d3e ddf5 a33e b248 763f 1eb1 723e
000003a0: add5 713e 5084 14bf 8c95 cdbf 16c6 59bf
000003b0: 7085 a93e 241d 9c3e 6899 0140 75d2 003f
000003c0: a897 763e 8db2 4bc0 0cc6 ccbf a8ab 333e
000003d0: 1461 3ebf 54c4 8f3e 1f8c 17bc 2fe5 863e
000003e0: afb9 c63e 1b03 03c0 724e 4d3e 5d5e 59bf
000003f0: bd5b 693f 762a b9bf a127 803e adb0 5c3f
0.29844067 0.31779242 -2.452818 -1.0684927 -0.7685679 1.2519578 -0.83548665 -0.7441975
0.74433404 -0.54927903 0.26677975 0.22799563 0.28470182 -2.0554664 -1.1183679 0.27498376
0.81535834 0.46531966 -1.3628894 -1.1966988 1.5014069 -0.0101836575 0.27500072 -1.7934514
2.3233087 -0.47474977 -1.6906481 -1.1089908 -0.56743085 0.24100642 2.087004 -2.8600209
0.3567618 -1.3594642 0.1730462 -0.87669766 -0.91643935 -0.78268844 0.2700299 -2.125133
-1.2579815 0.22098026 -0.6169667 -1.0493994 0.98675776 0.69376373 0.235528 -0.96254206
0.2436269 0.31326953 0.3545626 0.34742776 3.32689 0.24040116 -2.0142894 0.2643294
0.29523757 0.18037675 0.24648733 -0.90995383 0.7480858 0.2055819 -0.77596664 -1.3050604
-0.98760885 -1.1914968 0.9039369 0.19006455 -1.0932318 0.41714266 -1.8548896 0.24258028
-1.5262504 0.69387245 -1.6559604 -0.7563022 0.3627305 0.29023087 2.1231544 -1.3864334
-1.7941158 -1.2113469 -3.5212345 0.3887639 2.7392552 -1.9954675 -1.7580588 0.1568004
0.23452072 0.2646309 -1.2457755 0.23724893 -1.0680746 -1.2365526 1.0101655 -1.3025191
-2.1793044 0.17550683 0.27297232 0.1977846 -1.2911721 0.30199286 -1.2971942 0.32623777
-0.7541286 -0.46331373 0.3942759 0.26079592 2.4329286 0.414109 0.214658 0.54779434
-1.2214187 0.42805514 0.75878173 0.65471107 -2.4361854 0.44941604 -1.1353725 -0.94573945
-0.7915706 -1.8612087 0.7534825 0.41809317 -0.9561882 -0.92421836 -0.8166374 0.26501575
-1.4324298 0.15315355 -1.4490209 -3.6819549 -0.9044845 0.29852515 -1.4099154 -1.2032062
0.7975931 -0.54570913 0.17511953 -2.016075 -1.1531662 -0.8888428 -0.74545234 0.73725355
-1.6679558 0.26045313 0.02485238 0.2579622 -0.87592596 -2.3270423 -1.788539 -0.026313594
-1.0434177 1.7479318 0.40226972 -2.732675 0.939643 -1.8307675 -0.82472515 0.2625922
0.20705055 -2.1067555 -1.6554755 -0.7907946 0.035547763 0.7252032 0.2543871 0.75595224
-0.7567818 -0.68438715 0.4891552 -1.0971488 0.9042657 -2.958953 -0.90611535 -1.5043648
0.82444465 -2.3277264 -2.49459 -0.74952894 0.8332593 -1.5040582 -0.4962523 0.74383754
0.70267993 1.995116 0.42289788 0.24664313 -2.094713 -0.5610346 -1.6239077 -1.2279723
1.3181008 -1.7004508 0.29987353 0.42024374 0.77525955 0.5527357 -1.0936286 0.25153032
-1.4592541 0.41086733 -0.88469154 -2.1635296 0.25426492 0.42414173 0.23870751 -2.1103826
0.25031456 0.37356773 0.25402248 0.87438005 0.45232233 -1.0094695 -0.67561597 -0.71153253
-1.957055 0.47427672 -0.73235714 -1.3910428 0.33635166 -1.9163089 -0.715665 0.6333154
-0.009192582 0.23075293 -0.76296115 1.0302881 0.23217623 0.32023516 0.96204674 0.23700377
0.23616667 -0.5801439 -1.6061263 -0.8506788 0.33109617 0.30490983 2.0249882 0.5032113
0.2408129 -3.1827729 -1.5997939 0.1754595 -0.7436688 0.28079474 -0.009249716 0.26346728
0.3881354 -2.0470645 0.20049456 -0.8490961 0.91155607 -1.4466083 0.25030234 0.86207086

l4.weight f4 [256, 32]
00000000: 6034 3fbf 0a37 e4bd df7c 50be 30ca d5bf
00000010: f894 193e 2537 3f3f 28f7 403b 9a72 f3be
00000020: 84ec 843e 01cc f93d bccb c03e ec42 2f3d
00000030: 6cf1 e23e 4a74 4e3f 29a6 423d adb8 bbbe
00000040: f735 f6bd 530e c2be 38e7 0fbf a347 503e
00000050: b2ec 5abe 18d5 883e 3088 debe 79cc 83be
00000060: b75a 4dbe 2bb5 d23e ab89 55be 50bb 20be
00000070: f5dc d5be 7a45 d63c 9af7 f1be 5961 e4be
00000080: c029 653e 1c20 bb3d 27e8 eebd 7479 14be
00000090: 324e 1fbe a2f1 c8bd fd3f 16bf 73f6 5abb
000000a0: a0f2 d1bd 23cb 2b3e d75f a9be f269 183e
000000b0: 995c 4b3c da4b c13e b2ab 3ebc 5075 f03e
000000c0: 5340 be3e 54df f43e 8513 f43d df65 ee3e
000000d0: f690 a5bd 8087 513e 32e3 083e 5153 14be
000000e0: f147 e63e 255f 2d3f 9883 dd3d 38f4 1b3e
000000f0: 51ef 893e defa 1b3e c060 4bbc cfa5 213d
00000100: c927 63be b6b4 20bd 56bc 73be 0f0e 14bf
00000110: bf43 ecbd 8621 213f 0175 813e 1dfe 07bf
00000120: 844c f2be 268f 063e 8f1b 86be 7255 013e
00000130: 62ac 453d b7d3 d9ba 56c0 903d c4d9 263f
00000140: 6c6e ad3e 1d3d c43e 940d b93e b0c5 333e
00000150: 027c 52bd 1c2b 50be f36d 4abe c09c 213c
00000160: f903 bc3e 3239 b13e 4a22 cc3c 0218 7e3b
00000170: 0b31 f73c 6df1 973c c463 92ba 4b37 ad3d
00000180: 9dcc 163e e392 6abd 22a2 d83d 74e4 033d
00000190: abeb 933d 92f9 673e af00 0dbf 4f46 8cbe
000001a0: 15ca f1bd fa48 15be 3131 09be ee40 663c
000001b0: a154 ed3e 7931 3ebd 61f2 ccbe e17c 95bd
000001c0: 1a8d f6bd 4b77 14be 1024 293f 5661 a8be
000001d0: 2d71 ef3c 70cf 9a3d 6c77 d0be 0a95 d2bd
000001e0: 1f91 c83d f9d4 4ebd 3425 003e 5abd 2c3e
000001f0: 94d3 7bbd 1782 bc3d 4628 833e 00ff 12be
00000200: 431f 23bd 6d00 7bbd fb66 503e 6e9f a1be
00000210: 843f 2e3e e446 c43d 0bdf e9be 954b f0bb
00000220: 5c1b 193e 1680 493e 8e65 43be 1730 ae3e
00000230: 9e09 86be 7efe a73c 6c00 db3d 9edc 4a3e
00000240: 7ec5 443b 0dec 793d b8ca 263e c896 603e
00000250: a055 f6bd 58f3 b83e fad6 c93d b0c3 053e
00000260: f20b 53bc 2e9c a63e c8ed d83d 3bce 1f3c
00000270: 0e5b 0fbe d36c c23d a43c a93c 849d 26be
00000280: f4de 283e 198a 61bc 746b a03e 81ed 0f3e
00000290: 790a 1e3e 542c be3e 52d5 f6be 34f4 a63e
000002a0: a78b 6e3e 5b9f c03e 47fc 1bbe 07c5 0dbf
000002b0: 21c5 1dbe c057 22bf ad78 59be 1fa8 38be
000002c0: 83b2 3abf d0c1 9bbe e385 ad3d 98dc 04be
000002d0: f250 86bb de83 18be 2f34 d23e f337 73be
000002e0: 4b4f a4bf b42c 65be b9ca 143d 0732 4cbe
000002f0: 8912 0cbd ad9b 213d 8e48 01be de59 b8bd
00000300: d478 5a3d dee1 7e3c 1b34 ed3d 213d fdbe
00000310: ec6a 123e fbc7 12bd 79e7 22bf 8863 853e
00000320: 742b 2d3d 9a6a 8d3e b774 0bbf 8487 48be
00000330: a110 08bf 20ff b5be 17fa 6b3e d157 25be
00000340: d973 b1be e42b 3fbe 4c4e 0abf afb9 b8be
00000350: 2215 8a3e 6e7a 29bf 918b 6dbd 6574 f6be
00000360: 6f6f 6b3e 8740 1fbf 8308 d63c 0260 cebc
00000370: f6c2 f3bd 239f 3fbe 066f c3bd cab2 27bd
00000380: 7dab 0e3d 1265 22be 6aa4 cf3e 43f7 00bf
00000390: c14f fb3d 9215 013e 7da8 2d3a 573e 3dbf
000003a0: 12da 703e bf55 b4bd 3b1d 053d 4fd3 afbd
000003b0: 5d0f cebe 4a65 14be 41b9 a83b 128b 35be
000003c0: 89e3 bebd ee0c cd3d ffe8 4abe 791a b63e
000003d0: a858 b4bd 3f72 4dbd e0b0 b63d 533f 86be
000003e0: 0f66 2abe 5257 913e e732 1d3e c88e 8a3e
000003f0: f286 e6be 0449 bcbd 9679 ae3d 3452 da3d
-0.7468929 -0.1114331 -0.20360135 -1.6702328 0.14998233 0.7469352 0.0029444192 -0.47548372
0.25961697 0.12197114 0.37655437 0.04278843 0.44324815 0.80646193 0.047521744 -0.36664334
-0.12022012 -0.37901554 -0.56212187 0.20339827 -0.21379355 0.26725078 -0.43463278 -0.25741938
-0.20054136 0.41153845 -0.20853297 -0.15696454 -0.4177014 0.026156176 -0.47259218 -0.4460552
0.22379208 0.09136984 -0.11665373 -0.14499456 -0.15557173 -0.09811713 -0.5869139 -0.0033411055
-0.10251355 0.1677671 -0.33080932 0.14884165 0.012412214 0.37753183 -0.011637615 0.46964502
0.3715845 0.47826636 0.119177856 0.46562096 -0.0808429 0.20461845 0.13367918 -0.14484908
0.44976762 0.67723304 0.10816115 0.15229881 0.26940396 0.15232417 -0.012413204 0.039464768
-0.22183146 -0.03923484 -0.23802313 -0.5783395 -0.11536359 0.6294178 0.2528458 -0.5312212
-0.47324002 0.13140544 -0.261929 0.12630251 0.0482601 -0.0016618882 0.07067935 0.65176034
0.33873308 0.38327876 0.36143172 0.1755588 -0.051387794 -0.20328945 -0.19768505 0.009864032
0.3672178 0.3461395 0.024918694 0.0038771634 0.030174753 0.018547738 -0.0011168648 0.08457812
0.14726491 -0.05726899 0.105777994 0.03220029 0.072226845 0.22653797 -0.5507917 -0.2739739
-0.11806122 -0.1457862 -0.13397671 0.014053566 0.4635363 -0.0464339 -0.4002867 -0.072992094
-0.12038632 -0.14498632 0.6607065 -0.3288676 0.029228771 0.07559097 -0.40716112 -0.10282333
0.09793305 -0.050496075 0.12514192 0.16869107 -0.061481073 0.092045 0.25616664 -0.14355087
-0.039824735 -0.061279703 0.20351784 -0.31566948 0.17016417 0.09583834 -0.4567798 -0.007333229
0.14951843 0.19677767 -0.19081709 0.34021065 -0.26179212 0.020507094 0.1069344 0.19810721
0.003002494 0.06101613 0.16288269 0.21932518 -0.120280504 0.36123157 0.09855457 0.1306293
-0.012881266 0.3254103 0.10592228 0.009753759 -0.13999578 0.09493413 0.020658799 -0.16271025
0.164913 -0.013765835 0.3133198 0.14055444 0.15433683 0.37143195 -0.48209625 0.32608187
0.2329546 0.3762158 -0.15232955 -0.55378765 -0.1540723 -0.63415146 -0.2123744 -0.18032883
-0.7292864 -0.30421305 0.084728025 -0.12974775 -0.004099005 -0.14894053 0.41055438 -0.23751812
-1.2836698 -0.22380334 0.036326144 -0.19940959 -0.034197364 0.039455105 -0.12625334 -0.09001516
0.053337887 0.015556781 0.11582204 -0.494607 0.142986 -0.035835247 -0.6363445 0.260525
0.04227777 0.27620393 -0.5447497 -0.19582945 -0.53150374 -0.35546207 0.2304462 -0.1614678
-0.34658697 -0.18669087 -0.5402572 -0.36079165 0.26969248 -0.6620244 -0.05799443 -0.48135677
0.22991727 -0.62207836 0.026127106 -0.025192264 -0.1190242 -0.1871305 -0.095426604 -0.04094199
0.034831513 -0.15858868 0.40555125 -0.5037729 0.12271071 0.12605885 0.0006624533 -0.7392325
0.23520687 -0.08805417 0.03249858 -0.08585226 -0.40246096 -0.14491764 0.005149037 -0.17728832
-0.09320743 0.10012232 -0.19815443 0.35567072 -0.08805972 -0.05015778 0.08920455 -0.26220188
-0.16640495 0.28386933 0.15351449 0.27062058 -0.4502483 -0.09193614 0.085192844 0.1066021

l4.bias f4 [256]
00000000: 9454 e5bd 24e6 763d 467c ad3c af8d 3b3e
00000010: 284c 443e e45e 873e d1b7 3b3c e3a1 cc3e
00000020: a6c4 303e 325e c8bd 76b7 0cbe 26a8 babe
00000030: 03dd 523e f212 1abe e53b 803d d884 953e
00000040: 6bb3 fcbd 5dcd f7bd 97f0 ffbd debe 85be
00000050: 40c7 8e3e a254 87be 5bd4 433e 1c15 bcbd
00000060: 3011 a33e 2012 8ebd 671f 23be a5d6 883e
00000070: 8d39 c63e 22a4 3fbe b98f cf3d 4ad0 aa3d
00000080: 053b 9bbd 8e56 61bd 1d71 ae3e 8864 65be
00000090: db1a 05bd f236 80bd 6b07 6a3d f789 17be
000000a0: 0e41 ad3e f684 4f3e 6b8d fd3d 63bb 643d
000000b0: e221 6f3e d958 693d a621 503e c33c c0be
000000c0: 3012 48be 53ca 463d 9165 153e 33f4 163e
000000d0: 9c76 a53d 90f7 26be f284 913e 9a78 efbc
000000e0: ade2 973e 1628 8ebd 86d5 46be ec4c 873e
000000f0: 0030 1fbe a700 593e 5f63 423e c490 06bc
00000100: 9ac8 363e d751 2d3e 237d 3a3e aa5f 22be
00000110: 57b4 d3bd 9bae 203d 71c6 7ebe f54e 29be
00000120: 19e8 6e3c c6dc 4dbe ef95 2ebe 2b52 6fbe
00000130: 4b00 80bd 8628 353c d1c0 423d a41d b53e
00000140: 2c79 e13d 245c 74bc 77a4 cebe 2845 85bd
00000150: 5b64 a7bd 404b a5bc 129c f8bb a36d 73bb
00000160: 1699 5cbe 86e1 3c3c 31bd 463e 8acc 8d3e
00000170: ca46 b23b 7a0d a43d 5101 453e e8a8 f23d
00000180: 920a 7fbe 1623 af3e 2452 c2bd a10a 0dbd
00000190: 44a6 58be 04dc 863d 0040 453e e95e b03e
000001a0: 3160 8c3d f727 a2be 6191 4abe 4a74 90bd
000001b0: a530 2cbe e4ff 883e f0c4 28be d1be 413e
000001c0: 2ac5 fb3d dc1b 8c3b 2477 1cbe eb50 403d
000001d0: 9048 64be b8b9 5dbe 907a 4cbe 6b16 ec3d
000001e0: 0fcc 7d3e c6ce a0bc c9c2 1ebc 6749 813d
000001f0: c91e 46be ff15 883e 917c 0e3e 9777 a83e
00000200: 3d72 e6bc d58c 8bbe 25d3 013e cea6 debd
00000210: e871 d03b 9bf5 7f3b c5dd 1fbd 77eb 543e
00000220: f40d 993d d038 ebbd 6163 57be f989 7fbd
00000230: 5446 a3bd c0fb 2bbe 4909 4e3e 8b8e 2b3d
00000240: 8206 17be 05ed 8c3e 6be8 a5bd 0b6b 81be
00000250: 31a3 503d 5ac0 9f3d 6097 633e c06b dd3e
00000260: 1989 153e a4e6 923e be09 fd3d fb7a 4b3e
00000270: cdef 8c3e 3103 543e c515 833e e835 56bd
00000280: d537 593d 4d27 a33e 3df4 8ebe fb81 773e
00000290: b27d 833e e8c4 8ebc 1a84 013e ec30 d3bd
000002a0: 3762 9c3e baed a8bd cc7b 06bd c47b f83d
000002b0: 28d2 2ebe e058 3e3d ee97 bf39 2658 4c3e
000002c0: b2f1 9b3d f694 c03d e22f b4bb 74fa 883e
000002d0: acd4 183d 0dae ffbd 7502 d8bd c0de 5b3e
000002e0: 19f5 c53d 775c bdbd 8b9b 4abe 364f a5be
000002f0: ef6b 9c3b ddfe de3e 5c53 a1be fb2d 1f3e
00000300: ccf3 173b a4eb 77be 5af3 81bc 66a3 07be
00000310: 60e4 88be a1d5 033e 078a 543d 9817 95bd
00000320: f00d 03be d891 0c3d 4a32 8fbe e73b 10be
00000330: 3ed5 6ebd 042b 35bd 72e9 70be a41f 0f3e
00000340: c184 9abd 0227 343e 0bbb 90bc d61e 7039
00000350: b813 0fbd 1528 b1bd e9d4 dbbd 8024 573e
00000360: ad62 bcbe 8a11 db3d 4a1f 383e b446 273e
00000370: 8717 c43d dc37 953e 39e8 abbe e2df 1c3c
00000380: cbcf 6f3e b38a f23c caac 083e 13dc 38be
00000390: e521 1d3e 33db 013e 9437 033e a576 253d
000003a0: b9cd 473e d1d1 893e 94f6 80be 0386 7cbe
000003b0: 5801 22bd 7966 b33e c7a2 013e c026 883e
000003c0: afc2 473e 0cee 5bbe 9856 293e 154d c93d
000003d0: b2d3 91be b4b0 c03d 54da d63e 5001 8ebe
000003e0: b041 c43e dac4 9d3d 4072 373e edba f0bd
000003f0: 2e65 a63e 2b31 bebd d97b 68be 1fc9 52be
-0.111977726 0.060278073 0.021177422 0.18315767 0.19169676 0.26439583 0.011457399 0.3996726
0.17262515 -0.09783591 -0.1374186 -0.36456412 0.20592122 -0.1504629 0.06261424 0.29202914
-0.12338909 -0.12099717 -0.12497061 -0.26122183 0.2788639 -0.26431757 0.19123976 -0.09183714
0.3184905 -0.06937051 -0.15929948 0.2672626 0.38715783 -0.18714955 0.10134835 0.08340509
-0.075796165 -0.055014186 0.34070674 -0.22401631 -0.032496314 -0.0626048 0.05713598 -0.14798723
0.33838695 0.20265564 0.12380489 0.05584277 0.23352769 0.056969497 0.20325336 -0.37546358
-0.19538188 0.048532795 0.14589526 0.14741592 0.080792636 -0.16305375 0.28421742 -0.029232312
0.29665127 -0.069412395 -0.1941739 0.26425874 -0.15545654 0.21191655 0.1898322 -0.008213226
0.17849961 0.1692575 0.18211798 -0.15856805 -0.103371315 0.039229017 -0.24880387 -0.16534026
0.014581704 -0.2010375 -0.17049383 -0.23371188 -0.06250056 0.011057025 0.047547165 0.35374177
0.1100944 -0.014914546 -0.40359852 -0.06507331 -0.08173438 -0.020177484 -0.0075869644 -0.0037144206
-0.21542773 0.011528378 0.19408108 0.27695113 0.0054405676 0.08010383 0.19238783 0.118486226
-0.24906376 0.34206456 -0.09488323 -0.034433965 -0.21157175 0.065849334 0.19262695 0.3444741
0.068542846 -0.31671116 -0.1978202 -0.070534304 -0.16815431 0.2675773 -0.16481376 0.18920447
0.122934654 0.004275782 -0.15279824 0.04695217 -0.22293305 -0.21652877 -0.19968629 0.115277134
0.24784873 -0.019629847 -0.009689995 0.063128285 -0.19347681 0.26579282 0.13914706 0.3290374
-0.028130645 -0.27255884 0.12678201 -0.10871659 0.006361235 0.0039056304 -0.039029855 0.20792948
0.074733645 -0.114854455 -0.21034004 -0.06238744 -0.079723984 -0.16795254 0.2012073 0.041883986
-0.14748576 0.27524582 -0.08100971 -0.2527698 0.05093688 0.0780036 0.22225714 0.4324627
0.1460308 0.2869159 0.12355374 0.19871132 0.27526703 0.20704342 0.25602546 -0.052297503
0.05303176 0.31865922 -0.27920714 0.24170677 0.25681835 -0.017427877 0.12648049 -0.103120655
0.30543682 -0.08248468 -0.032832906 0.121329814 -0.17072356 0.046471477 0.00036543555 0.19955501
0.07614459 0.09403412 -0.005498872 0.2675358 0.037312195 -0.124843694 -0.10547344 0.21471691
0.09665889 -0.09246152 -0.19785897 -0.32286996 0.004773609 0.4355382 -0.3150891 0.15544884
0.0023186086 -0.24210984 -0.01586311 -0.13245925 -0.26736736 0.12874462 0.051889446 -0.07279891
-0.12798285 0.034318775 -0.27968055 -0.14085351 -0.058308832 -0.044230476 -0.23526552 0.13976914
-0.07544852 0.17593005 -0.017667314 0.00022899671 -0.034930915 -0.08650223 -0.10733969 0.21010017
-0.36794034 0.10696705 0.17980686 0.16335565 0.095748 0.2914418 -0.3357561 0.009574862
0.2341911 0.029607153 0.13347164 -0.18052702 0.15344961 0.12681274 0.1281417 0.04039635
0.1951207 0.2691789 -0.25188124 -0.24660496 -0.039552063 0.35039118 0.12659751 0.26592064
0.1950786 -0.21477526 0.16536939 0.09829155 -0.28481823 0.094087034 0.41963446 -0.27735376
0.38331366 0.07703562 0.17914677 -0.11754403 0.3249907 -0.09286722 -0.22703494 -0.20584534

l5.weight f4 [256, 256]
00000000: 8fed a93e 5762 b1bd 6c45 803e ae50 0fbe
00000010: 3f93 593d 738f 99be a381 4fbe fc16 06be
00000020: a947 b33e b9db 0c3e f6e8 69bd 9294 cd3e
00000030: 33d3 f43d 5717 8d3e 0db2 11bf 7f67 893e
00000040: 6ecc f63d 548c 46bc baff 96bd 569d 543f
00000050: 6be3 4c3e 7498 ba3e 2090 bcbe 49f4 2040
00000060: 3430 dcbe 291b f23e 549b 90be c7c9 aa3c
00000070: b0ba cabb faa2 ea3c 3730 b23b 603a 993e
00000080: 432d 81bc 463e 33be 7e28 bcbf c78b 273e
00000090: 2feb 843d 7d05 c73e bf46 363e 86bd 293e
000000a0: 40a0 68bd 82e5 373e 5397 3a3e 97e3 7d3d
000000b0: 9447 263f 8296 9bbe 5375 a43d 4e99 213f
000000c0: 86b9 03be 54a3 fb3d 39b2 433e 237b dbbd
000000d0: 3245 743e a614 0f3c 6908 923c bdb8 68be
000000e0: c944 913d 46d9 0d3e b3f8 20be 510c d83d
000000f0: e43a 9b3d 9980 303d 657e 3b3d 227b 8e3e
00000100: 8442 69be 8f63 84bd 49cc 453f 2b9d f63e
00000110: 443f 15bf e7da 133f 67d8 cebc 3f9b d23e
00000120: 527c d23b 9897 d5be 725f 0b3c 3930 8a3e
00000130: be87 9d3d d72e d9bd 9921 1abd 4f27 94be
00000140: 5403 25be 8020 4fbe c311 263f b1eb a03d
00000150: 25c2 44bb e442 573d ef4e f13d a8ab 2f3d
00000160: 7e92 523d 264a e43e ac27 62be bc48 d1bc
00000170: ac95 583e 70ca 40be 7881 b73d 7898 8fbe
00000180: 5f3a cebd b343 3d3e d13e 3d3e e64f 323e
00000190: 73ca 343e 8a38 e5bc f2c1 febd 01dc af3d
000001a0: aec6 993e 5ad3 66be f444 49bc 2c26 ab3e
000001b0: e17d d9bd ab9a f93d eac5 9abe 6a5b a33d
000001c0: ccfd 7ebd c0db 633d eef1 2f3d 8f78 2bbd
000001d0: 35f5 7c3e 5486 dd3d a503 563e aeb4 0abd
000001e0: 4777 14be ecbe fdbc b842 563e 8866 00be
000001f0: 0b91 7ebd 44e9 08be 3dab 12bf 3d3c 7d3f
00000200: d860 75bd 5ec5 e93d 3d27 86bf d0b1 323e
00000210: d64a c33d 2bbf 31be 8aa4 b23d 6547 2abe
00000220: 5fa5 9f3c 6964 063e 497e 603b 34b2 213e
00000230: 6bda 5dbf fa91 8cbe f379 53bf 81fe abbc
00000240: 306f 53be 0376 4f3d 5595 263e 3ec8 8fbf
00000250: ee10 0e3f 5ecf 11bf 25f5 d8bf 613d a2bd
00000260: f251 0cbe cb4b 66be 1aba cf3d 1f02 89bd
00000270: db0b a1be bd1f c3bc a0ef 5fbf 5ade 77bf
00000280: a854 35be 2e7f 1bbf a2f9 8a3e cfe5 96bd
00000290: 7ec3 3cbe ea8f 9a3e 8554 013f aacc 9b3e
000002a0: 6398 153e 6d34 64bc f290 80bc c358 803d
000002b0: bf7c 0e3e 9625 b2be 246f 873e 4f45 42bc
000002c0: 0a22 523d 298d ec3c bb97 cd3d 72c7 a03e
000002d0: f408 bfbe 6215 7dbe 6fa8 073d dec8 0dbd
000002e0: 7fd2 c4bc c2e6 d4bc 3f79 b0be 8324 8d3f
000002f0: a66d ccbc 85ce d6bf d87b 2d3f 7483 b6bc
00000300: 9c49 613c 0b2d 89bd 1eaf 87bd 879a d33e
00000310: ff91 03bb abec e7be b944 403f a6d0 05bd
00000320: 143a 053e 58af 0e3e f5d1 a83e 9f37 a23d
00000330: 5d8f be3e 45f5 923d 7194 d5bd c1c2 30bf
00000340: 00ef 35be 4eb0 543e 70e6 883d 21f5 ecbd
00000350: ea1e 13be 37e5 89be b232 58be a5c2 453d
00000360: 9e1a 303d c610 143d b5e7 383e a0b4 c2be
00000370: 23b3 7c3e f7d2 8b3e c868 233f 33e4 50be
00000380: 5432 a43d 47ae a73d 03b3 d0be 67d5 5ebc
00000390: 879b 36bd 29e5 13be f515 91bd 7583 c4bf
000003a0: 72a1 183f 4c5d 4abe af66 cb3e 2844 86be
000003b0: 6848 02be 01b3 c7be 9d72 e4bd 7750 21be
000003c0: 7491 8a3c f1c0 8a3e d50f 09bf 8059 023d
000003d0: 40b2 803c 04ca bebd dc22 e9be 779e f0be
000003e0: c5ca 12bd 0ef7 843e 73cc e1bc 3c04 a3be
000003f0: 2c9f 57be 060b 8bbb 18e7 903d d1c6 163e
0.33189055 -0.08661335 0.25052965 -0.1399562 0.05311894 -0.29992256 -0.20264296 -0.13094705
0.3501561 0.13755693 -0.057106934 0.40152413 0.119543456 0.2755687 -0.5691231 0.26836774
0.120507106 -0.012118418 -0.07372995 0.83052576 0.20008628 0.36444438 -0.3682871 2.51491
-0.43005526 0.47286347 -0.28243506 0.020848168 -0.0061868057 0.028642166 0.0054378766 0.2992735
-0.015768653 -0.17504224 -1.4699857 0.16361915 0.0649017 0.38871375 0.17800425 0.16576204
-0.05679345 0.17958644 0.18221788 0.061984625 0.6495297 -0.30388266 0.0803019 0.6312455
-0.1286374 0.12287012 0.19110955 -0.10716846 0.23854521 0.00873295 0.017826276 -0.22726722
0.07093198 0.13852414 -0.15719871 0.10549224 0.07579592 0.04309139 0.045774836 0.27828318
-0.2277928 -0.06464302 0.7726484 0.48166785 -0.5829966 0.57755893 -0.025249673 0.41134068
0.0064235115 -0.4171722 0.008506643 0.26989916 0.076919064 -0.10604637 -0.037629697 -0.2893624
-0.16114551 -0.20227242 0.6487085 0.078574546 -0.0030022946 0.052554026 0.117826335 0.042888314
0.051409237 0.4458782 -0.22085446 -0.025547378 0.21150845 -0.18827224 0.08960241 -0.28046012
-0.10069727 0.18482856 0.18480994 0.17413291 0.17655353 -0.027981061 -0.12439336 0.08586884
0.30034393 -0.22541562 -0.012284506 0.3342756 -0.106197126 0.12187704 -0.3022912 0.0797642
-0.06225376 0.05562949 0.04295533 -0.04186302 0.24702914 0.10816637 0.20899828 -0.033863716
-0.14498626 -0.030974828 0.20923889 -0.12539113 -0.062150043 -0.13370234 -0.5729254 0.9892004
-0.05990681 0.11414598 -1.0480725 0.17450643 0.09535758 -0.17358081 0.087227896 -0.16628797
0.019488035 0.13124241 0.003425496 0.15790635 -0.86661404 -0.2745512 -0.82607955 -0.02099538
-0.20647883 0.050649654 0.16267903 -1.1232984 0.5549458 -0.5695704 -1.6949812 -0.07921863
-0.13703135 -0.2248985 0.10142918 -0.06689858 -0.31454358 -0.023818845 -0.87475014 -0.96823657
-0.17708075 -0.60740936 0.2714358 -0.07368051 -0.1843395 0.30187923 0.5051959 0.30429584
0.14608912 -0.013928515 -0.015694115 0.0626693 0.13914774 -0.347943 0.2645198 -0.011857345
0.051301993 0.028875904 0.10038706 0.31402165 -0.37311518 -0.24715188 0.033119615 -0.03461539
-0.024026154 -0.02598894 -0.34467503 1.1026767 -0.024954628 -1.6781775 0.67767096 -0.022279479
0.01375046 -0.066980444 -0.06625198 0.41328833 -0.0020076034 -0.4529775 0.7510486 -0.032669686
0.13010436 0.13934076 0.32972685 0.07920765 0.37218753 0.07175688 -0.104287036 -0.6904717
-0.17766953 0.2077038 0.066845775 -0.11570192 -0.14367262 -0.2693269 -0.21113089 0.04828133
0.042994134 0.03614881 0.18057139 -0.3802843 0.2467771 0.2730939 0.6383176 -0.20399551
0.08017412 0.08187538 -0.40761575 -0.013600684 -0.044581916 -0.14442886 -0.07084266 -1.5352618
0.59621346 -0.19762152 0.3972678 -0.26223874 -0.12722933 -0.39003757 -0.11154673 -0.15753351
0.01691506 0.27100328 -0.5353978 0.031823635 0.015709996 -0.09315875 -0.45534408 -0.469959
-0.035837907 0.25969738 -0.02756331 -0.31839168 -0.21056813 -0.0042432575 0.07075328 0.1472428
