p2/TD3_BC_HalfCheetahBulletEnv-v0_5678_0.25.pth (torch, 898791 bytes, 16 tensors)

l1.weight f4 [256, 32]
00000000: 9196 f7bd 9cc8 b7bd 04c5 0f3e 51c1 953f
00000010: f6ed 14bc 7279 2a3f 1674 89bb f737 a6bd
00000020: d8ed 3f3e 7ed5 ccbe dd36 8abe 6a34 02bd
00000030: bbb9 8dbe c4b4 2abe 298c bb3d dab2 ba3e
00000040: 5255 a2be efb1 39be 8b33 a7bd 8b01 92be
00000050: 88fc f03d f564 a0bd 9e23 99be 113b 9bbd
00000060: 3129 c9bf e996 42be d409 e4bc fd2a 79bd
00000070: 01e2 013d 8c00 b8bc fc68 cebc e255 043d
00000080: 35d2 553e c835 e6bd 6cc5 603e 8cac 9a3e
00000090: eb0f 263e eb2a 933d 40a2 83bc 412d 8bbe
000000a0: 53d3 65be 1410 b33d ffa6 f4bd f470 26be
000000b0: 38f7 033c 2e4b 03bd 98e9 3bbd 48cf edbd
000000c0: d807 4b3d e115 cdbc f6c9 2fbe 138c 813d
000000d0: 2393 833e 5201 68bb db9e 163e aba2 963d
000000e0: 0e05 aabe 7d10 22be cdc5 fb3d e52a 85be
000000f0: c36b f7bd 70a8 adbd 65b6 433e 8aad 533d
00000100: 3c0b 863e ef6d 243e 40f9 8ebc 2f5d 0e3f
00000110: 6d93 a53c a4f3 82be cde9 75bf b289 4bbf
00000120: 7aee 1fbf de20 67bf 1e8c 873e 8663 94bd
00000130: 177c 703d 5a2f f43d 259f e7bd d3ee 0b3d
00000140: 4f5e e1bb 5520 4ebe b324 6dbe b816 85be
00000150: 6e91 aebe 687b 90be aa1f 793c be6a bf3e
00000160: 81eb 8fbe 3fbf ed3d b550 30be 8dd3 7c3e
00000170: 0a7f 3b3e 1cbe 8b3e 59ec f7be cdae ffbd
00000180: 04f1 eb3b 6e5d fcbc dba6 aebd e7aa 71be
00000190: 919d 8c3d bf57 b9be cb43 273f b604 de3e
000001a0: 16c2 b93e 0237 9e3e a997 0fbe 2674 82be
000001b0: bbbe a3be 8da1 06bf acde 3bbf 464a 433e
000001c0: 73a1 36be 239c 80bd 9b32 d93d aa1e 8fbe
000001d0: e99b 62be d09b 5fba a6b5 993e cc30 0a3e
000001e0: b191 bcbe d0cd 203e 0b03 dcbc 18db e63d
000001f0: d0d9 c2be f2a4 3f3e 76b7 cd3d 350d 73be
00000200: 3df0 363f 3a6b 113e 037a 933a 73d6 19bf
00000210: e7ba e23d 98d7 eb3f db5a 81be 19fd 0a3f
00000220: a2b5 7f3e dfca a83f 6cae 58bf 2e5a 613f
00000230: 0bf9 8a3d 5bc3 ccbe 333d b7bc 5f38 afbe
00000240: 7cec 63be 5116 bebe bc18 9ebe 6fe4 a4be
00000250: 0c39 88be bfdf 1d3e faeb 1e3e 5839 05be
00000260: 386c 043e d0e0 94bf 2d04 97bb af26 6b3e
00000270: a44e dbbe eb30 24bc b2d4 6a3c 5ecb a3bb
00000280: 51a5 76be 2193 02be 76ba 1dbe c258 063d
00000290: 3ebf 9bbd b2ca e0be e68a eebe 4f21 27bc
000002a0: cd89 9c3c 0a4a d7be 1b1b 7e3e e65b 25bf
000002b0: 867b e43d a61b a93e 4320 e63d 014c aabe
000002c0: ac03 683c 9494 bfbe 96d1 1d3f e5d4 63be
000002d0: 467f 2abe f565 063f a3aa 1a3e 9d52 573e
000002e0: c0d7 27bf 4dab 6e3e 678f 2ebe d3db acbe
000002f0: d5a8 35be ecb6 69be 9fce 8a3e 760e 23bb
00000300: a4ca 3c3f 7f00 0abe 1cd0 1b3e f6b1 ab3e
00000310: 035e cabd 5bdd 77be 6b49 dfbc cd42 cebd
00000320: d41e d3bd 1d5c a63e 20eb 6abe c06a 493e
00000330: 43bf d7be d003 523e 1fae e03d 00f9 fd3e
00000340: 985b 82bf a526 8d3e 9898 403e b237 ccbd
00000350: 3cdf 8cbc 9a9d 5dbe e4c3 7b3e f56e 553e
00000360: b7c0 903e a144 95bd ac34 c73c f9c4 f53c
00000370: 43a1 d23d c4dc f8bc b688 6bbc 527f 8c3c
00000380: 6714 043e 0e16 c1bd 9f5c 013e 9232 b1bd
00000390: 1d06 ac3d 4bd4 eb3e 67f8 04bf 6aa8 45be
000003a0: 263c 4d3e 3aec 72be 6ab8 aa3e 4d0f d9bc
000003b0: 25b7 253e 171e 443d 66a0 a93e 1ce8 f83a
000003c0: d81f 32bf c6f3 a4bd f437 043e b479 53bd
000003d0: 0adf 533d b0f6 9e3e cdd7 ffbe e982 513d
000003e0: 0e61 14bf 3d4b c63d 21b5 883b f5a1 cabc
000003f0: d808 fcbb b88d 6bbd 171c 9cbd e6b0 a53c
-0.12089265 -0.0897381 0.14039999 1.169962 -0.009089937 0.6659156 -0.0041947467 -0.08116143
0.18743074 -0.40006632 -0.26994982 -0.031788267 -0.27680764 -0.16670519 0.09157593 0.36464578
-0.3170572 -0.18134283 -0.08164128 -0.28516802 0.117669165 -0.07831756 -0.29909986 -0.075796254
-1.5715696 -0.1900288 -0.027836718 -0.060832012 0.031709675 -0.022461198 -0.025196545 0.032308467
0.20880969 -0.11240727 0.2195031 0.30209768 0.1621701 0.0718592 -0.016068578 -0.27182963
-0.22443895 0.08743301 -0.119459145 -0.16254026 0.008054547 -0.03205412 -0.04587707 -0.116118014
0.049568027 -0.025034847 -0.17166886 0.06325545 0.25698194 -0.0035401178 0.14709036 0.07355245
-0.3320698 -0.15826602 0.12293587 -0.26009288 -0.12081101 -0.084793925 0.19112547 0.05167917
0.26180446 0.16057561 -0.017452836 0.55610937 0.0202119 -0.25576508 -0.96059877 -0.7950698
-0.6247326 -0.90284526 0.26474088 -0.07245545 0.05871209 0.11923094 -0.11309651 0.034163307
-0.0068776975 -0.20129521 -0.23158531 -0.25993896 -0.3409533 -0.28219151 0.015205303 0.37386125
-0.28109363 0.11608743 -0.17218287 0.24690075 0.1831018 0.2729348 -0.48422506 -0.124845125
0.007200362 -0.03080627 -0.08527919 -0.2360035 0.06865991 -0.36199757 0.6533782 0.4336297
0.36280888 0.30901343 -0.14022698 -0.2547924 -0.31981453 -0.52590257 -0.73386645 0.19071302
-0.17835025 -0.06279781 0.10605355 -0.27953082 -0.22129788 -0.0008529993 0.300214 0.13495177
-0.36829904 0.15703511 -0.02685692 0.112722576 -0.38056803 0.18715265 0.10044758 -0.23735507
0.71460325 0.1420106 0.0011251572 -0.6009285 0.11070805 1.8425169 -0.2526463 0.54292446
0.24971631 1.3186911 -0.84641147 0.8802823 0.067857824 -0.39992794 -0.02236805 -0.34222695
-0.2225818 -0.371264 -0.30878246 -0.3220553 -0.26606023 0.15417384 0.15519705 -0.13010156
0.12931907 -1.1631107 -0.004608652 0.22963975 -0.42833436 -0.010021429 0.014332937 -0.0049986085
-0.240865 -0.12751438 -0.1540316 0.03279949 -0.07604836 -0.43904644 -0.46590346 -0.0102008125
0.019108677 -0.42048675 0.24815027 -0.6459335 0.11156373 0.33028907 0.11236622 -0.3326111
0.014161032 -0.37418044 0.6164793 -0.22249182 -0.16650113 0.52499324 0.15104155 0.21027608
-0.65563583 0.23307534 -0.17046891 -0.33761463 -0.17740186 -0.22823685 0.27110764 -0.0024880446
0.73746705 -0.13476752 0.15216106 0.3353421 -0.098812126 -0.24205534 -0.027256688 -0.10071335
-0.103086144 0.32492152 -0.22941256 0.19669628 -0.4213811 0.20509267 0.10970711 0.49604034
-1.0184202 0.27568546 0.1880821 -0.099715605 -0.01719629 -0.21642151 0.24586445 0.20843108
0.2827203 -0.072884806 0.024317108 0.03000115 0.102846645 -0.030378707 -0.014375856 0.017150555
0.12898408 -0.09428035 0.12632988 -0.08652224 0.083996035 0.46060404 -0.5194153 -0.19302526
0.20042476 -0.23722926 0.33343822 -0.026496554 0.16183145 0.04788026 0.33130187 0.0018990072
-0.6957984 -0.080543086 0.1291197 -0.051629737 0.05172638 0.31047583 -0.4996933 0.051150236
-0.57960594 0.09682319 0.004171983 -0.02473543 -0.007691484 -0.0575082 -0.07622545 0.020225953

l1.bias f4 [256]
00000000: b4a6 f63c cdef b73d c3e8 303c 7a59 793c
00000010: 1448 01be 4f15 96be 8dd9 2bbe 1e2f 813d
00000020: 2054 5b3e 89c3 49bd 4036 11be d8e4 913d
00000030: 3002 1e3e 7533 52be 2736 1cbe fe7b 4f3e
00000040: c9b6 48bc 6cbf 87be 2d90 4b3e 182d efbd
00000050: 0236 843d 9fac 173e b30b 9a3d 1f38 463e
00000060: 66ba 8abd eada 313e 053b 583e b57d c43d
00000070: 1ce4 453e e3ad 073e 487e 3c3e 4cdf 9abd
00000080: eb7f 923e c343 86be 2bdc e6bd ac74 f9bd
00000090: 9d1f a33e 5962 e4bb 3d49 5fbd 6b36 633e
000000a0: ea2a 84be 161c 33be 6087 473e cd15 98bb
000000b0: 5495 32be 2118 893d e270 07be a0ca 9fba
000000c0: 6a6a 933e ecf3 e03c 81c4 a2be 85a1 6cbd
000000d0: 6b37 13be 6bd1 82be 5920 993e ae41 77be
000000e0: e51f b9bd a23f 4b3d bae8 a13e 0674 67be
000000f0: b973 983e b163 99bc f7ca 94bd 0112 8f3e
00000100: 2d26 953d ff01 0e3e 22ed 36be 5070 18be
00000110: 66d8 5d3e c0d2 2f3e 5330 643e 3c22 8ebe
00000120: 4066 773e b61a 9a3e abd7 debb 41a4 1ebd
00000130: 1196 a1bd 8e39 4ebd fda4 1ebe 16b0 6dbe
00000140: 1947 d53d 002a 3dbc 84eb 7b3d f9bc 263d
00000150: 0985 b83e ee0b 223d 0af8 953b 1948 26be
00000160: 2358 aabd ae80 753c c191 aa3e e9cb 263e
00000170: 3e44 7d3e 163e d33d e8d2 bd3d f7c7 97bd
00000180: 87d9 e8bb 41e1 2c3e dbe4 8abc ba24 27be
00000190: c984 003e 4ef0 fdbd 8e1e 4abe 309c 0dbe
000001a0: 7715 3bbd de21 57bd 6032 e83d 90df e73d
000001b0: 8f36 3f3e 290c 38bc 73ad 8bbe 49b2 51be
000001c0: 277c 6abe ac0e 253e 84bf 42bc b564 d53d
000001d0: 190a bbbd 10ef adbd c7f5 a2be ac8c c93d
000001e0: e4fc 06bf e65b 463e 6ed8 9dbd 42c0 95be
000001f0: ee19 86be 6396 853d 5c84 153a 9c5f 7bbe
00000200: fe14 053e d085 133e 71f3 7cbe d656 f0bd
00000210: 2e3d e3bc a41f 3d3e 693c 3abe 953f f73b
00000220: 0a50 833d 85a8 c23c dbab 90be ad56 7dbe
00000230: c1c5 703e 75fa 8cbe e09b d5bd b289 3c3e
00000240: 159c 563e a6a2 073e f829 a4bd eebc f6bd
00000250: cac0 2dbe 5b3d 673e 5f45 debd 733e b6be
00000260: afcc 153d f570 363e 4cc1 373b d0ea 62bc
00000270: 71b6 d83d 6256 e0bd 6d35 79be e5a2 6d3e
00000280: 84ee 103e d855 7f3e e979 01bf 7e51 91be
00000290: 78ba 5e3c 666c 113e 50e8 13be afd3 2abe
000002a0: 0780 6fbe a3e1 b1be 50ef ae3d 4c53 37be
000002b0: 8dfd 4e3e 7cdc 363d 92b1 d9bd 815d 9e3e
000002c0: 91bd d43d e643 98bd df2d 0d3e 9d84 30bd
000002d0: a31d 983d fd2f 6a3e 0121 03bd 6b89 133e
000002e0: 4d92 26be 89b8 4fbd 8404 2cbe 583d 913e
000002f0: 3d7c 92bc f7ce 363e 7fb3 083e 8731 9d3e
00000300: 9855 8ebe fab1 a4be f5d7 fe3d f606 7fbc
00000310: 8469 da3d 13e7 9e3e 72d4 853d a282 5b3e
00000320: 7c61 033e fa3b 643e d5c7 73bd 7fc8 1f3c
00000330: 7714 d5be 89c9 7c3e 9d43 173e ce88 353e
00000340: 5b40 743d 2c35 86bd 03dc 9d3e 416b 1dbe
00000350: 1cfe 6b3e fc23 4cbe e758 95be 65cd 16be
00000360: d9b8 4c3e 2854 833e 642b 903e 13b9 ee3c
00000370: 6877 b53d 4a67 703e a20d 3abd f7da e5b9
00000380: a474 0dbe 8537 cabc 1f84 183e bd7b d6bc
00000390: 4c80 e93d fb4f 1dbe 26a8 eb3d 6456 1ebe
000003a0: 4ae0 353e fe3e 903d 49a6 653d fd60 d03d
000003b0: 9001 863e ae37 3cbe 09b0 c33d f7d7 253e
000003c0: 8797 e13d 34ee a93e 98ad bf3e 097f 61be
000003d0: 9a4a 55be 4e75 493c 73db 2abd 5068 fa3d
000003e0: 0daf bc3e 11fb af3c af18 163e b91d 3dbd
000003f0: 153b 2b3e ce05 173e 9911 b33e 23d8 333d
0.030108787 0.08981285 0.010797682 0.015219087 -0.12625152 -0.29313132 -0.16782208 0.06307815
0.2141881 -0.049258742 -0.14180851 0.071237266 0.15430522 -0.20527442 -0.15255032 0.20262143
-0.012250611 -0.2651323 0.19879217 -0.11678523 0.06455614 0.14811943 0.07521763 0.19357346
-0.06773834 0.17368665 0.21116264 0.09594289 0.19325298 0.13249926 0.18407547 -0.07562122
0.2861322 -0.26223573 -0.112724625 -0.121804565 0.31860057 -0.0069697318 -0.054513205 0.22188728
-0.2581399 -0.17491183 0.19485235 -0.0046412707 -0.17439777 0.06694055 -0.13226655 -0.0012191124
0.28792125 0.027460061 -0.31790546 -0.057771225 -0.14376609 -0.25550398 0.29907492 -0.24146149
-0.090392865 0.04962123 0.3162287 -0.22602853 0.2977579 -0.018724294 -0.07265275 0.27943423
0.07282672 0.13867949 -0.17863896 -0.14886594 0.2166458 0.17170238 0.22284059 -0.27760494
0.24160099 0.30098504 -0.006800612 -0.038730863 -0.07889951 -0.050347857 -0.15492626 -0.23211703
0.104139514 -0.011545658 0.061503902 0.040707562 0.36038998 0.03956216 0.0045766877 -0.1623844
-0.08317592 0.014984293 0.33314326 0.16288723 0.24733064 0.10314576 0.09268743 -0.07411187
-0.0071060094 0.16882803 -0.01695483 -0.16322604 0.12550654 -0.1239935 -0.19738218 -0.13829112
-0.045674767 -0.052522533 0.11337733 0.11321938 0.18673156 -0.011233368 -0.2728077 -0.20478167
-0.22898923 0.16118878 -0.011886481 0.10419599 -0.09132785 -0.08492863 -0.31828138 0.09841284
-0.5272963 0.19370994 -0.07707296 -0.29248244 -0.26191658 0.065228246 0.0005703622 -0.24548191
0.12996289 0.14406514 -0.2470224 -0.11735313 -0.027739134 0.18469101 -0.18187107 0.0075454214
0.064117506 0.023761997 -0.28256115 -0.24740095 0.23512937 -0.27534834 -0.104301214 0.18411902
0.20957978 0.13245639 -0.080158174 -0.12047754 -0.16968074 0.22581999 -0.10853075 -0.3559452
0.036572155 0.17816527 0.0028038798 -0.013849929 0.10581673 -0.10953976 -0.24336787 0.2320667
0.14153486 0.2493509 -0.50576645 -0.28382486 0.013594262 0.14201507 -0.14444089 -0.16682313
-0.23388682 -0.3474246 0.08541739 -0.17902869 0.2021391 0.044643864 -0.10629572 0.30930713
0.103877194 -0.074348256 0.1378703 -0.04309522 0.07427528 0.22869869 -0.032013897 0.1440789
-0.16266747 -0.050713096 -0.16798598 0.28367114 -0.017881507 0.17852388 0.13349722 0.3070185
-0.27799678 -0.32167035 0.12443534 -0.015565624 0.10664657 0.3103567 0.06534661 0.21436551
0.12830156 0.22288504 -0.059516747 0.009752392 -0.41617176 0.24686255 0.14771886 0.17727968
0.059631687 -0.065531105 0.30831918 -0.15372945 0.23046154 -0.19935602 -0.2916939 -0.1472679
0.19992389 0.25650144 0.28158104 0.029140985 0.088606656 0.23476902 -0.045423158 -0.00043841425
-0.13814026 -0.024684677 0.1489415 -0.02618205 0.11401424 -0.15362541 0.11506681 -0.15462643
0.1776134 0.07043265 0.056066785 0.10174749 0.26173067 -0.18380615 0.095550604 0.16195665
0.1101523 0.33189547 0.3743713 -0.22021116 -0.2082924 0.012296034 -0.04171319 0.12226927
0.36852303 0.021482022 0.14657854 -0.046170924 0.16721757 0.14748308 0.34974363 0.043907296

l2.weight f4 [256, 256]
00000000: 86cd 443d ca65 173e 3817 e6bc fbc8 243e
00000010: 7927 bebe e098 363d fe40 073c a1a4 7abe
00000020: 318b ae3b b53a 1b3e 1d71 2c3e ad15 323e
00000030: a3f1 dabd 5020 953e 1061 9e3c 56f6 9f3d
00000040: 4e9f 843e 45b6 8e3e 7d51 153e 1926 d83d
00000050: 932e a33e 4f02 d53d dcc3 383d 3358 ac3d
00000060: 33cd 3fbd b2f2 0c3e d0ac ea3d 00dc d73e
00000070: ff1c 233e 7939 9b3e 3126 363e 918f 483d
00000080: 6cd0 cf3d 6476 16be 4ab7 f53d b0ab 86be
00000090: c17e 3a3e c031 d43d fc52 d83c db98 f13d
000000a0: f05f 9cbe 343e 4e3e 4867 c2bc 3508 f13d
000000b0: bec2 9abd cd55 603d 1206 91bc 9cdd 85bd
000000c0: a603 9ebc 1dbf 8cbd af74 843e 793b f53e
000000d0: eb3f 1c3c c6fe a1bd 35c5 933d f4de 3b3e
000000e0: 1e50 b73d 6719 a7bc 167a 4f3d 3b1b 473d
000000f0: 65a2 013e 7a92 aa3d e663 8ebe 3d8d e8bd
00000100: 1b22 2a3e 4bea 5abd 3128 de3e 1927 1dbf
00000110: ec8f 313e 8edf d8bc 14c8 8d3d bf6a 963e
00000120: d334 98be 9a9e 3b3e 6152 283d 60f5 d8bb
00000130: 3b81 adbe 2f81 1c3e 3e24 52bc 1607 20bd
00000140: 414e cdbc 56ac 9ebf bcdf 0bbe 6bd4 5f3d
00000150: 4217 523e 085b a93d dc25 8f3e 1ad2 3e3e
00000160: 6c6a a6bd 77ed 663e 6abb 3c3e 646d 1abd
00000170: f7b7 633d a458 1dbd 0d42 3c3e 506f 533d
00000180: 6f65 0e3d 8209 4b3e beaf e03d 5f00 c4bf
00000190: aae8 933d 65a7 c43d 6f55 133d 5eb9 143e
000001a0: bd8d 193e fc51 903d 3af6 2abc 5fef 1b3e
000001b0: a216 9c3d 411f 023e 8782 c63e 77d7 a9be
000001c0: 4469 703d c017 973d 88cc f83d db2f bbbd
000001d0: e377 debd c905 f53d 29e8 813e 8359 823d
000001e0: 5754 593e 432f 99be e2b4 14bd 86a0 59bb
000001f0: ebf1 ef3d eee8 9d3d c7f0 25be 07cf c1be
00000200: a1c4 8abd 11e2 7b3e 88ee 45bd 8c8d 7abd
00000210: 99ab 053e 7881 94bc 125a 563d b6b6 893d
00000220: 07bb 3e3e 031d a03e a0b0 833d f3dc 093d
00000230: ee9a c23c 0451 f33c 59ba f4bd ead3 323d
00000240: 6ed9 8d3e b8d6 403d 3bff 01bf 59ea e03d
00000250: 023b 1d3e 4710 afbd 07e9 4a3e ce2b d83e
00000260: 952e 4b3e 1d1a 603d f01e 803e 6a88 a63e
00000270: 7a3f 8c3e 01fa ae3d 2955 403c 3362 b03d
00000280: 57fb c63c 3924 debb d71a 9e3e 8331 323e
00000290: 3cd0 563e 2d1f 253e 440d 8c3e e579 5d3e
000002a0: 527e babc fb34 4e3d c81e d3bc c638 5e3e
000002b0: 315b 403e c2d1 f93d b5c5 fa39 0fd4 4c3e
000002c0: 5880 073d 7d1e 5b3d 52c4 c33d cebe 893e
000002d0: 24e7 373d f1c4 7dbc 4c75 83bd 8ed7 f93c
000002e0: 0471 8b3e cd08 363e d811 353d 11c6 7dbe
000002f0: 2769 77be a974 00be b6e5 673d 0fc6 dc3d
00000300: eaa0 5a3d cef3 763e eb3f 0d3e dea4 53bf
00000310: 409b 14bd aca5 903d d962 103e 66c6 32bd
00000320: 8ee0 8bbf 3ad4 843d aab4 203e b44b 073e
00000330: 9fc5 e9bc 03bd 823c 1e9e 4f3e 3252 8e3d
00000340: 404a 583c ff15 263e 86eb be3d ddbe 8b3e
00000350: 625d 673d 8c32 433e a74c e23d c233 4d3c
00000360: e097 1b3e 901f acbd 7604 dbbd 0107 e0bd
00000370: 56af 313e fbb8 e13d 215d 863e bc0c 323e
00000380: 8d5e 543d 1076 c2bd b472 3d3a b1ae 6f3c
00000390: aa89 803e 67a7 cfbd 6193 1e3e 5766 a4bb
000003a0: 70dd 263d 8b48 503e beaf cc3e 200c a2bc
000003b0: b62b e13d a9bf 3c3d 6495 8b3d f6ea c6be
000003c0: 0498 8b3e 3003 0a3e de0c 9abe 11e3 543e
000003d0: 09ac aebe fccf 283e 6ecc bd3e c6e0 1d3e
000003e0: 1d3f 013e af34 123e 1382 153d 2a28 933e
000003f0: 9bf9 583d dfdf 4d3e acfa 0ebd ae96 863e
0.048047565 0.14784923 -0.028087243 0.16092293 -0.3713949 0.044579387 0.008255241 -0.24476863
0.0053266515 0.15159114 0.16840024 0.17391081 -0.1069062 0.29126215 0.019333392 0.07810657
0.2590279 0.27873436 0.14581867 0.105541416 0.3187147 0.10400831 0.04510866 0.0841526
-0.046826553 0.13764456 0.114587426 0.42160034 0.1592903 0.30317286 0.17788006 0.04896504
0.10147175 -0.146936 0.1199785 -0.26302862 0.18212415 0.103610516 0.026406758 0.11796733
-0.30541945 0.20140916 -0.023730889 0.117691435 -0.075566754 0.054769326 -0.01770309 -0.06536409
-0.01928885 -0.068723895 0.25870273 0.47896937 0.009536724 -0.07909922 0.07215349 0.18346769
0.08950828 -0.020397855 0.05065354 0.048609953 0.12659605 0.083287194 -0.2781059 -0.11355064
0.16614573 -0.053446095 0.4339004 -0.61387783 0.17340058 -0.026473787 0.069229275 0.29378316
-0.29727802 0.1832222 0.041094188 -0.006621048 -0.33887658 0.15283655 -0.012826024 -0.039069258
-0.025061728 -1.2396343 -0.13659567 0.054645937 0.20516685 0.08269316 0.27958572 0.18634835
-0.08125767 0.22551523 0.18430868 -0.03770198 0.055595364 -0.038414612 0.18384571 0.051619828
0.034764703 0.19827846 0.1097102 -1.5312613 0.072221115 0.096022405 0.035970148 0.14523837
0.14995475 0.07046887 -0.010434682 0.15228032 0.07621504 0.12707235 0.3877146 -0.331722
0.05869414 0.07377577 0.12148386 -0.09139987 -0.1086271 0.11963994 0.25372437 0.06364729
0.2122358 -0.2991887 -0.036305316 -0.0033207252 0.11716064 0.077104434 -0.1620513 -0.37853262
-0.06775785 0.24597956 -0.048323184 -0.061170146 0.1305374 -0.018128142 0.05233199 0.067243025
0.18626033 0.31272134 0.06430173 0.03365798 0.023755517 0.029701717 -0.119496055 0.04365913
0.27704948 0.04707977 -0.50780076 0.10982198 0.15354541 -0.085480265 0.19815455 0.4222092
0.19841988 0.054712404 0.25023603 0.3252595 0.2739218 0.08543778 0.011739054 0.0861248
0.02428977 -0.0067792204 0.30879852 0.174017 0.20977873 0.16125174 0.2735387 0.2162853
-0.022765312 0.050343495 -0.025771514 0.21701345 0.18784787 0.12198211 0.0004783102 0.20002769
0.033081383 0.053495873 0.095589295 0.26903385 0.044898167 -0.015488849 -0.06418857 0.030498292
0.27234662 0.17776795 0.04420647 -0.24782588 -0.24161206 -0.12544502 0.056615554 0.10779964
0.053376116 0.24116442 0.13793914 -0.8267344 -0.03628087 0.070628494 0.14100207 -0.04364624
-1.0927904 0.064857915 0.15693918 0.13212472 -0.028536616 0.015959268 0.2027516 0.06949271
0.013201296 0.16219328 0.09322266 0.27294055 0.05648554 0.19062251 0.110497765 0.012524547
0.15194654 -0.084044576 -0.1069421 -0.10938836 0.17352042 0.1102161 0.26242927 0.1738767
0.051847983 -0.09495175 0.000722687 0.014629052 0.2510503 -0.10139351 0.15485908 -0.0050170827
0.040738523 0.20340173 0.3997783 -0.019781172 0.10994665 0.04608122 0.068156034 -0.38851136
0.27264416 0.13477778 -0.30087942 0.20789744 -0.34115627 0.1648559 0.3707003 0.15417776
0.12621732 0.1427791 0.036501 0.2874158 0.052972417 0.20104931 -0.034907028 0.26286834

l2.bias f4 [256]
00000000: 337f 9b3e c1b6 6a3e 7de8 b53e c8be ccbd
00000010: c38b 04be 5800 873e 075a b73e 9799 773e
00000020: e9bc 7c3e 949e 103e 85c8 023e e50a dd3c
00000030: 75aa 6dbe 8a29 bbbd 7f72 733e 9587 523e
00000040: 9bb3 9ebd 7563 683e 7481 913e a761 4b3e
00000050: 2c81 003b dcbc 0abe e81c 563e f2f0 ccbd
00000060: 27a2 9bbe 4751 a73d e285 ac3e 2903 2d3e
00000070: c70f f5bd 14e3 593e 8fec 593e 717c 413e
00000080: 9411 a33e cddd 543d dcca 09be ff2a 34bd
00000090: a358 5d3e 8689 623e 5e25 28be 0f5a b73e
000000a0: be5b 0dbe fa41 50bd ed44 883e a365 2ebe
000000b0: 57fe 7a3e 671d 353e 50df 02be efc7 91be
000000c0: 661c c83d 0af5 6b3e 7f7e b93e b66b 7dbd
000000d0: bff8 ebbc 99ba cdbd 72b3 45be 24c2 9c3e
000000e0: b8c4 4a3e aa2d 9cbd 3dfd 60be 9fab 843e
000000f0: 6a06 eebd 5ddd 623e c63f b2bd 47c3 8dbd
00000100: 8222 813e a65d 3b3e b779 f53c dc92 5d3e
00000110: baa9 84be 8e43 173e 68b2 f2bd 14f2 50bd
00000120: 2c42 723e 47f5 87bd 07cd 6a3e d4db f0bd
00000130: 80ef 413e 4018 f63d aa6c 14be edaa ca3e
00000140: 438e 573e e397 3a3e dce3 923e 2338 3c3e
00000150: a37d 763d 7a0f 2ebe 0bcd 0cbe b5b8 893e
00000160: f5a1 933e 123c 9bbd 3281 2fbe 13cb 8ebd
00000170: 9137 733e 7ad5 753e 3116 f4bd bfcf 893e
00000180: 0a0f 5f3e fd6e 23be bdbb 63be ed55 723e
00000190: 83ee 85bd 2fc4 debd bf8f 0e3e 1767 823e
000001a0: e8f9 7f3e d5a0 30be d198 863e 55b5 79be
000001b0: b2aa 5b3e e6b3 663e 3c0b 29bd 12df 33be
000001c0: 3c7a 583e c546 aabd 8800 63be 5683 7f3e
000001d0: 17e0 863e 8914 2d3e 2c3c 8f3e 11ce 4ebd
000001e0: d2fa a33e 85fd 33be 98ad a9bd e535 ccbd
000001f0: 8423 313e bfdc 7d3e d921 debd 0133 66bd
00000200: 5b1d 8dbd cc01 673e 3182 3bbe b286 debd
00000210: 2df2 dabd a32c 963e 643c 423e d442 603c
00000220: 71a4 5f3e 878b f1bd 3b02 05be e5e0 f0bd
00000230: c977 29be 6308 84bb 9e18 24be b216 aa3e
00000240: 4281 823e 9442 15be eff7 373e 3ed6 563c
00000250: 285f 413e 0a02 c33e db04 76be 01a1 4e3e
00000260: 3af2 70be d947 d2bd 45b4 3d3e 23fb 453e
00000270: 5fd0 41bc af2d 7bbe 96a2 73be bea7 20be
00000280: afe5 a3bb 91df 883d 99e4 dbbd 3a9d 693e
00000290: 2959 32be b28e 86bd 00f1 0ebd c53a 233d
000002a0: e364 27be 9091 353e 9475 e8bc 35e2 ab3e
000002b0: cf32 903e b8ae 723e 2cc1 663e fc0a b93e
000002c0: 51af 453e 6d1f 1fbe b221 b33e 908a 8d3e
000002d0: ff1e 8abd 6952 fdbd ca69 623e 67e7 07be
000002e0: 487e 4e3e 2cd9 843e 1e7d 5cbd fa3c 973e
000002f0: bf02 2ebd e888 4ebe 60f1 2f3d 11ec edbd
00000300: a919 14be f73e 573e c524 01bd c18f 783e
00000310: 002b aa3e 6aa0 b1bd f11c e03d cabd d3bd
00000320: 1711 333e 1478 3fbe 51f4 0fbe d4fb 243e
00000330: dcb6 21bc 27ce 56bd cf6c 2e3e 2925 39be
00000340: d62b f3bd 9444 96be 0fc3 863e 14cd 3c3e
00000350: d5f9 06be 1752 18be af5c 653e 9236 393e
00000360: bd74 a03e ef37 57be a107 6f3e fd83 a63e
00000370: 9736 513e aee7 8c3e a3fd d7bd 84ae debd
00000380: 6ff7 15be 4989 a0bd 2710 a03e 8e7d 48bd
00000390: 65d9 15be d384 3d3e 9a19 74bd 067c 5ebe
000003a0: 9fe6 4abe c094 133e 4442 3a3d bd35 743e
000003b0: 48f8 503e d457 03be 7ead 78be 0905 51be
000003c0: 0996 343e 3e24 803d 7114 db3a ff88 383e
000003d0: ce65 7ebd effc a53e 5e45 963e e843 a93e
000003e0: e64a ce3e ef75 0dbd 0adb bf3e 3c80 2ebe
000003f0: ae0b 83bd 0d0b 973e f2d5 73be 52e9 91bd
0.30370483 0.22921278 0.35528937 -0.09997326 -0.1294394 0.2636745 0.35810873 0.24179684
0.24681439 0.14122993 0.12771805 0.026982734 -0.23209555 -0.09138782 0.23774146 0.20559533
-0.07749101 0.2269419 0.28419077 0.1986147 0.0019608242 -0.13548607 0.20909464 -0.10006894
-0.3039715 0.08169799 0.33695894 0.16895737 -0.119659 0.2127803 0.21281646 0.18895127
0.3184935 0.05196934 -0.13456291 -0.043986317 0.21615843 0.22122774 -0.16420504 0.35810897
-0.13804528 -0.05084417 0.26615086 -0.17030959 0.24511085 0.17686997 -0.127805 -0.2847285
0.097710416 0.23042694 0.3622932 -0.0618703 -0.028805135 -0.10045356 -0.19306734 0.30616868
0.19801605 -0.07625897 -0.21971603 0.25912187 -0.11622317 0.22154756 -0.0870357 -0.06922012
0.2522164 0.18297443 0.029965265 0.21638054 -0.2591074 0.14771864 -0.118504345 -0.051012114
0.23658055 -0.0663858 0.22929774 -0.11760679 0.18939018 0.12016344 -0.14494577 0.3958353
0.21050362 0.18222003 0.28689468 0.1838079 0.06017841 -0.16998091 -0.13750093 0.26898733
0.288345 -0.07579817 -0.17139128 -0.06972327 0.23751666 0.24007216 -0.11918295 0.2691631
0.2178308 -0.15960307 -0.22239585 0.2366559 -0.06539633 -0.10877263 0.13922022 0.25469276
0.24997675 -0.17248853 0.26288465 -0.24385579 0.21451834 0.22529563 -0.04127048 -0.17565563
0.21140379 -0.083142795 -0.22168171 0.24952444 0.26342842 0.16902365 0.27975595 -0.05048949
0.32027298 -0.17577179 -0.082850635 -0.09971217 0.17298704 0.24791239 -0.108463 -0.056200985
-0.06890365 0.22559279 -0.18311383 -0.10865535 -0.106907226 0.2933093 0.1896835 0.013687808
0.21840073 -0.11794191 -0.12989132 -0.11761645 -0.165496 -0.00402932 -0.16025016 0.3322044
0.2548924 -0.14576179 0.17965673 0.013112603 0.18883955 0.38087493 -0.2402529 0.20178606
-0.23529902 -0.1026761 0.18525799 0.19334082 -0.011829465 -0.24529146 -0.2379249 -0.15688989
-0.0050017457 0.06683267 -0.10736961 0.22813883 -0.17416824 -0.06570186 -0.034897804 0.03985097
-0.16347079 0.17731309 -0.028376378 0.3357102 0.28163764 0.23699462 0.22534627 0.36141193
0.19305159 -0.15539332 0.34986645 0.27644777 -0.06744193 -0.12369234 0.22110668 -0.13271867
0.2016536 0.2594694 -0.05383026 0.2953871 -0.042483088 -0.20169413 0.042954803 -0.11617292
-0.14462914 0.21020113 -0.031529207 0.24273588 0.3323593 -0.08673175 0.1094302 -0.10338934
0.17486988 -0.1869815 -0.14058043 0.1611169 -0.009870257 -0.052442696 0.17033695 -0.18080582
-0.118735954 -0.29349196 0.26320693 0.18437606 -0.13181241 -0.14875065 0.22398637 0.18087223
0.31339064 -0.2101743 0.23342754 0.32522574 0.2043098 0.27520508 -0.10546424 -0.1087313
-0.1464517 -0.07838685 0.31262323 -0.048947863 -0.1463371 0.185077 -0.059594728 -0.21726999
-0.19814537 0.14412212 0.045473352 0.23848625 0.20407212 -0.12826473 -0.24284932 -0.20412077
0.17635359 0.06256913 0.0016714466 0.1802101 -0.062108807 0.32419536 0.29349798 0.3305962
0.40291518 -0.0345363 0.374718 -0.17041105 -0.06398712 0.2950062 -0.23812082 -0.071245804

l3.weight f4 [1, 256]
00000000: 6512 923e 9efb 653f b3fb 833e 5f67 38bf
00000010: 853a 41bf 0830 9f3e 5720 9f3e 7c02 973e
00000020: 189c af3e da5c 633f 6f03 efbf 7cc4 0bc0
00000030: 2104 c3bf 97a0 1cbf 14ac 483e 8e72 d33e
00000040: 32a6 49bf 2948 ad3e fa26 723f fa74 a83e
00000050: ec11 9fbf 81a1 96bf 5a21 9c3e 833c 6240
00000060: 2810 1ec0 0767 1740 ffa8 893e 7502 f8bf
00000070: ca09 d7bf 8b76 b83f 2115 a03e b5dd 763e
00000080: ef8d 9f3e c53d edbf c5fb b5bf e0ac e23b
00000090: 79f0 f63e cfff 863e bf14 86bf 913e 843e
000000a0: bfce 33bf 2e5d c2bf 959d 543f 096a 5abf
000000b0: 79b1 5d3e 1b0d aa3e b222 43bf 7e54 fbbf
000000c0: 098d bfbf 17c1 763e 17d5 a03e 4de0 95bf
000000d0: b78e 9cbf 13bb 01c0 5b0b 19bf 09c0 6e3e
000000e0: 1734 353f 047c 483d a5a7 87bf 05f2 953e
000000f0: 3f27 c0bf c35f 423f 191c 9cbf 952e acbf
00000100: 256b 893e 82ed 003f 4070 d9bf fb86 46c0
00000110: 6828 95bf d283 263f b7c8 31c0 5b27 1ab8
00000120: 0bc0 363f 06c0 19bf 226e 853e 1f94 00bf
00000130: 735a 3d3f 89ae 04c0 ac24 28bf d73b 843e
00000140: 51c2 6f3f 76ea 293f 850e 863e 3ec5 293f
00000150: 8219 5840 3efb 24bf c9de c0bf 97b7 983e
00000160: 2b7f 5e3f e6fe 46bf 7d35 43bf 9d06 22bf
00000170: 321a 7e3e 1ec3 3d3e 0c36 4ebf 20f9 953e
00000180: eb5e be3e 6693 7ebf 5995 acbf c16f 9b3e
00000190: 66c8 bbbf 75e1 7dbf cd1f 903e 0fad 763e
000001a0: 0af4 723e 46ff cebf 36c2 323f 92f8 a5bf
000001b0: ebbb 083f d6ab 733e 09d7 e9bc b3ee 9ebf
000001c0: 8966 483f 582f 1ac0 9930 4cbf dafd 8b3e
000001d0: 4548 9c3e 9579 8b3e 5fc5 973e c0b1 8dbf
000001e0: d5b1 a93e f244 bdbf f47e 1ec0 4ab1 5dbf
000001f0: 9064 283f d0ce 6b3e 36ea 5abf 1e3f 4abf
00000200: 6b45 5abf 65d8 923e 2158 1cc0 b8d0 5cbf
00000210: 08d2 5abf 2147 723f f649 6b3f f084 afbf
00000220: 29ab 933e 1083 c0bf 6e6b 28bf afa2 5fbf
00000230: 5f5f c3bf 7935 20c0 6891 39bf 049f 713e
00000240: 88a3 b23e 2ec6 0ec0 7e0e 923e 1ab0 8fbf
00000250: 3a01 893e d3ad 943e 1037 10c0 08f8 0740
00000260: 2a0f b2bf 2684 c7bf d6d9 5e3f 31c6 27c0
00000270: ab23 54bf bae5 00c0 70a5 c8bf 2dc5 6fbf
00000280: db35 9cbf 4769 8dbf e868 c8bf ce50 933e
00000290: 4bcc 4cbf 56ad 11bf e3cd 9ebf 64d8 e6bf
000002a0: 32f2 84c0 13d7 f03e 7497 d1bf 32f3 ae3e
000002b0: a555 ae3e 7eb1 7b3e 561a 943e 9059 a23e
000002c0: 696c 1a3e cae0 38bf 6174 a63e 7ac2 613f
000002d0: e6e0 453d 2569 a6bf 561e 863e e719 7fbf
000002e0: 034a 543f 445f eb3e f33b a5bf d4c1 033f
000002f0: 8c87 98bf e1f6 2cbf cd60 fdbf 7bc7 21c0
00000300: f6fc 65bf 3502 753e fc2a 59bf dbb9 933e
00000310: 3b2f 893e b5d7 68bf c9a3 c03f ceb9 77bf
00000320: 5875 193f d364 afbf 8e4b 1ac0 1d31 933f
00000330: 1035 c8bf 272b 2dbf 027a 2c3f dd92 8bbf
00000340: de22 e7bf 9866 05c0 51dd f93e 90a0 e33f
00000350: 5ba6 d9bf 2278 44bf 1830 8d3f 858f 6d3e
00000360: c99d 983e 0512 63bf 5b5b 803e 243a 943e
00000370: a0d2 be3f 7c64 743f 065a 4abf d438 96bf
00000380: 295b 82bf 9994 82bf fdc1 943e 4096 22bf
00000390: 9767 4ebf c265 f73e 66aa 49bf 9388 67bf
000003a0: 6dae 8ebf cf30 e33e 33e7 0ec0 765e 853e
000003b0: 5204 333f 4461 52bf e5f2 94bf 192c a9bf
000003c0: e4db 243f 449c 04c0 bb94 dfbf 4412 753e
000003d0: aba5 65bf 7d28 a93e 2153 723e 5695 d23e
000003e0: 61d9 9d3e 3ac8 b4bf 21e5 953e 4110 f0bf
000003f0: e1bb ccbf c457 903e b400 0ac0 c76f c3bf
0.2852966 0.8983706 0.2577797 -0.7203273 -0.7547992 0.31091332 0.3107936 0.29494083
0.34298778 0.88813555 -1.8672923 -2.1838675 -1.5235635 -0.6118254 0.19596893 0.41298336
-0.7876922 0.33844116 0.94590724 0.32901746 -1.2427344 -1.1768037 0.30494195 3.5349433
-2.469736 2.3656633 0.26886746 -1.937575 -1.6799862 1.4411176 0.3126612 0.24108012
0.31162974 -1.8534476 -1.4217459 0.006917581 0.4823034 0.2636704 -1.0475081 0.25828984
-0.70237345 -1.5184686 0.8305295 -0.85318047 0.21649732 0.33213124 -0.76224816 -1.963516
-1.4964916 0.24097095 0.31412575 -1.1709076 -1.2231053 -2.027043 -0.5978295 0.23315443
0.7078261 0.048946396 -1.0598036 0.2928621 -1.5011977 0.7592737 -1.2196075 -1.3451716
0.26839557 0.5036241 -1.6987381 -3.1019886 -1.1652956 0.6504489 -2.7778757 -3.6753114e-05
0.71386784 -0.6005863 0.26060587 -0.50226015 0.7396614 -2.0731528 -0.65680957 0.25826904
0.9365588 0.66373384 0.26182953 0.6631659 3.3765569 -0.64445865 -1.5067989 0.29827568
0.8691279 -0.77732694 -0.7625349 -0.6329134 0.2481468 0.18531463 -0.8055122 0.2929163
0.37181792 -0.9944366 -1.3483077 0.303587 -1.4670532 -0.99172145 0.28149262 0.24089454
0.23725906 -1.6171653 0.6982759 -1.2966483 0.5341174 0.23796019 -0.02854492 -1.2416595
0.78281456 -2.4091396 -0.79761654 0.2734211 0.30523887 0.27241197 0.2964277 -1.106987
0.33143488 -1.4786665 -2.4764986 -0.86598647 0.65778446 0.23028111 -0.8551363 -0.7900256
-0.85262173 0.2868072 -2.442879 -0.8625598 -0.8547673 0.94639784 0.9190973 -1.3712444
0.28841522 -1.5039997 -0.65788925 -0.8735761 -1.526348 -2.5032637 -0.724875 0.23595816
0.3489039 -2.230846 0.28526682 -1.1225617 0.26758748 0.29038867 -2.2533607 2.1245136
-1.3910878 -1.5587204 0.8705114 -2.6214716 -0.82866925 -2.0140214 -1.5675488 -0.9366024
-1.2203935 -1.1047753 -1.5657015 0.28772587 -0.79999226 -0.56905115 -1.2406582 -1.8034787
-4.154565 0.4703909 -1.6374345 0.34169918 0.34049717 0.24579427 0.28926343 0.31708956
0.15080418 -0.72218 0.32510665 0.8818737 0.048310183 -1.3000838 0.2619502 -0.996489
0.8292543 0.4597112 -1.290892 0.51467633 -1.1916366 -0.6756421 -1.9795166 -2.5278003
-0.8983911 0.23926623 -0.84831214 0.28852734 0.26793846 -0.9095414 1.5049983 -0.9676789
0.5994468 -1.3702644 -2.4108615 1.1499363 -1.5641193 -0.6764397 0.6737367 -1.0904194
-1.8057516 -2.0843868 0.48801664 1.7783375 -1.7003893 -0.7674581 1.1030302 0.2319928
0.2980788 -0.8869937 0.250697 0.28950608 1.4908028 0.95465827 -0.79043615 -1.1736093
-1.018407 -1.0201598 0.2905425 -0.63510513 -0.80626816 0.48319823 -0.7877563 -0.9044277
-1.114698 0.44373176 -2.2328613 0.2604863 0.6992847 -0.82179666 -1.1636626 -1.3216583
0.64398026 -2.0720377 -1.7467264 0.23932749 -0.89705914 0.33038703 0.23664524 0.4112956
0.3082991 -1.4123604 0.29276374 -1.875496 -1.5994836 0.2819196 -2.156293 -1.5268487

l4.weight f4 [256, 32]
00000000: 7cba cebd f28c b1bd 2db8 3d3e 2c38 f3bf
00000010: f55a 223e 342b d8be 2924 463c bca2 5ebf
00000020: 5089 e93e ec64 78be 3233 d1bd 2ae2 f13e
00000030: 892d 0cbe 6960 4fbe 6502 923e 6820 873e
00000040: 4c2b b4be dca4 283e dbd5 bcbb 8064 67be
00000050: f664 a63e ea55 6abd 34e7 f93d 494b 323e
00000060: 80e1 333f 2afe dc3d f569 343d cb4c e53e
00000070: cfde 76be 55ce 883d 2afc bcbe 18ee 97bd
00000080: 2585 403c adc0 f6bc dc1e 1f3e d40d d7bf
00000090: aee6 dbbd e816 b6bf dfd5 7dbe d385 9f3e
000000a0: 2bf3 953e 36b8 833f 16f1 82be 059b a9be
000000b0: a54c e13e c25a 66be 0f3f 07bf 69d3 e63e
000000c0: 3556 32be 1845 c1bd b2cc 53bf dc80 a93e
000000d0: 90bc 813c f826 b6be 55a2 053e 6c57 b1be
000000e0: 2ea0 bcbf a7e2 0b3f c42d 653e f776 9abe
000000f0: 7aa7 cfbe d248 e03d 98b1 a1bd d618 4fbe
00000100: 3806 2d3f 9426 adbb 6a1a f63c 2251 a2bd
00000110: ca4c d4bd c402 e1be 1402 d4be aa60 bcbe
00000120: f25f a1be 5c09 803e c4ed 91be ab96 133c
00000130: 60c8 863e 1952 be3d 3299 80be 9463 8ebd
00000140: 6f7d 97be 9edc 1ebe 8d06 9fbc 0053 94bd
00000150: 1fc5 f0bd c906 5fbe ad5d 9c3e a37c 2e3e
00000160: 10ef 713d 8d62 17be 1e27 6c3d b500 9abd
00000170: f74a 5a3e 7032 8a3b 1742 11bc 0444 893d
00000180: db83 a63e e40d 0a3e 3a04 de3d 129c b43e
00000190: 6923 a0bd de21 6f3d 615a f7be 1b05 113e
000001a0: f48c 41be 4c6c 31be 7bc3 33be 3b51 7fbe
000001b0: a4b0 d93e 325c 1f3c b4d1 20be e2da 073e
000001c0: 9cf9 3e3e cf95 103d fd18 a6be b885 f63d
000001d0: b6f3 903d a915 4cbe 7cea 363e 2ee3 b9bd
000001e0: fe60 ffbe 6648 b9be 963a 5a3b c97b 75bd
000001f0: afb7 003e 7767 89bc 18b8 93bc a715 1a3d
00000200: b7d0 a4be 443c 04be 82be 11be 5a5a 543e
00000210: 89b0 a2bd 2df6 adbe 0bd9 d0be a8a3 453f
00000220: 4afe 5b3d 814c ab3e f1b9 8b3e 5bf1 2cbf
00000230: 308a 3c3b 1244 01be bd2f 1ebe 5396 30bf
00000240: 471a ea3e 807f 9fbe d9c8 c3be 4232 683e
00000250: 5e1e c93d 57a0 d9bd 2a8b 38be 0423 6ebe
00000260: bd2d cabe 65c6 cfbd 0715 bc3d 1f98 1abe
00000270: 0a5e 593d abed eb3b 5bee ed3c 2255 853d
00000280: 5f10 56bd bb0b 42bd 0144 67be f5cc ae3d
00000290: 81af 1f3e 51e8 9d3e 1264 21bd d09d b13e
000002a0: 2d26 2cbf f5e2 5ebd d5a1 8bbd 05df e6be
000002b0: cbcf 513e 693f 243e da4a 713c 7b64 8e3e
000002c0: 722a d5be 98ec 9dbd 0578 8abe 48f5 00be
000002d0: 14ef a93b 0472 a43e 64d7 2a3e 6220 01be
000002e0: 4915 bd3d 0044 313f 8427 c23c aa81 f8bd
000002f0: af1e 983d e038 fdbc 5cc2 a9bd 589b d83b
00000300: bdce f33d 09a4 ad3d e0d3 283e 28bf 813e
00000310: 6aee 44bc f2d4 e63e e9e1 5f3e 424b 85be
00000320: 892d be3b 76cf df3e 1343 733d 644c 0a3e
00000330: c4bc 863e 954c 5b3e cf98 2dbe 4606 893e
00000340: 3011 b73e 0b25 b13d 3c56 e3bd dc1a ad3b
00000350: 95ad f83c 52c1 523d f409 8c3e be2d 06be
00000360: 76de 40bf 7a0b e4bd fb22 053e 3fee 763c
00000370: 8767 53bd 42af 1c3c 2cdb be3d 80f1 2b3c
00000380: cc19 23be 3580 073e be78 d3be b6e4 f5be
00000390: 37c3 c8bd e194 a9be b01a 313f 09c2 173e
000003a0: 4d8c f93e c3d6 3a3f 978e 5d3d d8c8 e63e
000003b0: a210 813f ea18 493e af0c a2be 050b 823e
000003c0: 2d2d f43e 6be3 923d 4f44 85be e1db 05bd
000003d0: 45f2 ae3e 3f16 12be 8d9a 86be 2c2e 323e
000003e0: 4b59 5f3e d32a 9a3d c91f d63c d580 a63d
000003f0: 5f68 703e a5e1 8b3c cde9 203d 4251 b9bc
-0.10094163 -0.08669461 0.18527289 -1.9001517 0.1585501 -0.4222046 0.012093582 -0.8696706
0.45612574 -0.24257249 -0.10214843 0.47242862 -0.13689245 -0.20251621 0.28517452 0.26391912
-0.35189283 0.16469139 -0.0057627982 -0.22596931 0.32498902 -0.05721084 0.122023016 0.17411532
0.7026596 0.107906654 0.04404636 0.4478515 -0.24108432 0.0667998 -0.36911136 -0.0741846
0.011750494 -0.030121172 0.15539116 -1.6801095 -0.10737358 -1.422574 -0.24788617 0.31156787
0.29287085 1.0290592 -0.2557456 -0.33126083 0.44003788 -0.22495559 -0.52830595 0.45083168
-0.17415698 -0.09437007 -0.82734215 0.33106124 0.015836984 -0.35576606 0.13050206 -0.3463701
-1.4736383 0.5464272 0.2238074 -0.30168888 -0.40557462 0.10951389 -0.078952014 -0.20224318
0.67587614 -0.00528414 0.030041892 -0.07925631 -0.10366209 -0.43947423 -0.41407835 -0.367925
-0.31518513 0.2500714 -0.28501713 0.00900809 0.2632475 0.09293003 -0.2511688 -0.06952587
-0.29587886 -0.15513846 -0.019412303 -0.072423935 -0.11756348 -0.21779932 0.3054022 0.17039733
0.05906588 -0.14783688 0.057654493 -0.07519666 0.2131766 0.0042174384 -0.008865855 0.06702426
0.32522473 0.13481861 0.1084065 0.35275322 -0.07819254 0.058381908 -0.4831114 0.14162104
-0.18901426 -0.17326468 -0.17555039 -0.2493333 0.4251758 0.009726571 -0.15704995 0.13267091
0.18649906 0.03529912 -0.3244094 0.120372236 0.07077734 -0.19930138 0.17862886 -0.09076534
-0.49878687 -0.36188048 0.003329908 -0.059932504 0.1257007 -0.016772969 -0.018032119 0.037618306
-0.32190487 -0.12913615 -0.14232829 0.20737591 -0.07943828 -0.3397688 -0.4079059 0.77202845
0.053709306 0.33456805 0.272903 -0.6755578 0.002876889 -0.12623623 -0.15447898 -0.68979377
0.45723173 -0.31151962 -0.38239172 0.22675422 0.09820245 -0.106262855 -0.18021837 -0.23255545
-0.3948802 -0.10145263 0.09183698 -0.15097092 0.0530682 0.007199963 0.02904432 0.065103784
-0.052261706 -0.04737447 -0.22584535 0.08535186 0.15594293 0.30841306 -0.039402075 0.34690714
-0.6724575 -0.05441566 -0.068179764 -0.45092025 0.20489423 0.16039814 0.014727319 0.27811036
-0.41633946 -0.07711142 -0.27044693 -0.12593567 0.005185971 0.32118237 0.16683728 -0.1261001
0.092325754 0.69244385 0.023700483 -0.121341065 0.074277274 -0.03091091 -0.08289024 0.0066103153
0.119046666 0.08478553 0.16487074 0.25341153 -0.012019733 0.4508434 0.21863522 -0.2603398
0.005803768 0.43712968 0.05939014 0.13505703 0.26315892 0.21415932 -0.16952823 0.267626
0.357553 0.086496435 -0.11100432 0.005282743 0.030356208 0.051453896 0.27351344 -0.13103387
-0.7533945 -0.111350015 0.13001625 0.015071451 -0.051612403 0.009563269 0.093191475 0.01049459
-0.1592781 0.13232501 -0.41303056 -0.48026055 -0.09802859 -0.33121398 0.69181347 0.14820112
0.48739854 0.7298395 0.054091062 0.45075107 1.0083201 0.1963841 -0.31650302 0.25399032
0.47690716 0.07172283 -0.26028678 -0.032680396 0.34169212 -0.14266299 -0.26289788 0.17400426
0.21811406 0.07527699 0.026138203 0.081300415 0.23477314 0.01707537 0.03928547 -0.022621755

l4.bias f4 [256]
00000000: ea2c 653e f20b efbd a927 68bb 67b7 ba3d
00000010: 45a5 a8be 8f5b 76be 35e5 8b3e 58de 93be
00000020: 59bd 2dbd 65bb ca3e 60cb 93b9 d223 d5be
00000030: 87da 133e 0478 9bbe 4927 91be 0c9b ce3d
00000040: c180 a2bd f911 b93e b2ff 873e 68e0 b73e
00000050: d24f 77be 92a2 e5bd ccd4 b13d 1235 a7bd
00000060: 22bd 98be af0c 0b3e 0fd9 0e3e 20a5 43bd
00000070: caff 29be 5afc 763e 6bb8 3b3e af1e 27be
00000080: 570a 943e 2439 813e 7ad0 85be b538 9f3e
00000090: 6165 a63e ee1d e03d 2f7b d23d 81d1 fa3d
000000a0: dded 123e 75ba a7be 9c18 08bd 5b02 973d
000000b0: f125 e9bc 49da 103e 4c8a 14be ee93 2fbe
000000c0: 55fd 973e 278a a3bd d848 9fbc b9cc f2bd
000000d0: c384 c9bd 1c41 a5be dc15 213d 43a6 f5bd
000000e0: 542e afbd f726 82bb 0632 77bd 580f 98bd
000000f0: 1e31 bd3c 543d 94bd 01ff dcbd f546 063e
00000100: 5b2d 48bc 96a2 84bd 87c6 20be cbf5 b7bd
00000110: d67c 403d a74b 193e 902e 1abe 1ee0 2c3e
00000120: f7ba debe 21da 463e 15c4 0fbe 1fa4 093d
00000130: 47d1 513d 4c2a 183e ebe2 61be 7c7a e13d
00000140: 02be 19bc f47f 263e b4f7 21be 1aef 62be
00000150: d295 28bd c1b0 f8bb 875d 963e 045a 2fbd
00000160: 2554 b53d e509 a53e b687 73be 57d4 fabd
00000170: 3c2c 983e 2f89 79be ad55 63be f56b 303e
00000180: 4d80 783d 6a0d 373d 0d79 723e a1b8 d53c
00000190: 1e2c 6abd 6339 603e 9ec7 803e 23bb 983e
000001a0: 4724 c3bc 4889 17be e69e bf3e 541b 68bd
000001b0: 3ccf aabe f2c7 bebd 52cb a13d c33b 993d
000001c0: 244f 233a a0e4 613e 345e 34be 1d8b 54bd
000001d0: 6347 22bc 7bc4 383d 6b17 8b3d 12e0 13be
000001e0: a399 4b3e c462 283e c558 333e 698a d83c
000001f0: b456 15be b762 3fbe e150 abbc ec64 213e
00000200: 3054 813b a2a7 a3bc b261 febd 539e a5bd
00000210: 7ddf 09bd f4b4 a13d b202 a83e b098 80bb
00000220: 6513 063c e479 2ebd 03bc ed3d 7745 84be
00000230: 62c7 3fbd 9af3 54be d004 093e a298 a63e
00000240: bbd7 233e 1e4e c13c 5b8a 933e c7a0 123e
00000250: 87ef 09be f12d 843e fe42 0b3e 8b9f 54be
00000260: ad65 63be 6870 56ba 8646 4ebe 4b28 81be
00000270: 6c94 38be 2453 a73d ce83 913a 428a 013e
00000280: ee4d 2f3e eedf 90be 1d31 123e fe08 edbd
00000290: 9e76 403e 3fc3 4e3e d5c5 bc3c ce2d 343e
000002a0: c0ad 0fbe c86a 12be 81da ab3d 6224 14be
000002b0: efdf 18be 188f 933e e9f0 fdbd 82a7 84bd
000002c0: 6f66 bdbe 3785 f7bd acb5 8b3e 01e6 bcbd
000002d0: 28a6 593e 6967 6d3c d283 103e cd0b f2bc
000002e0: baff 313e 9b7b 2a3e 6df1 91be 9a2b 2bbe
000002f0: ad10 23be 3fee 263e d2b0 08be 51f0 4a3e
00000300: c360 233e a721 a0bd f92a 64be b181 35be
00000310: 7a28 823e 8e59 37be 5d95 6bbd 6075 43be
00000320: 0339 39be 7a3c 2d3e 7bd5 083d caf5 49be
00000330: b047 2bbe 48bf 173d 8477 82bd 77a6 383e
00000340: cd8e db3d 9321 2ebd 8f76 6f3d 2b3b 38be
00000350: bcd5 b3bd 8ca6 9d3e 61ec 113e ef55 ba3d
00000360: c012 3a3e 3fbb b83d 5ad0 70bc d24c 203e
00000370: 1a69 993d 89a5 4c3b 5a54 a4be 1f73 be3d
00000380: a7b7 ccbc d390 3cbe d586 e2bd 009f f5bb
00000390: 6878 69be 72c2 ac3d 7dd4 84bd c700 f1bd
000003a0: a337 cc3d 4a9d 9a3d 0244 2d3e 1884 073e
000003b0: f68b aebe db56 e03d 8d2c 85bc 2126 d23e
000003c0: 45ae 283e daf0 01be 897f 9d3d a825 683e
000003d0: c75d 933e e102 043e 5c46 933e 4aae 5a3e
000003e0: 54ff 843e d45d bf3d da31 3e3e 0ba8 86be
000003f0: 1215 abbe fbd0 b93d 5c04 93be c26a 49be
0.22380415 -0.116722 -0.003542403 0.091170125 -0.3293859 -0.24058364 0.2732331 -0.28880572
-0.042416904 0.39596096 -0.0002818955 -0.4162889 0.1443883 -0.30365002 -0.28350285 0.100881666
-0.07934714 0.36146525 0.26562268 0.35913396 -0.24151543 -0.112126485 0.08683166 -0.08164419
-0.29831797 0.13579057 0.13949989 -0.047764897 -0.16601482 0.24119702 0.18332069 -0.16320299
0.2891414 0.25238907 -0.26135617 0.31097952 0.3249922 0.10943209 0.10277402 0.12246991
0.1434855 -0.32759443 -0.033226594 0.07373496 -0.028460475 0.14145769 -0.14505881 -0.17146274
0.29685465 -0.07985335 -0.019443914 -0.11855454 -0.098397754 -0.32276237 0.039327487 -0.119946025
-0.08553758 -0.00397193 -0.06035044 -0.074248016 0.02309471 -0.0723826 -0.10790826 0.13113005
-0.012217845 -0.06476323 -0.15700732 -0.08982428 0.046994053 0.14970265 -0.15056825 0.16882369
-0.43502018 0.19419147 -0.14039643 0.033603784 0.051224973 0.14859885 -0.22059219 0.1100969
-0.00938368 0.16259748 -0.15817147 -0.22161523 -0.041158505 -0.00758943 0.2936823 -0.042810455
0.0885394 0.3223411 -0.23782238 -0.12247532 0.29721248 -0.24368738 -0.22200651 0.17228682
0.060669232 0.044690527 0.2367899 0.026089014 -0.05717098 0.21896891 0.25152296 0.29830274
-0.02382101 -0.14798462 0.37425917 -0.056666687 -0.33361232 -0.0931548 0.079001084 0.07482102
0.00062297494 0.2205987 -0.1761406 -0.05189048 -0.009904715 0.045109253 0.06791576 -0.14440945
0.19882827 0.16443926 0.17514332 0.026433187 -0.14583856 -0.1869 -0.02091259 0.15761155
0.0039468035 -0.019977394 -0.12420978 -0.080868386 -0.0336604 0.07895842 0.32814556 -0.003924452
0.008183335 -0.042596713 0.11608126 -0.25834247 -0.046821006 -0.20796052 0.13380742 0.32538325
0.16000263 0.02359682 0.28816494 0.14319144 -0.13470279 0.258163 0.13599774 -0.20763986
-0.22206755 -0.0008180202 -0.2014409 -0.25226054 -0.18025368 0.08170155 0.0011101903 0.12650397
0.17119572 -0.28295845 0.14276548 -0.11573981 0.18795249 0.20191668 0.023043552 0.17595598
-0.14031124 -0.14298546 0.08391286 -0.14467004 -0.14929174 0.2882011 -0.123994656 -0.06477262
-0.36992213 -0.120859556 0.27287042 -0.09223557 0.2125479 0.014489987 0.14112785 -0.029546643
0.17382708 0.16648714 -0.28504506 -0.16715851 -0.1592433 0.16301821 -0.13348702 0.19818236
0.1595488 -0.07818919 -0.22282018 -0.17725255 0.25421506 -0.17905256 -0.05751549 -0.19087744
-0.18088154 0.16917601 0.033406716 -0.19722667 -0.16726565 0.037047654 -0.06370452 0.18032251
0.107205965 -0.042512488 0.058462676 -0.17991321 -0.08781001 0.30791128 0.14250328 0.09098422
0.18171215 0.09020089 -0.014698112 0.15654305 0.0749075 0.0031226596 -0.32095605 0.09299301
-0.024989916 -0.18414621 -0.110608734 -0.007495761 -0.22799838 0.08435525 -0.064858414 -0.117677264
0.09971549 0.07549532 0.16920474 0.13233984 -0.34091157 0.10954066 -0.016256595 0.41044715
0.16472729 -0.12689534 0.07690341 0.22670615 0.28782484 0.12891723 0.28764617 0.21355549
0.2597605 0.09344068 0.18573704 -0.26300082 -0.33414513 0.09073063 -0.28714263 -0.19669631

l5.weight f4 [256, 256]
00000000: 1125 d9bc 3ab7 ccbd d07b f13d d2b8 3d3e
00000010: d105 1c3e fc45 ecbc fcc3 263d 4c9e 5e3e
00000020: 2838 953d b8ea 95be 2caf 373e d7a8 873d
00000030: 06dd be3d ce28 a0bd 9988 0b3e 4dbb f83d
00000040: bd2a 8cbe fa05 5a3d 476a c73b 8463 5a3e
00000050: b4cc bfbd 1205 4b3e 0140 34bd 2d47 8cbe
00000060: 8f28 c9bd 2dcd f5bb 2f94 f33c 042f 423c
00000070: 8141 823d 547d d13d 6f91 1fbe 7513 eebd
00000080: f921 293e 6a84 813d a54e d93c 01a0 663e
00000090: c71d adbd f38b 293c c0b1 85bd 1eb2 343e
000000a0: e96e 6dbc b6d8 123e b227 b03d d64b 4e3e
000000b0: 4695 83be d989 f6bd ef2d 9bbd 681d 563e
000000c0: 7d32 7d3d be32 883d ada6 c73d a0ec 943e
000000d0: 68ab 39bd 07d7 50bd 1fe6 913c 7317 8a3d
000000e0: 4d32 97be 3149 06be db4b 8ebd 41cb 01be
000000f0: 0396 443d a7cd 323d 5ff3 a53e a4de 423d
00000100: b892 883d debf 813d 1108 ab3d e058 2b3e
00000110: 01ab acbd 46f3 b1be 5bc4 153e 1ada 1dbd
00000120: 1d6e e83d eaf7 533e 611d 8a3e baca 0e3e
00000130: 0267 d53e f460 643d 2da8 303e 649e 67bd
00000140: 5c7e 3c3e cc65 1b3e 9b26 263e 9123 7d3e
00000150: 6b10 6fbd 4405 a2bd 6b93 3d3d 655d b2bd
00000160: c923 ba3d 6df9 58bd 1fd2 893e d96a 903e
00000170: 8681 3ebc b0d4 453e 4863 ff3d 90ea 233c
00000180: 4fbf bf3c a5f0 1e3e 5f67 db3c e97f 203e
00000190: aa2e d9bd c7af 173e 48bb 663d 7ec6 e73d
000001a0: 7b76 f23d 0ffa 22be 36ae fb3d 20ec 603d
000001b0: 7584 513d 7b5b bfbd 8799 d73d b323 883c
000001c0: 6d43 8c3d d6ef 963d 6111 4c3e d4f2 9d3d
000001d0: 9678 7f3d c978 033e 54f9 d33d 2873 a53d
000001e0: 6b9d 10bc f7aa a23d 5bc1 1b3e 1991 2ebd
000001f0: a3c4 85bd 6f7d 823d e02c 503c aa33 203d
00000200: e365 75bd a9a3 103e 93cd c53d 7e35 65bd
00000210: db5a d13d d550 d2bd a205 9cbe 4b03 373d
00000220: c045 1bbc 9458 033e dfd6 eeba 6fdc d1be
00000230: 3e5e a83a ceee b5bd 8879 98be 74bf 123e
00000240: 6f84 313e 5703 463e 7e9d af3d bb24 2e3e
00000250: eabb 5a3e 092a 293d e41f a13d 8f4a 4dbd
00000260: 510b 2c3e 4f3a 97bc 195f 933d b8d2 bdbd
00000270: a3e7 34be b1e3 363d fcfc a1bc 0319 843e
00000280: 1030 ac3d e86b dbbe 1355 5f3d c6c9 203e
00000290: ab0c 853d 2fd2 d9bd a0c3 7e3d 332f 923b
000002a0: e983 1d3d eac5 3f3e 515e a4bc 0ca2 5cbc
000002b0: c454 633d a885 bf3d 548f 873d 0f6c 3bbd
000002c0: b98b cfbd 1867 35bd b325 203d e992 32bd
000002d0: 92b6 153e 1daa 1abd 5f41 083e a4c4 dabd
000002e0: f6e8 46bd 3816 293d 1453 21be a798 4e3e
000002f0: 97cb 0dbe ed74 b5bd 717b 903e 8935 8dbe
00000300: 21cb e43c 9867 acbd 2599 8fbe 6259 b23d
00000310: 67f3 223c e8c5 563e f3e6 343e 17f1 af3d
00000320: 4ce5 b6bc 91e9 8b3d df52 023e 02f5 eb3d
00000330: af46 1c3e f307 87bd 4516 0abe a927 39bc
00000340: 5ecf 1a3e 2999 483e 46c3 8a3d f0f8 ba3d
00000350: a457 163e 3e5d b43d f14a 2dbd 5f5c c4be
00000360: e7d2 853d 777f c9be f152 c13d bb37 db3a
00000370: 05a8 333d d2d1 ae3c 14ca 8fbd 2b97 7fbe
00000380: f2db 6d3e 7bf0 8b3c 8710 b63e 1f3b 2d3e
00000390: 36d4 6ebc 8523 cdbc 5952 2bbc aff3 8e3d
000003a0: c5a4 453d f586 fe3d 52bc ef3c 598e e9bc
000003b0: 7c55 57be 6315 9b3d efac 453d 8fd4 8c3d
000003c0: da4c 173d 3605 a03e d166 38be 526e bcbd
000003d0: e772 313e 7f24 133d 2e6e 0d3e 0327 0c3e
000003e0: 6a93 c43c 6855 b6bc 17dd 393e 0bc2 3e3b
000003f0: 6743 a23e b5c4 fb3d d1e8 f4bd 10dd d63d
-0.026506932 -0.09995885 0.117911935 0.18527535 0.15236594 -0.028841965 0.04071425 0.21740073
0.072861016 -0.2928064 0.17937917 0.066240005 0.093195006 -0.07820283 0.13626327 0.121451
-0.27376357 0.053228356 0.0060856673 0.21327025 -0.09365216 0.19826153 -0.04400635 -0.27398053
-0.09822189 -0.0075012655 0.029733745 0.01185203 0.0636015 0.102289826 -0.15582822 -0.11624805
0.16516866 0.06324084 0.026526758 0.22521974 -0.08452945 0.010348308 -0.06528044 0.17646071
-0.014491775 0.14340481 0.08601321 0.20146117 -0.25699824 -0.12038011 -0.075771205 0.20909655
0.061815728 0.06650303 0.09748588 0.2908678 -0.04532948 -0.050986316 0.017809926 0.06742754
-0.29530564 -0.13113858 -0.06948062 -0.12675191 0.047994625 0.043653157 0.3241224 0.047575608
0.066686094 0.06335424 0.08351148 0.16733122 -0.08431054 -0.34755915 0.14625685 -0.038538076
0.113491274 0.2070004 0.2697554 0.13944522 0.4168015 0.055756524 0.17251654 -0.056547537
0.18407577 0.15175551 0.16225664 0.24720599 -0.058365267 -0.079111606 0.046283167 -0.0870922
0.09088857 -0.052972246 0.26918122 0.28206518 -0.0116275605 0.19319415 0.12470108 0.0100046545
0.023406653 0.15521486 0.02678269 0.15673794 -0.106046036 0.14813147 0.05633095 0.11317156
0.118390046 -0.15915702 0.122890875 0.054912686 0.05115171 -0.093436204 0.1052733 0.016618585
0.06848798 0.07369964 0.19928505 0.077123314 0.06237086 0.12839045 0.1035029 0.08078605
-0.008826594 0.07942765 0.15210478 -0.042618845 -0.06531646 0.06371581 0.0127060115 0.03911177
-0.05991162 0.14124931 0.09658351 -0.055959217 0.102224074 -0.10269324 -0.30473047 0.044680875
-0.009477079 0.12826759 -0.0018221996 -0.4098849 0.0012845469 -0.08883439 -0.2978022 0.14330846
0.17335676 0.19337212 0.08574961 0.17006199 0.21360746 0.041299853 0.07867411 -0.050119933
0.16801192 -0.01846042 0.07195873 -0.09268707 -0.17666487 0.044650737 -0.019773953 0.25800332
0.08407605 -0.42855763 0.054524492 0.1570197 0.06496557 -0.106357925 0.06219828 0.004461193
0.038455877 0.18727842 -0.020064505 -0.013466369 0.05550076 0.09351665 0.066191345 -0.04575735
-0.10134072 -0.04428777 0.039098453 -0.043597136 0.14620426 -0.03775989 0.13306187 -0.106820375
-0.048562013 0.041280955 -0.15754348 0.2017542 -0.13847195 -0.088601924 0.28219178 -0.27579907
0.02792889 -0.084181964 -0.28046528 0.08708455 0.009945727 0.20973933 0.17666225 0.08590906
-0.022326134 0.06831659 0.12726925 0.11521341 0.15261339 -0.06593313 -0.13485058 -0.01130096
0.15118167 0.19589676 0.06775527 0.09129512 0.1468187 0.08806847 -0.042307798 -0.38351724
0.06534367 -0.3935506 0.09439648 0.0016724983 0.043861408 0.021340284 -0.07020965 -0.2496001
0.23228434 0.017082443 0.35559484 0.16917084 -0.014576962 -0.025041351 -0.010456645 0.06980073
0.04825284 0.12428085 0.029264603 -0.02851026 -0.21028703 0.075724386 0.048260625 0.0687648
0.036938526 0.31253976 -0.18007971 -0.092007294 0.17328988 0.035923477 0.13811561 0.13686757
0.023996074 -0.022257522 0.18150745 0.0029107358 0.3169205 0.12293378 -0.11958469 0.10491383
