p2/TD3_BC_HalfCheetahBulletEnv-v0_1011_0.1.pth (torch, 898833 bytes, 16 tensors)

l1.weight f4 [256, 32]
-0.18351465 0.01940721 -0.2113284 -0.69582593 0.07468936 -0.0067935814 -0.16717559 0.09824719
-0.4501264 0.13518706 0.03826301 0.16506493 -0.14459601 -0.16491668 -0.022721417 -0.4224349
-0.38918015 -0.08654798 0.30279666 0.021972219 0.11452044 0.3091788 -0.06002294 0.15464328
-0.15753032 -0.17298916 -0.2548263 0.006169773 0.028995762 0.25763685 0.17517348 0.0713407
0.1313619 0.047667306 0.13206638 0.106023006 0.06711719 -0.32780632 -0.08563567 -0.08228575
-0.16576 -0.0014219604 0.10469563 0.10927874 0.0046856413 -0.21620628 0.32016185 -0.3684526
0.25745374 0.15981331 0.1832051 -0.06596776 -0.054842032 -0.10552554 0.050333112 -0.12137453
0.46716288 -0.004901917 -0.1753327 -0.13230607 -0.06949031 -0.13135827 -0.16477776 0.1263483
0.050468937 0.07365086 -0.00452622 -0.8690634 -0.074459866 -0.35848457 0.13761716 -0.42657515
-0.4561692 -0.32162955 0.2125634 0.19061026 -0.0033413246 0.035212044 -0.571367 -0.28581092
-0.8536668 -0.5158166 0.43526652 -0.026609441 0.11639613 0.12218265 -0.40599468 -0.29914823
-0.31441796 -0.16893339 -0.06804662 0.16356683 0.05541427 -0.004085797 -0.28457242 0.28539154
0.13778085 0.08009947 -0.016714493 0.7032666 0.13812603 -0.28967065 -0.1703845 0.2829639
0.16957209 -0.9104201 0.075820126 -0.6276608 0.2921891 0.051548056 -0.060830217 -0.17839356
-0.15145022 -0.097683325 0.18884371 0.1750403 -0.040485207 0.085240446 -0.019583236 -0.08773758
-0.09599359 0.36344445 -0.032853562 0.028252678 0.22226085 0.031300373 0.059805658 -0.020263825
0.23434894 -0.06526977 0.19900848 -0.5169285 -0.026316682 0.5808949 0.10143499 -0.35293326
0.23936316 -0.27241963 0.07454949 -0.030045673 0.17603205 -0.21856885 -0.116731405 -0.08582362
-0.38584247 -0.09825325 -0.12322914 0.054244526 0.070614226 0.51133424 -0.030954001 0.35127497
0.26871014 0.46351525 -0.21023607 0.021313109 -0.098645955 -0.008848043 -0.16919903 0.052886255
-0.06409495 0.10441165 -0.23655693 0.5343941 -0.059741408 0.22870441 -0.07801738 -0.33101237
0.5653732 0.6952188 -0.6144598 -0.29554933 -0.060368918 -0.28984258 0.21823776 -0.33623153
0.17120467 -0.2506664 -0.19851987 0.015508818 -0.45902514 0.078971975 0.15274853 0.10996224
-0.23697543 0.30368873 -0.062814526 -0.34564617 -0.5334365 -0.1294676 -0.14268498 0.36740753
-0.36958417 -0.008601118 -0.1484099 -0.82586163 0.011963636 0.20552889 0.08928738 -0.41205972
0.23184703 -0.67491055 0.2150826 0.08800611 -0.33128616 0.060280845 0.25047222 -0.32064408
-0.26851833 -0.18234031 -0.6324338 -0.21236853 0.03563483 -0.36936983 -0.043402568 -0.18783934
-0.2673838 -0.4586569 0.18225831 0.06931484 0.3181826 -0.010979285 -0.08931412 0.023029165
0.023343978 0.014943629 0.19928178 0.33001423 0.04748407 -0.016365536 -0.15449901 0.37268743
-0.008787635 0.0706036 -0.1436141 0.04008937 -0.4922708 -0.10294336 -0.50928617 0.10083961
-0.7770332 0.09681636 -0.05087158 -0.030960144 -0.12916909 0.3521277 0.10157835 -0.1443424
0.46025094 -0.12365989 -0.02694134 -0.0122552095 -0.028707067 0.012012045 -0.04139822 -0.06897002
00000000: 44eb 3bbe dffb 9e3c 7966 58be a621 32bf
00000010: bcf6 983d b19c debb 1430 2bbe d335 c93d
00000020: f876 e6be 7a6e 0a3e adb9 1c3d c806 293e
00000030: fa10 14be ebdf 28be 4422 babc 6349 d8be
00000040: 9f42 c7be 1140 b1bd 2a08 9b3e 15ff b33c
00000050: b189 ea3d af4c 9e3e 9dda 75bd cf5a 1e3e
00000060: a14f 21be 1224 31be 9878 82be cf2b ca3b
00000070: 8588 ed3c fae8 833e ad60 333e 131b 923d
00000080: bc83 063e cb3e 433d 693c 073e 9722 d93d
00000090: bd74 893d 3bd6 a7be c161 afbd 6e85 a8bd
000000a0: fdbc 29be 1361 baba aa6a d63d 88cd df3d
000000b0: 028a 993b 2e65 5dbe 41ec a33e d2a5 bcbe
000000c0: fad0 833e 1aa6 233e 1e9a 3b3e 1b1a 87bd
000000d0: 0aa2 60bd c61d d8bd 182a 4e3d 3693 f8bd
000000e0: f92f ef3e 43a0 a0bb 6a8a 33be 3e7b 07be
000000f0: f050 8ebd c882 06be 80bb 28be 7361 013e
00000100: 84b8 4e3d 43d6 963d af50 94bb f07a 5ebf
00000110: 6a7e 98bd 4a8b b7be 83eb 0c3e 0f68 dabe
00000120: 028f e9be a1ac a4be 38aa 593e 562f 433e
00000130: 20fa 5abb 813a 103d 1c45 12bf cf55 92be
00000140: e889 5abf 8f0c 04bf 41db de3e 0bfc d9bc
00000150: 1861 ee3d e63a fa3d 89de cfbe f529 99be
00000160: 64fb a0be e0fc 2cbe 075c 8bbd 107e 273e
00000170: 13fa 623d 26e2 85bb 7ab3 91be d71e 923e
00000180: 6c16 0d3e 310b a43d d5ec 88bc 4809 343f
00000190: e970 0d3e b64f 94be 4679 2ebe a5e0 903e
000001a0: 4ea4 2d3e 4b11 69bf 9547 9b3d 61ae 20bf
000001b0: cf99 953e 0e24 533d 1b29 79bd cdac 36be
000001c0: c415 1bbe 320e c8bd 3f60 413e c43d 333e
000001d0: d1d3 25bd 8b92 ae3d 066d a0bc c3af b3bd
000001e0: 4a98 c4bd 6415 ba3e 7591 06bd 2972 e73c
000001f0: 5998 633e d234 003d c7f6 743d 5200 a6bc
00000200: 2bf9 6f3e 28ac 85bd e1c8 4b3e 6d55 04bf
00000210: 1596 d7bc 87b5 143f 26bd cf3d abb3 b4be
00000220: 9e1b 753e 967a 8bbe 67ad 983d 5822 f6bc
00000230: bf41 343e 83d0 5fbe e010 efbd 4bc4 afbd
00000240: 258d c5be 0039 c9bd 8f5f fcbd 822f 5e3d
00000250: 319e 903d cde6 023f 3f93 fdbc 50da b33e
00000260: 6094 893e df51 ed3e 2048 57be d498 ae3c
00000270: e406 cabd 62f7 10bc 8342 2dbe 429f 583d
00000280: 3744 83bd c6d5 d53d fb3b 72be 0dce 083f
00000290: 68b3 74bd 7d31 6a3e 93c7 9fbd 747a a9be
000002a0: 4cbc 103f dcf9 313f 3d4d 1dbf 3e52 97be
000002b0: 6645 77bd 3f66 94be b879 5f3e 8a26 acbe
000002c0: 4750 2f3e 5957 80be cb48 4bbe b318 7e3c
000002d0: 5805 ebbe 0fbc a13d 1c6a 1c3e e233 e13d
000002e0: b0a9 72be 177d 9b3e e7a4 80bd 89f8 b0be
000002f0: 4b8f 08bf 2893 04be 031c 12be d71c bc3e
00000300: 233a bdbe b4eb 0cbc c4f8 17be ab6b 53bf
00000310: 2003 443c 2a76 523e 4ddc b63d 7ef9 d2be
00000320: 4f69 6d3e f0c6 2cbf 9d3e 5c3e 8c3c b43d
00000330: 579e a9be 0ce9 763d e53d 803e 762b a4be
00000340: 3c7b 89be 6bb7 3abe 2ee7 21bf 2377 59be
00000350: d4f5 113d 0b1e bdbe e4c6 31bd f558 40be
00000360: 88e6 88be 14d5 eabe eca1 3a3e f0f4 8d3d
00000370: d4e8 a23e 76e2 33bc 52ea b6bd a9a7 bc3c
00000380: df3b bf3c 1fd6 743c 8610 4c3e a0f7 a83e
00000390: a87e 423d 0411 86bc fd34 1ebe e3d0 be3e
000003a0: 03fa 0fbc 9f98 903d 930f 13be c034 243d
000003b0: eb0a fcbe f8d3 d2bd 9460 02bf ff84 ce3d
000003c0: a6eb 46bf a847 c63d b85e 50bd 21a0 fdbc
000003d0: e744 04be 154a b43e 4f08 d03d 7ece 13be
000003e0: 03a6 eb3e 6541 fdbd 16b4 dcbc 13ca 48bc
000003f0: 152b ebbc 2bce 443c 2e91 29bd 2740 8dbd

l1.bias f4 [256]
-0.16016574 0.22574104 0.103708096 0.2646725 0.20076774 0.04542471 -0.0024801784 0.16532533
-0.18047473 -0.0098601505 0.05933709 0.12220118 0.051164176 -0.052688323 0.07238404 0.20396475
0.44730458 0.27026767 0.10053338 -0.071147114 0.13712423 0.0056461743 -0.0057947533 -0.015172394
-0.2921106 0.21286337 -0.15638392 -0.2967766 0.0890893 -0.24568611 0.28244525 -0.045084786
-0.09740518 -0.06228064 0.05821129 -0.0794295 -0.06510917 0.0014296849 0.19347286 0.031800557
0.08017054 0.16066343 -0.1078049 0.111652605 -0.026504626 -0.011701741 -0.20455305 -0.13477823
0.37714243 0.28603 -0.1442385 -0.2796442 0.23168401 -0.47553733 -0.09019853 -0.09466251
-0.15291558 -0.10567193 0.16391504 0.046788737 0.32676938 0.2693436 -0.17290637 -0.29887524
0.34156722 0.16262618 0.12107524 -0.33047536 0.09756664 0.105367795 -0.050829496 0.017357823
0.07226636 0.07243694 -0.090888314 0.41512147 0.042023893 -0.3966989 0.19723003 0.043190118
0.4480292 0.24930589 0.14070179 -0.09566434 0.15212955 -0.1273418 -0.38442007 0.2581818
0.05424151 0.24803697 -0.05795889 0.10548361 -0.2694157 -0.13729356 0.29101908 0.26148242
0.2525711 0.13328324 -0.0077113216 0.24442422 -0.29808888 0.079062365 -0.16443536 0.035341892
0.0926331 -0.3421917 0.017658478 -0.102135666 0.1544519 -0.21072988 0.018159473 0.07338126
0.101096265 0.32158166 -0.070945725 -0.032743238 0.16495086 -0.13496843 0.22334516 0.21774182
0.15030636 0.2022176 -0.00028509734 0.19904628 0.08315691 0.011022721 -0.36693218 0.19188471
-0.22238877 0.037433438 -0.1859131 0.13558073 -0.22326031 -0.026068173 -0.21520017 0.14628801
0.23481664 0.22778061 0.11735799 -0.02113148 0.04128007 0.31690666 0.25048843 -0.13591908
0.1786471 -0.36028984 -0.20272385 0.0077703195 -0.27832207 -0.03679154 0.14383453 -0.20324802
0.19391903 0.15431671 0.03841702 0.14849147 -0.18236618 0.11370303 0.049047012 -0.29595962
0.29951647 0.10202563 -0.21294695 0.16888686 0.07079904 0.16211253 -0.21245435 0.09197351
-0.19674392 -0.19321918 0.09738666 0.11239407 0.038665976 -0.048813194 0.12027516 0.12246625
0.046802428 -0.19475406 -0.10228925 0.23704255 0.23093641 0.35544482 -0.3295969 -0.056545414
0.32032874 0.07665741 0.10537399 0.084341824 0.24532916 -0.010554655 -0.0067159883 -0.12607323
0.22440302 0.22978951 -0.10048592 -0.10693714 -0.029074073 0.07189828 -0.4000848 0.3482179
0.0064151264 0.07711738 0.02335951 0.32423985 0.23126468 0.0012847178 -0.20080076 -0.06007467
-0.40610632 0.2867134 0.115851216 0.02561509 0.1766553 -0.10939463 -0.10122834 -0.27457756
-0.029066173 0.24670719 0.27402985 -0.18594313 0.24359392 0.21849069 0.15829976 -0.28697816
0.2270856 -0.27218524 -0.103100985 0.12210876 0.08976844 -0.01478 -0.1274458 0.21084125
0.11390272 0.2932251 -0.2884815 -0.31695163 0.08314884 -0.07166391 -0.044260517 -0.25383034
-0.08735937 0.12692758 0.04924757 0.22685613 0.022625722 -0.075225145 0.095382035 -0.048866343
0.02143755 0.10959676 -0.17398356 -0.2518031 -0.22940953 0.17650521 -0.09286658 -0.14799362
00000000: 7d02 24be a928 673e e964 d43d 2783 873e
00000010: 0f96 4d3e 430f 3a3d 7d8a 22bb 0b4b 293e
00000020: 5ece 38be 788c 21bc 730b 733d 9d44 fa3d
00000030: 8791 513d b6cf 57bd 153e 943d 23dc 503e
00000040: 1b05 e53e 8660 8a3e 72e4 cd3d 94b5 91bd
00000050: 4b6a 0c3e 8b03 b93b eae1 bdbb a295 78bc
00000060: 858f 95be dbf8 593e 1b23 20be 1af3 97be
00000070: 7374 b63d 2495 7bbe aa9c 903e d3aa 38bd
00000080: 5e7c c7bd fc19 7fbd f66e 6e3d efab a2bd
00000090: f557 85bd 4464 bb3a c01d 463e 4d41 023d
000000a0: 7430 a43d f484 243e d1c8 dcbd 1faa e43d
000000b0: 3b20 d9bc a9b8 3fbc 5b76 51be 4e03 0abe
000000c0: d018 c13e 8672 923e 42b3 13be 862d 8fbe
000000d0: 933e 6d3e a179 f3be 02ba b8bd 6bde c1bd
000000e0: e795 1cbe 866a d8bd 58d9 273e 8ca5 3f3d
000000f0: 514e a73e 68e7 893e 5e0e 31be 2d06 99be
00000100: e6e1 ae3e 7a87 263e 4cf6 f73d 1134 a9be
00000110: 05d1 c73d 12cb d73d 9732 50bd fe31 8e3c
00000120: 6300 943d d259 943d a723 babd cd8a d43e
00000130: 3f21 2c3d 1e1c cbbe abf6 493e 1fe8 303d
00000140: 1564 e53e 0b4a 7f3e 2114 103e aaeb c3bd
00000150: d9c7 1b3e e465 02be b5d2 c4be 6830 843e
00000160: 582c 5e3d 67fd 7d3e 4d66 6dbd ca07 d83d
00000170: dbf0 89be af96 0cbe 7400 953e 06e1 853e
00000180: 0051 813e 677b 083e 41af fcbb 584a 7a3e
00000190: 1b9f 98be 73eb a13d be61 28be a9c2 103d
000001a0: 6cb6 bd3d c033 afbe 83a8 903c 812c d1bd
000001b0: a428 1e3e 93c9 57be 2dc3 943c ea48 963d
000001c0: 8f0b cf3d 5aa6 a43e fe4b 91bd c61d 06bd
000001d0: e1e8 283e 2a35 0abe 98b4 643e b6f7 5e3e
000001e0: e9e9 193e 2112 4f3e 1e79 95b9 cad2 4b3e
000001f0: 2c4e aa3d a598 343c 89de bbbe 6d7d 443e
00000200: e2b9 63be ce53 193d 0160 3ebe add5 0a3e
00000210: 5a9e 64be ec8c d5bc 6f5d 5cbe 86cc 153e
00000220: c673 703e 523f 693e 6359 f03d ed1b adbc
00000230: 4a15 293d 9741 a23e 0540 803e 5f2e 0bbe
00000240: 44ef 363e e977 b8be d796 4fbe 2a9e fe3b
00000250: 3b80 8ebe bab2 16bd 5c49 133e 4020 50be
00000260: b692 463e 3305 1e3e 2a5b 1d3d 260e 183e
00000270: 33be 3abe 22dd e83d 85e5 483d 0588 97be
00000280: 395a 993e d0f2 d03d c40e 5abe adf0 2c3e
00000290: 16ff 903d d400 263e a28d 59be 9c5c bc3d
000002a0: 3d77 49be 40db 45be a872 c73d dd2e e63d
000002b0: 3760 1e3d 58f0 47bd d352 f63d 96cf fa3d
000002c0: e7b3 3f3d 9c6d 47be 077d d1bd 48bb 723e
000002d0: 987a 6c3e ddfc b53e edc0 a8be 2a9c 67bd
000002e0: 2102 a43e 8ffe 9c3d 52ce d73d 68bb ac3d
000002f0: 9137 7b3e 6fed 2cbc cb11 dcbb 5719 01be
00000300: e8c9 653e f14d 6b3e 90cb cdbd dc01 dbbd
00000310: c02c eebc 683f 933d ead7 ccbe 9e49 b23e
00000320: fb35 d23b b8ef 9d3d 715c bf3c c402 a63e
00000330: a6d0 6c3e fa63 a83a b79e 4dbe db10 76bd
00000340: 2bed cfbe 19cc 923e 6743 ed3d bdd6 d13c
00000350: 21e5 343e 4b0a e0bd ce50 cfbd 6e95 8cbe
00000360: 2f1c eebc cfa0 7c3e a44d 8c3e e067 3ebe
00000370: af70 793e 06bc 5f3e 5519 223e cdee 92be
00000380: 2189 683e dd5b 8bbe 9c26 d3bd 2814 fa3d
00000390: 84d8 b73d d027 72bc 2781 02be c5e6 573e
000003a0: d445 e93d 9a21 963e d9b3 93be 7c47 a2be
000003b0: f049 aa3d 87c4 92bd 844a 35bd 0df6 81be
000003c0: 78e9 b2bd 4ef9 013e d2b7 493d f94c 683e
000003d0: 9459 b93c a40f 9abd a857 c33d 1328 48bd
000003e0: cd9d af3c 4474 e03d bf28 32be 56ec 80be
000003f0: 55ea 6abe c8bd 343e d530 bebd a48b 17be

l2.weight f4 [256, 256]
0.60776806 0.012131805 0.60782564 0.15482913 -0.15759937 -3.6956766 -0.37721846 0.78170985
-0.23220408 -0.3001439 -0.10306073 -0.90692896 -0.06435514 0.9757665 -0.19292918 0.11668992
-0.7635708 0.020329235 -0.24709578 -0.0705325 -0.028930668 0.20484336 0.50850916 0.056045286
-0.09000355 0.9054867 0.22544357 0.063589156 0.038788434 0.41872877 -0.38254932 0.019314667
-0.11786339 -0.13275902 -0.0035592478 -0.07811867 -0.079935275 -0.13851455 -0.25427362 0.15987772
0.23704502 0.3992637 -0.095353775 0.3212475 0.25049147 -0.82069856 0.12861162 0.5006911
0.8663383 0.09019327 -0.23978372 0.674903 -0.25183353 -0.10796856 0.22749482 0.28671533
-0.08778367 0.45971596 -0.05925373 -0.23598522 -0.03423243 -0.21756724 0.11560252 0.16041799
0.18386877 -0.21735616 -0.6922269 0.032916438 -0.1523128 -0.15990868 0.1810721 -0.018269764
-0.47565714 -0.18799199 0.08999761 -0.3733793 0.29431853 0.42640367 -0.63802916 -0.15550146
-0.44453514 -0.2521516 0.14473957 -0.4302806 -0.31038278 -0.5975872 0.23046283 -0.05855882
0.5842102 0.3491525 -0.44386956 -0.33898926 -0.20515719 0.42553788 0.22720401 0.053984474
-0.44443062 0.18141176 0.052993815 -0.3446343 -0.5474289 -0.2943168 0.29142582 0.7073409
-0.859215 0.015343215 0.6143102 0.12946865 0.16513845 -0.028588172 -0.29242927 0.059923563
0.08066044 -0.082251586 -0.052840177 -0.13014561 0.16117755 0.034482654 0.21584845 0.08622271
-0.4761054 -0.34364918 0.19663948 -0.24829969 0.046274647 0.10716288 -0.47733995 0.6459393
-1.2324427 -0.38317853 -0.37737575 0.28090703 0.17610735 -0.100433 0.5902478 0.13681905
-0.29548478 0.11877116 -0.2090585 -0.2221014 0.4644243 -0.4208136 0.11548317 0.43214616
-0.2207062 0.28822264 0.4851679 -0.030101324 0.049320266 0.22771794 0.46566257 0.07760057
-0.050324976 -0.17788976 -0.09008711 -0.9719062 -0.3111083 -0.2671677 0.39467975 0.48404342
-0.3824313 -0.14343736 0.40743178 0.34228936 -0.008337607 0.3587162 -0.034005836 -0.5900857
-0.23217487 0.07290875 -0.6696826 0.29315886 -0.3060214 -0.57629657 0.03856607 0.049790706
-0.10460858 -0.53135 0.35268477 0.46652752 0.20231898 0.31053755 0.1302571 0.56542623
-0.5984847 0.77018285 0.18544987 -0.12155928 0.3134779 0.10506552 -0.006197227 -0.1070916
0.13153689 -0.123296134 0.021721369 0.20801333 -0.011189533 0.95182866 0.8454261 -1.812627
0.49889052 0.0451603 0.23763493 0.19273762 0.1571716 0.10941781 -0.17848258 -1.2599345
-0.0009901262 0.027255856 -0.057558324 0.16443929 -0.23448075 0.9679512 -0.23294425 0.13092086
0.15451744 -0.054781016 -0.723396 0.0019799797 -0.11559647 -0.052743264 0.12261385 0.3022591
-0.33631146 0.22703128 0.035438158 -0.04731136 -0.028255418 -0.08838251 0.28942037 -0.59868884
0.520854 -0.03703115 -0.07687667 0.4332538 -0.6547618 -0.5798663 -0.7017657 -0.08722331
0.1295007 -0.15645023 -0.03737727 -0.010262119 -0.21271005 0.13091928 -0.053136688 0.06857688
0.2107889 0.10010846 0.31477746 0.04088041 -0.11835201 -0.118912674 0.16702321 -2.099722
00000000: b096 1b3f 7ac4 463c 769a 1b3f 878b 1e3e
00000010: bb61 21be f785 6cc0 c722 c1be 231e 483f
00000020: e8c6 6dbe 76ac 99be 8111 d3bd 7f2c 68bf
00000030: a1cc 83bd d5cb 793f 3a8f 45be 20fb ee3d
00000040: 6079 43bf 7f89 a63c ad06 7dbe 5873 90bd
00000050: 0200 edbc 75c2 513e a82d 023f be8f 653d
00000060: c853 b8bd facd 673f aeda 663e 083b 823d
00000070: 9fe0 1e3d 9e63 d63e 81dd c3be cb39 9e3c
00000080: 5c62 f1bd fbf1 07be 4542 69bb aefc 9fbd
00000090: 1bb5 a3bd c2d6 0dbe 2730 82be fcb6 233e
000000a0: eebb 723e 4b6c cc3e d748 c3bd 8d7a a43e
000000b0: 6b40 803e 4d19 52bf c4b2 033e 4b2d 003f
000000c0: 59c8 5d3f 40b7 b83d dd89 75be 71c6 2c3f
000000d0: 53f0 80be 9f1e ddbd 67f4 683e 5acc 923e
000000e0: edc7 b3bd e45f eb3e 0ab4 72bd 1ca6 71be
000000f0: 4e37 0cbd f2c9 5ebe 04c1 ec3d 9d44 243e
00000100: 1848 3c3e 9d92 5ebe c835 31bf 63d3 063d
00000110: e3f7 1bbe 1abf 23be f76a 393e 79aa 95bc
00000120: 5589 f3be f980 40be ab50 b83d 922b bfbe
00000130: ebb0 963e 9551 da3e e155 23bf c63b 1fbe
00000140: 1c9a e3be 041a 81be 9c36 143e bd4d dcbe
00000150: 7eea 9ebe 7afb 18bf 73fe 6b3e 60db 6fbd
00000160: cd8e 153f 1ec4 b23e df42 e3be 0090 adbe
00000170: ba14 52be 1ae0 d93e 2ba8 683e d31e 5d3d
00000180: 698c e3be 01c4 393e 0b10 593d e873 b0be
00000190: 4d24 0cbf b1b0 96be c435 953e 4b14 353f
000001a0: 84f5 5bbf 1c62 7b3c 6f43 1d3f 6e93 043e
000001b0: 0e1a 293e be31 eabc 4ab9 95be 6972 753d
000001c0: 4d31 a53d 8573 a8bd f16e 58bd e444 05be
000001d0: ba0b 253e af3d 0d3d 6007 5d3e 8895 b03d
000001e0: 16c4 f3be c9f2 afbe dc5b 493e 4642 7ebe
000001f0: 7c8a 3d3d 3678 db3d e765 f4be 475c 253f
00000200: afc0 9dbf fa2f c4be 6537 c1be 0cd3 8f3e
00000210: 7c55 343e d1af cdbd 7b1a 173f 4b1a 0c3e
00000220: c849 97be 4b3e f33d 6e13 56be 8d6e 63be
00000230: 06c9 ed3e e174 d7be 7182 ec3d 4342 dd3e
00000240: ce00 62be eb91 933e ed67 f83e 0d97 f6bc
00000250: 0c04 4a3d e42e 693e 536b ee3e 0ced 9e3d
00000260: 9021 4ebd bc28 36be 977f b8bd d8ce 78bf
00000270: 9649 9fbe 34ca 88be 7713 ca3e 8ad4 f73e
00000280: 09ce c3be 3ee1 12be e69a d03e 8d40 af3e
00000290: 759a 08bc a6a9 b73e b449 0bbd db0f 17bf
000002a0: 40bf 6dbe 2f51 953d 5270 2bbf eb18 963e
000002b0: d6ae 9cbe 2c88 13bf 75f7 1d3d 57f1 4b3d
000002c0: 063d d6bd 8e06 08bf 1993 b43e b2dc ee3e
000002d0: b52c 4f3e c7fe 9e3e 1e62 053e c6bf 103f
000002e0: 4b36 19bf b42a 453f 92e6 3d3e 12f4 f8bd
000002f0: 2d80 a03e 972c d73d 1c12 cbbb d752 dbbd
00000300: 9bb1 063e af82 fcbd 03f1 b13c 7201 553e
00000310: 4e54 37bc 0bab 733f d86d 583f 2904 e8bf
00000320: 946e ff3e 02fa 383d 9256 733e 035d 453e
00000330: 98f1 203e 7216 e03d 23c4 36be 8945 a1bf
00000340: 1fc7 81ba ac47 df3c 47c2 6bbd c662 283e
00000350: b91b 70be a6cb 773f f088 6ebe 1e10 063e
00000360: d239 1e3e 0f62 60bd 7b30 39bf 8cc2 013b
00000370: d8bd ecbd 5209 58bd f81c fb3d b4c1 9a3e
00000380: 0431 acbe e37a 683e 9a27 113d 8ec9 41bd
00000390: e877 e7bc e401 b5bd e82e 943e ac43 19bf
000003a0: b056 053f faad 17bd 8471 9dbd 71d3 dd3e
000003b0: 789e 27bf 1e72 14bf eba6 33bf 22a2 b2bd
000003c0: d59b 043e 7d34 20be e918 19bd 7222 28bc
000003d0: aad0 59be b40f 063e dba5 59bd 0972 8c3d
000003e0: 0cd9 573e aa05 cd3d 832a a13e 3772 273d
000003f0: 8a62 f2bd 7d88 f3bd 2208 2b3e d861 06c0

l2.bias f4 [256]
-0.16558407 0.016041774 0.20547178 0.11840734 -0.1480302 -0.047587983 0.16398644 -0.053084347
-0.0017296651 -0.13290991 -0.053072125 -0.06610611 0.26878121 0.05057282 -0.19235405 0.009826953
0.08495103 0.13045833 -0.07635872 -0.07704844 0.16999713 0.028729057 -0.031627484 -0.10606317
0.2690754 -0.05385557 0.24580334 -0.1900934 -0.059044823 0.23048194 0.17232727 0.027461473
0.12793028 -0.034837328 0.2634996 0.115276724 0.19844538 0.2051445 0.23859857 -0.0021271913
-0.14312018 0.15525028 0.15075426 0.17982607 0.30573732 0.20193951 -0.2032843 -0.18026419
0.14352995 0.2418753 -0.09583414 -0.19087358 -0.1959556 -0.022161266 -0.11548396 -0.115416154
0.28258002 -0.02860986 -0.16419718 0.1675749 -0.0050166366 0.22136611 -0.109158486 -0.030547334
0.26054153 0.19582465 0.026210157 0.16702773 -0.012984795 0.018820737 0.18808393 0.11373203
0.21508467 0.15655604 -0.09155522 -0.06882085 0.24484912 -0.19278741 -0.115525514 0.27145657
0.20861246 -0.12999278 0.03789384 0.15116999 0.11894285 0.192596 -0.005516675 0.21298487
-0.14404064 0.031961184 0.014849896 0.26083013 -0.059172165 -0.07713051 -0.000121327015 0.23365542
0.17724895 0.17494963 0.25006947 -0.12206394 -0.15538281 0.025450282 0.21016733 -0.21999936
-0.046956185 0.22781213 -0.10980219 -0.10607993 -0.032365438 -0.1689451 -0.1389003 0.20104349
-0.09615692 -0.10698603 0.094067685 -0.05383514 -0.056912407 -0.16815157 -0.12309294 -0.16537116
0.26861313 0.23615807 0.021489285 0.02030917 0.20290188 -0.11021772 -0.22980301 -0.12795387
0.13926849 -0.16072568 0.12961484 0.011064672 0.26924172 -0.17868479 0.2901484 -0.12932166
0.19587676 -0.1548122 -0.10843595 -0.022435106 0.23444483 0.13549697 0.23208006 -0.020856716
0.1899567 -0.12699103 -0.1732608 -0.2539346 -0.19119036 -0.13040961 0.18675683 0.052045953
0.29187942 0.030704267 -0.014202582 -0.052801713 0.11697411 0.25857842 0.2375214 0.03364906
0.28597045 0.04582628 -0.19591925 0.11373706 0.25916493 -0.016962783 0.09012564 0.35781324
0.22266193 0.18692271 -0.057596676 0.2817997 -0.16714473 0.049957342 0.07989237 -0.15556337
-0.12751904 0.23886585 -0.015087612 -0.1915745 0.3849142 0.17925058 -0.14611618 -0.20633411
-0.11494098 -0.17611645 0.140385 0.14904922 0.16500254 -0.07599022 0.14897515 -0.20646557
0.15367104 -0.28465495 0.16853741 -0.016724218 -0.2903294 0.15060605 0.2460047 -0.027651336
-0.18448347 0.17539202 0.24965017 -0.13389882 0.17869633 0.33238152 -0.0018509564 0.1571594
0.18249089 0.22395436 0.09455396 -0.10337577 0.12307612 -0.15880275 0.18815634 -0.059147596
-0.0111088995 0.2463245 0.18910025 0.2277147 0.17173539 0.28689852 -0.14452305 -0.16396824
0.1978013 -0.057343833 0.28698263 0.053515192 0.29398593 -0.015971242 0.20867057 0.023453658
0.20563765 0.14439677 -0.1917859 -0.15945804 -0.0010777017 -0.054166134 0.25157788 0.3035554
0.20722012 -0.0028079562 -0.011831331 -0.08448309 -0.11673791 0.03877464 -0.13973665 0.20098476
0.23106004 -0.09510907 0.2528613 -0.0070584444 0.1574918 0.07080533 -0.11146748 0.16821009
00000000: df8e 29be 0a6a 833c 3267 523e 8c7f f23d
00000010: 3b95 17be 9eeb 42bd 10ec 273e f96e 59bd
00000020: eeb5 e2ba 8919 08be 2862 59bd a462 87bd
00000030: b19d 893e 7225 4f3d 76f8 44be 3a01 213c
00000040: cefa ad3d de96 053e f661 9cbd 93cb 9dbd
00000050: ba13 2e3e 3359 eb3c d28b 01bd a637 d9bd
00000060: 40c4 893e a897 5cbd dfb3 7b3e d8a7 42be
00000070: fcd8 71bd 7503 6c3e 8f76 303e e2f6 e03c
00000080: 2800 033e 96b1 0ebd 6be9 863e 3416 ec3d
00000090: 4435 4b3e 6611 523e 2f53 743e 5968 0bbb
000000a0: 198e 12be eef9 1e3e 535f 1a3e 5324 383e
000000b0: 9a89 9c3e 3bc9 4e3e c229 50be 2d97 38be
000000c0: 84f9 123e 29ae 773e b144 c4bd 5d74 43be
000000d0: 96a8 48be 8b8b b5bc db82 ecbd 4e5f ecbd
000000e0: 54ae 903e 3a5f eabc 4e23 28be c198 2b3e
000000f0: 9962 a4bb ccad 623e 7c8e dfbd 673e fabc
00000100: b365 853e 4286 483e afb6 d63c 5109 2b3e
00000110: 2dbe 54bc f22d 9a3c 1399 403e 57ec e83d
00000120: 283f 5c3e 3a50 203e 4e81 bbbd f2f1 8cbd
00000130: bab9 7a3e 106a 45be a498 ecbd 5bfc 8a3e
00000140: 819e 553e d41c 05be 9236 1b3d 4ecc 1a3e
00000150: 4f98 f33d e337 453e 39c5 b4bb b518 5a3e
00000160: 647f 13be bbe9 023d fa4c 733c 878b 853e
00000170: 835e 72bd 9af6 9dbd f270 feb8 5e43 6f3e
00000180: c080 353e ff25 333e 1b09 803e a9fc f9bd
00000190: ac1c 1fbe 1c7d d03c 1b36 573e 8347 61be
000001a0: 2155 40bd 9547 693e f8df e0bd 6f40 d9bd
000001b0: 9f91 04bd f2ff 2cbe e13b 0ebe 58de 4d3e
000001c0: ebed c4bd 7e1b dbbd 8fa6 c03d 3c82 5cbd
000001d0: fc1c 69bd ed2f 2cbe 2718 fcbd 0f57 29be
000001e0: a987 893e 6cd3 713e 4c0a b03c 6b5f a63c
000001f0: 83c5 4f3e d4b9 e1bd 7b51 6bbe 5706 03be
00000200: 669c 0e3e 4695 24be c1b9 043e 9948 353c
00000210: 0dda 893e 25f9 36be 558e 943e e66c 04be
00000220: eb93 483e 1787 1ebe ab13 debd d4c9 b7bc
00000230: 4e12 703e b8bf 0a3e 65a6 6d3e b4db aabc
00000240: 0284 423e f009 02be 476b 31be b703 82be
00000250: 68c7 43be 198a 05be 2f3d 3f3e 232e 553d
00000260: 3871 953e 8487 fb3c f2b1 68bc 9c46 58bd
00000270: 1f90 ef3d 6464 843e cf38 733e 99d3 093d
00000280: b86a 923e 56b4 3b3d 0e9f 48be faee e83d
00000290: 44b1 843e 89f5 8abc cb93 b83d 4c33 b73e
000002a0: 7d01 643e ab68 3f3e 7eea 6bbd 0d48 903e
000002b0: fd27 2bbe 12a0 4c3d 9c9e a33d 014c 1fbe
000002c0: 5a94 02be 4099 743e 0832 77bc 1b2c 44be
000002d0: 7913 c53e 778d 373e 7b9f 15be 4049 53be
000002e0: 2d66 ebbd df57 34be 16c1 0f3e 5ca0 183e
000002f0: 6df6 283e c3a0 9bbd f18c 183e b66b 53be
00000300: f15b 1d3e 4bbe 91be 1295 2c3e 3a01 89bc
00000310: 0ea6 94be 7938 1a3e a8e8 7b3e 0e85 e2bc
00000320: 3ce9 3cbe f799 333e 4ba4 7f3e c61c 09be
00000330: 2cfc 363e e92d aa3e ca9b f2ba 65ee 203e
00000340: e4de 3a3e 4b54 653e 82a5 c13d adb6 d3bd
00000350: 550f fc3d 309d 22be 0eac 403e c044 72bd
00000360: 1a02 36bc 7d3c 7c3e 7fa3 413e 0b2e 693e
00000370: 67db 2f3e 5de4 923e dafd 13be 4ae7 27be
00000380: 6d8c 4a3e 5ee1 6abd 63ef 923e bf32 5b3d
00000390: 5385 963e 1fd6 82bc bdad 553e e321 c03c
000003a0: ad92 523e bfdc 133e 8663 44be f848 23be
000003b0: ab41 8dba 4fdd 5dbd d1ce 803e 9d6b 9b3e
000003c0: 8331 543e b005 38bb 33d8 41bc 7805 adbd
000003d0: 4914 efbd 28d2 1e3d 2017 0fbe f3ce 4d3e
000003e0: 019b 6c3e 8bc8 c2bd 0977 813e 864a e7bb
000003f0: 8845 213e 6302 913d 1049 e4bd 443f 2c3e

l3.weight f4 [1, 256]
-1.7367611 -0.7521575 0.72590894 0.808857 -1.4218637 -1.5418818 0.51245815 0.037773058
-1.032444 -1.2855514 0.016632712 -1.3190002 1.7008901 1.6425151 -1.6516002 -1.0602471
1.7466627 -4.0683546 -0.975414 -1.0679969 -1.639117 1.6493437 -1.3103834 -2.1432843
0.37782007 -1.0904615 0.5668404 -0.8233922 -1.1087772 0.4278437 0.94965374 1.0972273
2.00579 2.2005978 0.22526781 0.9868432 0.91577816 0.5930484 0.5197146 -1.1377025
-1.3908055 0.8049432 1.3509641 0.3692161 2.243404 -3.0012846 -1.0634942 -0.87117
2.0392945 0.8994856 -1.1754919 -2.0529885 -1.994575 3.008587 -1.1307222 -1.4049294
0.6363238 0.036187094 -1.0701106 0.9325621 -1.2818402 0.3892266 -1.2475625 1.4244313
0.36824435 0.48385814 -1.2218549 0.8119381 -1.272871 -0.9890121 1.002704 2.2978878
0.63925916 0.84732634 -1.5948752 -1.7916094 0.4388348 -2.0257096 -1.0581167 0.30999273
0.5363277 -1.7157875 -1.2978203 0.34097978 0.79137534 0.91495025 1.9913613 1.1588504
-2.1807683 -1.2360201 1.5755901 0.36765605 -0.956002 -1.8549365 -1.1003896 0.32397276
0.59572804 1.4613879 0.54939526 -1.7970088 -1.9098593 -1.9576429 0.45674297 -1.6995246
0.039904952 1.419222 -1.216846 -1.2011737 0.022116287 -1.7397065 -1.6719086 0.37951583
-0.84059674 -1.0842791 -1.1686742 -1.1666077 0.015515113 -1.1051456 2.5047379 -1.7041192
0.64604896 0.93567085 -1.0862362 -1.0511045 2.0871692 -1.2521759 -1.5719566 -1.229141
0.5799823 -0.9399935 0.7898349 -1.747475 0.3225628 -1.6297634 1.216652 -1.1731983
0.81074524 -1.8850907 -1.5204858 -1.3618655 0.60227525 -2.6131833 0.65652883 -0.9521938
0.9423282 -1.0078437 -2.2886226 -1.9589386 -1.4788498 -1.2796315 0.43306905 2.8971913
0.5210762 -1.843381 -0.94298106 -1.7744113 0.6437185 0.31740138 0.6649503 2.6022692
0.46803758 2.3473818 -1.6593678 0.6713572 0.7929446 -1.2373315 0.65121937 0.3046392
0.5469625 0.23548019 -1.3657091 0.3759565 -1.1447179 -2.478851 -1.0600704 -1.2372007
-1.0946046 0.38472337 -0.75442976 -1.6450087 0.3114285 0.717708 -1.0014989 -1.8170964
-0.75237644 -0.8900843 2.459566 0.8317839 1.0362579 -1.2479936 1.0922692 -1.4219182
0.3713755 -2.382198 0.7960322 -1.8043048 -1.8854384 0.7815428 0.5295891 1.5197126
-1.6179247 0.34794822 0.42405495 -0.80870104 0.573043 0.91991466 -1.3289839 1.1865898
0.5490852 0.82706964 0.6410286 -1.1814617 0.52566916 -0.88047963 0.30204883 -1.2794509
-0.9992992 0.8097655 0.7179035 0.7300235 1.323571 0.53375316 -0.9980447 -0.9847257
0.25663275 -1.606686 0.30277053 1.8359684 0.2883829 -1.5174981 0.9040301 -0.9512418
0.5918584 1.6063863 -0.9759469 -2.2876158 -1.1803834 -1.2749425 0.32629502 2.145312
0.49548784 -0.79982287 0.03951397 -1.9167564 -2.3278494 -1.278122 -1.0257324 0.74862784
0.7464608 -1.0556015 1.4461639 -2.3338413 1.407634 -2.2834146 -2.0381072 0.67331135
00000000: 304e debf 658d 40bf 2bd5 393f 4111 4f3f
00000010: a1ff b5bf 625c c5bf 7530 033f ecb7 1a3d
00000020: 2027 84bf f38c a4bf 5341 883c 00d5 a8bf
00000030: c4b6 d93f ef3d d23f a367 d3bf 2db6 87bf
00000040: a592 df3f f62f 82c0 bbb4 79bf 1fb4 88bf
00000050: 96ce d1bf b21d d33f a5ba a7bf 922b 09c0
00000060: a271 c13e 3e94 8bbf 741c 113f d5c9 52bf
00000070: 69ec 8dbf 540e db3e 821c 733f f271 8c3f
00000080: dd5e 0040 98d6 0c40 9bac 663e c2a1 7c3f
00000090: 7070 6a3f 05d2 173f 040c 053f 3ca0 91bf
000000a0: ea05 b2bf c210 4e3f 64ec ac3f e509 bd3e
000000b0: ee93 0f40 0c15 40c0 9420 88bf ff04 5fbf
000000c0: cd83 0240 b044 663f 8576 96bf 2a64 03c0
000000d0: 3c4e ffbf b08c 4040 81bb 90bf bad4 b3bf
000000e0: 1ee6 223f eb38 143d 62f9 88bf 64bc 6e3f
000000f0: 5713 a4bf b548 c73e 21b0 9fbf c453 b63f
00000100: 868a bc3e 41bc f73e be65 9cbf 2ddb 4f3f
00000110: 70ed a2bf e62f 7dbf 9b58 803f 9810 1340
00000120: 7da6 233f 61ea 583f df24 ccbf 7553 e5bf
00000130: f4ae e03e 3aa5 01c0 5e70 87bf 5eb7 9e3e
00000140: c64c 093f ed9e dbbf fa1e a6bf e794 ae3e
00000150: 9397 4a3f 2e3a 6a3f ede4 fe3f 3655 943f
00000160: b591 0bc0 e835 9ebf f0ac c93f 6a3d bc3e
00000170: 8cbc 74bf 8f6e edbf 91d9 8cbf c2df a53e
00000180: a281 183f c20e bb3f 2ba5 0c3f 6204 e6bf
00000190: 4576 f4bf 0b94 fabf 37da e93e 068a d9bf
000001a0: 6073 233d 11a9 b53f 9cc1 9bbf 0fc0 99bf
000001b0: 372d b53c b4ae debf 1a01 d6bf e64f c23e
000001c0: 5931 57bf a8c9 8abf 1e97 95bf 6753 95bf
000001d0: 1a33 7e3c 6975 8dbf a04d 2040 9420 dabf
000001e0: 7763 253f 2088 6f3f ca09 8bbf 988a 86bf
000001f0: 2e94 0540 4d47 a0bf e035 c9bf 7e54 9dbf
00000200: b879 143f 6aa3 70bf 9f32 4a3f 43ad dfbf
00000210: f426 a53e 169c d0bf 41bb 9b3f 5d2b 96bf
00000220: 008d 4f3f a74a f1bf 479f c2bf 9c51 aebf
00000230: b62e 1a3f 653e 27c0 4612 283f f9c2 73bf
00000240: 6c3c 713f 0601 81bf cb78 12c0 80be fabf
00000250: f34a bdbf f7ca a3bf 3abb dd3e 956b 3940
00000260: 4065 053f e9f3 ebbf 3567 71bf e91f e3bf
00000270: bcca 243f 6f82 a23e 2f3a 2a3f 948b 2640
00000280: 9fa2 ef3e 813b 1640 2a66 d4bf 11de 2b3f
00000290: 6bfe 4a3f e160 9ebf 50b6 263f abf9 9b3e
000002a0: bc05 0c3f b821 713e 8ecf aebf 5f7d c03e
000002b0: 1e86 92bf 7fa5 1ec0 63b0 87bf 985c 9ebf
000002c0: 011c 8cbf 76fa c43e 4f22 41bf a58f d2bf
000002d0: 8e73 9f3e b6bb 373f 1e31 80bf 9d96 e8bf
000002e0: be9b 40bf 91dc 63bf 8869 1d40 caef 543f
000002f0: 19a4 843f 41be 9fbf 7acf 8b3f 6a01 b6bf
00000300: ee24 be3e ef75 18c0 c4c8 4b3f 76f3 e6bf
00000310: 0c56 f1bf 3013 483f 2793 073f f185 c23f
00000320: 2818 cfbf 4526 b23e bb1d d93e 0807 4fbf
00000330: f2b2 123f 877f 6b3f 251c aabf 2de2 973f
00000340: d990 0c3f d6ba 533f 731a 243f 233a 97bf
00000350: 4192 063f 1d67 61bf 25a6 9a3e 0cc5 a3bf
00000360: 13d2 7fbf cb4c 4f3f 86c8 373f d2e2 3a3f
00000370: c66a a93f 0ca4 083f dc7f 7fbf fc16 7cbf
00000380: 5e65 833e e3a7 cdbf bd04 9b3e 0301 eb3f
00000390: eca6 933e 613d c2bf 846e 673f 9584 73bf
000003a0: 0884 173f 119e cd3f a8d7 79bf 4c68 12c0
000003b0: ce16 97bf 5131 a3bf 2410 a73e cb4c 0940
000003c0: 95b0 fd3e 31c1 4cbf 67d9 213d 4658 f5bf
000003d0: 7cfb 14c0 8099 a3bf 334b 83bf 13a6 3f3f
000003e0: 0e18 3f3f f31d 87bf e61b b93f a85d 15c0
000003f0: 5a2d b43f 7723 12c0 5970 02c0 225e 2c3f

l4.weight f4 [256, 32]
-0.072069295 0.100403294 0.21510616 -0.009582745 0.08323566 -0.027217837 0.042900667 0.014215894
-0.014768381 -0.20394456 -0.1893053 0.27914295 -0.17770524 -0.30121788 0.018501766 -0.09719632
-0.2292868 -0.08379336 0.16129197 -0.17480117 0.4231465 0.013405038 0.23261073 -0.30043325
-0.30378374 -0.3240498 -0.0697032 -0.1653808 0.010814941 0.16785741 -0.31891426 -0.03749103
0.23187153 -0.14346987 0.079349026 -0.309698 -0.11627691 -0.17739868 -0.102280326 -0.4149095
1.2465324 0.43526727 -0.12763308 -0.09318326 0.33230138 0.01924436 -0.09481527 -0.51871973
-0.32401302 -0.028030034 0.14771876 0.279186 0.22156437 0.039657906 -0.14361498 0.33899844
0.03504304 -0.31876045 0.016990084 -0.4695059 -0.06734438 -0.6528626 0.28972355 0.14741078
-0.2704584 0.02978328 0.09209765 0.024046605 -0.13916384 1.3665538 0.11094833 0.0072361906
0.35733077 1.5831689 0.06319355 0.6251555 0.8663424 0.18965983 -0.15567397 -0.38518086
-0.2693546 -0.39809063 0.10596271 -0.49233675 0.0026326084 -0.23204708 0.22047786 -0.41443244
-0.6880489 0.05037794 -0.0044804774 -0.15562986 0.014939141 -0.07601748 -0.02330318 -0.08722397
-0.36615005 0.1699286 0.064864114 -0.01772344 -0.17248653 -0.55047274 -0.13024259 -0.08051165
0.60784435 -0.30857924 0.4138397 -0.012247717 -0.12851952 0.48776618 0.057245143 0.15482362
0.5909499 0.07563716 0.4296799 0.7512059 -0.36168525 -0.14519578 -0.8736976 0.020397577
-1.182309 -0.9247228 -0.11995505 0.052557904 -0.112065315 -0.07559006 -0.28026208 0.016258879
0.6859161 0.025487568 -0.101411454 0.057617884 0.1626603 -0.33138484 0.0011987407 0.06552126
0.1805864 -0.5830564 0.024139857 -0.37456474 0.10652676 0.048783336 -0.17012386 -0.022086022
-0.45245028 -0.2887712 0.5211979 -0.10649034 0.124732286 -0.0179061 0.70705134 -0.14031352
-0.6295703 0.63073874 -0.14669862 -0.02042126 -0.021368176 0.022752741 -0.0029777824 -0.050118275
-0.48962638 -0.15712756 0.12740733 -0.2448879 -0.001733563 -0.11049958 0.069815956 0.24194506
0.17904136 0.44692925 0.08581959 0.30210808 0.061092526 0.07041912 0.10180168 -0.27785698
0.27118164 -0.18305793 -0.059205007 0.17136504 0.08612126 -0.16020788 0.26123318 0.09476665
-0.06816805 0.054607283 0.32222682 0.104778714 0.18013433 0.060552016 -0.2528029 -0.2240076
0.0952455 -0.04156975 -0.22635844 -0.19537938 -0.076872334 -0.46874323 0.16467601 -0.4228627
-0.40355295 0.3555889 0.12560174 0.073545836 -0.33345208 -0.60149664 0.054959595 0.14753386
0.040417634 0.1711494 0.0884466 0.23491508 -0.030139321 0.498976 0.33244726 0.08375871
-0.27468506 -1.341817 0.23389803 0.14135207 -0.24273086 -0.27320606 0.40617126 0.14847186
0.071827255 -0.034736756 0.03873099 -1.1172055 0.05758846 0.222665 -0.15003309 -0.066152886
0.05365943 -0.719457 0.5536851 0.23741493 -0.2470875 -0.049524337 0.041449267 -0.0012830268
-0.0005318939 0.052994188 -0.30852714 0.0007701039 0.12362039 0.18369688 0.32047042 -0.1542895
-0.61245394 0.044501837 -0.078053 -0.051734496 0.018501524 -0.36101812 -0.10180536 -0.02953635
00000000: 1199 93bd 3ea0 cd3d ca44 5c3e f200 1dbc
00000010: 7577 aa3d f1f7 debc 9cb8 2f3d c8e9 683c
00000020: 14f7 71bc d8d6 50be 40d9 41be d3eb 8e3e
00000030: 5df8 35be 3b39 9abe 0491 973c dd0e c7bd
00000040: 29ca 6abe da9b abbd b929 253e 14ff 32be
00000050: a8a6 d83e cea0 5b3c 8231 6e3e 63d2 99be
00000060: 8b89 9bbe dbe9 a5be 8dc0 8ebd 9659 29be
00000070: 2631 313c d0e2 2b3e bb48 a3be 3290 19bd
00000080: bb6f 6d3e c4e9 12be be81 a23d bc90 9ebe
00000090: 9722 eebd 00a8 35be 5978 d1bd 056f d4be
000000a0: 608e 9f3f 5adb de3e 3fb2 02be ddd6 bebd
000000b0: 6823 aa3e 59a6 9d3c 822e c2bd d1ca 04bf
000000c0: 09e5 a5be 3e9f e5bc 9643 173e 78f1 8e3e
000000d0: c5e1 623e 5470 223d ce0f 13be 3491 ad3e
000000e0: 4a89 0f3d 9234 a3be ca2e 8b3c 1463 f0be
000000f0: daeb 89bd 0122 27bf a556 943e daf2 163e
00000100: 8679 8abe 11fc f33c b19d bc3d 63fd c43c
00000110: f780 0ebe 3ceb ae3f e138 e33d 911d ed3b
00000120: 0ff4 b63e 47a5 ca3f 9f6b 813d 310a 203f
00000130: 9ec8 5d3f 3036 423e ff68 1fbe 6d36 c5be
00000140: d9e8 89be 89d2 cbbe fa02 d93d 9013 fcbe
00000150: d787 2c3b c09d 6dbe f3c4 613e 7d30 d4be
00000160: f923 30bf 1959 4e3d f8d0 92bb 6f5d 1fbe
00000170: 4dc3 743c 0daf 9bbd 4fe6 bebc 7ba2 b2bd
00000180: 0578 bbbe c301 2e3e 7ad7 843d bf30 91bc
00000190: 4fa0 30be c8eb 0cbf 505e 05be 4be3 a4bd
000001a0: b09b 1b3f 19fe 9dbe cce2 d33e a6aa 48bc
000001b0: 9f9a 03be 7dbc f93e e279 6a3d 158a 1e3e
000001c0: 7e48 173f a8e7 9a3d 01ff db3e 084f 403f
000001d0: cf2e b9be 34ae 14be a5aa 5fbf d218 a73c
000001e0: e755 97bf a2ba 6cbf feaa f5bd f546 573d
000001f0: 8082 e5bd f6ce 9abd 837e 8fbe 5731 853c
00000200: 3398 2f3f 4ecb d03c cfb0 cfbd bb00 6c3d
00000210: 6c90 263e 46ab a9be 101f 9d3a 0330 863d
00000220: a4eb 383e 2f43 15bf f3c0 c53c f3c6 bfbe
00000230: b42a da3d 09d1 473d f334 2ebe bfed b4bc
00000240: 90a7 e7be d2d9 93be 3a6d 053f 9b17 dabd
00000250: a473 ff3d d0af 92bc 5101 353f 59ae 0fbe
00000260: 852b 21bf 1878 213f 2a38 16be 7c4a a7bc
00000270: 500c afbc f563 ba3c e626 43bb d248 4dbd
00000280: 4fb0 fabe 0ce6 20be 1177 023e e5c3 7abe
00000290: b938 e3ba 9b4d e2bd abfb 8e3d 72c0 773e
000002a0: 9e56 373e e9d3 e43e 2ec2 af3d e9ad 9a3e
000002b0: 283c 7a3d e637 903d 667d d03d 4543 8ebe
000002c0: 52d8 8a3e 8a73 3bbe f380 72bd 517a 2f3e
000002d0: 5860 b03d 890d 24be 5bc0 853e 0415 c23d
000002e0: b19b 8bbd e3ab 5f3d eafa a43e 3996 d63d
000002f0: 2275 383e 6405 783d 626f 81be 4062 65be
00000300: 1310 c33d 0b45 2abd 82ca 67be 8811 48be
00000310: 3e6f 9dbd 1dff efbe d4a0 283e 7681 d8be
00000320: 7e9e cebe c00f b63e be9d 003e 339f 963d
00000330: 3bba aabe affb 19bf 501d 613d 1e13 173e
00000340: f68c 253d ca41 2f3e 7e23 b53d 948d 703e
00000350: bde6 f6bc c879 ff3e 8736 aa3e b089 ab3d
00000360: 85a3 8cbe a9c0 abbf f782 6f3e 99be 103e
00000370: 708e 78be aae1 8bbe aef5 cf3e 0209 183e
00000380: 2b1a 933d 2148 0ebd 63a4 1e3d 9700 8fbf
00000390: e1e1 6b3d 4b02 643e 46a2 19be 2a7b 87bd
000003a0: fec9 5b3d 552e 38bf 4fbe 0d3f e61c 733e
000003b0: 8104 7dbe 08da 4abd b5c6 293d 3c2b a8ba
000003c0: cc6e 0bba 6f10 593d 45f7 9dbe cce0 493a
000003d0: b02c fd3d 091b 3c3e b314 a43e 11fe 1dbe
000003e0: c8c9 1cbf 8f47 363d 40da 9fbd 8de7 53bd
000003f0: 8290 973c 5ed7 b8be 547f d0bd 37f6 f1bc

l4.bias f4 [256]
0.123303585 -0.19845365 0.01453106 -0.11316186 -0.02120853 0.039790735 -0.07626818 0.031986807
-0.044360824 -0.122157335 0.30034104 -0.055683423 -0.1481884 -0.15396178 0.321925 0.0312649
-0.0837687 -0.39067873 0.027741723 0.182362 0.11904885 -0.15563038 -0.3207163 0.1776042
0.2916932 0.23850864 0.2185294 0.02881599 0.31313494 0.08871201 0.1368111 0.21460831
0.18957467 -0.29148445 -0.20905434 0.22107245 -0.03674073 0.10333692 -0.109781034 -0.22410229
-0.020225853 0.03883358 0.08283552 -0.0033949933 0.2701832 0.11871668 0.25836414 0.024730634
0.013120419 -0.037061263 -0.247065 -0.23429435 -0.32975033 0.19504257 0.13556212 -0.052268617
0.10735023 0.19827363 -0.19866212 0.0099766245 0.13157025 -0.01579814 -0.018606648 -0.12011416
-0.3347255 -0.06869883 0.123215586 0.27508023 -0.17997412 0.31638142 -0.12957634 -0.030803971
-0.22428527 -0.1813922 0.079829395 0.20900388 0.2618961 0.20540817 0.18019319 0.21047273
0.115036145 -0.16642627 0.2293547 -0.19688514 -0.15260278 0.023278449 0.016573979 0.25914517
-0.13100696 -0.10831832 0.05078769 -0.2613207 0.23764448 0.34973902 -0.13075234 -0.027990734
0.16463928 -0.42347282 -0.19496785 -0.11748184 -0.255178 -0.2566679 -0.26060158 0.25276688
0.29955527 0.048200265 -0.27878854 0.022171507 0.0010262019 0.081792675 0.49579966 -0.17161763
0.2692173 -0.16089663 -0.3041946 0.12050443 -0.25830635 -0.056844488 0.37449077 -0.22757292
-0.14940114 0.05809345 0.38148075 0.3435935 0.11334627 -0.11952718 -0.15066409 0.18275124
-0.08633033 0.15570861 0.10885206 -0.05532943 -0.28233588 -0.13323155 0.14824423 0.18140973
0.20664829 -0.14323731 -0.09389253 0.27991605 -0.15544745 0.023907617 -0.107986994 0.12013542
-0.05224959 0.055266526 -0.113902956 -0.14863929 -0.4004896 0.24709088 -0.24697408 -0.36503568
0.0923395 0.014811881 0.056421556 -0.21255791 0.10593098 0.117457464 -0.10341125 0.12765458
-0.09445556 0.120835245 -0.14499995 0.12509267 -0.061912127 0.030481543 0.23088288 0.1410781
-0.058592904 0.013047124 0.07633492 -0.26315993 -0.29374447 0.08836441 -0.02141325 -0.41442674
0.08178181 0.035896767 0.0884006 -0.17494595 0.0044392324 -0.123380974 -0.03379228 -0.14567742
0.27704725 -0.025089525 0.20284808 0.08278475 -0.0420981 0.0088855475 -0.1263876 -0.20818813
0.1596554 0.19517915 0.04789901 0.09356488 -0.22411992 0.09112573 -0.23839837 -0.03824829
-0.010073504 0.2948674 0.028548252 0.046851914 0.06972087 0.0538667 -0.040940724 0.077760234
-0.08070275 0.18210408 0.26564577 -0.13671516 0.21462958 -0.39310893 0.23622309 0.15107393
0.03850617 0.3549134 -0.19050166 0.20113415 -0.3005281 -0.075703055 -0.019648645 0.2773747
0.19349931 -0.10310037 -0.05119009 0.09023065 0.0024538115 0.10971618 -0.012811975 0.19990993
0.20413895 0.17550097 -0.27549124 -0.08769616 -0.19260475 -0.25104576 0.14594512 0.09683039
0.21718739 0.04861933 -0.43214753 0.12233312 -0.26153368 -0.0097899595 -0.47601935 -0.14258929
0.12839465 0.022661572 0.18137732 0.16556907 -0.05077513 0.1930395 -0.2657704 -0.20403655
00000000: 9786 fc3d 6f37 4bbe af13 6e3c 68c1 e7bd
00000010: 83bd adbc 9cfb 223d 7e32 9cbd 9904 033d
00000020: b2b3 35bd a02d fabd 4dc6 993e 4d14 64bd
00000030: b3be 17be 28a8 1dbe 5bd3 a43e a00f 003d
00000040: ed8e abbd 0b07 c8be 9c42 e33c 1bbd 3a3e
00000050: e2cf f33d 925d 1fbe ed34 a4be e0dd 353e
00000060: d058 953e 9c3b 743e 2cc6 5f3e 830f ec3c
00000070: 3953 a03e a4ae b53d 3618 0c3e 48c2 5b3e
00000080: dd1f 423e 733d 95be 5712 56be d160 623e
00000090: 737d 16bd 4fa2 d33d e1d4 e0bd 127b 65be
000000a0: b0b0 a5bc f60f 1f3d aba5 a93d 897e 5ebb
000000b0: 7455 8a3e bb21 f33d 4e48 843e e697 ca3c
000000c0: 07f7 563c 8dcd 17bd 9bfe 7cbe dcea 6fbe
000000d0: 09d5 a8be 3db9 473e ccd0 0a3e 9e17 56bd
000000e0: 70da db3d 3e08 4b3e 156e 4bbe ff74 233c
000000f0: 5aba 063e 1a6b 81bc f86c 98bc 6afe f5bd
00000100: 2461 abbe f9b1 8cbd 7458 fc3d 51d7 8c3e
00000110: 234b 38be bffc a13e a9af 04be 9c58 fcbc
00000120: 0aab 65be e0be 39be 987d a33d 1d05 563e
00000130: 3f17 863e 8556 523e 9084 383e 2a86 573e
00000140: 1298 eb3d a66b 2abe f5db 6a3e 429c 49be
00000150: e743 1cbe 72b2 be3c 27c6 873c adae 843e
00000160: b026 06be ffd5 ddbd c106 503d d4cb 85be
00000170: 1359 733e fe10 b33e f1e3 05be d34c e5bc
00000180: 3397 283e 6ed1 d8be a7a5 47be 529a f0bd
00000190: b1a6 82be fa69 83be 926d 85be a96a 813e
000001a0: 4f5f 993e a46d 453d 5fbd 8ebe 05a1 b53c
000001b0: 9f81 863a eb82 a73d 74d9 fd3e 88bc 2fbe
000001c0: dad6 893e 16c2 24be 65bf 9bbe 07cb f63d
000001d0: bb40 84be c4d5 68bd 41bd bf3e e008 69be
000001e0: 9dfc 18be 66f3 6d3d 7251 c33e 7deb af3e
000001f0: 1722 e83d abca f4bd b047 1abe 2423 3b3e
00000200: f5cd b0bd 1472 1f3e d4ed de3d 1da1 62bd
00000210: 548e 90be da6d 08be 56cd 173e 79c3 393e
00000220: 9c9b 533e cdac 12be ba4a c0bd 2851 8f3e
00000230: 9e2d 1fbe e8d9 c33c 4928 ddbd 8f09 f63d
00000240: ab03 56bd 275f 623d f445 e9bd e634 18be
00000250: f90c cdbe 6405 7d3e c6e6 7cbe f5e5 babe
00000260: 7e1c bd3d 88ad 723c 4a1a 673d c8a8 59be
00000270: 57f2 d83d 8a8d f03d 47c9 d3bd e2b7 023e
00000280: eb71 c1bd 7878 f73d de7a 14be 4b18 003e
00000290: 9297 7dbd 6eb4 f93c 906c 6c3e c776 103e
000002a0: 1dff 6fbd 9bc3 553c 7c55 9c3d e6bc 86be
000002b0: ad65 96be 66f8 b43d d76a afbc be2f d4be
000002c0: 397d a73d 7d08 133d 600b b53d 0825 33be
000002d0: fb76 913b 2aaf fcbd c669 0abd 762c 15be
000002e0: 23d9 8d3e 8c88 cdbc 68b7 4f3e 0d8b a93d
000002f0: 0f6f 2cbd b094 113c c06b 01be 452f 55be
00000300: b57c 233e 0bdd 473e c131 443d f29e bf3d
00000310: b17f 65be 20a0 ba3d b41e 74be 3daa 1cbd
00000320: 570b 25bc dcf8 963e 06de e93c cbe7 3f3d
00000330: d1c9 8e3d 54a3 5c3d 76b1 27bd c240 9f3d
00000340: 7c47 a5bd 7e79 3a3e b902 883e 0fff 0bbe
00000350: dbc7 5b3e 9345 c9be 77e4 713e 20b3 1a3e
00000360: a5b8 1d3d 36b7 b53e de12 43be 1cf6 4d3e
00000370: d2de 99be 340a 9bbd 32f6 a0bc 0f04 8e3e
00000380: af24 463e 4926 d3bd b3ac 51bd d9ca b83d
00000390: 20d0 203b e0b2 e03d 51e9 51bc 30b5 4c3e
000003a0: cd09 513e 87b6 333e 300d 8dbe 0b9a b3bd
000003b0: 2e3a 45be 1289 80be a372 153e 034f c63d
000003c0: 5f66 5e3e 1025 473d 7142 ddbe c989 fa3d
000003d0: bee7 85be 1166 20bc cfb8 f3be ed02 12be
000003e0: e379 033e c3a4 b93c faba 393e f08a 293e
000003f0: 95f9 4fbd 26ac 453e 0f13 88be f5ee 50be

l5.weight f4 [256, 256]
0.0069940845 0.20273831 0.31408563 -0.07800818 0.16556564 0.25628984 -0.10958889 -0.072384626
0.032624643 0.018179521 -0.016422268 0.3231161 0.34011263 0.08925568 0.19695169 0.24760517
0.17244849 -0.09076861 0.29182255 0.06685812 0.03865028 0.19194855 0.13025689 0.16309293
0.06424504 0.07412737 -0.028401457 -0.024055632 0.15601015 -0.05972413 0.19821613 -0.20241633
0.04541808 0.05898166 0.20358098 0.062498447 -0.0046552247 0.21362048 0.08829508 0.19536705
0.26688787 -0.08245896 0.023412433 0.3461881 0.08130724 -0.088033274 0.03759303 0.4574242
-0.13330942 0.23356466 0.1696851 0.09295836 0.058879655 0.11917396 0.091299444 0.1915869
0.06790589 0.08371585 0.24243084 0.0419122 0.19592819 -0.047304798 0.08352607 0.08757446
-0.16633107 0.20882043 -0.06791295 0.018538643 0.16779381 0.1626027 0.093737595 0.254049
-0.040524315 0.20519459 0.10156535 -0.0024372926 0.07721379 0.009621163 -0.08791484 -0.062014088
0.37076008 0.018868739 0.11328219 0.2913112 0.057590663 0.45654157 0.25520337 0.11543548
0.16185582 0.037667915 0.16622108 0.22900732 0.2882137 0.26552057 0.008503988 0.19356877
0.34971038 -0.009944352 0.04542075 0.174934 0.1260524 -0.07474876 -0.049613316 -0.07322453
0.0095949005 -0.05658766 -0.07475298 -0.15609014 0.20395815 0.04260425 0.38942993 0.18265957
0.05314512 -0.06493416 0.19229324 -0.027059188 0.20992664 0.20550153 0.023783835 0.027450962
-0.16668579 -0.024591852 0.095037006 0.006997879 -0.006708822 0.11631065 0.09024562 0.33080465
0.32234406 -0.10698783 0.38050225 0.3295959 0.13241881 0.2912275 0.14677754 0.14190508
-0.011667748 0.35812774 0.108605646 0.29308772 -0.25723445 0.06926425 0.019881366 -0.016335031
0.1357933 0.1302026 0.004815978 0.18486372 0.24327794 0.2606133 0.036121514 -0.061698187
0.08130496 0.018516058 0.2043423 0.16434844 0.16266458 -0.10697326 0.24518 0.048443668
0.14494798 0.19681534 -0.015540782 0.3150986 0.13241965 -0.089758076 -0.032413296 -0.025076468
0.011441642 0.029884897 0.01862662 0.28158516 0.1946972 0.16157623 0.14448275 -0.40239424
0.22836378 -0.13720098 0.31399852 0.13089508 0.23553854 0.15666495 0.16133338 -0.15539481
0.029797623 0.1544979 -0.03401324 -0.08928982 0.17979187 0.18671691 0.27510008 0.0146251
0.19870235 -0.42274275 0.0949871 0.13621679 0.007307547 0.06830424 0.06361773 0.17192751
0.16158555 -0.14462288 0.45990932 0.19966136 0.11170373 0.11307427 0.24217343 0.013423839
0.049357127 0.04787613 0.25690058 0.1637286 -0.01987449 0.13840039 0.33835253 -0.06947241
-0.17507248 0.23802745 -0.18855561 0.16644146 0.051774267 0.18202066 0.0995391 0.035592563
0.04455852 0.3195217 0.10851095 0.17818521 0.25116745 0.07435332 0.08305569 -0.07761072
0.08251987 0.037436623 0.020458862 0.11345491 0.08009366 0.09533319 0.391075 0.37732136
-0.1330344 0.07985385 0.16404803 0.14608638 0.30850014 -0.040846486 0.19072911 0.1949647
0.1864881 -0.06295344 0.07500797 0.1321796 0.0591401 -0.15439665 0.16701017 0.2300084
00000000: a22e e53b a29a 4f3e d5cf a03e c1c2 9fbd
00000010: 0a8a 293e 6c38 833e 2470 e0bd 643e 94bd
00000020: 6ba1 053d 38ed 943c fe87 86bc 796f a53e
00000030: 3e23 ae3e afcb b63d b4ad 493e 368c 7d3e
00000040: 5696 303e e5e4 b9bd c469 953e e9ec 883d
00000050: c24f 1e3d 298e 443e 1062 053e d501 273e
00000060: e792 833d 17d0 973d 2caa e8bc 5110 c5bc
00000070: 20c1 1f3e 4aa1 74bd 2bf9 4a3e 3a46 4fbe
00000080: 4f08 3a3d c196 713d 8877 503e 5ffe 7f3d
00000090: db8a 98bb 54bf 5a3e 0dd4 b43d 4d0e 483e
000000a0: 87a5 883e 3ee0 a8bd 6ecb bf3c 913f b13e
000000b0: 6984 a63d ca4a b4bd 26fb 193d 8133 ea3e
000000c0: 4482 08be 932b 6f3e eec1 2d3e f460 be3d
000000d0: cb2b 713d 7a11 f43d 34fb ba3d 5b2f 443e
000000e0: 3e12 8b3d 3773 ab3d ca3f 783e 21ac 2b3d
000000f0: 66a1 483e adc2 41bd b70f ab3d 3d5a b33d
00000100: b152 2abe 06d5 553e f215 8bbd 5ade 973c
00000110: 24d2 2b3e 5281 263e 7ff9 bf3d b612 823e
00000120: d3fc 25bd 881e 523e 7f01 d03d fcba 1fbb
00000130: 4322 9e3d 15a2 1d3c b20c b4bd 7c02 7ebd
00000140: 44d4 bd3e 9d92 9a3c 7e00 e83d be26 953e
00000150: 30e4 6b3d d1bf e93e 04aa 823e 7069 ec3d
00000160: 88bd 253e ac49 1a3d dc35 2a3e e580 6a3e
00000170: bf90 933e 50f2 873e 5054 0b3c e436 463e
00000180: 3d0d b33e a3ed 22bc 1c0b 3a3d e621 333e
00000190: e113 013e e115 99bd 5537 4bbd bef6 95bd
000001a0: ee33 1d3c 76c8 67bd 1718 99bd 18d6 1fbe
000001b0: 68da 503e cb81 2e3d 5c63 c73e 1c0b 3b3e
000001c0: b3ae 593d 33fc 84bd 85e8 443e 3bab ddbc
000001d0: 02f7 563e fe6e 523e 51d6 c23c d7e0 e03c
000001e0: aeaf 2abe da74 c9bc c3a2 c23d 774e e53b
000001f0: aed5 dbbb 4734 ee3d b2d2 b83d 3a5f a93e
00000200: 480a a53e 6f1c dbbd 31d1 c23e cbc0 a83e
00000210: cc98 073e c51b 953e da4c 163e 914f 113e
00000220: 152a 3fbc 855c b73e a36c de3d 980f 963e
00000230: 3cb4 83be 6ada 8d3d 3fde a23c 0bd1 85bc
00000240: 660d 0b3e d553 053e 5acf 9d3b ea4c 3d3e
00000250: da1d 793e 1b6f 853e 27f4 133d 3db7 7cbd
00000260: 3783 a63d fdae 973c 1c3f 513e f54a 283e
00000270: 8b91 263e cc14 dbbd 7710 7b3e de6c 463d
00000280: 3e6d 143e f689 493e c49e 7ebc 9b54 a13e
00000290: 0499 073e 15d3 b7bd cec3 04bd 2a6d cdbc
000002a0: ba75 3b3c 2cd1 f43c da96 983c ee2b 903e
000002b0: b45e 473e 3d74 253e 49f3 133e 9e06 cebe
000002c0: 32d8 693e 6a7e 0cbe 6ac4 a03e 5c09 063e
000002d0: 0431 713e c76c 203e 9434 253e d11f 1fbe
000002e0: 251a f43c b334 1e3e 7851 0bbd 95dd b6bd
000002f0: 5c1b 383e b832 3f3e ebd9 8c3e 1e9e 6f3c
00000300: a178 4b3e bd71 d8be 9988 c23d 6a7c 0b3e
00000310: 2674 ef3b 18e3 8b3d 034a 823d c40d 303e
00000320: af76 253e 0518 14be 3c79 eb3e 0774 4c3e
00000330: edc4 e43d 7c93 e73d 50fc 773e a9ef 5b3c
00000340: b32a 4a3d c319 443d 7988 833e 78a8 273e
00000350: d4cf a2bc d5b8 0d3e 8b3c ad3e 8d47 8ebd
00000360: 3346 33be 78bd 733e b914 41be a16f 2a3e
00000370: 4111 543d a063 3a3e 28db cb3d 82c9 113d
00000380: ff82 363d 5998 a33e fd3a de3d 2f76 363e
00000390: 0599 803e 8e46 983d 1a19 aa3d 5ff2 9ebd
000003a0: 2d00 a93d 2557 193d 5899 a73c 0c5b e83d
000003b0: 2508 a43d 0c3e c33d fb3a c83e 4430 c13e
000003c0: 2b3a 08be 6a8a a33d 35fc 273e ab97 153e
000003d0: bbf3 9d3e a54e 27bd 7e4e 433e d4a4 473e
000003e0: bdf6 3e3e bced 80bd c79d 993d 175a 073e
000003f0: e43c 723d 281a 1ebe b704 2b3e 5287 6b3e
