p2/TD3_BC_HalfCheetahBulletEnv-v0_1234_1.pth (torch, 898791 bytes, 16 tensors)

l1.weight f4 [256, 32]
00000000: 0b7e 1a3d 35a0 453d 7021 823d 67ae 863e
00000010: d76a f2bd fc9f 7bbe 8de5 f7be 1c55 d93d
00000020: e5d2 c0bd f918 af3c d879 aabc 5934 96be
00000030: 339c 1ebe aea2 6cbe dd38 573e a2f6 363e
00000040: 4e0d 97be 9158 8f3d 2345 5d3e f67c 4b3e
00000050: f6f8 723d c72b 0bbe 2204 a73d 440d d63d
00000060: d498 16be d6f2 cebe 23bf 093e 4c41 13bd
00000070: ae9a 1dbe 39fb 1b3e 2d09 2dbe 035d ca3b
00000080: 862d 73bd b29b 4a39 2710 6cbd 89d6 2d3f
00000090: 64cd abbd d2fe 493f 4d61 d6be e448 dc3e
000000a0: 4bcd 333e 1751 65bf c27f ec3d 8c02 d4be
000000b0: e9df b2be 94d8 fbbc 2252 0ebd 2972 35bf
000000c0: 116a 22bd dedb c3be 4276 5c3d 239a d5bd
000000d0: fe0f 113e c6e5 133d 6dee 24bf 1aad 2f3d
000000e0: e614 53be c3a1 57be 8b95 45be 7245 96bd
000000f0: ac21 f93d ded4 71be 5855 673d 798a 203c
00000100: 1153 243f edfa 2abd a60f 9b3e 43f1 a2bc
00000110: 2845 9f3d 3dda 423f 1068 85be 5ce8 0bbf
00000120: ff76 243e 2a76 d53d b02a a43e 9bd8 cf3d
00000130: 52d6 aa3d e5c2 4fbe f266 8ebe 35e3 97be
00000140: 7f47 153d dd8d b13d 5ea5 08be 96c9 9f3e
00000150: 806a 4c3e 9cb7 2ebe 48c3 0bbf edde 513e
00000160: 37b9 4a3e 0767 853d 00d5 90bc a44a 1fbe
00000170: e3cd d53d e0e8 febd 24ae 253d 4286 9b3c
00000180: 7e6f d5be c4b9 a13d 7dc5 3b3d af8c e6be
00000190: 248e 843d ea9c b3be 2929 0dbf a048 eebd
000001a0: 2ce5 ec3d b2da 79be 2d02 d6bd 8ad9 84be
000001b0: 0ae5 38be ff9e 133d 55da 4d3e a7c1 883e
000001c0: 7811 883e 5202 413d 5a60 653e 6dd6 48be
000001d0: deb4 cc3d 28bf 18be 13f1 073e 901c 8cbe
000001e0: a019 853e 291e 3cbe 98d9 b93d 35f3 b7bc
000001f0: 1409 91bc 9d5a 36bd 41f3 4e3c b667 dfbc
00000200: 475a 5abe 5d3c e4bd 4505 10be 24e6 743e
00000210: 72ea 0abe 0322 ef3f 30a1 3d3e 2976 6c3e
00000220: 8452 87be 92f3 e0be cb55 6abe 20c1 88bd
00000230: 79df 9c3b 7c04 b93a e2e9 403e 1335 463f
00000240: 943c e6bd 93e2 963e dfa6 cfbe 0cf9 6bbd
00000250: 7317 963d a363 57bd aea2 c93d 74a3 1dbe
00000260: 3536 25bf b428 18bd 7c8f 9eba 8213 fcbc
00000270: 92da ae3c dd91 2fbd f815 f33c 0502 acbd
00000280: d05b 833e fe49 e1bd 9c04 0fbe beba cebe
00000290: 6d30 61bd 8dec b3bf 7330 11be 2559 1e3e
000002a0: 6fa8 4abe 1845 01bf 3568 22bf cfe4 b0be
000002b0: 72c8 5bbe 1ce5 183d b8f1 8bbe 5ce6 ccbd
000002c0: a934 523d b997 1ebd a3ad 95be a42f 89bd
000002d0: eae1 6a3e 0166 303f f11f 74be 05e0 973d
000002e0: 227d f5be ef13 c9bd e279 e8bc 67fd c8bd
000002f0: 8d76 b73d 58eb c83c 7bbb 0d3c 88e9 4dbe
00000300: a5aa c93d fe67 1fbe af12 1fbd a74e 1a3f
00000310: 8452 e2bc 069f 853f 0a78 febe 489a 3fbe
00000320: 165f ddbd 1e9c d63e e0b9 903e d137 d73e
00000330: 6e0f a23e f49c 4e3d 9583 893e f5bb 343e
00000340: 7509 4a3d 38ac 93bd ce86 95be 74c5 1cbe
00000350: 445a 8c3d d2e5 a13d e065 1a39 6a47 d33a
00000360: 867b d8bb f066 a53e d91c 3f3d 0f3f 2ebc
00000370: d49f 2a3d 7114 6739 aa09 b03d f06c abbb
00000380: d9db c5bd 0450 263e 7633 4abd b712 b83e
00000390: 151f 9bbd ade9 f1bc c5f9 b1be 6725 fdbd
000003a0: 08bb 1cbd 0c45 ad3e 0243 8fbe 01e5 53be
000003b0: 2c0a 65be 2276 af3c 7b4d 703c 4cba c83d
000003c0: 0c4b 123d ed99 8abd e5d8 613e a228 60be
000003d0: 0760 52bd 5ccb 903e cef5 763e 6290 343e
000003e0: 6890 70bd 646d ab3e 20a6 4b3e f5d5 1ebe
000003f0: 9011 db3c e83e 73bd 804e 623d 318a 0fbd
0.03771786 0.04824849 0.06354034 0.26304933 -0.11836784 -0.24572748 -0.4841732 0.106119365
-0.09415225 0.021374213 -0.020810053 -0.29336813 -0.15489273 -0.23108932 0.21017785 0.1786752
-0.29502338 0.069993146 0.21608405 0.19871888 0.05931946 -0.13590918 0.08155085 0.10451749
-0.14706737 -0.40419644 0.13451819 -0.035950944 -0.15391037 0.15232553 -0.16898032 0.0061756386
-0.059369586 0.00019322222 -0.05763259 0.6790548 -0.083887845 0.7890445 -0.4187111 0.4302436
0.17558782 -0.8957686 0.11547805 -0.41408193 -0.34936455 -0.030742921 -0.034746297 -0.7087732
-0.039651934 -0.38253683 0.053823717 -0.1042979 0.14166257 0.0361078 -0.6442631 0.042889692
-0.20613441 -0.21057801 -0.19295327 -0.073374644 0.121646255 -0.23616359 0.056477875 0.009798639
0.6418925 -0.041743208 0.30285376 -0.019890433 0.077768624 0.76114255 -0.26055956 -0.5465143
0.16061018 0.10422929 0.32063818 0.10148736 0.083416596 -0.2028919 -0.27812916 -0.29665533
0.036445137 0.086696364 -0.13344333 0.31208485 0.19962502 -0.17062229 -0.5459485 0.20495196
0.19797216 0.065137915 -0.017679691 -0.15555817 0.104396604 -0.12446761 0.040449277 0.018984918
-0.41686624 0.0789676 0.045842636 -0.45029208 0.06472424 -0.35080653 -0.5514093 -0.11634946
0.115671486 -0.24399832 -0.10449634 -0.2594722 -0.18056121 0.036040302 0.20102818 0.26710245
0.26575828 0.047121353 0.22400036 -0.19613047 0.09995435 -0.1491667 0.13275556 -0.2736554
0.25996113 -0.1837088 0.09074706 -0.022454837 -0.017704524 -0.04452001 0.012631238 -0.027271133
-0.213235 -0.11144326 -0.1406451 0.23915917 -0.13565996 1.8682255 0.1851852 0.2309195
-0.26430142 -0.4393583 -0.2288429 -0.06677461 0.004787382 0.0014115716 0.18839219 0.77424735
-0.11242023 0.29469737 -0.40557 -0.057610556 0.07328691 -0.052585255 0.09845482 -0.15394384
-0.6453584 -0.037148193 -0.0012097205 -0.03077102 0.021344457 -0.042863715 0.029673561 -0.08398823
0.25655985 -0.11000441 -0.13966602 -0.40376848 -0.054977823 -1.4056565 -0.14178638 0.15463693
-0.19790815 -0.50496054 -0.6344026 -0.34549567 -0.21463183 0.03732787 -0.27332854 -0.10004875
0.051319752 -0.038718913 -0.29234037 -0.0669854 0.22937742 0.68905646 -0.2384031 0.07415775
-0.4794703 -0.09818255 -0.02837843 -0.09813958 0.08958159 0.024526283 0.008650656 -0.20108616
0.09847001 -0.15567014 -0.038836177 0.60276264 -0.027627237 1.0439155 -0.49700958 -0.18711197
-0.10809152 0.41915983 0.2826681 0.42034772 0.31652397 0.05044265 0.26858202 0.17649825
0.049325425 -0.072105825 -0.2920441 -0.15309697 0.06853154 0.07905163 0.00014724536 0.0016119306
-0.006606522 0.32305098 0.04665837 -0.0106351515 0.04165633 0.00022037492 0.08595593 -0.005231492
-0.09661073 0.16241461 -0.049365483 0.35951778 -0.07574288 -0.02953037 -0.34760872 -0.123606496
-0.038264304 0.3384174 -0.2798081 -0.20692827 -0.22367162 0.021418635 0.01466691 0.09801158
0.0357161 -0.0676764 0.22055395 -0.218905 -0.05136111 0.2828015 0.24117205 0.17633203
-0.058731467 0.33481896 0.1988759 -0.15511306 0.026741773 -0.059386164 0.055250645 -0.0350439

l1.bias f4 [256]
00000000: 27ed 7d3e 457a 23be e365 ef3e a6cc 4e3d
00000010: c48b 40be 53a6 15be 5286 0a3b 520f 023d
00000020: a7b9 203d 0ca2 80be c4e9 b53d 6e00 8bbe
00000030: fa0c adbd 209d ef3b 6624 6d3d e4bd 9f3e
00000040: daf6 afbd 8f37 36be cf71 9a3d dbff 0fbe
00000050: 7d6b f2bd 3512 5dbd 902d 903e 1245 38be
00000060: 9bcd c53e 57ca 57be c3ac afbe b1d9 44be
00000070: ab2e 543d 3c92 933d 72c7 973d 2327 4b3e
00000080: b2c2 85bd 44c5 273e 389c fa3d 82e8 ce3d
00000090: 8670 f23e d251 2e3d 4ae8 23be f59d ba3e
000000a0: f298 493e b39a afbe 5b5b 1d3e 177b fd3d
000000b0: 249f 26bd 9fe0 f3bc 35f8 8e3d 2f68 e5bd
000000c0: 6626 493e c3dd 7dbe 7a6e 01be f0d2 703d
000000d0: e85f b23e baf7 7d3e 2a60 e8bb 95a3 f5ba
000000e0: 1eb3 c5bd 6d15 e93d 9f0b 613e 7abe 683e
000000f0: 10f8 093e 0a62 44be 8b77 a03e c063 85bd
00000100: 2832 ef3d 731a 2cbe 4ca0 27be 6074 8bbe
00000110: 1317 93be b843 1a3e 8119 1c3e 9e47 a53e
00000120: 26d8 993c fae7 a639 6454 2e3d 968f 293e
00000130: c904 ae3e 9bae a73e 1a90 763e dbca af3d
00000140: 67da 7cbd a24c 7d3e f1eb 97bd 0ce2 c53c
00000150: 648d 56bd 253c e4bd a176 9e3e 9520 8d3e
00000160: 6228 c43d 09a9 9e3e 22cd e0be 6d62 a33e
00000170: 09c4 4e3e 1194 433e fe16 c53d 9359 363c
00000180: 9ac6 6b3e bdbc 4ebd f307 28bd 9742 45bd
00000190: 8d42 433d 93f4 223e 6a7b 863e b010 863d
000001a0: a6de dfbd ddc6 67be 99a1 b93e 6684 a4be
000001b0: e300 45be f1f8 c13d b5c8 3b3e 315f 1d3e
000001c0: 6a48 653c c62c 9d3d 1916 043d da69 14be
000001d0: 0835 4dbe 7401 073e 9a86 3ebd dffb c93e
000001e0: 84a3 b13d 947b 1abe d19a 393e d908 90bc
000001f0: fb66 843d 441c 643d 9050 a3bd 8a7a cb3e
00000200: aac0 0f3e 59db 3f3d ca9f 38be 2bf5 c6bd
00000210: fa79 a03e d9e5 8ebb bc36 a0be d365 053e
00000220: 491d 97bc 2f19 c43c ec83 f93c d371 b13c
00000230: 3595 23be a0b0 863e 044c 30bd 4c6c 073e
00000240: 75d9 353e 61c9 45be 6973 d8be 285b d93e
00000250: 6428 4a3e 9d68 73be b606 6a3e 7c57 97be
00000260: e56c 22be 609d 18be ab8e 783e 08d5 683e
00000270: 265d 6b3d 99ac 01be 79ea 243e ab50 05be
00000280: 9df5 9dba 8380 e63d 8f2f 33be eec1 3d3d
00000290: 63b3 ce3c af10 343e 3dce 9a3c 7f9b 9dbd
000002a0: 37ce c73e 02ae 293e 1730 fd3d 2a68 c73d
000002b0: d369 383e ab73 07bc 5864 33be 3ca3 9c3e
000002c0: 3616 c93d f1ac 06be 8f02 2f3e 3d04 a63d
000002d0: 78c6 86be 9838 18be f517 643c 858a 953e
000002e0: e9f2 fcbd 2f3c 26be 68ac 973d 1368 a53e
000002f0: 4c5e d3bd 3ccc 8d3e 2ddb 16be e803 99be
00000300: ea1c c0bc 8611 573e 1976 243e c415 8a3e
00000310: a81d 823e 1ab7 46be 6b9e 84bd b768 90be
00000320: 3632 743e e059 8f3e 5501 263e c292 0b3e
00000330: 1eac fd3c 686e 6e3e a841 f63c 103d 82bd
00000340: 59dc 0a3d 6f89 51bd 8405 763e f18e babc
00000350: 6568 3c3e 34e4 2b3e 8737 edbd fd62 88be
00000360: 6642 42be 4b56 7f3d 2f31 b9bd 41a7 79be
00000370: b8ce 153e a2b1 f6bc 336e 81be a179 de3d
00000380: c470 863e f805 1abe 428c 17be 7757 42be
00000390: 0bae a13e 3b66 03bd d258 763e 5e9e ef3c
000003a0: 587d d53d bbb2 b93d d698 98bd 5655 663e
000003b0: 2fee 12bd 4fc8 a4be 85cd 5f3e 72c8 663d
000003c0: 92da b4bd 05b2 4ebe d6ae 693d 4f32 213e
000003d0: ae08 9b3e 8948 06be 8ed4 4cbe 0c39 a53e
000003e0: 035a c1bd f65c 2bbe f108 aa3d b9ee 08be
000003f0: c779 91be f56e 013f 8376 783e 27c7 c7bd
0.24797498 -0.15964611 0.4675742 0.050488137 -0.18803316 -0.14614229 0.002113719 0.03175289
0.039239552 -0.25123632 0.08882478 -0.27148765 -0.08449741 0.007312432 0.05789604 0.31199563
-0.08592005 -0.17794631 0.075412385 -0.14062445 -0.11836908 -0.05397244 0.2815976 -0.17995098
0.38633427 -0.2107328 -0.34311494 -0.19223668 0.05180232 0.07205626 0.07411088 0.19839148
-0.06531276 0.16383845 0.122368276 0.10102941 0.47351474 0.0425585 -0.1600658 0.36448637
0.1968725 -0.34297714 0.1536688 0.12376993 -0.040679112 -0.029770194 0.069809355 -0.11201512
0.19643554 -0.24791627 -0.126398 0.058794916 0.34838796 0.24801531 -0.007091542 -0.0018740768
-0.096533045 0.1138104 0.2197709 0.22728911 0.13473535 -0.19178024 0.31341204 -0.065131664
0.116794884 -0.16806965 -0.16369742 -0.27237225 -0.28728542 0.15064895 0.15244104 0.32281202
0.018779825 0.00031834823 0.04256095 0.1655868 0.33988026 0.327504 0.24078408 0.085836135
-0.061731722 0.24736264 -0.07418049 0.02415564 -0.052380934 -0.11144284 0.30949882 0.2756392
0.09578015 0.3098834 -0.43906504 0.3191103 0.20191969 0.19099452 0.09623526 0.011129755
0.23024979 -0.050472964 -0.041023206 -0.04815921 0.04767089 0.1591361 0.26266032 0.06546152
-0.10931139 -0.22634454 0.36256102 -0.32132262 -0.1923862 0.0947131 0.18338282 0.15368344
0.013994316 0.076745555 0.032247636 -0.14493504 -0.20039761 0.13184148 -0.046515085 0.39449975
0.08673766 -0.15086204 0.18125464 -0.017582344 0.064649545 0.05569102 -0.079743505 0.39741927
0.1403834 0.046840046 -0.18029705 -0.09714731 0.3134306 -0.004360896 -0.3129176 0.13027124
-0.018446581 0.02393779 0.030458413 0.02166072 -0.15974887 0.2630663 -0.043041244 0.13224906
0.17758735 -0.19315101 -0.4227555 0.4245236 0.1974197 -0.23770376 0.22854123 -0.29558933
-0.15861852 -0.14903784 0.24273174 0.22737515 0.05746188 -0.12663497 0.16105069 -0.13019054
-0.0012051348 0.112549804 -0.17498611 0.046327524 0.025232023 0.1758449 0.01889717 -0.07695674
0.39024517 0.16570285 0.12362688 0.097366646 0.18009119 -0.0082673235 -0.17518747 0.30593288
0.098186895 -0.1315191 0.1709082 0.08106277 -0.26323295 -0.14865339 0.013921727 0.29207245
-0.12351019 -0.16233896 0.07405931 0.32305965 -0.1032072 0.2769488 -0.14732046 -0.29885793
-0.023451287 0.21002778 0.16060676 0.2696973 0.2541325 -0.19405785 -0.06475528 -0.2820489
0.23847279 0.27998257 0.16211446 0.13630202 0.030965861 0.23284304 0.030060604 -0.06359303
0.033901546 -0.051156458 0.24025542 -0.022773238 0.18399198 0.16786271 -0.115828566 -0.26638022
-0.18970641 0.062338155 -0.09042584 -0.24380209 0.14629638 -0.030113999 -0.25279388 0.108630426
0.26257908 -0.1504134 -0.14799598 -0.18978678 0.31578097 -0.032079916 0.2405732 0.02925032
0.10424298 0.09067293 -0.07451026 0.2249349 -0.03587168 -0.32184073 0.21855743 0.056343503
-0.088307515 -0.20185097 0.057051502 0.15741847 0.3028006 -0.13113607 -0.20002958 0.32270086
-0.094409965 -0.1673468 0.08302487 -0.13372315 -0.2841322 0.5055993 0.24263959 -0.09754782

l2.weight f4 [256, 256]
00000000: 2d48 fa3d 822b 8dbe ab16 8abd b796 023c
00000010: 4ec8 c43c 755b 29bc adfd 05be 4ff3 193d
00000020: 2417 f83d 143f f83d 1ca0 0f3e 4abd 04bf
00000030: c3ba c8bd 1f34 a5bd 68cb 843d e480 983d
00000040: 4cf9 f5bc e7ce 893d cc8e abbb 5ca6 11be
00000050: bda5 28be caa4 92bf 8884 cdbd 6e9a 91bf
00000060: 5d73 0fbd 5194 e0be dc97 d2be 6451 0cbe
00000070: 0ee4 053e 4846 133e 27bb 983e 5db2 a33d
00000080: d6a4 c73d c7c0 983d d681 07bf 3dcb c73d
00000090: 1ac5 cabf f715 b1bd c48e 253e 7100 d63d
000000a0: 8870 a7bc 0c45 efbe 730f ebbf 307f 093d
000000b0: 5b24 2a3e 164e df3d 29c6 3b3d 85cb 64bf
000000c0: 8877 0c3e c2d8 8ebe 61e8 973d 5121 f8be
000000d0: e0c4 94be 807b ec3d 01dd cf3d d7de f23d
000000e0: a9ce a93c cd6d 1d3d 76af ce3d 432c fbbf
000000f0: d9ba 583d 1e44 cd3d 8ab8 42be 483c 20bf
00000100: e579 953d 0ae8 9cbd 0731 77be ff39 033e
00000110: 1b62 54bd b4ee efbc b971 e7ba ca78 953d
00000120: 4b07 023f 9276 dbbe 35c0 1c3a 7903 1b3e
00000130: 95c1 fa3a dcb6 fc3c b050 293d 59bb f23d
00000140: 2657 53bf c32f 24bf 738c f03d be20 32bf
00000150: 011e 603e 1aa4 cfbe 5a57 97bf d5e0 ad3c
00000160: ba76 973d 2b0d d13d 3916 d0bf c5a5 06bd
00000170: 360d c9bc 703f d0be 38e5 19bd a11e 12bf
00000180: 1842 75bc 5123 393e d90c 933f 8132 033e
00000190: 06fb 91bd afd3 bc3c 6dab 8cbf 30cd d8bc
000001a0: 9b95 56bd 7889 febe 2a47 663e c705 1abe
000001b0: 5f71 6e3d b9ea bfbc 3be1 e33d d57c 03bc
000001c0: 93c8 373d 111b 8fbe ff87 e7bd 70cf 04be
000001d0: ebe5 d73d a8a1 363d bd34 20be cfd5 73bf
000001e0: fed9 ba3c 1c36 a63d 66c9 f7bd 9287 f73d
000001f0: c41b 863e 4508 aa3c 5fde 1d3e 89c8 3a3e
00000200: d712 8a3c 40e2 1abd 2db4 d13c 863e 72bd
00000210: ded4 e2bd 06db 333d 90c2 183e eaad debd
00000220: fd41 2c3e ee17 ad3d 9d1b b9bd 465c e03e
00000230: 7667 dc3e 91d5 d53d 2509 31be ef4f cd3d
00000240: 5438 f1bb fda8 c63d a734 99bf 02e6 fbbe
00000250: d70e 8f3e c041 4c3e eac8 68bb 5ed5 8bbe
00000260: 3b13 39bd a633 993d 648c 3c3e 0def b8bc
00000270: e3a5 f93d c181 2c3e 9057 e7bd dcd2 2a3f
00000280: c1aa 993d 1de2 0abd 58ce e5bd ac0e 08bd
00000290: 9eb4 de3d a377 603d b011 dc3c 967c ec3d
000002a0: c290 e1bd 0819 283e 03fa b5be 9a9a 98bb
000002b0: ce9a fc3d 8612 a2bc a35b 423d 2059 323e
000002c0: d161 adbd db48 4dbd 182f 9e3b d9f7 20be
000002d0: dd1d 56bf 1458 31bd e641 e5bf d5b1 0e3e
000002e0: dbc0 93bf 9881 ec3c f917 d63d 3ba9 8d3d
000002f0: 7de5 993d ed25 67be 9fc9 93be c436 db3d
00000300: 0cae 58bd 1dad 533d 9903 38bd 7e19 693f
00000310: e12c 923d f3c6 babe c910 12bf 30bf 9dbe
00000320: e86c 593d aa15 f53e c761 58bd 51fd 0a3e
00000330: 4b12 babc 1a76 ae3d 9204 973d eae9 99bd
00000340: 561f 13c0 58fc 2dbd 6778 89be 2bc2 3f3b
00000350: 6613 ab3d d797 24be 9dfd d73c cc2f 903d
00000360: 2049 b13d faaa 3fbe 0074 cd3d 95e0 b6bd
00000370: b5de a63c fbe3 30be 0c59 4cbe 8e58 2dbd
00000380: 67ba 4dbd 3d6f 37bb 965c 89be 3950 2dbd
00000390: fb02 eb3d 80c9 ebbd 62b2 873d 9203 ac3e
000003a0: 41c1 613d a64e 26bd 15b4 12bd 1b28 e3bc
000003b0: 5fd9 50bc 9954 583e ce2c 75bf 909b bbbf
000003c0: 5081 0ebe ea74 ad3d eb0a 1cbe d8b3 8f3d
000003d0: d83d bf3c a661 883d 12a1 663d e337 8fbb
000003e0: 3438 953d 864a 6fbf 0211 e13d 7379 c53d
000003f0: e87c 38be 9f84 843e 96f6 0c3e 292f d73c
0.12220798 -0.27572256 -0.06742605 0.0079705035 0.024021294 -0.010336746 -0.13085051 0.037585553
0.12113789 0.12121406 0.1402592 -0.5185133 -0.09801247 -0.08066582 0.06484109 0.07446459
-0.0300261 0.067289166 -0.0052355286 -0.14223617 -0.16469474 -1.145654 -0.10035044 -1.1375253
-0.03502213 -0.43863156 -0.41131485 -0.13702923 0.13075277 0.14382279 0.29830286 0.079930045
0.09748237 0.07458644 -0.5293249 0.097555615 -1.5841401 -0.086467676 0.16167742 0.10449303
-0.020439401 -0.46732366 -1.836409 0.03356856 0.16615431 0.109035656 0.045843277 -0.89373046
0.13717473 -0.27899748 0.0741737 -0.48462918 -0.29056454 0.11546993 0.10149575 0.118589096
0.020728426 0.038434792 0.1009206 -1.9622883 0.052912567 0.10022758 -0.19015709 -0.6259198
0.0729864 -0.076614454 -0.24139796 0.12815093 -0.051851373 -0.029288627 -0.0017657793 0.07298429
0.5079238 -0.428639 0.0005979569 0.15138043 0.0019131178 0.030848913 0.041336715 0.1185214
-0.8255485 -0.6413538 0.117455386 -0.6958121 0.21886446 -0.40554887 -1.1823533 0.021225372
0.07395692 0.1020759 -1.6256782 -0.032872934 -0.024542432 -0.406734 -0.037572116 -0.57077986
-0.014969371 0.18079878 1.1488296 0.12812234 -0.07127957 0.023050157 -1.0989815 -0.026465029
-0.05238877 -0.49714255 0.22488084 -0.15041266 0.058213588 -0.023427354 0.11126944 -0.008025368
0.044869017 -0.27950338 -0.11305236 -0.12969756 0.105419 0.04458776 -0.15645118 -0.9524812
0.022809025 0.08115789 -0.120989606 0.12086405 0.26193058 0.020755896 0.15416859 0.1824056
0.016854687 -0.037813425 0.02559861 -0.05914166 -0.110757574 0.04391005 0.1491797 -0.10873015
0.16822048 0.0845183 -0.0903847 0.438204 0.43047684 0.10441125 -0.17288645 0.10025012
-0.007361451 0.09700201 -1.1969193 -0.4919892 0.2794101 0.19946957 -0.0035520145 -0.27311224
-0.045184355 0.07480554 0.1841293 -0.022574926 0.121898435 0.16846372 -0.11295998 0.66727996
0.07503272 -0.033907045 -0.112209976 -0.033217117 0.10874294 0.054801594 0.026863903 0.115472004
-0.110139385 0.16415799 -0.35542306 -0.004657102 0.12334214 -0.019784223 0.047450673 0.17416811
-0.084659226 -0.05011831 0.0048273914 -0.15719546 -0.8363932 -0.04329689 -1.7910736 0.13935025
-1.154323 0.028870389 0.10453791 0.06917044 0.075144745 -0.22573061 -0.28864762 0.10703805
-0.05290036 0.051678766 -0.044925306 0.91054523 0.07137466 -0.3647991 -0.5705686 -0.30809927
0.053082377 0.4786809 -0.052827623 0.13573195 -0.0227138 0.0851862 0.073739186 -0.07515319
-2.2987876 -0.042476982 -0.26849672 0.002926002 0.08353309 -0.16073547 0.02636605 0.070403665
0.086565256 -0.18717566 0.10031891 -0.089295544 0.020369867 -0.17274468 -0.19955844 -0.04232078
-0.050226595 -0.0027989887 -0.2682845 -0.042312834 0.11475178 -0.115130424 0.06625821 0.33596474
0.055115942 -0.04060235 -0.03581627 -0.027729085 -0.012747138 0.21126021 -0.9577149 -1.4656849
-0.13916516 0.08469565 -0.1523854 0.07016724 0.02334492 0.0665925 0.056305952 -0.004370676
0.072861105 -0.9347309 0.10989572 0.09642305 -0.18016398 0.25882432 0.1376594 0.026267605

l2.bias f4 [256]
00000000: a82b 883e ff8b 973e 2388 a63e 6aa3 473e
00000010: e366 273d 7b0d 8b3e f24a d13d a251 b63e
00000020: aad6 b73e 36a8 b03e 5e04 10be 7f20 893e
00000030: 44b2 cc3e 24be 12be a6db 813e 407c a03e
00000040: 4ef8 a13e 86e8 67bb 3334 cf3d 139c 9e3e
00000050: 7cb6 623e b45e 973e 7fe5 723e 8f4f 0d3d
00000060: be1b 16be 0af2 833e 1805 953e 6b2a 6bbe
00000070: 04ad d2bd 00c8 75bd 7db6 883e b5e3 673e
00000080: 8683 42be 516c a33e 47d2 8c3e 0022 463e
00000090: ba84 643c 17e2 85bd 6cee bfbc 7a48 903e
000000a0: 2db2 b53e 46d9 06bd 3b6e 993e 9d7b 6ebd
000000b0: a846 933e 1102 193e 01c9 af3e f583 41bd
000000c0: baad 623e 9e8d 983e 8361 6ebd 7cc9 ca3e
000000d0: db86 acbc dc2c 883d c724 f4bc 8421 a5bd
000000e0: b87f 883e db95 f83d e4a6 873e 1494 913e
000000f0: 2733 babd 2460 b9bb 9b95 18be d441 713e
00000100: c9a6 133d ca54 743a 9b39 983e 0d8a e13d
00000110: 8fdb 5cbc 7782 87bd 68af 9f3d f23d 813e
00000120: a855 9d3e f586 a93e 6e80 103c 34a3 843e
00000130: f566 b4bd 06ba 403e 8942 a7bd 88c6 993e
00000140: 2dc6 743e 0b83 053a 5c0a cc3e 7f9f 933e
00000150: 6419 ab3e 7576 883e e3f8 9e3d e530 173c
00000160: 38e6 1ebd c883 953e 347b 5fbe 4d13 693e
00000170: 3935 7a3e 612a 6f3e 8b46 803e 4d64 6f3e
00000180: 358d 6dbb b1c6 c13e 844e ac3c cf0c 533e
00000190: c995 71bd ea17 09bd 6ffa c2bc 2ba8 93be
000001a0: 01cb b33e 7a6c 93be 5fcf e6bd 7cf4 503e
000001b0: 1c1a 8e3e 6a61 5cbc f587 753d 6714 19be
000001c0: 4344 693e 1f2b 95be bea7 993e 83b0 b73e
000001d0: e903 783e a421 953e 781b 65bd e7ba 5c3d
000001e0: 4ed4 a53e cf02 35be 1d13 833e 6bcb bb3d
000001f0: 102c 4abd 3552 463e 33b8 91be 4698 9b3e
00000200: b8a2 86be b575 27be 0f28 04bd e92c 973e
00000210: cf89 9a3e 5cd5 363e 5ba2 a83e 2b61 8b3e
00000220: c98a 80bc 635d c5bc c47d b43d 63b3 32be
00000230: 8caf 7e3e 2b02 9b3e 036c 0bbe 3056 9c3e
00000240: ceeb 043d 59df 9b3e b565 773e 79ed a13e
00000250: dd31 b33e 5633 553e 3ae9 8e3e 7629 b73e
00000260: eb45 8e3d 8e13 94be bed8 a93e 4f68 b33e
00000270: 19cd 54be ec4b 9bbd 94c2 01be 0a35 8e3e
00000280: 003c 83bd 37f6 f43d 7ae5 883e dbfd b33e
00000290: 7ec8 873e 68c9 943e e151 53be 6179 a2bd
000002a0: e669 c43e 3e01 8e3e 01a5 3ebe 63ad b33e
000002b0: e898 293e 4e42 87be 0838 bbbd 08a1 4e3e
000002c0: 8b0e c73e 7ea3 00ba 4337 a03e d691 47be
000002d0: 537b 183d 6157 bd3b 090b a13e 60e7 933e
000002e0: fedc c1bd 0d8c 843e 29db 8f3e 9dfa c83e
000002f0: 1a87 883e a4b3 643e 9cf5 b0bd 9a24 61bd
00000300: ac80 8f3e e5c5 923e fa08 a03e b791 963e
00000310: bce0 9c3e 486d a7bc 8a9c e4bd eff6 32be
00000320: b520 74be b9f6 0c3d cc6b 743e a380 ac3e
00000330: 22b2 853e 3bfe 9f3e c117 61be 79c9 5abe
00000340: 148d 8cbd 989d 973e dacb bb3e 1304 c43e
00000350: 7542 fbbd 3e09 22bc 183f cabc b39a 31be
00000360: 1d2f 963e eba6 36be 87cd 0bbe 4602 8e3e
00000370: b48b b13e 5b83 953e 8d94 953e dc27 9a3e
00000380: 4912 1fbe 5595 293c 680c 303d 2962 a73e
00000390: 379f 54be 9fc8 973e 8b12 f6bd 8cf6 0bbe
000003a0: 4884 1fbe fee9 1dbe a25d b93e e559 7b3e
000003b0: a408 913e c5f2 423e ee18 943e cc76 9b3e
000003c0: 3080 d03e 34d4 06bd f197 813e 696a 17be
000003d0: 3d7c b83e 5f46 c53e 4f24 9a3e 6b8f e4bd
000003e0: 085d 61bd bfbc 933e 057d 583e 26da 103c
000003f0: 78c1 4f3e f60c 20be 1e76 aebd 3566 89be
0.26595807 0.29598996 0.3252574 0.19495931 0.040869605 0.27158722 0.10219373 0.35609156
0.35905963 0.34503335 -0.14064166 0.26782605 0.39979756 -0.14330345 0.2536289 0.31344795
0.31634754 -0.0035386398 0.10117378 0.3097845 0.22139925 0.2956444 0.23720358 0.0344997
-0.1465902 0.257706 0.2910545 -0.229654 -0.10286906 -0.060005188 0.26701728 0.22645457
-0.18995485 0.31918576 0.2750418 0.19348907 0.01394766 -0.06537264 -0.023429118 0.28180295
0.354875 -0.03292205 0.29966912 -0.058223356 0.28764844 0.14942195 0.3433304 -0.047244985
0.22136584 0.29795545 -0.058198463 0.39606845 -0.021060398 0.06649181 -0.029802693 -0.08063033
0.26659942 0.12137958 0.26494515 0.28433287 -0.09091788 -0.005657213 -0.1490082 0.23560268
0.03604773 0.0009320496 0.2973145 0.11012659 -0.013480081 -0.06616681 0.07797128 0.25242573
0.30729413 0.33110777 0.0088196825 0.25905764 -0.088087 0.18820962 -0.081669874 0.3003428
0.23903723 0.0005093074 0.39851654 0.28832623 0.3341781 0.26652876 0.07762315 0.009227966
-0.038793772 0.29202104 -0.21824342 0.22761269 0.24434365 0.2335601 0.2505382 0.23378105
-0.0036247496 0.37846902 0.021033533 0.20610355 -0.058980737 -0.03347007 -0.023801057 -0.2883924
0.35115817 -0.287937 -0.11270022 0.20405763 0.27754295 -0.01345096 0.05994411 -0.14949189
0.22779946 -0.2913446 0.3001079 0.35876855 0.24220242 0.29127228 -0.0559344 0.05388918
0.32388538 -0.17676853 0.2560052 0.09169658 -0.049358428 0.19367297 -0.28460845 0.30389613
-0.2629602 -0.16353495 -0.032264765 0.2952645 0.30183265 0.17854828 0.32936367 0.2722257
-0.015691178 -0.024092382 0.088130504 -0.17451243 0.24871653 0.30275092 -0.13615422 0.30534506
0.032451443 0.30443838 0.24159892 0.3162649 0.3499898 0.20820364 0.27912313 0.3577382
0.069469295 -0.2892117 0.33173174 0.3504052 -0.20781364 -0.0758284 -0.12671882 0.2777484
-0.064079285 0.11961024 0.26737577 0.35154614 0.2652015 0.2905991 -0.20636703 -0.079333074
0.38362044 0.27735323 -0.18617631 0.3509322 0.16562235 -0.26417774 -0.091415465 0.20178616
0.38878283 -0.0004907175 0.3129216 -0.19489226 0.037226986 0.0057782386 0.31453732 0.28887463
-0.09465979 0.258881 0.28096893 0.39253703 0.26665574 0.22334152 -0.08640596 -0.054966547
0.28027856 0.28666607 0.3125685 0.29408047 0.3064021 -0.020437852 -0.1116267 -0.1747701
-0.23840602 0.03441498 0.23869246 0.33691892 0.26112467 0.3124865 -0.21981718 -0.21365918
-0.06862846 0.29612422 0.36678964 0.38284358 -0.12268535 -0.009889899 -0.024688289 -0.1734417
0.2933282 -0.17837112 -0.13652621 0.2773611 0.34676898 0.2920178 0.29214898 0.30108535
-0.15534319 0.010350545 0.04298058 0.32692078 -0.2076386 0.2964525 -0.120152555 -0.13668269
-0.15577805 -0.15421292 0.3620425 0.24546011 0.28326905 0.19037922 0.2892527 0.30364072
0.407228 -0.032917216 0.25311235 -0.14786686 0.36032286 0.3853025 0.30105826 -0.11160167
-0.055020362 0.2885494 0.21141441 0.008841073 0.20288646 -0.15629944 -0.08518623 -0.2683579

l3.weight f4 [1, 256]
00000000: 4fae a43e d23f 2b3e 45d7 4b3e fd84 bb3e
00000010: 0ef0 06c0 1e1a b33e 84b4 82bf 2538 313e
00000020: e3ef 5c3e 77f9 343e 09fa 51c0 d02f c03e
00000030: e69f 4a3e b79d b1be 5289 ee3e f36f 373e
00000040: c1d9 9d3e 99d1 963c 8c98 f2bf 0051 5f3e
00000050: 7aba 153e cfd5 b73e bb5b c73e f98f 7fbb
00000060: 4dbb 44bf 97c8 5e3e a7b9 563e fc87 a8c0
00000070: db48 57c0 008a f2bf 42f9 953e 2a16 983e
00000080: 0344 90bf 6580 7a3e 2366 963e b515 7b3e
00000090: ff20 f2bf 86fe d0bf 6f7f 65bf 144b a63e
000000a0: 05c6 803e e61b 64bc 8b5f 773e 21b6 51bf
000000b0: 45f9 b03e c1fb e6bf 3f43 453e 8111 a2bf
000000c0: 6cad df3f cc06 1d3e 5b26 84bf 534d 3e3e
000000d0: 94b4 17c0 2e06 d0bf b8ca 75bf 3cf0 bebf
000000e0: da45 23c0 9acf 45bf 2ce4 533e 677d b93e
000000f0: 614a 8bbf c90e 2ec0 8aab a3c0 57d4 ba3e
00000100: 6155 61bd 568a 9fbf 0345 193e 2f95 12c0
00000110: adca 46bf 855c fabf 4e58 16c0 5eb5 533e
00000120: 1740 563e c9da 703e 14eb 92bf 62d2 bc3e
00000130: 3a9c e6bf 3dd1 733e 5d7e d0bf a073 133e
00000140: 5ea1 253e 4b19 e4be fd77 373e de7a 223e
00000150: c2dd 543e 3914 713e cb38 bebf d9b2 0ec0
00000160: d9d6 b5bf debe 363e 6cf5 1dbf 8742 c13e
00000170: 874a c53f 5d03 6b3e 91fa d23e 549e 7a3e
00000180: ef10 02c0 36a0 4d3e 4b3a 2bc0 ed6c 283e
00000190: 1824 a1bf b3d4 1fc0 c482 03c0 6010 9abf
000001a0: c1c9 4d3e 3bb8 1ac0 3a38 28bf 1ac5 a53e
000001b0: b83d 983e d84e 71bf dfc5 eb3f 36d4 cabe
000001c0: 82fc c33e d229 2ac0 2bb7 983e 9221 4d3e
000001d0: 0bb8 3f3e cfb0 3b3e 4113 4dc0 7560 66c0
000001e0: 5f3a 313e 54e3 17c0 56ff 6c3e 915f 9ebf
000001f0: 876e 6cbf aab4 433e d3c7 b7bf c13b 823e
00000200: 0afd e7be c4af d6bf fc48 443d dcab 663e
00000210: 1b28 6f3e 9482 f9bf 4468 483e 99ed dc3e
00000220: c5b2 81bf bc87 00c0 5a98 b4bf 0a3e 08c0
00000230: b014 b93e 2865 833e 24b8 8cbf a3a4 993e
00000240: 1ed7 3dc0 4c27 053f 4560 593e c35e 383e
00000250: 435b 2c3e a072 f03f 7766 493e 1518 263e
00000260: 6705 54bf 08fd 11c0 66b7 4b3e e0c8 313e
00000270: 8876 c1be 3ec6 1ec0 8532 1ebf 4646 283e
00000280: 9c8e a8bf 2da9 3240 08e2 773e 7ae9 243e
00000290: 1d83 b73e eb5c 2b3e 3230 a1be 12d9 1cbf
000002a0: 6342 473e 211a 423e eaf5 babe 68e0 423e
000002b0: 1233 f63f 89f5 babf a322 0cc0 2335 573e
000002c0: 4d9d e73e 1470 cfbf 4c83 473e 07a8 33bf
000002d0: ba4d 9abf 97d8 e2bf f5e4 823e 5093 3a3e
000002e0: 79a1 4ebf 9726 643e 47d4 743e 98f8 4c3e
000002f0: 6e07 673e f14c 9f3e 5fe5 f3bf 2d27 35bf
00000300: 4d65 833e ea0c 533e c305 d53e 34d0 5c3e
00000310: 046a 423e 7669 d3bf 9330 91bf 5575 22bf
00000320: bd7c a5bf 1a7a 96bf 4c22 7f3e 6a34 4f3e
00000330: 7d88 4b3e 8a38 413e 7435 21c0 1638 b3bf
00000340: 0179 393d edb4 993e 182a 653e e9e5 423e
00000350: 072e cebf ab87 10c0 2231 f8be 4f46 38bf
00000360: fdbd 4f3e 88d6 bfbf 75e5 8fbf 86da d33e
00000370: e811 993e fe4c 3f3e aea1 973e 2e22 503e
00000380: 12ce 27c0 6b02 00bd 1310 d5bf 9967 4f3e
00000390: cd40 adbf 1f53 5f3e 14ba 38bf 9a8e 4ebf
000003a0: 9522 4ebf 257a 28bf 4bd0 593e 05b7 4b3e
000003b0: 9c91 403e 0fe1 a63e 1e4f 16c0 d313 503e
000003c0: 3df5 513e 1a0c 92bf c7dd 7f3e 0ad8 a2bf
000003d0: 7a76 543e b612 743e 5105 193e ef86 b3bf
000003e0: a4e4 e6bc f134 8b3e dba9 823e 11e9 50bf
000003f0: 586b 2d3e 9912 d9bf 2af2 11c0 5911 04c0
0.32164237 0.16723564 0.19906338 0.366249 -2.1084018 0.34980863 -1.0211339 0.17306574
0.21575885 0.17673288 -3.280886 0.37536478 0.19787559 -0.3469064 0.46589142 0.17913799
0.30830196 0.01841049 -1.8952804 0.21808243 0.14621916 0.3590531 0.38937172 -0.0038995726
-0.768483 0.21756206 0.20969258 -5.2665997 -3.3638217 -1.8948364 0.2929173 0.2970441
-1.1270756 0.24463041 0.293748 0.2452 -1.891632 -1.6327674 -0.89647573 0.32479155
0.25151077 -0.013922667 0.2415754 -0.8191853 0.34565178 -1.8045579 0.19263934 -1.2661592
1.7474799 0.15334624 -1.0324205 0.18584184 -2.3703966 -1.6251886 -0.9601245 -1.4917064
-2.5511384 -0.772699 0.2069251 0.36228487 -1.0882074 -2.7196524 -5.11469 0.36490127
-0.055013064 -1.2464092 0.14967732 -2.2903554 -0.7765301 -1.9559485 -2.3491397 0.20674655
0.20922886 0.2352096 -1.147799 0.3687926 -1.8016427 0.23810287 -1.6288563 0.14399576
0.16174838 -0.44550547 0.17916866 0.15867183 0.20787719 0.2354287 -1.4861082 -2.229666
-1.4206191 0.17846248 -0.6170261 0.3774607 1.5413369 0.22950502 0.41206792 0.2447446
-2.0322835 0.20080647 -2.675433 0.16447802 -1.258914 -2.4973571 -2.0548563 -1.2036247
0.20096494 -2.4174945 -0.65710795 0.3237694 0.29734588 -0.9426093 1.841976 -0.3961503
0.38278586 -2.6588025 0.29827246 0.20032337 0.1872255 0.18329166 -3.2043002 -3.5996373
0.17307423 -2.37325 0.23144278 -1.2372915 -0.9235615 0.19111887 -1.4357857 0.25436214
-0.4531024 -1.677239 0.047921166 0.22526497 0.23355143 -1.9492974 0.19571024 0.43150023
-1.0132681 -2.0082846 -1.4108994 -2.1287866 0.36148596 0.25663114 -1.0993695 0.3000842
-2.9662547 0.5201309 0.2122813 0.18004899 0.16831689 1.8784981 0.19667993 0.16220124
-0.82820743 -2.2810688 0.1989418 0.17361784 -0.37785745 -2.4808497 -0.61795837 0.16433057
-1.3168521 2.7915757 0.24207318 0.16104689 0.3584222 0.16734664 -0.31482083 -0.61268723
0.19458918 0.1895528 -0.36515743 0.19030917 1.9234335 -1.4606181 -2.189614 0.21016364
0.45237198 -1.6206079 0.1948368 -0.70178264 -1.205497 -1.7722348 0.25565305 0.18220258
-0.8071514 0.22280346 0.23909102 0.20016706 0.22561428 0.3111339 -1.9054374 -0.707629
0.25663224 0.20610395 0.41605958 0.21563798 0.18985754 -1.6516559 -1.1342949 -0.63460284
-1.2928692 -1.1756012 0.24915427 0.20234838 0.19876285 0.18869224 -2.5188875 -1.4001491
0.045281414 0.30020848 0.22379339 0.19033016 -1.6107796 -2.2582805 -0.48474985 -0.7198228
0.20287319 -1.4987345 -1.12419 0.41377658 0.29896474 0.18681714 0.2961554 0.20325539
-2.6219525 -0.031252306 -1.664553 0.20254363 -1.3535401 0.21809052 -0.7215893 -0.8068634
-0.8052152 -0.6581138 0.21270864 0.19894035 0.18805546 0.3259358 -2.348579 0.20320062
0.20503707 -1.1409943 0.24986945 -1.272218 0.2074832 0.23835263 0.14943434 -1.4025553
-0.028185196 0.2718883 0.25520214 -0.8160563 0.1693548 -1.69588 -2.2804055 -2.0635588

l4.weight f4 [256, 32]
00000000: d529 9fbe 1835 343e 5bea 743e a66a 823e
00000010: 5abd d23d c6f4 9cbe ade3 c9be 7715 fabc
00000020: e8f3 d6bd 71a2 4d3e 1374 9b3d 1334 fd3d
00000030: 601c f03c 3d22 82bd 8c18 ed3d bf4c 213e
00000040: fe9a c0bd 3c67 8c3e 1a7b 4bbd ab92 a2bd
00000050: d0b2 de3d 1cb9 c9bc 6fa9 1f3d b09f 223e
00000060: a0e2 8d3e 91e2 003e 9bbb a8bd 7fc4 2c3e
00000070: aa16 86bd a479 aa3d 7062 ebbd 582a 0bbe
00000080: 23c2 0e39 9270 093d 585e ba3e dcfc eb3d
00000090: 040a 9f3d 0a2a 15bf c374 06bf 8b96 c3be
000000a0: 0655 153e 0229 d1bb d153 f6bd cb18 0cbd
000000b0: 4880 edbb ade1 33bd 33e7 f53d a212 6bbe
000000c0: 2549 dbbd befb 33be d4f8 edbc c0cf 053e
000000d0: 5798 503b 30a4 d23e b871 713c 0c99 40be
000000e0: 524b 5f3f 690b ddbe c67b 1c3d 0572 343d
000000f0: 93f2 673d 88f7 4e3e 489f 5bbd e4c4 8abd
00000100: 0323 023f 27ec 82bc 5b2e 4e3e 289b 3f3c
00000110: d753 043e 0b1a 203f defd d53e 4f7c 043e
00000120: e77f 7ebb c47a f3be 3a22 bbbe e246 f3be
00000130: dae5 42be 6d78 663e ec2d 1dbe 829e cd3e
00000140: d23f 4cbd e842 523e 3084 fe3b 40c7 fc3d
00000150: 93aa af3d e213 1b3e b114 883e 3857 98bb
00000160: 13d1 d53e 3864 99be 1bef 073e 34f6 80be
00000170: 9cd1 5d3e 0683 eabd e00d 253c 194f 3dbc
00000180: d524 4e3f 142b 373d 3f09 c3bc 8e35 093f
00000190: 9021 323e 3bad 0f3f 4b9e d23e f748 933f
000001a0: 29b4 36bd f188 f53e 62a3 073e 63d3 de3e
000001b0: 7e4d b9be 1e45 213e 4ec7 693c 530d f53e
000001c0: fb78 e03d a302 993e 867f 70bd b3a7 073e
000001d0: dc97 c6bd 0d63 42be 98ab 173e 37e6 adbd
000001e0: 901f 813e a86f 3a3e a50b 1a3e 1986 783d
000001f0: db00 433d 8989 ccbd 045a 9b3d 3cd7 513d
00000200: 41eb e8be 9565 563d 52bc 8bbe 9e64 f1bc
00000210: 5849 9fbd c783 e93d 5482 f13d 9fe4 f23d
00000220: 8958 853e 3eb3 9a3f ed47 e13d 4a88 2c3f
00000230: 6657 1c3f 63db cb3d 6d36 29be 5007 0fbe
00000240: 6faa d83d 4d4c 5dbe 10f1 613e 4508 83bd
00000250: 0dbc ce3c 7c6a 713b 9a9c a63d 18a7 11bd
00000260: 6927 c53e acb3 963c 1117 423d e6fc bebc
00000270: 2f32 503d 141f 8c3c f726 e3bb 19e8 0cbc
00000280: 854d 7abe 30a1 7abd a889 f23c aa6b b9bf
00000290: 7374 87bd 22c6 27bf 4f39 0cbc 365c dcbd
000002a0: a292 6e3d 7dca 9a3e 9d7c a43d 34d4 28be
000002b0: e47c 0e3e 9642 763e f2a6 033e cdc0 0cbf
000002c0: bba9 cbbe f2e0 55be d9d6 0fbd ab86 963d
000002d0: d709 82bc 6a47 9c3d fe1b ac3e 4779 dc3d
000002e0: 83a8 b8bc 96e8 3cbe dc69 3ebd f117 b7bc
000002f0: df90 e43d d3d4 2c3e f96e d8bd 830d c43c
00000300: 1b48 69bd 6bf2 d83d 2feb 813e 1592 313e
00000310: c527 0bbe 7e8a 3b3f b706 1ebf 5426 96bc
00000320: 0524 a93d bb51 ccbd 214b c13b 4c8b 893e
00000330: 4359 2b3e e1f6 91be a373 54be 0c35 10bf
00000340: bfd6 ae3d d918 4abd 58b9 75bc e592 2b3b
00000350: 4598 313e 841d f3bd 030f bdbe 1ed7 54bd
00000360: 0832 3cbd 41ea 67bd f9a4 013e 49b2 d1bc
00000370: ea3a 3a3e c9bb 02bd f8a1 663c eb15 233d
00000380: 4c6e 17bd dfbf f8bd 503a 953d 36e7 283f
00000390: e671 c43d 72c9 47bf 4b98 92be c0b1 be3c
000003a0: d4d3 c1bd 1a88 33be dd44 103e 1ccf 76bd
000003b0: 6e4f 77be ae62 9abc e06f f2be 2527 6abf
000003c0: d4c1 09bf 21e5 d3be a5de 273f 9b27 3f3d
000003d0: 9b03 b8bd a953 29bd f619 843e e262 8fbe
000003e0: 4c0a c5be ce06 073e 4b84 113d 7df3 82bb
000003f0: 6609 aebc 7e5a 28bd 6f80 febc 309f a03c
-0.31086603 0.17598379 0.23917525 0.2547199 0.10290022 -0.30655497 -0.39431515 -0.030527813
-0.1049574 0.20081498 0.07590499 0.12363448 0.029310405 -0.06354187 0.115769476 0.15751933
-0.094045624 0.27422512 -0.049677946 -0.07938131 0.108739495 -0.0246244 0.038979944 0.15881228
0.27711964 0.12586428 -0.08238908 0.16871832 -0.065472916 0.08323982 -0.11493385 -0.13590372
0.00013614497 0.03355462 0.36400104 0.115228385 0.07765582 -0.5826727 -0.52521914 -0.38200793
0.14583215 -0.0063830623 -0.120277055 -0.034203332 -0.0072479583 -0.043916393 0.120069884 -0.22956327
-0.107073106 -0.17576501 -0.029049315 0.13067532 0.0031829083 0.4114089 0.014736585 -0.18808383
0.87224305 -0.43172768 0.038203977 0.04405405 0.05662782 0.20211613 -0.0536187 -0.06775835
0.50834674 -0.015981747 0.2013487 0.011694707 0.12922607 0.6253974 0.41795248 0.12938045
-0.003883356 -0.475546 -0.3654955 -0.47515017 -0.19032994 0.22506876 -0.15349549 0.40159994
-0.04986555 0.20533335 0.007767223 0.123426914 0.08577456 0.15144303 0.26578286 -0.004649069
0.41761073 -0.29959273 0.13274805 -0.25187838 0.21661991 -0.11450772 0.010074109 -0.011554503
0.8052495 0.044718817 -0.02380812 0.5359734 0.17395616 0.56123704 0.41136393 1.1506642
-0.044605408 0.4795604 0.1324592 0.4352065 -0.36191934 0.15749022 0.014268709 0.47861728
0.10960575 0.29884824 -0.058715366 0.13247566 -0.096969336 -0.18983097 0.14811552 -0.084911756
0.25219393 0.18206656 0.15043505 0.06067476 0.047608238 -0.0998717 0.075855285 0.051230654
-0.45491984 0.05234297 -0.27292114 -0.029466923 -0.07777661 0.11402088 0.11792436 0.11860012
0.2604411 1.208595 0.11000047 0.6739546 0.6107086 0.09953954 -0.16524668 -0.13967633
0.10579383 -0.21611138 0.22064614 -0.06398062 0.025236154 0.0036837151 0.08135338 -0.035559744
0.3850663 0.018396221 0.04738528 -0.02331395 0.05082911 0.017104663 -0.006932135 -0.008600258
-0.24443634 -0.061188877 0.029606655 -1.4485981 -0.06614008 -0.655367 -0.008558585 -0.10759775
0.05824531 0.3023261 0.080315806 -0.16487199 0.1391483 0.24048838 0.12856653 -0.5498169
-0.39777932 -0.20886591 -0.035117004 0.073499046 -0.015873833 0.07630809 0.33615106 0.10765319
-0.02254129 -0.184481 -0.046487674 -0.022350283 0.111604445 0.16878061 -0.10568041 0.023932224
-0.05695353 0.105931126 0.25374743 0.17340882 -0.1358939 0.732582 -0.61728996 -0.018328823
0.08258823 -0.09976526 0.0058988486 0.26864088 0.1673327 -0.28508666 -0.20747237 -0.56330943
0.08537053 -0.049340103 -0.014997803 0.0026180085 0.17343242 -0.11870864 -0.36925516 -0.051962964
-0.04594615 -0.056619886 0.12660588 -0.025597708 0.18186536 -0.031917367 0.014076702 0.039815824
-0.03697042 -0.121459715 0.07286513 0.659778 0.09592037 -0.78041756 -0.28631815 0.023278117
-0.09464231 -0.17532387 0.1408877 -0.06025611 -0.24151394 -0.018845882 -0.4735098 -0.9146598
-0.53811383 -0.4138575 0.65574104 0.04666863 -0.08985063 -0.04133955 0.25801057 -0.2800513
-0.38484418 0.1318619 0.035526555 -0.003996311 -0.021244716 -0.041101925 -0.031067101 0.019607157

l4.bias f4 [256]
00000000: a49e 8d3e 6794 473e a8a0 6f3e 0536 f3bd
00000010: fe1c 5fbe 539b 523e 78b7 8d3e 3da3 b7bd
00000020: 4ca3 68be 3785 d23d f971 f43e 960d 9f3e
00000030: 6afb 8a3e bfc3 b3be 7e67 55be f622 86bd
00000040: a2a6 a7be c385 a23e 0a99 4e3d b44b a4bd
00000050: efaa 163e b9ef bdbc fb19 903d 6e9e 313e
00000060: f651 a43e 832e afbd 1fab 093d 1227 7dbe
00000070: f4c0 0b3c fcbb d4be 8553 643d e2a6 823e
00000080: 3190 6c3d ba39 473e fb5e 9fbe 0115 cd3d
00000090: 9ae2 f4bd e034 f1bd 97a3 10be c31b b53d
000000a0: cec7 3dbe df8a 5f3e 3c6a 553d 5cc8 ad3e
000000b0: 16f3 42bd 3876 9cbd 2dc3 2cbe d608 ae3e
000000c0: 1b67 1c3e ee28 77be 38f6 babd b6bd fb3d
000000d0: d71e a1bd a9af 0f3e e885 52bd 9bd8 e2bd
000000e0: 30d1 453e 0080 633e 2369 a33e f580 683d
000000f0: 0837 58be 2ba8 6a3e 7c2f a33d c716 103e
00000100: 52c7 8fbe e631 25be c6b8 883e 1401 c9bc
00000110: e769 2bbe 5c66 cdbc 8e71 05be be70 c2be
00000120: 0c28 a0be 7edc 46be 2204 72be b4da c63e
00000130: 0f4b 093c bbba e8bc 78ac 9a3c e3d4 113d
00000140: 2bef 543e 7d3f 67be bf69 f73d c077 17bc
00000150: 4506 debd 96f8 e73d 1c62 583c fff7 7bbd
00000160: 7885 a3be 3b16 ddbe 9e30 47bc bf6c 4c3e
00000170: c827 21be bcf5 c3bb f461 a63e a747 21be
00000180: 2ac4 143e b449 98be f7c9 94be 5bf6 d03d
00000190: 2912 9fbd 75a7 a8be 2018 413e d2e2 003f
000001a0: 3f49 32bd 0f7f 5b3e acad 823e 2671 143e
000001b0: 02e2 59be e608 753e caea 4f3e e51c 9b3c
000001c0: bc65 8f3e 928d 0d3e 7a46 713d 2b8c 403e
000001d0: 7709 5cbc ff19 163e ccf8 9c3d 19ea 9c3c
000001e0: 64df 98bd daf7 85bd df49 38be 9e6d d9bc
000001f0: 4ad2 973e 9831 a43c 7184 75bd cfb7 233e
00000200: 4ab0 05be 5723 0b3e 3445 a13d 81d4 613e
00000210: 87a0 59be e8a9 113e bb25 53bd 7eca b5bc
00000220: cee0 363e 4b5b a4bb ef28 923e baa0 0bbe
00000230: 8b4d 69bd fcf9 c83d 10d1 01be 1693 133e
00000240: 8bc0 9fbd f2d7 523e fb57 613e d7f0 0f3d
00000250: bf3c d43d a119 973d 42ba 04be 8dc2 743e
00000260: ed56 9fbe 5f74 963e 17de 633e 52d1 ab3c
00000270: 37e5 5a3e 90d0 66be 8574 f03c 1f14 a6bd
00000280: 9e39 b63d 0ab9 113e 13af 0fbe ab8a 803e
00000290: 2e56 133e 5500 123e 5592 2d3d ee01 ff3c
000002a0: d51c 1c3d f539 b93d d095 53be 075a 0f3e
000002b0: e693 28be b7ab ba3d fee4 debe 0c5d 5d3e
000002c0: f1ce ebbc fe8c 133d 2aa8 0bbe 16c6 7d3e
000002d0: a63c 813d a028 483e c450 833d 1317 993e
000002e0: d83f f3bc 6ecd 9abe 619e a5bd fa41 d03d
000002f0: 4d12 033e 8482 293d e97c 3bbd 0c3c 513e
00000300: 87d7 d93d bd4f bdbe 1ca0 adbc 36a6 3e3d
00000310: bb8d 7abe e457 0dbd 4dcf 113e bff1 713e
00000320: 27de d93c e0ab 4f3e e592 dabc a9af 1e3e
00000330: 4918 b03c 3ec5 8abe 04b7 4dbe 6ccd 073e
00000340: 13ad aabe efc4 ddbd bb4a b6bb 5bc4 1e3c
00000350: 5547 b63e 51de c73e 38a4 f13d b474 81be
00000360: 7fa0 9dbc bd94 273e 0a27 94be fecd 303e
00000370: 37c9 2cbe e57c e13c da55 b23d c6aa aa3e
00000380: 32e5 f13d 0735 ebbd 2e7e 683e ae19 16bc
00000390: d1a5 3dbd 0729 143e 3e29 933e 7113 ed3d
000003a0: 70ad 64bc 468e 123d ee92 64be c031 263e
000003b0: e1d8 95bd 263a 463e 3661 33bd ac71 553e
000003c0: 5b6d 32be 9912 413e 756f f73d 95e7 2dbd
000003d0: 61e2 8e3e 3b63 e83d 7257 a0bd aad8 713d
000003e0: d0ef 68be ad8b 8dbd 04e5 d83e a373 0b3e
000003f0: fbb4 c5bd 03b3 d83d 6eab 1e3e 31b2 963e
0.27660096 0.19490205 0.23401129 -0.11875538 -0.21788403 0.20567064 0.27679038 -0.08966682
-0.22718543 0.10279315 0.47743204 0.31065053 0.2714494 -0.3511028 -0.2084026 -0.06549637
-0.32744318 0.31742677 0.05043892 -0.08022252 0.14713643 -0.023185598 0.070362054 0.17345592
0.3209378 -0.08553793 0.03361046 -0.24721935 0.00852989 -0.4154967 0.055743713 0.25517946
0.0577547 0.19455615 -0.31127152 0.10013772 -0.11957283 -0.11777663 -0.14124905 0.08843186
-0.1853325 0.21830319 0.052103266 0.33941925 -0.047595106 -0.07639736 -0.16871329 0.33991116
0.15273707 -0.24136707 -0.09128994 0.12292044 -0.0786721 0.14031853 -0.051397234 -0.110764705
0.1931808 0.22216797 0.3191615 0.056763608 -0.21114743 0.22915713 0.07968041 0.14071189
-0.28081757 -0.16132316 0.2670347 -0.024536647 -0.16739617 -0.025073223 -0.13031599 -0.3797664
-0.31280553 -0.19420049 -0.23634389 0.38838732 0.008379712 -0.028409353 0.018881068 0.035603415
0.2079436 -0.22582813 0.12080716 -0.009244859 -0.108410396 0.11326711 0.013206985 -0.061515804
-0.31937766 -0.43181023 -0.012157587 0.19963358 -0.15737832 -0.0059802216 0.32496607 -0.1574999
0.14527956 -0.2974373 -0.29060337 0.102032386 -0.07767136 -0.3294026 0.18856859 0.503461
-0.043526884 0.21435188 0.25523126 0.14496288 -0.21277621 0.23929176 0.20304409 0.018934676
0.28007305 0.13823536 0.058905102 0.1880347 -0.013429991 0.14658354 0.07664642 0.019154595
-0.074644834 -0.065414146 -0.1799693 -0.026541527 0.29652625 0.02004318 -0.05994076 0.15988086
-0.1305553 0.135877 0.078745276 0.2205372 -0.21252643 0.1422497 -0.051549654 -0.022191282
0.17859194 -0.005015766 0.28546855 -0.13635531 -0.056958716 0.09813306 -0.12677407 0.14411578
-0.078003965 0.20590189 0.22006218 0.035141792 0.10363149 0.07377935 -0.12961677 0.2390234
-0.31121007 0.2938566 0.2225269 0.020973835 0.21376501 -0.22540498 0.029352436 -0.081093065
0.08897708 0.14230743 -0.1403163 0.25105795 0.14388344 0.14257939 0.04237588 0.03112885
0.038113434 0.090442576 -0.20662618 0.13999186 -0.16462669 0.09114783 -0.43534082 0.21617526
-0.0287852 0.036023133 -0.13638368 0.24782595 0.06310396 0.19546747 0.06411889 0.29900417
-0.029693529 -0.30234855 -0.08086849 0.10168834 0.1279995 0.041384235 -0.04577342 0.20433062
0.10636812 -0.36974898 -0.02119451 0.04654523 -0.24468128 -0.034507647 0.14239235 0.23627375
0.026595188 0.20280409 -0.026681373 0.15496697 0.021495955 -0.2710361 -0.20089346 0.13261956
-0.3333517 -0.10828578 -0.005563108 0.0096903695 0.35601297 0.390368 0.117989 -0.2528435
-0.01924157 0.16365333 -0.28936034 0.1726608 -0.16873632 0.027525375 0.08707781 0.33333415
0.11811294 -0.114847235 0.22704384 -0.009161396 -0.046300713 0.14468776 0.28742403 0.11575974
-0.013957366 0.035780214 -0.22321674 0.16229916 -0.07316757 0.1935812 -0.04379388 0.20844144
-0.17424528 0.1885475 0.120818056 -0.042457182 0.27907088 0.11347052 -0.07829179 0.059044518
-0.22747731 -0.06911407 0.42362225 0.1361833 -0.0965366 0.10581019 0.15495083 0.29432824

l5.weight f4 [256, 256]
00000000: 169f 303e 403b ef3c 451d e23d ce7e 9f3d
00000010: 548d 203e a4cb 173e 7620 2a3d fcd6 7a3e
00000020: f19c b8be 5a18 cdbe 3e05 09bf 649d 0e3e
00000030: 8084 9bbc f9a7 6c3c 2216 8c3e 225a 39bd
00000040: 514b 8ebe b2b1 4a3e 1df3 aa3d 65ce ddbc
00000050: f2b6 953d 48ef 2abc 33c5 ce3c 1e5e 9cbe
00000060: 2d4c d13c 51ce 103e 7bf8 4abd 7fec b13d
00000070: 2332 003e 096f 713e d89f 3e3e 1380 2c3e
00000080: c498 9c3d 08fc e03c 108e ce3c cd0f ec3c
00000090: 537a 3f3d d20e 03be 0faa 4b3e e1a9 ae3e
000000a0: 0ee5 94be a0c3 953d 3fc6 2a3e d2ac 093e
000000b0: 096a 983d 59f2 e3bd 9d80 d7bd 2aa5 9bbe
000000c0: 8010 2b3d 3b41 21bd ee40 d53d 360f 043e
000000d0: dd2d 693e 5f5e d33d 9b47 633e fa3f bf3c
000000e0: 7201 183e 613e bb3d a9fa a93d 57dd ee3d
000000f0: e67f 473e 0e69 d7bc c7f1 7e3d 8f25 cf3d
00000100: 51f9 b33d 2ecf 7e3d 8b56 5cbd 419d 74bf
00000110: a31b 97bc 8d66 063d 84e3 7c3b e7bf 50be
00000120: b248 033f 9610 e03c 2046 88bd db1e 25be
00000130: 9c24 f23d 2ac6 09bd 06a1 ad3d 5a8a ef3d
00000140: bfee 4d3e cd18 ca3d c321 d73d 384f e3bd
00000150: 11ec 133d f1a2 94be f834 eebb b9ce 8ebd
00000160: 3342 ae3d 9645 3fbe ef7d 34bd 9c8c 8e3d
00000170: e97a cc3d e6f6 123e b49e cc3c 7cbe 263e
00000180: d74e 3e3e b3e1 2f3e 9d59 213e 2010 4c3c
00000190: f06d 293d 0ee2 8c3d c2cb 4c3e 0852 9ebe
000001a0: fdf9 a53e 7610 063e 1d55 9a3d 3bc8 723c
000001b0: 1694 2d3e 5594 e3bd 6806 b83d 7033 113e
000001c0: 48cc c63d ffb0 253e 79af d9bc 7ca8 8e3d
000001d0: 96d4 093e 2a14 b23d 5df9 11be 9f63 a43d
000001e0: c26c 7c3e 4485 bc3d 4241 f13c 69ed 593e
000001f0: 0806 bc3d 48f8 483e c84a 603c 4329 343e
00000200: 60a3 7c3d a6ee 65bf a366 383e 4506 1b3e
00000210: e147 02bf db3f fe3d 44eb f9bd aa8d 61bc
00000220: 6bfe af3c f926 433d 6bb6 843d cef9 493e
00000230: c73f 0fbc e6e1 1e3e 82c6 3ebd a2b4 2bbe
00000240: ef7f 233e 85a7 4c3e bc35 4d3d e611 2ebe
00000250: 8b3e e13d 3248 da3d 45e3 fc3c d384 d43d
00000260: 661c 98bd 249f 3d3d c05b 7c3e 5385 a33d
00000270: 5ef4 023e 56be a1bd c311 97bd 8ba3 91be
00000280: 6ded ac3d 3149 cf3d 5a50 663d fad8 a5be
00000290: c532 2c3e 9e15 d23c b5db 553b fbae 7b3d
000002a0: 57f8 4f3e f453 543d ddd9 dcbc b082 a83b
000002b0: 3cdd 2b3e 485a bb3c f47b 2dbf 5649 193d
000002c0: f45e 013e 8296 273c 2dcc ee3c e755 433c
000002d0: 4485 fa3d e28b 2b3e 7b99 783e a41d 463e
000002e0: 6c7d c93d ee22 a6bc a0ea de3d 2575 9a3d
000002f0: f2e1 163e be85 993d 1038 9b3e 2959 0b3d
00000300: 8b56 463e 5d54 6ebd 44fe f83d 40a4 1e3e
00000310: 1c44 533e 1f04 94bd cbaf b5bd b2bd 943d
00000320: 83ef 1e3e 6a84 3b3e ce34 303e a531 c83d
00000330: 2b43 eabd 4b7b 8ab7 1f09 693e 2317 0e3e
00000340: 7864 053d 60f0 f03d de78 1e3e 834c b0be
00000350: 582c 143d 9a2a f23c 9dde d93d 0e8d f33d
00000360: 907b 803d 5e41 cabe ac7c 9e3d 8ac3 aa3b
00000370: 02c4 703c 76e8 b03e ee52 843d 3df8 083e
00000380: 4144 ff3c bcd6 0a3e af20 803e fe68 083e
00000390: bc8a 383e 0863 3d3e 24b0 8c3c 3f88 373e
000003a0: 704b f23d dfcd 18be a407 913d 219b 3dbc
000003b0: 41f6 3b3e 14b6 693d b712 6c3d e37c e6bb
000003c0: 27fb 833c 74e1 113b 789c 593d 4fae 4f3e
000003d0: 1b97 533e 7645 673d a2f4 d43d fc37 1e3e
000003e0: b19c a1bd ede6 f83d 32b2 e73a 7945 6b3d
000003f0: bfc1 c93d 8ac4 903c 84cb 0e3e 590f fabd
0.17248186 0.029203057 0.11040739 0.07787858 0.15678912 0.14823776 0.041534863 0.24496073
-0.36057237 -0.4005764 -0.53523624 0.13927227 -0.01898408 0.014444345 0.27360636 -0.045251973
-0.27791837 0.19794348 0.083471514 -0.027075956 0.07310285 -0.010433026 0.025240516 -0.30540556
0.025549019 0.14141203 -0.049553376 0.08687686 0.12519126 0.23577513 0.18615663 0.16845731
0.07646325 0.027463928 0.025214225 0.028816128 0.046747517 -0.12798622 0.19889091 0.34113982
-0.29081005 0.07312703 0.16677187 0.13444832 0.074420996 -0.111302085 -0.10522578 -0.30399448
0.041763783 -0.03936885 0.10412775 0.12896428 0.22771402 0.10320734 0.22195284 0.023345936
0.14844301 0.09142757 0.08299763 0.11663311 0.19482383 -0.026295211 0.062242296 0.101145856
0.08787788 0.0622093 -0.05379347 -0.9555245 -0.018445795 0.032812644 0.0038587758 -0.20385705
0.512828 0.027351659 -0.06654 -0.16125052 0.11823389 -0.03363625 0.084779784 0.1169631
0.20110606 0.098680116 0.105044864 -0.11099094 0.036113802 -0.29030564 -0.007269498 -0.06973023
0.0850872 -0.18678889 -0.044065412 0.06960413 0.09984381 0.14351997 0.02497802 0.16283602
0.18584763 0.17175941 0.15756841 0.012455016 0.04136461 0.06879054 0.19999602 -0.3092196
0.32417288 0.13092217 0.07535765 0.0148182465 0.16951022 -0.111122765 0.08985597 0.14179778
0.09706932 0.161808 -0.02657293 0.069657296 0.13460001 0.08695252 -0.14255281 0.08026814
0.24650863 0.09205106 0.029450063 0.21281971 0.09180838 0.19625962 0.013689704 0.17593865
0.061679244 -0.89817274 0.18007903 0.1513911 -0.5089093 0.12414523 -0.122030765 -0.0137666855
0.02148362 0.04764459 0.06480106 0.19724199 -0.008743233 0.15515861 -0.04657603 -0.16768125
0.15966772 0.19985779 0.050100073 -0.16999015 0.10998257 0.106583014 0.03087009 0.10376897
-0.074272916 0.046294346 0.24644375 0.07984414 0.12788531 -0.07897632 -0.07376435 -0.28445086
0.08443723 0.10121382 0.056228973 -0.32392102 0.16816242 0.025645074 0.0032632176 0.06144617
0.20309578 0.051837876 -0.026959354 0.0051425323 0.16783613 0.022870198 -0.6776726 0.037423454
0.12633878 0.010228755 0.029150093 0.011922336 0.1223245 0.1675258 0.24277298 0.19347245
0.098383754 -0.020280328 0.10884595 0.07541875 0.14734629 0.074962124 0.3031621 0.034020577
0.19368951 -0.058185924 0.12157872 0.15492344 0.2063145 -0.072273485 -0.088714205 0.07262744
0.15521054 0.1831223 0.17207643 0.09775094 -0.114385925 -1.6508295e-05 0.22757386 0.13876013
0.032566518 0.11764598 0.15475795 -0.34433374 0.036175102 0.02956133 0.10638163 0.118921384
0.06273568 -0.39502996 0.07738623 0.0052112984 0.014695169 0.34552354 0.0646113 0.13375945
0.031160476 0.13558477 0.25024936 0.13321301 0.18021673 0.18494809 0.017173834 0.17923068
0.11830795 -0.14922284 0.070815355 -0.01157263 0.18355657 0.05705841 0.057635035 -0.0070339306
0.01611097 0.0022259625 0.053127736 0.20281337 0.20663111 0.056462727 0.103982225 0.15451044
-0.07891215 0.121534206 0.0017677008 0.0574393 0.09851407 0.017671842 0.13944823 -0.122099586
