p2/TD3_BC_HalfCheetahBulletEnv-v0_9101_0.25.pth (torch, 898821 bytes, 16 tensors)

l1.weight f4 [256, 32]
00000000: 8738 1cbf 918c 23bd 68a6 29be 21c3 10bf
00000010: 9565 25be 18fd 90be 2648 71be 586a 76bf
00000020: e8d6 483f 8af9 823e 34e2 563e febb ce3d
00000030: f4fa ce3d eb6a c7bd 3548 643e 7290 aabe
00000040: 282b ecbe ee4a cdbe b945 bf3e e6b7 3dbe
00000050: c98a 373e 4c3f 01be c291 b9bd 166e a4bd
00000060: 5c82 a8bd e5f9 1abc 333f ddbb 155c 9f3d
00000070: 4a29 b1bd d688 98bb 00fd 70bd 93e3 173e
00000080: fdf8 1c3c 627e a23a 0076 62bd fa49 0a3f
00000090: fe75 a5bb 8e00 9e3d 454b a3bc 09b4 b93c
000000a0: 0476 d93e 3793 0cbf 690a b0be e343 253e
000000b0: bc5e cc3e c209 79bd 3867 bcbe 80ce e63c
000000c0: ed78 683e 9352 04be 3c09 d83d 859f bdbd
000000d0: 57d2 b13d 3d5a 5a3e ca13 1a3f ab67 94be
000000e0: f4bb 06bd 2372 323f d5ec e2bd ca80 8e39
000000f0: 826c a4bc 6f53 1bbe c1f1 42bc 2794 f4bc
00000100: 1f14 c43a ee27 823c 84fb 523e 1d84 b63e
00000110: 6188 2ebe a436 48bf 5843 ff3e 106d 46be
00000120: a67f 433d b8f3 ce3c 703c 92bc 9659 00be
00000130: 7c2a 07be 1377 57be c17c ce3e 449e 8dbe
00000140: e38d 5fbe 01cc 31be e8e3 99be 5990 23be
00000150: 6380 88be 4f32 993d 541e a23c f3f7 a83c
00000160: 35ba a0bd c83f 923e ab80 0cbd 665e 073c
00000170: 21dd 84bc d406 04bd c0c4 93bd 4fd2 5bbc
00000180: 2556 adbd 3cd1 0a3e 80c3 51bc 0caa a63f
00000190: ec32 dbbd bf39 c23d 47d3 81be 12f7 7c3e
000001a0: 70bf 7f3e 42c1 79be a793 96bd 3a59 cebd
000001b0: ed3b ab3e 4ef9 cf3d fb79 2bbd 9edc c83d
000001c0: 0876 c13e 62a0 1a3e 13b7 973e 5c65 fc3d
000001d0: 987c c13a ad8b ccbe 96f1 063e f78d 1bbe
000001e0: 7b36 943e 20f6 913c 3b4d f33d 9554 97bd
000001f0: 1cc8 043e 1efd fa3c 3130 d53d 4335 d1bd
00000200: 308c dbbe 82a8 10bc 4247 71be 8a3b 0b3f
00000210: 4e5f 31bc 6f67 8f3e 6b3c f5be 4864 b7bd
00000220: 4d5c ed3d cd9c abbe d244 af3e eb78 433e
00000230: 6b49 083f 0205 0f3e 1d41 fb3d c0c7 24bf
00000240: c051 8a3e c2bd a5be 6ad3 1c3e 3257 71be
00000250: 75b7 a4bd 6103 6f3e 07d6 523c dd6b edbc
00000260: 6e62 003e bfc7 ef3d a5a2 75bb 3864 64be
00000270: 099f 863e 3df8 94bd 1c6b 1cbe db5b 98bc
00000280: e1cb 943e 396a 10be 1838 d4be c393 223f
00000290: 8486 8dbd 9175 6c3f 7a43 a73e 2543 5abd
000002a0: dd80 0abe 48d1 6b3e 3337 8a3c 326d 07bf
000002b0: ad7f 67be 8bf5 a2be f4f1 1fbf 4850 b2be
000002c0: b2b2 0c3f 3157 eebe 7448 a53e 733f d1be
000002d0: 5f3d c2bd e50e 8cbd 3efc aa3e bb6b a23d
000002e0: b517 43bf 9593 99bf f74a 1abe f891 1ebd
000002f0: 9301 3b3e 824a b3bb 7af6 6c3c 0184 7bbe
00000300: 6fc0 5a3e 7446 443d 3323 913d c829 163f
00000310: 1d98 68bd 4ba7 e9bd 49fb f5be 6530 61be
00000320: e5dd 42bd c1c0 a1be b95d eb3d 14e4 ae3e
00000330: 1b3d 463e ffb8 3cbe 783d 6f3e e61f bebd
00000340: 540a 3ebe 8c74 57bd e85d 9d3b ab55 433e
00000350: 171c 203e 3058 dfbb 19aa 1cbf db13 82bd
00000360: 4423 c2bf b0bc 63be be69 cfbd 47fc 4e3c
00000370: dce8 0b3c d7e2 8b3e 460b 203e d908 22be
00000380: 56e2 4dbe 7caa e6bd 423b ccbe 000d 283e
00000390: a6a0 02be 4941 4e3e 885d 8abe c6a1 abbf
000003a0: 6ecd 583e e703 1e3c 7ad8 f7bd 8a0e 963d
000003b0: 9b74 77bd 1e53 bf3c 6eaf dd3e 4c32 843e
000003c0: 7298 a53e 53c1 f03d ed90 763e 8702 95bd
000003d0: 49e8 3dbe 5801 edbd 80de 893e 2104 943d
000003e0: 281d 013e 5624 afbd 7581 7abc 410f 883d
000003f0: 6adf 26bd 51fe 163d c008 a53d c97c cebc
-0.61023754 -0.039928976 -0.16567385 -0.56547743 -0.16152032 -0.28318095 -0.23562679 -0.9625602
0.7845292 0.25581008 0.20984727 0.100944504 0.10106459 -0.0973719 0.2229317 -0.33313328
-0.46126676 -0.4009623 0.37357882 -0.18527183 0.17924036 -0.12621802 -0.09061004 -0.0802881
-0.08227989 -0.009458994 -0.0067519187 0.07781235 -0.086504534 -0.004654984 -0.05883503 0.14832906
0.009580848 0.0012397284 -0.055288315 0.5401913 -0.005049466 0.077149495 -0.019933352 0.022668855
0.4247285 -0.5491213 -0.34382942 0.16139178 0.39916027 -0.06080032 -0.367975 0.028174639
0.2270238 -0.12922125 0.10548636 -0.092589416 0.08682697 0.21323486 0.60186446 -0.28985342
-0.03289409 0.6970541 -0.110803284 0.00027180306 -0.020071272 -0.15168546 -0.011898459 -0.0298558
0.001495961 0.01588818 0.20603758 0.3564767 -0.17044212 -0.78208375 0.49856067 -0.19377542
0.047729157 0.025262699 -0.017851084 -0.12534174 -0.131998 -0.21041517 0.40329555 -0.2765981
-0.21831469 -0.17362978 -0.3005669 -0.15973033 -0.2666045 0.07480299 0.019789852 0.020626044
-0.07848016 0.28564286 -0.034302395 0.008262252 -0.016218724 -0.032233074 -0.072152615 -0.013416841
-0.084636964 0.13556379 -0.0128029585 1.3020644 -0.10703072 0.094836704 -0.25356504 0.24703625
0.24975371 -0.24390128 -0.07352381 -0.10075612 0.33444157 0.10154973 -0.041864377 0.098077044
0.37785363 0.15100244 0.29631862 0.1232402 0.0014761863 -0.39950314 0.13178095 -0.15190874
0.28947815 0.017817557 0.11879965 -0.073891796 0.1296696 0.030638274 0.104095824 -0.10215237
-0.42880392 -0.008829238 -0.23562339 0.54387724 -0.010825945 0.280086 -0.47897658 -0.08954674
0.115898706 -0.33518067 0.34232193 0.19089095 0.53237027 0.13966754 0.12268279 -0.64367294
0.27015495 -0.32371336 0.15315023 -0.23568419 -0.08042804 0.23341133 0.012868411 -0.028982097
0.12537548 0.117080204 -0.0037480977 -0.22303855 0.2629321 -0.0727391 -0.15275234 -0.018598488
0.29061797 -0.1410302 -0.41449046 0.63506716 -0.069104224 0.9236689 0.32668668 -0.05328669
-0.1352572 0.23029053 0.016872024 -0.52900994 -0.22607298 -0.3182796 -0.62478566 -0.34826875
0.5496017 -0.46550897 0.3228184 -0.4086872 -0.09484362 -0.068387784 0.3339557 0.07930704
-0.7620805 -1.1998163 -0.1506766 -0.038713425 0.1826232 -0.0054715285 0.0144630615 -0.24562074
0.2136247 0.04791875 0.07086792 0.58657503 -0.05678569 -0.11408862 -0.48043278 -0.21991117
-0.047574896 -0.31592372 0.114924856 0.34158385 0.19359247 -0.18429945 0.23363292 -0.09283428
-0.18558627 -0.052601382 0.0048024543 0.19075648 0.15635715 -0.0068159327 -0.6119705 -0.063514434
-1.5167012 -0.22239947 -0.101275906 0.01263339 0.008539405 0.27321503 0.156293 -0.15823688
-0.20105872 -0.11262986 -0.3988896 0.16411209 -0.12756595 0.20142092 -0.27024484 -1.3408744
0.21172115 0.009644485 -0.121018365 0.07326992 -0.060413938 0.023355063 0.43297905 0.25819623
0.3234287 0.11755624 0.24078722 -0.07275873 -0.18545641 -0.11572522 0.26927567 0.0722735
0.12608778 -0.085518524 -0.015289654 0.066435345 -0.040740408 0.03686363 0.080583096 -0.025205987

l1.bias f4 [256]
00000000: d720 a4bb 13cd 1c3d f8a9 823e 2ec4 2dbe
00000010: db72 8abe 4e13 51be 43e9 b23d b32b b5be
00000020: 568b 373e 1740 973d f8d8 a8be d5f3 24bd
00000030: 134c 9cbb 8a7b d23c cbf2 37be bec0 b63c
00000040: cfc9 8d3d 6166 503e db02 53be 6060 46be
00000050: 8809 5abe c99e 0fbd 76e6 c83d fc6a 2ebe
00000060: 9745 0a3e 5c59 d6bd 0158 2f3e b7f5 23be
00000070: a57a 79be 39ae 08be 23dd e83e 5be1 81bd
00000080: b7b3 5a3e b3ce 323e 9f93 1e3e 87bf 8d3e
00000090: 71fe 563e 87da 3d3d 1abe 96be 5744 c73c
000000a0: 9d6b 98be 6ed8 39be 62c6 a5bc 06ff ab3e
000000b0: f12b bf3c 0222 703e 9046 92be 7277 adbc
000000c0: 66c1 acbc 3daf 28be ce37 563e 260e 7b3d
000000d0: 2fd7 03be 6514 733d 43a9 92be 91a9 323e
000000e0: 0218 8fbe 4af5 8a3e 2263 51be ca3d c33d
000000f0: 3785 86be 0e57 7f3e ad1a 463e 269b 5abe
00000100: c7b5 cabe 91eb 5b3d 2b8a 27be 5de1 9b3e
00000110: a5ea 41bc de37 393d 5997 0e3e 18cb 31be
00000120: 4972 053d 5ee1 cb3d 89e9 773c d870 4cbd
00000130: 7dbf 1fbd e22d 363e a14f 18be fa2d 583e
00000140: 829a 1abd 594d 09be a5e5 86be db7a 243e
00000150: cc5e 443d 23c2 88be 2624 5c3e eb01 2abe
00000160: 5b11 c4bc 6e75 38be ca5c 6c3d 18d8 4dbe
00000170: c355 113e 8a64 bd3d bd93 e5bd d5a9 13bd
00000180: 633c b63e 7daa 98be 8753 62bd c444 423e
00000190: 7024 58be b469 efbd 0d08 5ebe f200 a43d
000001a0: 95b8 d8be 1b85 24be b0cd e33d 4826 9ebe
000001b0: e2a3 f23d f489 b1be bf0b d0bd 2ccd 6abe
000001c0: 5f24 6f3c 692f 8d3d 804a 2b3e ead2 f4bd
000001d0: 6f94 da3e 8666 80be 7790 4b3e 6165 813e
000001e0: d7a5 4a3e 1e54 783e e512 3d3e f6e3 61be
000001f0: c20c 8bbd 8cef d13c ae72 603e 7d4f 1c3e
00000200: c674 c43b de37 17bd 8fd2 613e f7d9 afbd
00000210: c419 d53d d08d 7cbe 4b5f 09bc fe7b af3c
00000220: 1f4f 643d 304d 01be 94e4 663e 5830 56bd
00000230: 47cc 00be 4692 a33d eff8 a5be 7c9f e3bd
00000240: 1d4a b5bd 0445 a63d 67d6 5e3e ed31 46be
00000250: 8cd1 793e 833f 7c3d 3202 c93d 12e0 8e3d
00000260: ac3d a73d c3d5 56bd 1b7d 88be 2fde 77be
00000270: 220d 5dbe 3dcb 53bd 3ce1 d43d 5772 2fbe
00000280: 487b b5bd 55a3 1e3e 93dd fcbc 0323 02be
00000290: ddb4 bfbd 3098 29bd 9fc9 123c 994d 1ebe
000002a0: f5df f8bb 829d 113e 0e27 ccba 9fdf d43c
000002b0: 3f0c f63e 5633 85be 3141 a8bc 9101 88be
000002c0: 9145 cc3d 4ca0 6b3e aaea 93bd d755 1abe
000002d0: 025d 833e 6f54 9a3e 9c66 b3bd f264 003e
000002e0: 97f3 88be 6fa9 263c 0abe ee3d d500 da3d
000002f0: 9b0e 233e 9395 62be b5ed 493d 06c7 113e
00000300: 4b51 2abe 2fa6 173e 6739 12bd d2b2 7dbe
00000310: 489a 543e 2126 1fbe 9d23 10be cf1f 213e
00000320: 242a 9bbe 26d5 87bd 98a6 72be 20a0 933e
00000330: 263f 793e 742c b23d 684b b1bd af9e 133e
00000340: 96d0 9abc 7e97 763e b523 423e d4e8 b93d
00000350: 8309 c43c 23a3 91be 49f9 c4be 4ed5 a5bc
00000360: 6e1b 93be e1b2 84bd 8f13 273d b224 633e
00000370: 0eb3 91bd e269 48be d16e 733d 210b a8bd
00000380: 0443 a43d c288 15be b26a 56be 0b9f 31be
00000390: 56e8 88be 784e de39 0672 1a3e c281 313e
000003a0: 4c68 8d3e 4189 8cbd ead8 393e 09e9 b13d
000003b0: 599b 723e fa98 a0bd 3c67 0a3d a6b1 9a3e
000003c0: 097c 233e 04ea 173d e998 19bd 75f8 0d3e
000003d0: dee2 26be 2917 743e 14e8 323e 6510 843c
000003e0: 2806 773e 90d1 1f3e 8d3a 66be cfa6 a6be
000003f0: 1af2 0bbe 451c ad3e fd51 883e 52b6 3e3e
-0.0050087976 0.03828151 0.255203 -0.16969368 -0.27040753 -0.2041752 0.087358974 -0.35384902
0.17924246 0.07385271 -0.32978034 -0.0402716 -0.004769811 0.025693674 -0.17963712 0.022308704
0.069232576 0.20351554 -0.20606558 -0.19372702 -0.21292698 -0.03506354 0.09809582 -0.17032999
0.13503109 -0.10466263 0.17123415 -0.16011702 -0.24363191 -0.1334771 0.45481214 -0.06341811
0.21357618 0.17461662 0.15486 0.27685186 0.20995499 0.046350982 -0.2944191 0.02432458
-0.29769602 -0.18148968 -0.020236198 0.33593005 0.023336383 0.23450473 -0.2856946 -0.02117512
-0.021088313 -0.16473098 0.20919725 0.06129279 -0.12875055 0.05934562 -0.2864476 0.17447497
-0.27948004 0.27140266 -0.20447972 0.0953327 -0.2627351 0.24935552 0.19346114 -0.21348247
-0.3959181 0.05369145 -0.163613 0.30445376 -0.011835729 0.045219295 0.13924922 -0.1736263
0.032579694 0.09955095 0.015131363 -0.049912304 -0.039000977 0.1779094 -0.14874126 0.21111289
-0.037745006 -0.13408412 -0.2634708 0.1606249 0.047941968 -0.26710615 0.21498165 -0.16602294
-0.023934057 -0.18013546 0.057705678 -0.20101964 0.14192872 0.09247692 -0.112098195 -0.036050636
0.35592946 -0.29817572 -0.05525544 0.18971545 -0.2110765 -0.11690083 -0.21682759 0.08007993
-0.42328325 -0.160664 0.11123216 -0.3088858 0.118476644 -0.34675562 -0.101584904 -0.2292983
0.014596074 0.068938084 0.16727638 -0.11954291 0.4269137 -0.2507822 0.19879328 0.25272658
0.19789825 0.24250838 0.18464239 -0.22059616 -0.06789543 0.02562692 0.21918747 0.15264697
0.005995366 -0.036918513 0.22052978 -0.08586495 0.10405305 -0.24663472 -0.008384536 0.021421429
0.05573952 -0.12627101 0.22548133 -0.052292198 -0.12577926 0.07986884 -0.32416484 -0.111144036
-0.088520266 0.081186324 0.21761476 -0.19354983 0.24396342 0.061584007 0.09814872 0.06976332
0.0816606 -0.052449953 -0.26657948 -0.2420585 -0.21587041 -0.051707495 0.103945225 -0.17133461
-0.08861405 0.15491994 -0.030867374 -0.12708668 -0.09360669 -0.041404903 0.008959203 -0.15459289
-0.007595057 0.1422024 -0.0015575604 0.025985537 0.48056218 -0.2601573 -0.020538898 -0.26563695
0.09974206 0.23010367 -0.07222493 -0.15071808 0.25656897 0.30142543 -0.087598056 0.12538508
-0.26748344 0.010172232 0.11657341 0.1064469 0.1592354 -0.2212737 0.04929896 0.14236078
-0.16632573 0.14809488 -0.035699274 -0.24775246 0.20761979 -0.15541889 -0.14076085 0.1573479
-0.30305588 -0.06632452 -0.23696363 0.28833103 0.24340495 0.08699885 -0.08656961 0.14416002
-0.01889829 0.24081227 0.18958934 0.090776116 0.023930317 -0.28444776 -0.3847144 -0.020243313
-0.28731865 -0.06479431 0.040790137 0.22181967 -0.0711423 -0.19571641 0.059431855 -0.08205248
0.08020595 -0.1460295 -0.20939139 -0.17345826 -0.26739758 0.00042401603 0.15082559 0.17334655
0.27618635 -0.068621166 0.18149152 0.08687026 0.23692073 -0.07841678 0.03378986 0.3021366
0.15965284 0.03708841 -0.037499342 0.1386431 -0.1629748 0.2383696 0.17471343 0.016121099
0.24123442 0.15607285 -0.22483273 -0.3254914 -0.13666573 0.3381063 0.26625052 0.18624237

l2.weight f4 [256, 256]
00000000: edeb a23f 3e30 cd3e a272 883e 3c0e 37be
00000010: 0993 e3be b24a ae3d 67e9 cebe 9fdf be3f
00000020: 0ee4 7b3d 1fe5 1b3f 94fb 223d 062e 083e
00000030: bb5b 583e f779 18bf 9b4a 2abf c9b4 f33c
00000040: fa17 a63d 1618 d6bf 2a5d aebd b5d3 95bf
00000050: 71e0 9b3e 3747 493e 03b2 a53d 3b06 b0be
00000060: f39a adbe fe00 9f3e b1a3 303f 3d4e 92ba
00000070: 0f9f 2a3f df17 993d cc10 28bf 3839 47be
00000080: 8854 2c3e 38bb cc3e 4b29 ecbd 6546 b5bc
00000090: afd8 e13d aae9 c3be 4d15 f83e 66a2 483e
000000a0: dae2 883d f31f ae3d 8dcf 003e 4eb8 493b
000000b0: fe78 e4be 6a2e e5be a75e dd3e bcc2 023f
000000c0: dfc7 ae3c 47f1 10be 1094 afbe 48d9 233e
000000d0: 0f2c ab3e 9329 123e 40fa 313e a9f6 fcbe
000000e0: ea4a 5dbe 08c9 613e 165a 47bf 9acc 783d
000000f0: ac75 bc3d 8916 113d d7ba 17be 36d3 23bf
00000100: 780e dabe c910 843d 5457 723e 4f4c 2bbc
00000110: 6f11 d7be e70e 263e 362d 88be 8c94 9d3e
00000120: 3ed4 c7be d33b 6dbd 054d 2c3f 99ce 833d
00000130: cb7e dd3d ba63 d4be 976a 9f3d 069d 91bd
00000140: 1cc3 a33e 4465 463e ad8a 833d 4dd8 a03e
00000150: 55f0 153e e341 6a3e eca8 85bd edd2 223f
00000160: e329 dabe cfe6 7f3e 17bc 93bc 3b3c 163e
00000170: aab8 6a3d 3c0d 723d c98d b03e 6180 b7be
00000180: 1031 463e 5328 3bbf 3a7e b33e 5ad2 e13e
00000190: d4b1 083e 9475 de3d ce54 643e d8f5 8c3e
000001a0: 010b b6bd 002e 2abf 7202 e7bd bb6a d63e
000001b0: bec4 553e 9cc8 2e3c 6d7f 083f 0c4d 02bf
000001c0: c139 16bf 146f c3bb 0995 843e df5b babe
000001d0: 429e 663e daa3 6a3e 63ea 3cbc c5bc fa3e
000001e0: ef5c 6e3e 84b2 213f 99fa 88bd 063f 04bf
000001f0: e7f1 8e3d 0a7f 5bbe 9836 cabe be4a 91bd
00000200: feba 3d3e 051a 0ebb 8f24 f73d a806 f1be
00000210: 34bf 93be 8fbe 63be f2e9 d9be a392 d8bd
00000220: d81d b33e 551f 0ebf 36da 0fbf 2a06 d03e
00000230: b460 033f 6f49 553e 7f7c 113f 2459 763e
00000240: dc3e 15be 9920 9fbc b8a2 22be 3573 b5bb
00000250: 33fe 71be 03c0 5a3d ecf3 c7be 5c6e b23d
00000260: 13a9 f6bf 67a0 94bf 3708 c7bd 3e18 c5bf
00000270: c67f 90bd 2271 ffbe 8419 693e 856b c7be
00000280: a3f3 80be efb0 8cbf f300 503f 8c90 a83e
00000290: 4a47 0ebf 595c c73e b46c adbd 1ebe 90be
000002a0: 1d35 d73e 85e4 8cbe 0909 263c 63ce 303f
000002b0: 5f77 52bf a3ec 5f3d dffa 42bf f3e0 4abe
000002c0: c7c2 0c3d 4ab9 e23d 9a83 b93e da67 1e3e
000002d0: 4c76 1ebf 3c04 d43c 552e 07be ff4d 763f
000002e0: cdbc 193e b6c0 523e d172 643e f868 053c
000002f0: 3851 903d 9e5a 8fbe 628b 70be 8d51 4ebe
00000300: 1e99 dcbc a64c a7bf 3335 60bb 96f9 42be
00000310: e5c0 26be 3b5a 9d3e f895 183f 1807 bb3c
00000320: 8aa2 afbe 5fac 743e b07b cebe ca7a 793e
00000330: 62cb 3dbe 633e 13be 09dd 193f 68e7 b83c
00000340: c066 b73e d950 2bbc d959 1bbd 3437 9e3e
00000350: 6c3a 613f 600e 423d 2a8c 58bd 6149 12bf
00000360: 8752 33bf cc01 83bf 6679 72bd 09b6 f8bd
00000370: effd 84be b7ae 6f3d 4ae9 b13e 2ca8 51be
00000380: 0fe8 04be d123 f53d 44c1 f83d a89d 653d
00000390: a9d5 163f 2dae 62bc 7866 943e 4553 a4bc
000003a0: a119 64be 937b 44bd f08b 54be a4f9 47be
000003b0: a136 3ebe 6567 7cbd 1431 80be 4a9f 13bf
000003c0: a7e6 1abc 4291 913d ee99 7e3d adb2 1abd
000003d0: b6b8 cf3d 54ae 40be 4c07 213f bcaa af3e
000003e0: 799f 613e 1e30 c0bc 50a2 c23f 8de3 b43e
000003f0: 0386 273f 2501 36be d85c fb3d c90d 61be
1.2728249 0.40075868 0.26649958 -0.17876524 -0.44448116 0.08510341 -0.40412447 1.4911994
0.061496787 0.60896486 0.039790705 0.13298807 0.21128742 -0.59561104 -0.6652009 0.029749291
0.08110042 -1.67261 -0.085138634 -1.1705233 0.30444673 0.19656073 0.08090594 -0.34379753
-0.3390728 0.31055444 0.68999773 -0.0011162233 0.66648954 0.07475256 -0.6565063 -0.19455421
0.16829121 0.39986587 -0.115313135 -0.022128293 0.11027657 -0.3826421 0.4845375 0.195932
0.066838935 0.085021876 0.12579174 0.003078002 -0.4462356 -0.44761974 0.43236277 0.5107839
0.02133554 -0.1415454 -0.3429265 0.16000855 0.33432052 0.14273672 0.17380619 -0.49406937
-0.21610609 0.22049344 -0.77871835 0.060742 0.09202132 0.03542188 -0.14817367 -0.6399416
-0.42589164 0.06448514 0.23666126 -0.010455205 -0.42005488 0.16216622 -0.26596993 0.30777395
-0.39029115 -0.05791838 0.6730502 0.0643589 0.108151995 -0.41482335 0.07784002 -0.07110028
0.31984794 0.19374567 0.06422935 0.31415024 0.1464246 0.22876696 -0.0652636 0.636031
-0.42610082 0.2499039 -0.018034024 0.14671414 0.057305016 0.059094653 0.34483173 -0.35840133
0.19354653 -0.73108405 0.3505724 0.44105798 0.13349086 0.1086227 0.22297975 0.27531314
-0.088888176 -0.6647644 -0.11279763 0.41878304 0.20875832 0.010667946 0.53319436 -0.50898814
-0.58681875 -0.0059641693 0.25894955 -0.36398217 0.22521308 0.22914067 -0.0115304915 0.48972145
0.23277639 0.6316302 -0.06688423 -0.51658666 0.06979733 -0.2143518 -0.39494777 -0.07094334
0.18528363 -0.002168299 0.1206752 -0.4707539 -0.28856814 -0.22240661 -0.425613 -0.10574844
0.34983706 -0.5551656 -0.5619234 0.40629703 0.5131943 0.20828794 0.5683059 0.24057442
-0.1457476 -0.019424723 -0.15882385 -0.0055374154 -0.23632126 0.053405773 -0.39053285 0.08712456
-1.9270347 -1.1611451 -0.09718364 -1.5398023 -0.07055621 -0.49891 0.2276364 -0.38949218
-0.2518588 -1.0991496 0.8125145 0.3292278 -0.5557753 0.38937643 -0.08467999 -0.28270048
0.4203271 -0.27518097 0.01013399 0.6906492 -0.82213396 0.054669034 -0.7616405 -0.19812374
0.03436544 0.11070497 0.36233217 0.15469304 -0.61899257 0.025880925 -0.13201268 0.9621276
0.15013428 0.20581326 0.22309424 0.008142702 0.07046741 -0.27998823 -0.2349067 -0.20148297
-0.02692848 -1.3070266 -0.0034211397 -0.19040522 -0.16284521 0.30732903 0.59603834 0.022830531
-0.34303695 0.2389388 -0.4032874 0.24363247 -0.18534616 -0.14379267 0.601029 0.02257128
0.3582058 -0.010456287 -0.037927482 0.30901492 0.8797977 0.04737699 -0.052868046 -0.5714322
-0.700478 -1.0234923 -0.059197806 -0.121440955 -0.25974986 0.05851623 0.34748298 -0.20474309
-0.12979148 0.11969722 0.121462375 0.056058556 0.5891977 -0.013835472 0.28984427 -0.020059237
-0.22275402 -0.047969412 -0.20756507 -0.19528824 -0.18575527 -0.061622042 -0.25037444 -0.5766493
-0.009454406 0.07107784 0.062158518 -0.037768055 0.10142653 -0.18816501 0.6290176 0.34309947
0.2203349 -0.023460444 1.5205784 0.35329857 0.6543886 -0.17773874 0.12273568 -0.21977915

l2.bias f4 [256]
00000000: 54a0 203d 5ecf 8c3e 5af9 343e e1f2 c4bc
00000010: 9dd3 393e 4ae7 623e abf8 86be a4fb 703e
00000020: b19a 843e 4762 283e b92c 23be 6443 6f3e
00000030: f777 293e 0f4c 873e aa4f 6dbe 6836 493e
00000040: e0f4 3a3e 86b2 413e 538b 1cbc 131b b93e
00000050: dd9c 88bd b25f 713e c7b4 873e 9842 7bbe
00000060: 3c5f c83e 8c58 593e 0102 c3bd e136 813e
00000070: 1ada 313e 4d08 39be c4d5 5e3e d326 a6bd
00000080: 2e2e 20be 9c0a 17be 224b babd edea 8d3e
00000090: 5fe0 0dbe bb55 273e bde2 653e 19c9 8c3e
000000a0: 484e 833e 7cfc 483e 77f6 8bbe e006 88be
000000b0: 17a5 993e e2a9 803e 49d7 823e 14af 65bd
000000c0: 0f97 733e 5cfd 74bd 0a3e 9c3e 503a 4b3e
000000d0: ee0c 87bd 198d 19be ef67 29be a6eb a4bd
000000e0: c8f0 873e 3e52 b9be 1e29 a5bd 4f2d eabd
000000f0: c8db 58be bf5d 3b3e 10c5 08be ccd8 b93e
00000100: f82e 75bd 8877 17be 4f33 cabd 1409 c8bd
00000110: e4f2 653e 7163 963e 2e92 c4bd 8990 713e
00000120: 55cf 0cbe d26b 983d c59b 043e cd54 943e
00000130: 2cd3 9e3e 53ef 53be 968c 80bd 91f9 54be
00000140: 3071 0ebe f61d 663e 3a80 eebd 61ab 16be
00000150: 2311 963e 8828 2fbe d5e0 273e 983a 713b
00000160: 4077 a9bc b8f0 253e c408 8bbd a97d efbb
00000170: a0f3 66bd efd5 233e 3af0 613e 5dc9 a13e
00000180: dfea 193e 89f4 c5bd 632c debd ac8b 26be
00000190: 40e7 623e 97b6 e5bd dec1 9d3e 2d8e 043e
000001a0: 35b6 9f3e edcd 92bd 3cc1 2c3e b211 debd
000001b0: ff5a 633e 89c8 85bd 351f 5abd ac6e 343d
000001c0: 8b64 213e e742 29be cea4 0fbe 1d7e 31bd
000001d0: 6067 77be 15eb 4abe 9d58 973e bb8d 673e
000001e0: 2b35 683d aeb7 263e 9b5c 0cbe 4fd3 1b3d
000001f0: baf4 163e cef6 49be 7014 4ab9 a615 2ebe
00000200: 1f6e ccbd a3f7 b0bd 8d27 a0bd 63b6 0fbd
00000210: 45d4 2ebe 3638 783e a56f 8e3e 32fd 523e
00000220: ebe8 bebd 63c6 7b3e eb66 c0ba d68c 7b3e
00000230: 1135 f0bd 7671 853e 094e 983e 5b85 14be
00000240: bc73 85bd 3fad 833e 49fa 913e d90a efbd
00000250: 3237 7fbe 599f 563e efa5 323e d4f6 993e
00000260: 4106 843e e2cc 8a3e 838c 913e 276c 92be
00000270: 7e83 843e 64e2 743e fb36 84be 2c41 3dbe
00000280: 1990 543e b36d 3cbe 747e 993d 8ced 0a3e
00000290: e7ad 47be 202d 7b3e 3252 753e 79c7 813e
000002a0: bae8 15be b237 92be 8ed1 7abe 9b83 7abe
000002b0: d045 663e 1072 ddbd 2801 61bd 3af1 9ebd
000002c0: 314d a03e 2981 bbbd d704 35be 25c9 573e
000002d0: 0201 7c3e 631c 813e cfbc a33e 8906 66be
000002e0: 0046 3fbe 01a8 12be 73a7 723e b387 7e3e
000002f0: 5e48 a4bd 48d3 1fbe b197 a73e 9eb3 78bd
00000300: 4c33 bc3e ba8b 7c3e 9cc8 f33c 7740 7e3e
00000310: bb86 3a3e ff83 8fbd 8213 34be 5643 7d3d
00000320: 5939 a43e 40fc 733e 7bea 803e 8cad 883e
00000330: 642f 643e 5a46 7a3e 4498 af3e ee88 0cbe
00000340: 2c46 8dbd f519 20be 480f 9abd ffe8 1bbe
00000350: 8993 883e 3b7c 19be 8795 cebc b624 a83e
00000360: de84 08be 7772 693e 8c26 9b3e 9138 ea3d
00000370: 1e9a 24be a513 353e 4b8d 593e 86fd 5dbe
00000380: 91cb b73e b92d 533e e517 0ebe 1de5 243e
00000390: d961 ff3c 84bf ae3e 8041 3bbd 8efe 5f3e
000003a0: 1ca1 acbd 07c6 27be 934e 513e bb0d b03e
000003b0: aafc 59bd 7e3d 523e 8daa 2abd f61b b4bb
000003c0: 31e3 9f3e b7e8 c5bd 9f79 4fbe 8053 8fbd
000003d0: a40c 793e b703 9b3e 8ccd 3e3e cd25 6e3e
000003e0: ed6f 813e 64c4 98bd 2430 0fbe f5fa 6abd
000003f0: 714c 92bd 57c1 13bd 4b83 32be b679 5e3e
0.0392154 0.2750196 0.17673245 -0.024041595 0.1814713 0.22158542 -0.26361594 0.23533493
0.2589927 0.1644374 -0.15935029 0.23365551 0.16549669 0.26425216 -0.2317492 0.1964966
0.18257475 0.18915758 -0.009554702 0.36153468 -0.06670544 0.23571661 0.2650511 -0.24537122
0.39135158 0.21225184 -0.095218666 0.25237182 0.17368355 -0.18069573 0.21761233 -0.08112874
-0.15642616 -0.14750141 -0.09096362 0.27718297 -0.13855122 0.16341297 0.22449775 0.27497175
0.2564566 0.19627565 -0.27336475 -0.26567745 0.30008766 0.2512961 0.25554875 -0.05607517
0.23788093 -0.059811935 0.30516082 0.19846463 -0.06594263 -0.1499523 -0.16543554 -0.08052759
0.2655089 -0.36195558 -0.08064483 -0.11434423 -0.2117759 0.1829748 -0.13356423 0.36298215
-0.059859246 -0.14791691 -0.098730676 -0.097673565 0.22455937 0.29372743 -0.09598194 0.23590292
-0.13750966 0.0744244 0.12950046 0.28970948 0.31020486 -0.20696764 -0.06276815 -0.20798327
-0.13910365 0.22472367 -0.11645551 -0.14713813 0.2930995 -0.17105305 0.1639436 0.0036808606
-0.020686746 0.16205108 -0.06788781 -0.007308681 -0.056384683 0.15999578 0.22064295 0.3159894
0.15031002 -0.09665782 -0.1084831 -0.16264218 0.22158527 -0.11216467 0.3081197 0.12944861
0.311937 -0.071681835 0.16870588 -0.10843219 0.22202681 -0.0653239 -0.053252418 0.044050857
0.1576101 -0.16529427 -0.14027712 -0.04333316 -0.24160528 -0.19816239 0.29559794 0.2261266
0.05669133 0.16281006 -0.13707201 0.038043316 0.14741793 -0.19723055 -0.00019271835 -0.17000446
-0.099819414 -0.08640983 -0.07820044 -0.035086047 -0.17073162 0.24240193 0.27819553 0.20604399
-0.09321769 0.24587397 -0.001467911 0.24565443 -0.117288716 0.26063126 0.29747036 -0.14503996
-0.06516215 0.25718114 0.28511265 -0.11671991 -0.24923399 0.20959224 0.17446111 0.30071127
0.2578602 0.27109438 0.28427514 -0.2859814 0.2588157 0.23914486 -0.25823197 -0.18481892
0.20758094 -0.18401222 0.07494822 0.1356718 -0.19499932 0.24528933 0.23957136 0.25347498
-0.1463956 -0.28558117 -0.24494001 -0.24464266 0.22487569 -0.10812771 -0.054932743 -0.07760854
0.31308892 -0.09155495 -0.17677628 0.21072824 0.2460976 0.2521697 0.31979987 -0.2246343
-0.18679047 -0.14321901 0.2369669 0.24856453 -0.080216154 -0.15607941 0.3273292 -0.06071817
0.36757886 0.24662676 0.029758744 0.24829279 0.18215458 -0.07007598 -0.17585567 0.061831795
0.32075003 0.23826694 0.25178894 0.26694906 0.22283703 0.244409 0.34295857 -0.1372411
-0.0689815 -0.15634902 -0.07522446 -0.152256 0.2667506 -0.14988796 -0.025217785 0.32840508
-0.13331935 0.22797571 0.30302846 0.114365704 -0.16074416 0.17683275 0.21245305 -0.21678743
0.35897496 0.2062291 -0.13876303 0.16103025 0.031174587 0.3413049 -0.045716763 0.21874449
-0.08429167 -0.16384135 0.2044013 0.34385476 -0.053219475 0.2053127 -0.041666556 -0.0054964973
0.3122802 -0.096635275 -0.20261239 -0.06998348 0.24321228 0.30276272 0.18633097 0.23256607
0.25280705 -0.074593335 -0.13983208 -0.057368238 -0.07143486 -0.036073055 -0.17432897 0.21726117

l3.weight f4 [1, 256]
00000000: 698d 2740 7f2b a83e 7694 a43e 484d 81bf
00000010: a8f3 ca3e acd3 ef3e 5d25 d1bf 45c2 823e
00000020: 56f6 083f f83e ef3e f849 ebbf 8a9c 7e3e
00000030: 4017 ad3e 08fe 683f 412f cbbf 75ae c03e
00000040: 836c f83e ae4b 673e e8db 02bd f1b7 9e3e
00000050: e9cf 6fbf 5adc f33e 6ece 933e 52fc a8bf
00000060: 8f18 ca3f b140 203f 89eb d4bf 4386 bd3e
00000070: c3fc f73e 4d74 0abf 3c1e 8c3e 9b4d 57bf
00000080: ae5f 83bf ae1b 7bbf 573a cabf 25d6 713e
00000090: 29a6 5ebf b1da a63e 023b e9bf 63de 803e
000000a0: 3011 1b3f 395e 073f 9aae 2cc0 b3e1 8dbf
000000b0: 2aca c63e 2646 673e 65ae ba3e ff2a 3fbf
000000c0: 297a 933e 079a 38bf b95a 833e eccc 263f
000000d0: 0562 06c0 aba1 dbbf 7201 82bf 1408 50bf
000000e0: b96c 033f fa47 b9bf de30 bcbf 20a7 ecbf
000000f0: d8e6 06c0 a35d b93e 0b96 b2bf 9aa6 a03e
00000100: beb8 2abd 52e4 66bf 8bb1 88bf 1943 01c0
00000110: 25f7 4f3f 17a6 c73e 677d 29c0 b304 703e
00000120: 448d 5bbf 2dd2 1fc0 5363 f73e 32a0 873e
00000130: ecb6 983e ebba e4bf 2f1a 473d 3e56 6bbf
00000140: 7bf7 98bf e5eb ac3e ffab 42bf 3031 e1bf
00000150: 1e01 8b3e ab38 0ebf 89e2 b13e 961a 33c0
00000160: d8b5 c1bf f9a7 0d3f 5b39 ffbf a2bc bbbf
00000170: 85ff 0240 2620 d93e 9cae dc3e 3fb1 8a3e
00000180: 4e8e 233f 65c7 53bf e909 4abf 0899 c5bf
00000190: 1fc3 ee3e 640c 73bf 2f48 803e 8e6d bbbf
000001a0: eb39 7a3e ae02 60bf a482 c33e 2c3d dfbf
000001b0: b1e1 093f 7ff0 cebf 7cae 0ac0 a544 ebbf
000001c0: ea23 9c3e 4138 b3bf 95e0 39bf 74ad 7abf
000001d0: a7a8 dbbf f3d3 4ebf c70a fe3e 70bc c63e
000001e0: 4579 b7bf 8f3e 9c3f a3a6 2cbf edf6 afbf
000001f0: 687f ef3f 2aff c9bf 990d e5bf 4c9d b2bf
00000200: 8d71 12c0 b51f 39bf 3fc4 febf 8912 b9bf
00000210: 296e d8bf 8c91 0e3f 1194 8f3e af12 123f
00000220: 03d5 8abf 25b6 9c3e d96a bbbf 1fc0 333e
00000230: 8d6c 6fbf cd99 8e3e 0e8a 823e 4236 c5bf
00000240: 481e 54bf 4d3b fa3e fca9 843e 6255 4ebf
00000250: 71dd 27c0 5895 453f d332 ab3f e663 9c3e
00000260: bc79 863f 354d 353f 7c69 e33e 34e9 4cc0
00000270: 7c3f 943e 6353 183f a8e7 a4bf 4953 94bf
00000280: df83 063f b912 28bf 876d ee3f 7dfb 05c0
00000290: 2400 51bf 9fc6 873e 5d60 a73e 0b90 fe3e
000002a0: 9e34 d6bf 1be1 45c0 d464 20c0 1abd 57bf
000002b0: 5242 ce3e 119d 9ebf 5299 1abf 4df8 38bf
000002c0: 730d 603e 13ea 13bf 39ca b7bf 21da 8d3e
000002d0: ccac 163f cd80 d63e 6ab9 6e3e 5021 32c0
000002e0: 1721 63bf 7fd4 fcbf 3e05 053f 11f5 9d3f
000002f0: d591 b5bf a7db 16c0 d34d 723e daf9 bb3c
00000300: c1dc 8c3e e9ee ad3e a1c3 0dc0 480b d83e
00000310: 2e74 eabf 78b8 40c0 97c7 2ebf c449 8dbf
00000320: a356 5e3e d5ce 0c3f 55eb 723e ddd9 b23e
00000330: d3dd e53e f6e9 393f 5bb2 8f3e 1141 7ebf
00000340: f843 0a40 adff 2cbf 3f45 a8be 6b7c ddbf
00000350: 956a e13e e834 ccbf 66a9 dbbf 9d8f 923e
00000360: cdd3 8dbf c421 153f a2ff a83e ae04 3b40
00000370: d028 83bf 367f 723f 6e9b ba3e f402 1ebf
00000380: 1caa 923e c0fb d43e 23f9 9fbf 4a2e 2e40
00000390: f2ab bebf 0ac5 b13e 6cba d9bf 2c75 1d3f
000003a0: 17a4 28bf 5044 32bf 2988 d6bf 3173 853e
000003b0: 0cad 2dbf 0cc3 f83e c87a 81bc 0125 08c0
000003c0: e3d2 873e 2f22 3ebf cb1a 7bbf ae74 29bf
000003d0: dbc0 0c3f f9ba 9a3e d089 ea3e a4d2 963e
000003e0: 5859 c33e bb35 78bf a16c 60c0 49f1 3cbf
000003f0: 3183 4a3c 04f2 55bf 9dc3 00c0 fb9c 703e
2.618006 0.32845685 0.32144517 -1.0101709 0.3963902 0.4684118 -1.6339527 0.2553884
0.5350088 0.4672773 -1.8381948 0.24864402 0.338068 0.9101262 -1.5873796 0.376331
0.48520288 0.22587463 -0.031948 0.3099971 -0.9367662 0.47629052 0.2886843 -1.3202002
1.5788745 0.6259871 -1.663438 0.37016496 0.4843503 -0.5408371 0.27366817 -0.8410279
-1.0263574 -0.9808911 -1.5799054 0.23616846 -0.8697229 0.32588723 -1.8221133 0.25169668
0.605731 0.5287815 -2.6981568 -1.1084503 0.38826114 0.22585353 0.36461177 -0.7467498
0.28804138 -0.7211003 0.25655153 0.65156436 -2.0997326 -1.7158712 -1.0156691 -0.81262326
0.5133777 -1.447509 -1.4702413 -1.8488503 -2.1078396 0.36204252 -1.395204 0.31377107
-0.04168009 -0.9019214 -1.0679182 -2.0197203 0.8123649 0.38993904 -2.648279 0.23439293
-0.8576243 -2.497203 0.48317966 0.26489407 0.29827058 -1.7869543 0.048608955 -0.9192847
-1.1950525 0.33773723 -0.76043695 -1.7593136 0.2714929 -0.5555522 0.34743145 -2.7984977
-1.5133619 0.5533443 -1.9939378 -1.4666941 2.0468457 0.4240734 0.43101966 0.27088353
0.63889015 -0.82726127 -0.7892137 -1.5437326 0.4663324 -0.9494078 0.25055072 -1.4642808
0.24436156 -0.8750409 0.38185608 -1.7440543 0.5386 -1.6167144 -2.1668997 -1.8380324
0.3049615 -1.4001542 -0.7260831 -0.9792092 -1.7160844 -0.8079216 0.49617597 0.3881564
-1.4333884 1.2206591 -0.6744177 -1.3747231 1.8710756 -1.5780995 -1.7894775 -1.3954253
-2.2881806 -0.72314006 -1.990364 -1.4458781 -1.6908618 0.55690837 0.28042653 0.5705976
-1.0846256 0.30607715 -1.4641982 0.17553757 -0.9352501 0.27851716 0.25495952 -1.5407183
-0.82858706 0.48873368 0.25910938 -0.80599034 -2.6228907 0.77181005 1.3374885 0.30544966
1.05059 0.70820934 0.44416416 -3.2017336 0.28954685 0.5950224 -1.2883196 -1.1587917
0.5254497 -0.6565357 1.8627175 -2.0934746 -0.8164084 0.26518723 0.32690707 0.4971927
-1.6734807 -3.0918643 -2.506154 -0.8427292 0.40284973 -1.2391683 -0.603902 -0.72253877
0.2188013 -0.57779044 -1.4358588 0.27705482 0.5885742 0.41895142 0.23312917 -2.7832832
-0.88722366 -1.9752349 0.51961124 1.2340413 -1.418513 -2.3571565 0.236625 0.022946287
0.27512172 0.33971336 -2.2150652 0.42196107 -1.8316705 -3.011259 -0.682733 -1.1038136
0.21712737 0.550031 0.23722585 0.34931841 0.448958 0.7262262 0.28065762 -0.99318033
2.1603985 -0.6757763 -0.3286533 -1.7303594 0.44026628 -1.5953646 -1.7161071 0.28625193
-1.1080261 0.5825465 0.33007532 2.9221606 -1.024683 0.9472536 0.36446708 -0.61723256
0.28645408 0.4159832 -1.2497905 2.7215753 -1.4896224 0.3472064 -1.7010016 0.61506915
-0.6587538 -0.69635487 -1.6760303 0.26064447 -0.67842174 0.4858631 -0.015805617 -2.1272585
0.2652808 -0.7427091 -0.9808776 -0.66193664 0.54981774 0.30220774 0.45808268 0.2945758
0.381541 -0.96956986 -3.5066302 -0.7380567 0.01236038 -0.8357241 -2.0119393 0.23497383

l4.weight f4 [256, 32]
00000000: b852 c53c 0634 77bd 5368 1d3e 8b26 edbd
00000010: 4578 8abd ba1c 023f cd44 253e 2b09 9dbd
00000020: 6b0e e33e e160 a6bd 547b 41bd cc16 563c
00000030: b09f aa3e e63c 633e da54 6cbd acc1 2fbd
00000040: 3429 1bbe 12f6 fa3c 0775 55be 761e 243e
00000050: 761d f13e 1101 62bf 7b93 483e db02 92be
00000060: df26 55be 7117 39be 301a 6e3d aa1b 0abe
00000070: 8264 4d3e 8656 12bd cf08 e2bb 23f1 913d
00000080: f189 083c 3043 fcbd dab0 003e c9b2 f5be
00000090: 4d65 c63d 7aed bc3e a8b1 043e 9028 23be
000000a0: c432 ddbe 9456 46bc 91b0 cf3e 53e5 9e3e
000000b0: 85b3 dfbd 0d63 b53e 878b edbd 7ce7 99be
000000c0: 0207 d6be 59df c5be b242 ecbe 3614 a4be
000000d0: 4e05 033e 0608 e8be 4612 c7bd a6be 92be
000000e0: 6edb 05be 6773 7c3f 9da5 3bbe 0594 13bd
000000f0: a51e 1b3e 7d8e ae3d 0cd3 d2be 43ef 67be
00000100: 5aff d33e 3b08 24be b5fd af3e 7df9 b43e
00000110: f951 bd3d a88c bf3c 343b 003e 2ef7 cebd
00000120: 83f7 2f3e 14bb 00bf 3397 adbd 93a7 003e
00000130: ea27 823d 813e b93d 07ac aebd 8ebd 09be
00000140: 13ce babc 381b 1abe f759 783e b573 32be
00000150: a8b0 fa3d 96c6 babe 3c31 b4be 1b70 29be
00000160: 1c1a 5ebf ed8e b5be ef66 eb3c 4510 273d
00000170: 47d4 06be 56a7 0e3e 70db 043e 1d4a b5bd
00000180: 957b 44bf 35ba 8a3d 10f0 8fbe 62bf ce3f
00000190: 2a1f 8e3c 4a2c d4be d3bb 83bf 1650 53be
000001a0: d27c d13e c802 bfbd 3e28 9c3d 6240 01bf
000001b0: 2277 ca3e 83a4 8d3e c282 833e 8ef0 293f
000001c0: ec54 b13d ef2b a03c ee12 913e 6e91 b2be
000001d0: 4807 62bd ef98 c9bd 8300 59bd f3a1 d0bd
000001e0: 8590 ff3d 2ab0 b2be e045 783d 14ea 13be
000001f0: 6d43 cc3d 6364 e03d 6a8d 70bd 9fbc 20bd
00000200: 00fa 16be 6626 1dbe cff1 703e eaa1 0abe
00000210: 9dae 303c a95f 67bf 45b4 02bf b57f c3be
00000220: 51db 8a3e 3c3c 493f 2e19 97bd 55da 03be
00000230: e4d1 4a3e b619 16be ddc9 1c3c 0484 c2bd
00000240: 3ae1 51be 7e0a 3d3e be2b 773e d7d7 a33e
00000250: bec2 07bd 2e0e a93e 22aa 0b3e bdaa f13d
00000260: 606a 0d3e ef4d 7c3e f9be 9a3e 29bb 08be
00000270: 9671 90bd 59cd f63b 529e c8bc 8cc9 cebd
00000280: 5ad1 09bf b22b 0a3e de87 73be 8cd2 0bbf
00000290: e66b 32be 1caa cdbe 5809 91bc 0d2a 8e3e
000002a0: 9e40 9c3e 3499 c53e ecc8 d83b 174a 1b3e
000002b0: 235b 9e3e 4303 8a3e 76ba f93d af5a 833d
000002c0: e63e 9fbe a854 8b3d a5ef 883e a022 1abe
000002d0: 7c9b 83bd 22ef 5e3e 1cf0 16be 6e62 513c
000002e0: b3da 153f 329a 233e 8d07 08bd 4a98 22bd
000002f0: 5368 793d 07ef 243e 8201 12be 3b19 833c
00000300: e5d1 6ebe 4aa4 1fbe fb7a 55be da67 bd3e
00000310: 142c 1cbe 5ee5 b6bd d53f 303e 831e a93e
00000320: 6a1e 243e 4953 8dbe 2309 b53e 740a c2bc
00000330: 6fc8 963c bcde 27bd 83ee 983d a105 a5be
00000340: 6f0b 033f 8f7a 20be f202 bcbd 62c4 78bd
00000350: 0623 973e 091b 17be f1fe 63be f88d 8bbb
00000360: 7d26 5bbf 759e 83be a2f2 833c 89e7 943c
00000370: 2327 41bd 5b4d 37bd 00c8 ce3d 16c2 60bc
00000380: e455 9fbd 589f f8bd d615 c8bc e4ad 133f
00000390: 8ed6 17be ae80 9c3f d92e 97bd 18d4 bc3e
000003a0: cee8 ff3e 41bd 073f dc17 a7be c53e 3bbd
000003b0: 55c1 77be d30f fabd a79e 643e 3cbc 833e
000003c0: fd5e 0fbe 0398 c7bc a3b9 cdbe 9774 53bb
000003d0: c123 f53b 89d0 aebe 1453 9e3e 7930 93bd
000003e0: 8ccf e13e e8e0 bfbe f2ba 843d 0d1e 68be
000003f0: 32ea 37bd 19a6 89ba 1b57 b23d a7d0 2cbd
0.024087295 -0.060352348 0.15371828 -0.11579617 -0.06761221 0.50825083 0.16139527 -0.07667764
0.44346938 -0.08123947 -0.047236755 0.013066959 0.33324957 0.221912 -0.05769811 -0.04290931
-0.15152436 0.030634914 -0.20845424 0.16027245 0.4709279 -0.8828288 0.1958751 -0.28517804
-0.2081561 -0.18075348 0.058130443 -0.13487116 0.20057872 -0.035727046 -0.0068980227 0.07126071
0.008333669 -0.123175025 0.12567464 -0.47987965 0.0968729 0.3689993 0.12958395 -0.15933442
-0.43202794 -0.012105603 0.40564397 0.31034335 -0.109229125 0.35427132 -0.11598878 -0.3005942
-0.41802222 -0.38646963 -0.46144634 -0.3204667 0.12794992 -0.4531862 -0.09720282 -0.28661078
-0.13071987 0.9861359 -0.18324895 -0.036029834 0.15148409 0.08523271 -0.4117664 -0.22649865
0.41405755 -0.16018765 0.3437325 0.35346594 0.09244151 0.0233825 0.12522584 -0.101057395
0.17184262 -0.5028546 -0.084761046 0.12563924 0.06355269 0.09045125 -0.08528905 -0.13451216
-0.022803342 -0.15049446 0.24253069 -0.17426951 0.12240726 -0.36479634 -0.35193813 -0.16546671
-0.8675859 -0.35460606 0.028735606 0.040787 -0.13166915 0.13931021 0.12974334 -0.088520266
-0.7675107 0.067737974 -0.2811284 1.6152155 0.017348845 -0.4144004 -1.0291694 -0.20636019
0.40915543 -0.09326702 0.07624863 -0.50488865 0.39544016 0.27664575 0.25685698 0.6638268
0.08658776 0.0195522 0.28334755 -0.3487658 -0.055182725 -0.09843623 -0.052979004 -0.10187139
0.12478737 -0.34900028 0.060613513 -0.14444762 0.09973798 0.10956647 -0.058728613 -0.039242383
-0.14743805 -0.15346679 0.23529743 -0.13538328 0.010783819 -0.9038034 -0.5105632 -0.3818337
0.2712045 0.78607535 -0.073778495 -0.12876256 0.1980663 -0.14658245 0.009569612 -0.09497836
-0.20496073 0.18461034 0.2413778 0.3200061 -0.033144705 0.3301863 0.1363912 0.11800144
0.1381011 0.24639104 0.30223826 -0.13352646 -0.07052915 0.0075318036 -0.024489556 -0.10097036
-0.5383507 0.13493231 -0.23782298 -0.54618144 -0.17423972 -0.40168846 -0.01770465 0.27766457
0.3051805 0.38593447 0.0066157486 0.15164982 0.30928907 0.26955613 0.12193768 0.06413781
-0.31102675 0.06803256 0.26745334 -0.15052271 -0.06426141 0.2177091 -0.14740032 0.012779815
0.58536834 0.1597679 -0.033210326 -0.039696015 0.060890507 0.16106807 -0.14258388 0.016003242
-0.23322256 -0.15590015 -0.20847695 0.36993295 -0.1525119 -0.08930467 0.1721185 0.3303109
0.16027227 -0.27602604 0.35358533 -0.023686625 0.018406121 -0.0409839 0.074673675 -0.32230857
0.5118932 -0.15671752 -0.09180249 -0.06073416 0.29518908 -0.14756407 -0.22265221 -0.0042588674
-0.85605603 -0.2570683 0.016106907 0.01817681 -0.047156464 -0.044751506 0.10096741 -0.013718149
-0.07780054 -0.121397674 -0.024424475 0.5768721 -0.1482794 1.222677 -0.07381982 0.36880565
0.49982303 0.53023154 -0.3263539 -0.04571416 -0.24194844 -0.122100495 0.22326146 0.2572955
-0.14001079 -0.024364477 -0.40180692 -0.0032265538 0.007481069 -0.34143475 0.3092276 -0.0718698
0.44103658 -0.37476277 0.064809695 -0.22667713 -0.04490108 -0.0010501771 0.0870802 -0.042191174

l4.bias f4 [256]
00000000: 04e6 5c3d 3cd5 143e a81c b43e 618f 3dbe
00000010: 6521 0e3e 6d1d d1be b865 01be 3088 77bd
00000020: 513e 863d e56a 063e 6c70 cbbc 435e 55be
00000030: 45a9 7bbe d81d 043d a49e 803d be8a 12bd
00000040: 2be5 6a3c ab1d 8d3e 9c25 253e 1b1e dc3d
00000050: 8a82 53bd 79ba 1ebd 7f0e 023e ace4 f93d
00000060: 1d72 843e a37f 233d 59cc d7bd 2d3f a4bb
00000070: b3bf 633e 08c6 013d 5a8a a4bc 177b 513e
00000080: ceab a63d c911 213d d288 b43e 47d9 c0bd
00000090: 2291 4c3e 804b 2bbe d18b ef3d a42e d23d
000000a0: 33ac 7ebe 1a17 5cbd 5999 edbe 2bfa 893e
000000b0: d9a5 5f3e ebaf 5c3d 0896 2b3d 8221 b73d
000000c0: c9de ad39 741d 86bd 0ac9 ebbc 6c6a 73be
000000d0: 0afe b93d 38da eb3c 3c33 ee3d aa08 493e
000000e0: a04b 88bd 699c 23bd 6d25 20bd a76c e43c
000000f0: 0af6 d0bd 291e 203e cad4 0dbe 6aca 12be
00000100: 3717 56be 824f 0c3e 68dd 333e 6006 7c3e
00000110: c9c5 bd3c e509 653e f30b 943e 5ce8 9ebd
00000120: 61a5 c2be 7640 3d3e 5481 683e 6e6e a1bc
00000130: 1b5f 663e 848f 813e 8bb1 0fbd cb6c 773d
00000140: f926 50be 5754 433e 04ee fb3b f456 45be
00000150: 61e6 5ebe 8ec2 9f3d d174 923d f444 313d
00000160: 12ab 733d a41f 1ebe 7339 e23c adff 903d
00000170: ef70 1c3e f326 303e 5a14 3ebe b372 aabc
00000180: c83c 88be db7e c3bc 3161 99bd 1bce dabd
00000190: 42ec a1bd 66d1 7f3e 1d3b 4a3e 5a7d 01be
000001a0: 4706 1c3e 9aaf 9abd 5f26 b8bd 9283 41ba
000001b0: 610a f5bd b174 ed3d 99f8 8c3d ee22 e33d
000001c0: 900d 933e c1b6 2dbe 08cc 34be c69c 033d
000001d0: ebf7 87be df2b 033e 6a06 d0be 92cb 383e
000001e0: 4daf 343c 1719 b3bd be64 283e 473a 423d
000001f0: 0d6c 3e3e ba11 413e 7157 853e 06c2 0d3e
00000200: 3118 8f3d d4d2 483e b72a aebe fdc5 13bd
00000210: 8bd2 64bb 1b6a c13b 4890 9bbc 4dc9 90be
00000220: 1ab5 60be 827a b53d 5711 2b3e 99e8 c8bd
00000230: 46d9 fd3d 9d35 0a3e 7335 aebd 89ee 23be
00000240: e3b0 9d3e 3e0d 453e 7cce a2be 6f10 d6be
00000250: 546d 30be e50a feba b536 e93d f135 7b3e
00000260: cae7 933e e45d 91be 151d 1fba aef1 d2be
00000270: d73b c03c 8a4c 3fbc 2feb 3ebe a966 81bd
00000280: 4d73 813e cf2a 953d 2d64 9abd 327a 523e
00000290: 3ee3 2f3e 6981 2a3b d3b5 87bd 2287 8e3d
000002a0: 71bb 673e 0560 f83d 0614 b73e 8ff4 373d
000002b0: 78df d6be 5af0 bd3e 64c3 c0be 2bd5 443e
000002c0: 8f41 383e 0a42 813e bdcc 2abc d4c1 9c3d
000002d0: c510 273e d80d 803e 93c5 893e 9c87 6c3d
000002e0: de6f 303e bddd dabc 0b1e 833d 3294 053d
000002f0: 18f7 a8bd f033 adbc 207a 5ebe 90b8 c9be
00000300: 581c 67be 80c3 463e 9174 37be 7270 9e3e
00000310: 31b8 cd3d da3b 553e 383c 37bd 7c12 bbbe
00000320: 942e 84be 5149 a5bd ccc4 50be 7581 c6be
00000330: fb97 afbe 2247 3d3e 8bb2 cb3d 7cbf 833c
00000340: 0387 42bd 0618 403e e73f 97bd 9aaa 29be
00000350: 7e01 b1bd 501c 24be ec1c 913d 799e b53e
00000360: 1fd7 2b3e ccd8 8c3e 0496 0cbe a36d 7a3e
00000370: 0b12 9bbe 173d 08be 6fb5 553e 63b9 6dbd
00000380: f934 043e 5471 c43d 4278 88be df34 653e
00000390: eb23 c6bd e7f5 bf3c 7f88 523e c621 853c
000003a0: 5386 a7be 96e5 fbbd 9d37 113e b48a c6bd
000003b0: f4c0 c6bc b2e7 ad3c d1c1 e43d 990c 90bd
000003c0: 8439 ac3e 3a03 07be 4821 6d3e 25d7 303e
000003d0: 0154 a5bd add9 4e3e dad9 89be 6fdf fd3d
000003e0: 5576 563e 6a2b 2d3d 12e2 e0bd ddd6 adbe
000003f0: 23e4 323e de35 1d3e c84d b3be 4453 723e
0.053930297 0.14534467 0.35178113 -0.18511726 0.13879927 -0.40842763 -0.12636459 -0.060432613
0.06554855 0.13126715 -0.02483388 -0.20836739 -0.2457629 0.032255024 0.06280258 -0.035776846
0.014336864 0.27561697 0.16127628 0.1074793 -0.051638164 -0.038752053 0.12700842 0.12201819
0.25868312 0.039916646 -0.10537023 -0.005012414 0.22241096 0.031682998 -0.020085502 0.20457111
0.08138238 0.039323602 0.35260636 -0.09416442 0.19977239 -0.1672802 0.1169659 0.10262802
-0.24870376 -0.05373297 -0.46406057 0.26948676 0.2184061 0.053878706 0.041891128 0.08941938
0.0003316312 -0.065485865 -0.028782386 -0.23771065 0.09081657 0.028790578 0.11630866 0.19632211
-0.06655049 -0.039944086 -0.039098192 0.02788384 -0.10203178 0.15636505 -0.13850704 -0.14335027
-0.20907293 0.13702205 0.17564929 0.24611807 0.0231656 0.22367056 0.28915367 -0.07759163
-0.380168 0.18481621 0.22705585 -0.019705977 0.22497217 0.25304806 -0.035081428 0.060406487
-0.20327367 0.19075142 0.007688286 -0.19271451 -0.2176757 0.0780078 0.07151187 0.04327865
0.059489317 -0.15441757 0.027615285 0.07080016 0.15277456 0.17202358 -0.18562451 -0.020806646
-0.26608872 -0.0238642 -0.07489241 -0.10683843 -0.07906391 0.24982223 0.19749112 -0.12645474
0.1523677 -0.075530246 -0.08991694 -0.0007381971 -0.1196487 0.11594523 0.06883354 0.11090647
0.28721285 -0.16964246 -0.17655957 0.032131933 -0.26556334 0.12809704 -0.40629894 0.18046406
0.011028123 -0.0874502 0.1644468 0.04741886 0.18595906 0.18854418 0.26043275 0.13843545
0.06987036 0.19611675 -0.34016964 -0.03607749 -0.0034915532 0.0059025413 -0.018989697 -0.2827858
-0.21944085 0.08861257 0.16705833 -0.098099895 0.12394957 0.13497014 -0.085062884 -0.16008963
0.30799016 0.19243333 -0.3179816 -0.41809413 -0.17229205 -0.0019381909 0.11387388 0.24532296
0.2888778 -0.28391945 -0.0006069702 -0.41200012 0.023466034 -0.011675963 -0.18644403 -0.06318409
0.2528328 0.07283556 -0.07538638 0.20554426 0.1717653 0.0026017076 -0.06626477 0.06959368
0.22630097 0.12127689 0.35757464 0.044910964 -0.41967368 0.37097436 -0.3764907 0.19221942
0.17993759 0.25245696 -0.01042479 0.07654157 0.16314991 0.25010562 0.2690855 0.057746515
0.17230174 -0.026717061 0.064022146 0.032612033 -0.082502544 -0.02114293 -0.21726274 -0.39398623
-0.22569406 0.19410515 -0.1791556 0.30945164 0.10044897 0.20823613 -0.044735163 -0.3653754
-0.25816786 -0.080706246 -0.20387572 -0.38770643 -0.3429564 0.18484166 0.09946164 0.016082518
-0.04749204 0.18759164 -0.07385235 -0.16568986 -0.08642863 -0.16026425 0.070855945 0.35472468
0.16781281 0.27509153 -0.13729101 0.24455886 -0.30287203 -0.13304554 0.20869993 -0.058038127
0.12910832 0.09591928 -0.2665425 0.2238345 -0.096748196 0.023432685 0.20559882 0.016251456
-0.3271967 -0.122996494 0.14181371 -0.09694424 -0.02426193 0.021228645 0.1116978 -0.07033653
0.3363763 -0.13184825 0.23157227 0.17269571 -0.08072663 0.20200224 -0.2692402 0.12396132
0.20943578 0.04227773 -0.109806195 -0.3395299 0.1746984 0.1535258 -0.3502028 0.23664576

l5.weight f4 [256, 256]
00000000: 361f 383e 38ae 49be 84e0 28bc 3dc2 9dbd
00000010: 309d a93e 5f62 2f3f 88a9 dabe 8d8d 91be
00000020: 16b9 c8be 7def ca3d 121c aa3c 6b5b 40be
00000030: 43c0 c13e 8911 72bd d1cd 76be db24 ab3d
00000040: 6d11 70bc ae0b e8bb 1c81 63bf e9b5 ba3e
00000050: f933 84be ee12 c53c b1f6 5a3e 40c6 1f3e
00000060: c750 e53a e71d 6a3d 92c3 26bc a4fc e93d
00000070: d382 443e 30da a7be ba1f 7fbe 9062 823e
00000080: 56f0 1d3e a3c0 5abd 3a74 d33d bd45 b5be
00000090: 8fde 81bb de56 123e 9be2 3fbe 218c 313d
000000a0: 50bb 96bf 0ff9 febe faf9 02bf 0f58 c23d
000000b0: 46b9 723e 97fc 113e 523e aa3e 415b 2abd
000000c0: 1676 fbbd 475e a5bd dbf8 a43e 383b 173e
000000d0: 838c 8dbd a1f1 4b3e 6a73 593e f42f 73bd
000000e0: f46b 083e c426 a8be a4fb 963e ba63 4f3e
000000f0: 35f1 113d 0961 26bd 049b 77bd 86df f1be
00000100: 7886 ce3d a708 743c 4a4a 033e a5cb ab3d
00000110: 0996 4c3e dc21 403d 2044 dbbd 52cd 1c3e
00000120: b374 c0bf 75e4 293e 2a41 8dbe e2a1 f7be
00000130: c93d 95bd 1184 9a3e 8df7 ebbd 4809 f23c
00000140: fd22 013f d6a5 06bf 9c09 fb3d 6409 0dbe
00000150: 7900 99bd f0f3 88bf 4731 e4bd 0a76 503e
00000160: 2c17 94be 7a1a 83bd f692 33be b47a f53b
00000170: b7a9 563e 5ccb 60bd 9ecb 993e e385 dc3d
00000180: 5310 92be 5417 09be 7e00 243e 301a 3f3e
00000190: 5092 153e c411 a73d 909a 54be bea0 cf3d
000001a0: d9a6 fb3b 2bb0 483e c30b d13e 0c0a 213e
000001b0: f151 b5be 0138 a73e 9ee4 253e 6330 6a3d
000001c0: 2070 633e c21e 37be 3dc1 01bf 92a1 ad3e
000001d0: 75e1 1e3e c079 b73d 784f dc3c 5e95 3d3d
000001e0: 3149 23bf 48e9 b9be 0745 ebbe 1184 f2be
000001f0: 271c 0b3e 9d75 ec3d df2d 033e 0519 1c3e
00000200: 4bd7 623e 8040 003e 5219 c5bd 414c f53d
00000210: 638a b43c 22bb 863e 6bda 4bbf 0e74 24be
00000220: e54f f8bb a409 b8be 1c8b f7bc 5184 86bd
00000230: f48c 233e ae28 d53c b6d2 923d 690d 4bbe
00000240: 2005 9c3c 32a5 8abe 3a66 013e b7d3 9ebc
00000250: 5b04 c6bd dadf d93d cfc7 b43e 41c9 063e
00000260: 8b52 4a3e b82a cc3d e201 ce3c 3bcb 443d
00000270: daa2 f5bd f4bf 313f 71a2 6c3e 2c91 f13d
00000280: 3ad6 bd3e 2bab 593d 572f abbd a1b5 003e
00000290: 7f9d c03d 21e6 053e f8ed 4d3e 58d0 8e3e
000002a0: 7fae 1abd 5772 ea3d 7003 8dbe 19bb 893e
000002b0: 7617 583e 1991 68bd 07d8 eebd 642f 89be
000002c0: 7ae5 3c3d a20d 9b3d afd7 4fbe 3769 b23e
000002d0: e187 48bd 97d1 653e 84ee 573d 5f2a 93be
000002e0: c804 b43d 2c0e 5dbf a8a2 8fbe f7fe b83d
000002f0: 59f5 663c 07c6 273d 4a3e 023e ca43 bcbe
00000300: ef3d d73d 5b48 c83d 7db1 f23d b17b 6abe
00000310: e670 5abe 7279 60bf f5e4 423d f4d7 d23d
00000320: 4cab 0c3f 778d 41bd ebb4 b23e 86c8 fabe
00000330: 4696 9ebe 997a 723d 59a5 4c3e c2ab e03d
00000340: 6806 39bb 2fb4 75be a52c 813e 6367 a1bd
00000350: f8d1 c3be f5a6 383e 027e 4abd 3126 fa3e
00000360: 8048 08be 5be9 d33d 8744 31bd 330c 95bd
00000370: 9dd6 8cbe 186e 983e a34e 5e3d ba17 fcbc
00000380: 2a05 a1be 38d7 383e 0725 a3bd b711 c9bd
00000390: 2671 dc3d 216f 8dbc 4e33 5c3e 4be3 fc3d
000003a0: 9252 25bf c524 c5bd e981 46bd 12e1 b53e
000003b0: df70 aa3e 1b8a 24be 9ef1 cd3d 73cb 263e
000003c0: ff24 c4bc 738f 543e 0331 993d 70a5 d83e
000003d0: c918 66bf 1fd5 fa3e fdfb f73d 6c1d 773d
000003e0: 3af9 e33c 784d d03e b34a 95be 1f29 0cbe
000003f0: 2ea4 b63d db6e 563e a426 963d aaf5 85bf
0.17980656 -0.19695365 -0.010307435 -0.07703064 0.33127737 0.6850948 -0.42707467 -0.28428307
-0.3920371 0.0990896 0.020765338 -0.18784873 0.37841997 -0.059098754 -0.2410195 0.08356639
-0.014652592 -0.0070814705 -0.8886888 0.3646691 -0.25820902 0.024056878 0.21383168 0.1560297
0.0017495387 0.057157423 -0.0101784635 0.114251405 0.1919053 -0.3278365 -0.24914446 0.25465822
0.15423712 -0.05340637 0.10324903 -0.3540477 -0.0039632986 0.1429095 -0.18738787 0.043346528
-1.1775913 -0.49799392 -0.51162684 0.09489452 0.23703489 0.14256512 0.33250672 -0.041590933
-0.122783825 -0.080746226 0.32221112 0.14768684 -0.06911566 0.19916393 0.21235433 -0.059371904
0.13322431 -0.32842076 0.29488862 0.20252886 0.035630424 -0.040619884 -0.06045057 -0.47240847
0.10084242 0.014894641 0.12821308 0.083884515 0.19979109 0.04690729 -0.10706353 0.15312698
-1.5035614 0.16591056 -0.2758878 -0.48365694 -0.07287175 0.30178884 -0.11521826 0.029545441
0.5044401 -0.52596796 0.12257692 -0.13773113 -0.07470793 -1.0699444 -0.111422114 0.20357528
-0.2892393 -0.064015344 -0.1753653 0.007491434 0.20963179 -0.05488144 0.3003816 0.10767724
-0.2852808 -0.13387805 0.16015813 0.18662333 0.14606595 0.081576854 -0.20762086 0.10138081
0.007679802 0.19598453 0.40829286 0.15726489 -0.3541408 0.32659915 0.16200492 0.05717505
0.22210741 -0.17882827 -0.50685483 0.3391233 0.15515693 0.08958769 0.026893362 0.046285026
-0.63783556 -0.36310792 -0.459511 -0.47366384 0.13584958 0.115458705 0.12810467 0.15243919
0.2215244 0.12524605 -0.0962397 0.11977435 0.022038644 0.26314646 -0.79630154 -0.16059896
-0.0075778835 -0.35944855 -0.0302177 -0.06568206 0.15971738 0.026020374 0.07169096 -0.19829334
0.019045413 -0.2707916 0.12636653 -0.019388063 -0.096687995 0.106383994 0.35308692 0.1316271
0.1975805 0.099690855 0.025147382 0.04804538 -0.11993952 0.6943352 0.23108841 0.117952675
0.37077504 0.053141754 -0.08358639 0.12569286 0.0940504 0.13076068 0.20110309 0.2789333
-0.03776407 0.1144759 -0.27541685 0.26900557 0.211027 -0.056779 -0.11662298 -0.2679397
0.046117283 0.0757096 -0.2029712 0.34845898 -0.04895771 0.22443233 0.0527177 -0.28743264
0.087899745 -0.8634975 -0.28053784 0.09033006 0.014096581 0.040960338 0.12719074 -0.3677047
0.1050986 0.09779426 0.118502595 -0.22898747 -0.2133213 -0.8768531 0.04758163 0.10295096
0.5494888 -0.047254052 0.34903654 -0.48981112 -0.30974025 0.05919895 0.1998495 0.1097026
-0.0028232578 -0.23994516 0.25229374 -0.078810476 -0.3824613 0.18032439 -0.049436577 0.48857263
-0.13308907 0.103472434 -0.043278243 -0.072777174 -0.27507487 0.29771495 0.054274213 -0.030773032
-0.31449252 0.1805085 -0.07966047 -0.09817832 0.10763769 -0.017264904 0.21503946 0.1234804
-0.6457912 -0.09626154 -0.048463736 0.35523278 0.3328924 -0.16068308 0.100558504 0.16288547
-0.023943422 0.20757847 0.07480051 0.4231372 -0.8988157 0.48990723 0.1210861 0.060330793
0.027828801 0.40684104 -0.29158553 -0.13687561 0.089180335 0.20940726 0.07331589 -1.0465596
