p2/TD3_BC_HalfCheetahBulletEnv-v0_1234_0.1.pth (torch, 898833 bytes, 16 tensors)

l1.weight f4 [256, 32]
000000 22 74 9b 3e 35 a0 45 3d d3 c1 2c 3e 7c 24 1c 3f
       0.3036204 0.04824849 0.16870813 0.6099317
000010 d7 6a f2 bd 8f de f5 3e 33 16 ef bd e3 36 ff be
       -0.11836784 0.4802136 -0.11674156 -0.49846563
000020 69 89 f1 3d ab 80 a8 be cc da d3 3e 8e 9e 4d bf
       0.11793787 -0.32910666 0.41377866 -0.8032006
000030 88 27 e6 be 11 53 06 be 0d 06 39 3e cc c8 3a be
       -0.44952035 -0.13117625 0.18068714 -0.1824066
000040 ea d3 ed be a4 38 24 3e 67 8d d2 3d d9 60 3a 3e
       -0.4645074 0.16037232 0.102808766 0.18201007
000050 17 8e 78 bd 1a 9c 6e 3e a6 f6 90 bd 2b 76 af 3e
       -0.060682382 0.23301736 -0.070782945 0.34269843
000060 76 86 c4 bd a7 3a ce bc c2 04 b3 3d 79 f9 c8 be
       -0.09595959 -0.025174452 0.08741142 -0.39252833
000070 d4 62 b4 3d 99 3a f0 bd d6 a9 61 3e 7c 3c 92 3c
       0.088079125 -0.117299266 0.22037444 0.017851107
000080 c6 7e f8 bd b2 9b 4a 39 86 3b 9f 3e 7b 9c 5e bf
       -0.12133555 0.00019322222 0.311001 -0.8695752
000090 64 cd ab bd 55 5f 6e be 7c 09 2e be 70 8a 37 3c
       -0.083887845 -0.23278554 -0.16995806 0.01120244
0000a0 c3 3c c5 bd e6 34 74 bf 94 ec d6 3e f1 9e 54 bc
       -0.0963073 -0.95393217 0.4197737 -0.012977348
0000b0 0e 6a 0d 3e e7 c6 e2 3e 31 72 11 3e 98 24 4b bf
       0.13809988 0.44292375 0.14203717 -0.7935271
0000c0 66 ec fa be 9c 6f 20 be 3d 3f 0c bf 6c 6a 7c 3e
       -0.49008483 -0.15667576 -0.54783994 0.24649972
0000d0 8e 25 ca 3e 09 25 c5 be 83 fd 1e be f9 36 c6 3d
       0.39481777 -0.38504818 -0.15526395 0.09678454
0000e0 02 fc a3 bd 40 62 a3 be a2 d7 30 bd 0c 59 a5 3e
       -0.08007051 -0.31910896 -0.043174393 0.322945
0000f0 06 79 d7 3e 6a bd 45 be 06 9f 05 3e 54 52 db 3d
       0.4208452 -0.19310537 0.13048944 0.10709062
000100 b2 dd 1d 3e ed fa 2a bd 99 1b c5 3e be c0 1a c0
       0.15416601 -0.041743208 0.38497618 -2.418014
000110 28 45 9f 3d af fa 62 bf 4a ea 11 be ed e7 b1 bd
       0.077768624 -0.8866376 -0.1424953 -0.086868145
000120 74 14 ba 3e b3 74 0d 3f 36 eb 61 3e 4b c2 53 bc
       0.3634373 0.55256194 0.22062382 -0.012924741
000130 64 be b0 3e ce 4c 11 3c 2f 59 ab be 8e 8a eb 3b
       0.34520257 0.008868409 -0.3346648 0.007188148
000140 67 36 af 3e 46 11 2e be 00 47 01 bf 2e 03 74 be
       0.34221193 -0.16998777 -0.5049896 -0.23829338
000150 41 36 8b 3e b9 b7 5c 3e d7 7d de 3d 04 2b 5a 3e
       0.2718983 0.2155446 0.10863846 0.21305472
000160 6b 5a 55 bc 62 5c fc 3d 68 ec 6e 3d 72 89 a8 bd
       -0.013022046 0.12322308 0.058330923 -0.082293406
000170 40 8b 10 3e ec 8e 71 3e 30 3d b9 bd f2 53 60 bd
       0.1411562 0.23589677 -0.09044874 -0.054767556
000180 fc 0b 95 be c4 b9 a1 3d b2 f1 bf 3d 65 1e d2 3d
       -0.29110706 0.0789676 0.093722716 0.102597035
000190 24 8e 84 3d 00 b2 1c 3f 32 98 d0 bd ad f5 bb 3e
       0.06472424 0.61209106 -0.10185279 0.36710873
0001a0 b9 21 97 3f a1 d9 12 ba 65 f8 22 bf 7a 7e cf bd
       1.1807166 -0.0005601887 -0.6366027 -0.10131545
0001b0 82 a6 54 bc 82 36 8e bd a3 4a 69 3f ad 9a 8b be
       -0.012979152 -0.0694399 0.9112951 -0.27266446
0001c0 7c 11 04 3f ae e7 f8 bb 4a d3 6c 3e 2c 7f 15 be
       0.5158918 -0.0075959777 0.23127475 -0.14599293
0001d0 d0 91 00 3e 25 25 90 3c 97 54 00 be da 61 6c be
       0.12555623 0.017595837 -0.12532268 -0.23084202
0001e0 fb c3 4b 3c 1c 32 f8 bd ab 6f 8c be f2 3f 8f bd
       0.012436862 -0.121189326 -0.27428946 -0.069946185
0001f0 71 03 94 bd f4 8b 37 bc ea e4 c1 b9 0b 06 29 be
       -0.07227219 -0.011202801 -0.00036982383 -0.16506211
000200 fb ad 28 3d 5d 3c e4 bd 67 9b 2c be 40 8f 89 3f
       0.041181546 -0.11144326 -0.16856156 1.0746841
000210 72 ea 0a be f8 d7 bb 3e 10 a3 be 3d 1a fa 44 3f
       -0.13565996 0.3668821 0.093084455 0.76944125
000220 a4 10 c9 be 90 fe d8 3d 7d 5b 64 bf 69 0d 3a bd
       -0.39270508 0.10595429 -0.892021 -0.045422945
000230 67 52 ba be c7 c1 da 3d 65 a6 70 3b dc 74 2a 3f
       -0.36390993 0.10681491 0.0036720273 0.66584563
000240 a1 72 fc bd 86 0a 04 bc 87 c9 b8 bf 5d cb 10 bf
       -0.12326551 -0.00805915 -1.4436501 -0.5656031
000250 4c 3b f7 bd d4 b4 a4 3e e6 c2 e2 bd 2e c8 eb be
       -0.12071857 0.3216921 -0.1107233 -0.46051162
000260 1c 5c bb be 2b 29 d5 3e 3b a3 0f 3d b3 a0 75 3d
       -0.3659371 0.4163297 0.035067778 0.059967708
000270 d7 05 0c 3e ed 14 88 3a db f7 64 3e 59 e4 0d be
       0.13674103 0.0010382213 0.22360174 -0.13856639
000280 a3 2a 32 bf fe 49 e1 bd c4 ec ca 3c 04 db 19 3f
       -0.6959631 -0.11000441 0.024771102 0.60099816
000290 6d 30 61 bd a9 44 22 be a4 43 e3 3d 90 21 f0 3e
       -0.054977823 -0.15846504 0.11096886 0.46900606
0002a0 15 56 64 be 69 3a 94 3e 86 bf ae 3d e4 ff 35 bf
       -0.22298463 0.28950813 0.08532624 -0.71093583
0002b0 ac 80 01 bf 0e 0c d9 3d b5 7f 11 be 3f ae 0d 3f
       -0.5058696 0.105980024 -0.14208873 0.55344003
0002c0 71 d6 b4 3f 60 da 13 3f b9 b2 0a bf da a9 9b 3e
       1.4127942 0.5775509 -0.5417896 0.30403024
0002d0 3e f9 b7 3e 2f 82 c7 3d 7e f1 52 be 25 7a 1f 3f
       0.35932344 0.097416274 -0.20599934 0.6229575
0002e0 b8 8c 6a 3f 67 25 45 3f e0 31 82 3e 06 94 19 bf
       0.9162097 0.77010196 0.25428677 -0.5999149
0002f0 24 3d 5b bd 60 85 84 be c6 7d dc 3e 51 95 89 be
       -0.053525105 -0.25883007 0.43064708 -0.26871732
000300 52 d2 b0 be fe 67 1f be 2d 38 d6 3d de 55 81 bf
       -0.34535462 -0.15567014 0.104599334 -1.010433
000310 84 52 e2 bc 8c ed 88 bd 09 89 95 bd 8c 74 f0 be
       -0.027627237 -0.066859335 -0.07301528 -0.46963918
000320 3e 0b 91 3e 4a 65 88 3f 29 11 14 3f e0 e5 48 3e
       0.2832889 1.0655911 0.57838684 0.1961894
000330 b9 96 a0 3e 65 55 10 3f 78 a7 22 3f d0 13 cc 3f
       0.31364992 0.563803 0.6353679 1.5943546
000340 0c 6a 86 bf 1c 75 b1 be b1 a6 87 bf b3 43 37 be
       -1.0501113 -0.3465966 -1.0597745 -0.17896919
000350 61 55 6f 3e 2e 04 f4 be 27 c8 10 3f 36 ad e8 bd
       0.23372413 -0.4765944 0.5655541 -0.11361162
000360 d4 82 a8 bd 04 49 8f 3d b3 de b2 3d c1 f6 a1 3d
       -0.082280785 0.069963485 0.08733883 0.07908393
000370 1a 5d 85 3e 11 01 6f 3e 88 36 95 3e bb 9e c0 bd
       0.26047593 0.2334025 0.29143167 -0.094052754
000380 4b 56 f3 be 04 50 26 3e ab 22 ad 3e 9a fe a3 be
       -0.47526774 0.16241461 0.33815512 -0.32030183
000390 15 1f 9b bd d2 6f 9d 3f f0 fb a7 bc 7f 01 33 bf
       -0.07574288 1.229975 -0.020505875 -0.6992416
0003a0 85 19 dc 3e 60 03 cb 3e 59 d9 7f 3f 15 dc 0c 3f
       0.4298822 0.39651012 0.9994102 0.5502332
0003b0 d1 9e 3a 3f a9 b6 84 3e f8 a8 83 3d 57 2d 0d bf
       0.72898585 0.2592061 0.064287126 -0.5514731
0003c0 5a 16 15 bf 80 4f 2b be 2f 81 60 bf cc 00 b7 3d
       -0.5823723 -0.16729546 -0.8769712 0.08935699
0003d0 fe 10 b1 bc 79 a5 18 c0 17 fd 06 3f 3d 5c 69 3e
       -0.021614548 -2.3850996 0.52729934 0.22789092
0003e0 a5 c4 b8 3d a0 bd bb be 07 98 78 be 2c 28 47 3e
       0.09021882 -0.3666811 -0.24276744 0.19448918
0003f0 fb 02 be 3d 2e 55 17 bd e5 2f 25 3e 4b f0 90 3d
       0.09277912 -0.036946468 0.16131552 0.07077082

l1.bias f4 [256]
000000 a3 d8 b5 3e 39 21 57 3e 7f 84 0d 3f ff 28 d5 3d
       0.35516843 0.21008767 0.552803 0.1040821
000010 2b f6 5d be 82 b8 f4 3c e7 04 1b 3e e8 43 d9 3e
       -0.21675937 0.029873136 0.15138589 0.4243462
000020 e4 aa 2f 3e 53 01 f3 be e8 19 80 bb 87 bd f7 3d
       0.17155033 -0.47461948 -0.0039093383 0.12096696
000030 24 98 24 3e fd 6b 1c 3f 24 bb f1 be 8e 38 f6 3e
       0.16073662 0.6110228 -0.4721309 0.48090023
000040 ca 82 c1 be 09 a4 4b bc 82 6b 39 be e8 00 d0 be
       -0.37795097 -0.012429246 -0.18107417 -0.4062569
000050 d4 4f b4 bd eb 7d 65 be 11 ef ac 3e 8d b3 02 bf
       -0.088042885 -0.22411315 0.33776143 -0.5105522
000060 fc a1 29 3f 9c 77 b5 3e c4 4d a3 3e 4a 70 2e 3e
       0.66262794 0.35442817 0.31895268 0.17035022
000070 4f ad 72 3e e9 d9 eb bd 80 fa 62 3e ad 5f eb 3e
       0.23698924 -0.115161724 0.2216587 0.45971432
000080 89 09 c4 3d ac 5a a2 3e 07 36 31 3f 36 0a fa 3d
       0.09572131 0.31709802 0.69223064 0.12208979
000090 4c f3 ab 3e 0d 72 a2 3d ba 89 dc be 5e ab ea 3e
       0.33584058 0.0793191 -0.43073827 0.45833868
0000a0 e3 3f e1 3e a3 e8 07 bf 03 92 35 3f 8c 37 73 3e
       0.43994054 -0.5308935 0.7092592 0.23751658
0000b0 70 10 78 be 20 10 45 3e 84 7e df bd f8 ad 48 be
       -0.2422502 0.19244432 -0.10912803 -0.19597614
0000c0 c9 2e 03 3e e9 8f de 3b 4a 35 12 bf f5 b2 3d bd
       0.12810816 0.006792058 -0.5711256 -0.046313245
0000d0 39 9d 72 3d 32 6d 98 3e a6 9c 2d 3f d7 4a 2d bf
       0.05923197 0.2977081 0.6781715 -0.6769232
0000e0 d1 fe f6 be 9f 80 1c 3d 97 4b 0a 3d 49 ec 0b 3b
       -0.48241284 0.0382086 0.033763494 0.0021350554
0000f0 75 7c d8 3e a4 66 1f be 6a 83 0e be c4 fe f7 3d
       0.42282453 -0.15566498 -0.13917318 0.121091396
000100 cc e4 cc 3e 94 4a 96 be 74 64 ed be 6b 56 4e be
       0.40018308 -0.29353774 -0.46365702 -0.20150153
000110 ee b4 16 bf 15 7f f5 3e e2 0b b7 3e 77 c3 e8 3e
       -0.58869827 0.47948518 0.35751253 0.45461628
000120 06 cc 96 bc 47 0a 48 3d af 50 35 3d 0d d6 3b bd
       -0.018407833 0.048837926 0.0442664 -0.04585843
000130 e3 42 0c 3f 0c 5c 18 3f 4f 04 c3 3e ce e0 59 be
       0.5478956 0.5951545 0.38089225 -0.21277162
000140 60 68 89 3e 3d 52 ef 3d 43 3c 39 bd 0a b8 88 3e
       0.26837444 0.116856076 -0.045223486 0.2670291
000150 f3 73 8b be 67 6d 7f be 9d 5e a2 3e 9b 1b c4 be
       -0.272369 -0.24944077 0.3171281 -0.3830231
000160 09 c2 96 3e 3a 58 90 be 39 16 a2 3e a5 c0 c6 3e
       0.29444912 -0.28192312 0.3165758 0.3881885
000170 ca 99 94 3e f1 4d cd be 64 eb 19 3e b6 ca 80 bd
       0.29023582 -0.40098527 0.150312 -0.06288664
000180 b4 96 1e 3f 68 a9 69 be 9b 6b aa 3d 28 40 48 3e
       0.61948705 -0.2281853 0.08321305 0.19555724
000190 af 56 f7 be ad 3f 8a be 59 4e 56 3f 67 32 1a 3f
       -0.48308322 -0.27001706 0.837133 0.6023316
0001a0 53 68 f8 be f6 41 e4 be ce a4 0c 3e 94 7f 90 3e
       -0.48517093 -0.44581574 0.13734743 0.28222334
0001b0 e6 15 36 bc f2 ef 33 3e c0 9a da 3e df f3 ff bc
       -0.011113619 0.17572 0.4269619 -0.031244216
0001c0 e9 20 03 be 88 48 1a 3e 07 27 13 3f 5d 05 ef be
       -0.12805523 0.15066731 0.57481426 -0.4668378
0001d0 b2 f2 7d 3e 35 81 ee bd bb 4e c5 be 66 67 fb 3e
       0.24799612 -0.11645738 -0.3853663 0.49102324
0001e0 92 b2 8c 3e 4d d3 01 be 32 7b 0b 3f 55 2e 9c 3e
       0.27479988 -0.12678261 0.54484856 0.305041
0001f0 d1 e4 3a be 64 4e f4 3d ee d4 67 be df de a4 3e
       -0.18251349 0.11929014 -0.2263982 0.32201287
000200 bd 0c 19 3e 91 d0 9a 3e 36 ad be be a7 3a 4b 3f
       0.14946266 0.3023725 -0.37241524 0.7938637
000210 fa f7 08 3f 0e 31 84 3e 0f 8d f0 3e 68 59 6b 3e
       0.5350338 0.25818676 0.4698262 0.22983325
000220 46 35 a8 3e 32 10 2b 3e e6 cd 08 3f fd 1b aa 3d
       0.32853144 0.16705397 0.53439176 0.083061196
000230 13 d9 0b 3f 27 10 ad 3e 0f 55 db bd ee dd 2c 3e
       0.54628104 0.33801386 -0.10709583 0.16881534
000240 ab 77 f2 be 90 0e 66 3e f7 6a 08 bf 37 e1 92 3e
       -0.47356924 0.22466493 -0.53288215 0.2868745
000250 5b ec 50 3f 68 98 09 3e f9 dd 7d 3e 88 af c8 3e
       0.8161065 0.13437045 0.24791707 0.3919642
000260 91 e0 3b 3e 24 ed e0 bd 81 24 d4 3e 1a 32 d1 3e
       0.18347384 -0.10982731 0.414341 0.40858537
000270 bb 6f db be 89 3e 89 3e cd 84 cd 3e b8 27 18 3e
       -0.4285868 0.26805523 0.4014038 0.14858902
000280 06 5b cb be a3 bd 91 3e d7 59 e8 be c0 a9 a2 bd
       -0.39717883 0.28464994 -0.45381042 -0.079425335
000290 1e 80 a5 3e 41 35 d8 3e b0 1d 03 3e 36 df af bd
       0.32324308 0.4222813 0.12804294 -0.08587496
0002a0 15 28 1c 3f 88 cb f0 3e ed 6d 57 3e 95 5f cb 3e
       0.6099866 0.47030282 0.21038027 0.3972136
0002b0 83 12 58 3e 18 ef 76 be 84 42 50 bd 4d 14 ed 3e
       0.21100812 -0.24114645 -0.050844684 0.4630455
0002c0 45 5b 8a 3c 2a 3f a3 3e 2e 2e d1 3e 67 ca 1b be
       0.016889224 0.31884128 0.40855545 -0.15213929
0002d0 39 41 ac 3d 0e ea e9 be 8a 3b 13 bd ac 27 13 3f
       0.08410878 -0.45686382 -0.035945453 0.5748241
0002e0 cc 6c b4 be 5c 13 2e bd 88 40 cf bc e7 16 02 3f
       -0.35239255 -0.04249893 -0.025299326 0.50816196
0002f0 8d 72 6c bd 91 7b 1a 3f 79 ec 51 3e 9b 8a 0d be
       -0.05772643 0.603448 0.20500363 -0.13822405
000300 43 71 a2 3d 63 04 88 3e d9 00 0a 3f 96 21 8b 3e
       0.07931759 0.26565847 0.53907543 0.27174062
000310 15 e6 db 3e e6 a6 f6 be d6 fe a6 3e 4c 4d 01 be
       0.42948976 -0.48174208 0.326163 -0.12627143
000320 5b 62 fc 3e fc cc a9 be 9a 1f 0a 3f e1 53 ef 3e
       0.4929379 -0.33164203 0.5395447 0.46743682
000330 ec d8 ae 3e 21 34 09 3f 31 bc b1 3e 5a 39 2e 3e
       0.34149873 0.5359517 0.3471389 0.17014065
000340 58 b1 4a 3f f7 fa 06 3e 9c 8b 7b 3f 9c 18 9e 3e
       0.79176855 0.13181673 0.982599 0.3087815
000350 64 cb 77 be 0e 85 06 be 44 88 2b 3b a2 16 bb be
       -0.24198681 -0.13136694 0.002617375 -0.36540705
000360 ed 67 be 3d 7c fc 52 bd 1c c8 35 3e 85 2b 8a be
       0.09297166 -0.05151032 0.17752117 -0.26986328
000370 98 49 53 3e fa 0d 19 3e b3 15 38 be 6f eb bd bd
       0.20633543 0.14946738 -0.17977028 -0.09273421
000380 91 27 d2 3e dd 00 fa bc 71 f2 4f bd 64 b5 f4 3d
       0.41045812 -0.03051799 -0.05076832 0.1194866
000390 45 7f ec 3e c7 c7 84 3d 4a 9f eb 3e bb a9 ce 3d
       0.4619085 0.06483417 0.46019965 0.10090967
0003a0 bf 68 e2 3d 4a 8b c7 3e 21 b5 0e 3e ac aa 5c 3e
       0.11055135 0.38973457 0.13936283 0.21549481
0003b0 1d ae 20 3e d3 4e 01 bf d7 e4 ef 3d a6 a8 6e be
       0.15691419 -0.505109 0.117135696 -0.23306522
0003c0 91 48 50 bd 5e cd c2 bd 0c 22 93 be 31 78 be 3e
       -0.050850455 -0.09511827 -0.28736913 0.37201074
0003d0 7e 3b ed 3e d8 24 e0 3d 4e 6c ec be 0d ba a5 3e
       0.4633445 0.109445274 -0.4617638 0.32368508
0003e0 67 39 ac 3e 87 ef 44 be d8 c2 8d 3d b3 ab 66 3d
       0.33637545 -0.19231997 0.06921929 0.05631609
0003f0 29 f0 0f bf 1f ed 2f 3f bd 02 9f 3e 0c eb 11 3e
       -0.5622583 0.68721193 0.31056777 0.1424982

l2.weight f4 [256, 256]
000000 b5 72 30 3e bb e6 d0 3e 09 ec 3d 3f 5e 73 07 be
       0.17231257 0.40801033 0.74188286 -0.13227603
000010 75 87 97 3f 7d e6 0a 3f d9 f9 14 bf db de da 3e
       1.1838213 0.5425795 -0.5819374 0.4274815
000020 9c 96 2b 3f 61 4e ab be 7d 62 5e 3e 35 40 83 be
       0.67026687 -0.33458236 0.21717258 -0.25634924
000030 c9 1c 96 3e f2 e9 91 be 5c 29 1a 3e 92 37 57 be
       0.29318836 -0.284988 0.1505484 -0.21017292
000040 d9 8a d3 be 55 be 92 bf 55 fb ac 3e 2b 32 69 be
       -0.4131687 -1.1464335 0.337855 -0.22773044
000050 40 45 55 be 67 5e fd 3d 0f 87 06 3f 4a 47 25 3f
       -0.20827198 0.123715214 0.52549833 0.64561903
000060 c2 0d df 3e b4 5d 61 3d d6 5e 48 3e 96 55 0c c0
       0.43565184 0.055021003 0.19567427 -2.1927238
000070 a5 d2 a0 3e 6e b8 9e 3e c1 ba df 3d c0 b3 c6 3e
       0.3141071 0.31000084 0.10924292 0.38809013
000080 99 33 f1 3e 41 05 9a 3e 91 cc 0d 3f a6 71 ab be
       0.47109678 0.30082133 0.5539027 -0.33485144
000090 7c 2e 7e bf 46 a5 2a bf 58 f5 00 3e b1 64 a2 3e
       -0.9928968 -0.6665844 0.12593591 0.31717446
0000a0 91 e6 d1 3e c0 ea 05 be d5 49 d9 3e 54 7a 93 be
       0.4099622 -0.13077831 0.42439142 -0.28804266
0000b0 1c 66 8d 3e 6f 2c a1 3e b3 d6 de bb 09 5d a2 bd
       0.27616966 0.31479213 -0.0068004965 -0.07927901
0000c0 b0 d0 17 3e 94 e9 8f 3f 03 9c b9 3d 44 a0 9d be
       0.14825702 1.1243157 0.0906296 -0.30786335
0000d0 1c f8 a9 be 76 20 70 3e e9 0e dd 3e c9 b1 09 be
       -0.33197105 0.23449883 0.43175438 -0.13446726
0000e0 b9 18 c8 3d 2e c1 48 be 61 8f 2a 3f 6e 51 74 bf
       0.097703405 -0.19604942 0.6662503 -0.9543675
0000f0 d8 13 00 3f 1b 70 c8 be 10 f2 8f bf a4 72 19 bf
       0.5003028 -0.3914803 -1.1245747 -0.5994055
000100 22 b7 3d 3f 7c 01 a3 bd 23 b9 86 3c 5f 92 95 3f
       0.74107563 -0.079592675 0.016445702 1.1685294
000110 5a 6b 10 3d 10 4e b6 3e 42 5d 0d 3f 27 be 5c 3d
       0.03525863 0.35606432 0.55220425 0.05389228
000120 ac 94 96 be 65 fa 63 3f f3 a9 c2 bc 45 b1 02 bc
       -0.29410303 0.89053947 -0.023762679 -0.007976835
000130 e6 7f 05 3f 25 1d 8c 3e d5 92 15 3f 9f 95 c8 bd
       0.5214828 0.27365986 0.5842717 -0.09794163
000140 a3 a0 17 bf af c2 9b 3e 3a fd a9 be e7 39 2c 3f
       -0.5922949 0.3042197 -0.3320101 0.6727585
000150 d7 f2 b5 be a8 95 d5 3e 66 30 09 bf 02 19 3a 3d
       -0.35536835 0.4171574 -0.53589475 0.045434006
000160 44 b1 81 3e 50 7c 6d bf 09 8c 6f 3e 46 68 3d 3d
       0.25330555 -0.9276781 0.23393263 0.04624202
000170 25 d4 0f bd 8c 2c 05 3f c7 32 19 3f fb 0c d4 3c
       -0.035114426 0.520211 0.59843105 0.025885096
000180 cf c7 f2 3d 53 c8 4e 3e e3 8d e6 bd c3 23 2b bb
       0.11854517 0.20193605 -0.112575315 -0.0026113845
000190 1c 65 2f be 4a d2 cb be 84 f9 36 bf d1 78 24 3f
       -0.17128414 -0.39808875 -0.7147448 0.6424685
0001a0 61 8e 8d 3e e4 37 3b bf 6d 1f 09 bc 2d a5 0b 3f
       0.2764769 -0.7313216 -0.008369309 0.54548913
0001b0 6a 80 b5 be 11 b2 15 3f 6e 5d 97 3e e0 07 a9 be
       -0.35449535 0.5847483 0.2956347 -0.3301382
0001c0 f7 73 cb 3e 0b e4 97 bf c4 8b 8c 3e 8c 7a 18 3f
       0.39736912 -1.1866468 0.27450383 0.5956199
0001d0 c0 54 c9 3d b2 36 6a 3b 77 ce fe be d8 c3 e8 3e
       0.09830618 0.0035738167 -0.49766895 0.45461917
0001e0 83 c5 65 3e 6d 8f 68 3c 6a 98 eb bd d1 12 4d 3f
       0.22438626 0.014194352 -0.1150368 0.80106837
0001f0 bc a5 88 3e 02 72 de 3e 0b d6 81 3e 47 a6 6a 3e
       0.26688945 0.43446356 0.25358614 0.22914992
000200 35 1b 71 3e 91 99 a8 3e eb 67 00 bf 25 e4 15 be
       0.23545535 0.32929662 -0.50158566 -0.14637811
000210 b2 fb ad 3d 9e da 30 3f e4 a0 80 3e c0 1c 3d bd
       0.08495273 0.69083583 0.2512275 -0.046169996
000220 de 77 9a 3e 97 29 8b 3c f9 fd 7e 3e 4b 4a eb bd
       0.30169576 0.016987605 0.2490157 -0.1148878
000230 32 f7 61 3f f1 7d 04 3e f3 45 3a be 52 a2 aa bd
       0.88267815 0.12938668 -0.18190746 -0.083317414
000240 03 3e 9f 3e 7b 75 72 3e 02 68 f0 be 92 56 e1 bc
       0.31102 0.23677628 -0.46954352 -0.0275071
000250 6f d1 0f c0 66 f3 04 bf 6c a6 c9 bf 79 f4 83 3e
       -2.2471578 -0.51933897 -1.5753913 0.25772455
000260 b0 7c b7 3e fd e5 6d 3e 48 02 5d 3e a7 48 cb 3e
       0.35837317 0.23232265 0.21582901 0.39703867
000270 e2 55 af 3e 15 e6 9f 3e 94 a3 17 3f ac 43 cf 3d
       0.3424521 0.31230226 0.59233975 0.10120329
000280 f4 27 01 3e 0d 6b c1 3e 61 f8 7c 3e ba e8 aa 3e
       0.12612897 0.37776986 0.24704124 0.3338068
000290 c7 a4 65 3f f2 47 8a 3e fb 4b 81 3e f0 be 5f bd
       0.89704555 0.27008015 0.2525328 -0.05462545
0002a0 03 20 00 3d 22 fb 89 3e 79 1a 0f 3f fb 07 3e 3f
       0.03128053 0.26949412 0.5589977 0.7423093
0002b0 cb a4 15 3f 5f 5e 7c bb d5 dc 5c be 41 e9 0a 3f
       0.5845458 -0.0038508398 -0.21568616 0.5426217
0002c0 f5 a6 25 3f 46 d3 8c 3d 54 9d bd 3e 2a ad d1 be
       0.6470788 0.06876235 0.37034094 -0.40952426
0002d0 32 69 c8 bf f8 6f ce 3d 04 79 c4 bf aa 33 b0 3e
       -1.5657103 0.1007995 -1.5349431 0.34414417
0002e0 b5 5c f0 3d 1c 2d 94 be ce 3c 64 3e 01 7b d5 3e
       0.117364325 -0.28940666 0.2228882 0.41695407
0002f0 b2 b3 b9 3d 3d af 86 be ab a5 3c bf 6a cf ec 3e
       0.09067477 -0.2630557 -0.7369029 0.46251994
000300 9c 80 19 3f 86 fc 08 3f ee 4e 0c bd 99 e4 79 bd
       0.5996187 0.5351032 -0.03425496 -0.061009023
000310 60 3a 48 3c 86 9c b5 3e 93 86 af bf 99 f2 58 bf
       0.012220949 0.3547098 -1.3712944 -0.84745175
000320 22 e0 5a 3e 13 f5 c3 be 0a 90 16 3f d0 a9 6f 3b
       0.21374562 -0.38272914 0.58813536 0.0036569722
000330 21 c8 20 3e 3e 61 28 3f 4e 9a a0 3e 06 f1 4b 3d
       0.15701343 0.6577338 0.31367725 0.049790405
000340 bf ef 4b 3f d9 bd 4a 3e 74 e4 bb be 37 5d f9 3e
       0.796627 0.19798984 -0.36697733 0.4870393
000350 e9 6a 68 3e 9f d8 58 be 34 fa e3 3d 67 01 86 3e
       0.22697033 -0.21176384 0.11131707 0.26172945
000360 4f 3f bb 3f e6 a1 19 bf 23 2b fc 3e 33 52 e7 be
       1.4628695 -0.6001266 0.4925166 -0.451799
000370 a3 f2 7d be 0f 2c 3c 3e 69 63 c9 be 9f c4 a2 be
       -0.2479959 0.18376182 -0.39333656 -0.31790635
000380 57 10 23 3f a1 59 8c bf f5 65 e4 3e a9 cf 16 3f
       0.6369681 -1.0964853 0.44609037 0.58910614
000390 dc 64 bd 3e 99 c1 58 3d 31 8a 91 3e ff 70 d1 3e
       0.36991012 0.052919004 0.28425744 0.40906522
0003a0 59 d1 53 bf 05 e2 cc 3e c5 23 6e 3e e7 48 2b 3f
       -0.82741314 0.4001619 0.23255832 0.66908115
0003b0 05 a8 6b 3e 82 1b 0b 3e 39 72 ce bd 7f 3b ad bd
       0.23013313 0.13584712 -0.1008038 -0.084586136
0003c0 c4 39 e5 3d 9a a6 3c 3d a2 b6 aa 3e 30 d6 8b 3e
       0.111926585 0.04605732 0.33342463 0.2731185
0003d0 ab 7e bc 3e 11 26 da 3e e8 bb f3 3d 8f 2c 03 3e
       0.3681539 0.42607167 0.11901075 0.12809967
0003e0 14 49 78 3c 80 e7 1b 3d ce d4 f9 bd af fa 9a 3e
       0.015154142 0.038062572 -0.121987924 0.3026938
0003f0 35 f1 b2 3d fc eb a6 3e 43 f8 c8 3e a3 78 cc 3e
       0.08737413 0.32601917 0.3925191 0.3993579

l2.bias f4 [256]
000000 d5 6b 00 3f cd 84 05 3e 04 5e 18 3f 2d 43 2a 3f
       0.5016454 0.1303894 0.59518456 0.6650875
000010 c3 b7 3a be 94 15 e6 3e c1 8c 99 3d 0c 9a 0d 3f
       -0.18234162 0.44938338 0.0749755 0.5531318
000020 16 0a 6a 3e be 42 28 3f 7c 42 a7 be 60 02 29 3f
       0.2285541 0.6572684 -0.3266791 0.6601925
000030 12 f3 36 3f 32 36 83 be 26 7e cf 3e eb d2 49 3e
       0.71464646 -0.25627285 0.4052593 0.19709365
000040 82 4a 26 3f 59 b0 1f bc 37 33 00 be ef ee 34 3f
       0.6495744 -0.009746634 -0.12519537 0.70677084
000050 eb ba e3 3c 29 29 77 3e b5 25 98 3e aa c7 0a 3d
       0.02779909 0.24136795 0.29716268 0.03388182
000060 ed a5 bb be 72 32 02 3f d1 88 a0 3e 54 b9 61 be
       -0.3665003 0.50858223 0.31354383 -0.22043353
000070 5a 81 21 bd 94 7c a4 3d c5 15 3e 3f f6 e4 65 3e
       -0.03943 0.08031574 0.7425197 0.22450623
000080 88 17 88 bc b1 65 85 3e 14 1b 3f 3e 9c 43 99 bd
       -0.016612783 0.26054147 0.18662673 -0.074835986
000090 5e 24 66 be a2 a3 ac be b2 3b 53 3d e2 69 26 3f
       -0.2247481 -0.33718592 0.0515706 0.65005314
0000a0 ef 58 8f 3d 6e 11 51 be ad 9e 10 3f 4d 1f 83 be
       0.069993846 -0.20416805 0.5649212 -0.25609818
0000b0 f5 8b 37 3f d3 24 27 be b0 fe 31 3f c4 40 e5 be
       0.7169793 -0.16322641 0.6952925 -0.44775975
0000c0 5e 53 76 3e d7 62 63 3e 2c d9 bc be 36 a6 56 3f
       0.2405524 0.22205673 -0.3688444 0.8384737
0000d0 81 05 45 be ec ef 3c be 02 e3 49 3e 04 ad 11 be
       -0.19240381 -0.18450898 0.19715503 -0.14226156
0000e0 54 7c 98 bd fc b8 60 3e ee 27 a7 3e 7e be b3 3e
       -0.07445589 0.21945566 0.3264765 0.35106272
0000f0 22 42 6c be 99 28 92 be db 97 b5 bd 40 a0 89 3e
       -0.23072103 -0.285466 -0.08866855 0.26880074
000100 7e 8a a6 bd f8 80 98 be 7e 03 fc 3e 7e bc 2c be
       -0.08131884 -0.29785895 0.49221414 -0.16868779
000110 88 59 a2 be 3b 82 e9 3d 5b cb 6a bd 10 ea 18 3f
       -0.31708932 0.114017926 -0.05732284 0.5973215
000120 b2 dc 29 3f 94 d4 fb 3e 0c b9 84 be ff 26 e8 3e
       0.6635238 0.49185622 -0.2592243 0.45342252
000130 1d 88 46 be c3 8c 1f 3f ac a7 bd bc 53 d0 9f 3e
       -0.1938786 0.6232416 -0.023151241 0.31213626
000140 ee 4a 15 3f 5d f6 ed 3a 0d e0 c2 3e 5f 1e 3f 3f
       0.5831746 0.0018155087 0.38061562 0.7465572
000150 04 5e 00 3f 8d 3d 24 3f 6f a5 a9 3e 0b 3a b1 bc
       0.50143456 0.6415642 0.33134028 -0.021634122
000160 8f d0 aa be d4 62 27 3f 1c 2b b2 be 9d 0d 3c 3f
       -0.33362243 0.65385175 -0.34798515 0.7345827
000170 c2 2c 4a be f7 c6 66 3e 6a 4c 20 3f cb 4e 89 3e
       -0.19743636 0.22536837 0.626166 0.26817927
000180 d2 2a a1 be 45 80 22 3f 0e e8 b7 bd c5 32 87 3e
       -0.31477982 0.63476974 -0.08979808 0.26405922
000190 42 38 b7 be 45 28 02 be 8c 67 a7 be 76 92 68 bd
       -0.3578511 -0.12710674 -0.32696187 -0.0567803
0001a0 05 a6 28 3f ae a4 d3 be 06 98 25 be 44 76 f1 3d
       0.65878326 -0.41336578 -0.16171274 0.117901355
0001b0 b1 43 18 3e 93 cb bb be 56 fd ad 3e 6b 19 73 bd
       0.14869572 -0.36678752 0.33982342 -0.059350412
0001c0 9d ee 80 3e bb d9 58 3d e4 4a ff 3e d7 1b a4 3e
       0.25182047 0.05294202 0.49861825 0.3205249
0001d0 b9 10 14 3f 78 5e f3 3d d1 6f dc 3c 8f ab 2b be
       0.57838017 0.11883253 0.026908787 -0.16764663
0001e0 27 2e 21 3f a2 70 ed 3a 79 22 89 3e 27 fe a4 bd
       0.6296105 0.0018115232 0.26784113 -0.08056288
0001f0 05 66 43 be ff 63 0c 3f 56 7b 8d be 59 64 60 3e
       -0.19081886 0.5484008 -0.2763316 0.2191328
000200 e5 52 c1 be f0 68 41 bd da 8e 5a 3e 26 3e 08 3f
       -0.37758556 -0.047219217 0.21343556 0.5321983
000210 77 b5 92 3e 14 c1 c3 bc 33 bb f0 3e f3 92 48 3e
       0.28654072 -0.023895778 0.47017822 0.19587307
000220 bb 5b ac be 86 62 5c be 0a 82 18 3c 64 14 28 be
       -0.33663735 -0.21521959 0.0093083475 -0.16414028
000230 5a 66 78 3e 01 07 6b 3e fe 21 98 be f9 ff 4f 3f
       0.24257794 0.2295189 -0.29713434 0.8124996
000240 44 dc 5e be 15 5f b4 3e 45 51 3c 3e d2 b3 90 3e
       -0.21763712 0.35228792 0.18390377 0.28262192
000250 2a 70 9c 3d 99 b0 a1 bd 3e 46 92 3e d8 ee c0 3e
       0.07638581 -0.078950115 0.28569216 0.37682223
000260 5a fe 0b be 9d 49 56 be b2 12 47 3f 13 16 b8 3e
       -0.13671246 -0.20926519 0.777629 0.3595434
000270 d2 cf dd bc fe 82 b3 be 96 bd f5 3e c3 87 d1 3e
       -0.027076636 -0.35060877 0.47996205 0.4092389
000280 ef 67 97 be ff 13 2a bf f4 c4 21 3f 9c 5c 1e 3f
       -0.29571483 -0.6643676 0.6319115 0.6186006
000290 32 01 25 3f 34 65 1d bf 7b b1 2f be 2f ce 9f be
       0.6445495 -0.6148255 -0.17157547 -0.31211993
0002a0 12 e6 2c 3f cb 85 c9 3e cd b2 08 3d 68 d7 dd 3e
       0.6753856 0.39359888 0.033373643 0.43328404
0002b0 63 e5 9a 3c 52 53 91 be b1 71 0e 3e 9d 4e 0f 3e
       0.018908208 -0.2838388 0.13910557 0.13994832
0002c0 35 18 fb 3e 8e 3b 02 3d 6d 27 ac 3e b6 b6 39 3d
       0.49041906 0.031795077 0.3362383 0.045340262
0002d0 ce 39 8e bd ba 81 ab be ff f1 34 3f 83 36 3c 3f
       -0.06944619 -0.3349741 0.70681757 0.7352068
0002e0 bc f8 cb be 43 eb 1d 3f 8d af 2a 3e 41 bc 10 3f
       -0.39838207 0.61687106 0.1666853 0.5653725
0002f0 92 a3 39 3f ba 0f 16 3f d0 94 2f bd f7 2f 9b be
       0.72515213 0.58617747 -0.042866528 -0.30310032
000300 c9 60 14 3f 71 7c 99 3e ac d3 09 3f 01 7c 84 3e
       0.5796018 0.29977754 0.5383861 0.25875857
000310 f0 5c 36 3e f6 85 8c be 71 c7 6b be 65 7d b0 3d
       0.1780889 -0.27445954 -0.230253 0.08617667
000320 6e 5d bf be 18 77 bf be 3a 8d 03 3e b8 c7 2f 3f
       -0.3737597 -0.3739555 0.12846842 0.6866412
000330 78 cb 2e 3f d6 42 f0 3e da 4d ca be 9e ec 73 be
       0.6827922 0.46925992 -0.3951252 -0.23820731
000340 db 6b f8 3e 75 9f b1 3e 6f 7b 0a 3f 61 3f 2b 3f
       0.48519787 0.3469197 0.54094595 0.66893584
000350 7e 72 81 be c4 16 8b 3e 71 a3 15 bd 52 c6 3f be
       -0.25282663 0.27165806 -0.036532823 -0.18727997
000360 ca 17 20 3f a9 c7 81 be f1 ed af 3d 79 42 5b 3f
       0.625363 -0.2534764 0.085903056 0.85648304
000370 44 c7 c7 3e 58 06 19 3e b3 87 43 3e 27 26 06 3f
       0.39019215 0.14943826 0.19094734 0.52401966
000380 d7 9f 86 bd 8d 30 8f be b4 7f ad be cd 95 52 3f
       -0.06573456 -0.2796673 -0.33886492 0.8225983
000390 4e 65 c6 be c4 a6 e8 3e ff e0 f9 be 60 88 6f be
       -0.38749164 0.45439732 -0.4880447 -0.23391867
0003a0 6f 7a 85 be c0 71 89 be 1a 7f 0b 3f 86 2a 36 3d
       -0.26069972 -0.26844597 0.54490817 0.044474147
0003b0 0d 61 12 3f 95 e8 00 3f e1 e5 1d bf 83 27 77 3e
       0.5717934 0.5035489 -0.6167889 0.24136166
0003c0 e6 2b b2 3e fc 6e 7e 3e 62 b8 e6 3c b4 02 74 be
       0.34799117 0.24847025 0.028164092 -0.23829156
0003d0 1d 1a 9e 3e b7 b1 d7 3e e0 be 46 3f 65 13 a9 be
       0.30879298 0.42127773 0.77635 -0.3302261
0003e0 01 af 0a be 46 12 be 3e 90 7e d5 3e ff 50 29 be
       -0.13543321 0.37123317 0.41698122 -0.16534804
0003f0 5d 90 78 3e a1 0a 8c be c3 24 a6 3c fb 74 85 be
       0.2427382 -0.2735186 0.020281201 -0.26065812

l3.weight f4 [1, 256]
000000 76 18 d5 3f a4 31 28 40 37 ce 97 3f 95 81 a6 3f
       1.664809 2.6280298 1.1859807 1.3008295
000010 ba dc 5a c0 df 79 10 40 e7 41 13 c0 01 bd eb 3f
       -3.419722 2.2574384 -2.3008974 1.8417054
000020 1e 47 6c 40 86 f6 88 3f e5 09 5f c0 16 81 86 3f
       3.6918406 1.0700233 -3.484979 1.0508144
000030 ce 52 a1 3f 8f 0f 85 c0 ce ff c4 3f f5 1b b1 3f
       1.2603395 -4.1581492 1.5390565 1.3836657
000040 0b 9c b4 3f 92 53 5a 3c 4c d0 67 c0 99 a6 7b 3f
       1.411012 0.013325589 -3.6220884 0.9830108
000050 2a c0 c9 3f a4 19 92 40 1c 1a be 3f ce 65 77 3c
       1.5761769 4.56563 1.4851718 0.015099956
000060 6a c4 62 c0 0b 28 ee 3f d0 3f 12 40 ff 99 96 c0
       -3.5432382 1.860597 2.2851448 -4.7062984
000070 75 ff 8a c0 26 f7 58 c0 ee 89 83 3f ee 6b 59 40
       -4.3436837 -3.3900847 1.0276468 3.3972125
000080 7f c3 9d c0 ba 21 32 40 89 aa 56 40 b5 cd de 3c
       -4.9301143 2.7833085 3.3541586 0.027197698
000090 ce 2e 17 c0 11 fc 1e c0 0e af 26 c0 ff 50 a6 3f
       -2.3622317 -2.484135 -2.6044345 1.2993468
0000a0 e0 c3 53 40 58 52 00 c1 fc fb b7 3f 50 54 4f c0
       3.3088303 -8.020103 1.4373775 -3.239521
0000b0 51 03 8f 3f a1 15 1c c0 43 08 99 3f 2e ba ab c0
       1.1172887 -2.4388201 1.1955646 -5.366477
0000c0 c6 02 7e 40 24 a9 02 40 e4 c9 ff bf b3 f2 78 3f
       3.9689193 2.0415735 -1.9983487 0.9724533
0000d0 91 a3 86 c0 ae 10 10 c0 c2 09 d7 c0 b7 74 7d c0
       -4.2074666 -2.251018 -6.719941 -3.9602487
0000e0 41 05 99 c0 42 28 1e c0 09 c1 57 40 b7 dd db 3f
       -4.7818913 -2.4712071 3.371157 1.7177037
0000f0 dc df 16 c0 21 74 15 c0 2d 56 26 c0 28 19 22 40
       -2.3574133 -2.335213 -2.5990098 2.5327854
000100 46 a1 b3 c0 b3 77 1f c0 69 f4 bb 3f 40 44 cf c0
       -5.6134367 -2.4916809 1.4683963 -6.4770813
000110 bd fb 15 c0 9c 1a 44 c0 9b 25 06 c0 d8 31 8f 3f
       -2.34349 -3.064124 -2.0960453 1.1187086
000120 0b f6 94 3f b2 97 c5 3f 58 8c 38 c0 67 cb 14 40
       1.1637586 1.5436919 -2.883566 2.3249147
000130 e3 57 8a c0 fc 17 ba 3f 8a 92 ca c0 2b 45 0f 40
       -4.3232284 1.453857 -6.330388 2.2385967
000140 51 29 d9 3f 79 6a 76 c0 95 8d 37 40 84 ce 71 3f
       1.6965734 -3.8502486 2.8680165 0.9445574
000150 94 0c 00 40 76 b3 9d 3f 1d 34 11 c1 b8 d6 82 c0
       2.0007677 1.2320392 -9.075223 -4.088711
000160 1e 9e 82 c0 f4 a2 87 3f e9 05 57 c0 a1 9e 7f 3f
       -4.0818014 1.0596604 -3.3597357 0.99851424
000170 54 69 66 c0 dc 75 de 3f 60 be ec 3f 92 e6 94 3f
       -3.6001787 1.7379718 1.8495598 1.1632864
000180 14 d1 77 c0 f5 89 ea 3f fd 7a 1c c0 2d f1 0d 40
       -3.872136 1.8323351 -2.4450066 2.2178452
000190 b4 bf 80 c0 73 f0 a6 c0 08 bc 7f c0 06 a8 9d c0
       -4.0234013 -5.2168517 -3.9958515 -4.9267607
0001a0 a7 73 9a 3f a2 db 90 c0 9f cb 37 c0 b1 5f 2f 40
       1.2066544 -4.5268106 -2.871803 2.7402155
0001b0 b9 f9 0f 40 55 7e d6 c0 5e 3a e3 3f a9 01 07 c0
       2.2496169 -6.7029214 1.7752187 -2.1094763
0001c0 12 38 09 40 09 43 81 c0 f5 8e 05 40 34 a9 d8 3f
       2.1440473 -4.039433 2.0868504 1.6926637
0001d0 27 fc 84 3f 4b a8 44 40 fc 9c c1 c0 0d 75 1a c0
       1.0389451 3.0727718 -6.050413 -2.4133942
0001e0 77 0c bb 3f 55 0a b3 c0 43 71 f2 3f 6f 94 7a c0
       1.4613179 -5.595011 1.8940815 -3.9153097
0001f0 77 cb 1c c0 42 79 ed 3f 76 5d 84 c0 3a 6a 58 40
       -2.4499185 1.855263 -4.136409 3.3814836
000200 5f 93 0d c0 1f b7 cb c0 9e 0d 4b 40 17 09 d5 3f
       -2.2121198 -6.3661036 3.1727061 1.6643399
000210 40 77 0c 40 e0 a5 c1 c0 9e 5e e7 3f f1 28 21 40
       2.1947784 -6.0514984 1.807575 2.5181239
000220 a7 1b 79 c0 76 92 29 c0 85 33 d1 c0 b0 72 ac c0
       -3.8923128 -2.6495643 -6.537539 -5.389
000230 97 82 c9 3f 7e 8a 61 40 a4 0e 4c c0 cd 7f 83 3f
       1.5742978 3.524078 -3.1883936 1.0273377
000240 6e 6f 27 c0 7c e9 e9 3f b7 78 7f 40 e0 7e 08 40
       -2.6161761 1.8274379 3.9917428 2.1327438
000250 9e 8c 42 40 20 b3 87 c0 d9 89 25 40 3a f2 d8 3f
       3.0398326 -4.240616 2.5865386 1.6948922
000260 d1 2e 70 c0 d8 5a 66 c0 74 da 6f 3f d1 15 4e 40
       -3.7528574 -3.5992947 0.9369271 3.2200816
000270 41 57 0a c0 ca 2a 18 c0 4f ca bb c0 a9 9c 23 40
       -2.1615756 -2.3776116 -5.868446 2.5564368
000280 d4 29 94 c0 e1 ce 80 c0 83 ad c2 3f f8 a7 83 3f
       -4.630106 -4.025254 1.5209202 1.0285635
000290 6f d0 9b 3f 8c 80 aa c0 66 89 75 c0 7a b4 23 c0
       1.2172984 -5.3281918 -3.8365111 -2.5578904
0002a0 e3 93 ab 3f a9 65 0d 40 d3 db 6b c0 49 0b 00 40
       1.3404506 2.2093298 -3.685292 2.0006888
0002b0 19 d1 db c0 bf cb 2b c0 fb 14 7c c0 57 de 5e 40
       -6.8692746 -2.6843107 -3.9387805 3.4823205
0002c0 eb 2c 7a 40 55 48 44 c0 12 8f 80 40 e9 71 80 c0
       3.9089916 -3.0669148 4.0174646 -4.013905
0002d0 a1 db 9a c0 04 56 25 c0 1e bc b1 3f 12 9d 7b 3f
       -4.83931 -2.583375 1.3885534 0.98286545
0002e0 30 2f 9f c0 29 d0 a2 3f e2 32 fa 3f 84 b5 b4 3f
       -4.97451 1.2719775 1.9546778 1.4117894
0002f0 ea 16 83 3f d3 91 a5 3f fc 92 c0 c0 a0 5f 28 c0
       1.0241368 1.2935127 -6.0179424 -2.6308365
000300 e5 e6 a9 3f dc 5d 15 40 04 a4 20 40 05 7c 28 40
       1.3273588 2.3338537 2.5100107 2.6325696
000310 b4 b7 18 40 7c 03 2a c0 c2 6b 21 c0 7e 7c 95 c0
       2.3862123 -2.6564627 -2.522202 -4.671447
000320 24 a9 18 c0 91 64 70 c0 37 3d a6 3f 1d 8f 90 3f
       -2.3853235 -3.756138 1.2987431 1.1293675
000330 e0 ed 9f 3f 63 a0 c9 3f bc 66 8c c0 ce 66 36 c0
       1.2494469 1.5752071 -4.387541 -2.8500247
000340 bb 97 2e 40 f4 99 f5 3f 6f 3e e2 3f c3 59 90 3f
       2.728011 1.9187608 1.7675303 1.1277393
000350 34 e2 39 c0 94 1c c5 c0 55 9f 49 c0 7d 1b 51 c0
       -2.9044313 -6.1597385 -3.1503499 -3.2673028
000360 5a f6 cd 3f b6 70 0e c0 b9 8c d2 c0 e2 d4 80 3f
       1.6090806 -2.2256293 -6.579678 1.0064967
000370 a5 85 01 40 a3 4c 19 40 a1 e8 24 40 c8 a9 29 40
       2.023782 2.3953025 2.5766985 2.6509876
000380 f8 49 76 c0 24 2e 50 c0 22 e7 54 c0 fc 6a 80 3f
       -3.8482647 -3.2528162 -3.3266072 1.0032649
000390 a6 10 72 c0 b2 ca e0 3f dd fd a0 c0 9a 61 96 c0
       -3.7822661 1.7561858 -5.030989 -4.6994143
0003a0 48 e1 36 c0 24 cc 1c c0 df f2 9d 3f a6 49 52 40
       -2.8575 -2.4499598 1.2339743 3.2857451
0003b0 26 18 94 3f 36 a7 95 3f 75 17 a1 c0 bb 19 35 40
       1.156987 1.1691654 -5.0341134 2.8296955
0003c0 10 5a 2a 40 fa 96 cc c0 3e 6e 23 40 60 32 65 c0
       2.661747 -6.3934298 2.5536036 -3.5811996
0003d0 b0 b9 02 40 a3 ab dd 3f e8 2f 76 3f 67 77 f9 bf
       2.0425835 1.7318004 0.9616685 -1.9489564
0003e0 1c 1d 95 c0 51 f7 77 40 1f cd e9 3f 16 81 8d c0
       -4.6598034 3.87447 1.8265723 -4.4220076
0003f0 5d e0 13 40 56 b1 f0 bf ca cd 8a c0 20 45 a8 c0
       2.310569 -1.8804119 -4.3376207 -5.258438

l4.weight f4 [256, 32]
000000 0c 8a c8 be 18 35 34 3e fe 04 ab 3e bb 90 10 be
       -0.3916782 0.17598379 0.33402246 -0.1411771
000010 5a bd d2 3d 44 05 b8 3d cf 35 52 bd 0e 77 6f 3e
       0.10290022 0.08985379 -0.051320847 0.2338526
000020 69 e8 09 bd af 3f b9 be d6 55 24 3e 34 10 7a 3f
       -0.03366891 -0.361814 0.16048369 0.97680974
000030 2d 79 4b be 2c 37 15 3c 94 1e 28 3e 4c 1b fc 3e
       -0.19870444 0.009107392 0.16417915 0.49239576
000040 e9 2a e4 3c be 92 c0 3e 1d 68 93 bd aa 3d 1a 3d
       0.027852492 0.37611955 -0.071975924 0.037656464
000050 08 25 7f 3e 5d fd 4a 3e 90 96 31 3e d7 2b c4 3d
       0.2491647 0.19823213 0.17342591 0.09578674
000060 29 fd 87 3e 30 3a b3 bc e4 b7 87 3d 4d 59 27 3f
       0.26560333 -0.021878332 0.06626871 0.6537064
000070 03 e0 1f be 76 46 84 3e 13 cc 31 be d1 77 a2 be
       -0.15612797 0.25835007 -0.17363004 -0.31732038
000080 f0 e1 0f 3f 92 70 09 3d 29 1a d1 3e 87 60 dc bc
       0.5620413 0.03355462 0.4084027 -0.026901497
000090 04 0a 9f 3d 02 e0 50 be 57 23 81 3d 14 1b 74 bf
       0.07765582 -0.20397952 0.06305569 -0.9535382
0000a0 d4 c2 8d 3e e1 69 25 3e 1d 21 c8 bd 65 ff b6 bc
       0.27687705 0.16153671 -0.09771941 -0.022338578
0000b0 a6 8e 61 be 13 9a f2 bd 7e 6c 12 bf 2e 52 78 bd
       -0.22027072 -0.118457936 -0.57196796 -0.060625248
0000c0 fe 0d c5 bf 89 d5 86 be e3 93 a7 3e f7 b7 51 3e
       -1.5394895 -0.2633479 0.32730016 0.20480333
0000d0 4c ac 48 3c b2 38 26 be ff 32 f2 be 78 30 3a be
       0.01224811 -0.16232565 -0.47304532 -0.18182552
0000e0 55 f1 84 be c0 eb db be 10 7e 6f bc 12 29 f3 bc
       -0.25965372 -0.429533 -0.014617458 -0.02968267
0000f0 0d fd b8 bd 14 33 45 3e d0 a3 76 be 3e 12 e8 3d
       -0.090326406 0.19257766 -0.24085927 0.113316044
000100 92 69 d5 3e 27 ec 82 bc a7 6f c6 3e ed 18 c9 bd
       0.41682106 -0.015981747 0.3875706 -0.09819207
000110 d7 53 04 3e 7e b8 1e 3b a9 a7 87 3d 21 71 b1 3e
       0.12922607 0.0024218853 0.066237755 0.34656623
000120 af 70 b1 3d bb c2 69 3c 9f b0 53 bf 0c 0c 4a bf
       0.08664071 0.014267619 -0.8269138 -0.7892463
000130 91 c5 e4 be 74 3b 56 be 9c 76 07 3e 88 9a 8c bd
       -0.4468198 -0.20921117 0.1322884 -0.06865412
000140 2f 56 62 be 5b d5 a7 be df e2 c4 be 5f 5b ae bd
       -0.22103189 -0.32779965 -0.3845434 -0.085135214
000150 43 04 fb 3d cb 8a 8f 3d c0 57 b3 be 7a 26 d4 3c
       0.12256672 0.070088945 -0.35027885 0.025897253
000160 cd b8 1f 3e 6e d9 e8 3d 1f 65 d8 3d 4c 2c 90 be
       0.1559784 0.113695964 0.10566162 -0.28158796
000170 e9 62 36 bd ce 49 1e be a7 5f 96 be ac 55 3a be
       -0.04452792 -0.15457842 -0.29369852 -0.18196744
000180 55 53 5a bf 14 2b 37 3d f0 f2 85 3e ca c2 8b bf
       -0.85283405 0.044718817 0.2616191 -1.091882
000190 90 21 32 3e ed 03 0e bf ae 00 32 3e 88 ef 55 3f
       0.17395616 -0.5547474 0.17383072 0.8356862
0001a0 3a 3b 22 3f 10 34 30 3f f5 ac 1b 3f 36 e0 ee 3e
       0.6337162 0.6882944 0.60810786 0.46655434
0001b0 9f 35 8c be 28 f6 f3 3e a3 55 1a 3f a7 d2 70 3e
       -0.2738466 0.4764874 0.6028692 0.23517857
0001c0 37 1a 65 3e d8 fd e3 3e 24 1e 4b bf 9d 5d 64 3d
       0.22373281 0.44529605 -0.79342866 0.05575334
0001d0 20 e9 e6 3e 33 3a 20 3e e2 ae 4b bd 48 0f 83 3d
       0.45099735 0.15647201 -0.049727328 0.06399399
0001e0 38 eb 3c be ce 08 d8 3d ab 1b 5d 3e 2a 8b 90 be
       -0.18449104 0.10548554 0.21592586 -0.28231174
0001f0 ce 51 04 3f 60 14 83 3e 15 35 4f 3e 53 c9 0f be
       0.51687324 0.25601482 0.20235093 -0.14041643
000200 0f 6d 81 bf 95 65 56 3d eb fb 1d bf 9a 6a 5b 3f
       -1.0111407 0.05234297 -0.6171252 0.85709536
000210 58 49 9f bd 13 44 d4 3e f3 87 01 bd 40 1a 99 3f
       -0.07777661 0.41458187 -0.031623792 1.1961136
000220 ae 99 5c 3f b8 93 09 3f ed 38 27 3e 68 5b dc 3d
       0.86171997 0.53741026 0.16330309 0.10759622
000230 42 17 25 3e 7f 2b 77 be a8 3a 2f 3f ac da 9f be
       0.16122153 -0.24137686 0.6844888 -0.3122152
000240 bc 27 5c 3f c9 2f e8 bd cd 63 8f 3f d1 14 2a 3e
       0.8599813 -0.11337239 1.1202332 0.16609503
000250 53 8a 90 be 8b 87 d0 3d 5b 5c 60 3f c0 e9 0b be
       -0.28230533 0.10182103 0.87640923 -0.13663387
000260 a1 52 b6 be 5d 2a f3 bd e7 23 bd 3e 13 67 50 bc
       -0.35609916 -0.118733145 0.36941454 -0.012719887
000270 93 40 3f bd 7f 91 0d 3c 4d f1 2d 3d c9 ba 84 be
       -0.046692442 0.008640646 0.04246645 -0.25923756
000280 92 09 dd bf 30 a1 7a bd 6f 1b ab 3e 9b c9 d5 3e
       -1.7268546 -0.061188877 0.33419368 0.41755375
000290 73 74 87 bd 09 c2 90 bf b4 24 1b 3e 0e 16 6b 3f
       -0.06614008 -1.1309215 0.1515072 0.9183053
0002a0 e2 37 ad be 31 b7 18 be 3a 96 d8 bc 0b a9 a2 bf
       -0.33831698 -0.14913632 -0.026438821 -1.2707838
0002b0 f1 59 cc 3d a1 cf f8 be a7 00 a9 3f b2 78 c3 be
       0.099780925 -0.48595908 1.3203324 -0.3817802
0002c0 0d b9 20 bf 9a 19 86 be a7 0e 47 3e 46 f1 28 be
       -0.62782365 -0.26191407 0.19439183 -0.16498289
0002d0 d8 0f 0b 3f 11 c9 7e 3e de f1 3b 3d 31 1d 76 3f
       0.5432105 0.24881388 0.04588496 0.9613829
0002e0 f3 14 1f 3f 2b 44 34 3d e3 b9 6f be 9d cc 2f bf
       0.6214134 0.044010323 -0.23410754 -0.6867159
0002f0 44 aa cb 3d a1 b8 35 be 87 ea 00 3f 45 b9 de 3d
       0.09944585 -0.17746212 0.5035786 0.10875181
000300 ed 3b 16 bc 6b f2 d8 3d 2e b1 78 3e 19 44 21 3e
       -0.009169561 0.105931126 0.24286339 0.15748633
000310 c5 27 0b be ca 19 4b 3f 5c be 16 3e d4 88 1b be
       -0.1358939 0.79336226 0.14721054 -0.15188915
000320 60 f1 78 3e af 74 26 be b0 b9 a1 bd e1 e8 1d bc
       0.24310827 -0.16255449 -0.07896745 -0.009638042
000330 e8 85 a2 3e e1 8d dc bd b8 85 8f be 98 e5 02 bf
       0.31742787 -0.10769249 -0.28031707 -0.5113158
000340 17 9a 57 be 67 fb 15 3d ef 38 e6 3e b2 c6 14 3e
       -0.21054874 0.03661671 0.44965312 0.14528921
000350 a6 32 19 3e 45 49 65 be b9 72 85 bf f5 4f a4 3d
       0.14960727 -0.22391231 -1.0425636 0.08023063
000360 3e 33 67 3d 68 4d 26 3f 04 7b a7 be 01 b8 c6 bd
       0.056445353 0.6496186 -0.3271104 -0.09703065
000370 1b 14 2c 3e 10 05 c3 be fc 6f c9 3e ec d4 1b be
       0.16804545 -0.380898 0.3934325 -0.15217942
000380 5a 5f b9 be df bf f8 bd d2 71 18 3f 69 c7 05 c0
       -0.3620556 -0.121459715 0.59548676 -2.090296
000390 e6 71 c4 3d 70 7b bf be 76 24 20 be 61 1a b6 be
       0.09592037 -0.37398863 -0.15638909 -0.35567
0003a0 43 1e 62 3f 10 3b 8b 3f 79 4a ac 3f eb 10 44 3f
       0.88327426 1.08774 1.3460227 0.76588315
0003b0 53 f2 23 3f bf 5e 25 bd bf 5a 73 3e 14 7b 59 3e
       0.6404163 -0.04037356 0.23765086 0.21238357
0003c0 fe 26 31 c0 b6 4d 0a be 7f c9 70 3f 35 8d 9d 3e
       -2.768005 -0.13506207 0.9405746 0.30771795
0003d0 59 b1 ca bc 00 75 34 3e 1d a9 30 bf 88 0b 08 bf
       -0.02474277 0.17622757 -0.69008046 -0.53142595
0003e0 30 59 35 bf b1 c5 14 be 82 a4 93 be 98 38 af 3e
       -0.70839214 -0.14528538 -0.28836447 0.34222865
0003f0 73 e5 c1 be ca 77 dc bd 1c b3 d8 be 3e 6e f4 3e
       -0.37870368 -0.107650355 -0.4232415 0.47740358

l4.bias f4 [256]
000000 74 0a c0 3e f3 0f 7c 3e 8c e7 d2 3e 9d b7 21 3e
       0.37507975 0.24615459 0.4119228 0.15792699
000010 e1 54 0d bf 1b 9d 04 3f 90 cc 8e 3e 50 6e e0 3e
       -0.5520764 0.51802224 0.27890444 0.43834162
000020 54 33 e8 be ff 13 94 3e 6f 0e 6e 3e 02 66 08 3f
       -0.4535166 0.28921506 0.23247693 0.5328065
000030 77 ba 95 3e 6d 30 7c be d8 5f f9 bd 7c ce 9c be
       0.29243824 -0.24627848 -0.12176484 -0.30626285
000040 51 8a 6c be ec bd e7 3e 53 94 89 be c2 e0 00 3e
       -0.23099639 0.45262086 -0.26870975 0.12585738
000050 3d 95 88 3e bc 15 a0 3e db 26 01 3f 12 3f ad be
       0.2667636 0.31266582 0.50449914 -0.3383718
000060 cc d9 05 3f 29 d4 99 3e 27 03 15 3e ab ed 94 bd
       0.52285457 0.30044678 0.14551984 -0.07271894
000070 2f 62 60 be 15 c8 f0 be b8 34 30 bf c8 11 d5 3e
       -0.21912454 -0.4702765 -0.6883044 0.4161513
000080 f3 f2 93 3e 32 a8 d3 3e a4 f9 06 3d de db a9 3e
       0.28896293 0.4133926 0.03295292 0.33175558
000090 7e ef 2b 3f ea 13 a5 3d 35 a8 ec be a4 e6 e9 be
       0.6716231 0.08060439 -0.46222082 -0.45683777
0000a0 ba bd ad be ba ce fb 3e 20 c8 b4 3d 57 35 f3 3e
       -0.33933812 0.49181157 0.08827233 0.47501633
0000b0 f5 31 10 3f 48 58 4a 3d 2a 45 89 3d 0f 2a 86 3d
       0.5632623 0.049400598 0.06702645 0.06550991
0000c0 dc 53 3c 3e b7 15 88 be ff f7 19 be 85 2c 8a 3e
       0.18391365 -0.26579067 -0.15036009 0.2698709
0000d0 ed 2e 6c 3e 54 fe 0a bf 7a b8 bd 3e 44 0b 9f bc
       0.23064776 -0.54294324 0.37054807 -0.019414552
0000e0 6b 8f 08 3c 64 76 c9 3e 20 a2 2d bd 02 b5 be be
       0.008334975 0.39348137 -0.042390943 -0.37247473
0000f0 4f df 18 3f 20 f7 36 be 91 81 95 3e 74 6f 1b 3e
       0.5971574 -0.17867708 0.29200414 0.15179235
000100 b7 45 8c bd 25 69 1e bd 63 4a 0b 3f a2 48 61 3e
       -0.068492346 -0.038674492 0.5441038 0.22000363
000110 18 19 d3 bd d2 ef b4 bd ab ff 8c 3e 30 56 d5 be
       -0.10307521 -0.088348046 0.2753881 -0.41667318
000120 ce 4d af be 68 5b 3d 3e 70 a5 07 3f 91 34 6c 3e
       -0.34239048 0.184919 0.5298681 0.23066927
000130 ec 50 6d 3e 1c 44 ce 3e 68 12 cd 3e ec cc 04 3f
       0.231754 0.40286338 0.40053105 0.51875186
000140 7a 81 ab 3d c4 5e 30 3d 75 da ef 3d 77 0f de 3d
       0.08374305 0.043059126 0.11711589 0.108427934
000150 62 ac 9a be e7 ba ce 3a 5b 02 81 3e d9 ab 95 3e
       -0.30209643 0.0015772254 0.2519711 0.29232672
000160 d3 94 d3 be e3 0a 59 be 0c b1 fd 3e 76 a3 bb 3e
       -0.4132448 -0.21195559 0.4954914 0.36648148
000170 df 2e c1 bd fd 9f bf 3e 18 2e a4 3e 76 cd 3d be
       -0.09432768 0.3742675 0.32066417 -0.18535408
000180 0e c6 92 3e fc 76 38 bf 3b b4 b2 be c2 00 01 3f
       0.2866673 -0.72056556 -0.3490313 0.5039178
000190 9c e3 ac be 5f a9 c5 be 01 90 60 3e 73 97 81 3e
       -0.33767402 -0.38605782 0.21929933 0.2531086
0001a0 f0 d1 40 3d 85 2f 78 3e a5 ca 06 3f ff db ce 3e
       0.047075212 0.24236877 0.5265296 0.4040222
0001b0 67 a9 69 be 81 a0 96 3e 62 e0 c9 3e 76 7e d8 3e
       -0.22818528 0.2941933 0.39429003 0.42283982
0001c0 9a 34 f1 3e 77 23 b6 3e 97 7a a1 3e ac 4e 21 3e
       0.47110444 0.35573933 0.3153884 0.15752667
0001d0 5e 69 38 3e 43 73 49 3e 2f 35 ed 3e e3 2c bd be
       0.18008944 0.19672875 0.46329638 -0.36948308
0001e0 2e 42 4e be 22 02 6c bf c1 a5 8e be 03 67 9f be
       -0.20142433 -0.92190754 -0.27860835 -0.3113328
0001f0 bd e1 f6 3e 54 4d 3c be 49 23 fd 3d 98 fb c3 3e
       0.482191 -0.18388873 0.12360246 0.38277888
000200 78 08 85 bc 6e 40 5c be ae 1b ee 3d 05 ae 95 3f
       -0.01623939 -0.21508953 0.11626373 1.1693732
000210 b1 aa a5 3e da 5b e5 3e 1a 9a f2 bd c6 d1 19 3f
       0.3235679 0.4479664 -0.11845799 0.60085714
000220 aa a2 16 bc fe a5 05 3e bc 7b e9 3e 71 e9 6b be
       -0.009194056 0.13051602 0.45602214 -0.2303827
000230 35 33 1e 3f 17 51 e1 3e dc 67 e9 bd ec 36 24 3f
       0.61796886 0.4400718 -0.11396763 0.64146304
000240 86 39 15 bf 34 42 24 be d8 f5 05 3f 52 52 b9 be
       -0.582909 -0.1604088 0.5232825 -0.36195618
000250 36 d5 8e 3e ad cc 0d 3e 15 32 e2 be 7e 6b f6 3e
       0.27897042 0.13847609 -0.44178835 0.48128885
000260 97 f9 f2 be 27 7f f1 3e 9f ed 7e 3e 91 62 9e 3e
       -0.47456047 0.47167322 0.24895333 0.30934575
000270 ad 52 c7 3e 83 34 91 3e 8f 6c 94 3e 08 f1 39 3e
       0.38930264 0.28360376 0.28989074 0.18158352
000280 85 3f ae 3e c1 75 0c 3f 06 e4 03 be a1 c4 d0 bd
       0.34032837 0.5486718 -0.12879953 -0.10193754
000290 66 8c c6 be d5 91 c6 3e 03 da 53 be 9e 71 f4 3e
       -0.3877899 0.38783136 -0.20688634 0.47742933
0002a0 cf 01 8d be 33 a7 27 3e 65 55 b1 bb a1 7a 4d 3e
       -0.27540442 0.16372375 -0.005411791 0.2006631
0002b0 dc 98 70 3e 4b 5c 77 3c f9 03 c6 be 14 dd cd 3d
       0.23495811 0.015097688 -0.38674906 0.10051933
0002c0 60 70 f2 3e 6d 5f 11 bd 41 1c 1f bf 0b 42 fa 3e
       0.4735136 -0.035491396 -0.6215249 0.48878512
0002d0 42 d0 bd 3e 4d af dc 3e 85 e4 b6 3e b7 73 0a 3f
       0.3707295 0.43102494 0.35721222 0.54082817
0002e0 8a ca 13 3e fe 56 ef 3e 19 2a 0e 3e e6 41 ac be
       0.14432731 0.46746057 0.13883246 -0.33644027
0002f0 76 66 fa be 10 98 9a 3e a3 9d 13 3f 34 76 10 be
       -0.48906296 0.3019414 0.5766241 -0.14107591
000300 5e 02 12 3f cd 15 e0 be 21 c5 55 3e c9 35 a4 3e
       0.5703486 -0.43766633 0.2087598 0.32072285
000310 f2 d7 78 3b b6 d0 6c 3e 3b 43 5e 3e b4 65 cb 3e
       0.003797051 0.23126492 0.21705334 0.3972603
000320 2a ed a0 bc 34 c3 18 3f 81 91 e2 3d 28 4a cc bc
       -0.019644339 0.59672856 0.11062909 -0.024937704
000330 39 48 a1 3e 2f 66 7c be 23 34 a5 be ad 17 28 3e
       0.31500414 -0.24648355 -0.3226634 0.16415282
000340 2a 67 32 bf 6a d3 d0 bc 5f 02 3c bc ed 5f 27 3e
       -0.69688666 -0.025491435 -0.011475175 0.16345187
000350 0b d0 08 3f 79 81 c4 3e 1e 5f ac 3e d7 bb 1b be
       0.5344245 0.3838003 0.3366632 -0.15208374
000360 5f d8 34 bd 75 68 2b 3f a7 c5 c9 be 42 98 e9 3e
       -0.04415166 0.66956264 -0.3940861 0.45623976
000370 1b 23 98 be 93 17 d2 3c c6 2f ff 3e 79 67 fc 3e
       -0.29714283 0.025646007 0.49841136 0.49297693
000380 84 ee 03 bd f9 71 35 3e ba 51 c0 3e 86 d8 61 3e
       -0.032209888 0.17719258 0.37562352 0.22055253
000390 74 37 0d 3f d7 32 ce 3e 16 89 f2 3e 2e 64 a5 bd
       0.5516274 0.40273163 0.47370213 -0.080757484
0003a0 63 2f 89 3e 4e 8e 7a 3e 51 2a be be 89 01 86 3e
       0.26793966 0.24468347 -0.3714166 0.26173046
0003b0 50 2e 7b 3e 79 50 e9 3d f9 51 81 3e af 07 d0 3e
       0.24529386 0.11392302 0.25257853 0.40630862
0003c0 a3 9a fc 3d a8 50 a3 bd 63 15 d1 3e 86 96 2a 3f
       0.12334182 -0.07974368 0.4083663 0.6663593
0003d0 dc 74 8f 3e 96 f0 9b 3e 4f d3 bb 3c 18 b8 84 3d
       0.28018844 0.3045699 0.022927908 0.064804256
0003e0 8f 9a b6 3d e2 0d 39 be 78 58 d5 3e 7d f6 b7 bb
       0.089161985 -0.18071702 0.4166906 -0.0056141005
0003f0 13 ce d7 be 48 dd 10 be 2c 33 a9 3e 64 c3 83 bd
       -0.4214941 -0.14146912 0.33046854 -0.06433752
