p2/TD3_BC_HalfCheetahBulletEnv-v0_9101_0.5.pth (torch, 898823 bytes, 16 tensors)

l1.weight f4 [256, 32]
000000 95 10 43 bf 91 8c 23 bd e7 d6 58 be e5 f0 86 be
       -0.7619718 -0.039928976 -0.21175729 -0.26355663
000010 95 65 25 be 10 c6 a6 be fc 6c 75 be 20 29 ba 3e
       -0.16152032 -0.32572985 -0.23967355 0.363595
000020 82 d3 34 3f 39 7a ed 3d a7 47 f0 3e 69 53 cd 3d
       0.70635235 0.11595578 0.46929666 0.10025675
000030 87 73 d3 3d be 8f dc bd 42 e9 a0 be 4e bf 9a be
       0.103247695 -0.10769604 -0.31427962 -0.3022408
000040 8b e9 38 bf 8d 82 e8 be 3a 5b 89 3e c6 e0 52 bd
       -0.7223136 -0.45412102 0.26827413 -0.051483892
000050 b3 30 cc bc 3c 86 33 3d fa 37 15 be 10 c2 b3 3c
       -0.024925565 0.043829188 -0.14572135 0.021943122
000060 35 60 8e 3c a9 a9 60 be 53 58 f9 bc 8e 40 c8 3d
       0.01737986 -0.2193972 -0.030437624 0.09777938
000070 ca 86 bc bd b7 48 b7 3c 9c 47 10 be 73 33 42 3e
       -0.092053965 0.02237354 -0.14089817 0.18964939
000080 30 75 18 be 62 7e a2 3a bf 39 67 be 5c 1b e1 3e
       -0.14888453 0.0012397284 -0.22580622 0.43966186
000090 fe 75 a5 bb 56 1a b9 3e ae 50 dd be 5d 7f 14 3e
       -0.005049466 0.36152905 -0.43225616 0.1450171
0000a0 f7 12 66 3e 44 4a e7 3e 6a 48 2e be 04 73 a7 3e
       0.22468172 0.45173848 -0.17019811 0.32704937
0000b0 07 0e 03 3f c1 bf 09 bf 50 56 43 be dc 7c 1a 3e
       0.5119328 -0.5380822 -0.19075894 0.15086693
0000c0 3d ac 7a 3d 3a 0a 55 b9 4b c5 1d 3e 0c 0b 79 3d
       0.061199415 -0.00020317073 0.15407293 0.06080155
0000d0 2b f4 a3 3c 72 1d 33 3e 41 95 0b 3e 9c 2b b6 bd
       0.02001389 0.17491701 0.13631155 -0.088950366
0000e0 b8 2c 82 bd f7 a1 ba 3e 84 b5 20 bd 7d 7c 99 3c
       -0.06356186 0.36451694 -0.039235607 0.018736118
0000f0 75 2c a8 bd b9 57 ad 3b bd ab 6e 3c f7 84 19 3d
       -0.082116045 0.0052899984 0.014567313 0.03748032
000100 94 5e e8 bd ee 27 82 3c 53 13 4c 3e f8 63 96 3e
       -0.11346164 0.01588818 0.19929247 0.29373145
000110 61 88 2e be b4 4a 7b 3c e3 40 8e 3e 11 a2 3b be
       -0.17044212 0.015337635 0.2778388 -0.18323542
000120 f5 18 a9 3c 0a 3c cc be 54 0b 1c 3b 30 56 55 be
       0.020641783 -0.39889556 0.0023810463 -0.20833659
000130 17 cd dd be bc dd 3d be 92 88 a5 3e df 9a 45 bd
       -0.43320534 -0.18541616 0.32330757 -0.0482434
000140 e7 1d e8 be 00 e2 d1 bd 0a 06 eb 3c 4a 01 b0 bd
       -0.45335314 -0.10248184 0.028689403 -0.08593996
000150 8f 5b e1 bd ea 37 bd 3b d4 a5 c4 be 8e fa 0e 3e
       -0.110037915 0.0057744877 -0.38407767 0.13962767
000160 5d 1f 1d bd da 1b 2a be f0 2b 64 bb 76 e0 91 bb
       -0.03835999 -0.16612187 -0.0034816228 -0.0044518067
000170 a7 38 1e bd 67 a1 88 3b 2d 92 e2 3b a1 f5 60 3b
       -0.038628247 0.0041696313 0.006914398 0.0034326094
000180 a3 09 b7 be 3c d1 0a 3e db 0f 25 bd 47 fa 68 3f
       -0.3574954 0.13556379 -0.040298324 0.9100689
000190 ec 32 db bd 6c 7a 98 3e 89 9c a4 be 5c 04 85 3e
       -0.10703072 0.297809 -0.32150677 0.25979888
0001a0 ed 4e c4 3e 5a 22 19 bf 2c 37 2f bc f4 89 6c be
       0.38341466 -0.5981804 -0.010694306 -0.230995
0001b0 2b b7 bc 3e 43 76 53 3d 39 04 7e bd ef 71 b5 3e
       0.36858496 0.051626455 -0.062015746 0.35438487
0001c0 69 2e 9c 3e d1 e3 5d 3e 0e af 9f 3e 58 b9 b2 bc
       0.30504158 0.21668936 0.31188244 -0.021816894
0001d0 58 11 30 bd 82 7f 03 bf bb 31 7b 3e 5b 83 67 bd
       -0.04298529 -0.51366436 0.2453069 -0.056521755
0001e0 9c 4b f9 3d 09 06 a6 3e d0 d9 84 bc 9a a8 5d 3b
       0.121726245 0.3242648 -0.016217142 0.0033822418
0001f0 45 2d bd 3c da 78 d4 bc 48 e0 15 3e e2 0e 7c bc
       0.023092875 -0.025936533 0.14636338 -0.015384408
000200 46 55 43 bd 82 a8 10 bc 9e 34 95 be 53 2b 0f 3f
       -0.047688745 -0.008829238 -0.29141706 0.5592548
000210 4e 5f 31 bc 13 28 50 3f 16 59 95 bd 6c 7e 13 3e
       -0.010825945 0.8131115 -0.072923824 0.14403695
000220 83 52 60 3e 42 7a 2c bf 48 3a 49 be b5 0c 93 3e
       0.21906476 -0.6737405 -0.19651139 0.28720632
000230 e8 a7 ca 3e c5 e7 d3 3d 39 14 1a bc 07 26 db be
       0.39581227 0.10346941 -0.0094042355 -0.4280245
000240 a7 9e ae 3d d7 73 b0 be bf 02 46 3e e9 bb 3f be
       0.08526354 -0.3446338 0.19336985 -0.18724026
000250 30 d1 38 bd 31 5b 85 bd 84 8b d2 bc ad 2e 97 3d
       -0.04512137 -0.06511534 -0.025701292 0.073819496
000260 28 2d 9d 3d 5c e1 4e 3e 3b 48 a9 bd 43 8e 76 bc
       0.076746285 0.20203155 -0.0826573 -0.015048566
000270 32 1e dd 3d d6 da 9a bd 4f be d3 bd 81 85 a6 3c
       0.10796775 -0.07561271 -0.10339033 0.020327331
000280 42 52 0c 3e 39 6a 10 be 55 89 34 be 75 f5 03 3e
       0.13703254 -0.1410302 -0.17630513 0.12886603
000290 84 86 8d bd e7 66 9a bd 40 1f a8 3e 85 21 be be
       -0.069104224 -0.07539158 0.32836342 -0.37134948
0002a0 07 7f a1 3e e7 21 fb 3e 57 db 15 3d fe 8d 19 bf
       0.31542227 0.49049303 0.036586132 -0.5998229
0002b0 3a ac 04 3d b6 48 44 bd fa 8f 0c bd bc 8f 24 be
       0.03239081 -0.047920905 -0.034316994 -0.16070455
0002c0 d9 e7 70 3f 82 3a 82 be c2 06 31 be 12 a3 7b 3d
       0.9410377 -0.25435263 -0.17287734 0.061434813
0002d0 ed 99 02 bf b1 20 04 3e 03 b0 8c 3d 20 07 36 be
       -0.5101612 0.12903096 0.06869509 -0.17776155
0002e0 e6 77 09 bf 60 b3 2b bd 02 21 1e 3e 87 e1 94 be
       -0.53698575 -0.041919112 0.15442279 -0.29078314
0002f0 8c b5 3b 3e 26 da 91 bc 14 34 b8 bd 47 ee 55 bd
       0.18330973 -0.017804217 -0.08994308 -0.052229192
000300 99 5f 35 3f 74 46 44 3d 65 dd ad bd 29 ee f8 3e
       0.70848995 0.04791875 -0.08489493 0.48619202
000310 1d 98 68 bd f7 a9 41 bf 1a 96 b7 3e 3b 03 df be
       -0.05678569 -0.7564997 0.35856706 -0.43557152
000320 d4 e5 9c bd 38 ab 14 bf b0 09 06 bb c3 c8 2e be
       -0.07661024 -0.5807376 -0.0020452552 -0.17068772
000330 b9 76 31 be 74 eb 78 be 06 e3 46 3e cb 4a 1e 3e
       -0.17330445 -0.24308568 0.1942254 0.15458219
000340 c6 6d f3 3d 08 f0 f0 3c 9c 78 69 3e aa 69 f6 bb
       0.11886172 0.02941133 0.22799915 -0.0075199204
000350 aa f6 25 3e 1e 3b 38 bc 65 98 1e bf 07 5f f3 3d
       0.16207376 -0.011244563 -0.61951286 0.118833594
000360 54 72 bb bf 24 79 27 3f 42 e8 1a be 9e f6 58 bd
       -1.4644265 0.6541922 -0.15127662 -0.052969567
000370 5b b2 b1 3c fa 44 64 3e 26 0e 40 3e 0e 0c c0 3d
       0.021691492 0.22291937 0.18755397 0.09377299
000380 e4 5d 99 be 7c aa e6 bd cd 87 d1 be 29 39 cb 3d
       -0.29954445 -0.11262986 -0.4092392 0.09923012
000390 a6 a0 02 be b4 77 af bd a1 28 87 3e b9 81 90 bf
       -0.12756595 -0.085677534 0.26398185 -1.1289588
0003a0 2d d8 80 3e aa b9 41 be 73 76 ae bc 37 b6 db bb
       0.2516493 -0.18918481 -0.021296715 -0.0067050713
0003b0 46 ce 4e 3d 21 6b fc bc cf 16 c6 3e 24 d0 4a 3e
       0.050489686 -0.030812802 0.38689277 0.19805962
0003c0 a8 12 ae 3e 90 d9 93 3d 95 57 e8 3e e0 64 eb 3c
       0.3399861 0.07219231 0.4537932 0.028734624
0003d0 48 e1 97 bd f4 f0 2a be fb 25 56 3d 63 24 02 bd
       -0.07416016 -0.16693479 0.052282315 -0.031772982
0003e0 f7 95 80 3e f5 a3 6f be 2d 31 43 bd ec dd 83 3c
       0.25114414 -0.23402388 -0.04765432 0.016097032
0003f0 bf 82 f5 bc 6e f0 0c 3c 2e ef 5f 3c 85 aa 31 3d
       -0.029969571 0.008602245 0.013667865 0.04337551

l1.bias f4 [256]
000000 84 e1 ab bd f7 4a 09 be 20 77 64 3e ef 3f 44 be
       -0.08392623 -0.13407503 0.22311068 -0.19165014
000010 fe 26 9f be a2 49 26 bd e7 af 11 bd 47 4c 81 be
       -0.31084436 -0.040597565 -0.035568144 -0.25253507
000020 57 00 8f 3d f9 bf 98 be 5b 31 47 be 48 79 b3 bd
       0.06982487 -0.29833964 -0.19452421 -0.08763367
000030 06 55 21 3c 8b fe c2 3d 9b a6 96 be 0b a9 b7 3d
       0.009846931 0.095212065 -0.29423985 0.08967789
000040 eb 01 73 3e dc b6 63 3e 1c 6b 82 be 52 db 6d 3d
       0.237312 0.22237724 -0.25472343 0.05807049
000050 15 05 6b be ff 9b 32 3d c8 f2 69 3d 60 18 34 be
       -0.22951157 0.0436058 0.0571163 -0.17587423
000060 b4 42 02 3e da af 1d be ac cc 49 bc 4d b5 33 be
       0.12720758 -0.15399113 -0.012316864 -0.1754963
000070 48 f1 12 be 55 80 ee bd 65 c4 05 3f 69 95 0b be
       -0.14349854 -0.11645571 0.522528 -0.13631214
000080 e0 a5 60 3e e6 3b 34 3d df b0 a7 3e 37 55 70 3e
       0.21938276 0.044002436 0.3275213 0.23470007
000090 b9 4e 02 3e d6 93 08 3d 91 67 8b be b1 f0 18 3e
       0.12725343 0.033344112 -0.27227452 0.14935566
0000a0 21 30 b0 be e6 90 06 be 23 3c c5 bd ee c4 80 3e
       -0.3441172 -0.13141212 -0.09630611 0.25150245
0000b0 c1 b4 19 3d ba 5b 5d 3e f2 cc 93 be 94 b5 0f be
       0.037525896 0.21617022 -0.28867298 -0.1403411
0000c0 15 39 5d bd ed 9b 8c be d3 9e 61 3e b2 78 e0 3d
       -0.054009516 -0.27462712 0.22033243 0.10960521
0000d0 9a fc 58 be a2 11 20 3e cd d1 05 be cd d5 5f 3e
       -0.2119011 0.15631726 -0.13068314 0.21858902
0000e0 81 fe ab be ba 02 26 3e ac 6a b7 bc c1 0a 40 3e
       -0.3359261 0.16211978 -0.022389732 0.18754102
0000f0 12 be 43 be 14 b8 86 bd b5 47 5f 3e fc 48 91 be
       -0.19115475 -0.06578079 0.21804698 -0.28375995
000100 f5 4e 81 be 43 e8 c0 bc e1 6d ca bd a2 65 8e 3e
       -0.25255552 -0.023548251 -0.09884239 0.27811915
000110 57 91 17 be 25 df 6c 3e 6c 1b 20 3e bb 1e 3b be
       -0.14801537 0.23131998 0.1563546 -0.18273441
000120 33 7f 8e bd 7e 5d 97 3d 20 ed b0 bd 14 45 77 bd
       -0.06957855 0.07390879 -0.08638978 -0.060368612
000130 76 b9 f7 bd 3e 17 92 3d 80 b4 e7 bd 35 18 28 3e
       -0.12095921 0.07133339 -0.113137245 0.16415484
000140 80 53 18 3d 1a ca 0a be 81 47 11 bf 80 5f 63 3e
       0.037189007 -0.13553658 -0.5674973 0.22204399
000150 e5 62 b4 3d 49 46 c1 bc 0e eb 70 3e 55 ec cc be
       0.08807925 -0.023593085 0.23527166 -0.40024057
000160 0d f3 9f bd 82 10 93 bd 35 36 43 bd f1 b5 6c bd
       -0.0781003 -0.07180883 -0.047659118 -0.0577907
000170 fc f0 56 3d b1 78 1a 3e 2c 1b 01 be 0e 60 7a 3d
       0.052475914 0.15085103 -0.12608021 0.06112676
000180 41 e3 82 3e ea 68 d5 be 48 56 c6 bd 0f 4a 7e 3e
       0.25564006 -0.41681606 -0.096844256 0.24832939
000190 2b 8a ec bd ce db 21 be 4c da 99 be fe c1 09 3e
       -0.11549791 -0.15806505 -0.3004936 0.13452908
0001a0 4a e1 8e be 52 22 b8 be ca 44 29 3e a3 84 8a bd
       -0.27906257 -0.35963684 0.16530147 -0.0676358
0001b0 c1 ba cc 3d d8 dc b3 be 9f e1 d9 bd 4d 5c 9a bd
       0.09996558 -0.35129428 -0.10638737 -0.07537136
0001c0 a9 22 0a 3d 51 04 23 3d 64 72 be 3c 05 52 04 be
       0.03372446 0.03979904 0.023247905 -0.12921913
0001d0 2e 82 97 3e f9 e3 7d be 43 97 51 3e 06 83 1b 3e
       0.29591507 -0.24793996 0.20467858 0.151867
0001e0 6b 84 3f 3e 8c 7b 00 3e 62 7c 5e 3e 58 9e 35 be
       0.18702857 0.1254713 0.21727136 -0.17736185
0001f0 47 42 a0 bc 43 19 65 3d 72 34 c3 3d c8 13 bc 3d
       -0.019562854 0.055932295 0.095314875 0.091834605
000200 a8 70 bc 3d 35 9b e0 39 0e 4b 11 3e 63 b0 23 be
       0.09201175 0.00042840248 0.14188787 -0.15985255
000210 40 0f f6 3d 1a ed 0d bd 05 0d 72 bd 63 88 22 be
       0.120146275 -0.034649946 -0.059094448 -0.1587234
000220 80 a9 16 3e 8a 6d 53 3c c5 af 9f 3e 68 92 2e 3d
       0.14713097 0.012904534 0.3118879 0.042620093
000230 99 fb 10 be 29 ba 6d 3c 2c 35 46 be ba 7d 1b be
       -0.14158477 0.014509716 -0.19356221 -0.1518468
000240 9e f0 a3 3d 9f c3 02 3e ea 81 7c 3e 22 5c 3b bd
       0.080048785 0.12769936 0.24658933 -0.04574216
000250 a7 a1 4b 3e ab 1b 8b 3b a0 89 8a 3d 59 b8 84 3d
       0.19885884 0.0042452416 0.06764531 0.06480474
000260 dd bd ba 3c 88 30 23 3d d9 2c 47 bd d8 b5 dc ba
       0.022795612 0.039841205 -0.048626754 -0.0016838862
000270 9f 77 67 be 41 a0 96 3b 71 cd 82 3e 61 57 7f be
       -0.22604226 0.0045967405 0.25547364 -0.24935676
000280 60 f9 af 3d 80 07 e0 3e 0b 48 16 3e d4 ab 7d bd
       0.085924864 0.43755722 0.1467592 -0.061931446
000290 6b 88 86 3d fb 3c d5 bd 8d 20 81 bd 6d 7d ee be
       0.065689884 -0.10412022 -0.06305037 -0.46580067
0002a0 7d f4 92 bb d3 37 6f 3e 74 4d c3 bd aa ec 70 3e
       -0.0044847117 0.23361139 -0.095362574 0.2352778
0002b0 9e 97 b6 3e 7c a0 ae be 0a cc 9d 3b 3f 5e e7 3d
       0.3566255 -0.34106815 0.004815583 0.11297273
0002c0 24 fb 9d 3d 38 d0 4e 3e 59 0c 80 be 94 fb 66 bd
       0.07713917 0.20196617 -0.2500942 -0.056392267
0002d0 54 8e 86 3e c2 c3 8e 3e 2a 6c 50 be fc 23 9d 3e
       0.26280463 0.27883726 -0.20353761 0.30691516
0002e0 f1 2b 67 bd 0a d5 f0 3d ca 66 1d 3e 9b 87 81 3e
       -0.05643839 0.11759384 0.15371242 0.2529877
0002f0 4b d1 d1 3c de 06 ce bc 45 10 a1 3d 85 f7 17 3e
       0.025612494 -0.025149759 0.07864431 0.14840515
000300 bd bb 9e be 99 c6 8a 3e b8 11 10 3e df f6 99 be
       -0.31002608 0.27104643 0.14069259 -0.3007116
000310 9a 64 f2 3d ae 7f f5 bd 09 84 b8 bd 88 ba 19 3e
       0.118355945 -0.119872436 -0.09009559 0.15012562
000320 e4 9a a9 be 10 fb a4 bc be 99 7b 3e 29 c9 7f 3e
       -0.33125985 -0.020139247 0.24570367 0.2497908
000330 d6 46 31 3e 29 34 83 3d da e6 77 bd 41 97 1c 3e
       0.17312178 0.06406433 -0.06052289 0.15292074
000340 fb dc 3f bc 65 83 27 3e 25 5f 8e be 9e b9 60 3d
       -0.011710401 0.16358717 -0.27806965 0.05486452
000350 2e a0 c5 bd 75 66 59 be 9c 43 b6 3d 47 cc 2e 3e
       -0.096496925 -0.2123049 0.08899614 0.17070113
000360 a7 81 45 be 24 7d 27 bd 0f eb 12 3e d8 ae 5d 3e
       -0.1928774 -0.040890828 0.1434748 0.21648729
000370 b1 da a8 bd 62 0a 96 be 90 1e b5 3d af 0d 0d 3c
       -0.08244837 -0.29304796 0.0884372 0.008609219
000380 af 00 27 3e ab 14 86 bd ea 2c 99 be 2c 02 00 3d
       0.16308855 -0.06546911 -0.2991708 0.03125207
000390 fa 99 35 be dc dc f8 3c bb 72 82 3e 67 95 06 3e
       -0.17734519 0.030378751 0.25478157 0.1314293
0003a0 1b 27 96 3e ad 08 f0 ba 25 d2 ad 3c 81 95 93 3e
       0.2932671 -0.0018313132 0.021218369 0.28825
0003b0 77 65 40 3e 29 98 1f be 2d 00 14 3e d8 90 08 3e
       0.18788706 -0.15585388 0.14453192 0.13336504
0003c0 dc cc 41 3e 08 e6 3d bd d2 c9 a1 3e 7c bc 0b 3e
       0.18925804 -0.046361953 0.3159929 0.1364612
0003d0 44 c0 50 be 8e 44 0f 3f 9f 5b 8e 3d ec ef 70 3d
       -0.20385844 0.5596398 0.06951069 0.058822557
0003e0 cf d7 62 3e 8b 22 8d bd c9 95 89 bd bd 01 de bd
       0.22152637 -0.06891354 -0.067180224 -0.10840175
0003f0 e1 4d 14 be 09 12 9b 3e 51 94 76 3e 1f ea 28 3e
       -0.14482833 0.30287197 0.24080016 0.1649556

l2.weight f4 [256, 256]
000000 e7 aa a8 3e 3c fb 24 3f 2b 68 1e bd 15 20 f4 3c
       0.32942888 0.64445853 -0.03867356 0.029800454
000010 92 9d 6a 3e 73 b0 e6 bc e3 1e 0d bf d0 39 31 3e
       0.22911671 -0.02816031 -0.55125254 0.1730721
000020 1e 3a 61 3e 31 c9 c6 3d c8 52 d7 3e 6a a2 6c be
       0.21994826 0.09706343 0.42055345 -0.23108831
000030 9c 09 1b 3e a2 eb 46 be d7 08 4b 3f 76 e5 83 be
       0.15140384 -0.19425824 0.79310364 -0.25761002
000040 07 49 6c 3e f4 11 7a 3f 3c db 49 3d 2a 72 b1 3e
       0.23074733 0.97683644 0.049281344 0.34657413
000050 22 dd 19 3f f8 95 c4 bc 42 1f a6 bc 8b 3b 74 3e
       0.60103047 -0.023997292 -0.020278577 0.23850839
000060 aa 02 10 3f d4 76 30 3f e8 70 27 3e 7c e4 12 3f
       0.56254065 0.6893132 0.16351664 0.5737989
000070 c8 95 84 3e 51 0c b0 bf 00 30 f7 bd 13 25 80 be
       0.25895524 -1.3753759 -0.12069702 -0.25028285
000080 16 6a e7 bd e2 fe 68 3e 50 80 2e 3e cc 44 8c bc
       -0.11299531 0.2275348 0.17041135 -0.017122649
000090 d8 f0 44 3d 15 4d a9 be 17 25 08 3e 4a 8d 35 be
       0.04808125 -0.3306662 0.13295399 -0.17729679
0000a0 fe 18 b0 be 62 c6 51 bf ec bf e2 3e 97 e8 c0 3c
       -0.34394068 -0.81943333 0.4428705 0.023548407
0000b0 1a 20 be 3e 48 6d 17 be 27 7b 83 3e 80 43 9d 3e
       0.37133867 -0.14787781 0.25679895 0.3071556
0000c0 92 92 88 be 43 5a dd 3e a4 05 db 3e 19 8b b9 bd
       -0.26674324 0.43232927 0.4277774 -0.09059734
0000d0 97 65 2e 3f f4 d6 8b 3f e2 c3 88 be 3b 45 f6 bd
       0.68123764 1.0924973 -0.26711947 -0.120249234
0000e0 da 71 01 bd b8 33 2b be c2 48 1a 3f 3c 9a e2 be
       -0.031602718 -0.16718948 0.6026727 -0.44258296
0000f0 0d 62 c1 3e f4 c6 93 3e ba 51 57 be 99 56 24 3f
       0.3777012 0.28862727 -0.2102727 0.6419464
000100 66 15 b7 3e ac e9 7b be 05 85 91 3e 30 9d a3 be
       0.35758513 -0.24600857 0.28421798 -0.31955862
000110 a8 bb f4 3e 2b ff e8 3e 5a b1 85 3f 29 5c 38 3f
       0.4779942 0.45507178 1.0444748 0.72015625
000120 13 3f ce 3e 87 29 60 be 72 08 11 be 7b 71 8f be
       0.40282497 -0.21890841 -0.14163378 -0.28016266
000130 73 71 80 bf d1 ed f2 3d ef e3 a6 be 38 a8 08 3f
       -1.0034622 0.11861766 -0.32595775 0.5338168
000140 18 2e a2 3f 2c 24 05 3d e1 5a 88 3d 47 54 32 3f
       1.2670317 0.0325052 0.06657959 0.6965985
000150 43 f5 65 be df 25 e6 3e 09 2a 2d bf c7 94 a9 bf
       -0.22456841 0.44950768 -0.67642266 -1.3248528
000160 9c c9 87 be 17 0c 3b 3e 57 85 0a bf 4b b2 c3 3e
       -0.26521003 0.1826633 -0.5410971 0.38221964
000170 32 b3 f1 be 19 9d ce be 2c 97 8e 3d c9 a6 25 bf
       -0.47207028 -0.4035423 0.069624275 -0.6470762
000180 50 5a 9b 3d c9 aa 51 3f 6d 9c 81 3f 2a 23 93 be
       0.07585585 0.8190122 1.0125862 -0.28737766
000190 dc ec b5 bd 75 f1 db 3e 4b a3 ee be bc 22 8a 3d
       -0.08883068 0.42957655 -0.46608958 0.06744906
0001a0 fb 94 d2 3e 9b 58 13 bd 9b 70 98 be d5 6a 35 3f
       0.41129288 -0.035973173 -0.2977341 0.7086614
0001b0 8c 3e 35 3a 78 ad 9a bf e5 bd 3a 3f 29 f4 b5 3e
       0.0006913922 -1.2084188 0.72946006 0.35537842
0001c0 5b e6 db 3c 74 bc 64 3f 22 70 02 bf 8c 7c c6 be
       0.02684324 0.89350057 -0.5095235 -0.38766897
0001d0 34 13 71 3e 02 a9 42 3e 81 ce 9b be 86 d3 2e 3e
       0.23542482 0.19009784 -0.30430987 0.17072877
0001e0 a2 ab 6f be 4f 9f 51 3e 15 85 b7 be 48 5c a4 bd
       -0.23405316 0.20470928 -0.3584372 -0.08025414
0001f0 bb d2 74 3c 20 20 40 be 71 96 9a bd 36 81 af be
       0.01494282 -0.18762255 -0.07548226 -0.34278268
000200 50 6b 18 3f d2 a6 d0 be 8c 80 a4 bd 25 4c a0 3e
       0.59538746 -0.40752274 -0.08032331 0.31308094
000210 60 92 88 be be 0a 34 bc d1 e6 50 be f1 48 0e be
       -0.26674175 -0.010988889 -0.2040055 -0.13895012
000220 49 79 ac 3e 53 2a 30 be 31 70 17 3f 12 e7 c8 be
       0.33686283 -0.17203645 0.59155566 -0.39238793
000230 3f 80 d2 3f 72 ea 06 3f f7 ec 20 3f 5c f5 f5 3d
       1.6445388 0.52701485 0.6286158 0.12009689
000240 d9 b6 eb 3e f9 7d 71 be 86 4e e6 bc 1f 12 e5 be
       0.4603794 -0.23583211 -0.028113615 -0.44740388
000250 1c af 98 3d 6a cc 13 3e da ae 04 3e 6a 22 0b 3e
       0.074552745 0.14433447 0.12957326 0.13587347
000260 28 b7 01 3f 12 44 fa 3e 1f 8a 0d bf 87 a6 7d 3e
       0.506701 0.4888006 -0.5528888 0.24770556
000270 98 e9 12 3f b7 bc b0 3e d8 af b1 3e 1f 9e d7 be
       0.57387686 0.34518978 0.3470447 -0.42112824
000280 62 a9 99 3b 75 3e 4e 3f f6 8b af 3e 9b f0 70 3e
       0.0046893815 0.8056405 0.3428647 0.23529284
000290 06 93 92 be 3e 61 9d 3d 99 2c ea be 4c eb 88 3f
       -0.28627795 0.07684563 -0.4573715 1.0696807
0002a0 a9 53 7a 3e 36 18 b4 bd 4b 95 c3 bd 3e 99 1f 3e
       0.24445976 -0.0879368 -0.0954996 0.15585801
0002b0 48 d4 a8 3e 49 39 b3 be d4 5e 96 3e 03 55 b7 bd
       0.32974458 -0.35004643 0.29369223 -0.089517616
0002c0 1d f6 20 3f fc a9 01 3e e4 c2 e6 3e 43 d6 12 bd
       0.6287554 0.126625 0.45070565 -0.035848867
0002d0 03 4d ba 3e 9d 87 84 be 0b 11 59 3e b7 34 38 3e
       0.3638688 -0.25884715 0.21197908 0.17988859
0002e0 18 30 fb 3e 5d 30 53 3e 62 cc 03 be 5b 86 7e 3e
       0.4906013 0.20623918 -0.12870935 0.2485594
0002f0 90 0e 3c be a6 f5 9e be 0c 8d 04 bf bc e0 e7 bd
       -0.1836493 -0.3104679 -0.5177772 -0.113221616
000300 74 60 87 bd e3 4d 8e 3d cc ae 23 3f 3c 2f de be
       -0.06610194 0.069484495 0.63938594 -0.43395412
000310 9c 9d d3 39 51 a8 c4 be ea 00 08 3e 32 bb 68 be
       0.00040362484 -0.38409665 0.13281599 -0.2272766
000320 bf 21 9b be 00 d0 d7 3d b7 81 89 3e 14 21 d2 bd
       -0.30299184 0.1053772 0.26856777 -0.102602154
000330 2d b4 f2 3d 83 a8 36 be 8d cd e4 3f f1 d9 99 bc
       0.11850772 -0.1783772 1.7875229 -0.01878068
000340 ea 60 b1 3f 66 4e 4b bd 5a d5 b6 3f 04 c4 0c bd
       1.3857701 -0.049635313 1.428386 -0.034366623
000350 2f 35 67 be b6 14 df 3e cc 5b bd 3e 5c 56 68 bd
       -0.22578882 0.4357049 0.36984098 -0.056722984
000360 ae b7 28 3f 95 7f 11 3f 28 95 ca bd 42 6b 1a bf
       0.6590527 0.568353 -0.098917305 -0.6031991
000370 9b 66 2d 3c 88 4d 49 bf a9 e6 30 bd 9f 78 bd 3e
       0.010583545 -0.7863393 -0.043188725 0.3700609
000380 c7 5e 8b 3f 24 e4 59 3f c5 71 e4 3d 43 43 2b 3e
       1.0888299 0.8511374 0.11154512 0.16724877
000390 15 ef 56 be fa fc b5 be 4a d5 2c be 6f 7c dd bc
       -0.2098964 -0.35544568 -0.16878238 -0.027036874
0003a0 ef ab c6 3e 85 e6 d7 3e d4 0b e9 3e 52 52 d8 be
       0.3880305 0.4216806 0.45516837 -0.42250305
0003b0 8f d3 a7 bd 19 c9 b1 be 2b 65 40 be 05 02 cb 3c
       -0.081946485 -0.34723738 -0.18788593 0.024781236
0003c0 fe 4b cb bd 93 51 3f 3e 0d 25 a7 3d f9 d9 13 be
       -0.09926604 0.18683462 0.08161364 -0.14438619
0003d0 2a fe 2f 3e 88 9d 0f 3e 59 47 d6 be 22 27 11 3f
       0.171868 0.14024937 -0.4185131 0.56700337
0003e0 4b e1 a0 3d df 93 53 bc ee b3 ac bd c0 7c 35 3e
       0.07855471 -0.012913673 -0.08432756 0.1772337
0003f0 22 ee dd be cb 90 43 3e a5 d1 ba 3d 24 77 50 be
       -0.43345743 0.19098203 0.09122018 -0.20357949

l2.bias f4 [256]
000000 a3 dc 93 3d 22 f5 a2 3e 09 a4 4f 3e b9 b7 9d bd
       0.072198175 0.31827646 0.20277418 -0.07701058
000010 ee e2 7d 3e eb 68 7a 3e 06 b0 b2 be bb 62 96 3e
       0.24793598 0.24454086 -0.3489992 0.293722
000020 fc 40 8b 3e 17 ef 66 3e 9e 1c 5f bc 7a f7 6c 3e
       0.27198017 0.22552143 -0.013617663 0.2314128
000030 81 7d 74 3e 1e d4 a1 3e e3 c5 34 be 4b 41 80 3e
       0.23876001 0.31607145 -0.17653613 0.25049815
000040 c6 d9 74 3e e9 42 68 3e 83 8b 0c bc 85 9b 1c 3e
       0.23911199 0.22681774 -0.008578184 0.15293701
000050 ac 11 a8 3d 68 61 a7 3e 1f f7 ac 3e af 68 55 be
       0.08206496 0.32691503 0.33782288 -0.20840715
000060 0e 57 95 3e fa 46 85 3e db ce 99 be c8 5b 9e 3e
       0.2916798 0.26030713 -0.3004063 0.309294
000070 80 67 80 3e 2b 6f 02 be e7 05 3c 3c 88 e0 5a bd
       0.25078964 -0.1273772 0.011476017 -0.053436786
000080 9e 15 35 be c2 65 58 be 81 b0 06 3e 76 23 a2 3e
       -0.17684028 -0.21132568 0.13153268 0.3166768
000090 25 52 4a be d2 db 91 3e 17 e3 39 3e a6 db a2 3e
       -0.19757898 0.28488022 0.18153034 0.31808203
0000a0 ff 20 86 3e a3 9c 80 3e 64 28 8c 3e 45 cc c8 be
       0.2619705 0.25119504 0.27374566 -0.39218345
0000b0 01 ee a3 3e 6c 49 9e 3e 43 e1 b8 3e 83 51 11 be
       0.3201752 0.3091539 0.3610936 -0.1419125
0000c0 18 a7 7b 3e 20 9b 17 be a5 8c a4 3e 6e e2 8c 3e
       0.2457546 -0.14805269 0.32138553 0.27516502
0000d0 53 d0 58 3d b1 a5 c7 bc a4 4f 6d be 93 25 06 3d
       0.05293305 -0.024371 -0.23174912 0.032750677
0000e0 49 83 95 3e 1a 23 9a be a5 22 c3 bc ed f9 2b be
       0.29201725 -0.30104905 -0.02382023 -0.16794558
0000f0 ed bc 99 3d f5 f0 57 3e ab a2 48 be 5b 78 b5 3e
       0.07506738 0.21088012 -0.19593303 0.35443386
000100 2f 5e 49 3e e7 ed 77 be b2 5f 81 bc 24 3b e4 3b
       0.19664834 -0.24211846 -0.015792701 0.006965058
000110 26 f0 78 3e e9 2b 92 3e 6d 9a 2e be e9 a9 83 3e
       0.2431036 0.28549126 -0.17051096 0.2571557
000120 c9 9a 6c be af 7b 43 3d 78 28 4e 3e 71 f0 59 3e
       -0.23105921 0.047725376 0.20132625 0.21283127
000130 02 a1 9b 3e 14 2e a9 bc 04 8e 80 bd 70 94 4b be
       0.30396277 -0.020651855 -0.06277087 -0.19880843
000140 d8 28 4c be 54 c7 96 3e ac 22 3f be 32 3c 80 be
       -0.19937456 0.2944895 -0.1866557 -0.25045925
000150 18 b7 97 3e af 76 45 be 9a 0e 6b 3e d2 aa c0 bd
       0.29631877 -0.19283555 0.22954789 -0.094075814
000160 67 e4 78 bd 18 22 53 3e c0 a5 19 bc ca cb eb bd
       -0.060764696 0.20618474 -0.009377897 -0.11513479
000170 da c7 41 3e a4 50 78 3e c2 ef 50 3e 64 9c 8b 3e
       0.18923894 0.24249512 0.2040396 0.27267754
000180 9f 7f 52 3e 76 df 67 be 68 c3 87 be af d8 27 be
       0.20556496 -0.22643837 -0.2651627 -0.16391252
000190 8c f8 8d 3e 3c 5b 7d be 1d 06 81 3e 4a 74 9a 3e
       0.2772869 -0.24741834 0.25199977 0.30166847
0001a0 df 98 80 3e c9 13 b1 bd 96 bf 68 3e 11 85 09 be
       0.2511663 -0.08646352 0.22729334 -0.13429667
0001b0 cd 02 99 3e 4d 2a 89 bd 14 c4 a4 3c e2 f3 b0 3b
       0.2988495 -0.06697521 0.020113029 0.005400167
0001c0 e9 5b 4b 3e d8 40 9f bd 0d 77 75 be a8 da 1a be
       0.1985928 -0.0777604 -0.23971196 -0.15122473
0001d0 6b 30 9f bd 81 cf 26 be 04 b5 a7 3e a6 3a 7c 3e
       -0.07772907 -0.16290094 0.3275529 0.24631748
0001e0 c5 3d 09 3d 30 bc 68 3e 3e e8 7b be 07 4e 26 b9
       0.033506174 0.22728038 -0.24600312 -0.00015860061
0001f0 a0 21 9b 3e 74 7e 81 be 39 02 3f bc 75 90 ca be
       0.3029909 -0.2529179 -0.011658245 -0.39563337
000200 24 00 b1 bd de d4 f5 bd 7d e2 b3 3d 67 b2 74 bd
       -0.08642605 -0.12003492 0.087834336 -0.05974045
000210 a0 aa 1a be 11 07 94 3e 3c 53 97 3e fc 9f 9d 3e
       -0.15104151 0.2891164 0.2955569 0.3078612
000220 73 a7 a3 3e bc 74 73 3e 0c 67 35 3c 5a fa b0 3e
       0.3196369 0.23775 0.011071932 0.34566003
000230 d1 a1 6f be 5e 49 73 3e 9f 34 a8 3e cd 6b 20 be
       -0.23401572 0.23758456 0.32852647 -0.15666123
000240 f2 48 96 be c9 32 9b 3e 2d 13 87 3e d9 54 8a bd
       -0.29352528 0.30312183 0.26381817 -0.06754465
000250 bd ee 62 be de 59 8e 3e 1b 0b 69 3e 8e db 77 3e
       -0.22161384 0.27802938 0.22758143 0.24204847
000260 89 10 4a 3e 96 9b 9f 3e 67 9d 94 3e 5f b5 c6 3d
       0.1973287 0.3117339 0.29026338 0.097025625
000270 20 7e 6f 3e 5c 0a a3 3e 77 0e 6a be 8b 42 10 be
       0.23387957 0.3184384 -0.2285708 -0.14087884
000280 98 03 68 3e 71 57 84 be 56 af 85 3e a4 76 4c 3c
       0.22657621 -0.25847962 0.26110333 0.012479458
000290 03 29 12 be 40 db 8d 3e ad 71 87 3e ef 70 8f 3e
       -0.14273457 0.27706337 0.26453915 0.2801585
0002a0 f2 e1 7d be 20 b7 2a be de 97 87 3d 7b 71 52 be
       -0.24793223 -0.16671419 0.06620763 -0.20551102
0002b0 32 1a 8e 3e ac 63 32 be b2 5c 81 bc 99 bf 6e be
       0.2775436 -0.17420834 -0.01579127 -0.23315276
0002c0 cc 4f 8d 3e f5 48 c3 bd 5f 58 31 be 03 32 73 3e
       0.27599943 -0.095354 -0.17318867 0.23749547
0002d0 3b 75 95 3e 7b da a0 3e 2f 6e 9f 3e db 09 c9 bb
       0.29191002 0.31416687 0.3113875 -0.006135208
0002e0 10 09 8a bd 91 9e 71 be c7 30 ad 3e af 3b 83 3e
       -0.0674001 -0.23595645 0.33826277 0.25631472
0002f0 b8 52 3f be 6d 2e d9 bd 0b 92 97 3e 54 bb 5d bd
       -0.18683898 -0.10604558 0.2960361 -0.05413373
000300 f7 72 97 3e 0a 80 62 3e 84 59 66 bd 38 17 a3 3e
       0.295799 0.22119156 -0.056237713 0.31853652
000310 aa 9f c5 3e a0 81 fd bd 22 fb 38 be 29 c7 59 bc
       0.38598377 -0.1237824 -0.1806455 -0.013292112
000320 0d d0 bd 3e 60 56 82 3e 8c 49 ae 3e 4d ee c7 3e
       0.37072793 0.25456524 0.34040487 0.39048997
000330 c1 4a 22 be 9b e4 93 3e f7 39 ca 3e 90 4e b4 bc
       -0.15848829 0.2888535 0.3949735 -0.022010118
000340 93 f0 0d 3e 7d 36 88 3e 6c 31 4f be 25 73 27 3d
       0.13861303 0.2660407 -0.20233697 0.040881295
000350 f2 7e aa 3e 22 05 44 3d cf 8b 04 3d 03 f7 99 3e
       0.33299977 0.047856458 0.032359894 0.30071267
000360 b6 3a 81 be 5f 84 96 3e 9d b4 9e 3e 3e c5 39 bd
       -0.25240105 0.29397866 0.30997172 -0.04535412
000370 9f c0 5d be e5 b5 55 3e 53 bf 67 3e ab b8 63 be
       -0.2165551 0.20870169 0.22631578 -0.22238414
000380 46 d6 c1 3e 0a 05 71 3e 40 49 2c be 1c b1 05 3d
       0.3785879 0.23537078 -0.16824818 0.032639608
000390 d0 87 78 be 1e 8d a4 3e 07 90 53 bd 02 55 67 3e
       -0.24270558 0.32138914 -0.051651027 0.22591022
0003a0 af 67 60 3d c2 3a 4f be e4 91 09 bc d8 2c ae 3e
       0.05478638 -0.20237258 -0.008396599 0.34018588
0003b0 71 3c 69 be 06 36 85 3e c0 7d 16 bd b2 ab 99 bd
       -0.22776963 0.2601778 -0.03674102 -0.075034514
0003c0 08 12 a7 3e cb 61 c5 bd 31 01 c4 be 74 31 fe 3d
       0.32630944 -0.09637793 -0.3828216 0.12411776
0003d0 2d 7f 96 3e 29 5f b5 3e b4 96 4f 3e c4 78 79 3e
       0.29393902 0.35424164 0.20272332 0.24362475
0003e0 19 7d 97 3e 46 be 17 3e 9e 5c 39 bd 5f db 0e be
       0.2958763 0.14818677 -0.045254342 -0.13950871
0003f0 63 77 8e bd 04 59 1a be e3 b8 f9 bd 94 c3 8d 3e
       -0.06956365 -0.1507302 -0.121934675 0.27688277

l3.weight f4 [1, 256]
000000 0d a8 00 40 fa c5 5d 3e 5a 56 95 3e 9e 44 35 bf
       2.010257 0.21657553 0.29167444 -0.70807827
000010 9a 8c ef 3e 07 3c 8c 3e 52 a8 a4 bf 2c db 82 3e
       0.46786958 0.27389547 -1.2863867 0.2555784
000020 0f 66 a0 3e 08 3c a1 3e d6 b3 63 bf 2b 20 b1 3e
       0.31327865 0.31491113 -0.8894628 0.34594855
000030 be bc 83 3e 2e 3d cf 3e b9 e4 04 c0 6c 16 39 3e
       0.25729936 0.40476364 -2.0764601 0.1807496
000040 3c 3f 93 3e 1d 0f a4 3e 34 e0 22 bd 6d 4b d3 3f
       0.28759181 0.3204278 -0.039764598 1.6507393
000050 0e 25 9b bf 43 67 98 3e ca 51 6b 3e a7 fb 10 bf
       -1.2120683 0.29766282 0.22980419 -0.5663399
000060 8c 48 79 3e 62 69 6e 3e 7a f1 88 bf 18 d7 b0 3e
       0.2434408 0.23282388 -1.0698693 0.34539104
000070 68 c7 a3 3e a2 91 9a bf 08 53 f9 3f 5d 46 08 c0
       0.31988072 -1.2075694 1.9478464 -2.1292946
000080 18 25 e4 bf 08 2b 5a be 09 56 e3 bf d5 ca 42 3e
       -1.782382 -0.21305478 -1.7760631 0.19022687
000090 b8 b2 8b bf 10 9d 84 3e cd 03 ad bf 3f d8 7f 3e
       -1.0913916 0.2590108 -1.3516785 0.24984835
0000a0 2a 4c 76 3e e9 3d 0d 3f 83 cc 35 40 53 86 25 c0
       0.24052492 0.5517259 2.8406074 -2.5863235
0000b0 4a a4 2c 3f 7e 60 65 3e 78 b5 5c 3e 5c 8d 5f bf
       0.67438185 0.2240009 0.215536 -0.8732507
0000c0 4a a2 86 3e d1 69 e9 bf 5e 3f 6e 3e df 57 a3 3e
       0.26295692 -1.8235418 0.2326636 0.31902978
0000d0 ae b6 49 c0 3b ad 04 c0 c5 76 4b bf aa 1c cf bf
       -3.151775 -2.0730731 -0.794781 -1.6180623
0000e0 41 77 c6 3e 7c db 0d c0 f3 9b ca bf 8e 69 0f c0
       0.3876286 -2.2165213 -1.5828842 -2.2408175
0000f0 9f 74 ff 3f c1 20 60 3e 76 95 8d bf c7 25 8f 3e
       1.9957465 0.21887495 -1.1061237 0.2795851
000100 45 37 20 c0 84 ee 0d c0 25 74 82 bf de 86 78 bf
       -2.5033734 -2.2176828 -1.0191694 -0.9708079
000110 44 8c 75 3e df 66 67 3e 53 c6 d1 bf 08 81 69 3e
       0.23979288 0.22597836 -1.6388649 0.22803128
000120 3f 5d 25 bf 17 26 83 bf 43 df 83 3e b2 3d 47 3e
       -0.6459541 -1.0245999 0.25756273 0.19457129
000130 94 00 68 3e 84 50 77 bf 8b 50 47 3d 3d b0 02 c0
       0.2265647 -0.9660723 0.048660796 -2.0420067
000140 61 75 14 c0 da 66 ad 3e c0 b2 b6 be 0e 36 3c c0
       -2.3196642 0.33867532 -0.3568325 -2.9407992
000150 55 45 73 3e 8e 03 b0 be 1f 61 d6 3e 0d 6e e6 bf
       0.23756917 -0.34377712 0.41870973 -1.8002335
000160 c5 28 41 bf db ab d4 3e 68 a1 e1 bf d2 a5 ee bf
       -0.75452834 0.41537365 -1.7627382 -1.8644354
000170 9e 19 a8 3e 0d 2b c4 3e 6a 7e 73 3e a6 88 49 3e
       0.32832044 0.38314095 0.23778692 0.19681033
000180 9e da 46 3e 70 47 9a bf db 6c e5 be b0 73 c3 bf
       0.19419333 -1.2053051 -0.44809613 -1.526968
000190 25 b9 24 3e 48 36 79 c0 fd e0 61 3e 23 a2 f0 bf
       0.16086252 -3.893938 0.22058482 -1.879948
0001a0 b9 d5 96 3e 55 3a 02 c0 2b cb ab 3e e0 7b 9d bf
       0.29459932 -2.0348103 0.33553442 -1.2303429
0001b0 5e 54 b2 3e 78 54 bc bf 0c 38 02 c0 38 22 20 c0
       0.34829992 -1.4713278 -2.0346708 -2.5020885
0001c0 7c 30 8c 3e cf 26 e4 bf 6f ae 30 bf b3 a3 8d be
       0.2738074 -1.7824343 -0.69016165 -0.27663955
0001d0 c8 8d a1 bf b4 f1 06 c0 a1 a2 a0 3e a1 74 e3 3e
       -1.2621393 -2.1085024 0.31374076 0.44424918
0001e0 13 c4 6f bf 1d 1e 50 3e f4 de 4e bf 55 52 62 bf
       -0.9365856 0.20323987 -0.8080895 -0.8840688
0001f0 31 8f 7f 3e 6b bb 39 bf 1f d3 fc bf 52 18 d5 bf
       0.24956967 -0.725516 -1.9751929 -1.6648047
000200 17 63 0b c0 02 2e bb bf 70 22 a3 bf 9b 97 03 c0
       -2.177923 -1.4623415 -1.2744884 -2.0561283
000210 77 86 0f c0 df 9d 37 3e ba 7f 7d 3e a2 40 2b 3e
       -2.242582 0.17931317 0.24755755 0.16723874
000220 f8 fc 41 3e 2e 81 aa 3e fa e9 29 bf b0 7c 61 3e
       0.18944156 0.3330168 -0.66372645 0.22020221
000230 80 dd a8 bf de c2 7a 3e f6 c7 74 3e 29 f5 a3 bf
       -1.3192596 0.24488398 0.23904404 -1.2809192
000240 c1 ed 53 c0 4b 5f 40 3e c3 3a 66 3e 45 1c f8 bf
       -3.3113863 0.18786351 0.22483353 -1.9383627
000250 ab a6 ff bf 1a 25 b7 3e cc ba bf 3e 0e 45 0e 3f
       -1.9972738 0.35770494 0.37447202 0.5557412
000260 99 d9 d8 3f 34 7c f0 3e 42 58 80 3e 03 79 28 c0
       1.6941406 0.4696976 0.25067335 -2.632386
000270 45 a3 67 3e 7e c4 ed 3e f7 44 69 bf 0c eb 64 c0
       0.22620876 0.46438974 -0.91120857 -3.5768461
000280 65 81 8a 3e 05 d0 ef be 98 67 12 3f e8 21 83 bc
       0.27051845 -0.46838394 0.5718932 -0.016007379
000290 ce db c1 bf d9 40 69 3e 01 82 6f 3e e8 09 bb 3e
       -1.5145204 0.22778644 0.23389436 0.36530995
0002a0 19 fd e4 bf 61 3d 44 c0 d0 fa 63 bf f1 80 a1 be
       -1.7889739 -3.0662463 -0.89054585 -0.31543687
0002b0 6a 4f 54 3e b4 4a fc bf 88 a4 8a bf 39 87 2f bf
       0.20733419 -1.9710298 -1.0831461 -0.6856571
0002c0 f9 6f 48 3e c1 3d 75 bf 13 af 54 c0 54 95 75 3e
       0.19573964 -0.95797354 -3.3231857 0.23982745
0002d0 90 5c e5 3e a4 81 cb 3e 1f 50 43 3e f7 0b 07 c0
       0.44797182 0.39747345 0.19073533 -2.1101053
0002e0 6e e8 76 bf c6 20 24 bf 61 a9 70 3e c2 f1 d1 3e
       -0.9644841 -0.6411251 0.23502113 0.4100476
0002f0 50 80 c8 bf 21 ff 2f bf 3d 4f cc 3e 39 44 4c 3c
       -1.5664158 -0.6874867 0.39904204 0.012467437
000300 0f 70 59 3e a1 10 5b 3e fb 3b a3 bf b5 77 b7 3e
       0.21234153 0.21393062 -1.275268 0.35833517
000310 c1 5a e7 bf cc 2b 05 c0 e3 83 e9 bf 42 8f bc bf
       -1.8074571 -2.0807981 -1.8243374 -1.4731219
000320 66 13 4b 3e c3 d8 81 3e 29 90 65 3e 78 81 5d 3e
       0.19831619 0.2536069 0.22418274 0.2163142
000330 97 2a 1e bf 38 f3 99 3e ab 66 82 3e 62 ca 1f c0
       -0.61783737 0.30068374 0.25468954 -2.4967275
000340 bb 24 22 40 df 83 ce 3e 2c 9d 2c bf f8 76 41 c0
       2.5334918 0.40334985 -0.67427325 -3.0228863
000350 30 da 7e 3e 10 e7 c6 bf 59 06 dd bf c6 18 80 3e
       0.2488792 -1.5539265 -1.7267562 0.250189
000360 c1 8f 69 bf 1d 44 9b 3e d3 1c 88 3e 21 56 86 3c
       -0.91234976 0.30325404 0.2658449 0.016398491
000370 dc 50 45 bf 65 19 36 3e 3f ea 98 3e 85 15 ca be
       -0.77076507 0.17783125 0.29866216 -0.39469543
000380 17 86 8b 3e 57 ad 55 3e b6 90 ce bf 72 e0 00 3d
       0.2725074 0.20866905 -1.6137912 0.031464048
000390 f4 e9 15 bf 7d db ad 3e 05 b6 a7 bf ae e7 85 3e
       -0.5856011 0.3395652 -1.3102423 0.2615332
0003a0 d4 13 02 c0 04 6a b3 be 85 1d ed bf 9a 8b 6a 3e
       -2.0324602 -0.3504182 -1.8524634 0.22904816
0003b0 9c 86 95 c0 ca f6 65 3e 77 55 00 bd 04 5d d8 bf
       -4.672682 0.22457424 -0.031331506 -1.6903386
0003c0 7f af 72 3e d8 c6 c1 bf 7b 50 22 c0 b5 81 c6 bf
       0.23699759 -1.5138807 -2.5361621 -1.5508333
0003d0 aa ea 87 3e ea 29 82 3e 2e b8 7f 3e 2a e5 91 3e
       0.26546222 0.25422603 0.24972603 0.2849515
0003e0 fb 64 4f 3e b9 f8 e6 3f 5d 47 01 c0 eb c7 5d bf
       0.20253365 1.8044654 -2.0199807 -0.86633176
0003f0 37 6f 6e 3c b3 7a 10 c0 73 13 ee bf cf 04 76 3e
       0.014552883 -2.257489 -1.8599685 0.24025272

l4.weight f4 [256, 32]
000000 59 b6 05 3f 06 34 77 bd 35 ce 23 3e 8f 61 aa 3e
       0.52231365 -0.060352348 0.1599663 0.33277556
000010 45 78 8a bd f7 8b 77 3e 13 5a fb 3d 12 65 b2 3e
       -0.06761221 0.24174486 0.1227304 0.34842736
000020 e0 61 92 3e 59 41 0b 3f 01 c6 e1 3d e8 2d 7e 3e
       0.28590298 0.5439659 0.110240944 0.248222
000030 46 a5 2e 3e 2e a2 28 3d 49 a4 48 be c8 64 08 bf
       0.17055234 0.04117029 -0.1959392 -0.5327878
000040 f1 5c a2 bd e8 f4 b2 be ff de cb bd 58 20 8c be
       -0.079278834 -0.34952474 -0.099546425 -0.27368426
000050 9a 2a ee 3e 7a 51 d5 be 27 5c 8a be 02 49 1a be
       0.46516877 -0.41663724 -0.27023432 -0.15066913
000060 0a d9 fd be 63 cd 55 3e a1 e8 c7 3d 4b bd 9e bd
       -0.4957965 0.2087913 0.09761167 -0.077509485
000070 64 57 f3 3a cd b4 54 be 92 3c 85 3d f4 07 a4 bd
       0.0018565473 -0.20772095 0.065056935 -0.080093294
000080 b4 cb 17 3c 30 43 fc bd 1b 84 35 be 5e 41 96 3d
       0.009264875 -0.123175025 -0.17726175 0.073366866
000090 4d 65 c6 3d 27 98 9a bf e2 b7 48 be 68 92 b0 3e
       0.0968729 -1.2077683 -0.19601396 0.344867
0000a0 3b 07 bf bd 78 fd 06 bf ea a6 17 3e 35 69 35 be
       -0.09327551 -0.5273051 0.14809766 -0.17715915
0000b0 60 45 82 bd 7c 7f e4 3b 34 ee cc bd 1f 97 5d bf
       -0.063608885 0.006973205 -0.10006371 -0.8655872
0000c0 4f 91 52 bf 17 93 5f bf d3 ad 97 bf d6 70 80 bf
       -0.82252973 -0.87333816 -1.1849922 -1.0034435
0000d0 f4 95 ed 3e 1d 1b 3e bf ec b1 0e 3f da 62 19 bd
       0.46403468 -0.7426012 0.5574024 -0.037447788
0000e0 f2 e1 ef be 05 b2 cf bd 79 2e 00 be 62 8a aa 3d
       -0.4685207 -0.101413764 -0.12517728 0.08327176
0000f0 a4 ae bd 3d 24 32 29 3a e4 89 94 bc 99 5e c6 bd
       0.09261826 0.000645431 -0.018132158 -0.09686012
000100 b7 d7 4b 3e 3b 08 24 be 9e 33 8a 3e 22 99 6a 3e
       0.19906507 -0.16018765 0.26992506 0.22909978
000110 f9 51 bd 3d 8a a9 c4 bd 8c 85 a3 be 08 47 24 bc
       0.09244151 -0.096026495 -0.31937826 -0.010026701
000120 c6 98 8a 3d 31 60 96 bb b2 b5 71 be 93 79 e8 bd
       0.067674205 -0.0045891036 -0.23604468 -0.113513134
000130 25 ef 70 3e b3 01 c1 bc b5 f4 72 3c 1d 70 0c 3f
       0.23528726 -0.02356038 0.0148288505 0.5485857
000140 78 83 c4 bc ef d8 a7 3e 8b 5e 6c 3e 63 c7 c9 3c
       -0.02398847 0.32782695 0.2308294 0.024631208
000150 de a0 5e 3e be ab b5 be d6 da b1 be 4a 36 d9 bd
       0.21741053 -0.3548259 -0.3473727 -0.10606058
000160 ca 15 1b be 9e 59 5a bf be ff f6 3d ff 9d 81 bc
       -0.1514503 -0.85292995 0.12060498 -0.015822409
000170 c2 8a 35 bd d9 6c 2a bd 57 37 c1 3d 2d 5b 9b 3c
       -0.044321783 -0.04160771 0.09434383 0.018964374
000180 72 b0 f0 be 35 ba 8a 3d bf 21 ed bd 26 58 d5 3e
       -0.47009617 0.067737974 -0.11578702 0.41668814
000190 2a 1f 8e 3c 64 5c d0 3d 87 78 cd be 17 97 b6 bd
       0.017348845 0.10173872 -0.40131018 -0.08915537
0001a0 cb f8 0e 3d 53 cb d2 be b0 83 8e bd f4 bf eb be
       0.034905236 -0.4117075 -0.06958711 -0.46044886
0001b0 18 b2 b5 3e e7 6e 42 3d 5f 5b 02 3d 43 45 22 3e
       0.35487437 0.047469046 0.03182542 0.15846734
0001c0 db 57 18 3f ba 42 57 3e 01 12 03 be ce 0e 83 3c
       0.59509057 0.21021548 -0.12799837 0.01599827
0001d0 c8 f3 92 bd 63 7c 2b be f8 6f 7c 3b 70 0e 5e 39
       -0.07175404 -0.16746669 0.0038518887 0.00021176948
0001e0 9e 4f 1b bf 17 41 39 bf 70 69 25 3d 29 aa ef bd
       -0.6066836 -0.72364944 0.040383756 -0.11702377
0001f0 65 02 8d bd 00 77 17 bc 81 1c 26 3d c7 17 3f 3d
       -0.06885222 -0.00924468 0.040554527 0.046653535
000200 db 8d ea be 66 26 1d be 85 74 7e 3e 3b 61 28 bf
       -0.45811352 -0.15346679 0.24849136 -0.6577336
000210 9d ae 30 3c 4a ea ae bc de 33 2f bf 5d 92 c9 bc
       0.010783819 -0.021351952 -0.6843852 -0.024605924
000220 0d a1 c0 3e 26 06 a0 3e a0 ba 38 bd 5c f2 fb be
       0.37622872 0.3125469 -0.045099854 -0.49208343
000230 1e 08 05 3f 31 db c7 be 7c af 9b 3d d6 ac 03 bd
       0.5196551 -0.39034417 0.0760183 -0.03214725
000240 a9 c5 09 bf 96 78 af 3d 17 51 23 3e af 4f 7b 3e
       -0.5381723 0.08567922 0.15948902 0.24542116
000250 a3 81 ab 3b e5 d4 9f 3d ac 9b 7e 3e f4 ab 14 3e
       0.0052339598 0.07804278 0.24864072 0.1451872
000260 97 aa d0 bd 0b 7f 25 3d 33 32 97 3d 19 5f 8d bd
       -0.101887874 0.04040436 0.073826216 -0.06902904
000270 f9 64 af bd e3 58 f6 bc 77 ba 72 bd 93 60 62 bd
       -0.08564181 -0.030071681 -0.059259858 -0.05526788
000280 1b 97 47 bf b2 2b 0a 3e ca a6 a8 bd b8 de 94 3f
       -0.77964944 0.13493231 -0.082349375 1.1630468
000290 e6 6b 32 be 68 de 17 3f c8 54 4c 3e 75 54 91 3e
       -0.17423972 0.5932374 0.19954216 0.28384748
0002a0 6b 49 15 3f 6d 03 e4 be 94 9c dd 3d 69 62 67 bc
       0.5831515 -0.44533864 0.108208805 -0.014122584
0002b0 b1 de 01 3f 20 3b bd bb bf e1 b9 3e f7 a3 90 3e
       0.50730425 -0.0057748705 0.36305043 0.28250095
0002c0 22 f1 78 3c 90 f2 8c 3d 63 2f 9a 3e 3f 44 7d 3d
       0.015194209 0.068822026 0.30114278 0.061832663
0002d0 a5 a4 71 be fd 57 e1 be 96 71 d6 3c 0d 45 a3 3d
       -0.23597963 -0.44012442 0.026177209 0.07972155
0002e0 93 98 00 3e 54 57 b7 be 01 e9 5a bd 99 32 06 bd
       0.12558202 -0.35808814 -0.053444866 -0.032763097
0002f0 2a 15 22 bd fc 96 76 3b 53 65 32 3d fc f4 fd bc
       -0.039570965 0.0037626615 0.04355366 -0.031000607
000300 22 86 14 be 4a a4 1f be 36 ad 6b be 7e 0d ae 3e
       -0.14504293 -0.15590015 -0.23015293 0.3399467
000310 14 2c 1c be fe ba cf be ee 6b 15 be 63 50 f7 3e
       -0.1525119 -0.4057235 -0.14591953 0.48303518
000320 53 28 71 3e 3f 65 d7 be fb 7a ac 3e 81 9c 00 be
       0.23550539 -0.42069432 0.33687577 -0.12559702
000330 d1 56 0b 3d 82 37 b4 3d 48 13 92 bd 4f c0 0d bf
       0.03401834 0.0879965 -0.07132584 -0.55371565
000340 2a be 9d 3e 42 af 84 be 64 e4 ab 3d ee 98 81 bd
       0.30809146 -0.2591496 0.083931714 -0.06327997
000350 9b 16 81 3e 40 87 96 be aa d9 d6 3d a2 8b 70 3a
       0.2521256 -0.29400063 0.10490735 0.00091760803
000360 50 81 90 bf 03 03 5c 3e b1 00 56 3c 54 5c 85 bb
       -1.1289463 0.21485524 0.013061688 -0.0040698443
000370 e2 ac 27 3d ca cc b8 bd 53 79 72 3d 38 32 e0 bc
       0.04093636 -0.090234354 0.059197735 -0.027367696
000380 0e 5a 5a 3e 58 9f f8 bd e1 58 96 be 98 ba 8d be
       0.21323416 -0.121397674 -0.29364684 -0.27681422
000390 8e d6 17 be c1 dd e4 3f a5 ba 13 bf 85 92 9c 3e
       -0.1482794 1.7880174 -0.5770667 0.30580536
0003a0 f9 95 07 bf 28 fe 80 bd 08 f2 05 be 54 2a 80 3e
       -0.52963215 -0.062984765 -0.13080609 0.25032294
0003b0 70 f4 83 be 06 e4 05 bf 33 5a 6a 3e 4b f6 5f 3d
       -0.2577243 -0.5230106 0.22885971 0.054678243
0003c0 1a 7d af 3e 6d 1d aa bd 0c 6a cf be 88 0b f9 bd
       0.34275132 -0.08306394 -0.40510595 -0.121604025
0003d0 78 ec bf 3a c2 a4 81 3e e1 3c 12 3e 50 d9 3c 3a
       0.0014642617 0.25321013 0.14281036 0.0007204013
0003e0 28 ff d8 3b 2f 12 c4 bd 29 49 4a 3b 22 79 7c 3d
       0.006622214 -0.09573781 0.003086636 0.06163896
0003f0 04 7e a4 bd a5 16 6a 3d c1 a3 c8 3c 07 13 bd bc
       -0.08031848 0.0571505 0.024492146 -0.023080362

l4.bias f4 [256]
000000 02 99 6f 3d bb b2 41 be fa 90 8a 3e 58 19 09 3a
       0.05849553 -0.18915837 0.27063733 0.0005229912
000010 84 4c 1e 3e e3 b9 7d be e7 47 1d be b5 c5 b0 be
       0.15458876 -0.24777941 -0.1535946 -0.34525838
000020 1f 22 36 bd 2b c9 21 bc a4 9a 8b bd 66 e3 20 be
       -0.044466134 -0.009874622 -0.06816605 -0.15711746
000030 6e 18 73 be 9a d4 53 be 10 49 1b 3c 28 82 4e 3d
       -0.23739788 -0.2068657 0.009477869 0.050417095
000040 41 85 5b bc 05 9a 91 3e 90 19 9a 3e ac bf 3e ba
       -0.013398469 0.2843782 0.30097628 -0.0007276486
000050 d3 fa c1 bd b1 a9 da bc 5d 03 8d 3d 7e bc b1 3d
       -0.09471669 -0.026692243 0.06885407 0.0867853
000060 58 1c 87 3e e9 b7 e5 bd 8e 44 a8 bd 5a 3e 83 3d
       0.26388812 -0.11216719 -0.08216201 0.06408377
000070 1f f4 89 3e 50 5a 26 3e 7d c3 19 be cb 4b 84 3e
       0.26944062 0.16245389 -0.15015979 0.25839075
000080 bc 21 fd bc 8c eb 9a bd b7 ce 58 3e f3 ea 0e be
       -0.030899875 -0.07564458 0.21172605 -0.13956814
000090 2d 1f 91 3e c0 a7 1f be e8 1b 08 3e 7b de fc 3d
       0.28344098 -0.15591335 0.13291895 0.12347122
0000a0 99 b1 dd bd 33 8b 62 3d 59 04 89 be ab c8 87 3e
       -0.1082489 0.055308532 -0.2676113 0.26520285
0000b0 d7 1b 37 3e d8 c7 46 3e 90 2a 8d 3d a8 a0 dc bd
       0.17881714 0.19412172 0.06892884 -0.1077283
0000c0 70 ab 85 bd be 16 8d 3d eb 34 4b be a3 73 8b be
       -0.0652684 0.06889103 -0.19844405 -0.2723666
0000d0 c5 b4 6c 3c 56 03 47 3d a8 bb 1a 3d 27 c3 62 3d
       0.014447396 0.048587166 0.03777662 0.055361893
0000e0 96 82 47 be f6 fd 6e bd 22 3c 58 bd b9 4e cc 3d
       -0.19483408 -0.058347665 -0.052791722 0.09975953
0000f0 58 69 93 bd db 50 0a 3e 90 28 83 be ab 91 ae 3d
       -0.07197827 0.13507406 -0.25616884 0.08523878
000100 74 cd d5 bd bf ef 06 3d 57 a8 a5 3d b5 bd 61 3e
       -0.10439578 0.032943483 0.08088749 0.22045024
000110 4f 9c c0 bd 24 00 84 3e 2b a9 a9 3e 96 94 28 be
       -0.094048135 0.25781357 0.33136877 -0.16462931
000120 63 88 da be d9 14 59 3e 3b bf a6 3e 4d 8f 50 be
       -0.4268218 0.21199359 0.32567772 -0.20367165
000130 a3 0d 1e 3d a6 90 62 3e c6 9c 1e be 46 c3 6c be
       0.038587224 0.22125491 -0.15489492 -0.23121366
000140 a8 59 93 3c 9a 5c 02 bd 31 03 84 3d 2e 17 ee bd
       0.017987087 -0.031826593 0.06445921 -0.11625515
000150 0e 81 5f be 8d 51 16 bc c9 6c 1c 3e dc fb 74 bd
       -0.21826574 -0.009174717 0.15275873 -0.059810504
000160 3b c6 20 3d 6e 2b 5a be d7 d5 15 bd 78 ec d6 3d
       0.039251547 -0.2130563 -0.036580887 0.104943216
000170 22 47 dc 3d 6b bd af 3d 4b 67 89 be a8 21 ec bd
       0.10755755 0.085810505 -0.2683662 -0.11529857
000180 98 cc b3 be e3 4b c9 3d 25 4c 90 3c d8 4b 3f bd
       -0.3511703 0.09828927 0.017614434 -0.04670319
000190 60 51 0c be 89 b9 9a 3e d5 85 2a 3e a1 68 f9 bd
       -0.13702917 0.30219677 0.16652615 -0.121781595
0001a0 6e 3c 29 3e 9b e9 45 be 70 6d a8 3d 51 fe 13 bd
       0.16526958 -0.19327395 0.082239985 -0.036131207
0001b0 48 b3 0b be 77 5f 9a 3d e1 82 23 3e b6 ba a8 3d
       -0.13642609 0.0753774 0.15967895 0.08238737
0001c0 58 9d b2 3d 0c 51 73 3e 27 b3 ac 3e a6 c0 e5 bb
       0.08721417 0.23761386 0.33730432 -0.007011491
0001d0 b0 aa 61 be 7f 77 21 3e 16 91 d9 be 23 f7 ce 3d
       -0.22037768 0.1576824 -0.42493504 0.10105731
0001e0 a9 7e af bc 4c 47 64 be 82 f5 ae 3d d2 02 3d be
       -0.021422701 -0.22292823 0.08542921 -0.18458107
0001f0 a6 b4 c1 3e 47 0a 85 3e 79 f4 84 3e d6 a6 b9 3d
       0.37833136 0.25984403 0.25967768 0.090650246
000200 bb 4c ed bd bf 3f 83 bd 11 f2 e3 bd f2 1c 87 be
       -0.11586901 -0.06408643 -0.11130155 -0.2638927
000210 b8 d1 d0 bd 10 52 b2 bd 18 fa 08 3e 1c 04 8c bd
       -0.10196251 -0.087070584 0.13376653 -0.06836721
000220 58 5b b8 3c af 25 f4 bd 0c 4d 2c 3e 3b 3e 4a bd
       0.022504494 -0.1192125 0.16826266 -0.049375754
000230 dc d1 11 3e 37 6d 1b 3e 64 40 4e 3d 36 87 45 be
       0.14240211 0.15178381 0.050354376 -0.1928986
000240 16 75 9b 3e ad ef 3c 3e 77 5b 75 be eb b5 0d be
       0.30362767 0.18450804 -0.23960672 -0.13838927
000250 2d 92 91 3c 6d f7 ac 3d ef 38 88 3e 4f 08 7b 3e
       0.017769897 0.0844563 0.26605937 0.24514888
000260 c6 19 cf 3e 62 87 e6 bd 1d 93 fa bd fc e9 bf be
       0.4044935 -0.11256291 -0.12235091 -0.37483203
000270 ca 5f 50 3e 0b 13 4a be ef 66 c6 be 3f 11 dc bc
       0.2034904 -0.19733827 -0.38750407 -0.026863692
000280 28 6a 70 3e 42 95 36 3d a8 01 03 be 6f c1 1c 3e
       0.23477995 0.044575937 -0.127936 0.15308164
000290 00 62 12 3e 1d 06 58 bd fe d7 f5 3c 76 44 d0 3d
       0.14295197 -0.052740205 0.03001022 0.10169308
0002a0 37 a4 92 3e e9 f1 10 3e 1c d0 ae 3e 0c 66 5e 3d
       0.2864091 0.14154781 0.3414315 0.05429654
0002b0 c0 5e cc be 3a 3d 94 3e 0a 07 6b be 40 b2 d3 3d
       -0.3991604 0.28952962 -0.22951904 0.10336733
0002c0 94 81 ec 3d e4 cc 47 3e 74 1a 93 bd e1 7f 94 3d
       0.115481526 0.19511753 -0.0718278 0.072509535
0002d0 17 52 92 3e 84 a3 7e 3e ef 47 89 3e 2f 36 bf 3c
       0.28578255 0.24867064 0.26812693 0.023341266
0002e0 40 7b 66 3e f8 f3 6c be 78 98 0b bc 26 f8 2f bc
       0.22507954 -0.23139942 -0.008520238 -0.010740316
0002f0 13 c6 de bd 1b e5 fe 3c ba 04 79 be 0f d4 b1 be
       -0.108776234 0.031115105 -0.2431821 -0.347321
000300 40 02 4e be 8a d5 43 be ef 7f 11 be c8 84 7c 3e
       -0.20118046 -0.19124427 -0.14208959 0.24660027
000310 b2 6b 10 3e 0a e3 74 bd 09 8c fe bc 12 73 bc be
       0.14103583 -0.059786834 -0.031072633 -0.36806542
000320 72 ec e2 3c b4 ec a7 bd 13 90 6a bd 67 f3 6c be
       0.027700637 -0.081994444 -0.057266306 -0.23139726
000330 cd 26 95 be 9c 0b 84 3e 14 84 c1 3d 46 80 49 bd
       -0.29131165 0.25790107 0.0944902 -0.049194597
000340 be 53 a4 bd ef 41 65 3e c2 76 60 3e e9 73 4c bd
       -0.08023785 0.22388433 0.21920303 -0.049915228
000350 a3 fc 00 bd 80 e8 37 be 14 ba 11 3e 33 a1 23 3e
       -0.031490933 -0.17959785 0.1423114 0.15979461
000360 dd 10 0d 3e 21 dc 43 3e 6c 61 1e 3c f8 b7 6e 3e
       0.13775964 0.19126941 0.009666782 0.23312366
000370 21 d2 8b be 98 dc e6 3c f7 59 04 3e 17 6c 44 3d
       -0.27308753 0.02818136 0.12924944 0.047954645
000380 29 fc 15 3e a5 3a 73 3e f2 7a 6c be e2 e1 93 3e
       0.14646973 0.2375284 -0.23093775 0.28883272
000390 b0 a1 c7 bd 20 03 8a 3c e3 3a 3a 3e bb ee c7 bd
       -0.09747636 0.016847193 0.18186526 -0.09762331
0003a0 fd bb 2a be 06 e6 ee bd a9 89 2e 3e 46 6f 35 bc
       -0.16673274 -0.11664967 0.170447 -0.011073893
0003b0 f9 74 ab 3a 2b a0 66 bc 6d bb a2 3d 37 1b 8c bc
       0.0013081125 -0.014076273 0.07945905 -0.01710282
0003c0 f6 43 b8 3e 5e 95 8a 3e dc 4c ce 3d 00 96 c4 be
       0.3598935 0.27067083 0.100732535 -0.3839569
0003d0 ce 80 8f bc 51 53 89 3e f9 02 ae be 47 29 6f 3e
       -0.017517474 0.26821378 -0.33986643 0.2335559
0003e0 db 3f 85 3e 18 df c1 3e 11 a2 02 bd 13 f8 73 be
       0.2602528 0.3786552 -0.03189284 -0.23825102
0003f0 1f a3 8e 3e fe c0 3e 3e 7a 05 d1 be 34 5a f5 be
       0.27858827 0.18628308 -0.4082449 -0.47920382
