part1/td3_q4/Half/HalfCheetahBulletEnv-v0_TD3_2_1638194165_td3.pth (torch, 898095 bytes, 16 tensors)

l1.weight f4 [256, 32]
000000 b3 b2 b3 3f 1e 9c 27 3e 18 5f 5f 3e dd 77 c9 bd
       1.403891 0.16368148 0.21813619 -0.09837315
000010 7b 59 59 3d 3c df d1 3e 5b 0c 1b 3d d0 b5 50 3f
       0.05306385 0.40990627 0.03785358 0.81527424
000020 dc a2 eb be c2 46 fe 3d 15 0a de bc b0 ea 42 3e
       -0.4602269 0.1241584 -0.027104417 0.19034839
000030 a8 c2 8a 3d d1 64 b4 3c ba 85 0d bf 87 df 10 3e
       0.06775409 0.02202073 -0.55282176 0.14147769
000040 3c e7 5b bd 8c 55 de 3d 3b 7f 07 bf 3b 93 00 3d
       -0.05368732 0.108561605 -0.52928513 0.03139041
000050 56 5c 6c bd df 1a 22 bd bf 37 78 bd 8f 08 44 bc
       -0.057705246 -0.039576408 -0.06060004 -0.011964931
000060 06 92 15 bf ee 66 19 3e 88 43 1e bc cc f4 0d 3d
       -0.5842594 0.14980671 -0.009659655 0.034657285
000070 71 a7 82 3c 15 b8 dc bc e7 20 3c 3b 1e 15 29 bd
       0.015948983 -0.026943246 0.0028706135 -0.041279905
000080 be 3a 5d 3f e7 fa 25 be f4 0e 18 be 50 c5 a3 bc
       0.8641776 -0.16208993 -0.14849454 -0.019991547
000090 52 2c f5 3d 05 7f 86 3f 79 a0 30 be f6 92 da 3d
       0.11971344 1.0507513 -0.17248715 0.10672562
0000a0 30 ca ea bd fc 92 82 3e e2 92 8f be c3 e1 18 3e
       -0.114643455 0.25502765 -0.2804175 0.14929871
0000b0 f0 41 d5 3d 02 38 8e 3e 00 a1 02 3e 9b 87 f7 3d
       0.10412967 0.27777106 0.12756729 0.120864116
0000c0 e1 89 55 3e db 21 3b 3e 55 5d ef 3d b0 49 e0 bc
       0.20853378 0.18274634 0.116877235 -0.027378887
0000d0 2d 3c 2e 3e 01 6b bf 3d 4e 7c 7e bd bf 0f 3b bd
       0.17015143 0.09346581 -0.062130265 -0.045669314
0000e0 df 57 8a be dd 50 08 3f d9 60 d5 ba cd b3 03 3e
       -0.27020165 0.5324839 -0.0016279473 0.12861557
0000f0 61 1d 75 3d bf ae ed bd 7e 5a 15 3e e3 e3 be bd
       0.05984247 -0.11605596 0.14585301 -0.0932081
000100 ad d1 56 bf dc 5a 23 3e 17 16 53 be 0a 29 9d 3d
       -0.8391369 0.15952629 -0.20613895 0.07673843
000110 cb aa 0d 3e 8b 03 a0 3c 1f 89 ee bc 2f 34 8d 3f
       0.13834684 0.01953294 -0.029118119 1.103155
000120 f7 d2 97 be e4 3b f4 3e 48 da 36 be 59 9b 4e 3e
       -0.2965314 0.47701943 -0.17856705 0.20176448
000130 f5 35 69 be 44 04 59 be 19 fc 4f 3e 2b cd c6 3e
       -0.22774489 -0.21193033 0.20311011 0.38828406
000140 cf 0f 52 3c 4c ad 7e 3e a5 83 1c bf dc 44 87 3d
       0.012821152 0.24870795 -0.61138374 0.06604931
000150 cb 55 87 be 23 ec a2 be 0c dc 48 3e 5e 33 b1 be
       -0.26432642 -0.31820783 0.19615191 -0.34609503
000160 a9 94 a1 bf 6b 33 07 bf 61 8e 90 3d be 99 cc 3c
       -1.2623492 -0.5281283 0.070584066 0.024975654
000170 b5 e7 19 bd 6c 4a 03 be 3e 39 4a bc 62 aa 48 bd
       -0.03757449 -0.12821358 -0.012342749 -0.048990615
000180 00 ed d6 bf 14 fa 88 3d c2 27 d8 be e9 4b 1e bd
       -1.6791077 0.066883236 -0.42217833 -0.038646612
000190 86 f9 56 bd f3 d9 3f bf f4 78 25 3e 89 64 94 3b
       -0.052484058 -0.7494194 0.16159421 0.0045285863
0001a0 a2 57 88 be f0 93 11 3f 98 5d e4 3d b6 fc 4b 3e
       -0.2662936 0.5686636 0.11150664 0.1992062
0001b0 73 bb 77 bc ac 5d a2 3c 37 72 a7 be e6 13 6b be
       -0.015120375 0.019820057 -0.32704327 -0.2295681
0001c0 34 6c e5 3e 55 f3 a4 bd d1 31 a5 3e 24 04 6a 3c
       0.44809115 -0.080542244 0.3226457 0.014283214
0001d0 d4 7e 58 3d 25 c3 b7 3d 4a 1e 6f be 05 2e 99 bd
       0.052855328 0.08972768 -0.23351398 -0.07479481
0001e0 c7 95 fd be 87 ac db 3e 1e 1f 98 3d 0f df a0 3c
       -0.49528334 0.42905065 0.0742781 0.019637613
0001f0 2f 53 07 bd d1 34 aa 3d 40 a9 8b b9 e4 fa cd ba
       -0.033038314 0.08310855 -0.00026638247 -0.001571503
000200 37 b7 5e 3f c8 ab d7 3c 20 e7 65 bd 83 b1 ac 3c
       0.86998314 0.026327029 -0.05612862 0.021080738
000210 e5 c5 2b 3e b1 83 2d be 63 a2 7d bd d6 13 bc be
       0.1677471 -0.16944768 -0.061922442 -0.36733884
000220 06 87 82 bd e3 82 f9 bd bc 53 9c bd ca d3 23 3e
       -0.0637341 -0.12183168 -0.076331586 0.1599876
000230 44 ed 9b 3a 90 a1 b1 bd a9 8b 86 3e 53 31 ee 3e
       0.0011896272 -0.08673394 0.26278427 0.46522006
000240 f6 fc 03 3e b0 d6 84 3e 07 9b 7a 3d ef f6 79 3e
       0.12889466 0.25945044 0.061183 0.24410604
000250 bb 32 d5 3d 36 e0 f4 3c d5 5a 96 bb 70 b3 dc bd
       0.10410067 0.029892068 -0.0045884647 -0.107764125
000260 9b f4 a8 be d6 34 cf 3d 0c 53 d2 3c 64 fb a6 3d
       -0.3299912 0.101174995 0.025674365 0.08153418
000270 a2 a1 8a 3d 24 13 34 be c7 99 c7 bd 55 2f 8f 3d
       0.0676911 -0.17585427 -0.097461276 0.0699145
000280 00 4e c7 be 6b 3f 1d 3e b9 7d 35 bd 4c 6e 09 3f
       -0.38926697 0.15356223 -0.04430935 0.53683925
000290 e3 40 a2 bd 14 bc a4 bf 32 aa 49 3d 8c 09 50 3e
       -0.079225324 -1.2869897 0.049234577 0.20316142
0002a0 f7 2c d8 3e 87 70 ac 3e 45 0b ed 3e 0c 21 ec 3e
       0.42221805 0.33679602 0.4629766 0.46118963
0002b0 ed bf 5f bd bc 32 27 3e 1d ea 76 bc 1b ab 9f be
       -0.054626394 0.16327947 -0.015070465 -0.3118523
0002c0 4d 8a 96 be 3e 88 27 be 17 27 21 be 3c a2 86 3d
       -0.2940239 -0.16360566 -0.15737568 0.065739125
0002d0 dc 90 2a 3e e2 c6 29 be 37 6e 15 3e 17 f8 26 3e
       0.16656822 -0.16579774 0.14592825 0.16305576
0002e0 b2 04 1e bd 9d 0f bb be a7 ee 1c 3c 6d d1 47 3e
       -0.038578697 -0.3653535 0.0095783835 0.19513483
0002f0 5e b8 67 bd 8a c1 8f 3d 32 40 83 3b 86 02 14 be
       -0.05657231 0.070193365 0.0040054554 -0.14454088
000300 56 d7 fe 3e b6 0d e1 bd ef cb 08 be 45 c3 46 3f
       0.49773663 -0.10988943 -0.13359044 0.7764171
000310 69 4d 18 3e 62 43 b7 be 97 09 a8 bd 23 90 a9 3f
       0.1487328 -0.35793597 -0.08204954 1.3247112
000320 d3 20 9f 3d 34 91 9d bd c7 32 df 3d fc 9c 25 3d
       0.077699326 -0.07693711 0.10898357 0.040432915
000330 28 94 ea bc 7c 56 11 bd c4 49 98 be a6 8a 02 3f
       -0.0286351 -0.03548287 -0.2974378 0.5099281
000340 17 7d 2d 3d 50 78 98 3e 8c f7 20 3e f9 63 14 3d
       0.042355623 0.2977929 0.15719432 0.036228154
000350 d6 7d 55 3d c3 d5 26 3e 16 80 6f bd 61 55 5a 3e
       0.05212196 0.16292481 -0.05847176 0.21321632
000360 de bf 17 3f e6 f7 1f be 88 ed be bc c5 38 55 3d
       0.5927714 -0.1562191 -0.023306623 0.052056093
000370 ed f4 e8 bd 68 2a 5a 3c 87 a9 5e 3d 39 0b 9e bd
       -0.11374841 0.0133157745 0.054360893 -0.07716984
000380 8f 3e ef 3c 12 c4 2d 3e e4 f2 a4 be 63 77 ad 3e
       0.029204635 0.16969326 -0.3221656 0.33880147
000390 0a 6c fb bc 64 f6 b8 3e 32 93 04 3e bd 65 80 3e
       -0.030691165 0.3612548 0.12946776 0.2507762
0003a0 c4 45 cc 3e 47 af 32 3e 7f c8 4f 3e 27 c3 ac 3e
       0.39896977 0.17449676 0.20291327 0.3374264
0003b0 55 9f 26 3e 9f b8 c9 3c 6c 62 b9 3e 06 d5 52 3f
       0.16271718 0.024624167 0.36207902 0.823563
0003c0 24 7b d3 3e 55 5e a5 3e a7 a5 43 bf 6f ea 8e bd
       0.41304886 0.32298532 -0.7642464 -0.069783084
0003d0 de 44 39 3e 0c bb e3 bd 89 f1 24 bf 2f 90 77 bd
       0.18092677 -0.11119661 -0.64431053 -0.06044024
0003e0 c3 8f a7 3e c3 a9 b9 be 43 8a d4 3d bc e4 ce bc
       0.3272687 -0.3626233 0.10377934 -0.025255553
0003f0 d4 bd a7 3d 88 c8 63 3d 85 f9 fc 3c 1c b2 2c 3e
       0.08190504 0.055611163 0.030880699 0.16864818

l1.bias f4 [256]
000000 05 d0 8d 3e b7 81 3f bd f7 36 61 be e9 fc 6e be
       0.2769777 -0.046754565 -0.21993624 -0.23338665
000010 e5 f5 3a 3e 26 8f 50 3d 38 df 44 be f1 dd 82 be
       0.18257864 0.050917767 -0.19225776 -0.25559953
000020 1a 9d 02 bc 85 84 fa be 8f 2c 57 be bf 2a 05 be
       -0.007972026 -0.4892923 -0.21013092 -0.13004588
000030 fb a2 d7 be f3 09 9c be ef 76 9c 3e 1e 66 83 3e
       -0.42116532 -0.3047634 0.3055949 0.25663847
000040 f7 ae c1 be 8c 80 11 bf 47 b4 4b be 31 96 19 bd
       -0.378288 -0.5683677 -0.19892989 -0.03749675
000050 2b f3 c3 3e e2 9a 02 3e f6 75 b7 bd 0d 91 41 be
       0.3827146 0.12754396 -0.08958046 -0.18902989
000060 80 89 1e be 89 ea c8 be 80 33 93 be 85 3c c3 be
       -0.1548214 -0.39241436 -0.2875023 -0.3813211
000070 15 44 d0 3e 6a c2 73 be 3c 07 a0 be c2 7e a4 bd
       0.40676942 -0.23804632 -0.3125552 -0.0803199
000080 a4 2a c0 3d 60 84 c3 3d cb 3d c4 be cb 6b bb be
       0.09383133 0.09546733 -0.38328394 -0.36605677
000090 d1 5d 7c bd cd ef 86 be 7b 50 2b 3d 03 b5 25 3e
       -0.061612908 -0.26354828 0.0418248 0.16182332
0000a0 40 3f 59 be b2 3d c1 3e 73 dd a9 be 70 c6 9b 3e
       -0.21215534 0.37742382 -0.33176765 0.30424833
0000b0 a5 6f d8 bd a5 25 34 3e 7a 08 91 3e 81 87 bc 3e
       -0.105681695 0.17592485 0.2832678 0.3682213
0000c0 ee 99 39 be d2 d2 02 bf 1e a6 2d 3e a6 3c c7 bd
       -0.18125126 -0.51102936 0.169579 -0.09728365
0000d0 83 d8 0d 3f 1d 7d 15 be d7 a3 44 3e 31 93 1e 3d
       0.55408496 -0.14598508 0.19203125 0.03871459
0000e0 cb 5b 35 be b0 dc c3 be e4 94 0f bf ee 37 32 3e
       -0.17710797 -0.3825431 -0.56086564 0.17404148
0000f0 24 c4 ca bd 99 64 ca be 9e 8e a1 be 1d b8 3d be
       -0.09900692 -0.39529875 -0.3155412 -0.18527265
000100 4c 11 05 3d 61 fd 9e be 9f 88 33 be c5 39 43 be
       0.0324872 -0.31052688 -0.17532586 -0.19065006
000110 d3 49 1f bf 0a e8 c4 3b 5a a6 aa be e9 86 02 3d
       -0.6222202 0.0060091065 -0.3333004 0.03186694
000120 8f 66 b5 bd 0e 02 23 3d a6 d3 9b bc 31 53 ab be
       -0.08857452 0.03979688 -0.01902182 -0.33461908
000130 65 a8 8e be 27 c1 ae 3d 6f 96 b5 be bc d0 40 be
       -0.2786285 0.08532935 -0.35466334 -0.18829626
000140 b5 aa 12 bd 70 75 0a 3e 25 32 5f be 5c 58 48 be
       -0.03580733 0.13521361 -0.21796472 -0.19564956
000150 4a 70 e8 be 55 13 bd bd b8 46 8c 3e a5 9e 45 3e
       -0.4539817 -0.09232203 0.27397704 0.192988
000160 15 37 c3 3e 06 c2 28 bf 48 7f 26 3d 9c 72 a0 be
       0.38127962 -0.65921056 0.04064873 -0.3133744
000170 cb 70 b8 be 48 ba 8a be f6 72 29 be b7 34 16 3f
       -0.36023554 -0.27095246 -0.1654776 0.58674186
000180 bf 8a 42 be cf 34 f3 be 23 00 dc bd 34 6d 9a bd
       -0.1899824 -0.47501227 -0.107422136 -0.0754036
000190 f6 8c d1 bd 21 f6 31 be 46 bf 95 be b0 58 99 3e
       -0.10231964 -0.17379047 -0.29247493 0.29950476
0001a0 2a 5f 91 3d 30 54 d3 3e aa b8 a4 bd aa 8e f8 be
       0.07098229 0.41275167 -0.080430344 -0.48546344
0001b0 8f 32 fc be 40 e6 fa bd 4a 80 c5 be 92 fe 52 3b
       -0.49257323 -0.12250948 -0.3857444 0.0032195193
0001c0 c1 a3 fb 3c bd 72 1f 3e 8f d9 b5 be 54 c8 3c be
       0.030717732 0.15571113 -0.35517547 -0.18435794
0001d0 98 7b 16 bf ba 1d 2e bc e0 50 7c 3d 35 85 25 bf
       -0.5878234 -0.010627205 0.061600566 -0.6465638
0001e0 35 a1 a2 be e0 02 ba be 32 57 2e be e5 6a 68 be
       -0.31763616 -0.36330318 -0.1702545 -0.22697027
0001f0 51 61 e7 bd bc a8 9a be 37 1f 3a be cd 2d 69 3e
       -0.112978585 -0.3020686 -0.1817597 0.22771378
000200 aa 75 33 be b5 70 e2 bd ab 62 87 3d b9 51 63 bd
       -0.17525354 -0.110566534 0.06610616 -0.05549786
000210 97 60 f2 3e 5e 4b e6 bd b0 5a 9a be 51 1d de 3d
       0.47339317 -0.11244844 -0.30147314 0.108454354
000220 16 00 90 be c0 6c 0b 3e e9 bb ee be 82 58 34 3e
       -0.28125066 0.13615704 -0.4662774 0.17611888
000230 d7 bc 5a be 41 78 cd be 4b 4e 2f be a2 8a 2d be
       -0.21361099 -0.4013081 -0.1711971 -0.16947415
000240 14 d3 22 be 8d 13 f5 bd ff 54 ec 3e 16 93 db be
       -0.15900832 -0.1196662 0.46158597 -0.42885655
000250 d7 f5 7f 3d 6b 4c 1f bf 1c 78 33 be a6 bf 9e be
       0.06249031 -0.6222598 -0.17526287 -0.3100559
000260 14 a4 b3 3e 94 7a 60 3c d1 73 9e bb 84 bb 0f bd
       0.3508612 0.0137011 -0.0048355837 -0.03509094
000270 e1 73 4c 3d 34 46 cd 3d d8 12 be bd 36 96 78 be
       0.0499152 0.10023156 -0.09280938 -0.24276051
000280 3c 89 2e be 52 1f 86 3e 97 01 94 be 5f ef 46 3e
       -0.17044538 0.2619577 -0.28907463 0.1942725
000290 58 97 d7 bd c3 9d cb bd cf 6f 9b 3e 53 d9 a8 3c
       -0.105269134 -0.099422 0.3035874 0.02061144
0002a0 97 2f 2c 3e 3c 03 02 bd b1 e5 9c be cf 2b cc bd
       0.16815029 -0.031741366 -0.3064399 -0.09969293
0002b0 88 b0 1e be 48 ae a9 3e ff e8 1f be 49 b8 f5 be
       -0.15497029 0.3314078 -0.15616225 -0.4799216
0002c0 c7 a0 96 bd e1 25 4a 3e 05 50 b0 3e a7 70 d9 bd
       -0.073548846 0.19741012 0.3443605 -0.1061719
0002d0 06 c9 0d 3e 90 c5 b4 be db c4 88 be 76 6b e0 be
       0.13846216 -0.35306978 -0.2671269 -0.43831986
0002e0 09 92 ce 3d e7 16 3b 3c ff ca ed 3d 7c b9 c0 be
       0.10086448 0.011419035 0.11610984 -0.37641513
0002f0 1a 7e a8 3d 1a 52 9a be 46 d8 74 3e 02 39 1d bd
       0.08227177 -0.30140764 0.23910627 -0.038384445
000300 80 3a 65 be 8d 2a ef bd 67 14 50 be b3 bd 8f be
       -0.22385597 -0.11678038 -0.20320283 -0.28074417
000310 d6 15 a8 3e ca d5 2f bf 59 bb 64 3e 49 35 06 be
       0.3282916 -0.6868559 0.22337092 -0.13106264
000320 9b 7e bd bd 62 a7 74 3e cb fc 36 be 22 06 9e 3e
       -0.09252664 0.23891976 -0.1786987 0.30864054
000330 b3 88 3d bc f6 94 b2 be 3e a0 84 bd 3d 71 99 be
       -0.011568236 -0.34879273 -0.06475876 -0.29969206
000340 d4 64 10 bd 4b 43 03 3f e0 d0 c9 3e 66 40 48 be
       -0.035252407 0.51274556 0.3941717 -0.19555816
000350 ba 55 99 bc ba 04 ab be ef 6d d1 bb 97 bf 85 be
       -0.018717635 -0.33402044 -0.006391279 -0.26122734
000360 28 d0 ce 3e 97 77 41 3e ca 52 a5 3e 00 f8 0e 3d
       0.40393186 0.18893276 0.32289726 0.03490448
000370 20 0f e5 bc 50 bc 6e 3e fe 1f d8 be a9 22 b0 bc
       -0.027961314 0.23314023 -0.42211908 -0.021500902
000380 25 48 10 3f ca 10 85 3d b1 90 9b 3d b8 91 73 be
       0.56360084 0.06497343 0.07595957 -0.23786056
000390 68 48 b7 bb 5d 94 63 be ef 69 92 be 54 60 72 be
       -0.0055933483 -0.22224565 -0.28596446 -0.23669559
0003a0 bb 5f 58 bd 02 a0 17 be 13 08 8a 3d 8d 83 04 3f
       -0.05282567 -0.14807132 0.06739821 0.5176323
0003b0 1d 4c e9 be 5e 28 78 bd e8 48 c0 be e0 15 73 be
       -0.45565882 -0.060585372 -0.37555623 -0.23738813
0003c0 fd e8 e1 be 47 5d de bd 93 1e 2a be 4c 34 0f 3d
       -0.44123068 -0.10857635 -0.16613226 0.034961984
0003d0 a8 24 26 bd dd e9 10 3e cf 14 19 bf fd f9 5d 3d
       -0.040562302 0.14151712 -0.59797376 0.054193486
0003e0 dc 37 8f be fb fc 28 be 44 96 04 bf 6e c3 74 be
       -0.27972305 -0.16502754 -0.5179179 -0.23902676
0003f0 ab 74 f0 be 88 08 ba be 51 24 1f 3d ff 5c 85 be
       -0.4696401 -0.36334634 0.038852993 -0.26047513

l2.weight f4 [256, 256]
000000 40 75 33 bf 4e f8 15 be 60 91 81 be 46 cd b6 3d
       -0.70100784 -0.14645502 -0.25306225 0.089258716
000010 e6 2e 2f 3d b9 0f 2e bd 3e f8 b2 be 35 c2 65 3e
       0.042769335 -0.042495463 -0.3495502 0.22437365
000020 8a b6 ad bc b6 67 0c be 36 27 0c be 64 a5 f5 bd
       -0.021205205 -0.13711438 -0.13686833 -0.119944364
000030 7b 87 4c 3e b4 0e ef be 42 f1 79 bd 47 37 f6 be
       0.19973557 -0.46690905 -0.061021097 -0.48089048
000040 69 6a 30 3f b0 97 14 3c 4b 5d 17 3e 74 6b ae be
       0.6891237 0.009069368 0.14781682 -0.34066355
000050 52 6f 47 3c 38 94 4f 3e d4 a7 5f 3e 3a 09 97 3d
       0.012172537 0.20271385 0.21841365 0.07374807
000060 5c cf f3 bd 28 76 55 3d 91 68 28 3d 06 5b 82 bd
       -0.11904785 0.052114636 0.041115347 -0.063650176
000070 f6 9d 24 3e 51 55 a0 be 64 d3 b6 bd 31 e6 f0 3b
       0.16075882 -0.3131509 -0.08927038 0.0073516597
000080 22 a2 81 be 75 90 e5 bd c2 e6 90 be a1 53 2b 3c
       -0.2531901 -0.112091936 -0.28301054 0.01045695
000090 25 f8 10 3f 77 39 6e bf 26 7a 8e 3e 63 31 d1 be
       0.5662864 -0.93056434 0.27827567 -0.40857992
0000a0 d4 59 3e 3e 86 41 8e bd 73 87 3f bd 80 ce 59 be
       0.18588954 -0.06946091 -0.046760034 -0.2127018
0000b0 36 8c 67 3e 40 36 c9 3e 17 8c 55 be 20 63 fa bf
       0.2261208 0.39299202 -0.20854221 -1.95615
0000c0 01 e9 a9 3e ef 80 9e be 09 44 d3 3d e4 77 06 3e
       0.3318558 -0.30957744 0.10315711 0.13131672
0000d0 ba 33 bf bd 09 11 2f be 0f 29 38 3e 58 e0 34 be
       -0.09336038 -0.17096342 0.17984413 -0.17663705
0000e0 a6 94 a3 be a1 db 06 3e 48 aa 32 be 5c 84 10 bd
       -0.31949347 0.1316972 -0.1744777 -0.035282478
0000f0 06 38 9b be 6f 9f 36 be 67 bc 13 bf 95 ed 73 bf
       -0.3031618 -0.17834257 -0.57709354 -0.95284396
000100 4c 26 50 3d 3a 8b b3 bc 9b 0a c7 bc 4a 46 60 3c
       0.050817773 -0.021916974 -0.02429705 0.013688633
000110 33 6c 1a be ea 6a 2d c0 f2 4d ab 3e b4 4e f1 bd
       -0.15080337 -2.7096505 0.33457905 -0.117825896
000120 c2 03 1d be bc 9a 66 be 07 51 32 bd 47 e9 c6 3c
       -0.15333465 -0.22519964 -0.043534305 0.024281157
000130 7a 7e 92 3e 30 be d9 3e 3c 05 b6 3d 58 c5 47 3a
       0.2861212 0.42527914 0.08887717 0.0007620654
000140 a8 97 c1 be 62 9c 88 be ed ab 5e 3e 6f 47 7f 3d
       -0.37811017 -0.2668181 0.21745272 0.062323984
000150 59 a1 21 3f 21 5c b5 3c 3b ea 89 bf fc 41 e9 bd
       0.6313682 0.022138657 -1.0774606 -0.11389539
000160 e3 1f f2 be 76 b7 da bd 62 18 d8 3c cf ee 84 3e
       -0.47289953 -0.10679524 0.026378814 0.25963446
000170 3e 3f 92 3e 10 8b cf be 3e e8 1b 3e 2c 0a b6 3d
       0.28563875 -0.40535784 0.15225312 0.08888659
000180 32 35 50 3e 2e 66 b5 be e8 9e af be c9 37 2d 3f
       0.20332792 -0.3542952 -0.34300923 0.67663246
000190 f4 bd d9 3a de 97 2d 3e 28 79 2c be 94 ae 49 3e
       0.0016612397 0.16952464 -0.16843092 0.19695503
0001a0 fc 1d 2a 3d 29 b8 f1 3d 21 42 5c bd a8 ac a5 be
       0.0415325 0.11802704 -0.053774003 -0.3235829
0001b0 16 a6 e8 3e 5a 06 8d be 16 cc 94 3d 95 a2 88 3d
       0.45439214 -0.27543908 0.07265489 0.06671635
0001c0 54 89 18 bf b6 56 c2 bd 5c 11 a4 3e 12 e9 01 bf
       -0.59584546 -0.09489195 0.32044494 -0.5074626
0001d0 55 da bb 3e 49 8a f2 be 2b 9d d1 be e1 4c 81 be
       0.36690012 -0.47371128 -0.40940222 -0.25253966
0001e0 bb 9a 58 3f 3d 06 fe 3e 16 3a 3d bd 91 34 5e bf
       0.846111 0.49614134 -0.046197973 -0.8679896
0001f0 c9 3f c3 be ec 60 ac bf 84 47 0d 3e 98 aa 8c 3e
       -0.38134602 -1.3467078 0.13796812 0.27473903
000200 69 bb a4 3e de fa 5f 3e ee 2c c6 3e a0 a9 6f 3e
       0.32174233 0.21873042 0.38706154 0.2340455
000210 a6 09 1e be 58 e4 93 be f6 b1 cd be 62 3f a1 3e
       -0.15433368 -0.2888515 -0.40174836 0.3149367
000220 84 32 a7 be 51 26 13 bf 0a a0 86 bd 9a f8 4e bf
       -0.32655728 -0.5748034 -0.06573494 -0.80848086
000230 4d 6c bc 3d 1e 91 fb be 4c 93 c7 3e 6b 6e 01 3f
       0.09200344 -0.49134153 0.38979566 0.5055911
000240 bc 2f e7 bf 65 6a cc bd 10 85 0a bd 1a f6 bf 3e
       -1.8061442 -0.09981231 -0.033818305 0.37492448
000250 f7 d9 85 3d a4 47 d0 3d 8d f6 fc 3c d2 c7 87 3d
       0.06535714 0.10169914 0.030879283 0.066299096
000260 99 71 ac 3d 42 51 7b be 2f 41 d7 be ce 66 78 be
       0.084201045 -0.24542716 -0.4204192 -0.24257967
000270 f1 bf 24 bd b0 4f b6 be 51 4f 31 bf 6a df b9 3e
       -0.040222112 -0.35607672 -0.6926165 0.36303264
000280 be e0 fc be f4 fa 81 be a0 ab d5 be 4d a7 69 bf
       -0.49390215 -0.25386775 -0.41732502 -0.91270906
000290 9a 9c 97 be 3c 3d 4c bf 0f 7b 11 3f 8e 2a 93 3d
       -0.29611665 -0.79780936 0.568284 0.07185851
0002a0 2d 55 99 3e fa 1e d4 3e a4 b4 b0 bd 1f ae 8d 3e
       0.29947796 0.41429883 -0.086282045 0.27671906
0002b0 ee 74 ef be d9 33 aa be 46 89 65 be 74 08 a5 bd
       -0.46768898 -0.33242682 -0.22415647 -0.08058253
0002c0 bf 7c 21 bd 37 98 6a 3e d1 96 8b 3c 6a dc 2e bf
       -0.039425608 0.22909628 0.017039688 -0.68305075
0002d0 01 1e 88 be a0 b0 46 be b9 09 86 be 1e b6 2a bd
       -0.2658539 -0.19403315 -0.26179293 -0.041677587
0002e0 c8 06 20 3f a4 70 7f 3e 70 a7 96 3e f1 1f b3 3e
       0.6251035 0.24945313 0.2942462 0.34985307
0002f0 ca 87 30 3c 8b e7 88 bf a8 b1 94 3e dd 57 89 3e
       0.010774562 -1.0695661 0.2904179 0.26824847
000300 40 9a fa be d8 85 07 3e cc 22 fd 3d a1 fd ee 3d
       -0.48945808 0.13234651 0.123601526 0.116694696
000310 12 27 a0 3e 9f 78 9b bd 5b 1a 1b be 8d 41 0f bf
       0.31279808 -0.07591366 -0.15146773 -0.559594
000320 ea 47 d4 be e7 40 0f be 86 5d 1a 3e 67 ee d2 bd
       -0.41461116 -0.13989602 0.15074739 -0.10299378
000330 d3 b3 ab bc 0b e8 96 3e 08 40 b7 be 5c 07 b2 bd
       -0.02095977 0.2947391 -0.3579104 -0.0869281
000340 e1 ac b2 bd 52 be f9 be b2 c9 61 3e a3 59 23 3e
       -0.0872438 -0.48778015 0.22049597 0.15952162
000350 7b b5 c1 3e 3e 74 18 bf fd 02 e0 3e e4 2a 72 be
       0.3783377 -0.5955237 0.4375228 -0.23649174
000360 93 dd 9d 3d 71 5c 02 3f b6 a3 c6 bd 65 41 62 3e
       0.077082776 0.50922304 -0.09699194 0.22095259
000370 9e 20 1a bf b5 7a aa bd c2 94 de 3a 27 f1 44 3e
       -0.6020602 -0.08324186 0.0016981589 0.19232617
000380 f6 db 98 be dc 08 1c bf e2 c0 6c 3c 5d 42 12 3f
       -0.29855317 -0.6095102 0.014450284 0.5713251
000390 13 ae bc 3d 5f 01 a9 be bf d7 d2 be d5 9b 40 bf
       0.092128895 -0.3300886 -0.41180226 -0.7523778
0003a0 ac 65 89 be e6 61 6c 3e 79 97 21 bf 02 68 5d 3d
       -0.26835382 0.2308422 -0.63121754 0.054054268
0003b0 69 25 f0 bd c3 b9 95 3e d5 7c 02 bd 9a 5e fa be
       -0.117258854 0.29243287 -0.03185733 -0.489003
0003c0 c5 93 c7 3e aa 43 4c 3f 63 a1 47 3e 22 cd 86 be
       0.38979927 0.7979075 0.19495158 -0.2632838
0003d0 c6 72 c6 3e 56 f4 28 3d 5b 67 eb bd 15 4c 8e be
       0.3875944 0.041248642 -0.11494323 -0.2779242
0003e0 fd 50 75 bd 1c 80 0a 3f 2c 85 71 3e 87 57 bb 3e
       -0.05989169 0.5410173 0.23585957 0.36590216
0003f0 dc 33 b7 bc 2d 82 d3 be a0 24 19 bf ad e4 4c be
       -0.022363596 -0.41310254 -0.5982151 -0.20009108

l2.bias f4 [256]
000000 f6 a3 93 be ee 04 03 bf 5e b1 d8 be be 3b 9e be
       -0.2883603 -0.511794 -0.4232282 -0.30904955
000010 e9 98 e6 be fa 8d 2d 3e 93 d3 fc 3e 8a 77 91 be
       -0.45038536 0.16948691 0.49380168 -0.28411514
000020 75 20 44 3e a6 84 eb be 8f ea 0f 3f 1b d6 e8 be
       0.19153006 -0.4599964 0.56217283 -0.4547585
000030 e3 01 14 bf 55 b1 cb 3e 2f ed 1c 3d fd 9f b9 be
       -0.5781538 0.3978373 0.038312133 -0.36254874
000040 1c f7 02 bf c6 d3 9a be f1 ef f9 be 93 b6 c8 be
       -0.5115831 -0.30239695 -0.48815873 -0.39201793
000050 fb b2 1b 3f e7 a4 c0 3e 44 30 d6 3e cf f3 e9 be
       0.6081998 0.3762581 0.418337 -0.45693824
000060 82 98 a9 be 4b 08 02 bf 09 7d 2b 3e 98 d9 0c 3f
       -0.33124167 -0.50793904 0.16746916 0.5501952
000070 f6 ae ca be e5 8a 06 bf 7f 8f 0c 3f a0 05 02 bf
       -0.3958661 -0.52555686 0.5490646 -0.50789833
000080 cf 44 00 bf c2 44 9f be b1 e9 fb be e4 bc aa be
       -0.50104994 -0.31107146 -0.4920173 -0.33347237
000090 2b 31 11 bf 89 c1 f5 be 33 3b 84 be 24 a8 0f 3f
       -0.5671565 -0.47999218 -0.25826415 0.5611594
0000a0 fe 8d 14 bf 77 e3 9d 3e d6 4a ff be 2e 42 dd be
       -0.5802916 0.30837604 -0.49861783 -0.43214554
0000b0 c7 51 e3 be 5d a3 ba 3e 9e 61 a1 3e 4d 96 cf be
       -0.4439833 0.3645276 0.31519789 -0.40544358
0000c0 3f 1d c0 be f8 30 02 bf 08 dc 3b 3f 47 b9 7e 3e
       -0.37522313 -0.5085597 0.73382616 0.24875365
0000d0 e4 58 a6 be 56 aa 26 3f d0 b6 ff 3e 88 26 c5 3e
       -0.32489693 0.6510366 0.49944162 0.3850596
0000e0 5f ad 07 3f d6 2c 27 3f e1 83 e0 be 52 fb ae 3e
       0.5299892 0.6530279 -0.43850616 0.34176117
0000f0 b0 ed 15 bf f2 60 12 3f fc e9 a0 be f8 82 cd be
       -0.5856581 0.57179177 -0.31428516 -0.40138984
000100 77 03 e5 be e3 4d 83 bd fa 10 f1 be 5e 48 ec 3e
       -0.44729206 -0.0641134 -0.47083265 0.46148962
000110 c0 b7 5d 3d 48 fa 9b be 46 b7 ea be f9 ea b7 be
       0.054130316 -0.30464387 -0.45842952 -0.35921457
000120 47 6c 07 bf c7 2f fe 3e 33 35 16 3f da 94 06 3f
       -0.52899593 0.49645826 0.58674926 0.5257088
000130 61 fb 19 3f c9 d8 b3 be e9 c8 d1 be 69 dc de be
       0.601492 -0.3512633 -0.40973595 -0.43527535
000140 7b bb 3b 3f 26 e4 d5 be b4 de 5a be b7 84 1a bf
       0.7333295 -0.41775626 -0.21374017 -0.60358757
000150 ff f0 03 3f 01 49 6b be 58 f3 01 bf 4b 71 bc be
       0.51539606 -0.22977068 -0.5076194 -0.36805186
000160 b5 ce 06 bf 0a aa a8 3e 9e c8 b6 3c 0a 9b da 3e
       -0.5265916 0.3294223 0.022312459 0.4269641
000170 34 d1 a8 be 3a 43 2a be 56 7e e9 3e 6e be 60 bd
       -0.3297211 -0.16627207 0.456042 -0.054869108
000180 86 b5 0c 3f 9b 2d 60 3e a1 d1 6c 3f 71 93 77 3e
       0.5496448 0.21892397 0.9250737 0.24177338
000190 50 f2 f0 3e c9 17 f7 be 00 a6 24 3e 89 d0 86 be
       0.4705987 -0.48260334 0.16078949 -0.26330975
0001a0 35 37 2d 3f 5f cd 03 bf 08 c3 f1 3e 17 2d e7 be
       0.67662364 -0.51485246 0.4721911 -0.45151588
0001b0 43 7e 09 bf 0f 58 be be df 1b fe be 2c 69 0e bf
       -0.53708285 -0.37176558 -0.4963064 -0.5562923
0001c0 09 8a 0d 3f 80 68 ef 3e 4c c9 32 3f 81 c1 04 3f
       0.5528875 0.46759415 0.69838405 0.51857764
0001d0 86 f4 cd be 74 e0 d0 be 26 a2 ca 3e 39 02 00 3f
       -0.4022562 -0.40796244 0.39576834 0.5000339
0001e0 24 03 c4 be 58 5c 09 bf 02 5d c3 be f8 f2 24 3f
       -0.38283646 -0.5365653 -0.38156897 0.6443324
0001f0 f2 ca 0d bf 06 93 d2 be 3a 30 d8 be 35 e0 f8 be
       -0.55387795 -0.41127795 -0.42224294 -0.48608556
000200 52 6d 16 3f f3 1f bf be e1 54 a9 be 12 2e 8c be
       0.5876056 -0.37329063 -0.3307257 -0.273789
000210 b3 4b ca 3e 78 f0 af 3e 76 29 a5 3e 10 20 86 be
       0.3951088 0.3436315 0.32258195 -0.26196337
000220 ef 84 2e 3f db f2 fc 3e 6d fc b5 3e 7c 48 08 be
       0.6817159 0.49404034 0.35544148 -0.133089
000230 80 82 b3 be 7e ba 30 3f 2d 8b a9 3e b0 ec 06 bf
       -0.350605 0.69034564 0.33113995 -0.52704906
000240 49 98 c0 be 20 62 bf be 3f 4e cb be 0a 67 01 bf
       -0.37616184 -0.3737955 -0.39708135 -0.5054785
000250 1d af ff be 3c 9e 27 3f 21 a8 b2 be bb e4 12 3f
       -0.49938288 0.6547582 -0.34893897 0.57380265
000260 23 f6 d7 bd c9 1b c0 be 86 c5 eb be b5 a6 16 3f
       -0.10544994 -0.37521198 -0.46049136 0.58848125
000270 43 72 cd 3e 5d 1b ea be f3 d1 13 3f cc 23 cc 3e
       0.40126237 -0.45724002 0.5774223 0.3987106
000280 55 b2 9e 3e 43 65 db 3e 33 56 c5 3d fe aa 00 3f
       0.30995432 0.42850694 0.09635582 0.50260913
000290 1a 1d b2 3e 51 ee 91 3e 13 53 04 bf c9 0e c8 be
       0.34787828 0.28502133 -0.5168926 -0.3907378
0002a0 f7 bc df be 1e 2e 38 3f d4 70 00 bf 1d ee b7 3e
       -0.43698856 0.7194537 -0.5017216 0.35923854
0002b0 b9 e5 33 be ed 19 4a 3f 1b 90 0e bf 25 c9 bc be
       -0.17568101 0.7894581 -0.5568864 -0.3687221
0002c0 f1 a8 79 3e d2 22 d2 be ef 2c aa be ed f0 89 be
       0.24380852 -0.4104219 -0.33237407 -0.26941624
0002d0 12 9b 0c bf 4f 53 92 be ff 35 f0 be bd cb 84 be
       -0.5492412 -0.28579184 -0.46916196 -0.2593669
0002e0 d1 54 90 3e 2c 59 26 3f 9e 63 0d 3f 85 e4 ea be
       0.2818971 0.64979815 0.5523013 -0.45877472
0002f0 66 f2 a0 3e fb 84 1d 3f 8e e6 0c bf 3e a0 63 3f
       0.31434935 0.6153104 -0.550393 0.88916385
000300 dc 82 ba be 69 9d c5 be 7b c7 8c be 51 82 12 bf
       -0.36427963 -0.38596657 -0.27495942 -0.572301
000310 8b 2c c7 3e 3b be ca 3e 11 f3 40 3f 03 83 02 bf
       0.3890117 0.3959826 0.7537089 -0.5098116
000320 37 0b 16 3f 42 38 c9 be 1e cf d1 be b5 30 81 3e
       0.5861086 -0.39300734 -0.4097833 0.25232473
000330 95 27 68 3f df 9a 15 3f aa f0 b9 be 49 17 6d be
       0.906854 0.5843944 -0.36316425 -0.23153414
000340 17 76 07 3f 77 ed 5a 3e 56 0f d9 be 82 bf 49 3e
       0.52914566 0.21379648 -0.42394513 0.1970196
000350 2a 1c e2 3e 55 86 f2 3e ac a4 94 be f3 a3 ee 3d
       0.44162112 0.47368112 -0.29031885 0.116523646
000360 b1 0a 9b 3e 98 01 15 3f 0e 19 c7 be ff d4 ad be
       0.30281594 0.58205557 -0.38886303 -0.33951566
000370 81 b0 f1 be d6 9b 0f bf ab 52 11 3f 91 90 fa 3e
       -0.47204974 -0.5609716 0.56766766 0.4893842
000380 6e bc a4 3e 2e 87 9c 3e b9 ab 1a bf 86 e2 c5 be
       0.3217501 0.30571884 -0.6041828 -0.38649386
000390 3f 67 e9 be ab fd 98 be 33 fd 9b 3e 9a 3f 85 be
       -0.45586583 -0.29881033 0.30466613 -0.26025087
0003a0 1e 09 03 bf 1f a2 ca be 4f 80 e3 be 9e 45 6e 3e
       -0.51185787 -0.39576814 -0.4443383 0.23268744
0003b0 7f 8a 87 3e 22 f4 52 3e 5b a8 0e bf 1a e6 fa bd
       0.26472852 0.20600942 -0.5572564 -0.1225092
0003c0 25 14 e3 be b1 cf d6 3e c8 94 b2 be d1 a4 00 bf
       -0.44351307 0.4195533 -0.34879136 -0.5025149
0003d0 f3 9d 51 3d 92 69 63 be f1 c2 6f be ee 92 21 3f
       0.051176023 -0.2220824 -0.23414208 0.6311482
0003e0 6f a4 d8 3e 51 c7 dc be e8 0f 8b 3e 71 46 00 bf
       0.42312953 -0.43120816 0.27160573 -0.50107485
0003f0 72 e9 99 be 7f 59 9d be 72 8c 03 3f 1d c2 ea 3e
       -0.30060917 -0.30732343 0.5138618 0.45851222

l3.weight f4 [1, 256]
000000 ba 0a ef bf f2 7e 2b bf e4 55 81 bf cb 52 2c bf
       -1.8675148 -0.6699058 -1.0104337 -0.6731383
000010 9b 8f 7b bf 9e 41 ab 3f 28 7e 7d 3f c6 75 aa bf
       -0.98266 1.33794 0.99020624 -1.3317192
000020 d1 42 8e 3f a4 c4 12 bf 69 45 4d 3f bf ef 6e bf
       1.1114141 -0.573313 0.80184036 -0.93334574
000030 b5 87 21 bf 13 fb 5a 3f cd c7 12 3d 49 f3 45 bf
       -0.630977 0.8553936 0.035835076 -0.7732435
000040 25 87 bb bf bc 75 1e bf 4e 1d 8c bf b6 38 33 bf
       -1.4650618 -0.618984 -1.0946443 -0.7000841
000050 08 cb 5a 3f 36 3a 69 3f 04 d8 87 3f 62 3c 15 bf
       0.8546605 0.9110445 1.0612798 -0.5829526
000060 a5 d1 8a bf d6 91 2e bf 9c 10 e5 3f 77 5d 3d 3f
       -1.0845228 -0.6819128 1.7895694 0.7397074
000070 e0 ce 1d bf 09 7f 6c bf 84 50 5f 3f 8e 6f b5 bf
       -0.6164379 -0.9238134 0.8723223 -1.4174669
000080 0b 33 3d bf 1e d6 5c bf eb a5 60 bf 47 9a 83 bf
       -0.7390601 -0.86264217 -0.8775317 -1.0281457
000090 5c 9e 33 bf 82 13 5b bf b1 b7 7a bf af 4d 39 3f
       -0.7016351 -0.8557664 -0.9793654 0.7238416
0000a0 f8 43 48 bf 27 c0 56 3f 86 20 1d bf 75 da 43 bf
       -0.7822871 0.8388695 -0.6137775 -0.76505214
0000b0 79 fe f1 bf 3c e5 6a 3f 7f 0a 7f 3f cf a9 1f bf
       -1.8905784 0.91756034 0.9962539 -0.6236848
0000c0 bb 4e 85 bf f2 43 63 bf 46 f1 9e 3f 89 07 82 3f
       -1.0414652 -0.8877555 1.2417381 1.015855
0000d0 f4 43 58 bf 79 0f 89 3f 61 e0 72 3f 88 fd 52 3f
       -0.8447869 1.0707847 0.94873625 0.8241811
0000e0 63 4e 13 3f be 70 8b 3f 42 94 3f bf 34 28 9a 3f
       0.57541484 1.0893781 -0.748356 1.2043519
0000f0 6b 1b 35 bf aa a3 9d 3f df 61 94 bf 2a 2e a3 bf
       -0.7074496 1.2315571 -1.1592368 -1.2748463
000100 d5 d5 0d bf 3e ff 0a 3d f4 13 cf bf bd 87 8b 3f
       -0.55404407 0.033934824 -1.6177964 1.0900799
000110 3d ce a4 3f 6b 51 1d bf 3f 16 43 bf 8b 32 cb bf
       1.2875439 -0.6145236 -0.7620582 -1.58748
000120 5d e1 43 bf c0 84 6f 3f ef d5 77 3f 5c d7 76 3f
       -0.7651575 0.93561935 0.9681081 0.9642236
000130 aa 82 73 3f 7a bc 9f bf 31 9a 18 bf e1 a3 8b bf
       0.9512125 -1.2479393 -0.5961028 -1.0909387
000140 aa a0 6d 3f 6d 35 62 bf c0 29 69 bf 14 c8 50 bf
       0.9282328 -0.8836277 -0.9107933 -0.81555295
000150 15 16 46 3f be 99 97 bf e3 de 0d bf 9f 0e 4a bf
       0.77377445 -1.1843793 -0.55418223 -0.7892856
000160 9b f3 33 bf 18 df bf 3f 3c 89 2c 40 0f e7 8a 3f
       -0.7029359 1.4989958 2.6958761 1.0851763
000170 4a 72 75 bf 5d b6 d2 bf c4 69 a4 3f a1 ed 5b 3d
       -0.95877516 -1.6461903 1.2844777 0.053693417
000180 e2 1e 6f 3f 39 a9 91 3f 2c 3c 84 3f 47 c1 fe 3f
       0.934065 1.1379768 1.0330863 1.9902734
000190 3b ff 93 3f ec f6 19 bf db 62 95 3f a2 72 1c c0
       1.1562265 -0.601424 1.1670793 -2.4444966
0001a0 8d ac 90 3f da ea 5f bf 1b fd 64 3f 0e 4d 3e bf
       1.1302658 -0.8746773 0.8944871 -0.74336326
0001b0 d5 b5 1f bf 8b ef 5f bf e2 e2 82 bf ed 21 23 bf
       -0.6238683 -0.8747489 -1.0225489 -0.6372364
0001c0 d0 8c 37 3f 00 1d 75 3f 19 01 4e 3f 8a 13 5a 3f
       0.7169924 0.95747375 0.80470425 0.85186064
0001d0 70 11 6e bf 96 81 51 bf 48 ec 83 3f 2c 0e 7d 3f
       -0.9299536 -0.8183836 1.0306482 0.9884975
0001e0 01 ff 3a bf 51 ba 01 bf a5 d5 32 bf 4f c7 58 3f
       -0.73045355 -0.5067492 -0.69857246 0.8467912
0001f0 e8 83 96 bf 25 4c 84 bf a4 25 32 bf d1 ab 4a bf
       -1.1759005 -1.0335737 -0.69588685 -0.7916842
000200 70 45 60 3f e5 5c 15 bf 5f d6 c9 bf fc bf cf bf
       0.87605953 -0.5834487 -1.5768546 -1.6230464
000210 3b b1 40 3f 57 d4 8b 3f 60 6d 8d 3f 17 4f 8a bf
       0.7527043 1.0924176 1.1049004 -1.0805386
000220 00 7d 8a 3f aa b7 46 3f c0 4a 4d 3f cd 1a 3b bf
       1.0819397 0.77624 0.80192184 -0.7308777
000230 a8 cb ae bf c5 c3 82 3f 7d 79 60 3f d9 22 2f bf
       -1.3655901 1.0215994 0.87685376 -0.6841255
000240 67 b5 1d bf 09 72 58 bf a1 5f 4b bf ff f6 1a bf
       -0.61604923 -0.84549004 -0.79442793 -0.60533136
000250 71 c3 53 bf 4b ca 5c 3f fa 3c 04 bf 0c d2 37 3f
       -0.82720095 0.86246175 -0.5165554 0.7180488
000260 1b 9c bc bf 15 e7 24 bf cb 91 fd be 00 97 27 3f
       -1.473514 -0.64415103 -0.49525294 0.6546478
000270 40 4d 9d 3f 82 a9 48 bf a3 99 69 3f 17 57 4b 3f
       1.22892 -0.7838365 0.91250056 0.79429764
000280 cd 31 5d 3f 26 0d 8a 3f ce 61 32 40 93 49 64 3f
       0.86404115 1.0785263 2.7872195 0.89174765
000290 fc 36 8e 3f 9b 5b bf 3f 08 f4 f8 be b8 e2 77 bf
       1.111053 1.4949831 -0.4862368 -0.9683032
0002a0 1c b2 72 bf 57 94 73 3f f2 9f 67 bf cc a0 59 3f
       -0.94803023 0.95148224 -0.9047843 0.8501098
0002b0 56 c6 9e bf 46 7b 86 3f ce 5a 8d bf 18 4e 79 bf
       -1.2404277 1.050637 -1.1043336 -0.97384787
0002c0 0a 9a 75 3f 3c d2 37 bf c2 49 77 bf 0f 79 17 bf
       0.9593817 -0.7180517 -0.9659692 -0.59169096
0002d0 93 6d 7e bf 1d 27 c3 bf 97 b1 fa be 6a 51 53 bf
       -0.99385947 -1.5246311 -0.48963615 -0.82546103
0002e0 63 16 5d 3f b0 f7 82 3f d7 f0 5d 3f fd fe 55 bf
       0.86362284 1.0231838 0.8669562 -0.83592206
0002f0 93 b3 ac 3f d9 f9 51 3f 33 75 af bf e1 35 68 3f
       1.3492302 0.8202186 -1.3707641 0.9070721
000300 b6 73 79 bf d6 8e 20 bf b9 d4 45 bf b6 f2 8c bf
       -0.97442186 -0.6271795 -0.77277714 -1.101157
000310 05 2c 88 3f fd 8d 7b 3f ce 3b 5d 3f 1c 64 eb be
       1.0638434 0.9826353 0.8641938 -0.45974815
000320 25 26 82 3f b6 64 84 bf 67 02 ab bf 5e c4 95 3f
       1.0167891 -1.0343235 -1.3360108 1.1700552
000330 ca 9d 88 3f 7e f8 8f 3f 4b 53 32 bf d0 dd 9e bf
       1.0673153 1.1247709 -0.69658345 -1.2411442
000340 6b 91 42 3f 36 f3 99 3f d0 28 a7 bf db 6d 83 3f
       0.7600314 1.2027347 -1.305933 1.02679
000350 98 f2 99 3f de 0d 29 3f 40 47 a9 bf 8d 00 ac 3f
       1.2027159 0.66036785 -1.3224869 1.3437668
000360 51 6c 77 3f db bb a1 3f e3 4b 76 bf 6d 54 84 bf
       0.9664965 1.2635454 -0.96209544 -1.0338265
000370 42 e8 aa bf d9 6e 50 bf dd ef 6a 3f b5 46 66 3f
       -1.335213 -0.8141914 0.9177225 0.8995164
000380 41 e6 95 3f 3b 0a 76 3f a5 19 43 bf 64 54 10 bf
       1.1710893 0.9610936 -0.76211005 -0.5637877
000390 69 e5 86 bf 91 2b 85 bf 86 54 12 3f a0 b3 27 c0
       -1.053876 -1.040392 0.5716022 -2.6203384
0003a0 5c 23 3c bf ba a6 76 bf 43 c1 5c bf 6c 9f 86 3f
       -0.73491454 -0.96348155 -0.86232394 1.0517402
0003b0 41 aa d3 3f a1 dd 8c 3f 15 d9 29 bf 96 89 e7 bf
       1.6536332 1.1005136 -0.66346866 -1.8088863
0003c0 4d f9 7a bf 1b 1e 58 3f dd 0d 3a bf a8 1f e0 be
       -0.9803665 0.8442094 -0.72677404 -0.43774152
0003d0 dc 16 b6 3f 96 11 8c bf c3 32 7f bf 1a c8 84 3f
       1.4225726 -1.0942867 -0.9968683 1.0373566
0003e0 20 5f 8b 3f 17 ab 5d bf 57 db 89 3f d2 c4 8c bf
       1.0888405 -0.8658919 1.0770062 -1.0997565
0003f0 3e ad 95 bf 39 ed 24 bf 4d 3e 5c 3f 87 99 86 3f
       -1.1693494 -0.64424473 0.86032563 1.0515603

l4.weight f4 [256, 32]
000000 b1 15 1b 3e ca 32 05 be 9b 66 0d bd ac cf 1b bd
       0.15144993 -0.13007656 -0.03452168 -0.03803985
000010 e4 e6 19 3e 6c f3 4e bf 36 a2 0f be 19 7e c9 bf
       0.15029484 -0.8084018 -0.14026722 -1.5741607
000020 19 26 59 3e 28 48 ac bb df 79 17 3e 36 28 8e be
       0.2120594 -0.005257625 0.14792584 -0.27765054
000030 bc b4 c0 be a5 90 51 bd 77 23 11 bd 8c 85 10 bf
       -0.3763789 -0.051163334 -0.035434213 -0.56453776
000040 70 0e 3c bd cc df ac bd 34 ac c2 bd 36 31 cc 3e
       -0.045912206 -0.08441123 -0.095055014 0.39881295
000050 85 9c 54 3e 73 05 e8 3d 75 bb b7 be a1 4b c4 3e
       0.20762832 0.11329164 -0.35885206 0.3833895
000060 24 4a b9 bd 71 bb 85 3c f4 d5 87 3d f0 3e 1b bd
       -0.09047344 0.01632473 0.06632605 -0.03790182
000070 f4 ed 99 3d 19 22 c2 3e ca e1 a7 be b8 47 e7 3d
       0.07516089 0.3791664 -0.3278945 0.11292976
000080 97 66 0c be fe 22 25 be a8 af 9d be 8b c0 69 3e
       -0.1371101 -0.1612663 -0.30798078 0.22827356
000090 10 80 05 3c 6b 2d 9b be 9e ef 1a 3e 9c c3 b6 3f
       0.008148208 -0.3030809 0.15130469 1.4278445
0000a0 62 fd 8f 3e 74 b9 1a be 22 c7 55 3e 2b 17 fb be
       0.28123003 -0.15109807 0.20876744 -0.49041113
0000b0 d3 ff 13 3e 13 23 0e 3c 58 a2 ce 3e 59 4b 15 3d
       0.14453058 0.0086753545 0.40358233 0.03644881
0000c0 eb c9 8a bd 49 8c dd bd 64 28 d6 be 03 0e 97 bd
       -0.06776794 -0.10817773 -0.4182769 -0.073757194
0000d0 44 61 5f 3d 15 69 38 be a8 b5 33 3e 60 36 1e 3e
       0.05453612 -0.18008836 0.17549765 0.1545043
0000e0 ac 4e 3e be d9 fd 56 3e db 68 1f bd 88 54 6e 3c
       -0.18584698 0.20995273 -0.038918357 0.014546521
0000f0 d2 89 7e bd bc 06 23 3e 90 3f 1f be bc 5f 67 3d
       -0.062143154 0.15920538 -0.15551591 0.056487784
000100 67 e5 c0 3d e5 0f a5 3d 5d 79 08 3e 74 a0 bc be
       0.09418755 0.08059672 0.13327546 -0.36841166
000110 f2 08 f9 3d 50 48 dd bf df 3c 05 be bf 0c a2 bf
       0.12159909 -1.7287693 -0.13011502 -1.266014
000120 6b e7 f3 bd e3 a9 24 bf 83 d7 aa be b0 7d 9e be
       -0.11909374 -0.64321727 -0.33367547 -0.30955267
000130 10 4f e7 bd fe 66 e9 bd 22 a6 f2 bd 58 c0 ea be
       -0.11294377 -0.11396597 -0.118480936 -0.45849872
000140 05 73 92 be e9 09 47 be 77 1c 59 be 18 f2 59 be
       -0.28603378 -0.19437374 -0.21202265 -0.21283758
000150 01 a3 96 bd 41 c3 3f be b4 2f 3b be 55 01 a6 be
       -0.07355309 -0.18726827 -0.18279916 -0.3242289
000160 d9 2b 30 bd d1 ec 00 3f 3d 1e 1b be 65 d0 26 3e
       -0.043010566 0.50361353 -0.15148254 0.16290434
000170 80 33 1e bd c9 43 ef bd 34 28 a5 3d a8 ed c6 bd
       -0.038623333 -0.11682851 0.08064309 -0.09713298
000180 0d 8e b5 be 1f b1 ed 3d 10 c6 08 be ed 4a 24 bf
       -0.3545994 0.11606049 -0.13356805 -0.6417683
000190 6a 5d e8 3d ce e6 7e be 6f 72 36 3c d8 70 c3 3c
       0.11345942 -0.24892733 0.0111356815 0.023857519
0001a0 a4 4f 05 3f 1d a3 2e be 5c a9 e3 be 1c 89 a8 be
       0.52074647 -0.1705441 -0.44465148 -0.32917106
0001b0 c3 60 44 be 99 2b 34 3e 80 67 99 3e 83 7f 60 bd
       -0.19177537 0.17594756 0.29961777 -0.054809105
0001c0 ec 95 17 be ad 27 71 be 35 12 da be 52 3d 63 be
       -0.14803284 -0.23550291 -0.42592016 -0.2219136
0001d0 8c 21 36 3d ec ed ed 3e ac 1e 63 bf 82 88 5a be
       0.044465587 0.46470582 -0.88718677 -0.21341136
0001e0 7f c7 2b 3f 94 d4 7b bf 84 31 c2 bd 12 03 30 3e
       0.6710128 -0.98371243 -0.094821006 0.17188671
0001f0 d6 16 64 3d 24 4f cd bd 4d 8b 62 3d 55 c1 a5 bd
       0.05568584 -0.100248605 0.05530863 -0.08093516
000200 61 53 e3 be 13 9f 29 bb a8 a4 bd 3d b7 b8 a4 bf
       -0.4439955 -0.002588217 0.09259921 -1.286887
000210 ee 09 1a 3a 17 11 22 3f 23 c4 1a be 7b 53 a6 bf
       0.00058761134 0.6330733 -0.15113883 -1.2994226
000220 df 3d 01 3f 62 97 78 3f 9d 9a c0 3d 14 43 81 3e
       0.5048503 0.9710599 0.0940449 0.2524649
000230 9f ff 7e 3e d4 bc 8e 3e f5 ce 69 3c 89 ee 88 bd
       0.24902199 0.2787844 0.014270534 -0.06686122
000240 95 dc 12 bf 16 37 e5 bd ba c5 88 be 61 28 8d 3d
       -0.5736783 -0.111921474 -0.26713353 0.06892467
000250 7d 8e ea bd 20 e0 f5 be 3d 7f 13 be 61 dc 3a be
       -0.11452959 -0.48022556 -0.14404006 -0.1824813
000260 89 23 43 3e e4 9e 2f 3c f2 ff b0 3d 32 10 1b 3e
       0.19056524 0.010719035 0.08642568 0.15142897
000270 bb ed 40 3e a8 bd 89 ba d5 80 9c bd eb b1 a4 3d
       0.18840687 -0.0010508792 -0.0764176 0.08041748
000280 f6 a5 f3 be ad 64 18 3e a9 ee 54 be 07 0c 38 3f
       -0.47587556 0.14882155 -0.20794167 0.7189335
000290 d3 b1 9e bd 69 12 5c 3f 05 66 09 be 5a ff db 3e
       -0.07748761 0.8596559 -0.13417824 0.42968255
0002a0 53 22 4e 3e d7 3e 0e bf a3 73 f7 be c3 f8 95 bd
       0.20130281 -0.55564636 -0.4833041 -0.07322838
0002b0 d9 28 10 bf c2 5c 83 be fc 3e d8 be 74 1a c2 bb
       -0.5631233 -0.25656706 -0.42235553 -0.0059235636
0002c0 b7 3a d4 3d 04 27 2b 3d 9b 16 bf bd c0 0e e4 3c
       0.103627615 0.041785255 -0.093304835 0.027839065
0002d0 55 27 26 be 8c 9a 36 be 54 82 31 be 3b bc 2e 3e
       -0.16225941 -0.17832392 -0.17334872 0.17063992
0002e0 41 3d db 3d 55 a4 ee bb 30 fe 42 3d fb 67 27 3c
       0.10705043 -0.0072827735 0.047605693 0.010217662
0002f0 5b f2 aa 3b c5 46 87 bc 35 14 5c 3d 4d 0e 42 bc
       0.0052168793 -0.016513238 0.05373021 -0.01184423
000300 3f ef f2 3e 6c ca 05 be 66 79 67 be 4d 8f cd bf
       0.47448155 -0.13065499 -0.22604904 -1.6059357
000310 ef 5b fd bd 7a d5 38 3e 62 f2 fa 3d fc 11 06 bf
       -0.123710506 0.18050185 0.12253262 -0.5237119
000320 e2 bb ab 3e 75 6c 8f 3f b6 3d 38 bc 3c 98 6b 3e
       0.3354178 1.1204973 -0.011245182 0.23007292
000330 ad f2 82 3e 05 2f 2d 3d 04 43 3b 3e f1 99 80 3e
       0.25575772 0.04228117 0.18287283 0.25117448
000340 36 09 39 bf 04 7a 53 3e 62 f4 05 be c6 ab 85 bd
       -0.7227968 0.20652014 -0.13081506 -0.06526904
000350 d2 e7 2b 3e f3 af d0 3b 76 ac 29 3d 32 68 65 be
       0.16787651 0.006368631 0.041424237 -0.22403029
000360 98 40 56 3e a9 bc bb 3d fa 9a a5 3e be c6 e8 3d
       0.20923078 0.091668434 0.323448 0.11366032
000370 b5 13 52 be 01 5b 5d bd 5f 3c d5 3d a0 2a 3b 3c
       -0.2051533 -0.054041866 0.104119055 0.011423737
000380 83 81 21 3f be 98 3c bd ba 4a 51 bd b4 18 b1 bf
       0.63088244 -0.046044104 -0.051096655 -1.3835664
000390 48 c3 16 3e cd 4a 81 bf 08 11 20 3e db ae 3a bf
       0.14722931 -1.0100952 0.15631497 -0.7292306
0003a0 7b ca 38 be d6 01 66 bf e9 fd 06 3d ad ce 01 bf
       -0.1804599 -0.8984655 0.03295699 -0.5070599
0003b0 60 20 3d 3e 4f 20 01 bd c4 f0 19 3f ef c1 93 be
       0.18469381 -0.031524953 0.60133004 -0.28858897
0003c0 0c 19 26 3e ea 9d 2f be 19 bd 98 3e a8 3a 2e be
       0.16220492 -0.17150083 0.2983177 -0.17014563
0003d0 38 70 1f be 28 18 01 bd 4a f2 10 bd 94 3d a9 bd
       -0.15570152 -0.031517178 -0.035387315 -0.08263698
0003e0 44 ed 93 bc e5 f0 a6 3e 36 7c 3f be 32 69 00 3e
       -0.018057473 0.32605663 -0.18699726 0.12540129
0003f0 58 5c 86 3d 67 4d f0 3d 2c 6c be bd 37 3e f0 bd
       0.06560582 0.11733513 -0.09297976 -0.117306165

l4.bias f4 [256]
000000 84 15 b6 be 21 0e 9d be d7 16 58 3e cd c6 09 be
       -0.3556329 -0.30674842 0.21102463 -0.13454743
000010 80 45 19 3e 63 56 f3 bd 7a bf 89 bd 39 9b 27 bd
       0.14967918 -0.11881711 -0.067259744 -0.040919516
000020 95 6d 04 3e 57 34 61 be 08 63 2c 3e ed 40 af be
       0.12932427 -0.21992622 0.16834652 -0.34229222
000030 32 8c 74 bd 2a b5 91 be 1d 85 99 be 1e 66 18 be
       -0.059704013 -0.2845853 -0.2998437 -0.14882705
000040 60 57 a3 3e 36 f6 14 3e 78 86 90 bd e3 97 83 be
       0.319026 0.14547047 -0.07056898 -0.25701818
000050 3f 6f 04 be 24 d5 6e be df 69 5f be 69 88 6c bd
       -0.12933062 -0.23323494 -0.2181773 -0.05774728
000060 49 57 c6 3e c6 6a 30 be c2 cc bd be f8 f7 96 3d
       0.38738468 -0.17228231 -0.3707028 0.07371515
000070 4d b9 00 3e a5 8e 7a 3e 83 91 d4 3c 10 e4 85 3e
       0.12570687 0.24468477 0.025948292 0.2615056
000080 8d 02 8f bd 10 6e f3 bc b9 22 10 be 33 bf 9f be
       -0.069829084 -0.029715568 -0.14075746 -0.3120056
000090 5c 95 ee 3d 99 56 b1 be 8e 4d d6 be e8 b3 c3 be
       0.11649582 -0.3463638 -0.41856045 -0.38223195
0000a0 d4 f9 81 bd b5 d0 e9 be 05 33 48 be df ae 74 be
       -0.06346479 -0.45667043 -0.19550712 -0.23894833
0000b0 22 18 c4 be a6 1f 60 3d be 9b 88 3d cb ec c4 bd
       -0.38299662 0.054717682 0.066703305 -0.09615477
0000c0 aa 3a 05 be cd 96 95 be 9a 82 26 3e ff ca 85 3e
       -0.1301066 -0.29216614 0.16260758 0.26131436
0000d0 cc 55 d2 be 61 97 fe be 80 c6 0f bf 47 86 d7 bd
       -0.41081083 -0.49724868 -0.5616226 -0.10523658
0000e0 c1 77 02 3e 5e 9d d1 bd eb 5c f2 be 6a cb f2 bd
       0.12740995 -0.102350935 -0.47336516 -0.118552044
0000f0 f8 93 f2 bc 7d e7 f5 be f8 97 4c 3c d0 e3 96 3e
       -0.029611573 -0.48028174 0.012487404 0.29470682
000100 82 d7 41 be 7c 4b 03 3e 71 de da 3d 69 1d ea 3c
       -0.18929866 0.12821764 0.106869586 0.028578477
000110 da 76 c3 bd d0 14 35 bd b9 e1 93 be 25 2a 87 3e
       -0.095441535 -0.0442093 -0.2888315 0.2639934
000120 11 18 ca 3d a4 9f 03 3d 16 ba 3a 3e 3a 7f 89 3c
       0.098678716 0.032134667 0.18235049 0.0167843
000130 1e 34 09 be 0b 99 32 3d b8 e2 00 3f 35 b1 90 3e
       -0.13398787 0.043602984 0.50345945 0.28260198
000140 f7 b9 f3 bc 7e c6 86 3e b5 ad 0c 3f 4c 94 d6 3e
       -0.02975176 0.26323313 0.54952556 0.41910017
000150 bf da 49 be de 3c 15 be 7f 96 ec 3d 4a a1 84 3d
       -0.19712351 -0.14574 0.11552142 0.06476076
000160 b4 ad aa be 52 15 9f 3b 68 5d 88 be 7a 45 f7 be
       -0.3333565 0.0048548365 -0.26633763 -0.48295194
000170 93 3a a2 3e ad 93 14 bd 81 25 69 bd cd a1 00 3f
       0.31685314 -0.036273647 -0.056920532 0.5024689
000180 71 0a ab be d2 17 19 be 02 5a 0d bd 79 3e 8a be
       -0.33406404 -0.14950493 -0.034509666 -0.27000788
000190 a5 01 e8 3c 6f 53 1f bd 05 96 53 be a6 40 59 3b
       0.028321097 -0.038897928 -0.20662697 0.0033150106
0001a0 c2 42 18 3b 84 a7 96 3d 70 c0 c1 3e eb 79 94 bd
       0.002323315 0.0735617 0.3784213 -0.072498165
0001b0 7f 3a b0 3e 9b 01 9a 3e e1 d6 f7 bc 4b 78 87 be
       0.3441963 0.3007935 -0.03025383 -0.26458964
0001c0 9d 2f de 3d 86 4e 22 bd 1b d2 ac 3e 23 7b 0f bf
       0.10848925 -0.039625667 0.33754048 -0.56047267
0001d0 f7 5c 90 bd 36 8b a0 3e f6 0b e7 3d 9c 82 a6 3e
       -0.07048982 0.3135621 0.11281578 0.32521522
0001e0 53 92 08 3e bf 7c 07 be a8 c1 fc be 7a 00 e1 bd
       0.13337068 -0.1323118 -0.49366498 -0.10986419
0001f0 a1 ac e7 be e0 17 07 3f 21 80 61 be 1f 16 4f 3d
       -0.45248893 0.52770805 -0.22021534 0.050558206
000200 3c 55 2c 3e e0 a9 11 ba 43 6a 3e be 03 93 b2 be
       0.1682939 -0.00055566244 -0.18595223 -0.34877786
000210 94 33 2d 3e d9 57 ba be ed 62 7b be 4e 2b 6d be
       0.16914207 -0.36395147 -0.24549456 -0.2316105
000220 b5 45 bb 3d 11 a1 e2 be 9a be e4 3e e8 00 95 3d
       0.09144155 -0.4426351 0.44676667 0.072755635
000230 e2 34 6c be ce ee c2 3e ec 56 97 3d c3 a8 e0 be
       -0.23067048 0.3807282 0.07389626 -0.43878755
000240 0a 96 4f 3e 3a 8a 80 be 9b f9 38 3c 9f e7 1d bd
       0.20272079 -0.25105458 0.011289979 -0.03855097
000250 af 05 8a be 7f 4d a8 be 42 8e 64 3e 78 67 4a 3e
       -0.2695746 -0.32871625 0.22319892 0.19766033
000260 73 5b 87 be 1c 70 63 be 05 21 b1 3d 5e 19 75 be
       -0.26436958 -0.22210735 0.08648876 -0.23935458
000270 d9 1f 99 bd 35 b1 0e bf 84 80 9e 3e c1 cd 65 3e
       -0.074767776 -0.55739146 0.30957425 0.2244177
000280 23 5e 02 3f 99 27 af be d8 d1 0a 3f a7 d2 8e bc
       0.5092489 -0.34209898 0.54226446 -0.017434431
000290 c9 bf b4 be e6 6d e1 3a 62 f9 92 bd 36 4b e2 be
       -0.3530257 0.001719889 -0.07176472 -0.44198006
0002a0 78 99 cf bd 11 cd cf bd ca 28 b7 bc 66 00 9c 3d
       -0.10136694 -0.10146535 -0.022358317 0.076172635
0002b0 1d 69 b8 be 8a 48 cc 3d 3f bd b3 be 86 cc 22 be
       -0.36017695 0.09974773 -0.3510532 -0.15898332
0002c0 ee c0 cc be 73 a1 90 be e7 2f c8 bd df c0 93 be
       -0.39990944 -0.28248176 -0.09774762 -0.28858086
0002d0 e8 1d 0e bd a3 66 b1 be ad 8f 3a be 6a 1e 12 be
       -0.03469649 -0.34648618 -0.1821887 -0.14269415
0002e0 64 b6 77 3e 0c c2 8c be 59 22 d5 bd 1b 5a 17 be
       0.2419067 -0.27491796 -0.10406942 -0.14780466
0002f0 08 bd 7b be 4e de ee 3b f9 d8 b2 be c7 35 92 be
       -0.24583828 0.0072896844 -0.34931162 -0.28556654
000300 81 5b 5f 3e 7f a1 47 be 3e 0a b0 bd d9 e8 9c be
       0.2181225 -0.194952 -0.085957035 -0.306464
000310 fa f7 89 bd c0 53 02 3f 6d 13 0c bf 96 b9 d8 bd
       -0.06736751 0.5090904 -0.5471714 -0.10582273
000320 49 a3 d5 be 1d f8 6f be bd b3 ab bd 4d 92 bf be
       -0.4172614 -0.23434491 -0.08383892 -0.37416306
000330 37 9b 6d be eb e1 08 3e 92 16 0f be ce 51 c4 be
       -0.23203741 0.13367431 -0.13973454 -0.38343662
000340 58 c9 bd 3c 17 02 b1 be 20 54 c8 be 8b 72 5c 3e
       0.023167297 -0.34571907 -0.39126682 0.2152807
000350 2c 82 e1 bd fe 85 1b 3e d8 ce 06 3e 4b 14 5a be
       -0.110111564 0.15187833 0.13164842 -0.21296804
000360 a5 95 2d 3e 20 67 a9 be 04 81 ed bd 94 c1 90 3e
       0.16951616 -0.3308649 -0.115968734 0.28272688
000370 d1 4f 00 bf 81 2c 31 be 4a 0d d8 be 1f e2 f9 3d
       -0.5012179 -0.17302133 -0.4219764 0.12201332
000380 0b d9 bd 3d 8b 4b 08 be 9e e6 f1 be 67 ec db bd
       0.09269913 -0.13310067 -0.4724626 -0.107384495
000390 80 bc fa be 70 2f 11 bf 0c 86 e8 3d c3 43 36 bd
       -0.4897194 -0.5671301 0.113536924 -0.044498216
0003a0 ea 33 a9 3e 15 15 f8 bc c7 8d 08 3e 9e 75 aa be
       0.3304742 -0.03028349 0.13335334 -0.3329286
0003b0 ee 02 55 be 16 8e 01 be bc 56 c8 3e 30 b2 27 be
       -0.20801899 -0.12651858 0.39128673 -0.16376567
0003c0 6a 9e 57 be 51 40 6d be 14 c2 20 3e 2d 94 66 be
       -0.21056524 -0.23169066 0.15699035 -0.22517462
0003d0 68 cf cd 3d f3 f4 e0 bb 6a 9a ff 3c 68 1b a5 bd
       0.10049325 -0.0068651377 0.03120156 -0.08061868
0003e0 74 4e 92 be 8e 04 9e be d9 ef 59 be e9 41 45 be
       -0.2857548 -0.3086285 -0.21282901 -0.19263424
0003f0 74 d6 15 be 9d 6a 80 be c4 7e 91 3e 26 95 cc 3e
       -0.14632589 -0.2508134 0.28417027 0.3995754
