part1/td3_q4/Half/HalfCheetahBulletEnv-v0_TD3_1_1638194223_td3.pth (torch, 898095 bytes, 16 tensors)

l1.weight f4 [256, 32]
0	0xbeed4708	-0.46343255
1	0x3d50a85f	0.05094182
2	0xbea73134	-0.32654727
3	0x3f1af7a6	0.6053413
4	0x3e1d2df6	0.15349564
5	0xbf6612b5	-0.89872295
6	0xbc9b776b	-0.018977841
7	0x3f693018	0.9108901
8	0x3e7e442d	0.24830694
9	0xbf15247c	-0.58258796
10	0x3e478c04	0.19487005
11	0xbecb7a04	-0.39741528
12	0xbd2127f3	-0.03934474
13	0xbcffbc16	-0.031217616
14	0xbdf48f66	-0.119414136
15	0xbe88796e	-0.26655143
16	0xbdc8518e	-0.0978118
17	0xbdb4e4a9	-0.08832676
18	0x3e48f9a1	0.19626476
19	0x3e7b627f	0.24549292
20	0x3e19cda3	0.1501985
21	0xbe1a2231	-0.15052105
22	0x3d82b5d3	0.063823365
23	0x3e2c5392	0.16828755
24	0xbec66bad	-0.38754025
25	0xbe183603	-0.14864354
26	0x3b8f82d4	0.0043796096
27	0xbe24937b	-0.16071884
28	0x3e12b652	0.14327362
29	0xbcc8d3ef	-0.02451512
30	0x3a547445	0.0008104484
31	0xbcf79e9a	-0.030226994
32	0x3e282358	0.16419733
33	0x3d855c8d	0.06511793
34	0x3dd5c28b	0.10437497
35	0xbf86922e	-1.051336
36	0xbd934d22	-0.07192446
37	0x3d732f6e	0.059371404
38	0xbe2210d6	-0.15826735
39	0x3c4e9108	0.01260782
40	0x3ee5b427	0.44864008
41	0x3eb9a09d	0.3625535
42	0x3d9766da	0.07392664
43	0x3d947efc	0.07250783
44	0x3bcce368	0.006252695
45	0x3cc70a2a	0.024296839
46	0xbf412461	-0.75446135
47	0xbe59c8f1	-0.2126806
48	0xbf45ef39	-0.7731815
49	0xbeb80d02	-0.35947424
50	0xbec3b208	-0.38221765
51	0xbee09ddf	-0.43870446
52	0x3ce83df1	0.028349848
53	0xbddd1350	-0.10794699
54	0xbe9439f7	-0.28950474
55	0xbd6c26d5	-0.05765422
56	0xbe044251	-0.12915923
57	0x3d25d17d	0.040482987
58	0x3cee266d	0.029071057
59	0xbc1d0ee7	-0.0095860725
60	0x3c28b5b3	0.010297227
61	0x3cbe3a50	0.023221165
62	0xbd53f446	-0.05174663
63	0xbdcd2334	-0.1001648
64	0xbe8694c6	-0.2628538
65	0xbe20ca2a	-0.1570212
66	0xbe83a6a9	-0.2571309
67	0x3ddb66e3	0.107129835
68	0xbdaca69b	-0.08430215
69	0xbea04c9f	-0.31308457
70	0x3d17dfcd	0.037078667
71	0xbef62fc4	-0.48083317
72	0x3ddde5ac	0.10834822
73	0xbee28a0d	-0.4424595
74	0xbd3dcf0f	-0.046340045
75	0xbda5751e	-0.08078979
76	0x3f0c7741	0.5486947
77	0x3e41f3c0	0.1894064
78	0x3d3cb311	0.04606921
79	0xbdb7dc19	-0.08977527
80	0x3f14a5d2	0.5806552
81	0x3e286b40	0.16447163
82	0xbe1b4c7e	-0.15165898
83	0xbbe36d9f	-0.006940558
84	0x3b2fd742	0.0026831185
85	0x3e899faa	0.26879627
86	0xbe243fa3	-0.160399
87	0xbc3276a9	-0.010892549
88	0xbc310645	-0.010804717
89	0xbe0a6e6a	-0.13518682
90	0xbd9a4667	-0.075329594
91	0x3cce3544	0.025171883
92	0xbd1b93c9	-0.037982736
93	0xbd8a5622	-0.0675471
94	0x3da725ab	0.081614815
95	0xbba5e190	-0.0050622895
96	0xbee61a02	-0.44941717
97	0xbd9a99d4	-0.07548872
98	0xbdff80e8	-0.12475759
99	0x3f16cd6f	0.58907217
100	0xbe32bdf5	-0.17455275
101	0x3f0b6d5e	0.54463756
102	0xbe170e24	-0.14751488
103	0xbf384be7	-0.7199082
104	0x3f293d1e	0.6610888
105	0xbe7bb2bb	-0.24579899
106	0x3f087ec3	0.53318423
107	0x3e7bdc43	0.24595742
108	0x3d86ad45	0.06576017
109	0x3c870134	0.016480066
110	0x3ea4ef69	0.32213905
111	0x3ebbaede	0.3665685
112	0xbd9fe2c9	-0.07806928
113	0xbc14d41c	-0.009083774
114	0x3e0bb7b7	0.136443
115	0x3e24d38d	0.16096325
116	0xbe6b7a08	-0.2299577
117	0x3e022adc	0.12711662
118	0x3bcc6490	0.006237574
119	0xbd1b42cd	-0.037905503
120	0xbdf839dd	-0.121204115
121	0xbdb8d6d2	-0.09025349
122	0xbda74bfe	-0.08168791
123	0xbce0f333	-0.027459716
124	0x3ca72df7	0.02040766
125	0x3d42a533	0.047520828
126	0x3d25b856	0.040459
127	0x3c227583	0.009915712
128	0xbea68b72	-0.32528263
129	0xbe20a720	-0.15688753
130	0xbd94ae1f	-0.072597735
131	0xbf4cf296	-0.80057657
132	0x3da90e81	0.082547195
133	0xbba58ced	-0.0050522
134	0x3dd820c0	0.105531216
135	0xbd724c2f	-0.059154686
136	0x3f0eaca7	0.55732197
137	0x3e04cd22	0.12968877
138	0x3e31f1f9	0.17377461
139	0xbe67f0db	-0.22650473
140	0x3e2faa95	0.17154916
141	0x3cc88611	0.02447799
142	0xbf0a8ad8	-0.5411811
143	0xbd7c7ec5	-0.061644334
144	0xbfbf78d3	-1.4958748
145	0xbeb95abc	-0.36202037
146	0x3e02e7f2	0.12783793
147	0x3c3cb5fc	0.011517998
148	0xbda9a431	-0.0828327
149	0x3db1c848	0.08680779
150	0xbe85dda5	-0.26145664
151	0xbd90a27c	-0.070622414
152	0xbe1cf0e7	-0.15326272
153	0xbdce264f	-0.100659005
154	0xbcb1b2f1	-0.021691771
155	0xbca618fc	-0.020275585
156	0xbc09c7f0	-0.008409485
157	0x3e01b989	0.12668432
158	0xbe46d380	-0.19416618
159	0x3cb8dc87	0.022566093
160	0xbe619356	-0.2202886
161	0x3e16f332	0.14741209
162	0xbeaf1ed1	-0.342032
163	0xbed87ce3	-0.4228278
164	0xbcfebb05	-0.031095037
165	0xbedc7997	-0.43061516
166	0xbd64ff81	-0.05590773
167	0xbedc7130	-0.43055105
168	0x3ea68981	0.32526782
169	0x3debc40d	0.11512003
170	0x3db68194	0.08911434
171	0xbe1d0a74	-0.15336019
172	0x3dfc0747	0.123060755
173	0xbd05e334	-0.03268738
174	0x3ee618f6	0.4494092
175	0xbe3486d7	-0.17629562
176	0xbe1554ff	-0.14583205
177	0xbdecfa86	-0.11571221
178	0xbf5ae474	-0.8550484
179	0xbcd021e2	-0.025406782
180	0x3da8219f	0.08209538
181	0x3b1099e0	0.0022064373
182	0xbe4a912e	-0.19781944
183	0xbddf652f	-0.10907971
184	0xbeacaa88	-0.33723855
185	0x3e791047	0.24322616
186	0x3d0e66c4	0.034765974
187	0xbd59cb53	-0.05317242
188	0xbd5fa2cb	-0.05459861
189	0xbcf3fea1	-0.029784502
190	0xbc7ed343	-0.015553298
191	0x3db7bd79	0.08971686
192	0xbd06af4d	-0.032882024
193	0x3da32ad4	0.07967153
194	0xbf001973	-0.5003883
195	0x3c88fce8	0.016722158
196	0x3d891db0	0.066951156
197	0xbe055bba	-0.13023272
198	0xbdb3fe70	-0.087887645
199	0x3e8a6c85	0.2703592
200	0xbcd4b282	-0.025964025
201	0xbe613b99	-0.21995391
202	0x3ea7aa0e	0.3274693
203	0x3e3dc592	0.18532398
204	0x3ec72463	0.38894948
205	0x3df54889	0.119767256
206	0x3ebe4ffb	0.37170395
207	0xbec106c8	-0.37700486
208	0xbef9be8e	-0.48778194
209	0x3d0fb314	0.03508289
210	0xbf151033	-0.58227843
211	0xbd668553	-0.05627949
212	0x3e61feff	0.2206993
213	0xbda4d219	-0.080478854
214	0xbd2008e8	-0.039070994
215	0x3df6bbda	0.120475486
216	0x3ec49845	0.38397422
217	0x3c3fd7aa	0.011709133
218	0xbd7ab47d	-0.061207283
219	0x3d816f3d	0.06320045
220	0x3d7cc9f4	0.061716035
221	0xbd7527eb	-0.059852522
222	0x3cd4e4e7	0.025988055
223	0x3c566766	0.013086176
224	0x3edccc81	0.43124774
225	0xbd67efde	-0.05662524
226	0x3b5266ba	0.0032104687
227	0x3e4b4a43	0.19852547
228	0xbe2f97a6	-0.17147693
229	0x3e3af70a	0.182583
230	0x3ca0556d	0.019571984
231	0x3f0ed2e2	0.5579053
232	0x3e86d58d	0.263348
233	0x3ed58343	0.41701707
234	0x3ec0b7b9	0.3764017
235	0x3db96bae	0.090537414
236	0x3e9dc87e	0.30817026
237	0xbde14fd4	-0.11001554
238	0x3e972414	0.29519713
239	0xbe955dc8	-0.29173112
240	0x3bedf754	0.00726215
241	0xbdec0245	-0.115238704
242	0xbdad9f76	-0.084776804
243	0x3de13629	0.10996658
244	0x3da354cf	0.0797516
245	0x3c7ee916	0.015558502
246	0x3b664cfa	0.0035141096
247	0xbef26744	-0.4734441
248	0xbf59b399	-0.8503967
249	0xbece03cf	-0.4023728
250	0x3dbf2d63	0.09334829
251	0x3d422439	0.047397826
252	0xbd0c1734	-0.034201816
253	0x3d48a1d9	0.048982475
254	0xbbcdce63	-0.0062807067
255	0xbd1b156c	-0.037862226

l1.bias f4 [256]
0	0xbdd1c909	-0.102434225
1	0x3e17f7f6	0.14840683
2	0xbe44597e	-0.19174764
3	0x3cbaf1f8	0.022820458
4	0xbeca5bd1	-0.39523175
5	0xbefa499e	-0.4888429
6	0xbf115280	-0.5676651
7	0xbd9466bd	-0.07246158
8	0xbea2a019	-0.3176277
9	0x3d5bb2f3	0.053637456
10	0xbea25eeb	-0.31713042
11	0xbe1507f9	-0.14553823
12	0xbee6a536	-0.4504792
13	0xbebbc1cf	-0.36671302
14	0xbe9021df	-0.28150842
15	0xbdcec20d	-0.10095606
16	0xbe39e28a	-0.18152824
17	0xbee53bba	-0.4477213
18	0xbd279815	-0.04091652
19	0x3e29088a	0.16507164
20	0x3d06461f	0.032781716
21	0xbd4d5112	-0.050126143
22	0xbd57b94b	-0.052666944
23	0xbe8b92f3	-0.2726055
24	0xbe170569	-0.14748158
25	0xbe76784f	-0.24069332
26	0xbd472a1f	-0.048624154
27	0x3e060bcf	0.13090442
28	0x3e8d1fe5	0.27563396
29	0xbf0de95b	-0.554342
30	0xbe7dd86a	-0.24789587
31	0xbe31a646	-0.17348585
32	0xbce50727	-0.027957512
33	0xbf1defbc	-0.6169393
34	0xbec0e369	-0.376735
35	0xbedd2c7c	-0.43198
36	0x3ee583a1	0.44826987
37	0x3d390714	0.045172766
38	0xbec20c74	-0.37900126
39	0x3e353b0a	0.17698303
40	0x3f00b092	0.50269425
41	0xbecb2aaa	-0.39680988
42	0xbe1342d8	-0.14380968
43	0x3c07bbf1	0.008284555
44	0x3d3025f4	0.043004945
45	0x3e54d416	0.2078403
46	0xbef27426	-0.4735424
47	0xbe49434c	-0.19654578
48	0x3d8b7fe2	0.06811501
49	0xbeb1e07e	-0.34741586
50	0xbe8def7e	-0.2772178
51	0xbe3e5e06	-0.18590555
52	0xbe7ef7cf	-0.24899219
53	0xbe974520	-0.29544926
54	0x3e26589d	0.16244741
55	0x3e259341	0.16169454
56	0x3ed4c786	0.41558474
57	0xbed0f3ad	-0.4081091
58	0xbef974cb	-0.48721918
59	0xbd5d2590	-0.0539909
60	0x3ebd2390	0.36941195
61	0xbeb6c4bb	-0.35696968
62	0x3e78cb0c	0.24296206
63	0x3e83a7a3	0.25713834
64	0xbebfda07	-0.3747103
65	0xbe9eb3e8	-0.30996633
66	0xbcc34532	-0.023836706
67	0xbea2467e	-0.31694406
68	0xbe50437e	-0.20338246
69	0x3be10a4c	0.0068676826
70	0xbf08a51f	-0.53376955
71	0xbdc9d1e3	-0.09854486
72	0x3e6b7417	0.22993504
73	0x3eba0be7	0.36337206
74	0x3da61735	0.08109895
75	0xbcf7630a	-0.030198593
76	0xbe396211	-0.18103816
77	0x3e0a3b48	0.13499177
78	0xbe6c1171	-0.23053528
79	0x3e4e7552	0.20161942
80	0xbe8fb3de	-0.28066915
81	0xbebc5472	-0.36783177
82	0xbe501c89	-0.20323385
83	0x3db6385f	0.08897471
84	0x3e64a776	0.22329506
85	0xbe4ad27b	-0.19806854
86	0xbe37f793	-0.17965536
87	0xbe547c3d	-0.20750518
88	0xbdf2c42e	-0.118538246
89	0xbf0c1166	-0.5471405
90	0x3dff7add	0.12474606
91	0xbecf498d	-0.40485802
92	0xbed3ba36	-0.41353005
93	0xbe4d01fe	-0.20020291
94	0xbe42dda6	-0.19029865
95	0xbde7f9b8	-0.11326927
96	0x3de4e6ba	0.1117682
97	0x3ddb6709	0.10713012
98	0x3d9e91cc	0.07742652
99	0xbde8f5a6	-0.11374979
100	0x3d81b8ad	0.06334052
101	0x3daa0d24	0.083032876
102	0xbe6aaea7	-0.22918187
103	0x3e3abc9a	0.18236008
104	0xbf1122ba	-0.56693614
105	0x3eeea9e7	0.46614
106	0xbee643a5	-0.44973484
107	0x3dd4f794	0.10398784
108	0x3d4c1b39	0.04983065
109	0xbdba5473	-0.09098139
110	0xbd0f25fb	-0.03494833
111	0x3edada04	0.42744458
112	0x3e56c64a	0.20974079
113	0xbd7f916b	-0.06239454
114	0xbe2afd95	-0.16698296
115	0x3c72d1d6	0.014820537
116	0x3e97027c	0.29494083
117	0xbec19f58	-0.37816882
118	0xbdf3b05c	-0.11898872
119	0xbe9a05dd	-0.30082598
120	0xbe609462	-0.21931604
121	0xbd224cdf	-0.03962409
122	0xbe83b84c	-0.25726545
123	0xbd9265c7	-0.07148319
124	0xbe57e145	-0.21082027
125	0xbe787834	-0.24264604
126	0xbde90be3	-0.1137922
127	0xbee262fa	-0.44216138
128	0xbd99f9d7	-0.07518356
129	0x3d840758	0.06446713
130	0xbdb6dff9	-0.08929438
131	0x3ba5efb3	0.0050639748
132	0xbe88466f	-0.26616237
133	0xbeba60a6	-0.36401862
134	0xbf047f2e	-0.5175656
135	0x3d3683dd	0.04455935
136	0x3e9728b2	0.29523236
137	0x3d8cff0a	0.06884582
138	0x3c4ce5b9	0.012505942
139	0xbef74232	-0.4829269
140	0xbeff14ec	-0.4982065
141	0xbeb7826f	-0.358417
142	0xbee425eb	-0.4456018
143	0x3e11751c	0.1420483
144	0xbe9c787f	-0.3056068
145	0xbce12329	-0.027482586
146	0xbe80fb2c	-0.2519163
147	0xbd089676	-0.033346616
148	0xbde974a6	-0.11399202
149	0xbda74e1f	-0.08169197
150	0xbe1c8019	-0.1528324
151	0x3eb001ba	0.34376317
152	0xbee4b835	-0.4467179
153	0xbe195091	-0.1497214
154	0x3d81f4a8	0.063454926
155	0x3e945977	0.28974506
156	0x3d4c322b	0.04985253
157	0xbebad55b	-0.36490902
158	0x3eb83848	0.3598044
159	0xbee5756f	-0.44816157
160	0xbeefdd10	-0.46848345
161	0xbe9aca3e	-0.30232424
162	0xbd3f8649	-0.046758924
163	0xbf05cabb	-0.5226247
164	0x3dbbe2ca	0.09174116
165	0xbe9c0907	-0.30475637
166	0x3ca693f3	0.02033422
167	0xbe76de63	-0.24108271
168	0xbdc5db9a	-0.09661026
169	0x3df723dc	0.120673865
170	0xbec495ec	-0.3839563
171	0xbe94aece	-0.29039615
172	0x3ea812e4	0.32826912
173	0xbdb6a9c1	-0.08919097
174	0xbd67c252	-0.056581803
175	0x3e216542	0.15761283
176	0xbe6ee65c	-0.23330063
177	0xbf0066ff	-0.5015716
178	0xbdfa61cf	-0.12225687
179	0xbd51d8a6	-0.051232003
180	0x3dbff0ce	0.09372102
181	0x3d47b2cc	0.0487545
182	0xbe53af44	-0.20672327
183	0xbeefa73a	-0.4680727
184	0x3ed20a1c	0.41023338
185	0xbd2b4a32	-0.041818805
186	0xbcdb073f	-0.026736854
187	0x3d131904	0.03591253
188	0xbf06d274	-0.52664876
189	0xbee0f620	-0.43937778
190	0x3e46133f	0.1934328
191	0x3d91f115	0.07126061
192	0xbe2350e1	-0.15948822
193	0xbe8db4ea	-0.2767709
194	0xbd4d7ba4	-0.05016674
195	0x3e306404	0.17225653
196	0xbdf7d8a6	-0.12101869
197	0xbe433ab3	-0.1906536
198	0xbece81ad	-0.4033331
199	0x3e9fec76	0.31235093
200	0xbe3df349	-0.18549837
201	0xbf114ec5	-0.5676082
202	0x3ef4b515	0.47794405
203	0xbeddf7df	-0.43353173
204	0xbea5c3ed	-0.32376042
205	0xbee679f5	-0.4501492
206	0xbe8954e2	-0.26822573
207	0x3ec7687e	0.3894691
208	0xbd980891	-0.07423509
209	0xbecd56de	-0.40105337
210	0xbe23eb03	-0.16007619
211	0xbded2b71	-0.115805514
212	0x3e7a2298	0.24427259
213	0xbcaeeeea	-0.021354157
214	0x3ebac6cf	0.36479804
215	0xbef48e73	-0.4776493
216	0x3e88fc9e	0.26755232
217	0x3e1ce1af	0.15320466
218	0xbe875f90	-0.26440096
219	0x3ee465db	0.4460896
220	0x3e348b31	0.17631222
221	0x3d9ea684	0.07746604
222	0xbe9b72b1	-0.3036094
223	0xbe29dbd7	-0.16587768
224	0xbf003151	-0.5007525
225	0x3c90ae23	0.01766116
226	0x3ea347c5	0.31890693
227	0xbe181132	-0.1485031
228	0xbe931630	-0.28727865
229	0xbe6f4f70	-0.23370147
230	0xbe8b2df1	-0.27183488
231	0xbe2acf1f	-0.16680573
232	0xbec4e033	-0.384523
233	0x3e8fc49e	0.28079695
234	0xbe9b10cc	-0.30286252
235	0xbcbd468f	-0.023104934
236	0x3dcb02e1	0.099126585
237	0xbec5c878	-0.38629508
238	0xbec89689	-0.3917735
239	0xbf0738fa	-0.52821314
240	0x3bf65c52	0.0075183297
241	0x3d0c34da	0.03423009
242	0xbeaccb06	-0.33748645
243	0xbed1394b	-0.40864024
244	0xbe0a03c7	-0.13478003
245	0x3c201549	0.0097707
246	0x3df573ab	0.119849525
247	0xbe9897bc	-0.29803264
248	0xbe99433a	-0.29934102
249	0xbef32f3a	-0.47496969
250	0xbec3918b	-0.38196978
251	0x3e1d427c	0.15357393
252	0xbe00c1a2	-0.12573865
253	0xbf16cbeb	-0.58904904
254	0xbea1dcd2	-0.31613785
255	0xbe8ed58e	-0.27897304

l2.weight f4 [256, 256]
0	0xbdc688a4	-0.09694031
1	0x3e8c4b91	0.27401403
2	0x3ef0c2c9	0.4702361
3	0xbea779df	-0.32710168
4	0x3e6ce91b	0.23135798
5	0x3eb1f290	0.34755373
6	0x3ea1ddaa	0.3161443
7	0x3e49809f	0.19677971
8	0x3b67efe8	0.0035390798
9	0x3ea827fa	0.32843
10	0xbec205aa	-0.37894946
11	0xbe19c11f	-0.15015076
12	0xbe0cc341	-0.13746358
13	0x3f284ba5	0.65740424
14	0x3c72128b	0.014774929
15	0x3d8385a1	0.06421972
16	0x3ec96fb8	0.39343047
17	0x3c798242	0.01522881
18	0x3d828a5b	0.063740455
19	0x3ec05753	0.37566623
20	0x3ef3394b	0.4750465
21	0x3eacf67f	0.33781812
22	0xbeeeb9c5	-0.46626106
23	0xbe414994	-0.18875724
24	0xbcaaf2bb	-0.020867696
25	0xbc33206b	-0.010933022
26	0x3dbf7baa	0.09349759
27	0x3cd4ec64	0.025991626
28	0xbedb814e	-0.4287209
29	0x3eb42244	0.35182393
30	0xbec63da4	-0.38718903
31	0xbef99a8c	-0.48750722
32	0xbf14ce48	-0.5812726
33	0xbe8ff4ce	-0.2811646
34	0x3eee2f43	0.46520433
35	0x3e430581	0.19045068
36	0xbebcb29e	-0.36855024
37	0x3dfd1b4f	0.12358724
38	0x3ea2ca5d	0.31795016
39	0x3e1d5888	0.15365803
40	0x3e349d76	0.17638192
41	0xbf074c72	-0.5285102
42	0x3b014355	0.001972397
43	0x3e0054c8	0.12532341
44	0xbfbececa	-1.4906857
45	0x3e608d68	0.21928942
46	0xbea4f169	-0.3221543
47	0x3de34067	0.11096268
48	0xbea0befb	-0.31395707
49	0xbdc2d3c6	-0.09513049
50	0xbea6e6cf	-0.32597968
51	0xbe34774e	-0.17623636
52	0x3f18127e	0.59403217
53	0xbcdd3fc4	-0.027007945
54	0xbeb1c669	-0.34721687
55	0x3e9b4614	0.30326903
56	0xbee16ce8	-0.440284
57	0xbd0e4472	-0.034733243
58	0x3ec4faec	0.38472688
59	0xbe5d8296	-0.21631846
60	0xbee07b34	-0.43843997
61	0x3f320de9	0.69552475
62	0xbddaa0d3	-0.10675206
63	0xbe5d336a	-0.21601644
64	0x3ccebd08	0.025236621
65	0xbe8f8d50	-0.280375
66	0x3c565bcb	0.013083409
67	0x3eee91ee	0.4659571
68	0xbefcedd2	-0.49400192
69	0x3d1dbbe4	0.038509265
70	0xbd01bc6f	-0.031673845
71	0x3e4bf2ff	0.19916914
72	0x3c02945e	0.007969944
73	0xbdf6eae9	-0.12056524
74	0xbdcb75d6	-0.09934585
75	0x3e977964	0.295848
76	0xbe30a127	-0.17248975
77	0x3e45f788	0.19332707
78	0x3f19f879	0.60144764
79	0x3e9e855a	0.30961114
80	0x3d7dd4cd	0.06197052
81	0x3dd595dd	0.10428975
82	0xbd1952fd	-0.03743266
83	0xbe06eec6	-0.13177022
84	0x3e3be478	0.18348873
85	0x3ca1fa1f	0.019772587
86	0x3f66a5f5	0.9009698
87	0x3e785de8	0.24254572
88	0xbee4fa7c	-0.44722354
89	0xbd38998c	-0.04506831
90	0xbda23628	-0.07920486
91	0x3eb1be25	0.3471538
92	0x3eb1dbe3	0.34738073
93	0x3d27c6a0	0.040960908
94	0x3ebbcd2f	0.3667998
95	0xbe09262a	-0.13393465
96	0xbd276788	-0.04087022
97	0x3dae9cd8	0.08526009
98	0x3eca1608	0.39469934
99	0x3eb78b80	0.35848618
100	0x3cc5c800	0.024143219
101	0x3dbe65bf	0.0929675
102	0xbf07b086	-0.5300373
103	0x3e789a72	0.24277666
104	0x3e9a3ca8	0.30124402
105	0xbe303602	-0.17208102
106	0x3dc0b7a4	0.09410027
107	0xbf3cbe7b	-0.7372815
108	0x3e48f651	0.19625212
109	0x3d47fb80	0.048823833
110	0xbf95017a	-1.1641076
111	0x3d5b2646	0.053503297
112	0xbea7264f	-0.32646415
113	0xbf23a2c6	-0.6392025
114	0x3e343740	0.17599201
115	0x3e414294	0.18873054
116	0xbe24c030	-0.16088939
117	0x3d668520	0.0562793
118	0x3c320706	0.010865932
119	0x3ea7aaca	0.3274749
120	0xbd4a4fdc	-0.049392566
121	0xbf58fe7d	-0.8476332
122	0xbc2c7a00	-0.010527134
123	0x3f1a0ddc	0.601774
124	0xbfb5b820	-1.4196815
125	0x3e8fba91	0.28072026
126	0xbf1b333c	-0.6062505
127	0xbecc87ca	-0.3994735
128	0x3e734231	0.23755719
129	0xbe6b18a8	-0.22958624
130	0xbd8ec864	-0.06971815
131	0xbe1f3b92	-0.15550068
132	0x3d05c4bf	0.032658335
133	0xbea6c548	-0.3257239
134	0x3e0fe74e	0.1405308
135	0x3da098db	0.07841655
136	0x3ec0e193	0.376721
137	0x3de7ef71	0.11324967
138	0xbd0e1623	-0.03468908
139	0x3f17959e	0.5921267
140	0xbd996143	-0.07489254
141	0x3dce28a7	0.100663476
142	0xbd4c2eb3	-0.049849223
143	0x3e3f712b	0.18695514
144	0xbf4ada5a	-0.7923943
145	0xbf446543	-0.76717013
146	0x3d847cda	0.06469126
147	0x3e2566b9	0.16152467
148	0x3c34aeb5	0.0110279815
149	0x3e1ad8f7	0.15121828
150	0xbf098b7f	-0.5372848
151	0x3e2e156a	0.17000356
152	0xbf823db7	-1.0175084
153	0xbde8aa54	-0.113606125
154	0x3d496c36	0.049175464
155	0x3b945792	0.0045270408
156	0xbd6c7b9e	-0.057735078
157	0x3e8b6274	0.2722355
158	0x3e440e09	0.19145979
159	0x3e9b99d4	0.303908
160	0x3e2aded9	0.16686572
161	0xbea28157	-0.31739303
162	0x3e984af2	0.2974468
163	0x3eac2d70	0.33628416
164	0x3e7e2c5a	0.24821606
165	0xbc3f128f	-0.01166214
166	0x3e024558	0.12721765
167	0xbf733d76	-0.95015657
168	0x3ebf0f01	0.37316135
169	0xbde0d25c	-0.10977623
170	0x3eb7c74d	0.35894242
171	0x3df3055c	0.118662566
172	0xbeffa190	-0.4992795
173	0x3dbbe725	0.09174947
174	0xbf569285	-0.8381732
175	0x3e3b13b2	0.18269232
176	0x3ec1b61d	0.37834254
177	0xbf579dfe	-0.8422545
178	0xbe2d4022	-0.16918996
179	0xbe2f08e2	-0.17093232
180	0xbd0fd68e	-0.035116725
181	0x3e9d84c1	0.30765346
182	0x3ea474bc	0.3212031
183	0xbda7e8b2	-0.0819868
184	0xbcb003f2	-0.021486256
185	0x3e0ebc25	0.13938959
186	0x3e97737e	0.295803
187	0xbde215eb	-0.11039337
188	0x3f4422e6	0.7661575
189	0xbe67646c	-0.22596902
190	0xbf0ba429	-0.54547364
191	0xbec716b7	-0.38884518
192	0x3e915875	0.283878
193	0x3d1545c2	0.03644348
194	0x3e85a87b	0.26105103
195	0x3cc1ec4e	0.02367225
196	0xbf4c9215	-0.79910403
197	0x3e1d883d	0.15384002
198	0x3e6794a0	0.2261529
199	0xbea39c8d	-0.31955376
200	0xbe8894f0	-0.2667613
201	0xbeaf2057	-0.3420436
202	0x3c13034d	0.008972955
203	0xbdac4410	-0.084114194
204	0x3e7ca949	0.24673952
205	0xbe0691dc	-0.13141578
206	0xbe808f57	-0.2510936
207	0x3e3d89bd	0.18509574
208	0xbea3a29e	-0.31960005
209	0xbe0df3ae	-0.13862488
210	0x3e020905	0.12698753
211	0xbe31bfc4	-0.17358309
212	0x3ddefa3a	0.10887571
213	0xbea8e759	-0.32989004
214	0x3db444fd	0.08802221
215	0x3e0e84b5	0.13917811
216	0xbe20c22f	-0.15699075
217	0x3e0dd4c5	0.13850696
218	0x3d52e0c8	0.0514839
219	0xbecbef6b	-0.398311
220	0xbd47e3b7	-0.04880115
221	0x3e974ec9	0.29552296
222	0xbdc49e76	-0.096005365
223	0xbddbed01	-0.10738564
224	0x3e2e8f07	0.17046748
225	0x3ef58ec5	0.47960487
226	0xbe17fbbf	-0.14842127
227	0x3df7bd27	0.12096625
228	0xbb868dac	-0.004106244
229	0xbb86ca5e	-0.0041134795
230	0xbea92885	-0.33038726
231	0x3f039c9e	0.51410854
232	0xbe02a0c2	-0.12756637
233	0xbe40caf4	-0.1882742
234	0x3e0e1ea7	0.1387888
235	0xbdcb335a	-0.09921904
236	0xbf0f3fe0	-0.5595684
237	0x3e86f59a	0.26359254
238	0xbde18700	-0.11012077
239	0x3d915afa	0.070974305
240	0x3ec95df8	0.39329505
241	0xbe14e0ce	-0.14538881
242	0xbdf7369c	-0.12070963
243	0xbf67a0da	-0.90479815
244	0x3f0e61e9	0.5561815
245	0x3f1cb157	0.612081
246	0x3e369b18	0.17832601
247	0xbf38473b	-0.7198369
248	0xbe41d81f	-0.189301
249	0x3dcde196	0.10052793
250	0xbf131b8f	-0.57463926
251	0xbcd24784	-0.025668867
252	0xbeb3f447	-0.35147306
253	0xbefdf59f	-0.49601457
254	0x3de99f44	0.11407331
255	0x3e89029f	0.26759812

l2.bias f4 [256]
0	0xbef3a7ed	-0.47589055
1	0xbee88b47	-0.4541876
2	0x3f46f01d	0.77710134
3	0xbf0b2626	-0.54355085
4	0xbee6370c	-0.44963872
5	0xbedacd87	-0.4273493
6	0xbe916f30	-0.28405142
7	0xbebd50a7	-0.36975595
8	0x3edc9679	0.43083552
9	0xbf1de15a	-0.61671984
10	0xbf0776ea	-0.52915823
11	0xbefe5cc0	-0.49680138
12	0x3f151c92	0.5824672
13	0x3f24ee5a	0.64426196
14	0x3e3fa349	0.18714632
15	0xbed968ef	-0.4246287
16	0x3ef2b700	0.47405243
17	0x3f15b82d	0.58484155
18	0xbe887bd0	-0.2665696
19	0xbed5d1ca	-0.4176162
20	0xbeb5016d	-0.3535265
21	0x3e96efed	0.29479924
22	0x3df7924d	0.120884515
23	0x3df1591e	0.11784576
24	0xbeedd4b6	-0.46451348
25	0xbe621112	-0.22076824
26	0xbea11001	-0.31457523
27	0x3eb4aaab	0.3528646
28	0x3e612b40	0.21989155
29	0x3f02f609	0.5115667
30	0x3ebfd88c	0.374699
31	0xbef9740d	-0.48721352
32	0xbea46272	-0.32106358
33	0x3f093e87	0.53611034
34	0xbef8d372	-0.4859882
35	0x3e4c6dcd	0.1996376
36	0x3d9f618d	0.07782278
37	0xbe738e6c	-0.23784798
38	0xbee63cee	-0.4496836
39	0x3ecd70b0	0.40125036
40	0x3eed0eb8	0.46300292
41	0x3f12c08c	0.57325053
42	0x3e9a5f3a	0.30150777
43	0xbea44455	-0.32083383
44	0xbedcae53	-0.4310175
45	0x3f1a5205	0.602814
46	0x3ed395bd	0.4132518
47	0x3ee7d91a	0.45282823
48	0xbe8e15ad	-0.27750912
49	0xbeff5da6	-0.49876136
50	0xbf1ec517	-0.62019485
51	0x3f2020a1	0.6254979
52	0x3f157fb5	0.5839799
53	0x3f07fdc3	0.53121585
54	0x3f100ae0	0.56266594
55	0x3eb56ff4	0.35436976
56	0xbecc9a6a	-0.3996156
57	0x3f171ae7	0.59025425
58	0xbd9648c1	-0.073380955
59	0xbef518a3	-0.4787036
60	0xbef04438	-0.46927047
61	0x3ed82e78	0.42222953
62	0xbec46fbc	-0.38366497
63	0xbeccf965	-0.40034023
64	0x3e5bbf80	0.2145977
65	0xbe977fc0	-0.29589653
66	0x3f0ff9d0	0.5624056
67	0x3ec80179	0.39063624
68	0xbf007624	-0.5018027
69	0xbe9a8ffa	-0.3018797
70	0x3f054229	0.5205408
71	0x3ec4cee4	0.38439095
72	0x3e0b2729	0.13589157
73	0x3f17503d	0.5910681
74	0xbea0a5b4	-0.3137642
75	0x3eee5790	0.4655118
76	0x3ec2b4a5	0.38028446
77	0xbec04e57	-0.3755977
78	0x3ebb9353	0.36635837
79	0xbea0e35e	-0.31423467
80	0x3ef02edf	0.4691076
81	0x3e8d0b41	0.2754765
82	0xbf0b674e	-0.54454505
83	0xbec13035	-0.37732092
84	0xbedf8705	-0.436577
85	0x3f1b46c0	0.6065483
86	0xbec20fd2	-0.37902695
87	0xbf1babe8	-0.60809183
88	0xbf2c98f3	-0.6742088
89	0xbeecc0c3	-0.46240816
90	0xbecb0ea5	-0.3965961
91	0xbeeef326	-0.46669883
92	0x3ddb66e1	0.10712982
93	0xbf0cd29e	-0.55008876
94	0x3e24f33d	0.16108413
95	0x3e596b25	0.21232279
96	0xbefd4fb3	-0.49474868
97	0x3e1d3763	0.1535316
98	0xbf01de55	-0.50729877
99	0xbf16111f	-0.58619875
100	0xbea4a9c8	-0.32160783
101	0xbee24189	-0.44190624
102	0x3f0931cc	0.5359161
103	0x3ef0c94c	0.47028577
104	0xbe629a40	-0.22129154
105	0xbeec4cb9	-0.46152285
106	0xbe31d64b	-0.17366903
107	0xbee1fa68	-0.44136357
108	0xbee7334d	-0.45156327
109	0x3ee78207	0.4521639
110	0xbe6b37e3	-0.22970538
111	0x3d6d6b59	0.057963703
112	0x3f31a688	0.6939473
113	0x3e1ac4ee	0.15114185
114	0xbf03af95	-0.5143979
115	0xbeb8e65f	-0.3611326
116	0xbe91672b	-0.28399023
117	0xbe9627e3	-0.29327306
118	0x3ef20494	0.47269118
119	0xbec7debe	-0.39037126
120	0xbcbf7889	-0.023372905
121	0xbec9f0e8	-0.3944161
122	0xbf0cd787	-0.5501637
123	0xbf065b04	-0.5248263
124	0xbeb541ad	-0.3540167
125	0xbed634cd	-0.4183716
126	0x3ec1e64d	0.37871018
127	0xbe91c40d	-0.28469887
128	0xbe86c79c	-0.26324165
129	0xbea50085	-0.3222696
130	0xbebc6aa2	-0.36800104
131	0xbe86ccd1	-0.26328138
132	0x3ebe19ca	0.3712905
133	0xbed47966	-0.4149887
134	0xbecf5dc7	-0.40501234
135	0xbeb4bb5d	-0.35299197
136	0x3ea59ce5	0.32346264
137	0xbec3a329	-0.3821042
138	0xbe9b85c4	-0.30375493
139	0xbecf8701	-0.40532687
140	0x3dbf8e73	0.09353342
141	0xbeb6e227	-0.35719416
142	0xbee7b21f	-0.45253083
143	0x3eb30f24	0.3497249
144	0xbebf656f	-0.37382075
145	0xbe998fb5	-0.29992452
146	0xbeb92bac	-0.36166131
147	0xbeb677c1	-0.3563824
148	0xbe94099b	-0.28913578
149	0xbe92c9ac	-0.28669488
150	0xbebdcb73	-0.37069282
151	0xbef858a1	-0.48505118
152	0x3f32e561	0.69881254
153	0xbe170159	-0.14746608
154	0xbecc150f	-0.39859816
155	0xbf076093	-0.52881736
156	0x3eca5355	0.39516702
157	0x3e4fda55	0.20298131
158	0xbea8268e	-0.32841915
159	0xbebdc97e	-0.3706779
160	0xbe629571	-0.2212732
161	0x3d6bfba5	0.057613034
162	0x3eff1234	0.49818575
163	0xbef53432	-0.47891384
164	0xbebc0d96	-0.36729115
165	0x3e686118	0.22693288
166	0xbf04ae5d	-0.5182856
167	0xbcbcd8b4	-0.02305255
168	0xbf033053	-0.5124561
169	0xbec63249	-0.3871024
170	0x3ef9f2f1	0.48818162
171	0xbd9a6b5c	-0.075400084
172	0xbcab6181	-0.020920517
173	0x3eb9a3cc	0.3625778
174	0xbe9b702e	-0.30359024
175	0xbed26a0e	-0.41096538
176	0x3f1ac2ec	0.6045368
177	0xbecb5c31	-0.39718774
178	0x3ec53261	0.38515
179	0x3e51948f	0.20466827
180	0x3ed6f6ba	0.41985112
181	0x3f03ff3a	0.5156132
182	0x3ef97409	0.4872134
183	0xbedd5ed5	-0.43236414
184	0x3f11ac6c	0.5690372
185	0xbeabf217	-0.33583137
186	0xbf0cdaa6	-0.5502113
187	0x3eeb3610	0.45939684
188	0xbef4d99c	-0.47822273
189	0xbea1bd96	-0.31589955
190	0x3f0ca571	0.54939944
191	0xbefac78f	-0.48980376
192	0x3eca5160	0.3951521
193	0x3f223240	0.63357925
194	0xbeb3a887	-0.35089514
195	0x3efad62b	0.48991522
196	0xbe788850	-0.24270749
197	0xbef2c789	-0.47417858
198	0x3f06eb22	0.52702534
199	0x3f52f72d	0.8240841
200	0xbf06d109	-0.5266271
201	0x3f1c5409	0.6106573
202	0x3f0ac1ba	0.54201853
203	0x3e07109e	0.13189933
204	0x3f1e9f29	0.6196161
205	0xbefdac8b	-0.49545702
206	0xbe92062b	-0.2852033
207	0xbeb73ba0	-0.35787678
208	0xbeb9b8b8	-0.36273742
209	0xbea316d5	-0.31853357
210	0x3b7626b7	0.0037559697
211	0x3f47a772	0.77989876
212	0xbe9aaf16	-0.30211705
213	0xbe97f93e	-0.29682344
214	0x3e952888	0.29132485
215	0xbed359ca	-0.4127944
216	0xbef741a0	-0.48292255
217	0x3ee17e01	0.44041446
218	0x3ea2b083	0.31775293
219	0xbe9cc8c7	-0.3062193
220	0xbec7810a	-0.38965636
221	0xbee7eb86	-0.45296878
222	0xbeb597c4	-0.3546735
223	0xbd21ef98	-0.039535135
224	0x3ef2d57d	0.47428504
225	0xbf1990bf	-0.5998649
226	0xbecc8442	-0.39944655
227	0xbeceb7d6	-0.4037463
228	0x3c07d8c8	0.008291431
229	0xbee803d4	-0.4531542
230	0xbe8e5924	-0.27802384
231	0xbe83d514	-0.25748503
232	0xbebbfdfc	-0.36717212
233	0x3edefc6a	0.43551952
234	0x3edca66e	0.43095726
235	0x3ebc7cfa	0.368141
236	0x3ea1a6c0	0.31572533
237	0xbecd4c40	-0.40097237
238	0x3ecf9261	0.40541366
239	0xbeba5f83	-0.36400995
240	0xbe53c12f	-0.20679162
241	0x3e143fc0	0.14477444
242	0xbd8bc2b4	-0.06824246
243	0xbf0bdb10	-0.5463114
244	0x3f05988d	0.521859
245	0x3f2dec5a	0.6793877
246	0x3f0df803	0.5545656
247	0xbf00f5d5	-0.5037511
248	0xbef6fa21	-0.48237708
249	0x3f058f63	0.52171916
250	0xbed9d4ed	-0.42545262
251	0xbd01f655	-0.03172906
252	0x3e45e53a	0.19325724
253	0xbedef8e1	-0.43549255
254	0xbea056fc	-0.31316364
255	0xbf377b37	-0.71672386

l3.weight f4 [1, 256]
0	0xbf1813b5	-0.5940507
1	0xbed24edc	-0.4107579
2	0x3f500c4d	0.8126877
3	0xbee4dcb3	-0.4469963
4	0xbecf7256	-0.4051692
5	0xbf55f618	-0.83578634
6	0xbee8258d	-0.4534115
7	0xbe909e8c	-0.28245962
8	0x3f43ce27	0.7648644
9	0xbf4073b3	-0.75176543
10	0xbee70f5c	-0.45128906
11	0xbf44071d	-0.76573354
12	0x3f2fbf72	0.686515
13	0x3f90e7a0	1.1320686
14	0x3f774798	0.9659362
15	0xbfe0db15	-1.7566859
16	0x3f6e4b07	0.9308323
17	0x3f6f5860	0.93494225
18	0xbfa95c44	-1.3231282
19	0xbf7cdfc6	-0.9877895
20	0xbec69b1a	-0.38790208
21	0x3fa4029d	1.2813298
22	0x3fd47017	1.6596707
23	0x3f792ad9	0.97331005
24	0xbf22def7	-0.6362147
25	0xc0130d60	-2.2976913
26	0xbeeb6d7a	-0.4598196
27	0x3f3ed9fe	0.7455138
28	0x3f7da332	0.9907714
29	0x3f5ca0ed	0.86183053
30	0x3f03893a	0.51381266
31	0xbee4a8be	-0.4465999
32	0xbf10a06e	-0.56494796
33	0x3f885420	1.0650673
34	0xbea56c4b	-0.32309183
35	0x3f92675e	1.1437795
36	0x3f9ecd6a	1.2406437
37	0xbf0cff86	-0.550774
38	0xbec0e8bf	-0.3767757
39	0x3efb3566	0.49064177
40	0x3f8efcee	1.1170938
41	0x3f61a098	0.8813567
42	0x3f74b4af	0.955882
43	0xbf532dc6	-0.8249172
44	0xbf8d57ce	-1.1042421
45	0x3f63ba4d	0.8895615
46	0x3f45a6be	0.77207553
47	0x3f6c2184	0.9223864
48	0xbf071ad2	-0.527753
49	0xbecf299d	-0.40461436
50	0xbe92418b	-0.2856563
51	0x3f652b7d	0.8951948
52	0x3f40a898	0.75257254
53	0x3f5e910b	0.8694007
54	0x3f43d40b	0.76495427
55	0x3f3e3e82	0.7431413
56	0xbf7e2013	-0.9926769
57	0x3f668165	0.9004119
58	0x3ca995a2	0.020701233
59	0xbede8088	-0.43457437
60	0xbf0077fe	-0.50183094
61	0x3f51622c	0.81790423
62	0xbf4bbc86	-0.7958454
63	0xbf486724	-0.7828238
64	0x3f44cfc4	0.76879525
65	0xbf087938	-0.53309965
66	0x3f4ae9c7	0.79262966
67	0x3f845d4f	1.0340976
68	0xbf7b74c5	-0.9822505
69	0xbf4c907f	-0.79907984
70	0x3f327fec	0.69726443
71	0x3f2862c6	0.65775716
72	0x3f476ba6	0.77898633
73	0x3fa5a2df	1.2940329
74	0xbf54f232	-0.8318206
75	0x3f620a58	0.88297033
76	0x3f8204cd	1.0157715
77	0xbf59c1ad	-0.8506115
78	0x3f3ca08b	0.7368247
79	0xbfb6355a	-1.4235032
80	0x3f6c8d93	0.92403525
81	0x3f6a4189	0.9150625
82	0xbfaf2c3a	-1.3685372
83	0xbf1dee82	-0.6169206
84	0xbf50f3fb	-0.81622285
85	0x3f6544d4	0.8955815
86	0xbefc89ef	-0.49323985
87	0xbf0e32ad	-0.55546075
88	0xbef734e5	-0.48282543
89	0xbf90733c	-1.1285167
90	0xbf1f19b5	-0.621486
91	0xbf2f9af8	-0.6859584
92	0x3faae609	1.3351451
93	0xbe15fbed	-0.14646883
94	0x3fac0f0f	1.3442096
95	0x3f86cfd6	1.0532176
96	0xbf97f9ce	-1.1873109
97	0x3f9a2854	1.2043557
98	0xbeea8e4c	-0.4581169
99	0xbf804be0	-1.0023155
100	0xbfaf6800	-1.3703613
101	0xbf42bef6	-0.76072633
102	0x3f638a1d	0.8888262
103	0x3f3b0707	0.730576
104	0xbee9ecc3	-0.45688447
105	0xbf3bb4c3	-0.73322695
106	0xbfd3d201	-1.6548463
107	0xbf8ab62d	-1.0836846
108	0xbf5a13fe	-0.85186756
109	0x3f3bd9a2	0.73378956
110	0xbf168952	-0.58803284
111	0x3f2ce704	0.6754
112	0x3f50ad52	0.81514466
113	0x3f5a1003	0.8518068
114	0xbf43b8b4	-0.7645371
115	0xbfb26926	-1.3938339
116	0xbf1b0093	-0.6054775
117	0xbea49133	-0.32142028
118	0x3f32433d	0.6963385
119	0xbefc01f5	-0.49220243
120	0xbc0489c9	-0.008089491
121	0xbf726d27	-0.94697803
122	0xbea99846	-0.33123988
123	0xbee42dc0	-0.44566154
124	0xbf20885c	-0.6270807
125	0xbf4733cd	-0.77813417
126	0x3f86b583	1.0524143
127	0xbf8d1081	-1.1020662
128	0xbeaee491	-0.34158757
129	0xbf2701ed	-0.65237314
130	0xbf3f39ff	-0.7469787
131	0xbf6ba9f1	-0.92056185
132	0x3f3b8a2f	0.73257726
133	0xbebf74c5	-0.37393776
134	0xbfde2e7e	-1.7357938
135	0xbef60130	-0.4804778
136	0x3f30fd60	0.6913662
137	0xbf227a8d	-0.6346825
138	0xbee6962c	-0.45036447
139	0xc006d940	-2.10701
140	0x4008735e	2.1320415
141	0xbfa10b74	-1.258162
142	0xbf4c49a5	-0.7979987
143	0x3f4b4005	0.7939456
144	0xbf0b2f14	-0.5436871
145	0xbf02249c	-0.5083711
146	0xbfb5a006	-1.418946
147	0xbf8477b0	-1.0349026
148	0xbf5d3caa	-0.8642069
149	0xbf0b3a3e	-0.54385746
150	0xbf87fedf	-1.0624655
151	0xbf147919	-0.5799728
152	0x3f6307a4	0.88683534
153	0xbfb6efb1	-1.4291898
154	0xbed3b110	-0.41346025
155	0xbf0b5c8c	-0.5443809
156	0x3f470c09	0.7775274
157	0x3fa6dd3c	1.3036265
158	0xbee5f244	-0.44911397
159	0xbf239a3d	-0.63907224
160	0xbf37e986	-0.71840703
161	0x3f2ac751	0.6671038
162	0x3f5f231b	0.8716294
163	0xbfa31986	-1.2742164
164	0xbec85e62	-0.39134508
165	0x3f7f4da7	0.99727863
166	0xbee02ef6	-0.43785828
167	0x3d5d0989	0.05396417
168	0xbee4407a	-0.44580442
169	0xbedaf3a5	-0.4276401
170	0x3f6bca1f	0.9210529
171	0x3cd2ca0b	0.025731107
172	0x4007f8ac	2.1245527
173	0x3f71f658	0.94516516
174	0xbf0a7960	-0.54091454
175	0xbecfd343	-0.40590867
176	0x3f809f65	1.0048643
177	0xbf7fe712	-0.9996196
178	0x3f66d919	0.90175015
179	0x3f541f06	0.8285984
180	0x3f4a3b3d	0.7899664
181	0x3f4cfb21	0.8007069
182	0x3f780286	0.9687885
183	0xbf3c48a3	-0.73548335
184	0x3f7793e6	0.9671005
185	0xbf34368a	-0.7039572
186	0xbef14437	-0.47122356
187	0x3f0b7f95	0.5449155
188	0xbea49f69	-0.3215287
189	0xbf54b7e6	-0.83093107
190	0x3f578a5b	0.8419549
191	0xbf10e8d5	-0.56605273
192	0x3f3a1715	0.7269147
193	0x3f4d6910	0.8023844
194	0xbf16398b	-0.58681554
195	0x3f8591c9	1.0435115
196	0xbf3d3e41	-0.73923117
197	0xbf25cb04	-0.647629
198	0x3f689f1d	0.9086779
199	0x3f4e5d6b	0.80611295
200	0xbef026b7	-0.46904537
201	0x3f8653fb	1.0494379
202	0x3f30fd8b	0.69136876
203	0x4021a49e	2.5256724
204	0x3fa382c0	1.2774277
205	0xbf23db15	-0.6400617
206	0xbf1f1fca	-0.6215788
207	0xbf006d6e	-0.50166976
208	0xbf0e0ed2	-0.55491364
209	0xbf72308f	-0.94605345
210	0x3fdde15a	1.7334397
211	0x3f7b8b8c	0.98259807
212	0xbf47cf5f	-0.780508
213	0xbf018663	-0.5059568
214	0x3f985441	1.1900712
215	0xbf552c7f	-0.8327102
216	0xbf358bc0	-0.70916367
217	0x3f8197a2	1.01244
218	0x3f7c1326	0.9846672
219	0xbf73df58	-0.9526267
220	0xbf0a65cd	-0.54061586
221	0xbe828994	-0.2549559
222	0xbed80d9a	-0.42197877
223	0x3cc8cf07	0.02451278
224	0x3f3caec9	0.737042
225	0xbf0abb6d	-0.5419224
226	0xbf58adb5	-0.84640056
227	0xbf32ca42	-0.6983987
228	0x3f8f3354	1.1187539
229	0xbf5c7ef3	-0.8613121
230	0xbfbd7367	-1.4800843
231	0xbf4f35ec	-0.80941653
232	0xbf119fee	-0.5688466
233	0x3f7f4bfe	0.9972533
234	0x3f908070	1.1289196
235	0x3f8261d4	1.0186105
236	0x3f3a1b24	0.72697663
237	0xbed24a1a	-0.4107216
238	0x3f434501	0.76277167
239	0xbf0cba6b	-0.5497195
240	0xbf5d12d3	-0.8635685
241	0x3f819bfc	1.0125728
242	0x3b44a6e8	0.003000671
243	0xbf178874	-0.59192586
244	0x3f33e924	0.7027762
245	0x3f4b5212	0.79422104
246	0x3f3de928	0.74183893
247	0xbf0131d0	-0.5046663
248	0xbf0135e0	-0.5047283
249	0x3f4f47f0	0.8096914
250	0xbf0a7976	-0.54091585
251	0x3c8d7341	0.017266871
252	0x3f7b8acc	0.9825866
253	0xbee46498	-0.44607997
254	0xbf1a534d	-0.60283357
255	0xbed9f9c0	-0.42573357

l4.weight f4 [256, 32]
0	0xbf36cbfc	-0.71405005
1	0xbe18f561	-0.14937355
2	0xbedb461e	-0.42826933
3	0x3ea91535	0.33023992
4	0x3b52cf73	0.0032167106
5	0x3e49d3ac	0.19709653
6	0xbd5c9a46	-0.053858064
7	0x3fb78202	1.433655
8	0xbd659a03	-0.05605508
9	0x3e3ddff7	0.18542467
10	0x3ec36e25	0.3816997
11	0x3e4750cd	0.19464417
12	0xbe396f5f	-0.18108891
13	0xbda7a1bd	-0.08185146
14	0x3d4c34af	0.04985493
15	0x3eb8b101	0.36072543
16	0xbd9d0eb1	-0.07668818
17	0x3e5441bf	0.20728205
18	0x3dfa44f9	0.12220187
19	0xbc9107d6	-0.017703932
20	0xbd8d1f70	-0.06890762
21	0xbd70e6e2	-0.058813937
22	0x3e1ac2d3	0.15113382
23	0xbe4e5eea	-0.20153394
24	0xbedff32a	-0.43740207
25	0x3ecd38d6	0.40082425
26	0x3c83680e	0.016040828
27	0x3c1a54ab	0.0094196005
28	0xbd92de4d	-0.07171307
29	0x3d26aefa	0.040694214
30	0x3d51f9cb	0.05126361
31	0x3d65ecc7	0.05613401
32	0x3e39c777	0.18142496
33	0x3e137bce	0.14402696
34	0xbd22ea07	-0.039773967
35	0xbe1c9eff	-0.15295027
36	0x3dc91469	0.09818346
37	0x3c6af6e4	0.01434109
38	0x3e26086b	0.16214149
39	0xbea7663e	-0.32695192
40	0x3d1dad52	0.03849537
41	0xbf079579	-0.5296245
42	0x3cf978b5	0.030453065
43	0xbe787471	-0.24263169
44	0x3e1bee7b	0.15227692
45	0x3d77ed3f	0.06052899
46	0xbd597138	-0.05308649
47	0x3ebbf28b	0.36708483
48	0xbe6bc095	-0.23022683
49	0x3e573b9d	0.21018834
50	0xbe69bafd	-0.22825237
51	0x3df679f1	0.12034977
52	0x3e3327ba	0.17495623
53	0x3e493324	0.19648415
54	0xbec2d10e	-0.3805012
55	0xbe7c450a	-0.24635711
56	0xbdb04d8c	-0.08608541
57	0x3df3d4d6	0.119058296
58	0xbd34d09c	-0.044144258
59	0xbbe2cd6c	-0.006921461
60	0x3dcc51f4	0.09976569
61	0x3e061033	0.13092117
62	0xbc433ece	-0.011916829
63	0x3c7942b4	0.015213657
64	0x3e8de7b4	0.27715838
65	0x3c9cc3c2	0.019136313
66	0xbe4996f4	-0.1968649
67	0x3e535684	0.20638472
68	0xbe15724f	-0.14594387
69	0x3fa7d295	1.311114
70	0x3dce0c3e	0.10060929
71	0x3f0b2a88	0.5436177
72	0xbe90d473	-0.28287086
73	0x3e6d16bf	0.23153208
74	0xbd7c8d36	-0.061658107
75	0x3f047813	0.5174572
76	0xbe7d44b4	-0.2473324
77	0x3e087e28	0.13329375
78	0x3c1ce493	0.009575981
79	0x3e22de9a	0.15905228
80	0x3e79d956	0.24399313
81	0x3f0480e9	0.517592
82	0x3e0f37ef	0.1398618
83	0x3e20d785	0.15707214
84	0xbe604de0	-0.21904707
85	0xbf79d6df	-0.9759349
86	0x3f0d2112	0.55128586
87	0xbe2030aa	-0.15643564
88	0x3edb6b9d	0.4285554
89	0xbcdd14db	-0.026987484
90	0x3c725f75	0.014793267
91	0x3e8d87c6	0.2764265
92	0x3cf4e85f	0.02989596
93	0xbcee6963	-0.029102987
94	0xbe88dcfb	-0.26731095
95	0xbe16e29e	-0.14734885
96	0xbde7ea67	-0.113240056
97	0xbb62b041	-0.0034589919
98	0xbed12ef1	-0.40856126
99	0x3f22d0c3	0.63599795
100	0x3d2baa1c	0.041910276
101	0xbf6a1f5f	-0.9145412
102	0xbba4ff8e	-0.0050353473
103	0x3eaeb383	0.34121332
104	0xbe0ee412	-0.1395419
105	0xbec79554	-0.38981116
106	0xbe14411f	-0.14477967
107	0xbe147314	-0.14497024
108	0x3cb769ca	0.022389311
109	0xbd7cffa3	-0.06176723
110	0xbe22fa10	-0.15915704
111	0xbe8296ff	-0.25505826
112	0x3e0431c4	0.12909609
113	0xbe5ad562	-0.21370462
114	0xbfa6968b	-1.3014692
115	0xbeefef49	-0.46862248
116	0xbe439e41	-0.19103338
117	0xbf0c9ec7	-0.54929775
118	0xbe36b56f	-0.17842649
119	0xbdd592ee	-0.10428415
120	0x3dfb15bc	0.12260005
121	0x3dfe42a4	0.124150544
122	0x3cf3b827	0.029750897
123	0xbd8b507a	-0.06802459
124	0xbc9d8542	-0.019228581
125	0x3cfb6be1	0.03069109
126	0x3dbefb7f	0.09325313
127	0xbe0c0522	-0.13673833
128	0x3f7a29c7	0.9772
129	0xbe266baa	-0.16252008
130	0x3cd3ffde	0.025878843
131	0xbf14bde1	-0.5810223
132	0xbcf190d1	-0.029488
133	0x3dcfe121	0.10150362
134	0xbe27f335	-0.1640137
135	0x3e706b60	0.2347846
136	0xbf01d750	-0.50719166
137	0xbe1248d2	-0.14285591
138	0xbe41a45b	-0.18910353
139	0x3ef903bc	0.48635662
140	0xbd8984ab	-0.067147575
141	0x3e23fe0c	0.1601488
142	0xbf304bdc	-0.6886575
143	0xbeb87221	-0.36024573
144	0xbe958256	-0.29201
145	0xbe32ceb6	-0.17461666
146	0xbea9db87	-0.331753
147	0x3e8510bc	0.2598933
148	0xbeeb6c64	-0.45981133
149	0xbef98441	-0.48733714
150	0xbf1df08e	-0.6169518
151	0x3b945cf9	0.0045276848
152	0xbcee38c4	-0.029079802
153	0xbed59801	-0.41717532
154	0xbe8166d6	-0.2527377
155	0x3db3d50c	0.0878087
156	0x3e111550	0.14168286
157	0xbe794ad2	-0.24344948
158	0x3e90ca29	0.28279236
159	0x3e9e12dc	0.30873764
160	0x3e87e312	0.26540428
161	0xbd00fdb6	-0.031491958
162	0xbec1c395	-0.3784453
163	0x3da1b814	0.07896438
164	0x3c4df9d6	0.012571773
165	0x3dfa1e02	0.12212755
166	0xbe1b2eb6	-0.15154538
167	0x3e926e97	0.28599998
168	0xbf2ee2d9	-0.6831489
169	0xbe63dfe9	-0.22253384
170	0xbd8771fa	-0.06613536
171	0x3dcbd04a	0.09951837
172	0x3d5527d1	0.052039925
173	0x3e35eb45	0.1776553
174	0xbefa2b66	-0.48861235
175	0x3ed4c941	0.41559795
176	0xbed9f2ac	-0.42567956
177	0x3f19b59b	0.6004273
178	0xbe3a0509	-0.18165983
179	0xbd2fba68	-0.04290238
180	0x3eb13c5b	0.3461636
181	0x3e556a0a	0.20841232
182	0xbe3e293b	-0.18570416
183	0x3e5dedda	0.21672764
184	0xbe92cdab	-0.28672537
185	0xbde91f88	-0.11382967
186	0xbe09d670	-0.13460708
187	0x3e643b63	0.22288279
188	0x3d55836c	0.052127287
189	0xbc56e5c6	-0.013116306
190	0x3e3da6fd	0.18520732
191	0xbe2c45f6	-0.16823563
192	0xbe326a9d	-0.17423482
193	0x3e0f5866	0.13998565
194	0x3f058893	0.5216152
195	0xbea74b52	-0.32674652
196	0x3ced893d	0.028996104
197	0xbea17938	-0.31537795
198	0xbd869463	-0.06571271
199	0xbd4690ab	-0.04847781
200	0x3d377c3a	0.044796206
201	0x3daf903a	0.08572431
202	0x3e1d3f5c	0.15356201
203	0xbd9ef1a4	-0.07760933
204	0x3dfe9e36	0.1243252
205	0xbcd28051	-0.025695952
206	0xbeb08f5d	-0.34484378
207	0xbe86ed8d	-0.26353112
208	0xbe78baa1	-0.24289943
209	0xbe8f790c	-0.2802204
210	0xbd0a006a	-0.0336918
211	0xbe76a8b7	-0.24087797
212	0xbd994f7c	-0.074858636
213	0x3d20f3f8	0.039295167
214	0xbe867425	-0.26260486
215	0x3e0c0d14	0.13676864
216	0xbef1f43c	-0.4725665
217	0xbd47f77a	-0.048819996
218	0xbd37d70d	-0.044882823
219	0xbd945760	-0.07243228
220	0x3d1badd4	0.038007572
221	0x3dba220e	0.09088527
222	0xbdaaff10	-0.083494306
223	0xbd1437a2	-0.036185868
224	0x3f484b31	0.78239733
225	0x3dd5c435	0.10437814
226	0xbe477ac8	-0.19480431
227	0x3e2d3588	0.16914952
228	0xbe24d2c6	-0.16096029
229	0x3e80670d	0.25078622
230	0x3d67d855	0.056602795
231	0xbf6be531	-0.92146593
232	0x3df3c74f	0.119032495
233	0xbf432ad5	-0.7623723
234	0xbdcc1c19	-0.09966297
235	0x3da473d4	0.08029905
236	0x3edb8c35	0.42880407
237	0x3eb0537b	0.3443869
238	0x3d7080ee	0.058716707
239	0xbd6e6489	-0.058201347
240	0x3d3236be	0.043509237
241	0x3e10a4bc	0.14125341
242	0x3f135c4d	0.57562715
243	0x3ea7090a	0.32624084
244	0xbe83716f	-0.2567248
245	0xbfcdd051	-1.6079198
246	0xbc90fae3	-0.017697757
247	0x3d8cddb0	0.06878221
248	0xbd93b096	-0.072114155
249	0xbf1ff418	-0.6248183
250	0xbb213750	-0.002459962
251	0xbc345096	-0.011005541
252	0x3d835629	0.06412918
253	0xbd254505	-0.040349025
254	0x3ce2775a	0.027644802
255	0x3d8ac55f	0.06775927

l4.bias f4 [256]
0	0xbecc7aea	-0.39937526
1	0x3e51a7c5	0.20474155
2	0xbe8080c2	-0.25098234
3	0xbec5647d	-0.3855323
4	0xbd6cfde3	-0.057859313
5	0xbeccff67	-0.40038607
6	0x3f070089	0.5273519
7	0x3d49020a	0.04907421
8	0xbe2b4d14	-0.16728622
9	0xbe09b8f5	-0.13449462
10	0xbdf02f2a	-0.11727746
11	0x3ceb26ee	0.028705087
12	0xbea3f15b	-0.32020077
13	0xbebc5b5a	-0.36788446
14	0xbef12d78	-0.47105002
15	0x3d675fba	0.056487776
16	0xbe30731d	-0.17231412
17	0xbeccf3e1	-0.40029815
18	0xbf0d2824	-0.55139375
19	0xbda79545	-0.08182768
20	0xbef5bf73	-0.47997627
21	0xbe9d82e1	-0.30763915
22	0x3d80483f	0.0626378
23	0x3ce2a8fd	0.02766847
24	0xbe998097	-0.2998092
25	0xbe28f2b4	-0.16498834
26	0xbe98dfa0	-0.29858112
27	0x3e96fd7c	0.29490268
28	0xbe9dc246	-0.3081228
29	0xbe3de77e	-0.18545339
30	0xbdabf1e3	-0.083957456
31	0xbf0281f1	-0.50979525
32	0xbe043822	-0.12912038
33	0x3ddeaa0c	0.108722776
34	0xbee4187c	-0.4454993
35	0xbe80b9ea	-0.2514184
36	0x3e09a06f	0.13440107
37	0xbe9c1cf9	-0.30490854
38	0xba9b6270	-0.0011854898
39	0xbe629c08	-0.22129834
40	0xbe61a980	-0.22037315
41	0xbea95a44	-0.3307668
42	0xbeb672ce	-0.35634464
43	0xbe752502	-0.23939899
44	0x3da91acd	0.08257065
45	0xbe97d1be	-0.29652208
46	0xbea8cbda	-0.32968026
47	0xbdc39cc1	-0.09551383
48	0xbeb2dc0a	-0.349335
49	0xbed740b7	-0.4204156
50	0xbee0ccb5	-0.4390618
51	0x3ec668ed	0.38751927
52	0x3e13f893	0.14450292
53	0xbe13260f	-0.14369987
54	0x3bdab06e	0.006673864
55	0xbe43a06a	-0.19104162
56	0x3e43c42f	0.19117807
57	0xbe8a266d	-0.26982442
58	0xbeb4be6f	-0.3530154
59	0x3d9e703f	0.07736253
60	0x3e0795e6	0.13240775
61	0xbe78b534	-0.24287874
62	0xbebbfdcd	-0.36717072
63	0xbeb00d9f	-0.34385392
64	0xbe9bbd0a	-0.30417663
65	0x3df35b4c	0.11882648
66	0xbea8cea4	-0.32970154
67	0x3eaf0de5	0.34190288
68	0x3d073105	0.033005733
69	0xbe4d23b1	-0.20033146
70	0xbd978aed	-0.07399545
71	0xbe6eed7b	-0.23332779
72	0xbe0df492	-0.13862827
73	0xbd87b9b6	-0.066272184
74	0xbeae65dc	-0.34062088
75	0xbd4063ab	-0.04697005
76	0xbeacbeae	-0.33739227
77	0xbe82833d	-0.25490752
78	0xbddad758	-0.10685605
79	0x3edf3bdf	0.43600366
80	0xbe98c757	-0.29839584
81	0x3e304423	0.17213492
82	0x3c8a1536	0.016855817
83	0xbeec47d1	-0.46148542
84	0xbeaca9c6	-0.33723277
85	0xbe0e612a	-0.13904253
86	0x3df7f214	0.121067196
87	0x3eb73f72	0.35790592
88	0x3e24a617	0.16078983
89	0x3ea709b7	0.326246
90	0x3ea579f4	0.32319605
91	0xbecae500	-0.39627838
92	0xbf0b96bb	-0.5452687
93	0xbe941d3e	-0.2892856
94	0xbc96650e	-0.018358734
95	0xbe4f6ad9	-0.20255603
96	0xbec29f9c	-0.38012397
97	0x3e5ddf24	0.21667153
98	0xbeb1884c	-0.346743
99	0xbf070b7c	-0.527519
100	0x3e0ead3b	0.1393327
101	0xbf214c52	-0.6300708
102	0x3e3092d8	0.17243516
103	0xbd9edb1e	-0.07756637
104	0xbe3c4be7	-0.1838833
105	0xbec831c9	-0.39100483
106	0xbe904990	-0.28181124
107	0xbe408dea	-0.18804136
108	0xbeab7377	-0.3348653
109	0x3e930f35	0.2872254
110	0xbeab0d96	-0.33408803
111	0xbe69ec0f	-0.22843955
112	0xbd2f2e46	-0.04276874
113	0x3df4dc0b	0.11956032
114	0xbf364571	-0.7119971
115	0x3e66c4b6	0.22535977
116	0xbefce33d	-0.4939212
117	0xbedc4a02	-0.43025213
118	0xbf051677	-0.51987404
119	0xbb945629	-0.0045268727
120	0x3dabf8cc	0.083970636
121	0x3da25e6a	0.07928164
122	0xbf04ffa6	-0.5195259
123	0xbec1f2aa	-0.3788045
124	0x3dd48a1f	0.10377907
125	0x3e19cc83	0.15019421
126	0xbe5f8e7a	-0.21831694
127	0xbe7cb26e	-0.2467744
128	0xbf160780	-0.58605194
129	0xbeb0ab98	-0.34505916
130	0x3e97dd7d	0.2966117
131	0xbee26502	-0.44217688
132	0xbecb9d4c	-0.39768445
133	0xbe97133c	-0.29506862
134	0xbe81f027	-0.25378534
135	0xbecce407	-0.4001772
136	0xbedab496	-0.427159
137	0x3d942aff	0.07234763
138	0xbe075ab3	-0.13218193
139	0x3e1e5158	0.15460718
140	0xbef9344e	-0.48672718
141	0xbde125bb	-0.10993525
142	0x3dff2490	0.124581456
143	0xbe2c8725	-0.16848429
144	0x3e62e7d3	0.22158746
145	0xbf003424	-0.5007956
146	0xbc9ced95	-0.019156257
147	0xbefc9c83	-0.4933816
148	0xbea7854b	-0.32718882
149	0x3d7fb344	0.06242682
150	0xbe725844	-0.23666483
151	0xbce9fe73	-0.028563714
152	0x3e53179a	0.20614472
153	0x3edcc0b2	0.43115765
154	0xbe8a2b74	-0.26986277
155	0xbdbadb32	-0.091238394
156	0xbea12f8e	-0.31481594
157	0xbe4b3047	-0.19842635
158	0xbe4fdb12	-0.20298412
159	0x3ea04290	0.31300783
160	0x3d95c074	0.07312098
161	0xbed74fc4	-0.42053044
162	0xbe84e027	-0.25952265
163	0xbeac5f3d	-0.3366641
164	0xbe3bdd85	-0.18346222
165	0x3e5d675a	0.21621457
166	0xbedcf894	-0.431584
167	0x3bb3fb87	0.005492631
168	0xbe497571	-0.19673707
169	0x3d29ab64	0.041423216
170	0x3eb5670f	0.3543019
171	0x3d94a15f	0.072573416
172	0xbe231df0	-0.15929389
173	0xbe6fba5e	-0.23410937
174	0x3e7c3d2a	0.24632707
175	0xbe8823a3	-0.2658969
176	0xbe46d146	-0.19415769
177	0x3e88cb6f	0.26717708
178	0xbdbfb1b7	-0.09360068
179	0x3e71ce44	0.2361384
180	0xbe3c8bf6	-0.18412766
181	0xbd6a9857	-0.05727419
182	0xbc9db6b5	-0.01925216
183	0xbe8312f7	-0.25600407
184	0xbcc761f7	-0.024338705
185	0x3d659411	0.05604941
186	0x3ebde77a	0.37090665
187	0xbe37c694	-0.17946845
188	0xbf00b9a0	-0.5028324
189	0xbe113e18	-0.14183843
190	0xbe0c5e63	-0.1370788
191	0x3e68dfd3	0.22741632
192	0x3eb1d51c	0.34732902
193	0xbe70555e	-0.23470065
194	0xbe94ea5d	-0.29085055
195	0xbe9df4ff	-0.3085098
196	0xbeca10de	-0.39465994
197	0xbe83985c	-0.25702178
198	0xbe6bf1bd	-0.23041435
199	0xbdff550e	-0.12467395
200	0xbdfc7d91	-0.123286374
201	0xbde61af8	-0.11235613
202	0xbc3bbc4e	-0.01145847
203	0x3ce0b61b	0.027430585
204	0xbe6510db	-0.22369711
205	0xbe9e4a57	-0.30916092
206	0xbece7654	-0.40324652
207	0xbe78dae1	-0.24302246
208	0xbf030c06	-0.5119022
209	0xbdfc52e5	-0.123204984
210	0x3dee57df	0.11637854
211	0x3c3f7b29	0.0116870785
212	0xbce06755	-0.027393023
213	0xbeaaf019	-0.33386305
214	0xbe0591e9	-0.13043942
215	0xbe4bfe4d	-0.19921227
216	0x3db09edd	0.08624051
217	0xbeeab24a	-0.4583915
218	0x3db9a33b	0.09064337
219	0xbeebc953	-0.46052036
220	0xbe88abd3	-0.2669359
221	0x3ef2933c	0.47377956
222	0xbd089a04	-0.033350006
223	0xbec02900	-0.3753128
224	0x3ee492e5	0.44643322
225	0xbe0f7c13	-0.14012174
226	0xbe9fd097	-0.3121383
227	0xbd30b71c	-0.043143377
228	0xbea3873a	-0.31939107
229	0xbe04c6dc	-0.12966484
230	0xbec24725	-0.37944904
231	0xbe8141ee	-0.25245613
232	0xbea7f32a	-0.32802707
233	0xbe97aed7	-0.2962558
234	0xbe894153	-0.2680765
235	0xbd8b5717	-0.068037204
236	0x3e684044	0.22680765
237	0x3ea3e9a7	0.320142
238	0x3e724eda	0.23662892
239	0xbebc1324	-0.36733353
240	0xbe770e1b	-0.24126475
241	0xbeade447	-0.33963224
242	0xbcd5f293	-0.026116645
243	0xbe032755	-0.12807973
244	0xbec97797	-0.39349052
245	0xbe257fb3	-0.16161995
246	0x3f098270	0.53714657
247	0x3d5ba4e5	0.053624053
248	0x3e78cd86	0.24297151
249	0x3d110eb8	0.035414428
250	0x3d0ca8f9	0.034340832
251	0x3b009c25	0.001962432
252	0xbe437a01	-0.1908951
253	0xbe0503ca	-0.12989727
254	0xbebd5a1c	-0.3698281
255	0xbd0c2987	-0.03421929
