part1/td3_q4/Half/HalfCheetahBulletEnv-v0_TD3_1638194135_1638194135_td3.pth (torch, 898095 bytes, 16 tensors)

l1.weight f4 [256, 32]
00000000: de1e 9c3e 240e 33be ce19 11be e932 083f
00000010: 44b4 b53c ac05 6bbf 29fc f6bc 4c19 86bf
00000020: b5d6 06be 8f2e 57bd d081 e9be 5435 073f
00000030: fa20 3b3f b4f1 943e dd4c 87bc 686b bdbe
00000040: 1674 c63e 9fa7 94bd b022 13be 6371 053e
00000050: 3a68 b6bd d15c df3d 0c46 eb3d e3c3 91bd
00000060: bd9f 143f 6834 abbf 8e72 a0bd 5dec 263e
00000070: 8ce4 723e 1127 a8bd e081 8f3d bce3 953d
00000080: c433 7a3f 7829 8cbd a2fa d63d 6e63 aebe
00000090: e636 f2ba e67b 2fbe 54d3 04bd 141c 933f
000000a0: 461e 8b3e 3348 c8bc bc24 3a3f c0cb a0bd
000000b0: 864f bebc 160a 82bd e6b5 78bd aa4c cdbe
000000c0: f1ca a7bc 5315 4abe 4042 003f c314 4f3c
000000d0: cef6 813c d92e aa3d 8eda fb3d bd04 ec3c
000000e0: b3ac 2bbe 1b7f 5abe 6956 d9bb dc55 f1bc
000000f0: bb58 873c bb6c e2bb 4e7c 8dbc b861 a23c
00000100: 8625 3b3f c14a 0b3e 61c7 1dba e35c 1cbf
00000110: 6064 f23d 09c5 7a3f 5db8 e23d 1dc8 81bf
00000120: 9421 bbbe a360 953e de13 6ebe 4965 073e
00000130: ff02 65bd f972 943d a0b7 f23e f78b 0c3f
00000140: 754c b83c 8820 de3c 4277 1ebd 36fd d7bd
00000150: 3843 1ebc f2a6 653d bfbc 243d b3d9 0dbd
00000160: 0d0d bd3e 1557 4b3c d1ef 8bbc 6799 70bd
00000170: f9b7 0e3d 3c10 4c3e 99d5 1bbe 3930 0e3d
00000180: 4780 a5be 4e1d 22be 7fc3 c3be 7cbf 133f
00000190: fed9 86bd 1445 15bf 469f 1c3e 8a1d fa3f
000001a0: db58 e03e f116 6abe 89b3 6abc 3d51 31be
000001b0: aff2 a6bc b1d9 003d 665f a3bc dcc3 203e
000001c0: 53b3 c53e 9525 043e 1811 15be 2e0e 693d
000001d0: 128b 993b f7f0 d73c 652f 0cbf 5ca5 6a3d
000001e0: 56c0 7e3f ecfc 4f3d 84d3 b33c 14f9 073c
000001f0: f78a 72bc 9fe3 8fbc 08a4 8b3c a3fe f8bc
00000200: 9c43 673f 48c7 b33c 625c d53e 1e2f a23e
00000210: cda4 f4bd ccd3 303f 9640 e8bd 4b58 bd3e
00000220: 71b4 853e 7545 3bbf 1642 993e 0c84 f7be
00000230: 1e4a 9d3d 3a91 74be adc2 62be a495 993d
00000240: 130a e1be 2b1f be3d 8a80 0dbe 28ad 3cbc
00000250: 6e15 723e 5441 ccbd 42ba 893d fa6f 52be
00000260: 5e47 133e 09c2 0a3e 5b00 91bd 1b80 11be
00000270: cdeb 9a3c 482b dfbd dac8 b83a 8025 023b
00000280: 6c24 6dbf f76e 24be b9fb efbe c194 853e
00000290: 7f19 e63d c1dd 8dbf 2c17 2e3d 323d b1bf
000002a0: 210a 27bf 12e7 10bf 9b52 33bf f6d1 94be
000002b0: c5c0 99bd 2d17 10bd b8f8 ab3e 0be9 43bf
000002c0: 0598 c73e 456b 9dbe 1145 7fbe b16e f3bd
000002d0: ee60 3f3d c454 2a3e fac2 373d 99ab b6bc
000002e0: 8cbe 893e 4d47 9abc cc46 10bd 83be a53a
000002f0: 68b6 9dbd 8d77 f63c a88b 45bd ac23 dabc
00000300: 9b05 393f 9de3 09be 4c34 cd3e 0f66 9bbf
00000310: ed63 093e 8e57 b03f bdd1 1dbe a55b 41bf
00000320: 99e4 173e ab76 4e3f 6fa3 75bc 2e47 8d3e
00000330: 40b3 633c b37f 6abd 9224 9ebd 4bf1 00be
00000340: f36b 6abf 758e 80be 4c00 213e 6e49 ccbd
00000350: 9009 353e 7a0f 9cbe 94fd 62bf 23fc 1c3e
00000360: 7d97 f6bd a8da 8f3d 4f9f ee3c d5ad 543d
00000370: 4b62 73bd d25f 26bd 9733 66bd a0e7 ef3c
00000380: 31f8 1dbf 1a47 1d3e dfa2 91be d02e db3d
00000390: fff2 9dbd 7cbf f3be 0525 bebd 8708 543f
000003a0: 3e07 bcbc aad8 d23e 2da7 87be 5d25 07bf
000003b0: 6d63 60bd db7a 54bd 402a 91bb 9c79 f13e
000003c0: 713e c6bd 9987 843e b552 2ebf 38f2 2e3d
000003d0: cab2 af3e edeb f5be f873 323d 6b0a 18be
000003e0: 0c80 423e df63 043e 3279 243e 0bbf 89be
000003f0: 1657 303c 0701 853b 9321 3639 f411 aa3b
0.304923 -0.17485863 -0.1417 0.5320268 0.022180684 -0.9180553 -0.030149536 -1.047647
-0.13167842 -0.052534636 -0.45606852 0.5281575 0.73097193 0.29090655 -0.016516143 -0.36996007
0.38760442 -0.07258534 -0.14368701 0.13031535 -0.089065984 0.10906375 0.1148797 -0.071174406
0.5805624 -1.3375368 -0.078343496 0.16301103 0.23719996 -0.08210576 0.070071936 0.073188275
0.9773524 -0.06843847 0.10497023 -0.34060234 -0.0018479496 -0.17137107 -0.0324281 1.1492944
0.27171534 -0.02444849 0.727123 -0.07851362 -0.02323128 -0.0634958 -0.060720347 -0.40097553
-0.020482512 -0.19734697 0.5010109 0.012639227 0.015864756 0.08309717 0.122975454 0.028810853
-0.16765098 -0.2133755 -0.0066326153 -0.029459886 0.016521802 -0.0069099343 -0.017271187 0.019821987
0.7310413 0.13602735 -0.00060187845 -0.61079234 0.11835551 0.979569 0.11070321 -1.0139195
-0.36549056 0.2917529 -0.23249766 0.13222231 -0.05591106 0.07248492 0.4740572 0.5490107
0.022497395 0.027115121 -0.038687952 -0.10546343 -0.009659581 0.056067415 0.040219065 -0.034631442
0.3692402 0.012410899 -0.017082127 -0.058740046 0.03484342 0.19928068 -0.152182 0.034713957
-0.3232443 -0.15831491 -0.3823509 0.57714057 -0.065845475 -0.5830853 0.15295133 1.9540265
0.4381779 -0.22860314 -0.014325031 -0.17316146 -0.020379392 0.031457607 -0.01994295 0.15699714
0.38613376 0.12904961 -0.14557302 0.05689829 0.004685768 0.026360018 -0.5475982 0.057286605
0.9951223 0.050778314 0.021951444 0.008299131 -0.01480364 -0.017564593 0.01704599 -0.030394858
0.9033754 0.02194561 0.41672045 0.31676573 -0.11945496 0.69073176 -0.11340444 0.36981425
0.26114228 -0.7315286 0.29933232 -0.4834293 0.07680152 -0.23883525 -0.22144575 0.07499245
-0.43953 0.092832886 -0.13818565 -0.011515893 0.23640987 -0.09973398 0.06724979 -0.20550528
0.14382693 0.13550581 -0.07080146 -0.14209025 0.018911267 -0.10896927 0.0014097944 0.0019858778
-0.926337 -0.16057955 -0.46871737 0.26090053 0.11235332 -1.1083299 0.042502567 -1.38468
-0.6524983 -0.56602585 -0.7004792 -0.29066437 -0.07507471 -0.035178352 0.33588195 -0.7652747
0.3898317 -0.30745903 -0.2492869 -0.11886347 0.0467233 0.16633898 0.04486368 -0.022298621
0.26903188 -0.018832827 -0.035223767 0.0012645278 -0.07700807 0.030086303 -0.04822889 -0.026628338
0.7227418 -0.13465734 0.40078962 -1.2140521 0.13417025 1.377672 -0.1541204 -0.75530463
0.14833297 0.8064982 -0.014992579 0.27593368 0.013897717 -0.05725069 -0.07721819 -0.12592046
-0.9157097 -0.25108686 0.1572277 -0.09974943 0.17679429 -0.30480558 -0.8866818 0.15330558
-0.12040613 0.07024127 0.029128699 0.05192359 -0.05941991 -0.040618725 -0.056201544 0.029285252
-0.61706835 0.15359154 -0.28444573 0.10702288 -0.077123635 -0.47607028 -0.09284405 0.8282551
-0.022952672 0.41180927 -0.26494732 -0.52791387 -0.05478232 -0.051874977 -0.0044300854 0.47163093
-0.096798785 0.25884703 -0.6809495 0.042711467 0.34316093 -0.4803156 0.043567628 -0.14847724
0.18994159 0.12928723 0.16061857 -0.26903567 0.01076295 0.0040589604 0.0001736938 0.0051901285

l1.bias f4 [256]
00000000: 5ff5 1dbe 9fcf 143e 5f2c 983c 3f01 a4be
00000010: 15be e43e 3676 ccbe 44d1 fd3d 4cab d6be
00000020: acf9 41be 7b72 b1b8 7f18 c53d f8f1 58bd
00000030: 79da 81be 2667 afbe d54a 93be d2ef cdbc
00000040: 543e 44be 74f3 debd a27f c6be 6657 b03e
00000050: 41bd 08be d0cb 8e3e 894d 98be 37aa 783e
00000060: 0852 43bd 7058 16be 9c9e 23bf 45f1 953c
00000070: ebe0 82be 7526 433c 0ba9 f83e 77af 86be
00000080: 2424 183e 5b98 c03e 164c 893d cb58 edbc
00000090: 299a 8fbe f1d9 bc3e 2112 aebe 3aad 153e
000000a0: 4dc7 633e 756b b0bd 5358 de3e c842 a63e
000000b0: 01c9 f5be 77e4 82be f6f4 3cbf 3b80 f33e
000000c0: b203 91be a452 f0be 48ca ddbe 507f 46be
000000d0: 1b8c 76be 1316 533e 6928 8ebe a2cc b8be
000000e0: 5f7f a23a af8e 333d 5e44 51be 6291 59be
000000f0: 542e 853e 6377 113e aba5 e63d f3b6 e0bd
00000100: 1222 5e3e 0d01 8cbd aca3 dd3e 1213 033e
00000110: fe82 bcbe e96a 88be 5865 cebe e094 ba3d
00000120: 6b88 e2be f79b f5be 09b8 bd3e fb0b 76be
00000130: 3e4d 253e 437a bdbc 7e12 05be 6acf a6be
00000140: c1c2 c4be 504a 943e 9b0c 9bbe a7c9 14bd
00000150: b216 a6bd 6344 353e 0c0f 583e 77e7 403d
00000160: 2914 d7be ad94 fa3e 4dc0 4e3d 2686 dd3e
00000170: 2b2b 95be 0be3 b53e 24ae d73e 0233 98be
00000180: 8ca1 173c 69d0 64bd f972 45bd 8d6e 37be
00000190: 6b3e f3bd 2740 953d 9fc0 39bf 3031 edbd
000001a0: e267 b33e 1596 773e 212f fa3e 919d d3be
000001b0: ed0d 9cbc 816a b1bd b324 94be 2c06 9e3e
000001c0: 6913 ddbe bcf9 273d 2b54 9bbe 5711 803e
000001d0: 918d 91be 547d 00bf d04a 683e 1f4a 653d
000001e0: e127 a03e f2f5 fc3e 1ce8 043e b31b 4bbe
000001f0: f6c2 aebe 35b8 483d 4d2c a53e 7779 cabe
00000200: 7160 4b3e ebc6 a5be b0f2 d23e 6b55 59bd
00000210: 0805 56be 829c 953d f72d dc3d 7a80 85be
00000220: 964e febc 4d28 cc3d d807 25bf df11 61be
00000230: b2af 283e 522c f0bc 2d0b 64be b509 f43d
00000240: d13a 1d3d 170e b3bd d65f c3bc d159 523e
00000250: 4e65 633e 0d18 6d3e 1fac dfbd 8b8b f4bd
00000260: 6fb3 debe 0c31 593e ad4d f3bc 1c1d 303e
00000270: 525c 423e 42d8 c2be d80f 173f 58c6 223c
00000280: 118c 8c3d 2c73 4ebe af5e d3be 434b 87bd
00000290: b9b1 b6be cefd edbd 5f61 25bd cf1a 7fbe
000002a0: ff52 22be 8015 43bc 108a 9ebd da76 b13b
000002b0: 0cde 053f 921a bd3e 2ebb 90be 45cc b8be
000002c0: f133 d5bd 0992 383e 2d58 2abe b34e a4be
000002d0: 3350 cc3e e980 64be f60d db3d aaa1 843e
000002e0: 9a82 2ebe 57b5 adbd 36bc 28bd ba58 aebe
000002f0: 3703 3f3d cbd0 70be be9c ccbe a641 0a3f
00000300: 8c1e 62be f2b9 ee3e 46a9 c2bd f97d 8ebe
00000310: ebf6 1bbe 3707 8ebe f016 8b3e 2434 ec3e
00000320: c7ef 853e 940d 8ebe bca5 2abe 4a28 aa3e
00000330: 0e3c 9cbe 99ad f0be 3b9d 3fbd dc95 8cbe
00000340: 102c 2e3e 70cf fbbe 1fa9 e23e 4514 d73e
00000350: 5cc1 c8be 1e44 aabe b9ee a83e 41e4 853e
00000360: bdfa 373e 6cbf a1be 0d9a b9bd ca68 25be
00000370: f0ab 50be 07f3 78be 0f40 c2bd 99f4 8d3e
00000380: 5c14 2a3b 39e7 5dbe b7e6 0b3e 5b21 35bd
00000390: 71d4 bfbe e909 3fbe 943f d6be 65b2 80be
000003a0: 445f 703d 7921 153e 68c7 f0bc d688 f33e
000003b0: 37c0 16bd d277 a9bd edee d0be 99d0 0e3e
000003c0: 8921 2b3d e851 98be 4a21 e93d c60b 8c3e
000003d0: f213 3d3e 99cf 8dbe 8567 e43c 3b41 cf3c
000003e0: 1c79 983d a65d d6be 552a 3f3e f0bc d8be
000003f0: 3f22 83be 9f64 e0be cdeb f4be 876d e33d
-0.15425633 0.14532326 0.018575845 -0.320322 0.4467627 -0.39933938 0.1239343 -0.41927564
-0.18942899 -8.461341e-05 0.09623813 -0.052965134 -0.25361994 -0.34258384 -0.2876803 -0.02513877
-0.19164401 -0.10886279 -0.3876925 0.3444168 -0.13353445 0.27889872 -0.29746655 0.24283682
-0.047685653 -0.14682174 -0.63913894 0.018303523 -0.25562224 0.011911024 0.4856647 -0.26305744
0.14857537 0.37616238 0.06703965 -0.028973004 -0.28047302 0.36885026 -0.33998206 0.14616862
0.22243996 -0.08614246 0.4342676 0.32472825 -0.48004916 -0.2556493 -0.7381128 0.4755877
-0.28323132 -0.4693805 -0.4331839 -0.19384503 -0.24076883 0.2061389 -0.27765206 -0.36093622
0.0012397579 0.043837246 -0.20436236 -0.21246865 0.26011908 0.14205699 0.112620674 -0.10972395
0.21692684 -0.06836138 0.43288934 0.12800243 -0.3681869 -0.26644066 -0.40311694 0.09110427
-0.44244704 -0.47970554 0.3705447 -0.24028008 0.16142747 -0.023129588 -0.12995335 -0.3258012
-0.38429835 0.28962946 -0.30283055 -0.036325123 -0.081097975 0.17701869 0.2109949 0.047095742
-0.42007568 0.48941556 0.05047636 0.4326641 -0.29134497 0.35524783 0.42125046 -0.29726416
0.009254824 -0.055862818 -0.04820535 -0.17913266 -0.1187714 0.07287627 -0.7255954 -0.115816474
0.35040194 0.24178346 0.48864082 -0.4133115 -0.01904961 -0.08662892 -0.2893425 0.30864084
-0.4317887 0.04100965 -0.30337653 0.2501323 -0.2842832 -0.50191236 0.22684789 0.05597889
0.31280425 0.4940639 0.12979168 -0.19834785 -0.34133118 0.0490038 0.3226036 -0.39545795
0.19861008 -0.32378325 0.4120078 -0.053059977 -0.20900357 0.07305242 0.107509546 -0.26074582
-0.031043332 0.09968624 -0.64465094 -0.21979474 0.16473272 -0.029318009 -0.22269888 0.11915914
0.03838617 -0.08742922 -0.02384941 0.20542075 0.22206613 0.23153706 -0.10921501 -0.11940678
-0.43496272 0.21210116 -0.029700125 0.17198604 0.1898053 -0.38055617 0.5900855 0.009934984
0.06862653 -0.20161122 -0.41283175 -0.06606152 -0.35682467 -0.11620675 -0.040376063 -0.2491257
-0.15851973 -0.0119069815 -0.07741177 0.0054157795 0.5229194 0.36934334 -0.28267807 -0.36093345
-0.10410298 0.18024458 -0.16635199 -0.32091293 0.39904937 -0.223148 0.10696022 0.2590459
-0.17042008 -0.084818535 -0.041195117 -0.34052068 0.046633925 -0.23517148 -0.39963335 0.5400642
-0.22081965 0.4662624 -0.095049426 -0.27830485 -0.1523091 -0.2773988 0.27165937 0.4613353
0.26159498 -0.27744734 -0.16664785 0.33233863 -0.30514568 -0.47007445 -0.046780806 -0.27458084
0.17008996 -0.491817 0.44269654 0.42007652 -0.39210021 -0.33255094 0.3299463 0.26150706
0.17966743 -0.31591356 -0.09062586 -0.16153255 -0.20378089 -0.24311458 -0.094848745 0.27725676
0.0025952077 -0.21670236 0.1366223 -0.044221263 -0.37466767 -0.18656124 -0.4184538 -0.25136104
0.058684602 0.1456355 -0.02939196 0.47565335 -0.036804404 -0.08274807 -0.40807286 0.13946761
0.04178003 -0.2974999 0.113833025 0.27352732 0.1846464 -0.27697447 0.027881393 0.025299659
0.07444975 -0.41868323 0.18668492 -0.42331648 -0.25612065 -0.43826768 -0.47836152 0.11104875

l2.weight f4 [256, 256]
00000000: 698d 473e d6c2 4c3b 7909 bb3b 5d48 c3bd
00000010: e93d 5f3f 222d 33be 69aa a6be 84cb 193e
00000020: b0b0 abbd 5a7c 4c3e 4ee5 46bd 2863 003f
00000030: 05d2 94be 0547 d63e 7401 ec3c dd3f 7b3e
00000040: fade 2e3e 1742 f63c 6361 c93e 23ff ba3d
00000050: c9a4 2bbe 68a6 1e3e 189a dd3d aa69 a2bd
00000060: df2a 88bd 9631 a83c 35f4 90be 636e 243f
00000070: caf8 c2be 1859 153f 9d14 283e 41cd 363e
00000080: 0a8b acbe 0a59 053e 8078 ea3e a977 c4be
00000090: 59db fabd f6cb dcbc 62c1 1cbc 4370 4fbe
000000a0: b847 f73d 8ec1 023f 9acb 0a3e fe60 b2be
000000b0: 5b9d 9abd 752e bbbe 1eed dabe 09af 933c
000000c0: e2df 5fbe 5996 01bf 467b 9ebf 1698 07bd
000000d0: 2191 d93c acfa 4abe 196d 8bbe c5c6 863e
000000e0: f754 b5bd ba4a 1b3d c2da 953d fea2 7cbd
000000f0: a5a6 09bf 306e 88be e184 afbe 06d3 853d
00000100: 1dab 33be a7d7 11be 5215 503d 02d6 8f3e
00000110: 1c7d 3a3d 1832 85be 2792 b1bd b3f3 a53e
00000120: ae1c 0ebe 747c febe 63dd 103e e070 59bf
00000130: 441f 313e 6a87 5abd 375d a2be 5457 8f3e
00000140: 615a 28be dade 51bd f6c1 e13e 242a 7bbe
00000150: cfc6 07be d66a 13be 35a9 8e3c 75ef 80bd
00000160: 9fe1 7b3e 38f2 423e 46d5 633e 28b7 8cbe
00000170: 3afa 3d3d d44a 17bf bd30 dc3c 1375 cd3e
00000180: c3aa 50bd 4b7c a13e 6a56 42be c634 25bf
00000190: 24ea 843e ce75 0e3f aa8a bc3d 03c7 a3bd
000001a0: 33ff 5c3e 0bda 983e 6d54 2ebd 3881 f43d
000001b0: b35a c1be 3b82 13be 8c5d b1be 00a2 b53e
000001c0: 456c 243f 403c e13e db5f 283d c4e6 853b
000001d0: b221 993e 41a9 a7be b522 9bbc 9281 b1be
000001e0: 2b29 6fbe e272 e0bd 8f25 4abe e4e3 1e3e
000001f0: 51b2 16bd f2ac 9ebe d5fb 5b3e 4165 3fbe
00000200: 8ed3 a0bd ee1d 51bc e818 8f3e 66d8 eebc
00000210: 26b2 d0be b97c 9f3e 5213 b73d c9ab e83e
00000220: 5742 6ebd 46d2 d83e b727 8fbe 3918 c8be
00000230: bed3 183f 48e6 473e 030a 2bbf 9e86 21bf
00000240: 9c2b b8be adce 89bb e8fd 99be 21b5 86be
00000250: 96d7 9d3d 0b81 29be 889c cdbe dc78 f23d
00000260: 9543 af3e 2258 7d3e 293e f6bc d086 973e
00000270: 00cf 083e 0df7 923e f2f7 a83d c508 79be
00000280: b222 91bc 5ffe 583d 3222 9abe f8be 36bf
00000290: 67cf 2abe f323 57be 3548 97be 00b2 8ebe
000002a0: b6d7 10bf a0da 99be a25b 8abe 89c7 b8be
000002b0: 56f4 1cbd 6739 453e 5c98 503e 2a0c cfbd
000002c0: b070 473e ad52 b33e 176b 353e cd77 923e
000002d0: cead 8fbe 0a9e 2e3e a7d0 ecbc 9435 a8bd
000002e0: ee85 13bf 55d6 9a3e 4e64 3a3f 391b b4be
000002f0: b402 86be a087 f5be 6e60 9f3d 12f7 843e
00000300: a61c 2dbe 5301 6d3e 8f70 e23e 8121 16be
00000310: e1a4 b0be 4205 ffbe 5b7e bc3e f056 423e
00000320: a4c0 5b3d 7f51 1a3d 9b28 923d 5d95 0d3e
00000330: 9dc3 bd3e 3817 a43e ce8e 203d 9714 073e
00000340: 2a99 913d 71ad febe 6549 523e fa9b 16bf
00000350: 5652 91bf e6b4 c5bc 8b01 b33d 28f9 4b3c
00000360: 9d8a a93e 3164 d53c 9a91 21be 2083 0a3f
00000370: 2ef4 753e 6e60 8cbd 0146 ad3e b6f4 77be
00000380: f632 f3bd 24ff 39be ca70 a6bf d845 373a
00000390: 23fb 013c 90b2 6b3e f82d 8abe 1a3e dbbe
000003a0: 32f4 133e 8fae 50bf c8cf 14bf 9a09 58bd
000003b0: d842 33be b15d 0ebe e05a 49be a88d a43e
000003c0: 333f aa3d 8653 18be 8cbb 5a3d 2897 7b3f
000003d0: b7d2 78bd ded0 b93d 2fba 103e e4d5 e3bc
000003e0: eca8 40bf f8ce 85bb 1aa4 8ebd a7ca 18be
000003f0: 9fc5 463c 89a8 003f 8636 eebc 3989 1dbe
0.19487537 0.003124406 0.0057079163 -0.095352866 0.8720384 -0.17497686 -0.32551888 0.15019041
-0.0838331 0.19969311 -0.048558526 0.501513 -0.29066482 0.4185106 0.028809287 0.2453608
0.17077246 0.030060811 0.39332113 0.09130695 -0.1676208 0.15493166 0.10820407 -0.0793031
-0.06648802 0.020531457 -0.28311315 0.64230937 -0.38080436 0.5833907 0.16414113 0.17851736
-0.33699828 0.13022247 0.4579506 -0.38372543 -0.122488685 -0.026952725 -0.00956759 -0.20257668
0.12074226 0.5107659 0.1355423 -0.34839624 -0.075495444 -0.3655888 -0.4275903 0.0180278
-0.21862748 -0.5062004 -1.238137 -0.033104025 0.02655846 -0.19822186 -0.27231672 0.26323524
-0.088540964 0.03791306 0.07317115 -0.06167888 -0.53769904 -0.26646566 -0.34281066 0.0653439
-0.17545743 -0.14242421 0.050801583 0.28092963 0.04552947 -0.2601478 -0.086704545 0.3241249
-0.13878128 -0.49704325 0.14146952 -0.8493786 0.17297083 -0.053351797 -0.31711742 0.27996314
-0.16440727 -0.05123792 0.44093293 -0.24527794 -0.13259433 -0.14396223 0.017414669 -0.06295673
0.24597786 0.19037712 0.22249326 -0.27483487 0.046381213 -0.59098554 0.026878709 0.40128383
-0.0509441 0.3154014 -0.18978277 -0.6453365 0.25959885 0.55648506 0.092061356 -0.07996943
0.21581726 0.29853854 -0.042560983 0.11938709 -0.3776451 -0.14405148 -0.34641683 0.3547516
0.64227706 0.4399128 0.04110704 0.0040863473 0.2990852 -0.32746318 -0.018937448 -0.34669167
-0.23355548 -0.10959412 -0.1974089 0.15516621 -0.03679115 -0.30991322 0.21482785 -0.18690969
-0.07852851 -0.012763483 0.2794869 -0.029155921 -0.40760916 0.31149843 0.08939232 0.45443562
-0.058168735 0.42347926 -0.27959988 -0.3908098 0.5969809 0.19521439 -0.6681215 -0.63096035
-0.3597077 -0.004205546 -0.30076528 -0.26310065 0.077071354 -0.16553132 -0.40158486 0.11839458
0.34231248 0.24740651 -0.030058937 0.2959504 0.13360214 0.2870411 0.08250417 -0.24319752
-0.01771674 0.052976962 -0.30104214 -0.71385145 -0.1668068 -0.21009807 -0.29547277 -0.27870178
-0.5657915 -0.3004961 -0.27023035 -0.36089733 -0.038318954 0.19260179 0.2037062 -0.10109742
0.1947658 0.35024014 0.17716633 0.28607026 -0.2806229 0.17052475 -0.028908087 -0.08213344
-0.57626235 0.30241647 0.728093 -0.3517702 -0.26173937 -0.47955036 0.077820644 0.2596975
-0.1690546 0.23145036 0.442265 -0.14661218 -0.34500793 -0.498087 0.36815152 0.18978477
0.053650513 0.037675377 0.07136651 0.13826509 0.37063304 0.32048965 0.03919869 0.13191448
0.07109292 -0.497417 0.2053581 -0.5883175 -1.1353252 -0.02413411 0.08740529 0.01244954
0.33113566 0.026048752 -0.15778199 0.5410633 0.24018928 -0.0685433 0.3384247 -0.24214444
-0.118749544 -0.18163735 -1.300317 0.00069913035 0.007933411 0.23017335 -0.26988196 -0.42820817
0.14448622 -0.81516355 -0.5812955 -0.05274353 -0.17505968 -0.13902928 -0.19663572 0.32139325
0.083128355 -0.14875612 0.053401515 0.9827752 -0.06074783 0.090730414 0.14133523 -0.027811952
-0.75257754 -0.0040835105 -0.06964894 -0.14921056 0.0121320775 0.50257164 -0.029078733 -0.15384378

l2.bias f4 [256]
00000000: 41bd d83e 7b0e dd3e c4b3 d83e 5b08 20bf
00000010: 933f eb3e 7841 0e3f 05f0 c9be 0817 14bf
00000020: 5953 d3be bcf8 79be 4628 023f e872 edbe
00000030: d4a4 0e3f 15fd 1e3f 2a06 233f 7330 e7be
00000040: ffa1 ca3e 8f3f 703e c694 aebe 2733 903e
00000050: a1ff 0f3f 1586 e4be 5285 4b3e dfce d4be
00000060: e26b e6be c136 8fbe 2588 91be d8e1 b4be
00000070: c34e 54be 1928 f5be afd7 e23e 2bf8 70be
00000080: 9aa4 c6be 60a5 383f 40ff 9e3e 1aba 023f
00000090: b3c3 09bf ab22 4d3e bbec 9ebe 66ad 053f
000000a0: 7550 e33e f787 083f 04f8 7cbe f53a 8bbe
000000b0: 026b d7be c117 fabe 821e ca3e 5901 d8be
000000c0: af77 c9be 9aef 9e3e 53cf ae3e ae0a f03e
000000d0: 6e1b d2be a7f7 bcbe ba15 f43e 7c4e 04bf
000000e0: a6d6 e2be 5c39 7fbe 9bc2 94be 4a8d 05bf
000000f0: 2c20 e4be 5a40 9dbe 862c 7bbe a46a e2be
00000100: b304 023f 1513 073f f1db 993e fbc3 a3be
00000110: ec37 353f 7bba 083f 7b93 09bf da7f 0b3f
00000120: 661a b1be b729 ffbe b869 1b3f f04b 75be
00000130: f398 303f e424 bfbe 567c b1be 32fc d23e
00000140: 5e7b 093f 11c9 163f 5a91 813f 6068 d63e
00000150: b90c 053f 4b41 a8be e55c efbe 9529 eabe
00000160: 3856 143f c7c5 093f 201f f4be a39b d3be
00000170: 3d21 ec3e 3cb1 0dbf dc23 bc3e 349c df3e
00000180: 4e6c d63e 371c 7d3e e0ad 503e 503a dd3e
00000190: 46e5 cd3e 36a7 e8be cce1 f63e f52d 9b3e
000001a0: ba62 f33e 5b1f 103f e5b9 e23e 3415 5abe
000001b0: 0349 d5bd 54e3 f0be 6541 b63e 7e10 ff3e
000001c0: 875a a1be 35c3 a83e 2439 dbbe 160c c5be
000001d0: dfaf 6ebe 6670 013f 84df 0d3f aeba 943e
000001e0: 0b19 003f 0356 a2be 34a8 18bf 6f8e d93e
000001f0: 869e 7fbe f0ab c1be 3d11 38bf 82b3 d7be
00000200: acc0 99be deb0 d0be bbcc 633e cf50 04bf
00000210: 3df7 023f ab3e 12bf e822 d93e 4557 fabd
00000220: 1bc8 883e 7b55 a8be aadd 293f b2ff a3be
00000230: d56b f23d 8ec4 083f 83a0 e43e 1367 f4be
00000240: c218 f3be 2e8e 00bf bf7b 1c3f cded cc3d
00000250: b21d c8be 882e 873e 600c 8d3e 859f bdbe
00000260: ea38 88be 44ad 8d3e 3652 8a3e 3cf3 8a3e
00000270: 29da eb3e 468a bbbe 8e67 90be 33ae 9cbe
00000280: dc8e 253f 0d87 bc3e eb3a cfbe f9d2 c6be
00000290: 555b b2be a218 cc3e e661 6f3f d619 103f
000002a0: aeb6 d13e 8502 8bbe 6a37 b23e 4568 a4be
000002b0: 403c 423f 9ddf 84be 2a99 e83e d2c8 bfbe
000002c0: 73f3 88be 6c1e bb3e 9267 15bf 742b 6fbe
000002d0: 2643 b2be 43df 953e 7ff7 a43e 06ce c1be
000002e0: a7f8 d2be ed1f 123f 4c04 e9be b4cf d1be
000002f0: 4a3d 9b3e 8d36 b6be 495c 753e 5f9a e3be
00000300: 6a4c 143f 86c0 c5be c58c 0bbe d6a7 ea3e
00000310: 0f7b fe3e 4f8b fc3e d5e7 01bf 3946 3bbe
00000320: 2159 06bf 1548 18bf 19ed 233f bd77 0b3f
00000330: 2c6f 053f c776 c33e 6401 033f d0ed f93e
00000340: 83d2 8f3e 4927 b73e fad7 e3be 6854 41be
00000350: d5a8 723e a0eb b9be fcb1 bf3e e20f 39be
00000360: e456 00bf 76b3 07bf 1796 d93e 1bfa 79be
00000370: 5585 05bf 9b73 d2be 8853 9dbe a0db cebe
00000380: 3a01 b23e 25bd 04be 46d0 5cbe 5f73 083f
00000390: fb0e 9f3e 23e0 f8be 7717 0f3f 86cb 9dbd
000003a0: d269 96be 1a68 a9be d219 e83e c136 febe
000003b0: 43c6 f63e 6db1 f73e 5182 c0be 69a0 23bf
000003c0: bc35 2a3f cc59 15bd c6c4 ebbe ce7b ffbe
000003d0: 3fa5 cbbe 49b4 27bf 72be edbe 414f c1be
000003e0: 2e9e 833f af54 ba3e 37b4 03bf 9d38 ab3e
000003f0: d949 89be 37a9 093f 6157 d4be a163 1a3f
0.4233189 0.4317511 0.4232465 -0.6251275 0.4594694 0.5556865 -0.39440933 -0.5784764
-0.41274527 -0.24411291 0.508427 -0.4637673 0.5572026 0.6210492 0.6368128 -0.4515415
0.39576718 0.23461746 -0.3409788 0.28164026 0.56249434 -0.44633546 0.19875076 -0.4156408
-0.45004183 -0.2797146 -0.28424183 -0.35328555 -0.2073317 -0.47882155 0.4430518 -0.23532169
-0.38797456 0.7212734 0.31054115 0.5106522 -0.5381424 0.20032756 -0.31039986 0.5221771
0.4439732 0.53332466 -0.24703985 -0.27193418 -0.42073828 -0.48846248 0.394764 -0.42188528
-0.39349124 0.31042176 0.3414255 0.46883148 -0.41036552 -0.36907694 0.47672826 -0.5168226
-0.4430439 -0.24924225 -0.29054722 -0.52168715 -0.44555795 -0.3071316 -0.24528703 -0.44221985
0.5078842 0.5276349 0.30050614 -0.3198546 0.70788455 0.53409547 -0.5374066 0.5449196
-0.34590453 -0.49836513 0.6070819 -0.23954749 0.6898338 -0.37332833 -0.34665173 0.41208035
0.5370387 0.58900553 1.0122483 0.41876507 0.5197254 -0.32862315 -0.4675056 -0.4573485
0.5794406 0.5381741 -0.47679996 -0.4132968 0.4611911 -0.55348563 0.3674611 0.4367386
0.41879505 0.24717794 0.20378828 0.4320855 0.40213984 -0.45440072 0.48219144 0.303085
0.4753626 0.56297845 0.4428245 -0.21297151 -0.104143165 -0.47048438 0.35596767 0.4981727
-0.3151438 0.3296143 -0.42817032 -0.38485783 -0.23309277 0.5056213 0.5541918 0.29048675
0.5003821 -0.31706247 -0.5963166 0.4249148 -0.24962816 -0.3782649 -0.71901304 -0.4212914
-0.3002981 -0.4075994 0.22246067 -0.51685804 0.51158506 -0.57126874 0.42409444 -0.122236766
0.26715168 -0.32877716 0.6635386 -0.32031018 0.118369736 0.5342492 0.4465371 -0.4773489
-0.47479826 -0.5021695 0.6112632 0.100062944 -0.39085156 0.26402688 0.27548504 -0.37035766
-0.26605922 0.27671254 0.27015847 0.27138698 0.4606488 -0.36628932 -0.28204006 -0.30601653
0.6467111 0.36821786 -0.40474638 -0.38832834 -0.34835306 0.39862543 0.93508756 0.5628942
0.40959686 -0.2715036 0.34807903 -0.321108 0.75873184 -0.25951853 0.45429355 -0.374579
-0.26748237 0.36546648 -0.5836116 -0.2335642 -0.34816855 0.29271898 0.32220075 -0.37852496
-0.41205332 0.57079965 -0.4551109 -0.40978777 0.30320197 -0.35588494 0.23960985 -0.44453713
0.579291 -0.38623446 -0.13627918 0.45831174 0.4970326 0.49325034 -0.5074437 -0.18288507
-0.5247975 -0.5948499 0.6403366 0.5447958 0.5212276 0.38176557 0.51173997 0.4881425
0.28090295 0.3577216 -0.44500715 -0.18879855 0.23697217 -0.3631258 0.3744048 -0.18072465
-0.50132585 -0.5300821 0.42497322 -0.24411814 -0.52156574 -0.41103825 -0.30727792 -0.40401936
0.3476656 -0.12962778 -0.21563825 0.5330104 0.31066117 -0.48608503 0.5589518 -0.07704835
-0.2937761 -0.33087236 0.453322 -0.4965115 0.48198137 0.48377553 -0.37599424 -0.6391664
0.6648824 -0.03646259 -0.46048564 -0.49899143 -0.3977451 -0.6550947 -0.4643436 -0.37755778
1.0282648 0.36392733 -0.5144686 0.3344163 -0.26814154 0.53773826 -0.41472915 0.6030827

l3.weight f4 [1, 256]
00000000: 1cff 773f e695 633f a84e 953f 01bf e8bf
00000010: a357 8e3f 8d48 353f 5c97 95bf a07a 87bf
00000020: 1ddf 25bf 7542 99bf aae0 3f3f 902e b6bf
00000030: 4db0 993f b7e2 463f 26cc 693f e638 6abf
00000040: 0d5e 9f3f 210b 2c40 bc99 f1bf 6fbd 553f
00000050: bbfe 3a3f ebc1 42bf 8417 953f 32c2 1cc0
00000060: 670f 3fbf fb7b 14c0 624e 85bf de9f 83bf
00000070: 1998 c4bf 801e 5ebf 5b71 4a3f 1f58 86bf
00000080: dd5b 1fbf dcfd 423f bd17 0340 6bf9 573f
00000090: 9213 6dbf 2571 ba3f e404 51c0 d808 be3f
000000a0: dd9b 713f 531a 4f3f b199 fbbf 9cbb 9cbf
000000b0: 70c3 23bf 47fd aebf 9805 9c3f 893f afbf
000000c0: 6aa0 78bf ae66 c33f cabf 983f 1320 8c3f
000000d0: bd07 66bf b9c6 cfbf 5145 6b3f 7360 71bf
000000e0: 0b20 cfbe 79e0 d7bf df63 97bf e014 95bf
000000f0: 4c24 81bf 201d d4bf d5d8 3bbf 1d2b 85bf
00000100: 509f 773f c154 723f 9bac 943f 15b5 d9bf
00000110: b84a 493f 5a6d 763f 268a c4bf 4c90 373f
00000120: 15e3 ccbf 365f 89bf 30de 513f db19 d7bf
00000130: 5d2f 413f 96f9 a7bf 9a37 7abf a7e7 6a3f
00000140: f623 5c3f a845 4a3f e1c9 8c3f 2c1f 463f
00000150: 8018 383f 4e29 6cbf a576 0ebf 113a 2ebf
00000160: 071b 503f 9bed 7a3f 96bd acbf f5bc 81bf
00000170: 6890 9c3f 7334 7bbf 58fd 703f 2b35 823f
00000180: 19b6 273f 2e52 a13f fe22 573f f446 843f
00000190: 145f b23f b8c7 78bf adfb 5f3f b76c 423f
000001a0: 70cc 4b3f 214f 663f 2cc3 823f e0ed 4fc0
000001b0: 6a8f d5bf acbd 8cbf 5952 983f 60ea 4a3f
000001c0: b59d c7bf 5556 5b3f 04eb 3abf b605 9ebf
000001d0: 884d d7bf d8ed 8b3f a5eb 4e3f 8482 743f
000001e0: 198d 4d3f e8d5 70bf ff42 86bf e1b7 8a3f
000001f0: 6f32 0dc0 8565 51bf 0314 58bf 0b47 99bf
00000200: 9f32 73bf 2281 60bf 148f 1440 6de4 85bf
00000210: 3568 6d3f e447 bfbf 0f79 603f 913a efbf
00000220: 9e51 a23f dcb7 b4bf aba7 553f b985 9fbf
00000230: 41f3 0440 b8fa 533f d26a 823f e460 64bf
00000240: cc3f 43bf 99dd 75bf 1c47 5a3f 8c83 e23f
00000250: e81e 72bf 62a4 ec3f 6bb5 673f 2be2 51bf
00000260: 8f06 73bf 26a0 a53f 186a 863f 1ecd b13f
00000270: 4233 743f e2d2 8cbf 458a 9fbf 2480 b9bf
00000280: cde7 1e3f 5be8 9c3f 3f47 1cbf 5b86 b0bf
00000290: 50f9 dabf 7be4 ab3f 496b 483f 8ff7 803f
000002a0: 32f1 3b3f d236 89bf 1828 8d3f 2d7d 67bf
000002b0: a3f8 5f3f 1dba 42c0 a4d2 aa3f afc9 59bf
000002c0: bc3c 9ebf 2512 823f d2a1 93bf 05a1 88bf
000002d0: 3563 52bf 254e 6b3f 2593 ed3f a5b2 bdbf
000002e0: 5db3 a3bf 339b 7c3f 9823 87bf 3483 67bf
000002f0: d0e7 a93f 128a 82bf 5c23 f33f e538 74bf
00000300: 0540 433f fddf 99bf 9d22 a3bf 9d35 523f
00000310: b69e 8c3f 5a0e 533f b6b2 3fbf 42e4 b1bf
00000320: cbc1 8ebf 54cc 58bf 3004 613f 1649 6a3f
00000330: 5962 7a3f 2221 843f 7652 433f 99cc 6a3f
00000340: 394e bd3f 8f81 953f a631 e9bf 7e39 c6bf
00000350: a752 953f 1f99 7bbf 0460 a93f 89fa 89bf
00000360: 6e67 aabf bec8 18bf ae36 ad3f 74a1 84bf
00000370: c761 eabf 122e 42bf 9d14 b5bf 3453 0ec0
00000380: cfaf e63f 3c0f 37c0 26fa e6bf 341e 503f
00000390: 99cb 1640 e12d 65bf 1fab 413f 1e79 03bc
000003a0: 7de2 82bf 8afa 5bbf 72b7 a83f fc65 a6bf
000003b0: 12ce 513f 3d72 8c3f 3a92 65bf d463 b4bf
000003c0: 6d21 463f 9007 073d 0045 cbbf f263 2bbf
000003d0: b115 9ebf 3b36 e1bf 4ffa a0bf a2c0 babf
000003e0: 9958 903f 1b13 833f d3a4 78bf 8d15 623f
000003f0: a07f aabf 4de2 883f bdef a3bf 2521 453f
0.9687364 0.889006 1.1664629 -1.818329 1.1120495 0.7081383 -1.1686816 -1.0584297
-0.6479357 -1.1973406 0.74952185 -1.423296 1.2006928 0.7768969 0.9132713 -0.9149307
1.2450577 2.6881793 -1.8875041 0.8349218 0.7304494 -0.76077145 1.1647801 -2.4493527
-0.7463288 -2.3200672 -1.0414546 -1.0283163 -1.5358917 -0.8676529 0.79079217 -1.0495642
-0.6224955 0.7616861 2.0483239 0.84364957 -0.92607987 1.4565779 -3.2659235 1.4846449
0.94378453 0.8089954 -1.9656278 -1.2244754 -0.6397009 -1.3671044 1.2189207 -1.3691264
-0.9711977 1.526571 1.1933529 1.0947288 -0.8985556 -1.623252 0.91902643 -0.94287795
-0.40454134 -1.6865379 -1.1827353 -1.1646996 -1.0089202 -1.6571388 -0.73377734 -1.0403782
0.96727467 0.94660574 1.1615175 -1.7008387 0.78629637 0.9626061 -1.535466 0.71704555
-1.60068 -1.0732181 0.81979656 -1.6804765 0.75462896 -1.3123043 -0.9774109 0.91759723
0.8599237 0.79012537 1.0999109 0.77391315 0.71912384 -0.92250526 -0.5564979 -0.6805735
0.8129124 0.9801881 -1.3495357 -1.013579 1.2231569 -0.98126906 0.9413657 1.0172476
0.65512234 1.2603204 0.8403777 1.0334153 1.3935266 -0.97179747 0.874934 0.75947136
0.7960882 0.8996449 1.0215812 -3.2488937 -1.6684391 -1.0995383 1.190013 0.7926388
-1.5595003 0.8567861 -0.73014855 -1.2345493 -1.6820536 1.0931959 0.80828315 0.9551165
0.8029342 -0.94076395 -1.0489196 1.0837365 -2.2062032 -0.8179553 -0.84405535 -1.1974806
-0.94999117 -0.8769704 2.3212328 -1.0460335 0.9273713 -1.4943814 0.8768472 -1.8689748
1.2681158 -1.411861 0.83458966 -1.2462684 2.077347 0.8280444 1.0188849 -0.89210343
-0.7626922 -0.96041256 0.85264754 1.7696395 -0.9457841 1.8487666 0.90511197 -0.8198573
-0.9493188 1.2939498 1.0501127 1.3890722 0.95390713 -1.1001856 -1.2464072 -1.449223
0.6207245 1.2258409 -0.6104621 -1.3791002 -1.7107334 1.3429102 0.78288704 1.0075549
0.7341491 -1.0719855 1.1027861 -0.9042538 0.87488765 -3.0426095 1.3345532 -0.8507337
-1.2362285 1.0161787 -1.1533759 -1.0674139 -0.8218263 0.91916114 1.856053 -1.4820143
-1.2789112 0.98674315 -1.0557737 -0.90434575 1.3273869 -1.0198386 1.8995166 -0.95399314
0.7626956 -1.2021481 -1.2744938 0.8211306 1.0985935 0.82443774 -0.74882066 -1.3897784
-1.1152891 -0.8468678 0.87897015 0.9151777 0.97806317 1.0322611 0.762977 0.9171844
1.4789497 1.1680163 -1.8218277 -1.5486295 1.1665848 -0.9828052 1.3232427 -1.0779582
-1.3312814 -0.5968131 1.3532312 -1.0361772 -1.8311089 -0.7585155 -1.4146916 -2.2238283
1.8022403 -2.8603048 -1.8045089 0.81296086 2.3561766 -0.8952313 0.75651735 -0.008024482
-1.0225369 -0.8592917 1.3180983 -1.2999873 0.81955063 1.0972363 -0.8967625 -1.4092965
0.77394754 0.032966197 -1.5880432 -0.6694938 -1.235037 -1.7594675 -1.2576388 -1.4590037
1.1277038 1.0240206 -0.971265 0.88314134 -1.3320198 1.0694062 -1.2807537 0.770037

l4.weight f4 [256, 32]
00000000: e2a0 cebd 3a20 20be e45b 5bbe ae44 a2bf
00000010: e7d0 283e 4911 7bbe 8c47 babd 3a55 3bbd
00000020: c01e 5b3e e166 b8be b609 543e da49 3ebf
00000030: b12f 23bd e7fd 963e cdab cf3d 76bf e6be
00000040: f82d c93e e38e 3c3e 721b adbe 235d f03a
00000050: d79d 75be 33e9 1a3e 5930 23be 4ffc 07be
00000060: 4ae5 903c 3e24 323c 4fb7 023e 2af5 96bc
00000070: a8a8 d73e ecf4 153d 27f4 14be 2fad 3c3e
00000080: f2d3 4b3c 3be9 183d 0926 e1be 62eb 1cbf
00000090: e45b 8b3d 7c80 8fbf 4d2a ffbd 5226 9cbf
000000a0: 6fdb ccbe 9ed1 ecbe ce73 80be fd87 0f3d
000000b0: cc52 33bf 1d8f 80be 4a14 e4be ba1d a2bf
000000c0: 070f 7dbe 7728 3bbe 4938 d73d 6f84 44be
000000d0: a811 a6bc d96a 24be 362d b53e c68b 40bd
000000e0: feb9 dcbb e473 1f3e 7cb7 27be e948 af3d
000000f0: 835c 8cbd 721c fabe f6ac ad3d fbbc f43c
00000100: a4a1 f9be 52ef 0b3e c3af 12bc 0caa 2d3f
00000110: e27c 0cbe f67d 953f 131b 903d 71e1 0cc0
00000120: 28ca 003f ae75 db3e 40df d83e a8fa 6b3f
00000130: b072 d4bd adce efbd 42b6 093e e52a febb
00000140: cbf2 0abe 0734 05be e29d 1ebe a624 d8bd
00000150: d77a 4f3d 494e 033f a3db 0cbf b12f 1abe
00000160: 6fda b93e 609d 793e 836b d23d b030 c83d
00000170: 657e 8bbd 76ca 7b3d 6425 eebc 31f8 aabc
00000180: 6927 933d 36bc 1abc 513b f9be 8a13 053e
00000190: df6b 543c 1663 0a3f eb9b 283e 3e72 b43f
000001a0: 28c7 87be e24f f2bc 1307 063f e876 4e3e
000001b0: bbca b1be 0acc 7fbd f43e 31be 6a1f 893e
000001c0: 2479 d6bc 9b10 2abd 7e7d 1d3e 961c 37bd
000001d0: 78c5 003d 61e7 16be 3ca7 b4bd fa83 b43c
000001e0: 0d31 313f 5c1c 903e 2b4f 9dbc ac46 b63c
000001f0: 447a 98bc 2731 993d 687a 50bd e304 c83c
00000200: 6d83 a3bd 16b1 78bd 14ac 92be c8ff 823e
00000210: 0338 193e a964 8cbf 5254 0c3e b634 8e3f
00000220: 6333 f13e b76b 6f3e 0aab 313f 2f2a b03e
00000230: 72c3 273e d738 313e f71b 04bf 77ca 3dbf
00000240: 5269 85bf 5de2 0cbf 75ac 393e 6eac 62bd
00000250: 1021 94be 09bd bf3c 374f 4d3c 8fdc 1c3e
00000260: ca54 a8bd 6674 e8bc bbe4 88bd 74ac e63d
00000270: f4fd 7dbd 4c2e 873c d203 7fbe 09f4 723c
00000280: 640b 133f dd4a 9abd 7051 d83e 3772 37be
00000290: dabb a5bd 3685 8fbf 5338 b93c dfb4 2f3f
000002a0: 15c1 b93d 7098 ddbc 8ed5 633c 63f5 7abe
000002b0: a77e 0ebe b79e b2bd e361 48bf ce99 1abf
000002c0: 4c52 4abe f9a2 8dbe aceb be3e 6f9a 05bd
000002d0: 92cf 37be e00e 5e3e ac87 933e 6d54 4cbe
000002e0: 03f7 ca3e 461c 653e 3647 833d d264 4ebd
000002f0: b6f0 723d ef7c 453d e532 ebbd 6d1b 08bd
00000300: 0717 c1be 2403 41bd 4ab7 42be 5245 1ebf
00000310: 5836 1a3d 2741 293f ee77 f2bd 8207 b8be
00000320: 8332 c43e 6fb1 363e 1cbe 413e 9e5d e1bd
00000330: ed12 c93c 4f12 8d3d dc13 f73d 9bb2 f1bd
00000340: cc55 babf 8216 e6be 1f0b c1be 2353 9bbd
00000350: 685f a83b 7168 57bc 2216 1dbe 302c 2a3d
00000360: 8e1b d5be 1df6 89be 15b1 6c3c 4f5b 563d
00000370: c88c 9b3d dee8 45bd a7b1 d7bd 0f7c c13d
00000380: efa4 ffbe 7e01 653d d4d2 98be 4e41 4cbf
00000390: 0add 2cbc 9db3 00bd 6a79 9bbd eb8b 043f
000003a0: d809 3c3e c9a9 af3f 85c6 3cbf 9bae 143f
000003b0: b1e2 f33d 1c19 013d 46ab edbd a00d f9be
000003c0: d321 b43e e285 b3bd 2008 cd3d 5d10 89bd
000003d0: 7efa 9abd 0a1d bebc 8857 093d f4ad ebbc
000003e0: 3ef1 483f ebbb 023e 0c16 0d3d 4fb4 3f3b
000003f0: 1f6e b83d 6c54 9cbd 5431 83bd 299a e93b
-0.1008928 -0.15637293 -0.21421772 -1.2677209 0.1648594 -0.24518313 -0.09095678 -0.045735575
0.21398449 -0.3601599 0.2070683 -0.7433144 -0.039840404 0.29490587 0.1014019 -0.45067948
0.39292884 0.18413882 -0.33810002 0.0018338304 -0.23985992 0.15128021 -0.15936412 -0.13279842
0.017687459 0.010872899 0.12765239 -0.01842745 0.42120862 0.03661053 -0.14546262 0.1842544
0.012440668 0.0373318 -0.4397433 -0.61296666 0.06804636 -1.1211085 -0.1245924 -1.2199194
-0.40011165 -0.46253675 -0.25088352 0.035041798 -0.70048213 -0.25109187 -0.4454673 -1.2665322
-0.24712764 -0.18277155 0.105087824 -0.19191144 -0.020272091 -0.16056384 0.35386056 -0.0470083
-0.006736039 0.15571553 -0.16378587 0.085588284 -0.06853583 -0.48849827 0.08480255 0.02987527
-0.48756135 0.13665512 -0.008953038 0.67837596 -0.13719514 1.1679065 0.07036414 -2.2012599
0.50308466 0.4286322 0.42357826 0.92179346 -0.103734374 -0.11709342 0.13448432 -0.0077565783
-0.1356918 -0.13008128 -0.15489915 -0.10553865 0.05065426 0.5129133 -0.5502264 -0.15057255
0.36299464 0.2437644 0.102744125 0.097749114 -0.06811217 0.06147238 -0.029070564 -0.0208703
0.07185251 -0.009444287 -0.48678067 0.12995735 0.012965172 0.54057443 0.16465728 1.4097364
-0.26519132 -0.029579107 0.52354544 0.20162547 -0.34724984 -0.062450446 -0.17309171 0.2678178
-0.026180811 -0.041519742 0.15379903 -0.044704996 0.03143832 -0.14736702 -0.0882096 0.022035588
0.6921547 0.28146636 -0.01920279 0.022250496 -0.018612988 0.07480078 -0.050897986 0.024416393
-0.07984052 -0.060715757 -0.2864691 0.2558577 0.14962773 -1.0968219 0.1370404 1.1109836
0.47109517 0.23380934 0.6940161 0.34407184 0.1638315 0.17306839 -0.5160517 -0.7413706
-1.0422766 -0.550329 0.18132193 -0.055340223 -0.28931475 0.023405569 0.012531093 0.15318511
-0.08219297 -0.028375816 -0.06684252 0.112633616 -0.062009767 0.016501568 -0.24903801 0.01482869
0.57439256 -0.0753381 0.42249632 -0.17914663 -0.080924705 -1.1212528 0.022609865 0.6863536
0.090700306 -0.027050227 0.013905896 -0.2450767 -0.13915502 -0.08721679 -0.78274363 -0.6039094
-0.19757956 -0.276634 0.37289178 -0.032617982 -0.17950276 0.21685362 0.28814447 -0.19954081
0.3964158 0.22374067 0.06410067 -0.05038912 0.05931159 0.04821485 -0.11484317 -0.03322928
-0.3771288 -0.047122136 -0.19015232 -0.61824524 0.037649482 0.6611504 -0.11839281 -0.35943228
0.38319787 0.17841123 0.18920177 -0.11004184 0.024545157 0.06888258 0.12064335 -0.118016444
-1.4557433 -0.44939047 -0.37703797 -0.075842164 0.0051383264 -0.013147459 -0.15340474 0.041546047
-0.41622585 -0.26945582 0.0144465165 0.052333172 0.07595211 -0.048317783 -0.10531931 0.094474904
-0.49930522 0.055909626 -0.2984835 -0.7978715 -0.010550747 -0.031421293 -0.07591517 0.51776
0.1836313 1.3723689 -0.73740417 0.58078927 0.11908472 0.031518087 -0.116049334 -0.48643208
0.35182056 -0.087657705 0.10011315 -0.06692574 -0.07567309 -0.023207206 0.033530742 -0.02876947
0.78493106 0.12766998 0.034444854 0.002925176 0.09005379 -0.0763329 -0.06405893 0.007128973

l4.bias f4 [256]
00000000: fcba 1bbe d9d8 c3be b41e 633e 2a9e cebe
00000010: 09f1 8fbe 3511 d83e 403b 70be adba 5dbe
00000020: 3b07 aa3e 0dfb 913c fe7f 133c 3126 71bd
00000030: abf7 813d bd41 633e 6bf0 93be 7fec afbe
00000040: 2d70 8dbe 9d6b ef3e 1f37 51bd 3cbc 13bf
00000050: 0aad eabe f975 513e b9f1 83be 3eb6 8cbe
00000060: 5f77 6f3e 6298 803e 9ac1 a23c 55f4 78bd
00000070: a315 883d a1bd fcbe c22e b6be f15d 2b3e
00000080: 8d53 99bd 658c c43e 55da 68be db05 92be
00000090: 5ab3 fabc b582 d1be 0ef9 f8bd 9d9c 843e
000000a0: 84af 023e b6dc c2be 5a22 d7be 2265 9e3e
000000b0: 3393 5dbd bf93 c53e fe5a 4bbe ee3b 923e
000000c0: 6999 4b3e 1b6e 05bd ec30 76be 1322 9f3e
000000d0: dcc9 913e f22e 1bbf c44e 10bc 7c25 7fbe
000000e0: a50e 6cbe f145 bc3e 1d0a c43e 341a 95be
000000f0: 070f a23d 071e f63d 8fd0 bd3e b569 103d
00000100: 9e39 afbe e761 fbbe eaf0 e7bd 9fcf 46bb
00000110: 56ec 483e dc29 803d b64a 983e 2c1f 52bd
00000120: 7a90 1abe d8e6 df3d 267b 7b3e 0660 413e
00000130: bd22 d53d b77c 8abe 2cbb 36be ab52 7cbe
00000140: dff6 8b3e cf27 bd3e 2e87 52be 3cd6 823e
00000150: fdc8 243e f356 da3d 665c 97be 85b8 e5be
00000160: 2012 b03e a848 8dbd 7f2d 553e 1589 95be
00000170: 71ca b3be c6ec 09be 3b9f 91be e649 333e
00000180: beed 043c 3f52 50be 9ee5 41be 9b73 22be
00000190: bfa0 d53e b7c1 173f 1e12 22be b223 f6bd
000001a0: 2881 1b3e 30af 883e 3bae 00bf 639a c7be
000001b0: b85e 60be 5263 fcbe 0f94 aebe 2da2 91be
000001c0: a15f 3cbe ae99 ca3b d9bc 9c3e fafe a9bd
000001d0: 82d1 b8bc 2238 f0bd 95e1 ea3e d03f e83e
000001e0: 54e7 173f 1d2c 2bbe 32ef b2bd 62e3 c2be
000001f0: da9e 8fbe 1b69 6a3e 3d0b a73d 6752 8e3e
00000200: aa85 c6be 8e68 72be d05d a1bc 9582 1c3e
00000210: 4aae 72be 579d 04be 2da2 cb3e f8fb 6b3e
00000220: d575 9b3d e5ae f3be dbbf 30be 9c77 113e
00000230: 8678 923e f1cf e33e 5b9e 53be 4f30 04bf
00000240: 994d f2be 2640 ea3e bc09 dfbe 4588 183e
00000250: b888 9abe 164a 423e 99fb 4dbf 320e 09be
00000260: f610 1b3e a71c d2be 2561 f4bd ab68 e03d
00000270: 79f5 5e3e 73b7 3ebe 9d54 3fbd 898d fb3c
00000280: c3a9 1d3e bae7 d1bd a338 45bb ecd8 78bc
00000290: 44a6 4e3e 0ef6 a13e d201 37be 0e56 a1be
000002a0: a38c 2dbe cad9 64bd 0fb1 85be e19e 933e
000002b0: adc5 9abe 9005 ac3e 69fa b6bd ecc1 1bbe
000002c0: 0be5 2ebe 451f 673e 2751 54be a6a6 eabd
000002d0: 44bf b7bd 6b57 9bbe 44f1 1dbf eb38 e4be
000002e0: e593 90be 9c1d 97be 5752 02bd aea7 a23e
000002f0: 0796 8b3e d876 3fbe 60ba b4be 1a62 aebe
00000300: 0fe6 2e3e 0cc2 353e 0e10 a73d 6f00 da3e
00000310: 88b7 d9bc 0c36 07bf e0bc 15bf 5600 00be
00000320: 5c02 16bf 8314 533d d2fa 99be 0c51 a5be
00000330: 73e6 4a3d fb61 b03e d396 e2bc 4dd6 60bd
00000340: 45d6 ac3e 8712 9d3e 24da 68bd b8e7 86bd
00000350: 7ff2 213d f938 33bf a3b7 96be 4d8b d9be
00000360: f10d ddbe 10ed 833e 6aca 10be 9b53 38bd
00000370: d21f a93c bd13 db3e c0dd 6dbe 4183 713d
00000380: 8114 793e 6247 b73e e108 123d c6bc d3be
00000390: d4ab f13c 9790 253f edf9 8d3e f782 82be
000003a0: 9b40 a1be d199 1abe aef9 0cbc 851e f23e
000003b0: a293 30be 1ab9 0c3e 2031 82be 799f 00bf
000003c0: a278 42be b7bf 443e 691a 653d 1365 fdbe
000003d0: fbf2 4a3e b841 36be a679 80be 0c4b 84be
000003e0: 372c 2e3e 143f a4be 0699 fd3d 0a46 dfbe
000003f0: ab20 303e e9a5 69be a42f 043d c2e9 823e
-0.15208048 -0.3825138 0.22179681 -0.40355045 -0.28113583 0.42200628 -0.23460102 -0.21653242
0.3320864 0.017819906 0.009002684 -0.058874313 0.06346067 0.22193046 -0.28894362 -0.3436012
-0.27624646 0.4676179 -0.05107796 -0.577091 -0.45835143 0.20455159 -0.25770357 -0.2748279
0.2338538 0.2511626 0.019867707 -0.06077989 0.06644752 -0.49363425 -0.35582548 0.16735055
-0.07486639 0.38388363 -0.22739537 -0.28520092 -0.0306031 -0.40920034 -0.121568784 0.25900736
0.12762266 -0.38059014 -0.42018396 0.30936533 -0.05409546 0.38589284 -0.1985893 0.28561348
0.1988274 -0.032575708 -0.240421 0.31080684 0.2847432 -0.6061851 -0.008807842 -0.24916643
-0.23052461 0.3677211 0.38288966 -0.29121554 0.079130225 0.12017446 0.3707318 0.03525706
-0.34223646 -0.4909813 -0.113252476 -0.0030336154 0.19621405 0.06257984 0.297445 -0.05129926
-0.15094176 0.10932702 0.24558696 0.18884286 0.104070164 -0.27048275 -0.17844838 -0.2464091
0.27336785 0.36944434 -0.2055938 0.25554073 0.16092296 0.106611155 -0.29562682 -0.4486734
0.34388828 -0.06898624 0.20818137 -0.29206148 -0.35115388 -0.13469228 -0.28441796 0.17508659
0.008113323 -0.20343874 -0.18935248 -0.15864412 0.41724202 0.5927996 -0.15827224 -0.12018527
0.15185988 0.26696157 -0.50265855 -0.38984975 -0.21911132 -0.49294525 -0.34097335 -0.28444043
-0.18395855 0.006182871 0.3061283 -0.08300586 -0.022560839 -0.117294565 0.4587523 0.45361185
0.59337354 -0.16716047 -0.08737029 -0.38064104 -0.28050882 0.22891657 0.081564404 0.27797243
-0.38773853 -0.23672697 -0.019698054 0.15284188 -0.23699299 -0.12950645 0.39772168 0.23045337
0.07590834 -0.4759437 -0.17260687 0.14205784 0.28607577 0.44494584 -0.20665877 -0.51636213
-0.47324827 0.45752066 -0.43562114 0.14895733 -0.30182433 0.18973574 -0.8046203 -0.13384321
0.15143189 -0.41037485 -0.11932591 0.10957464 0.21773328 -0.18624668 -0.046711553 0.030707138
0.1539679 -0.102492765 -0.0030093573 -0.015188437 0.20180613 0.31633037 -0.17871788 -0.31510967
-0.1694818 -0.055871762 -0.26111647 0.28832152 -0.3022894 0.33597994 -0.08934481 -0.15210694
-0.1707956 0.22570522 -0.20734082 -0.11457567 -0.08972028 -0.30340132 -0.6169627 -0.44574675
-0.28237835 -0.29514778 -0.031816807 0.31768554 0.272629 -0.18697679 -0.35298443 -0.3405922
0.17079948 0.17749804 0.08157359 0.42578456 -0.026576772 -0.52816844 -0.58491325 -0.12500128
-0.5859735 0.051533233 -0.30074173 -0.32288396 0.04953618 0.34449753 -0.02765981 -0.054891873
0.33757225 0.30678198 -0.05684866 -0.065871656 0.039537903 -0.7000881 -0.2943698 -0.4248909
-0.431747 0.25766802 -0.14139715 -0.045001607 0.020645056 0.42788497 -0.23229122 0.058963064
0.24324228 0.35796648 0.035653 -0.4135496 0.02950088 0.6467375 0.2772974 -0.25490543
-0.31494603 -0.15097739 -0.00860445 0.4728891 -0.17243817 0.13742486 -0.25428104 -0.50243336
-0.1899133 0.19213758 0.05593339 -0.49491176 0.19819252 -0.17798507 -0.2509281 -0.25838506
0.17009054 -0.32079375 0.123827025 -0.43608123 0.17199962 -0.22817196 0.032271996 0.25568968

l5.weight f4 [256, 256]
00000000: 775a 7fbd 8013 713e 49cc cabe 09dd 8e3d
00000010: be6d 85be c562 883e cc9f 5abe bed4 6f3e
00000020: 1b3d 8d3e ce15 953d e217 f73d d8c5 923d
00000030: 0a91 783d 91d2 583e 98ec a43e a0a9 713e
00000040: 9dda 51be dc6f 643e 0c33 23be 43a0 ac3d
00000050: 9744 2b3e e649 b43e 82ba 95be 8769 89be
00000060: f8e1 4d3e 4ed1 e73d 4ea0 3f3e f9ce fabd
00000070: ece8 f9bd c130 ae3e 7c75 a23d 383f d63b
00000080: 813d 8d3d 5012 9c3e 1da9 ce3d 850e 093f
00000090: cae1 16bf 3f95 7c3e 224a 47bc e023 29bd
000000a0: c54e 093d 4bf3 9fbe 9f3a 06be b26e 7e3c
000000b0: 90dd 84bd 97d8 743d 9d9f 2abe 5339 1d3e
000000c0: a10c 22be 17e7 25bf 52d6 a3bd 74ff 9ebd
000000d0: 4dff 4cbd 964b 133c d9d2 30bb 12fa 3dbe
000000e0: a0c3 213d 3773 8b3e c993 913d 6c50 7e3e
000000f0: 12ad 0f3e ab4d 7f3e 1ecf 0e3d fc83 55bd
00000100: b301 ca3d 6594 94be 0813 82be 7709 8e3d
00000110: f7c5 943e 1420 7dbe c489 4cbe 601c 4abd
00000120: 66a4 473e aa14 17bd 69ce 3a3e 5eee 3a3d
00000130: 8203 b63d c765 febd 7f52 1d3e e8bd 413e
00000140: c026 7e3e cd13 ce3e e03c 653e 800e 683e
00000150: a2e5 a83e 7852 f1be 75c3 12bd bbae 0fbb
00000160: 72b3 303e 4a59 733b d56e b63d 9166 edbe
00000170: b275 9cbd bd62 d53e 7ba8 9fbd 3df2 e43e
00000180: b76f 12be 09c6 5c3e e29d b33d 2a9e e73b
00000190: 2424 5a3e 2b60 8bbe f70b 2cbe c420 993d
000001a0: b930 edbc fe15 a8be 2ec0 f13c 8b06 183d
000001b0: c6e4 7fbd 6642 93bd 6002 e53d 8ad9 73bd
000001c0: c586 cbbe ef42 853e fd03 aa3e 28cf ddbc
000001d0: bbb5 30bd e6a3 fe3d a183 183e 551d 9b3e
000001e0: 04b7 d93e 7af2 353e 2743 0bbf b6bc 0f3e
000001f0: 5571 96bd 2f42 cabd 5e88 2f3e 7f25 7e3e
00000200: 12d8 b73e 975b 513e 7c6d 98be 9484 00be
00000210: 5c70 833b 63a0 213d a427 843e 98f4 cc3e
00000220: cbd3 d2be dad2 cebc 9cdd 35be 9dde 733d
00000230: 70b7 9fbd b6dc 863e 74ef 6d3d ba01 243e
00000240: c7ee 01be b461 a3bd e2a6 e0bd 6570 c53d
00000250: 9403 89bd 85f8 d93d 4ff1 d53c 1153 b83a
00000260: c523 f23e ee62 e43d 37ee ae3d 15a9 f43d
00000270: 3e2a 5e3e 9dc9 033e d393 94bd aab7 c83d
00000280: 8161 2a3e 51bb 003e ee64 193e dc79 40bf
00000290: 4bd3 d03e dc61 833e 4b51 0cbe a8ab fd3d
000002a0: 149f 84bd 4861 57be e471 173e 3e30 c23e
000002b0: 30d3 44bb 2a18 a43e aa9a e73d 6a09 ae3d
000002c0: f412 2f3d 67aa 5b3c 2a65 32be c611 7b3d
000002d0: 57a8 a13d 1cb3 0e3e 1601 97be d7c4 653e
000002e0: f875 13bd 6ffc 2d3e 64bf 713d 1fa1 a4bc
000002f0: e43d 18be 3b4f 903e 03e0 7d3d c1e3 293d
00000300: 01ce 77bc 730a 6e3e 1be1 833e 9167 5d3e
00000310: 049f 313d b3cb 43bc bb12 28be 3abc 373c
00000320: 7edb 593d 0385 5fbf b81e 243e f5ba 32bb
00000330: 4a61 153d 4ef5 8e3e ecf8 e2bc fb7a 61be
00000340: 614d 283e 92de 55bd 79cb e8bd 92c8 34be
00000350: 89b1 443e e113 19be 8d67 033e aac2 0d3e
00000360: fffa 5e3d 1afb e7bd a7c8 553e f2e2 a4be
00000370: e005 e0be 619c 06bd 76f1 f2bd 2b2b 2b3e
00000380: 1493 053e ba0c 183e 3ad2 7cbe 2331 763d
00000390: 7141 0c3e 18f3 cebe 109b 5b3e 432c 50be
000003a0: 6b2b 593d fef0 963d fbbe b53c 7524 8e3e
000003b0: 4e2e 97be f6b2 30bf 4dad 143e 1345 89bd
000003c0: 9aad 963d 0d2f 9839 8108 0cbe 644d 63bd
000003d0: 06d2 cdbe 0deb 093e 6776 24be 1356 5cbf
000003e0: a01f 0dbe d40e c23e 4ef1 0abe d051 9bbd
000003f0: 46a8 a2bc 7969 0a3e b2ad 513e facb 45bd
-0.062342133 0.23542595 -0.39608982 0.06975753 -0.2606029 0.26637855 -0.2135002 0.23420998
0.27585682 0.072795495 0.12065102 0.07166642 0.060685195 0.21174075 0.32211757 0.23599863
-0.2049355 0.22308296 -0.15937442 0.08429005 0.16725384 0.3521263 -0.29243857 -0.26838323
0.20105731 0.113192186 0.18713495 -0.12246508 -0.122026294 0.3402157 0.079325646 0.006538298
0.068964966 0.3048272 0.100908495 0.5353778 -0.58938277 0.24666308 -0.012163671 -0.04129398
0.033522386 -0.31240305 -0.131083 0.0155293215 -0.06487572 0.05977687 -0.1666245 0.15353899
-0.1582513 -0.6480574 -0.07999863 -0.077635676 -0.05004816 0.008990189 -0.0026981144 -0.18552426
0.039493203 0.2723634 0.07108266 0.24835366 0.14030865 0.24931972 0.03486549 -0.052127823
0.09863605 -0.29019466 -0.25405145 0.06935399 0.29057285 -0.24719268 -0.19974428 -0.049343467
0.19496307 -0.03688494 0.18242802 0.04563748 0.08887388 -0.12421756 0.15363501 0.189201
0.2481947 0.40249482 0.22386503 0.22661781 0.32987696 -0.4713323 -0.035830934 -0.0021924216
0.17255953 0.0037132078 0.08907858 -0.46367314 -0.07639636 0.41676894 -0.07795807 0.44716063
-0.14300428 0.2155992 0.08770348 0.007068415 0.21302849 -0.27221808 -0.16801439 0.07476953
-0.028953897 -0.3282928 0.029510584 0.037115615 -0.062474035 -0.07190399 0.111820936 -0.059533633
-0.39751258 0.2602763 0.33206168 -0.027076319 -0.04314206 0.12433605 0.14893962 0.30295816
0.42522442 0.17768279 -0.5439934 0.14036831 -0.07345835 -0.09875905 0.17141864 0.24818991
0.35907036 0.20445095 -0.2977103 -0.12550575 0.004011197 0.039459597 0.25811493 0.4003036
-0.4117721 -0.025247026 -0.17760319 0.059538472 -0.0779866 0.26340264 0.05808969 0.16016284
-0.12688743 -0.0797762 -0.1096933 0.09640578 -0.066901356 0.106431045 0.026116041 0.0014062842
0.47292915 0.11151682 0.085415296 0.11946312 0.21695802 0.12869878 -0.07254758 0.09800656
0.16638757 0.12571456 0.14979908 -0.7518594 0.40786204 0.25660598 -0.13702886 0.123862565
-0.06475654 -0.21033204 0.1478954 0.3792743 -0.0030033104 0.32049686 0.11308797 0.08497889
0.042742684 0.013407326 -0.17421404 0.061296247 0.078934364 0.13935512 -0.29493016 0.2243837
-0.036001176 0.16990827 0.059020415 -0.02009636 -0.1486736 0.28185448 0.061981212 0.04147697
-0.015124799 0.23246174 0.2575768 0.21621539 0.04336454 -0.011950421 -0.16413395 0.01121431
0.05318784 -0.87312335 0.16027343 -0.002727208 0.036469735 0.27921528 -0.027706586 -0.2201957
0.16435768 -0.052214213 -0.11366934 -0.17654637 0.1920835 -0.1494899 0.1283247 0.1384379
0.054438587 -0.11327191 0.20877324 -0.32204396 -0.43754482 -0.03286398 -0.11862461 0.16715686
0.13044387 0.14848605 -0.2468957 0.060105454 0.13696839 -0.4041984 0.2144587 -0.20329385
0.053019922 0.07370184 0.022185793 0.2776219 -0.29527515 -0.6902307 0.14519234 -0.06702628
0.073573306 0.00029026755 -0.13675119 -0.055493727 -0.40199298 0.13468571 -0.16060792 -0.8606884
-0.13781595 0.37901938 -0.13568613 -0.07583964 -0.01985563 0.13516797 0.20476416 -0.04829023
