part1/HalfCheetahBulletEnv-v0_PPO_2_1637604967_ppo.pth (torch, 52926 bytes, 11 tensors)

critic.0.weight f4 [64, 26]
-0.15913336 -0.025988808 -0.032745734 0.26195937 0.25029305 -0.1268768 -0.20156577 -0.2036458
-0.006956996 -0.10480525 0.041444626 0.071239434 0.1052917 0.03662371 0.1470227 -0.14409773
0.29315442 -0.12007907 -0.17493077 0.064515054 -0.13774736 0.03340807 0.1617117 0.013708427
0.026821189 0.01802901 0.41556016 -0.09997641 0.19684163 0.0114564 0.08242652 0.009479464
0.06560966 0.12995881 0.19165868 -0.15997246 0.073593244 -0.07114177 0.03223008 0.06404778
0.16947837 0.11393323 0.10854623 0.12155868 0.093802094 0.021097999 0.0915065 -0.08750598
0.036143374 0.056758385 0.13138531 0.013734087 0.34511498 0.033096477 0.04130316 -0.07499566
0.1717925 0.18738826 0.024847094 -0.042862788 0.16236505 0.04610645 0.12686141 0.03561389
0.21040209 -0.10346375 0.061822757 -0.15674306 0.15160768 -0.17043772 0.031612124 -0.026698323
-0.19828837 0.080766276 -0.352331 -0.023056278 -0.07484658 -0.032237846 -0.020969244 -0.065693855
-0.30638522 -0.0855005 0.008303119 0.13285898 -0.02802126 0.1119108 0.0504303 0.21490927
0.12835409 0.16104512 -0.023567634 0.013801443 0.21172625 0.11859752 -0.14122206 -0.10449595
-0.10748861 -0.073742494 -0.032318097 0.31041852 0.1918804 -0.10753825 0.03787606 -0.16472787
0.034345824 -0.3605219 0.22619823 -0.4953656 0.014429927 0.23296665 -0.20933865 0.021503137
0.07852668 0.13749337 0.01586446 -0.06455783 0.2146424 0.087456845 -0.20739597 0.2929716
-0.04353746 0.34669465 -0.06332585 0.16160247 0.16242279 -0.13691583 -0.008685677 0.07640314
-0.09400387 -0.0076297047 0.07575001 0.11453681 -0.048109088 0.18881528 0.12855412 -0.068707556
-0.118162796 -0.32588315 -0.07481785 -0.27787778 0.014461415 -0.13421312 -0.041590154 -0.026805634
-0.021276923 0.1236476 -0.07377908 0.08844612 -0.34781373 -0.043065835 0.02278217 0.17491467
0.07449596 -0.00449938 -0.10859703 -0.004541246 -0.021588735 -0.13367973 -0.034444522 0.030280711
0.23983076 -0.35312545 -0.037123926 0.52180904 0.08476944 -0.20442197 0.23062138 -0.356948
-0.079215065 -0.019046262 -0.078717194 -0.24557517 0.2043241 -0.11999747 0.22771089 0.0041126786
0.114102945 -0.15818235 0.037804652 -0.0037506486 -0.11962815 0.033393532 0.016094588 0.3914326
0.16540329 -0.008550753 0.1515509 -0.057814024 -0.0112308655 0.6308497 0.21898621 0.18078026
0.3565552 0.10182792 0.0034972457 0.04995465 -0.00033768726 0.06859919 0.17858182 0.15806419
-0.17290199 -0.030963652 -0.033013497 -0.084133744 0.0069508185 0.02179009 0.09929337 -0.0017720654
-0.19963408 0.04035067 0.09048193 -0.1029771 0.18297035 -0.1449684 0.16627164 -0.2599666
0.21261877 0.20603617 0.31419683 -0.02191049 0.065175526 -0.062999964 -0.011495745 -0.07954823
0.14194934 -0.07672323 0.20637147 0.12059487 0.1029212 -0.13535354 0.049028065 0.049183182
-0.055367254 -0.008003226 0.01898459 0.10265332 0.111358926 -0.24237752 -0.2738307 0.1026711
-0.0063466695 -0.5441857 0.20711042 0.07619929 -0.13546829 0.10451461 -0.28304788 -0.010313558
0.20087464 0.14992136 0.37772024 0.16907726 0.084579274 0.051756877 -0.067359865 -0.033444986
00000000: dbf3 22be 7be6 d4bc 6420 06bd 8a1f 863e
00000010: 6926 803e feeb 01be 4267 4ebe 8688 50be
00000020: 83f7 e3bb 23a4 d6bd d7c1 293d fbe5 913d
00000030: 2da3 d73d be02 163d 1e8d 163e 5b8e 13be
00000040: 5618 963e 04ec f5bd 0d21 33be 7820 843d
00000050: a50d 0dbe e7d6 083d c097 253e 4f99 603c
00000060: 1cb8 db3c 93b1 933c 4dc4 d43e 6fc0 ccbd
00000070: da90 493e a0b3 3b3c 3ccf a83d c14f 1b3c
00000080: 5c5e 863d ec13 053e 2c42 443e d2cf 23be
00000090: 0eb8 963d c7b2 91bd b003 043d 7c2b 833d
000000a0: bd8b 2d3e d355 e93d 7c4d de3d c2f3 f83d
000000b0: 501b c03d b6d5 ac3c c367 bb3d 5636 b3bd
000000c0: 130b 143d 7b7b 683d df89 063e f004 613c
000000d0: e9b2 b03e 2c90 073d 812d 293d 5397 99bd
000000e0: 60ea 2f3e b5e2 3f3e 228c cb3c e490 2fbd
000000f0: 0643 263e 1eda 3c3d f5e7 013e dfdf 113d
00000100: a573 573e cde4 d3bd dc39 7d3d 4181 20be
00000110: 0b3f 1b3e 3a87 2ebe b77b 013d 71b6 dabc
00000120: 1b0c 4bbe ca68 a53d bb64 b4be 85e0 bcbc
00000130: 2a49 99bd d50b 04bd b1c7 abbc 808a 86bd
00000140: 86de 9cbe e31a afbd ce09 083c 2f0c 083e
00000150: d78c e5bc 7d31 e53d 0190 4e3d 2d11 5c3e
00000160: 416f 033e 03e9 243e e910 c1bc 731f 623c
00000170: c4ce 583e 42e3 f23d 849c 10be f901 d6bd
00000180: fd22 dcbd 4e06 97bd fb5f 04bd 2def 9e3e
00000190: 4c7c 443e 043d dcbd ed23 1b3d 6cae 28be
000001a0: 35ae 0c3d 5496 b8be 82a0 673e 8fa0 fdbe
000001b0: 806b 6c3c cf8e 6e3e df5c 56be 5927 b03c
000001c0: 99d2 a03d 10cb 0c3e 2ff6 813c e536 84bd
000001d0: 38cb 5b3e 931c b33d 9c5f 54be 6000 963e
000001e0: 5654 32bd f681 b13e fcb0 81bd 1e7b 253e
000001f0: 2952 263e aa33 0cbe 5f4e 0ebc 4079 9c3d
00000200: 1a85 c0bd 9a02 fabb d222 9b3d 4692 ea3d
00000210: 090e 45bd cb58 413e b1a3 033e 8cb6 8cbd
00000220: 56ff f1bd 28da a6be 1a3a 99bd ff45 8ebe
00000230: 92ef 6c3c 2a6f 09be 705a 2abd 7d97 dbbc
00000240: f14c aebc f43a fd3d 7c19 97bd 3d23 b53d
00000250: a414 b2be cd65 30bd aca1 ba3c d51c 333e
00000260: 5691 983d 896f 93bb 1f68 debd bcce 94bb
00000270: dcda b0bc 57e3 08be b315 0dbd 410f f83c
00000280: 3296 753e dccc b4be 420f 18bd 4795 053f
00000290: 9a9b ad3d fe53 51be 0328 6c3e e3c1 b6be
000002a0: 823b a2bd e806 9cbc 7b36 a1bd 0f78 7bbe
000002b0: 563a 513e 3cc1 f5bd 0b2d 693e a6c3 863b
000002c0: ceae e93d 8efa 21be 0dd9 1a3d 71cd 75bb
000002d0: 9aff f4bd a8c7 083d ccd8 833c db69 c83e
000002e0: 7b5f 293e 7518 0cbc 2930 1b3e 66ce 6cbd
000002f0: aa01 38bc 5e7f 213f ec3d 603e 761e 393e
00000300: 678e b63e 288b d03d 0c32 653b 3f9d 4c3d
00000310: 9e0b b1b9 bb7d 8c3d 27de 363e 94db 213e
00000320: 380d 31be 7ca7 fdbc 2939 07bd 504e acbd
00000330: b1c3 e33b 2181 b23c 535a cb3d a644 e8ba
00000340: e06c 4cbe bf46 253d 974e b93d a8e5 d2bd
00000350: 945c 3b3e 9972 14be 1d43 2a3e 581a 85be
00000360: bcb8 593e 25fb 523e 68de a03e a17d b3bc
00000370: bf7a 853d 2006 81bd a658 3cbc 2fea a2bd
00000380: 2b5b 113e 1221 9dbd 0b53 533e 71fa f63d
00000390: 5ac8 d23d 1e9a 0abe a7d1 483d 4e74 493d
000003a0: c6c8 62bd f61f 03bc 9285 9b3c e73b d23d
000003b0: 2610 e43d d031 78be 8a33 8cbe 3a45 d23d
000003c0: b9f7 cfbb c14f 0bbf c114 543e 600e 9c3d
000003d0: 33b8 0abe c10b d63d a7eb 90be 33fa 28bc
000003e0: 15b2 4d3e fc84 193e 8c64 c13e 9722 2d3e
000003f0: e637 ad3d 05ff 533d f8f3 89bd 9cfd 08bd

critic.0.bias f4 [64]
0.4144362 0.58049357 0.041778073 -0.116284624 -0.07653968 0.36760685 -0.3854899 -0.032664128
-0.4382984 -0.19967127 -0.064211525 -0.109702416 -0.34240976 -0.23780484 0.07563242 0.25208402
0.062256005 0.61145496 0.22834657 -0.3097241 -0.44763863 -0.015461847 -0.06484377 -0.013982983
0.29455444 0.42283615 -0.25059754 -0.049171533 0.38658383 0.07338834 -0.36860698 -0.06421858
-0.2907979 -0.22519165 0.3836227 -0.1353877 0.14592063 -0.037724767 0.29902261 -0.41357982
0.07235664 -0.13063674 -0.3619215 0.5111606 0.06501596 0.22911237 0.24557742 0.07390882
0.08158845 -0.2752085 0.46897846 0.24026652 0.011439631 -0.02223508 -0.36365095 -0.26521096
-0.33910534 -0.27084142 0.07686638 0.1502257 -0.19430946 0.2703044 -0.44115904 -0.23348352
00000000: fb30 d43e 3a9b 143f 7c1f 2b3d a226 eebd
00000010: d6c0 9cbd f736 bc3e ef5e c5be d2ca 05bd
00000020: a668 e0be a076 4cbe 5581 83bd a9ab e0bd
00000030: 5550 afbe 1d83 73be 2ce5 9a3d 2811 813e
00000040: 2700 7f3d 5088 1c3f afd3 693e 2894 9ebe
00000050: e430 e5be b053 7dbc cfcc 84bd e218 65bc
00000060: d7cf 963e fb7d d83e 524e 80be 1768 49bd
00000070: 51ee c53e a04c 963d 0eba bcbe 0885 83bd
00000080: 76e3 94be a498 66be 326a c43e 13a3 0abe
00000090: 386c 153e 4985 1abd 7e19 993e bcc0 d3be
000000a0: b82f 943d a3c5 05be c64d b9be 6cdb 023f
000000b0: 1627 853d 6f9c 6a3e a678 7b3e 825d 973d
000000c0: d817 a73d 21e8 8cbe f21d f03e 6d08 763e
000000d0: 4a6d 3b3c 5826 b6bc 7530 babe bbc9 87be
000000e0: 379f adbe baab 8abe 1f6c 9d3d c4d4 193e
000000f0: 0ff9 46be 5765 8a3e 99df e1be 4e16 6fbe

critic.2.weight f4 [64, 64]
-0.26567915 -0.11329774 0.0013317416 0.009445002 0.3211826 -0.3310305 0.07634672 0.21830891
-0.05529891 0.33551118 -0.11397587 -0.035670955 -0.079421155 -0.2876571 -0.37560302 0.12415965
-0.25585604 0.3299499 0.26052392 -0.20494092 -0.1320228 -0.086434044 0.013762402 0.099175856
-0.17928109 0.21673743 -0.14574145 -0.2823225 -0.07778253 0.14056262 -0.103297904 -0.11144664
0.28383577 0.015871083 0.22894935 0.038332734 -0.07477472 0.24048382 0.114863284 0.1791941
-0.19708508 0.28284734 -0.22019383 0.24973197 -0.06555791 0.17413239 0.10147931 0.37035146
-0.1275209 -0.10049784 -0.021449955 0.11902242 0.35128295 0.38518858 -0.1102968 -0.15362246
-0.20461437 -0.033939023 0.11220861 0.10068949 0.19039755 -0.13957381 0.20773749 0.14181441
0.025286473 -0.49046502 0.007575175 0.23642007 -0.13622123 -0.040042933 0.1451531 0.15724161
0.13305816 -0.1851642 0.2579236 -0.19564936 0.034955993 0.41350198 0.053161215 -0.29693037
0.08826547 0.052916586 -0.28704125 -0.10637202 0.021773364 0.29368278 0.14440852 0.1511705
0.41872063 -0.046050172 0.11395355 -0.042325214 -0.013270349 0.042347703 0.25806755 -0.45422095
0.1604954 -0.15879738 0.05013586 -0.113588534 -0.41069335 0.10581693 -0.15470685 0.13563871
-0.11125953 0.044676717 0.19664879 -0.046129715 -0.27991027 0.0142915305 -0.11540436 -0.3299311
0.35213655 0.098471545 0.12195795 -0.3316417 0.16193064 0.121075064 0.17245384 0.2607681
0.25272056 -0.21002664 -0.013501677 0.20328657 -0.16912283 -0.1059115 -0.08169472 0.5192885
-0.24061336 -0.2430135 -0.04061679 -0.15221733 0.1670069 -0.10450159 0.083326004 -0.11279176
0.004377822 -0.01843604 0.0022796888 0.03710081 0.11283933 0.1956972 -0.07966769 0.13529597
-0.05505489 -0.080405496 -0.22892384 0.28464514 -0.3366089 -0.10391363 0.008393383 0.099974014
0.03534553 0.15873377 0.37226528 0.1352058 -0.07577152 0.2831112 0.15557869 0.20157751
-0.32878402 -0.12440055 0.03215818 -0.21721402 0.23763417 -0.16467841 -0.28315473 -0.42807466
-0.0028063643 0.081204094 -0.13734806 0.075872675 -0.34940195 -0.11275376 0.099258095 0.22975399
0.04862161 -0.1362984 0.0066466364 -0.007589173 -0.023268793 0.21294361 -0.050153114 0.10297736
0.4038662 0.12738614 0.11306602 0.036056317 -0.33253488 -0.038049765 0.27093536 0.16387281
-0.28734738 -0.12220009 -0.0916755 0.47720125 0.091654904 -0.008665486 -0.28469008 0.0154600805
-0.37603405 -0.055387985 -0.003969655 0.053094707 -0.11656496 0.059871428 0.06436865 -0.09458445
0.14479595 0.02054519 -0.1569978 0.18217292 0.12931882 0.1483446 -0.18420087 -0.15309557
-0.29823196 -0.16117539 0.072546855 0.09290901 0.0054570814 -0.046182357 -0.06939047 0.060433157
0.40724298 -0.0010095524 -0.15205057 0.25859547 -0.010676924 -0.06588969 -0.029341722 -0.08146314
-0.16086593 0.035895087 -0.18318076 0.0069818455 -0.36979693 0.31594735 0.26883897 -0.17563678
0.3556443 0.1006694 -0.121964596 -0.11648149 -0.30092597 -0.0005699963 -0.16332549 -0.20022207
-0.06564461 -0.042238623 0.46751994 0.14522256 0.07900175 -0.0780577 0.03999915 -0.096509255
00000000: 1907 88be a508 e8bd d58d ae3a 36bf 1a3c
00000010: 0c72 a43e d47c a9be ab5b 9c3d 5f8c 5f3e
00000020: 1c81 62bd 1fc8 ab3e 2e6c e9bd b51b 12bd
00000030: 8fa7 a2bd cb47 93be 0a4f c0be 6a47 fe3d
00000040: 90ff 82be 31ef a83e 6463 853e 08dc 51be
00000050: fc30 07be 5504 b1bd b37b 613c b61c cb3d
00000060: 7695 37be 6bf0 5d3e 3f3d 15be 938c 90be
00000070: 724c 9fbd a6ef 0f3e da8d d3bd 233e e4bd
00000080: ec52 913e 1304 823c b371 6a3e c902 1d3d
00000090: 7d23 99bd 6441 763e 713d eb3d a87e 373e
000000a0: acd0 49be 5ed1 903e 7e7a 61be bdb9 7f3e
000000b0: 3a43 86bd c34f 323e 62d4 cf3d b59e bd3e
000000c0: d794 02be d0d1 cdbd d1b7 afbc 07c2 f33d
000000d0: 5cdb b33e 7037 c53e 4ae3 e1bd 354f 1dbe
000000e0: 6e86 51be a503 0bbd a1cd e53d 4b36 ce3d
000000f0: 93f7 423e 70ec 0ebe 23b9 543e cc37 113e
00000100: 9425 cf3c 3b1e fbbe 2c39 f83b 1a18 723e
00000110: 947d 0bbe 0f04 24bd 04a3 143e f203 213e
00000120: 6640 083e af9b 3dbe 900e 843e 4e58 48be
00000130: 042e 0f3d 88b6 d33e 93bf 593d 4207 98be
00000140: 87c4 b43d 10bf 583d 12f7 92be 93d9 d9bd
00000150: 0e5e b23c 975d 963e d4df 133e 71cc 1a3e
00000160: 8d62 d63e 1b9f 3cbd 7b60 e93d 345d 2dbd
00000170: e16b 59bc c974 2d3d 6e21 843e a68f e8be
00000180: e858 243e c89b 22be 425b 4d3d 1ba1 e8bd
00000190: 6646 d2be 8cb6 d83d 796b 1ebe e0e4 0a3e
000001a0: 09dc e3bd effe 363d 4d5e 493e 83f2 3cbd
000001b0: 6650 8fbe 0627 6a3c 1f59 ecbd bbec a8be
000001c0: 3e4b b43e 73ab c93d 17c5 f93d f1cc a9be
000001d0: 25d1 253e 34f6 f73d bd97 303e 6583 853e
000001e0: 9764 813e 3911 57be 2336 5dbc 5b2a 503e
000001f0: 892e 2dbe 21e8 d8bd 904f a7bd 17f0 043f
00000200: 5963 76be 88d8 78be cb5d 26bd dcde 1bbe
00000210: db03 2b3e ee04 d6bd d3a6 aa3d 5eff e6bd
00000220: d573 8f3b 2e07 97bc d566 153b 05f7 173d
00000230: 4f18 e73d d964 483e d028 a3bd 078b 0a3e
00000240: 3d81 61bd a3ab a4bd 036b 6abe 02bd 913e
00000250: 0058 acbe abd0 d4bd 6684 093c 2dbf cc3d
00000260: 79c6 103d 1b8b 223e 8e99 be3e 6473 0a3e
00000270: 192e 9bbd f4f3 903e 0550 1f3e 566a 4e3e
00000280: 6156 a8be b7c5 febd 4cb8 033d 5a6d 5ebe
00000290: 5f56 733e 75a1 28be a8f9 90be 9a2c dbbe
000002a0: fbea 37bb 554e a63d f8a4 0cbe 2263 9b3d
000002b0: d0e4 b2be 71eb e6bd d447 cb3d a144 6b3e
000002c0: 7427 473d cf91 0bbe 07cc d93b 99ae f8bb
000002d0: 329e bebc e40d 5a3e 5a6d 4dbd cbe5 d23d
000002e0: 8dc7 ce3e 8371 023e 288f e73d caaf 133d
000002f0: 0342 aabe 12da 1bbd 0ab8 8a3e 46ce 273e
00000300: 321f 93be 0a44 fabd 5dc0 bbbd b953 f43e
00000310: 91b5 bb3d aff9 0dbc e6c2 91be 474c 7d3c
00000320: 8987 c0be 83de 62bd e113 82bb d679 593d
00000330: 9cb9 eebd be3b 753d b6d3 833d 7eb5 c1bd
00000340: 6445 143e 634e a83c 08c4 20be 8a8b 3a3e
00000350: 276c 043e a6e7 173e 279f 3cbe 16c5 1cbe
00000360: dcb1 98be 290b 25be 7293 943d 1447 be3d
00000370: 51d1 b23b b629 3dbd 971c 8ebd c288 773d
00000380: 2782 d03e f552 84ba 25b3 1bbe a066 843e
00000390: 44ee 2ebc 2cf1 86bd 0d5e f0bc 26d6 a6bd
000003a0: 0aba 24be ba06 133d bd93 3bbe f7c7 e43b
000003b0: 0656 bdbe dac3 a13e 43a5 893e 21da 33be
000003c0: 0217 b63e c22b ce3d 93c8 f9bd d98d eebd
000003d0: f812 9abe ce6b 15ba cc3e 27be 0407 4dbe
000003e0: ae70 86bd 6802 2dbd c65e ef3e 39b5 143e
000003f0: abcb a13d b7dc 9fbd 26d6 233d a5a6 c5bd

critic.2.bias f4 [64]
0.0032186888 -0.074562654 -0.0028738847 -0.04384234 -0.14427373 -0.03971894 0.006450129 -0.005110935
0.027134465 -0.038089547 0.23836951 -0.124939226 0.012578933 -0.27339193 -0.0013108427 0.0006121615
0.115435876 0.018731682 0.12731612 -0.023487227 -0.03131489 -0.0050857114 0.2908084 0.073021516
-0.04465247 -0.23611934 -0.016153213 0.15045673 0.005391691 -0.023664564 -0.26430032 -0.02152166
-0.02516759 -0.015838645 0.065982066 -0.0119306585 0.021350369 0.08174026 0.07909806 -0.026980761
-0.034002323 0.07854665 0.080995694 -0.25493455 -0.13517885 0.08358812 -0.0644863 0.012803317
-0.08643994 0.017382411 -0.124176756 -0.19666061 0.013529767 0.023089161 -0.01703716 0.058632128
0.005148025 -0.24342695 -0.08528042 0.06382456 0.26010573 0.007127794 -0.07569742 0.011913942
00000000: a3f0 523b 4eb4 98bd c957 3cbb 0794 33bd
00000010: 7ebc 13be 54b0 22bd 9b5b d33b a179 a7bb
00000020: 1949 de3c c903 1cbd 2317 743e 23e0 ffbd
00000030: de17 4e3c 07fa 8bbe 95d0 abba 7679 203a
00000040: a569 ec3d 2f73 993c 285f 023e 4968 c0bc
00000050: 0b44 00bd 0aa6 a6bb d7e4 943e 4e8c 953d
00000060: 82e5 36bd 45c9 71be be53 84bc 5411 1a3e
00000070: c8ac b03b 30dc c1bc 5f52 87be 314e b0bc
00000080: 432c cebc 0cc0 81bc 9b21 873d cf78 43bc
00000090: f8e6 ae3c 7067 a73d 2afe a13d c206 ddbc
000000a0: 0546 0bbd 11dd a03d 12e1 a53d c886 82be
000000b0: 536c 0abe 4030 ab3d 6511 84bd 01c5 513c
000000c0: 6c07 b1bd 8f65 8e3c 6250 febd 6661 49be
000000d0: f5ab 5d3c 7b25 bd3c 8491 8bbc 3e28 703d
000000e0: c4b0 a83b ea44 79be 80a7 aebd 73b6 823d
000000f0: 942c 853e 4590 e93b 4007 9bbd b232 433c

critic.4.weight f4 [1, 64]
-0.08599866 -0.046814576 0.061451234 0.018214643 -0.27494797 0.08010967 0.11387482 0.03888055
-0.031599116 0.005341611 0.20943259 -0.14171953 0.05152275 -0.22395435 -0.059126012 0.03798428
0.08735267 -0.186117 0.0005522 -0.09439028 0.0037972492 -0.14415954 0.1538383 0.091135934
0.024217876 -0.23021066 0.05375102 0.068921655 0.036139242 -0.10113207 -0.13650432 0.0099859545
0.12491368 0.053984735 -0.06020708 0.028429646 -0.01148105 0.03613393 0.045623057 -0.029438546
0.06552717 -0.043879528 0.06693601 -0.01898213 -0.09767203 0.1525623 -0.0067703775 0.05977822
-0.06236575 -0.009793142 -0.09553159 -0.067730054 0.06949826 0.0190129 -0.073934734 0.03301438
-0.064065814 -0.01991732 0.038459755 0.058884423 0.27760115 0.10582631 -0.048399284 0.099136114
00000000: 1120 b0bd a4c0 3fbd 4ab4 7b3d e036 953c
00000010: fbc5 8cbe 8a10 a43d 3437 e93d 3641 1f3d
00000020: 136e 01bd ae08 af3b 7f75 563e ed1e 11be
00000030: 8509 533d 4a54 65be 1e2e 72bd 6895 1b3d
00000040: f5e5 b23d 7495 3ebe 84c1 103a b14f c1bd
00000050: 45db 783b 8f9e 13be ca87 1d3e 7aa5 ba3d
00000060: 9164 c63c 58bc 6bbe 082a 5c3d cc26 8d3d
00000070: be06 143d 551e cfbd cac7 0bbe 219c 233c
00000080: bed2 ff3d 191f 5d3d b39b 76bd 4ae5 e83c
00000090: 041b 3cbc 2c01 143d 3edf 3a3d 1b29 f1bc
000000a0: 1c33 863d 05bb 33bd bf15 893d 6980 9bbc
000000b0: 4608 c8bd 4b39 1c3e 0bda ddbb 02da 743d
000000c0: 3b73 7fbd 6a73 20bc 11a6 c3bd 0eb6 8abd
000000d0: 1b55 8e3d f1c0 9b3c 186b 97bd 163a 073d
000000e0: f034 83bd a629 a3bc fa87 1d3d cb30 713d
000000f0: bd21 8e3e 77bb d83d 543e 46bd e007 cb3d

actor_mean.0.weight f4 [64, 26]
-0.049326256 0.095386654 0.22033626 -0.20832424 -0.1405421 -0.35344654 0.2666236 0.11656036
-0.53977317 0.16080646 -0.07723108 0.16227973 -0.030097218 0.07836088 -0.33762267 -0.080512255
0.07645428 -0.13776685 0.1388713 -0.38341647 0.085836 -0.051540248 -0.037070416 -0.0119641265
-0.07770277 0.11185592 0.3139473 -0.071977414 -0.21093269 0.116116196 0.23936224 -0.084223494
0.26039395 -0.2754746 -0.21914221 0.12926605 0.09494647 0.35456097 -0.25934082 -0.30208725
-0.25376222 -0.11868982 0.327856 0.047524154 -0.22117092 -0.10506473 -0.029592156 -0.23300557
-0.1258019 0.14207622 -0.02674666 -0.35440457 -0.18228376 -0.15988724 -0.12557162 -0.18211928
0.14842097 0.044299677 0.020163028 -0.00060004636 -0.46958718 0.01848137 -0.20261107 0.062209453
-0.17716944 -0.1269848 0.19052404 0.23897323 -0.0782109 -0.6972802 -0.16453543 -0.016680615
0.06584199 0.0706727 0.21972126 0.06859742 0.011524341 0.192712 0.33797404 0.019054245
-0.15524204 0.016934505 -0.16495524 0.07313556 0.038045306 -0.32165948 0.0038253488 0.10845959
-0.28592768 -0.31674704 -0.0011049245 0.17700942 -0.007169927 0.034724217 0.062485933 0.27244854
0.05763564 0.15313077 0.17728005 0.082041346 0.24153082 -0.1720114 -0.030778179 -0.10819574
-0.1535555 0.4845399 -0.06170688 0.1546941 -0.004017314 -0.2907322 -0.21127649 0.10911649
0.106893726 -0.24147722 0.067935035 0.015452626 -0.0774842 0.1793694 0.15542024 0.10945017
0.0693969 0.25027788 -0.13343808 -0.13988212 0.06940901 -0.27748752 -0.06454138 -0.08978345
-0.004986707 0.35903078 0.12649153 -0.06852504 0.1909143 0.07111248 0.08256461 0.049202845
0.095083565 -0.42442372 -0.2828067 0.2209686 0.055471864 0.22452441 0.15153192 -0.07107977
0.1729774 -0.1093954 0.061807193 0.2328476 -0.4248216 -0.04154391 0.12919131 0.020766707
-0.07106491 0.15729012 0.3757507 0.4227951 0.07335627 -0.22875482 0.034293864 -0.23780122
-0.29439798 -0.03202306 -0.13262601 -0.02928981 0.09694154 0.1457617 0.4234146 0.14793217
0.09766944 -0.013372724 0.18544246 -0.028613778 -0.298067 -0.19003783 -0.15831867 0.02993891
-0.16058981 -0.18672374 -0.20366858 -0.610272 0.026486764 0.029203108 0.0300903 -0.22424951
-0.28945073 0.03805593 -0.13962176 0.059228625 -0.0337025 -0.22959106 0.2444576 0.14375445
0.15301985 0.0651084 0.09809813 -0.2564063 0.0959174 -0.010404783 0.06642872 0.09942302
-0.30519077 0.2137883 -0.098337464 -0.18606304 -0.043079574 0.29828438 0.5164213 0.1950091
0.12540887 -0.10084588 0.022484144 -0.05635344 -0.012790753 0.206845 0.036485318 -0.11584712
-0.12914029 -0.17879267 -0.52023005 -0.17095977 -0.25952482 0.2594003 -0.03973953 -0.08356148
0.1580257 0.05937738 -0.1815827 -0.1959628 0.014652284 -0.27532646 0.055705503 0.097357556
-0.30243513 -0.15724134 -0.3220198 -0.020912653 -0.18341115 -0.039003775 0.10504845 0.107633375
-0.35832402 -0.012338419 -0.14477123 0.18237764 -0.056158215 0.26091984 0.029700704 -0.05045294
-0.060804512 0.19476393 -0.057979953 -0.15321755 -0.06051457 -0.06490216 -0.26133057 -0.28526884
00000000: 540a 4abd 145a c33d d49f 613e f352 55be
00000010: 45ea 0fbe f2f6 b4be e382 883e 33b7 ee3d
00000020: 932e 0abf 73aa 243e 542b 9ebd a82c 263e
00000030: 718e f6bc ab7b a03d e1dc acbe 9ce3 a4bd
00000040: 1094 9c3d c112 0dbe 4734 0e3e 2a4f c4be
00000050: c9ca af3d de1b 53bd 26d7 17bd 2f05 44bc
00000060: a122 9fbd b714 e53d b3bd a03e e568 93bd
00000070: bdfe 57be 54ce ed3d 601b 753e 5e7d acbd
00000080: 5b52 853e 020b 8dbe d166 60be 525e 043e
00000090: 4b73 c23d 0489 b53e 52c8 84be 2eab 9abe
000000a0: 1fed 81be a613 f3bd bedc a73e b0a8 423d
000000b0: a17a 62be 2d2c d7bd 406b f2bc 0399 6ebe
000000c0: 37d2 00be 6e7c 113e d01b dbbc 8474 b5be
000000d0: 98a8 3abe 7bb9 23be d995 00be 7a7d 3abe
000000e0: abfb 173e 9473 353d ef2c a53c 6e4c 1dba
000000f0: bb6d f0be 3e66 973c 4779 4fbe 57cf 7e3d
00000100: e86b 35be 4e08 02be bc18 433e 66b5 743e
00000110: 092d a0bd f580 32bf fa7b 28be c9a5 88bc
00000120: 2ad8 863d d9bc 903d 9cfe 603e ce7c 8c3d
00000130: 97d0 3c3c 4b56 453e ef0a ad3e a617 9c3c
00000140: c5f7 1ebe 3bba 8a3c 07ea 28be 19c8 953d
00000150: 65d5 1b3d 8db0 a4be b4b2 7a3b 1020 de3d
00000160: 1d65 92be ab2c a2be 1dd3 90ba f541 353e
00000170: b5f1 eabb fb3a 0e3d 40f1 7f3d 607e 8b3e
00000180: 5913 6c3d 50ce 1c3e e788 353e 4b05 a83d
00000190: db53 773e c223 30be 8522 fcbc ba95 ddbd
000001a0: a73d 1dbe 9d15 f83e 5ac0 7cbd 2168 1e3e
000001b0: aca3 83bb dada 94be dd58 58be 7778 df3d
000001c0: 19eb da3d ce45 77be 8621 8b3d 032d 7d3c
000001d0: 09b0 9ebd 9dac 373e 7c26 1f3e 6927 e03d
000001e0: f61f 8e3d 6c24 803e fea3 08be 423d 0fbe
000001f0: 5026 8e3d d812 8ebe 452e 84bd 63e0 b7bd
00000200: 8867 a3bb e2d2 b73e ff86 013e db56 8cbd
00000210: 0a7f 433e 6ba3 913d a217 a93d ec88 493d
00000220: 2cbb c23d 114e d9be 0acc 90be 9845 623e
00000230: 7736 633d bae9 653e 2f2b 1b3e 4592 91bd
00000240: fd20 313e b20a e0bd 8a29 7d3d 9a6f 6e3e
00000250: 3782 d9be f229 2abd ba4a 043e f11e aa3c
00000260: 7b8a 91bd a910 213e 6562 c03e 9978 d83e
00000270: d03b 963d b43e 6abe b977 0c3d 2a82 73be
00000280: 55bb 96be 9d2a 03bd 1dcf 07be 2ff1 efbc
00000290: 4989 c63d 8e42 153e ccc9 d83e 887b 173e
000002a0: ea06 c83d 4519 5bbc a1e4 3d3e 7167 eabc
000002b0: 3d9c 98be 4799 42be 4a1e 22be 7242 f53c
000002c0: a871 24be 8234 3fbe 7f8e 50be c93a 1cbf
000002d0: c5fa d83c 5b3b ef3c ef7f f63c aaa1 65be
000002e0: e332 94be 89e0 1b3d 02f9 0ebe b799 723d
000002f0: a20b 0abd eb19 6bbe 1853 7a3e 5e34 133e
00000300: 3cb1 1c3e 8e57 853d ace7 c83d b047 83be
00000310: 5870 c43d d378 2abc c80b 883d 4c9e cb3d
00000320: f741 9cbe 52eb 5a3e 2765 c9bd 4f87 3ebe
00000330: 3574 30bd bbb8 983e 3034 043f 77b0 473e
00000340: 2f6b 003e 4988 cebd ab30 b83c ddd2 66bd
00000350: 4e90 51bc 2dcf 533e a171 153d 4141 edbd
00000360: 5a3d 04be 6d15 37be cc2d 05bf 1410 2fbe
00000370: 70e0 84be 1ed0 843e ebc5 22bd 4822 abbd
00000380: 7dd1 213e b235 733d d1f0 39be 79aa 48be
00000390: 2210 703c 97f7 8cbe 742b 643d 6663 c73d
000003a0: c7d8 9abe e003 21be c7df a4be 0351 abbc
000003b0: 22d0 3bbe 6cc2 1fbd a423 d73d e36e dc3d
000003c0: 3f76 b7be 1527 4abc e93e 14be 34c1 3a3e
000003d0: 2806 66bd 4997 853e e44e f33c bea7 4ebd
000003e0: 270e 79bd 3270 473e 637c 6dbd 10e5 1cbe
000003f0: 20de 77bd 6ceb 84bd 1fcd 85be c20e 92be

actor_mean.0.bias f4 [64]
-0.137906 0.11298781 0.06425808 0.07396261 -0.14147015 -0.07571507 0.059783995 -0.063023776
0.071317755 -0.1702128 0.13634117 0.08740345 0.0799367 -0.06043981 -0.048402593 0.055216327
0.09813283 -0.11219876 -0.0630677 -0.015584495 -0.21346705 0.06855817 -0.0875977 0.0392778
-0.067944236 0.1430205 -0.08910415 0.053152222 -0.046617545 0.06899247 0.1167599 0.03844912
-0.018241543 -0.15399383 0.050986998 0.0028895854 -0.16092035 0.010542294 -0.0037089244 0.13521674
-0.0053045694 -0.14893226 0.044926707 0.066337734 -0.11706167 0.16501367 0.1192376 -0.16967113
-0.02325637 -0.052578826 -0.097139224 0.17593248 0.23840076 0.06675698 -0.115482844 0.10462198
0.025059227 -0.26900357 -0.01507358 0.031130562 0.10591231 0.056899253 0.044751056 -0.03443515
00000000: 3b37 0dbe 2766 e73d be99 833d b579 973d
00000010: 8ddd 10be 8110 9bbd 10e0 743d 9c12 81bd
00000020: 0b0f 923d 444c 2ebe 059d 0b3e 9400 b33d
00000030: dab5 a33d bc8f 77bd cc41 46bd 842a 623d
00000040: ddf9 c83d 77c8 e5bd a329 81bd 1c56 7fbc
00000050: 1b97 5abe 3a68 8c3d 6c66 b3bd c2e1 203d
00000060: 5926 8bbd f773 123e 3d7c b6bd 25b6 593d
00000070: 0af2 3ebd ed4b 8d3d d01f ef3d d37c 1d3d
00000080: 4a6f 95bc 8fb0 1dbe bed7 503d 335f 3d3b
00000090: 4ec8 24be 96b9 2c3c 6d11 73bb 4276 0a3e
000000a0: f4d1 adbb b381 18be 1105 383d 14dc 873d
000000b0: 07be efbd 58f9 283e d832 f43d 45be 2dbe
000000c0: 2584 bebc e55c 57bd eef0 c6bd a527 343e
000000d0: 541f 743e e2b7 883d 4582 ecbd 0c44 d63d
000000e0: 0249 cd3c d6ba 89be 2df7 76bc 8505 ff3c
000000f0: 8ee8 d83d 310f 693d e24c 373d df0b 0dbd

actor_mean.2.weight f4 [64, 64]
-0.20956546 0.019347861 0.09425938 0.081222326 -0.13013852 -0.086724564 0.0739588 -0.22075802
0.04450618 -0.14360976 -0.150148 0.5414896 0.12774575 0.006150611 -0.23084731 0.109210424
0.016037943 0.43540064 -0.46707624 0.3321152 -0.06534086 -0.22946304 -0.16486073 0.13308984
0.00271681 0.26019418 -0.008980529 0.18987931 0.03558819 -0.14193337 -0.021852165 0.17755501
0.24774963 0.012694017 0.19210766 -0.12492914 0.20369056 -0.0044183857 -0.100967064 -0.11266317
-0.1593965 0.15717383 0.30622894 -0.28184146 0.054211468 0.053026274 0.13025336 -0.31000254
-0.1670382 -0.31278795 -0.28362265 0.14442869 -0.014443 -0.07596114 -0.17919499 0.37599805
-0.6019355 -0.18230991 -0.009423334 0.20603272 -0.2246216 0.1779918 -0.14824013 0.091481686
0.22861794 -0.30552983 -0.39311475 -0.31894782 -0.36023238 0.3778377 0.023278594 -0.088371664
-0.018951554 -0.034163382 0.10840097 0.06646136 0.056891736 0.15248734 -0.40310097 0.37299347
0.0035320087 -0.28909454 0.15011719 0.1364199 -0.022748696 0.0050564907 0.13897197 0.05606662
0.25751022 -0.013674029 0.095733106 0.20308942 -0.17190821 0.31158915 0.20259725 0.026659193
-0.11736897 0.1137446 -0.08195303 -0.055429116 0.13714351 -0.03683035 0.09185949 0.051247254
-0.25243202 -0.106964715 0.52727723 -0.20263776 -0.2519864 -0.05724392 0.12252362 0.08530933
0.020316634 -0.041426405 -0.25778595 -0.04350225 -0.08250693 -0.25180364 -0.12484153 0.051872585
-0.14800538 -0.10179413 -0.12791777 0.016729353 -0.24942133 -0.045426957 0.3376447 0.053545915
-0.22435206 -0.26596504 0.0816033 -0.24798666 -0.2324666 -0.018423785 -0.27800557 -0.3850309
-0.11820712 -0.15044841 0.09778935 0.1073663 0.10119649 0.2527966 -0.15351674 -0.016248222
0.030265374 -0.19154468 0.05615556 -0.048037842 -0.2764924 0.033574633 -0.27178845 -0.31030884
-0.26352063 0.005673227 -0.10755333 -0.040444996 -0.09262046 -0.3062889 -0.009620674 0.18718337
-0.15787236 0.1089306 0.34092978 0.047688507 -0.52737683 0.061243586 -0.3154363 0.045232214
-0.05974243 -0.14792094 0.095336795 0.15152146 -0.10213211 0.09623999 -0.23835191 -0.15589602
-0.18626866 0.23388122 0.24210094 -0.20145068 0.22141705 -0.16483921 -0.29499194 0.22405346
0.34743342 -0.25315744 0.11710552 0.05188555 0.0032980177 -0.09040561 -0.2292711 -0.13545161
-0.06697557 -0.090666115 0.1591355 0.007372322 0.07184025 -0.10028446 -0.13189282 0.28719842
-0.23263524 0.29226872 0.028870761 0.10305844 0.27602595 -0.098426685 0.061140034 -0.004603071
0.07988004 -0.08970054 0.19896208 -0.004065764 -0.14222184 -0.1973771 -0.089109905 0.34154308
0.022883886 0.024527097 0.06625433 -0.29103634 0.27925435 0.033897154 -0.09225867 -0.05860569
0.06588027 0.3656949 -0.19365014 0.031516023 -0.22087067 -0.009852144 0.042984627 0.033744637
-0.16386212 -0.057880994 0.27891093 0.10622981 0.35732198 -0.3058756 0.06672995 -0.03447562
0.11055388 0.06921538 0.24570487 -0.17095216 -0.43311998 -0.123869315 -0.14827333 0.13524246
-0.24137378 0.47476265 -0.4289532 -0.3424471 -0.08600431 -0.17452411 -0.14227386 -0.05807065
00000000: 5498 56be 687f 9e3c 100b c13d e457 a63d
00000010: 0843 05be a69c b1bd b677 973d 640e 62be
00000020: 1d4c 363d 700e 13be 66c0 19be 109f 0a3f
00000030: c8cf 023e 118b c93b 3d63 6cbe b7a9 df3d
00000040: 0162 833c d5ec de3e 9e24 efbe 010b aa3e
00000050: 6ed1 85bd 5cf8 6abe 40d1 28be b448 083e
00000060: 820c 323b 2c38 853e 1223 13bc b96f 423e
00000070: ecc4 113d fb56 11be 5003 b3bc fbd0 353e
00000080: 14b2 7d3e 91fa 4f3c dfb7 443e d9da ffbd
00000090: 4294 503e 1bc8 90bb d2c7 cebd f3bb e6bd
000000a0: d638 23be 2df2 203e 0aca 9c3e 864d 90be
000000b0: d80c 5e3d 1432 593d 2361 053e a7b8 9ebe
000000c0: 100c 2bbe be25 a0be fd36 91be 1de5 133e
000000d0: 55a2 6cbc 8491 9bbd e47e 37be d182 c03e
000000e0: 7218 1abf 73af 3abe 5464 1abc 3efa 523e
000000f0: 3403 66be 7b43 363e 43cc 17be c05a bb3d
00000100: d21a 6a3e 686e 9cbe 5646 c9be 214d a3be
00000110: 6170 b8be f173 c13e c0b2 be3c 34fc b4bd
00000120: 4a40 9bbc e7ee 0bbd 5401 de3d e51c 883d
00000130: 4f07 693d a425 1c3e 4063 cebe 00f9 be3e
00000140: 4679 673b 3304 94be 52b8 193e a9b1 0b3e
00000150: 795b babc ebb0 a53b ab4e 0e3e 1da6 653d
00000160: 61d8 833e 0909 60bc b80f c43d acf6 4f3e
00000170: b508 30be 9d88 9f3e a775 4f3e 6164 da3c
00000180: 245f f0bd eef2 e83d fdd6 a7bd a409 63bd
00000190: 596f 0c3e 6cdb 16bd d420 bc3d a4e8 513d
000001a0: c53e 81be 5110 dbbd a4fb 063f 4680 4fbe
000001b0: 5d04 81be 9a78 6abd aaed fa3d a8b6 ae3d
000001c0: 126f a63c bcae 29bd 85fc 83be 6a2f 32bd
000001d0: 65f9 a8bd 68ec 80be ebac ffbd 5978 543d
000001e0: b98e 17be 7179 d0bd e0fc 02be ff0b 893c
000001f0: 4e68 7fbe 9e11 3abd c4df ac3e f652 5b3d
00000200: 8cbc 65be 922c 88be a21f a73d 37f0 7dbe
00000210: b90b 6ebe 7aed 96bc bf56 8ebe c522 c5be
00000220: 9316 f2bd 260f 1abe c845 c83d dde2 db3d
00000230: 1b40 cf3d 8e6e 813e 7e33 1dbe fe1a 85bc
00000240: 17ef f73c 4a24 44be 5f03 663d 54c3 44bd
00000250: 6990 8dbe 8e85 093d db27 8bbe cde0 9ebe
00000260: 2dec 86be 7ae6 b93b ec44 dcbd a7a9 25bd
00000270: ccaf bdbd e6d1 9cbe 08a0 1dbc ffac 3f3e
00000280: 4ba9 21be 0217 df3d 598e ae3e 0655 433d
00000290: 2b02 07bf 8eda 7a3d de80 a1be 6a45 393d
000002a0: 7ab4 74bd 9678 17be f03f c33d 7128 1b3e
000002b0: a42a d1bd 7919 c53d 8612 74be 35a3 1fbe
000002c0: 36bd 3ebe 8f7e 6f3e 4fe9 773e 1649 4ebe
000002d0: 27bb 623e 9ccb 28be 2f09 97be 456e 653e
000002e0: cbe2 b13e da9d 81be 05d5 ef3d f185 543d
000002f0: 8e23 583b 9426 b9bd 0bc6 6abe d4b3 0abe
00000300: 7d2a 89bd 28af b9bd 6bf4 223e 8593 f13b
00000310: fb20 933d f061 cdbd e90e 07be ac0b 933e
00000320: ef37 6ebe 3fa4 953e 6082 ec3c 4e10 d33d
00000330: 4653 8d3e ee93 c9bd f96d 7a3d 5cd5 96bb
00000340: 2598 a33d ebb4 b7bd b7bc 4b3e 1a3a 85bb
00000350: 9aa2 11be 391d 4abe 417f b6bd bcde ae3e
00000360: fd76 bb3c 0ded c83c 5ab0 873d b702 95be
00000370: 6dfa 8e3e bed7 0a3d 1df2 bcbd 850c 70bd
00000380: 3cec 863d 5d3c bb3e 394c 46be f216 013d
00000390: ec2b 62be e36a 21bc a610 303d d137 0a3d
000003a0: 79cb 27be 9f14 6dbd 6acd 8e3e 048f d93d
000003b0: e8f2 b63e ba9b 9cbe b6a9 883d 4f36 0dbd
000003c0: 136a e23d cbc0 8d3d 0f9a 7b3e 150e 2fbe
000003d0: e7c1 ddbe 32af fdbd f7d4 17be 007d 0a3e
000003e0: b02a 77be 1714 f33e c19f dbbe 3a55 afbe
000003f0: 0723 b0bd 73b6 32be 3db0 11be 7ddb 6dbd

actor_mean.2.bias f4 [64]
0.13275005 0.07863743 0.16241917 -0.26149547 -0.13026792 -0.15565129 -0.27837425 0.17994949
0.006822592 -0.033459846 0.09305439 -0.12922828 0.095925674 -0.0035043948 0.16477555 0.21181959
0.016962344 -0.033350606 -0.1269737 0.14742292 0.041356653 -0.16717143 -0.14964 -0.10030477
-0.039901607 -0.19511333 -0.0042437497 -0.10486433 -0.055847097 -0.011299328 -0.024314072 0.13121636
-0.08315778 0.07913641 0.21673362 0.16515487 -0.09811303 0.0119106835 0.041775286 0.06379965
-0.006687576 0.10377539 0.029107392 0.01803603 -0.09223924 -0.026448552 0.1377575 0.007544905
0.025502263 -0.092155576 0.08403539 -0.024106894 -0.083273396 0.23143628 -0.0869579 -0.085875064
-0.072197296 -0.0024744016 -0.037435498 -0.0042883977 0.083970726 0.057316255 -0.08965918 0.22519068
00000000: a1ef 073e a90c a13d 3651 263e bce2 85be
00000010: f464 05be 0d63 1fbe 1287 8ebe ae44 383e
00000020: 0d90 df3b 310d 09bd 4d93 be3d 6b54 04be
00000030: ae74 c43d fda9 65bb ecba 283e 3ce7 583e
00000040: 9df4 8a3c a59a 08bd 6505 02be 09f6 163e
00000050: 9865 293d fd2e 2bbe 3a3b 19be 966c cdbd
00000060: de6f 23bd cacb 47be 270f 8bbb 1cc3 d6bd
00000070: edbf 64bd d120 39bc 4e2e c7bc 955d 063e
00000080: a04e aabd 4512 a23d 6bef 5d3e 5c1e 293e
00000090: 7cef c8bd 0725 433c 901c 2b3d 64a9 823d
000000a0: 7423 dbbb 3188 d43d a072 ee3c 4cc0 933c
000000b0: ede7 bcbd a2aa d8bc 4d10 0d3e 403b f73b
000000c0: 1fea d03c 10bc bcbd bf1a ac3d d27b c5bc
000000d0: 3e8b aabd a2fd 6c3e fc16 b2bd 44df afbd
000000e0: 2ddc 93bd 9229 22bb f755 19bd b085 8cbb
000000f0: d8f8 ab3d 73c4 6a3d 3b9f b7bd 6398 663e

actor_mean.4.weight f4 [6, 64]
-0.061912037 0.031836264 0.08632642 0.0052868663 0.008733351 0.02000406 0.038634226 -0.059992023
0.009497368 -0.005398247 -0.016344858 0.017489135 0.046614107 -0.05190229 -0.08882686 -0.11164038
-0.000855582 -0.0036860295 -0.009762818 0.09365026 -0.027192026 0.0141547015 0.14562233 -0.093010485
-0.08258192 0.09502934 -0.0008732414 0.005146456 0.10767224 0.0012076134 0.09296107 -0.014643396
0.06182456 -0.018639041 -0.04672491 -0.07079883 -0.029299991 0.018177599 0.18734726 -0.15413564
0.012388331 -0.012454911 0.018932065 -0.04654838 -0.006672421 0.08681778 -0.04457054 -0.0105035575
-0.20628148 -0.030307686 0.065069474 -0.02276889 0.013449676 -0.08681869 -0.020477898 0.12868191
0.022765102 -0.00043005124 0.013519734 -0.057423938 -0.10376125 0.050336644 -0.10439608 -0.004827194
-0.11711473 -0.09420338 0.04669856 0.014262757 0.04529092 0.03360361 -0.07353991 0.010392038
-0.029958064 -0.042119347 0.006299796 0.0060039703 0.1154829 0.016850179 -0.13508905 0.004409376
0.00033869504 -0.026598098 0.06870759 -0.03649199 0.0062731537 0.025100878 0.04534289 0.095771804
-0.10677877 -0.061386343 -0.060615167 -0.12848344 -0.016289426 -0.050024364 -0.019898836 -0.004679076
0.03538499 -0.10183669 -0.018652033 -0.056856167 -0.10642709 -0.016234154 0.12975617 0.020062733
-0.060988065 -0.0886246 -0.015562598 0.06571034 -0.104220435 0.14646773 0.02768309 -0.06014279
0.012981582 0.15246938 0.018384812 0.017742423 -0.154786 0.108716175 0.097337924 0.15162286
-0.026916388 -0.09870912 -0.10572581 -0.004651907 0.059571434 0.038644943 -0.016852016 0.062270172
-0.011677991 -0.083546065 -0.014456757 -0.005156988 0.13247027 0.14306653 0.033493236 -0.0016178465
-0.05090423 0.019531215 0.026949063 0.021941593 -0.049316723 0.05737713 -0.06575538 -0.04586675
-0.016743055 -0.0663509 0.0005247807 -0.10495293 -0.0023242037 -0.01522469 0.10506445 -0.03412668
0.06513096 0.036800418 -0.0066937907 -0.03292827 0.061413646 -0.017391473 -0.052901115 -0.023590913
0.06474473 0.013371326 -0.013856086 0.015818758 -0.037385017 0.023795862 0.05804625 -0.0016192646
-0.023480522 -0.08490795 0.052608863 0.037506294 0.045024786 0.04939847 -0.099347934 -0.045362316
0.08753793 0.0065796226 -0.03138293 -0.02612903 0.05027446 -0.06594175 0.039895643 0.0995245
-0.11868661 -0.09878798 0.00092222745 -0.07710978 -0.038961735 -0.057811536 0.067674994 -0.018173601
0.15983304 0.043969672 0.08848997 -0.027886199 0.052704673 0.024090212 0.0004393463 -0.081882745
-0.056169745 -0.13228315 0.00087765994 -0.074724585 0.08485247 0.05360642 0.00724407 0.024316853
0.03738623 0.04519921 -0.11082178 0.058525477 0.02830461 0.060764123 0.07324149 -0.12738816
0.21329932 0.010556847 0.058832802 -0.121462554 0.068818256 -0.00029953217 -0.015814638 -0.14320289
0.11962674 -0.078370765 -0.116319865 0.008365909 0.22565612 0.019658316 0.16222605 -0.09089882
-0.06759103 0.016214412 0.03802369 0.11580951 -0.16356611 0.06909609 -0.0064918115 0.01301989
-0.10207879 0.014865275 0.03514691 -0.07022747 0.051090132 0.03230998 0.056660186 0.028583957
-0.01675443 0.08162946 0.008302843 -0.02176037 -0.08572099 -0.0010679846 0.019218024 0.105338015
00000000: 7a97 7dbd be66 023d e8cb b03d 733d ad3b
00000010: 5416 0f3c 8edf a33c ec3e 1e3d 32ba 75bd
00000020: d99a 1b3c c7e3 b0bb a7e5 85bc 6045 8f3c
00000030: 6fee 3e3d 7f97 54bd dbea b5bd b6a3 e4bd
00000040: 2349 60ba 5091 71bb 3af4 1fbc b5cb bf3d
00000050: d0c1 debc 1fe9 673c 051e 153e 487c bebd
00000060: b620 a9bd be9e c23d 3dea 64ba 9aa3 a83b
00000070: 4383 dc3d c848 9e3a 6062 be3d dbea 6fbc
00000080: c03b 7d3d e7b0 98bc 9f62 3fbd fafe 90bd
00000090: 8906 f0bc 30e9 943c f6d7 3f3e bcd5 1dbe
000000a0: 6df8 4a3c af0f 4cbc 6b17 9b3c 84a9 3ebd
000000b0: 53a4 dabb 85cd b13d 998f 36bd 1d17 2cbc
000000c0: 743b 53be d347 f8bc 2543 853d d385 babc
000000d0: 085c 5c3c ffcd b1bd 44c1 a7bc 31c5 033e
000000e0: e17d ba3c 8078 e1b9 e081 5d3c 5d35 6bbd
000000f0: c780 d4bd cc2d 4e3d 9dcd d5bd 702d 9ebb
00000100: d9d9 efbd b4ed c0bd fd46 3f3d 57ae 693c
00000110: f982 393d f0a3 093d 189c 96bd 5e43 2a3c
00000120: 9d6a f5bc 5685 2cbd 856e ce3b f4bc c43b
00000130: 4c82 ec3d 6309 8a3c c954 0abe 877c 903b
00000140: e192 b139 41e4 d9bc 91b6 8c3d a078 15bd
00000150: 078f cd3b 5ba0 cd3c 77b9 393d 0224 c43d
00000160: d4ae dabd 3f70 7bbd 9c47 78bd 2a91 03be
00000170: 6771 85bc 59e6 4cbd e202 a3bc ef52 99bb
00000180: daef 103d c18f d0bd 26cc 98bc 03e2 68bd
00000190: 72f6 d9bd 7dfd 84bc cdde 043e 9a5a a43c
000001a0: 9fce 79bd d080 b5bd 44fa 7ebc 2593 863d
000001b0: 8671 d5bd a3fb 153e a6c7 e23c 4958 76bd
000001c0: b4b0 543c ef20 1c3e bf9b 963c 8f58 913c
000001d0: 3980 1ebe 96a6 de3d 1b59 c73d 0643 1b3e
000001e0: c27f dcbc 0228 cabd c686 d8bd 066f 98bb
000001f0: 2d01 743d 294a 1e3d 3d0d 8abc 020f 7f3d
00000200: 0b55 3fbc 331a abbd 09dc 6cbc f3fb a8bb
00000210: 49a6 073e 0880 123e 3430 093d ec0d d4ba
00000220: f480 50bd edff 9f3c 48c4 dc3c dbbe b33c
00000230: 5500 4abd 4804 6b3d c2aa 86bd c6de 3bbd
00000240: bb28 89bc fbe2 87bd 7091 093a 90f1 d6bd
00000250: ab51 18bb fa70 79bc 082c d73d 6bc8 0bbd
00000260: 6163 853d 09bc 163d 9657 dbbb cbdf 06bd
00000270: e08c 7b3d 9078 8ebc d7ae 58bd bb41 c1bc
00000280: e398 843d 6813 5b3c a304 63bc 5796 813c
00000290: 0821 19bd 8aef c23c e8c1 6d3d 813d d4ba
000002a0: 395a c0bc 38e4 adbd 647c 573d 33a0 193d
000002b0: e96b 383d 0d56 4a3d ee76 cbbd d6cd 39bd
000002c0: 1647 b33d e099 d73b 638b 00bd 8c0c d6bc
000002d0: 98ec 4d3d 780c 87bd 9d69 233d 80d3 cb3d
000002e0: f711 f3bd 5a51 cabd a3c1 713a bbeb 9dbd
000002f0: 5796 1fbd cacb 6cbd 3099 8a3d cee0 94bc
00000300: 46ab 233e 8b19 343d 3b3a b53d 9971 e4bc
00000310: dbe0 573d d658 c53c 1058 e639 24b2 a7bd
00000320: 3f12 66bd 3c75 07be c312 663a 3409 99bd
00000330: 22c7 ad3d 6892 5b3d aa5f ed3b 2334 c73c
00000340: 4e22 193d cf22 393d 88f6 e2bd 69b8 6f3d
00000350: 12df e73c cde3 783d a2ff 953d 0b72 02be
00000360: 236b 5a3e a0f6 2c3c aafa 703d 5cc1 f8bd
00000370: 96f0 8c3d 870a 9db9 b38d 81bc c7a3 12be
00000380: ddfe f43d da80 a0bd 1c39 eebd 2a11 093c
00000390: 6612 673e 7a0a a13c 961e 263e 2929 babd
000003a0: 2a6d 8abd 16d4 843c bbbe 1b3d 892d ed3d
000003b0: e07d 27be 4082 8d3d 43b9 d4bb 6051 553c
000003c0: af0e d1bd 7b8d 733c 35f6 0f3d 6bd3 8fbd
000003d0: e343 513d 7857 043d 8314 683d e728 ea3c
000003e0: 9640 89bc 592d a73d a608 083c ce42 b2bc
000003f0: 7d8e afbd 9efb 8bba 1e6f 9d3c 75bb d73d

actor_mean.4.bias f4 [6]
-0.08905182 -0.027639294 -0.12746374 0.15103711 0.11354349 0.10241976
00000000: cd60 b6bd cd6b e2bc db85 02be 79a9 1a3e
00000010: 7d89 e83d 73c1 d13d
