part1/HalfCheetahBulletEnv-v0_TD3_1637520330_1637520330_td3.pth (torch, 898095 bytes, 16 tensors)

l1.weight f4 [256, 32]
000000 62 d5 b0 be ae 17 04 be 17 5b d1 be d2 96 f1 3c
       -0.34537798 -0.12899658 -0.4088981 0.029490862
000010 f6 da 97 3d a1 01 07 3f 00 25 8f bd 15 77 ce 3e
       0.0741481 0.5273686 -0.06989479 0.40325227
000020 df 0b 23 bd 57 36 4b be 15 6d f3 3c 93 7f 4a be
       -0.039806243 -0.19844948 0.0297151 -0.19775228
000030 00 11 a2 bd af dc 71 bd 1b ed d9 3e fd 8f 66 3e
       -0.07913399 -0.05904835 0.4256371 0.22515865
000040 1d fb 0a be 12 7a d3 bc de bf 81 bf d9 e7 9a be
       -0.13572355 -0.025815044 -1.0136678 -0.3025501
000050 e0 c3 0e 3e 28 13 22 be 9f af 89 3d 80 07 b0 3d
       0.13941908 -0.1582762 0.0672295 0.085951805
000060 93 cb 96 be 3f b0 15 3e ab 43 9a bd 7f 88 3e 3d
       -0.2945219 0.14618014 -0.07532438 0.04651689
000070 52 db 1a 3d 07 6e 72 bd 0a a5 de bb 05 f0 2a bd
       0.037806816 -0.05918696 -0.0067945765 -0.041732807
000080 4c ed 38 3e 51 eb 8a bc 05 00 b2 be f6 3f c3 be
       0.18059272 -0.01695791 -0.3476564 -0.38134736
000090 8b 9b b7 3d cb 7c 89 3f bb 02 10 be f0 52 3a 3e
       0.08965214 1.0741209 -0.14063542 0.181957
0000a0 f0 b5 57 3f 2d 0d 09 3e 8d 38 03 bc 7d 4c e4 be
       0.8426199 0.13383932 -0.008009088 -0.44589606
0000b0 ab 9f 61 bc bc 71 11 be f6 07 ce be e2 7c 37 3e
       -0.013770978 -0.14203542 -0.4024045 0.17918733
0000c0 29 36 cf bd 3a 5e c2 be ca 77 f9 3e 1f 65 6c 3d
       -0.10117752 -0.37962514 0.48724204 0.057713624
0000d0 c0 ad 67 be 87 1d 95 3e 12 1c 66 3f ff a2 63 3e
       -0.22624874 0.2912409 0.8988658 0.22230147
0000e0 2a 74 2c bf 00 c1 a8 be 76 4b 23 3d f7 1c 28 be
       -0.6736475 -0.32959747 0.039866887 -0.16417299
0000f0 8c 2f 3c 3c 33 fd ff 3d 46 c1 04 be 14 af 92 bd
       0.011485945 0.12499466 -0.12964353 -0.071623
000100 9d 62 c8 be 7b 38 f4 3d 32 81 a2 be ca 43 e9 bd
       -0.39137736 0.11924835 -0.31739193 -0.11389883
000110 35 aa c3 3d 89 6b 16 3f 80 8c 01 3d a5 0a 0d bf
       0.09553949 0.58757836 0.031628132 -0.5509437
000120 c6 cf 24 bf a1 b6 de be 90 15 1d bf 5e a4 35 be
       -0.6437954 -0.4349871 -0.61361027 -0.17738482
000130 53 16 3d be 41 74 03 bd f3 42 5a 3e 95 4d 51 3e
       -0.18465547 -0.03209329 0.21314602 0.20439751
000140 f4 51 d2 3e 0d bf 3d 3b ec 44 b9 3e 6f 3a 25 be
       0.4107815 0.0028952986 0.36185396 -0.16135572
000150 ab 59 e0 bd 8a 01 4e 3e 6a 52 03 3f 56 ad ae 3d
       -0.10954603 0.20117775 0.5129763 0.08529155
000160 74 9b 15 bd b9 1d b9 3c fe 8a 30 bd 24 8a 89 bd
       -0.036525205 0.02259718 -0.043101303 -0.06715801
000170 a6 1b 12 3d f4 23 4a bd 05 34 b4 3c 2e 80 76 bc
       0.0356709 -0.049350694 0.021997461 -0.015045209
000180 fd 18 10 3e d8 02 8a 3d 1b c4 87 be 6c b0 cb be
       0.14072032 0.06738824 -0.26516804 -0.39783037
000190 49 f6 bb 3d 28 87 87 bd f6 88 d4 3d e1 94 bd bc
       0.091778345 -0.06617576 0.10377686 -0.02314228
0001a0 15 63 8b bd bd ff c2 3e 3e 83 92 be 2d 80 3f bd
       -0.06806008 0.38085738 -0.28615755 -0.046753097
0001b0 05 ea dc 3d 2c 3d 46 be cf de 28 3e f5 86 35 3f
       0.10786823 -0.19359273 0.16491245 0.70909053
0001c0 4b ef 48 be 8e 36 60 3e ee 83 6b 3d 97 7b 12 3e
       -0.19622533 0.21895811 0.057498865 0.14304958
0001d0 2c 69 d4 be 88 35 8b 3e 3f fc 0c be 4a c1 39 3e
       -0.4148649 0.2718928 -0.13768099 0.1814014
0001e0 9f d3 a6 3d 1e 04 78 be 5d 62 54 3e b6 f0 57 bd
       0.08145832 -0.2422032 0.20740648 -0.052719794
0001f0 9c e5 a2 3d 12 26 0b 3e c3 68 99 3e 6c 51 82 be
       0.07953951 0.13588741 0.2996274 -0.25452745
000200 5b d5 b2 bf a4 cf 32 bd 8b ba ef be ae ea 77 3e
       -1.3971361 -0.043655053 -0.46822008 0.24210617
000210 51 1b c5 3b 2b e8 a2 be 5c c4 cd 3c 3e 17 8a 3f
       0.0060152193 -0.31817755 0.025118046 1.0788343
000220 a0 6c 10 3f ea a4 e1 be aa e9 d4 3e 32 6d c8 3c
       0.5641575 -0.44071132 0.41584522 0.02446613
000230 3f 2d fd bd 63 8c 0f bd 8b 33 31 3c 5d 7e 76 3c
       -0.12362146 -0.035045993 0.010815511 0.015044776
000240 ec 9c a4 bd 04 9b 8c 3d 38 1f 3a be 61 5c 2d 3e
       -0.08037743 0.068655044 -0.18175972 0.16929771
000250 76 c8 af 3d a5 15 0e bf a2 f4 2d 3d d3 01 7a 3d
       0.08583157 -0.55501777 0.04246963 0.061036896
000260 28 82 ca 3e 9f a4 e0 bd 31 12 a9 bb 29 2d 37 bc
       0.39552426 -0.10968899 -0.0051596393 -0.011180201
000270 63 6d ed bb 0c 50 a1 3c ac 18 0e bd cb 6b 16 bc
       -0.007245706 0.01969149 -0.034691498 -0.009180973
000280 97 72 51 bf 72 d6 60 3d 81 ca 10 bf d7 ed a0 3e
       -0.81815475 0.05489201 -0.56558996 0.31431457
000290 ad 2b 04 3e ae 9b ce bf df 27 11 3e fb 8d a2 bd
       0.12907286 -1.614126 0.14175366 -0.07937237
0002a0 5a cd f4 3e 2a 0a 26 3d a0 e3 71 3d 1c 07 49 3e
       0.4781292 0.040537037 0.05905497 0.19631618
0002b0 8b d5 71 3e 0d 51 8c 3c a6 b6 48 3d 89 20 f2 bd
       0.23616616 0.017128492 0.049002312 -0.11822612
0002c0 af 7b 52 3f 65 81 0d 3e 68 b4 46 be e3 e5 80 bc
       0.82219976 0.13818891 -0.19404757 -0.015734619
0002d0 53 24 36 bd bc 02 b0 be e0 aa 2f 3e a3 69 d1 bd
       -0.044468235 -0.34377086 0.17155027 -0.10225227
0002e0 8d 2f 84 bf e6 03 6c be c0 8f 03 3d bd e9 a8 3d
       -1.0327011 -0.23048362 0.032119513 0.08247707
0002f0 56 ed 2a bd 4b 0a 6d bd 92 61 f2 3c 58 99 88 bd
       -0.041730247 -0.057871144 0.02958754 -0.06669873
000300 22 78 f3 3e 4e 22 d9 bd 81 9a 98 bd ee 0b 49 3f
       0.47552592 -0.10602246 -0.07451344 0.7853383
000310 00 06 b9 bd 24 e7 d9 bf 06 62 13 3e 62 f2 73 3e
       -0.090343475 -1.7023664 0.14392862 0.2382293
000320 93 f5 15 bf 21 55 a1 be a6 60 2b bf 3c b3 77 be
       -0.5857784 -0.3151026 -0.6694435 -0.24189466
000330 4d 63 96 3e b3 3e 55 bd 22 95 a9 be 92 dc 47 bd
       0.29372635 -0.052061748 -0.33121592 -0.048794337
000340 b2 78 70 3d 4b 98 49 be 01 bd 34 bf 73 5e 12 be
       0.058708854 -0.19687001 -0.706009 -0.14293842
000350 70 22 18 3d bd 0e 8a 3d 99 a7 8d 3e 02 59 a1 be
       0.037142217 0.06741092 0.2766693 -0.3151322
000360 a2 5e 4a 3d 02 31 87 be 53 bf 13 3d f6 2c 3a 3d
       0.049406655 -0.26404577 0.036071133 0.045453034
000370 5a 9e c3 bd f6 d3 0a 3e 70 65 5c bd b5 c1 a1 3a
       -0.095516875 0.13557419 -0.053807676 0.0012341054
000380 97 4d 16 bf c9 dc 8f bd e3 b9 c7 be 94 56 51 3d
       -0.5871214 -0.07024533 -0.39009008 0.051107958
000390 58 b7 03 be 92 ff 10 bd 8a c3 4e bb b0 c9 16 3e
       -0.12862909 -0.03539998 -0.0031549656 0.14725375
0003a0 29 af d1 be d3 0d 12 bf 0e af 3b be 0c df e1 be
       -0.4095395 -0.57052344 -0.18328497 -0.44115484
0003b0 3e 73 ab be f4 ac 91 3e d2 9a 5f be ef f2 52 3e
       -0.3348636 0.28452265 -0.21836403 0.20600484
0003c0 5c 47 a6 3e fa d4 1e be b9 ab c4 be 4b 34 78 be
       0.32476318 -0.15510932 -0.38412264 -0.24238698
0003d0 43 9d 2f 3e aa 43 60 be 7b a4 78 bd 84 0e 84 bc
       0.17149834 -0.21900812 -0.060703736 -0.016120203
0003e0 3e c5 c5 bf 51 58 88 be d1 2b 80 bd 01 c7 2f bd
       -1.5450819 -0.2662988 -0.06258357 -0.042914394
0003f0 b4 f6 0c 3e 99 22 2d 3d fa ae 95 3d 5b 77 21 bd
       0.13765985 0.042269323 0.07308765 -0.039420467

l1.bias f4 [256]
000000 ac 71 06 bf d0 a3 79 be 2e 67 d1 be e9 66 d8 bd
       -0.525172 -0.24378896 -0.40899032 -0.105665036
000010 af e9 b2 be 33 0a 83 be 45 56 a2 bc 25 8c c1 be
       -0.3494391 -0.2559372 -0.019816527 -0.37802234
000020 17 d9 90 3d f2 84 b9 be d1 97 c5 3e 9e bd 79 3d
       0.070726566 -0.36234242 0.3859239 0.06097185
000030 20 b1 6d 3d 85 00 cf be d6 2c 4a bc 7a eb 97 3e
       0.058030248 -0.40430084 -0.012339791 0.29671842
000040 95 77 a7 bd 92 17 ba 3d cb bf c0 3e be 0c 3a 3e
       -0.08177105 0.09086527 0.37646326 0.18168923
000050 cd 76 67 3e bc 44 a3 be 0f 27 56 3e 9b a6 8e bd
       0.22603913 -0.31888378 0.20913337 -0.06965371
000060 40 45 52 3d 43 1a be be c6 da 25 3f e7 9b 1b bd
       0.051335573 -0.3712941 0.64786947 -0.037990477
000070 70 1b d1 bd 3e 3c 00 be ce 38 5c 3e 44 1f ac be
       -0.102103114 -0.1252298 0.21506044 -0.33617604
000080 e6 f2 a6 be ff 8c 99 3d 66 4c 53 bd f3 67 e2 3d
       -0.32607192 0.07497596 -0.05158653 0.11054983
000090 44 2d 68 be 3c a8 c5 3e f2 e3 25 3e 96 88 4d 3e
       -0.22673517 0.38604915 0.16200235 0.20071635
0000a0 01 f5 a6 3d 6d e0 85 bd c2 04 d9 bd 5b c7 de 3e
       0.081521995 -0.065369464 -0.105966106 0.4351147
0000b0 f2 16 c3 3c 1a 9e 59 3e e7 b2 da be 60 68 4c bd
       0.023814652 0.21251717 -0.42714617 -0.049904227
0000c0 5d 53 98 be f8 69 f9 ba 3f 05 c1 3e 5c 36 a0 be
       -0.297511 -0.0019028774 0.37699315 -0.31291473
0000d0 a6 9c 09 bf 71 7c e0 3e 50 ea b0 be 06 56 b8 be
       -0.5375465 0.4384494 -0.34553766 -0.3600313
0000e0 fa 15 2f be bd cf 3b be 54 d0 5d be 9e 89 59 3d
       -0.17098227 -0.18340965 -0.21661502 0.053109758
0000f0 b5 78 6e be a1 5c 8a bd 1b 50 fc be ac c8 d1 3e
       -0.23288234 -0.06755949 -0.49279866 0.40973413
000100 e6 d5 97 39 e7 da 5e 3e 44 15 40 be e7 07 34 3e
       0.0002896033 0.21763192 -0.18758112 0.1758114
000110 ba 43 a9 3d 77 b8 29 be 6c e0 13 be 7b 67 0f bf
       0.08264871 -0.16574274 -0.14441079 -0.56017274
000120 7d 33 03 bf 9b b3 52 be 0a 2c ea 3e 91 f5 1c be
       -0.5125044 -0.20576327 0.45736724 -0.15328051
000130 86 ef 1d be 54 b7 82 3b e6 1f 91 be 99 5a 0d bf
       -0.15423402 0.0039891396 -0.2834465 -0.55216366
000140 7b 58 0e bf b5 e8 0d be 9f 38 ad 3e 4c 00 c3 be
       -0.5560376 -0.13858302 0.3383226 -0.38086164
000150 03 d5 22 be 97 ff be be f0 f0 6b be 50 10 96 be
       -0.1590157 -0.37304375 -0.23041129 -0.2930932
000160 5a b3 9a bd 73 be 53 bd 72 28 51 be 21 ab ef bd
       -0.0755374 -0.0516953 -0.20425585 -0.11702562
000170 69 38 91 3e bf b2 4f be 46 50 02 be 49 2f e0 3d
       0.2836335 -0.2028303 -0.12725934 0.10946519
000180 72 2b e2 bb 9e cf 45 3e 3f fc 13 be 6d e8 d8 3c
       -0.0069021517 0.19317481 -0.14451693 0.026478017
000190 8e e6 0b bf 96 5b bb 3e c2 5c a7 be b0 eb 41 3d
       -0.54648674 0.36593312 -0.32687956 0.04734391
0001a0 48 84 e0 bd 34 15 ab 3e 9f af 92 be 7d 4e 9b bd
       -0.10962731 0.33414614 -0.28649613 -0.0758333
0001b0 25 f1 30 be cb f1 b6 bd 63 7b 9e be d1 e3 99 3d
       -0.1727949 -0.08932837 -0.30953512 0.07514156
0001c0 b7 83 5c be f1 9b c8 be b6 43 43 be c9 65 07 bf
       -0.2153462 -0.39181474 -0.19068798 -0.52889687
0001d0 9c 19 ca be 0b bb 1f bd 88 9d 19 3e a3 c4 3d be
       -0.39472663 -0.038996737 0.150015 -0.18532042
0001e0 d2 53 c8 bd ce 50 16 bf df e5 84 bd 81 34 bf be
       -0.097816125 -0.5871705 -0.06489157 -0.37344745
0001f0 8b 8c ba 3e a0 2e 16 bf d3 09 68 3e bc 45 89 be
       0.3643535 -0.58664894 0.22659998 -0.26811016
000200 ba ec 91 be 7a f8 87 3e fe 4e 23 be 35 74 0f be
       -0.2850092 0.2655676 -0.15948102 -0.14009173
000210 fa 33 ae bd a0 6c 8f bd f9 16 03 be b3 ee 87 be
       -0.085060075 -0.070031404 -0.12801732 -0.265493
000220 13 49 46 be 10 f8 f7 bd 43 1b cd be 00 4e 34 be
       -0.19363813 -0.12107861 -0.40059862 -0.1760788
000230 3c 77 21 bd 94 26 21 be dd 1d 67 3b 3e 53 18 3d
       -0.03942035 -0.15737373 0.0035265603 0.03718876
000240 19 52 aa 3e 70 01 6f 3e 8b 56 97 be 3e 36 9b 3e
       0.3326576 0.23340392 -0.29558215 0.3031482
000250 58 07 75 3e b7 23 f3 be 81 bc 8e 3e 3e a9 01 bf
       0.23928583 -0.47488186 0.27878192 -0.5064887
000260 3a bb 6c be a8 4e 65 be fb 0a 3c 3e 6b 9d d4 3e
       -0.23118296 -0.22393286 0.18363564 0.4152635
000270 54 ea 2c bd d9 94 b1 bd 34 85 58 3e 03 55 b5 be
       -0.04221566 -0.086709686 0.21144563 -0.3541642
000280 86 8b 5c 3e 8d a8 05 bf 44 5e aa 3d f7 2b d8 be
       0.21537599 -0.52210313 0.08318761 -0.42221043
000290 e5 f5 a5 be 9f 9e 2b be 38 a1 46 3e 15 71 a9 be
       -0.32414165 -0.16759728 0.19397438 -0.33094087
0002a0 bb 1d 0d bf 5c 72 58 be d6 0c 58 bb 50 75 e8 3e
       -0.5512349 -0.21137375 -0.0032966635 0.45402002
0002b0 c0 de ae be 9c 68 af 3e f3 e5 48 3e 70 46 fe 3d
       -0.3415432 0.34259498 0.19618969 0.12415779
0002c0 c6 a1 a7 be 8d 1d 6d bd a3 8f 40 3d 3f 77 34 be
       -0.3274061 -0.05788951 0.047011983 -0.17623614
0002d0 69 32 68 3d c3 e1 8e be 31 3a 8b be 1e c7 02 3f
       0.0566887 -0.27906618 -0.27192834 0.5108508
0002e0 73 cf 2d bc 42 64 e8 be 14 ac 0c bf 45 c3 ed bd
       -0.010608542 -0.4538899 -0.5495007 -0.1160951
0002f0 67 e1 5b be 5c a2 c7 be d6 f6 67 be 58 44 ab be
       -0.21472703 -0.38991058 -0.22652754 -0.3345058
000300 1d ae e4 be e1 91 2b be 68 9c cc 3e 7b 31 27 3e
       -0.44664088 -0.16754867 0.39963078 0.16327469
000310 2c b4 8f 3c 58 b9 1e 3c 40 94 45 be 09 9a cc bd
       0.017541967 0.009687744 -0.19294834 -0.099903174
000320 04 e3 76 be 15 98 de be 60 e1 8b 3e 67 53 87 3e
       -0.24110037 -0.43475404 0.27320385 0.26430818
000330 c3 11 20 3d 1c f0 02 3f 58 1d 84 3e aa f5 b6 3e
       0.03907944 0.5114763 0.25803638 0.35734302
000340 d9 b2 5d bd 3b 55 53 be bd f5 57 be 60 bb 3d 3e
       -0.05412564 -0.20637982 -0.21089835 0.18528509
000350 d5 24 60 bd 9c c1 84 be cd ee 7e 3e 80 fd b7 3c
       -0.054722626 -0.25928962 0.24895783 0.022459745
000360 f4 41 73 bd 00 b4 1f be 88 12 35 be 59 3f cf be
       -0.05938907 -0.15596008 -0.1768285 -0.40478018
000370 8a 01 8e bd 4d 05 0c be d8 87 dc 3d 16 e1 a0 3e
       -0.06933887 -0.13673897 0.10768098 0.31421727
000380 4d 60 e4 bd 25 2b 0c bf 59 f6 a8 3c ac 1f 86 bd
       -0.111511804 -0.54753333 0.02062528 -0.0654901
000390 8d b4 f5 bd 29 fc 5f be ed 44 7a be 87 87 d6 be
       -0.11997328 -0.21873535 -0.24440356 -0.41900274
0003a0 10 6b d4 be af 40 0f 3e f1 d6 2c be d2 a3 8d 3e
       -0.41487932 0.13989519 -0.16878869 0.27664047
0003b0 53 4c 94 3e cc b4 86 3a b4 45 f4 3e 4d de d3 3e
       0.2896448 0.001027727 0.4770943 0.4138054
0003c0 ef 52 e4 3d 60 57 51 3e bd 45 c4 be 7d 84 b0 be
       0.11148631 0.20443487 -0.38334456 -0.3447608
0003d0 57 20 13 bf 2a 7a c9 3e 02 84 e2 be ac 23 be be
       -0.5747122 0.39351016 -0.4424134 -0.3713659
0003e0 43 cb 65 3d 11 d7 9d be dc 14 3d be 96 a9 ac 3e
       0.05610205 -0.30828145 -0.18464988 0.33723134
0003f0 8e d1 a7 b9 0f 60 c1 3e 5a f5 02 bf 5b 7e 69 be
       -0.00032008853 0.377686 -0.51155627 -0.22802107

l2.weight f4 [256, 256]
000000 36 ed cf bd 5d 63 12 be f7 c0 4c 3d 0d 5f c5 be
       -0.10152666 -0.14295717 0.049988713 -0.3854908
000010 58 c8 ab 3e c4 72 2a be 61 e2 62 bf ba 67 36 3f
       0.33551288 -0.16645342 -0.88626677 0.71252024
000020 4b 85 7f be dd ee 88 3e 2e d8 91 3e 2f 29 82 3e
       -0.24953191 0.26744738 0.28485245 0.25422046
000030 dd 44 8c be ac 16 aa 3e fa a2 c0 bd f4 5b d9 be
       -0.2739629 0.33220422 -0.09406085 -0.42452967
000040 1f b2 f2 3c b5 e6 99 3e 7e e9 8b 3e 4a fe 35 bc
       0.02962595 0.30058828 0.27326578 -0.0111079905
000050 f9 2b 01 bd e2 1d bd 3e 65 4f 01 bf c7 9f 68 be
       -0.031536076 0.3693686 -0.5051177 -0.227172
000060 ae cf 3e 3d 35 25 8d 3e 18 d6 0f bf 42 bb b0 3d
       0.046584778 0.2756745 -0.56186056 0.086294666
000070 58 d8 64 be 92 eb bc 3e 00 d3 b2 3e e3 f1 69 3b
       -0.22348154 0.36898476 0.34926605 0.0035697154
000080 9a cb 82 3d 57 a1 82 3e b8 ea 28 be 74 d1 d6 3d
       0.0638649 0.25513718 -0.16495788 0.10489169
000090 22 76 c0 3e 2e 1f 88 be 8f aa 31 be d0 84 c9 3d
       0.37590128 -0.26586288 -0.17350219 0.09839785
0000a0 81 02 6e 3e 2c 72 5d 3c c7 b2 04 3d 1a 49 8c be
       0.23243143 0.01351599 0.032397058 -0.27399522
0000b0 e6 c4 9a be 8b 23 62 3e 4e 2b 50 bd 04 5d 18 bf
       -0.30228347 0.22083871 -0.05082255 -0.5951693
0000c0 6f 72 b5 bc cf dd e5 3d 69 36 cc be 6f 3b d8 3e
       -0.022149293 0.11223947 -0.39885262 0.42232844
0000d0 06 71 95 3d 30 cc 3a 3d b8 22 e7 3d 8f f9 95 be
       0.07296948 0.045604885 0.11285919 -0.2929196
0000e0 eb e7 d3 3c 83 69 a9 3d 90 d9 98 3e 26 06 6f be
       0.025867423 0.08272078 0.29853487 -0.23342189
0000f0 97 01 aa 3e 1b d4 80 bf 53 c9 70 be 6a 8f 00 3e
       0.33204338 -1.006473 -0.23514299 0.12554708
000100 9e b0 e7 be a1 6b 04 be 9e 4a f2 be b7 1a 3e bd
       -0.45251936 -0.12931682 -0.47322553 -0.046412196
000110 a2 37 02 3e 0b 4e 0a 3f 16 b3 0e 3d 45 a7 d4 3d
       0.12716535 0.54025334 0.03483876 0.10383467
000120 db 1d 1f 3f c3 91 7f 3e 86 bc 78 be c1 c9 2e 3e
       0.6215493 0.24957947 -0.24290666 0.1706915
000130 25 08 9f 3d f7 6a 14 3f b6 65 fa be ec d6 43 3c
       0.07765225 0.57975715 -0.48905724 0.011953097
000140 81 33 06 3e 45 41 a1 3e bf a0 21 3e 03 59 4f be
       0.13105585 0.3149511 0.15783976 -0.20248799
000150 b2 36 73 3d 2a 31 5d 3e 3a 54 f3 be 85 36 b5 3d
       0.059378333 0.21600786 -0.47525197 0.088482894
000160 43 cf 9a 3e 2e 5d a1 3d d2 ac ea 3d 45 c4 b4 be
       0.30236253 0.07879101 0.11458744 -0.35305992
000170 79 49 42 bf c1 b1 b6 3e 04 47 43 3d 00 5c 90 3e
       -0.7589336 0.3568249 0.047675148 0.2819519
000180 d1 a7 42 bd 84 6d 6f bc 33 d5 6e 3e fc 68 da 3e
       -0.047523323 -0.014613513 0.23323517 0.42658222
000190 ca 66 48 3e 81 cc 01 bf 0f c5 d2 bc 97 23 bf 3e
       0.19570461 -0.50702673 -0.02572873 0.3733184
0001a0 13 c0 65 bf a3 cb 12 3e c9 53 33 bd 9c 56 6b be
       -0.89746207 0.14335494 -0.043781076 -0.22982258
0001b0 4c 52 7a 3c 21 15 1c 3e fc 4f 85 be 97 47 bd 3e
       0.01527841 0.15242435 -0.26037586 0.3696868
0001c0 43 f1 c1 be aa c6 f4 3d 57 ab 4b bf 82 50 4e bf
       -0.3787938 0.11951955 -0.7955832 -0.80591595
0001d0 47 ce 1e 3e 88 9a 93 be 47 62 c7 be fa e7 ab bd
       0.15508376 -0.28828835 -0.38942167 -0.083938554
0001e0 23 09 38 3e 99 7c a2 be 30 33 dd be 24 4e db 3e
       0.17972235 -0.31735685 -0.43203115 0.42833054
0001f0 42 f9 ea be e3 f4 43 3f 07 a6 ef be 38 98 9e 3e
       -0.45893294 0.7654554 -0.46806356 0.3097551
000200 82 2d a2 be df 57 8e bd 11 db 95 ba cc fd c5 be
       -0.31675345 -0.06950354 -0.0011433085 -0.38670194
000210 9b 84 b9 3e 04 05 f6 be 0a 85 85 be 36 17 cb be
       0.36233982 -0.48050702 -0.26078063 -0.39666146
000220 28 ac 47 bf be f9 0d bd 6e 16 83 3f 2f 8a be 3e
       -0.77997065 -0.034662 1.024122 0.372148
000230 cd ea 94 3d f7 7d e3 3c f4 fb ef bd 7d 20 43 bf
       0.07271347 0.027770026 -0.11717978 -0.7622145
000240 7e a2 99 3e 7e 02 49 be 65 e7 e8 bd 5a f3 b6 3d
       0.30006784 -0.19629857 -0.1137226 0.089331344
000250 1b 34 49 be 59 ad bc 3e 52 e3 0c 3f a3 0e 0b 3f
       -0.19648783 0.36851004 0.55034363 0.5431921
000260 89 f8 f1 3e 53 94 bf 3e a7 80 7f 3d 90 a1 41 3c
       0.4725993 0.3741785 0.06237855 0.011818305
000270 1b b7 c0 3e 77 36 d8 bd 07 40 98 bd 71 52 84 3d
       0.37639698 -0.10557263 -0.07434087 0.06461037
000280 4c 9e 98 bc 88 f1 b6 3e b1 5a d1 3e 75 5f 80 3e
       -0.01863017 0.3573115 0.40889505 0.25072828
000290 64 1b 6b 3e b7 12 8d be 44 46 31 be b1 79 77 be
       0.22959667 -0.2755334 -0.1731196 -0.24167515
0002a0 f7 b6 bc bd 65 6c 97 3d c2 a5 81 3f 01 8a c5 bc
       -0.09214585 0.073937215 1.012871 -0.024113657
0002b0 4a cf bc be b3 41 62 bf 7d d7 b4 3e f5 e0 1c be
       -0.368769 -0.883815 0.35320655 -0.1532019
0002c0 86 13 01 3f f4 a8 99 3e f7 06 34 be 80 8f 5f 3d
       0.50420415 0.30011714 -0.17580782 0.05458021
0002d0 5d 1a 08 3e 61 04 d0 be 01 66 17 3f 47 61 b0 bd
       0.13291307 -0.4062834 0.5914002 -0.08612304
0002e0 19 25 04 3e 52 98 0e be f5 dd 77 3e 20 27 e7 bc
       0.12904777 -0.13925293 0.24205764 -0.028216898
0002f0 88 de 60 bd 02 d1 d4 bc 4f 45 2b 3e 8a fc ba 3d
       -0.054899722 -0.025978569 0.16725658 0.09130199
000300 53 3b 75 3d c8 85 9c be 01 a1 c3 3c ff d7 03 bd
       0.05987103 -0.30570817 0.023880484 -0.03218841
000310 41 21 4c be 22 c1 a3 3e 29 b9 c9 bd f6 4b 88 3e
       -0.1993456 0.31983286 -0.098497696 0.26620454
000320 6f 8b 2a 3f b2 99 a4 bc 8c f1 b8 bd 12 48 1b be
       0.6661901 -0.020092819 -0.090304464 -0.15164211
000330 72 fd c0 3d 79 62 a2 3d 86 35 0c bf b6 06 25 bf
       0.09423341 0.079289384 -0.5476917 -0.64463365
000340 a3 2b 13 be 61 4a 3e be 74 c9 26 bf fd fe 12 bf
       -0.14372115 -0.18583061 -0.65151143 -0.5742033
000350 76 f4 f4 3d ea a5 3e bf 41 3a 18 bf f3 45 d0 be
       0.1196069 -0.74471915 -0.5946389 -0.40678367
000360 83 cc af bf 29 c2 a9 be 2e ab 27 3e cb 6e 48 3e
       -1.3734287 -0.33155945 0.16373894 0.19573514
000370 23 16 57 3e 6f 76 19 3f 24 da 0b bd 4e 1f 7b 3e
       0.21004538 0.5994634 -0.034143582 0.2452366
000380 08 04 b8 be f3 d1 85 3e 11 f7 f7 3d 8e e6 37 be
       -0.35940576 0.2613674 0.12107671 -0.17959043
000390 ba 88 97 3d 08 5a 0e 3e a3 6b 76 3e 29 07 a7 3e
       0.073991254 0.13901532 0.24064498 0.3262265
0003a0 62 be 13 3f a1 27 df 3e b7 24 f5 be 47 a4 f5 3d
       0.57712376 0.43584922 -0.47879574 0.11994224
0003b0 d2 26 9d ba a7 dd b0 bd d9 31 02 bf 83 5a 12 3e
       -0.0011989719 -0.08636027 -0.5085731 0.1429234
0003c0 f4 e0 ea bd 10 6a aa bd 76 d9 70 3f 47 de 4e 3e
       -0.11468688 -0.08321011 0.9408182 0.2020198
0003d0 b5 62 90 3d 44 45 1d be 8b 7a d4 be 9e 01 f3 3e
       0.07050077 -0.15358454 -0.41499743 0.4746217
0003e0 80 e5 0f be bd aa 4b 3e ea 1f 54 3e f4 fb 0d be
       -0.14052391 0.1988935 0.20715299 -0.13865644
0003f0 71 ce cb be 25 ef 06 3f 07 cc 45 be 0e f8 25 3f
       -0.3980594 0.52708656 -0.19316112 0.64831626

l2.bias f4 [256]
000000 a8 c0 cb be d1 88 01 be 25 6a f8 3e 08 fc cb be
       -0.39795423 -0.12649848 0.48518482 -0.39840722
000010 fa 7a 2b 3f 4f 23 bc be 06 5d 01 bf 0c 90 79 3e
       0.6698452 -0.36745688 -0.5053257 0.24371356
000020 d8 8c a1 3e 44 f0 b1 3e 0a 4f fb 3e d6 5b 70 be
       0.31552768 0.3475362 0.4908374 -0.23472533
000030 40 d8 c4 be 05 54 ff 3e 0b e6 45 3f b9 ef f3 3e
       -0.38446236 0.4986879 0.7730414 0.4764383
000040 37 15 ee 3d ce 4c e7 be 7a bf ef 3e 22 d0 0f 3f
       0.1162514 -0.45175785 0.46825773 0.5617696
000050 fc fc 2e 3f c9 27 09 3f 5c 96 f4 be d3 7c 97 be
       0.68354774 0.5357633 -0.47770965 -0.2958742
000060 41 62 0c 3f cc 6f d2 be 2f 6a 04 3f 82 60 0a bf
       0.54837424 -0.4110092 0.51724523 -0.5405351
000070 c0 ee 02 bf 2a 93 28 3f f3 ff c3 be 89 4e e3 be
       -0.51145554 0.65849555 -0.3828121 -0.44395855
000080 70 e6 b8 be 82 e3 09 bf 51 30 db be 9c a5 05 bf
       -0.3611331 -0.53862774 -0.428103 -0.52205825
000090 3f 0f 1d 3e b2 e5 f0 be 95 d7 90 3e d5 55 ea be
       0.15337847 -0.47050244 0.28289476 -0.4576861
0000a0 0e de 4f 3e 38 82 da 3e 7b a9 9a be 5c ff ef be
       0.20299551 0.42677474 -0.30207428 -0.4687451
0000b0 75 e9 93 3e 76 38 08 bf 31 58 a8 be 6b 94 8f be
       0.2888905 -0.5321115 -0.32879785 -0.2804292
0000c0 e2 a1 a2 be 44 db 4f 3e b3 4e cb be e5 4c f8 3e
       -0.31764132 0.20298487 -0.3970848 0.48496166
0000d0 31 9f e1 be 18 b3 cf be 5e b4 03 bf 2b e2 0c bf
       -0.44066766 -0.40566325 -0.51447093 -0.55032605
0000e0 ad aa 04 3f f3 48 7f be 83 e4 e5 be 61 86 a2 be
       0.5182293 -0.24930172 -0.44900903 -0.31743148
0000f0 1a 95 e2 3e 50 dd c1 be 62 b9 1b bf be 61 3f be
       0.4425438 -0.3786416 -0.60829747 -0.1868963
000100 30 ea d0 3e 7f bf 00 bf 3e 3c 5d 3e ca 51 83 3e
       0.4080367 -0.502922 0.21605012 0.25648338
000110 e5 1a f2 be e2 c9 fa be 33 92 27 be 83 3d db be
       -0.47286144 -0.4898215 -0.16364364 -0.42820367
000120 ec 05 e5 be 2d 8c 41 3f 70 0d 12 3f 61 9f 0e 3f
       -0.4473108 0.75604516 0.57051754 0.5571194
000130 5b 02 94 be 34 13 b4 3e 90 2f 02 be f4 2a 14 bf
       -0.28908047 0.351709 -0.12713456 -0.5787804
000140 6f c3 c8 be 32 23 37 3f 13 b7 f9 3e c9 cd 86 3f
       -0.39211604 0.7153808 0.48772487 1.0531551
000150 b8 d0 16 bf af 33 2d 3f 61 7d 06 3f 81 5d 7a be
       -0.5891223 0.6765699 0.52535063 -0.24449731
000160 74 a4 c2 be bf 31 b7 3e 03 fc 38 3e 2f 3c 02 3f
       -0.38016093 0.3578014 0.18064885 0.5087308
000170 b5 77 5c 3f 01 43 21 3e 40 8d 0a 3f 07 ba 16 bf
       0.8612016 0.15748216 0.5412178 -0.58877605
000180 63 34 e5 be 63 80 d2 be ad b0 c3 3e d3 fb 0a bf
       -0.4476653 -0.41113576 0.3822073 -0.54290503
000190 ed 54 01 3f d7 b1 aa 3e ef fc a7 3e 18 2c cf be
       0.5052021 0.33338806 0.3281016 -0.40463328
0001a0 93 9b 1c 3e 53 36 2d 3e b5 63 01 bf b1 e2 17 3e
       0.15293722 0.16915254 -0.50542766 0.1483257
0001b0 84 ed 10 bf 27 9b 95 3e fa 19 ad 3e ea 81 6e 3e
       -0.5661242 0.29219934 0.3380888 0.23291746
0001c0 46 40 05 3f a4 91 e6 be e0 e8 18 3f 4d 95 0d bf
       0.520512 -0.4503299 0.5973034 -0.5530594
0001d0 94 2a cc 3e c1 25 11 3f db 75 f7 3e 9c 73 7b be
       0.39876235 0.5669823 0.48332104 -0.2455582
0001e0 32 ad 41 3e 77 57 17 3f ed 2b be be 18 a5 59 3f
       0.18913725 0.59117836 -0.37142888 0.8501754
0001f0 bf 03 d2 be 8e e2 a1 be 7e 94 d9 3e f3 ca a3 be
       -0.41018483 -0.3161816 0.42496103 -0.31990775
000200 62 81 f7 be b4 c6 28 3f 54 b0 9e 3d 93 cc 9f be
       -0.483409 0.65928197 0.07748476 -0.31210765
000210 d6 3b 57 3e 7d 7c 2d bf 54 79 1a 3f b1 ab 07 3f
       0.2101892 -0.6776808 0.6034138 0.52996355
000220 00 c3 04 bf be 98 0a 3f 3e 12 ef be b5 60 ac be
       -0.51860046 0.54139316 -0.46693605 -0.33667532
000230 fb 72 20 3f 7f 4d 71 3e 71 da cd 3e 44 19 f7 be
       0.62675446 0.23564719 0.4020572 -0.48261464
000240 61 a3 18 3e 9e 71 bf be b6 4d 13 3f a6 6d be be
       0.14906074 -0.3739137 0.5754045 -0.3719303
000250 e5 58 01 3f 85 e5 35 be 7c 3b e9 be e8 50 d6 be
       0.5052627 -0.17763336 -0.45553195 -0.41858602
000260 93 f4 c0 be 00 8c 82 3f b7 26 a3 3e 30 31 e5 be
       -0.37686595 1.0198975 0.31865475 -0.4476409
000270 bb 6f 0e 3f 79 2b bf be f0 a7 98 be c4 24 cc be
       0.5563924 -0.37337855 -0.29815626 -0.398718
000280 82 e3 9c 3e d0 93 c7 be 12 7a bc be 10 aa 11 3f
       0.30642325 -0.3897996 -0.36811882 0.5690012
000290 6c 8e 8f 3e 61 12 c9 be 94 6e 50 be 17 b7 c1 be
       0.28038347 -0.39271834 -0.20354682 -0.37835
0002a0 bc 62 c1 be 7b c0 24 3f 8f a4 bf be 51 ad c5 be
       -0.3777064 0.643562 -0.37430236 -0.38608792
0002b0 cf 07 98 3e d9 f8 9a be 84 51 74 3d 20 4e 4d 3d
       0.29693457 -0.3026798 0.05964805 0.050123334
0002c0 ee c0 e2 be c6 c3 d5 3e 30 b7 f3 be d5 cf ef be
       -0.4428782 0.41750926 -0.47600698 -0.4683825
0002d0 6c 2b e8 be 9c 45 c0 3e 2c 1c ec 3e ba 19 0e bf
       -0.45345628 0.37553108 0.46115243 -0.55508006
0002e0 c7 e8 c0 be 24 83 08 be 33 79 61 3e 1d 15 05 bf
       -0.37677595 -0.13331276 0.2201889 -0.5198534
0002f0 12 89 8a 3e 2e 3d e5 3e 7c 59 07 3f 6a 2d f4 be
       0.270577 0.4477324 0.5287092 -0.47690898
000300 84 1e 03 3e 51 1a 0c 3f ce 4b 10 bf 3c 2b ab be
       0.1280461 0.54727656 -0.5636567 -0.33431423
000310 0f d5 11 bf f4 ad 9f be a2 dc 03 bf 68 65 1b bf
       -0.56965727 -0.31187403 -0.51508534 -0.6070161
000320 36 a3 4f 3e 5a 86 21 3f f2 1f a9 be 38 34 ec be
       0.20277104 0.6309563 -0.33032185 -0.4613359
000330 ed 0f 78 be 91 2a 0a 3f 76 2e 98 be e6 0b 96 be
       -0.24224825 0.539712 -0.29722947 -0.29305953
000340 33 1a 03 3f 92 91 8c be 27 43 f4 3e 57 9f 53 be
       0.5121185 -0.2745481 0.47707483 -0.20666252
000350 f2 f7 de be 3c 84 10 3f 6d cc 2b 3f 63 64 ff be
       -0.43548542 0.56451774 0.67108804 -0.49881276
000360 6b 2e a7 3e 18 c3 a7 be 7f c7 f6 3e 5e db dc be
       0.32652602 -0.32766032 0.48199078 -0.43136114
000370 a5 81 7d 3e 69 dc e4 be 94 aa df 3e fd 6c 0a bf
       0.24756487 -0.4469941 0.43684828 -0.5407255
000380 e5 28 51 3f bf 60 a3 be 1d 98 4a 3c 5a 4c 26 3f
       0.81703025 -0.3190975 0.012365368 0.64960253
000390 dd 6a e4 be 63 cb 27 3f c3 d3 30 be 3c 32 a6 be
       -0.4461278 0.6554472 -0.1726828 -0.324602
0003a0 90 60 09 bf bd ea 27 3f db c6 f3 3e 99 34 d2 be
       -0.5366297 0.6559256 0.47612652 -0.41055754
0003b0 6b ec 47 3e fe 32 02 3f 57 1d 37 be 07 6a 2a bf
       0.1952378 0.5085906 -0.17882286 -0.66568035
0003c0 a7 75 26 3f d8 cc 04 bf 42 e3 76 3e cb 21 e4 be
       0.65023273 -0.51875067 0.2411013 -0.44557032
0003d0 1e 1c 18 bf 96 4b ec be a8 f9 95 3e 7b b2 01 3f
       -0.59417903 -0.46151417 0.29292035 0.50662965
0003e0 7b f5 50 3e 44 8f 25 bf 62 45 90 3e 2a 33 07 bf
       0.20406143 -0.6467173 0.28177935 -0.52812445
0003f0 33 5f 05 bf 8c 37 92 be dd 45 2d 3e 00 eb bc be
       -0.5209839 -0.28558004 0.16921182 -0.3689804

l3.weight f4 [1, 256]
000000 54 c6 67 bf bd 38 b8 3f 22 60 3e 3f d8 a7 4c bf
       -0.90537 1.4392315 0.7436544 -0.7994361
000010 0f e3 53 3f c3 7b 64 bf 8a 30 71 be f9 20 a6 3f
       0.8276834 -0.89251345 -0.23553672 1.2978812
000020 c5 70 7f 3f 9b ec 31 3f 7f fa 5c 3f 2b cf 26 bf
       0.9978145 0.69501656 0.86319727 -0.65159863
000030 5b 21 7c bf 61 b5 4c 3f 2d 2d 3b 3f 93 87 14 3f
       -0.98488396 0.7996426 0.7311581 0.5801937
000040 55 5f 35 3f 17 6c a0 bf 84 58 3e 3f 5b 76 42 3f
       0.7084859 -1.2532986 0.74353814 0.75961846
000050 2f d4 35 3f 00 8b 0a 3f 50 21 1c bf 7c ac 7b bf
       0.7102689 0.5411835 -0.6098833 -0.98310065
000060 4d bf 4a 3f 6e 99 55 bf 61 28 66 3f b8 b7 14 bf
       0.7919815 -0.8343724 0.89905363 -0.5809283
000070 cb e2 c2 bf 24 0e 4b 3f 2c a9 2f bf 3a bb 16 bf
       -1.5225462 0.7931845 -0.6861751 -0.58879435
000080 cb ea 3e bf 40 e3 dc be 3d 2d e9 bf d1 21 15 bf
       -0.74577016 -0.43142128 -1.8216931 -0.58254725
000090 9b 26 80 3f 88 20 69 bf a5 9b 82 3f 60 28 f6 be
       1.0011781 -0.91065264 1.0203749 -0.4807768
0000a0 e4 ff 80 3f 12 1f 43 3f 16 96 a7 bf ef 3b 84 bf
       1.0078092 0.76219285 -1.3092678 -1.033079
0000b0 55 83 5e 3f df 68 3c bf f7 6d 7b bf 6f df 23 bf
       0.86919147 -0.7359752 -0.9821467 -0.6401281
0000c0 61 ac ce bf 8c 10 a2 3f 84 de b5 be 05 54 44 3f
       -1.6146356 1.26613 -0.35521328 0.76690704
0000d0 c1 14 3a bf dc 04 47 bf 4f 48 0c bf f2 e6 14 bf
       -0.7268792 -0.7774179 -0.54797834 -0.58164895
0000e0 4a a4 65 3f ed 63 48 bf 94 51 f7 be 34 89 c2 bf
       0.8970381 -0.78277475 -0.48304427 -1.5198121
0000f0 d5 c8 1d 3f db 48 51 bf f9 de 13 bf 40 bf f5 bf
       0.6163457 -0.81751794 -0.57762104 -1.919899
000100 49 b9 6f 3f 7f a7 83 be 27 a0 84 3f 96 f3 80 3f
       0.936421 -0.25713727 1.0361375 1.0074337
000110 e7 52 78 bf bf 53 ad bf 98 64 b0 bf 6c 28 1c bf
       -0.970015 -1.3541182 -1.3780699 -0.6099918
000120 3e 64 0c c0 3a fe 7a 3f ce dd 35 3f 33 a1 9b 3f
       -2.1936183 0.9804417 0.7104157 1.2158569
000130 88 6e 05 bf 8a 9d 83 3f 4d 2f f2 bf ad f1 68 bf
       -0.5212178 1.0282452 -1.8920685 -0.9099377
000140 bc dc 09 bf ae f9 74 3f 08 3a 2c 3f a9 09 5d 3f
       -0.5385244 0.9569348 0.6727605 0.86342865
000150 9e a3 0d bf f0 50 4f 3f 17 74 49 3f 58 a5 91 bf
       -0.55327785 0.80982876 0.78692764 -1.1378584
000160 be c1 32 bf 0a 45 82 3f 91 a9 9f 3f c5 17 24 3f
       -0.6982688 1.0177319 1.2473623 0.6409877
000170 ef a8 62 3f 64 12 dc 3f 8a c9 3e 3f 5f d2 f5 be
       0.8853902 1.7193112 0.74526274 -0.48012063
000180 09 94 85 bf 2d 0c ef bf 02 03 7b 3f 91 ff 22 bf
       -1.0435802 -1.8675591 0.98051465 -0.63671213
000190 9c 15 40 3f ee 7c 69 3f 4b e8 83 3f a6 4a bb bf
       0.75032973 0.9120625 1.0305265 -1.4632156
0001a0 85 09 9f 3f bd 05 cc 3f 0a c1 97 be 07 65 82 3f
       1.242478 1.5939251 -0.29639465 1.0187081
0001b0 ae 63 98 bf c5 5d 87 3f 4d 0f 53 3f 67 e6 a4 3f
       -1.190542 1.0575491 0.8244522 1.2882813
0001c0 b9 4b 46 3f 9e 49 4f bf 32 f7 44 3f e9 81 09 bf
       0.77459294 -0.80971706 0.7693969 -0.5371385
0001d0 c6 d3 9c 3f 10 4d 85 3f 13 7a 1b 3f c2 b8 94 bf
       1.2252128 1.0414143 0.60733145 -1.1618884
0001e0 02 f4 b5 3f 78 73 44 3f a7 f9 5e bf 02 c0 31 3f
       1.421509 0.7673869 -0.8709969 0.69433606
0001f0 a6 cf cd bf 30 9d 60 bf 95 be 7e 3f 6e 97 17 bf
       -1.6078994 -0.8773985 0.99509555 -0.5921544
000200 ed 4c c9 be f4 15 49 3f be ca ce 3f f0 14 8f bf
       -0.39316502 0.7854912 1.6155622 -1.1178265
000210 45 24 6e 3f 8a cd b5 be 9f f6 36 3f 2c 7e 4b 3f
       0.9302409 -0.35508376 0.71470064 0.794894
000220 30 77 0b bf 61 02 37 3f f9 f8 0a bf f0 b4 45 bf
       -0.5447874 0.71488005 -0.5428615 -0.77229214
000230 26 2b 25 3f 8a ce 59 3f 07 5d 3d 3f 96 49 66 bf
       0.64518964 0.8508078 0.73970073 -0.89956033
000240 e4 79 79 3f 7b 62 14 bf 5d e9 77 3f ad 07 61 bf
       0.97451615 -0.5796277 0.9684046 -0.8790234
000250 ab 35 59 3f 06 a8 96 bf 1f 8f c5 be c2 f9 3b bf
       0.84847516 -1.1770027 -0.38585755 -0.73427975
000260 a2 55 81 bf 4d 71 2e 3f 86 2c 8a 3f 90 a7 57 bf
       -1.0104258 0.68141633 1.0794837 -0.84240055
000270 31 3e 6a 3f 4f d1 04 bf 3b 18 81 bf 40 49 63 bf
       0.91501147 -0.5188188 -1.008552 -0.88783646
000280 83 fe 8a 3f 8f 1f 80 bf c9 9c 9d bf 73 7a 8b 3f
       1.0858921 -1.0009631 -1.2313472 1.0896744
000290 ca de 84 3f 8c 91 a1 bf 92 ee 2f c0 ab e0 72 bf
       1.038049 -1.2622542 -2.7489362 -0.94874066
0002a0 36 f6 f9 be 23 59 3e 3f 3c d1 85 bf d2 98 75 bf
       -0.48820657 0.7435476 -1.0454478 -0.9593631
0002b0 59 b6 7d 3f 6d 35 f4 be 08 e0 9f 3f a6 77 c9 3f
       0.99106365 -0.4769701 1.2490244 1.5739639
0002c0 a8 a5 1e bf c6 4b 5f 3f e8 b8 93 bf 3c a7 4e bf
       -0.6197152 0.87224996 -1.1540804 -0.8072393
0002d0 91 2f 51 bf 4a 73 7c 3f 16 9a 58 3f 6b da 0a bf
       -0.81713206 0.9861342 0.84610116 -0.5423953
0002e0 b3 13 cd bf 95 5a 67 bf 44 63 87 3f a9 6e 53 bf
       -1.6021637 -0.9037259 1.0577168 -0.8259073
0002f0 54 05 85 3f 0a f2 63 3f 24 22 1c 3f 63 dd 06 bf
       1.0392251 0.890412 0.60989594 -0.5268156
000300 e8 e0 c5 3f 9d 9d 43 3f ea ec 28 bf 18 73 fb bf
       1.5459261 0.76412374 -0.659865 -1.9644499
000310 9e 65 3f bf 3e bf 48 bf b0 59 ac bf ad 98 0e bf
       -0.7476443 -0.7841681 -1.346487 -0.55701715
000320 42 9b 84 3f 6c 67 46 3f 43 40 87 bf ce a2 85 bf
       1.0359881 0.7750156 -1.0566486 -1.0440309
000330 ce d6 1c c0 77 e1 1c 3f 49 09 57 bf f5 ae 66 bf
       -2.4506106 0.6128153 -0.83998543 -0.90110713
000340 55 ce 24 3f d2 b8 8a bf 43 a2 28 3f 37 3d 8e bf
       0.6437734 -1.0837653 0.6587259 -1.1112431
000350 e0 d3 75 bf 54 53 92 3f ad c0 36 3f 0a 6d de bf
       -0.9602642 1.143168 0.7138775 -1.7377026
000360 a9 45 52 3f a1 90 86 be 0f 18 4d 3f 4a 03 88 bf
       0.8213754 -0.26282218 0.80114836 -1.0626004
000370 d3 13 ac 3f 90 30 e8 be 29 52 3d 3f 3b ed 7b bf
       1.344355 -0.4534955 0.7395349 -0.9840886
000380 aa 4c 53 3f 34 23 8f bf 25 97 cd 3f 7d 30 4a 3f
       0.82538855 -1.1182618 1.6061751 0.7898024
000390 f8 2f 5c bf d9 89 2a 3f 67 f6 78 bf 41 fc 60 c0
       -0.86010695 0.6661659 -0.9725098 -3.5153964
0003a0 59 57 30 bf 4e 9a 52 3f 91 1a 01 3f 1b 53 b4 be
       -0.6888328 0.822667 0.5043116 -0.35219654
0003b0 40 0a b1 3f 50 ff 4e 3f 2a 9c 3c bf d4 82 9d bf
       1.3831253 0.80858326 -0.7367579 -1.230555
0003c0 25 c8 4f 3f ef 2a 72 bf 90 44 ec 3f b3 1f 2d bf
       0.8116477 -0.9459676 1.8458424 -0.67626494
0003d0 1e 4d 87 bf 1c a3 ab be f6 06 89 3f c9 97 39 3f
       -1.0570409 -0.3352288 1.0705249 0.7249723
0003e0 ca 2f 6d 3f 09 aa b1 be 1e 23 8e 3f de 9d 26 bf
       0.92651045 -0.3470004 1.1104467 -0.65084636
0003f0 14 81 19 bf 6a 46 34 bf e6 00 be 3f d6 30 8d bf
       -0.5996258 -0.70419943 1.4844024 -1.1030529

l4.weight f4 [256, 32]
000000 b2 a8 00 bf 6e 7f 7d b9 6a 98 77 bd e6 6c a9 3d
       -0.5025741 -0.00024175431 -0.060448088 0.08272724
000010 04 32 72 bd a2 71 45 bf b5 88 d2 bd 20 21 97 3f
       -0.05912973 -0.77126515 -0.10279981 1.1806984
000020 a0 17 cb 3e 55 76 89 3d 57 3f 93 3e 1f e1 cd 3b
       0.39666462 0.06712023 0.28759262 0.00628294
000030 33 fe 28 3d dc d2 e8 bc b2 be 8a be 89 06 13 bf
       0.04125805 -0.028420858 -0.27098614 -0.57431847
000040 f8 ca 22 be 6e e0 93 be 0e 21 81 bd 43 f3 5b bd
       -0.15897739 -0.28882164 -0.06305133 -0.05369879
000050 a5 fc dc bc b1 ab 8d 3d 6e 17 a9 3d 3e 9c a0 bc
       -0.026975939 0.06917513 0.08256422 -0.019605752
000060 17 d8 c5 bc ce f2 22 bf 27 c8 e5 3b 3e 01 a3 ba
       -0.024150891 -0.6365174 0.0070123854 -0.0012436283
000070 a6 f5 b5 bc bc 15 c4 3c bc a3 a0 bc 8e 43 00 3b
       -0.02221186 0.023936145 -0.019609325 0.0019571516
000080 7d 2d ae bf c9 53 0d be 8e e7 af be 5b 7f 8c be
       -1.3607632 -0.13801493 -0.3435635 -0.27440915
000090 96 55 86 bd 7c 2e 69 be ca 0a bc 3d 09 e1 a6 bc
       -0.06559293 -0.22771639 0.09181745 -0.020370977
0000a0 52 1b d7 3e 99 01 ce bd 47 17 4d bd 89 90 a2 3c
       0.4201303 -0.100588985 -0.050071027 0.01984431
0000b0 f3 4d f0 3d cc 2a 48 bd 21 ff 30 3e 2f f4 69 be
       0.11733618 -0.04886894 0.17284824 -0.22847055
0000c0 9e 1c d4 3e 51 ff fd bc 6f c5 92 3e a1 14 26 3c
       0.41428083 -0.031005533 0.28666255 0.010136754
0000d0 13 a9 b6 3e 85 b4 d2 be 76 a3 2a be 41 d2 b3 be
       0.35675868 -0.4115335 -0.16663918 -0.35121349
0000e0 9b 35 81 3c ab 4a 88 bd 9c 0f ef bc a5 a5 4c 3b
       0.015772631 -0.06654867 -0.029182248 0.0031226662
0000f0 e8 c2 1f bc 74 e6 13 3c 7d ae dc bc a5 58 ee 3b
       -0.009751059 0.009027112 -0.026938671 0.007273751
000100 4d ca f0 3e 5c c1 6a 3d 84 b3 a3 be f0 4e 06 bf
       0.47029343 0.057313308 -0.31972897 -0.524642
000110 6f 4d 51 3d eb 52 ca bf 05 14 93 bd 97 dc 5b 3f
       0.051099237 -1.5806555 -0.07181553 0.8588347
000120 57 02 5d be 93 8c 0a 3f 1c df b9 3d d8 6f 6d 3f
       -0.21582924 0.5412075 0.09075758 0.92748785
000130 bd f5 47 3e 3a 04 dd 3e 48 06 be be c7 e9 0f bf
       0.19527335 0.43167287 -0.37114167 -0.5621609
000140 20 61 33 bd 81 bb c2 be c5 e9 85 3e ed d7 70 be
       -0.043793797 -0.3803368 0.26154914 -0.23519869
000150 65 e8 89 3c 9c f6 0d bf 59 3b 31 3d c5 cb 77 3d
       0.016834447 -0.5545442 0.04326949 0.060497064
000160 c5 d9 5a be 61 8f 35 bf 5a 42 c0 3c 66 d2 f3 3d
       -0.21372135 -0.70921904 0.023469139 0.11905365
000170 0d f5 45 3e 5e b9 22 3e d3 1c a8 bd b1 f4 76 3d
       0.1933176 0.15891024 -0.08208623 0.06029195
000180 8f fd 2f bd 41 b5 c5 3d 95 78 17 be d7 b1 8f bd
       -0.04296642 0.09653712 -0.14792092 -0.07016342
000190 f0 57 18 3e 11 05 8e bf 0b 6c 19 3e 85 1b e1 be
       0.14877295 -1.1095296 0.14982621 -0.43966308
0001a0 10 e8 d0 bd 0f 64 06 bf 20 c7 b5 be c4 95 ed be
       -0.102005124 -0.5249643 -0.35503483 -0.46403325
0001b0 85 de 51 bd 21 ca e7 3b 21 14 8d 3e 73 ca 27 bf
       -0.0512376 0.007073656 0.2755442 -0.6554329
0001c0 8b 2c 37 3f 41 f3 18 bd b7 ee 24 3f 58 bf 82 3d
       0.7155234 -0.03734136 0.6442675 0.06384152
0001d0 ac 97 ce 3c 54 af a3 3a 34 98 a1 3d 50 df 0e 3e
       0.025218807 0.0012488165 0.078903586 0.13952374
0001e0 07 fc 43 be 2c 8c 00 bf f3 bf 8f bc c4 73 6e bd
       -0.1913911 -0.50213885 -0.017547583 -0.05821587
0001f0 8c 76 f8 bc d8 76 b5 3c 98 25 f0 bc eb b5 56 3d
       -0.030329965 0.022151396 -0.029314801 0.052419584
000200 07 d6 60 bf 17 45 6d bc f1 d6 60 3c b7 64 90 3e
       -0.8782658 -0.014481804 0.013723121 0.2820184
000210 4a 44 ee 3d 17 8a 55 be a0 44 00 3a 48 62 56 be
       0.11634119 -0.20853458 0.00048930384 -0.20935929
000220 9b 33 08 3f 49 e5 7a 3c a1 f8 d1 3e 3d b6 3a 3e
       0.53203744 0.015313455 0.4101 0.18233581
000230 99 b7 a2 3e 2a 7f b2 b9 f9 76 43 bf 22 bf 82 3e
       0.317807 -0.0003404555 -0.7635341 0.25536448
000240 52 f7 43 bf ca 9c f4 3d b5 f7 67 3e bf 90 39 3e
       -0.76549256 0.11943968 0.22653086 0.18121623
000250 e9 b9 8a be d7 3a a2 3e e6 2b 61 be d1 c1 4d 3e
       -0.27094963 0.31685516 -0.21989402 0.20093466
000260 f0 b0 5c be 72 5a 82 3e 06 53 bf 3d bd ea 27 3e
       -0.21551871 0.2545963 0.09342007 0.1639814
000270 67 fc 5c ba 3f de 0e 3e da 9a 0f be b1 17 54 3d
       -0.0008429945 0.13951968 -0.14023915 0.051780406
000280 10 df 0f bf fb 0f 73 3b bb 2e 0e be af e5 60 3f
       -0.5619974 0.0037088383 -0.13885014 0.8785047
000290 e7 16 55 3c 69 db 9c bf 46 54 81 3d 17 fc 9f bd
       0.013005949 -1.2254459 0.06314902 -0.07811754
0002a0 14 3c 88 3e 6c 07 24 be 3f 5d 8e 3e 74 08 f8 be
       0.26608336 -0.16018456 0.27805516 -0.4844395
0002b0 b4 24 35 bd 74 6c 48 3e 28 f7 b9 3d 3a af 72 bf
       -0.044224456 0.19572622 0.090803444 -0.94798625
0002c0 c8 48 27 bf 5a 85 ba be 48 ef 48 be 02 96 2a 3b
       -0.6534543 -0.36429864 -0.19622529 0.0026029353
0002d0 a7 0a 39 bd 1d b9 e7 3c bb d6 1e 3f f0 f0 40 3d
       -0.045176174 0.028286511 0.620464 0.047104776
0002e0 ec 84 19 3f cf 31 cb be f7 68 6c 3d 55 fa a6 bd
       0.5996845 -0.39686438 0.05771729 -0.08153216
0002f0 9a 1a a2 3d 7b 9d 1e 3c e7 93 37 bd 82 ff 1e 3d
       0.0791523 0.009681101 -0.044818785 0.03881789
000300 aa 85 12 bf 08 65 2f 3e 4c 8d 32 be a7 60 98 3f
       -0.57235205 0.17128384 -0.17436713 1.1904496
000310 28 9e cf bd d9 68 23 3f 69 71 c0 3d ed f4 07 3f
       -0.10137588 0.6383186 0.09396631 0.531081
000320 90 76 41 3e 73 71 87 be 1a 51 b1 3e 76 23 f8 3d
       0.18892884 -0.26453742 0.34632188 0.12116139
000330 a9 c9 13 bd ba 79 59 3d f2 64 38 be b6 76 c2 3e
       -0.03608099 0.053094603 -0.18007258 0.37981194
000340 f2 7f 69 3e c6 dc 6c 3e 61 26 c7 3d 19 1c 20 bd
       0.22802714 0.23131093 0.09724117 -0.039089296
000350 ca 5b 8a be 54 09 ad be 15 c3 42 be 96 26 50 3e
       -0.27023154 -0.3379618 -0.1901973 0.2032722
000360 83 8b 17 bd 10 d4 1c 3e f9 19 90 3d 08 58 d9 bd
       -0.036998283 0.1531527 0.07036204 -0.10612494
000370 c3 c8 bb 3c 0c 18 18 3e fe 3d 3e bd c1 c0 b2 3c
       0.02292288 0.14852923 -0.04644584 0.021820428
000380 b4 f7 c1 3e 60 7f ec 3d 02 b1 46 3e 05 32 84 bf
       0.37884295 0.11547732 0.1940346 -1.0327765
000390 24 9f 2a be 07 34 2b 3e 7e 68 b8 3d 3f 88 91 be
       -0.1666227 0.16719066 0.09004305 -0.2842426
0003a0 04 5d 12 3e 66 6d 03 3f 6e 4c 90 bd 06 37 6d 3e
       0.14293295 0.51338804 -0.07045828 0.23165521
0003b0 bf 38 f0 bd 28 23 98 3d 2d d7 8b be 0e 25 52 be
       -0.117295735 0.074285805 -0.27312604 -0.20521948
0003c0 5e e6 dd be 28 17 88 be 3c f9 1a 3f fd ec e8 3a
       -0.4333982 -0.26580167 0.6053655 0.0017770823
0003d0 c6 72 26 3e 29 00 c3 be 22 b9 7e bf f1 46 c6 3c
       0.1625472 -0.3808606 -0.9950124 0.02420375
0003e0 f2 3c 53 be 5e fc 03 3e ca f8 bc 3b 3c cb bf bc
       -0.20628718 0.12889239 0.0057669627 -0.02341234
0003f0 9f e4 8a 3d 57 04 3c 3d f0 e7 a8 bd d1 bf a3 3d
       0.06781887 0.045902576 -0.082473636 0.079955705

l4.bias f4 [256]
000000 a3 0d 97 3d ad 15 aa be ae 29 8d be ce 2a bb be
       0.07375648 -0.33219662 -0.27570862 -0.36556095
000010 70 e8 82 be ff d3 f0 3c 23 59 d0 3d e7 b8 29 3e
       -0.2556796 0.029397963 0.101732515 0.16574441
000020 fe b5 fc 3e 2a 2f 77 be 99 84 19 be 8c ce 0c be
       0.493576 -0.24139085 -0.14991988 -0.13750666
000030 82 94 7b be d0 9f 98 be b4 4d 99 be 70 ea 81 be
       -0.2456837 -0.29809427 -0.29942095 -0.25374174
000040 88 ef 24 bd 95 15 1c 3e 90 c6 f2 ba 89 07 53 be
       -0.040267497 0.15242608 -0.0018522311 -0.20608343
000050 7a a1 5c be f5 21 bd bd cc 43 46 3e 12 59 ca 3d
       -0.21545973 -0.092349924 0.193618 0.0988027
000060 7f ca e9 bb e4 ec 09 bd af 57 a2 be 32 22 ae 3d
       -0.007134735 -0.033673182 -0.31707522 0.08502616
000070 9a 5b e5 be 3c 5e a0 be 52 47 c3 be ee 1a 9e bd
       -0.4479645 -0.31321895 -0.3814035 -0.0771998
000080 56 78 0c bf 79 29 4c be a4 da 71 be ee f2 74 3d
       -0.5487112 -0.19937696 -0.23618561 0.05980199
000090 13 ef 48 3d aa ba 74 bd 22 62 3a 3e a4 4c 74 be
       0.049056124 -0.05974833 0.18201497 -0.23857361
0000a0 5a 3d 93 bd 4e 07 92 be c2 56 ed be b8 b2 1c 3e
       -0.07189436 -0.28521198 -0.46355253 0.15302551
0000b0 e5 b9 c4 be 1a ef 60 3e 3f 37 02 3f 79 8e 1a be
       -0.38423076 0.2196621 0.5086555 -0.15093412
0000c0 8c 55 d2 be e7 44 47 3e 0c 79 98 3e 00 73 21 3e
       -0.41080892 0.19459878 0.2977985 0.15766525
0000d0 56 58 9a be 39 25 40 be 50 e5 89 be a0 e0 93 3c
       -0.3014552 -0.187642 -0.26932764 0.018051445
0000e0 77 26 30 3e 3b 00 de bd 7d 9a 31 bd 59 a9 99 be
       0.17202173 -0.10839888 -0.043360222 -0.30012015
0000f0 a2 cc cb 3d b6 83 9a bd c0 36 9c 3d 17 47 f2 3c
       0.0995114 -0.07544653 0.0762763 0.029574914
000100 fc 4b 02 3e 36 b3 08 3e df 0f 23 3e 1e 8a ac 3e
       0.12724298 0.13349614 0.15924023 0.33699125
000110 11 ef 8c be 29 4a 2f be af 5f 3a 3e c8 96 ec 3e
       -0.27526143 -0.17118134 0.18200563 0.46208787
000120 69 55 3f be 0f 9e 7d 3e f3 55 05 be 21 92 a3 be
       -0.18684925 0.24767326 -0.13021068 -0.31947425
000130 51 35 96 be d8 e5 ff bd 5b f2 82 be ef a2 fd bd
       -0.29337552 -0.12495011 -0.25575528 -0.12384593
000140 dc 5e b2 be 61 ea db bd 98 36 b1 3e b2 53 8e 3d
       -0.34837997 -0.107380636 0.34611964 0.06949557
000150 5e c5 31 be 05 65 05 bf 57 72 87 bd 45 d2 9b be
       -0.17360446 -0.5210727 -0.066136055 -0.3043386
000160 e1 b6 a6 be 50 2b 1a bf 55 fe 53 be e3 f8 6a bd
       -0.325614 -0.6022234 -0.20702489 -0.057366263
000170 dd d8 8f bd b3 02 06 3e a8 fd fc 3c a4 1f ea 3d
       -0.07023785 0.13086967 0.030882671 0.11431816
000180 53 82 21 3a 9e 84 8f bd 45 05 20 bd 26 90 b5 be
       0.00061610824 -0.070077166 -0.039067525 -0.3546154
000190 17 ef 08 bf 6e 11 cf be 97 77 91 be c3 35 66 be
       -0.5348982 -0.40442985 -0.28411552 -0.22481446
0001a0 da dc d1 be 5e 7f 9d be 30 ae a1 be 45 24 5a be
       -0.4098881 -0.30761236 -0.31578207 -0.21302898
0001b0 e8 2e 1c be 98 4f d1 3b 3d 7d 6c 3d b3 33 62 3e
       -0.15252268 0.006387662 0.057736624 0.22090034
0001c0 14 47 be 3e 72 ca 90 3d d6 5a 0f be af c5 81 be
       0.37163603 0.070698634 -0.13999495 -0.25346133
0001d0 7e 37 79 bc 57 b4 d5 3d 4a d8 ba 3d 82 ef 33 3e
       -0.015210984 0.10434788 0.09123285 0.17571834
0001e0 c3 78 01 be 39 39 c9 3d 95 59 58 be 6c 5e ab 3d
       -0.12643723 0.098253675 -0.21127923 0.08367619
0001f0 6d cd 48 3e 11 af 81 3e 10 77 81 3e db d1 32 be
       0.19609614 0.25328878 0.2528615 -0.17462866
000200 75 cc 46 3e 71 46 10 bf 8c d1 cb 3c 4f 09 33 be
       0.19413932 -0.56357485 0.024880193 -0.1748402
000210 09 a8 5b be c0 da 65 be 83 b1 f0 3d 86 3e 2b be
       -0.21450819 -0.22446728 0.11752608 -0.1672307
000220 ec 07 c6 be f6 3c 03 bf 26 55 e4 bd 43 36 e9 3e
       -0.3867792 -0.51264894 -0.11149053 0.4554921
000230 07 89 7f be d1 35 dc bc 1e 8a e6 bd fb 52 45 3d
       -0.24954616 -0.02688113 -0.112568125 0.04817484
000240 f1 03 0f bf 37 e7 c0 3d e5 a7 3d be 5c 86 c5 3e
       -0.5586539 0.09419101 -0.18521078 0.3857907
000250 6e e5 db be 30 a0 8f 3d e7 a2 8b 3e e5 5b 7b be
       -0.42948478 0.07012975 0.27272722 -0.24546774
000260 2a ee c8 bd 02 a2 53 be 1d 32 af 3e 2e 43 b9 be
       -0.09811051 -0.2066727 0.3421792 -0.36184067
000270 28 04 6a be af 39 4f be f7 c1 89 3e 3b 37 96 3d
       -0.22853148 -0.20236848 0.26905796 0.07334753
000280 cc f0 05 be 2e b2 6f 3e b1 b0 07 3f da 6e d2 bd
       -0.13080138 0.23407814 0.53003985 -0.102750495
000290 e1 0e 7d bd 03 e1 f5 be 95 5c 79 be 7f b9 f2 3d
       -0.061781768 -0.48023233 -0.24351723 0.11851787
0002a0 8f c2 af 3e 8c ab 5d be 45 db 2c 3e f6 d2 b5 be
       0.34328124 -0.21647471 0.1688052 -0.35512513
0002b0 6d 3a 55 3e 27 30 a1 be b4 d3 0d 3d 6b 9b 59 bc
       0.20823069 -0.3148205 0.034625724 -0.013281683
0002c0 23 bf 81 be 79 cf 8e bd 05 96 a0 3e d7 22 6d bd
       -0.25341138 -0.06973166 0.31364456 -0.057894554
0002d0 3a 97 fc be e6 63 12 3e 9b 44 9f be 30 fc 92 3e
       -0.49334127 0.1429592 -0.3110703 0.2870803
0002e0 e7 75 74 be 5d a2 46 be ed b0 fc bd 79 2d 61 3d
       -0.23873101 -0.19397874 -0.123384334 0.054975007
0002f0 b7 5c 00 bf e3 13 d6 be 6c 49 9f 3e f9 68 9d be
       -0.5014147 -0.41812047 0.31110704 -0.3074415
000300 84 8c b9 3e 69 62 8c be cd 20 29 be c6 bf 32 be
       0.36240017 -0.2741883 -0.16516419 -0.17455968
000310 2a 8a 8d be 95 fa e2 3e 1f 34 d9 be 50 87 e3 3d
       -0.27644473 0.44331804 -0.42422578 0.11109793
000320 5a 23 60 bc 2b cf ba bd 05 b4 74 3d 3d 3a 74 3e
       -0.0136803035 -0.091215454 0.059741993 0.23850341
000330 53 d1 9d be dc 8f 90 be b1 4d b1 be 26 0a b4 be
       -0.30823764 -0.28234756 -0.34629586 -0.35163993
000340 2a 30 af bc 65 c2 9f bd 66 80 88 3d b9 82 a4 be
       -0.021385271 -0.0780075 0.06665115 -0.32130983
000350 bd da de 3e d7 63 81 be ba 8f 17 bf 0a ba a1 ba
       0.4352626 -0.25271484 -0.59203684 -0.0012338769
000360 ea 2a a0 be ab 18 f9 3e 8f 96 ac be d4 10 d5 bd
       -0.3128274 0.48651633 -0.33708617 -0.104036
000370 1e e7 5f bd b8 53 ca bd 17 1e 48 bd dc 6c 99 be
       -0.05466377 -0.09879249 -0.04885682 -0.29965866
000380 df 16 eb bc e8 f5 66 3e 74 b3 75 be c6 56 c1 bd
       -0.02869743 0.22554743 -0.23994237 -0.09440379
000390 72 d5 2a bf d0 da e4 be 25 18 4c be 94 87 37 be
       -0.6673194 -0.4469819 -0.19931085 -0.17922813
0003a0 a2 d5 00 3f 4c 2d d7 3c 9c 42 9b 3e 71 20 6c be
       0.5032598 0.026266716 0.30324256 -0.2305925
0003b0 72 99 d2 be 44 29 02 bd 31 20 11 be 1b 9f 69 3d
       -0.41132694 -0.031777635 -0.14172436 0.0570365
0003c0 75 e6 ea be 07 b2 22 be 0b 79 7c 3d 01 ea dc be
       -0.4587895 -0.15888225 0.061638873 -0.4314728
0003d0 a2 cb ec bd f6 5d 05 be 50 7b d5 be cf 06 7a 3e
       -0.115622774 -0.13024125 -0.41695642 0.2441666
0003e0 fe 33 c6 bc 55 06 43 3e e1 74 08 be 26 64 35 be
       -0.024194714 0.19045384 -0.13325836 -0.17713985
0003f0 d2 d8 31 be be 73 b5 be 91 63 c8 be 4c 41 b5 be
       -0.17367867 -0.35439867 -0.39138463 -0.3540138
