part1/HalfCheetahBulletEnv-v0_PPO_1637604657_1637604657_ppo.pth (torch, 52926 bytes, 11 tensors)

critic.0.weight f4 [64, 26]
0	0xbe819d88	-0.253155
1	0xbe6fa030	-0.2340095
2	0x3e9e2990	0.30891085
3	0x3dd45c37	0.10369151
4	0xbdafcd44	-0.08584073
5	0xbe25f704	-0.1620751
6	0xbef524df	-0.47879693
7	0x3d710c4a	0.05884961
8	0xbe8e1d04	-0.27756512
9	0xbd1ff007	-0.039047267
10	0xbe554607	-0.20827495
11	0x3caa4388	0.020784155
12	0x3cefd7ca	0.0292777
13	0x3d9db6c5	0.07700876
14	0x3e10c191	0.1413634
15	0xbd65d0f4	-0.056107476
16	0xbe01d77a	-0.12679854
17	0x3e22429f	0.15845726
18	0x3b3d21d4	0.0028859274
19	0x3e511917	0.20419727
20	0xbe41db77	-0.18931375
21	0x3e0fbe12	0.1403735
22	0xbba06e44	-0.004895957
23	0x3c8a9eb7	0.016921384
24	0x3c85a84b	0.0163156
25	0xbf0cf943	-0.55067843
26	0x3df9cd6b	0.121973835
27	0x3de05dc2	0.10955383
28	0xbe13c42f	-0.14430307
29	0x3e94c5ef	0.2905726
30	0x3da3da46	0.08000617
31	0xbe46fcbe	-0.19432351
32	0xbe063882	-0.13107494
33	0xbe466eef	-0.19378255
34	0xbe42fbd8	-0.19041383
35	0x3e0cf819	0.13766517
36	0x3e006b9c	0.1254105
37	0x3e357d04	0.17723471
38	0xbceba5e1	-0.02876562
39	0xbca0534e	-0.019570973
40	0x3e6e78d3	0.23288278
41	0xbe568356	-0.20948538
42	0x3e94f2b7	0.29091427
43	0xbe4fb4bb	-0.20283787
44	0x3dd68fa3	0.10476615
45	0xbd366872	-0.0445332
46	0x3dd5b15e	0.10434221
47	0xbd83b9b9	-0.06431908
48	0x3da1f0d6	0.07907264
49	0x3c861abe	0.016370174
50	0x3eb24b0f	0.3482289
51	0xbed9fe03	-0.42576608
52	0xbea93f99	-0.33056334
53	0x3d950d69	0.072779484
54	0x3e717d94	0.2358306
55	0x3e1378d8	0.14401567
56	0xbd67b6bd	-0.056570757
57	0xbe062461	-0.13099815
58	0x3e24f30f	0.16108344
59	0xbdbdc5ae	-0.0926622
60	0xbcf9b6af	-0.030482618
61	0xbda53a0d	-0.08067713
62	0xbdc77e7f	-0.09740924
63	0xbd9875b6	-0.074443266
64	0x3ce9b689	0.028529422
65	0x3c5a8c05	0.013339047
66	0xbd940b05	-0.07228664
67	0xbd15e92b	-0.03659932
68	0xbcf805cc	-0.030276202
69	0xbc18dbbc	-0.0093297325
70	0x3e23eb97	0.16007839
71	0xbd1679f1	-0.036737386
72	0x3e3d80bf	0.18506144
73	0x3cfeaed8	0.031089231
74	0x3e0ccf4c	0.13750952
75	0x3e1f1624	0.1553579
76	0xbbf8a503	-0.0075880303
77	0xbd907f74	-0.0705556
78	0x3e495961	0.19663002
79	0xbe88ec55	-0.26742807
80	0x3e453f73	0.19262485
81	0xbb1b15f5	-0.002366421
82	0xbca6880b	-0.020328542
83	0xbd9ce5e0	-0.07661033
84	0x3cfd9617	0.030955357
85	0x3e4cf723	0.2001615
86	0xbc0768ef	-0.008264764
87	0x3dbf0bbf	0.09328412
88	0x3e26d973	0.16293888
89	0x3cedb3b7	0.029016359
90	0x3e1aab91	0.1510451
91	0xbd905dc7	-0.070491366
92	0xbe271095	-0.1631492
93	0xbd486d5b	-0.048932415
94	0x3d139df2	0.0360393
95	0xbd4daf1e	-0.050215833
96	0xbe4b57d7	-0.19857727
97	0xbe125972	-0.14291933
98	0xbcc2a801	-0.023761751
99	0xbe4e82e5	-0.2016712
100	0x3da6785f	0.08128428
101	0xbe7e8d0a	-0.2485849
102	0x3d780501	0.060551647
103	0x3e280ce9	0.16411175
104	0xbd51d3d7	-0.051227417
105	0xbc7829e4	-0.015146706
106	0xbdd5aa1a	-0.10432835
107	0x3dc6742a	0.09690125
108	0xbd45e013	-0.048309397
109	0xbe95ffd2	-0.29296738
110	0x3dc15163	0.094393514
111	0xbdc22232	-0.094791785
112	0xbdcb5f8b	-0.09930333
113	0x3db1d0b8	0.08682388
114	0x3ca18f48	0.019721642
115	0xbe1ef6c3	-0.1552382
116	0x3da0cdd1	0.07851756
117	0xbdaae023	-0.08343532
118	0xbe7d0902	-0.24710467
119	0xbec57115	-0.38562837
120	0xbe89f90c	-0.2694782
121	0xbe3c403a	-0.18383875
122	0xbe0e5773	-0.13900547
123	0x3deda683	0.11604025
124	0x3dc1155a	0.094279006
125	0x3e8b4875	0.27203718
126	0xbdb29e7c	-0.08721635
127	0xbdd46d24	-0.103723794
128	0x3d09258b	0.03348307
129	0xbe29acf2	-0.1656988
130	0xbeacfc7c	-0.3378638
131	0x3e05fb86	0.1308423
132	0x3e1dba13	0.15403013
133	0x3d4174f3	0.047230672
134	0x3dcac900	0.09901619
135	0x3d41b1c7	0.047288682
136	0xbe3f76d4	-0.18697673
137	0x3ce12161	0.027481737
138	0xbea993e5	-0.33120647
139	0xbe150c6b	-0.14555518
140	0xbdc2a998	-0.09505004
141	0x3cb516d1	0.022105606
142	0x3debfd44	0.11522916
143	0x3cf80cd4	0.030279554
144	0xbdb12b5b	-0.086508475
145	0xbe0e27fe	-0.13882443
146	0xbe5aa467	-0.21351777
147	0xbe178875	-0.14798148
148	0x3e425592	0.18977955
149	0xbdd81bd6	-0.10552184
150	0x3e327e0d	0.17430897
151	0x3e082eac	0.13299054
152	0xbd65a566	-0.05606594
153	0x3d6b1491	0.05739266
154	0x3c396f92	0.011318104
155	0x3e8bf26d	0.27333394
156	0xbd8fdcf1	-0.07024563
157	0xbe4fcfb7	-0.2029408
158	0xbb0fd1a4	-0.0021945024
159	0x3ddeb5bf	0.10874509
160	0x3e1e9f74	0.15490514
161	0x3eb12f59	0.34606436
162	0xbe2241c1	-0.15845396
163	0x3dfc4654	0.123181015
164	0x3d930f2c	0.07180628
165	0xbe1a38f1	-0.15060784
166	0x3c9ce493	0.019151961
167	0xbdf660ec	-0.12030205
168	0x3c5e372b	0.013562958
169	0xbd4fafc8	-0.050704747
170	0xbe8f13eb	-0.27944884
171	0x3ad9af82	0.0016608092
172	0xbdd326a3	-0.10310104
173	0xbe0c142f	-0.13679574
174	0x3d4b869a	0.049688913
175	0xbd640281	-0.05566645
176	0x3e182930	0.14859462
177	0xbe06e87e	-0.13174626
178	0x3d3e72af	0.04649609
179	0x3da3a806	0.07991032
180	0x3e8d0663	0.27543935
181	0xbd585094	-0.05281122
182	0x3d8e6775	0.069533266
183	0xbea0d859	-0.3141506
184	0xbe357aa8	-0.17722571
185	0x3e06370f	0.1310694
186	0xbbfe2e16	-0.0077569587
187	0x3d3274d4	0.043568447
188	0xbdbf92c5	-0.09354166
189	0x3dd612e8	0.10452825
190	0x3e06745a	0.13130322
191	0xbdb51602	-0.08842088
192	0x3e1bcc0b	0.15214555
193	0xbd5e0aeb	-0.05420963
194	0xbdfa1213	-0.12210479
195	0xbd851471	-0.064980395
196	0xbd91fcd8	-0.07128304
197	0x3dd02258	0.101628006
198	0x3d29e75e	0.041480415
199	0x3d58bf74	0.05291696
200	0xbc1b8822	-0.009492906
201	0x3d83dd2c	0.064386696
202	0x3ddfc770	0.109267116
203	0xbd152b83	-0.03641845
204	0x3ddada46	0.106861636
205	0x3d61267f	0.054968353
206	0x3c4d4df9	0.012530797
207	0x3dff3a97	0.12462347
208	0x3e949be0	0.29025173
209	0x3dd2535e	0.10269807
210	0xbd5280e2	-0.051392443
211	0xbcdedc5c	-0.027204685
212	0xbe152db5	-0.14568217
213	0x394a3951	0.00019285573
214	0x3d7681cb	0.060182374
215	0xbde1b3ae	-0.11020599
216	0x3e3d6bba	0.18498126
217	0xbe8bdbc4	-0.27316105
218	0xbe775289	-0.24152578
219	0xbdcb7f82	-0.099364296
220	0x3deb858b	0.11500081
221	0xbd3cb5a3	-0.04607166
222	0x3e0b6922	0.13614324
223	0xbd3daa71	-0.046305124
224	0x3e473a77	0.19455896
225	0xbd00f1d6	-0.031480633
226	0xbec65460	-0.38736248
227	0xbe371fcf	-0.17883228
228	0x3eaa937f	0.33315656
229	0x3d7e07d2	0.062019177
230	0xbe213003	-0.15740971
231	0x3cea7610	0.02862075
232	0x3d1882d3	0.03723414
233	0xbd81632f	-0.06317746
234	0xbe904dd4	-0.28184378
235	0xbeaeeb9c	-0.3416413
236	0x3e991ff4	0.2990719
237	0xbda642aa	-0.08118184
238	0xbea56d2a	-0.32309848
239	0xbd595303	-0.05305768
240	0xbd10793d	-0.03527187
241	0x3ed503bf	0.4160442
242	0x3ecb8ab1	0.3975425
243	0xbdecdeae	-0.1156591
244	0xbd8ee224	-0.06976727
245	0xbd7b6114	-0.061371878
246	0x3d84f971	0.0649289
247	0xbcb792a7	-0.022408796
248	0x3d57fe67	0.05273285
249	0xbe18657e	-0.14882466
250	0x3def170a	0.11674316
251	0x3d31bece	0.043394856
252	0x3e94b103	0.290413
253	0x3ea72c51	0.32650998
254	0x3d94aebc	0.072598904
255	0xbd14c25c	-0.036318168

critic.0.bias f4 [64]
0	0x3eaea607	0.34111044
1	0x3dfb1c95	0.12261311
2	0xbee21ea9	-0.44164017
3	0x3e90c184	0.2827264
4	0x3e414bd3	0.18876581
5	0x3e2d6aec	0.16935319
6	0xbddecde8	-0.10879117
7	0x3f02c3a9	0.51079804
8	0xbd5b813b	-0.05359004
9	0x3d63ac57	0.055584278
10	0xbe3abdd5	-0.18236478
11	0xbc26e1e4	-0.010185692
12	0xbeabeb54	-0.3357798
13	0xbe49d069	-0.19708408
14	0xbea9ff94	-0.33202803
15	0x3e933c02	0.2875672
16	0xbcf60d51	-0.030035647
17	0x3ec06305	0.37575546
18	0x3d1ddf4e	0.038543038
19	0x3f0ba01b	0.54541177
20	0x3ec20f65	0.3790237
21	0x3d9094e4	0.07059649
22	0x3e6ff126	0.23431835
23	0x3e4fe1da	0.20301
24	0xbec0c0fa	-0.3764723
25	0x3d0796dc	0.033102855
26	0x3eb7a9cb	0.3587173
27	0xbe66307c	-0.22479433
28	0x3d34c98f	0.044137534
29	0x3b8ea990	0.0043537095
30	0xbeac97d1	-0.33709577
31	0xbeb3f104	-0.35144818
32	0x3e227e57	0.15868507
33	0xbebe530f	-0.37172744
34	0xbe870097	-0.26367638
35	0x3de29b29	0.11064751
36	0xbd1b44d8	-0.03790745
37	0x3eed8584	0.46390927
38	0x3dd416c2	0.10355903
39	0x3d3b22d0	0.045687497
40	0xbef2cd0b	-0.4742206
41	0x3ef1cb2e	0.47225326
42	0x3e190da7	0.14946614
43	0x3ecf7478	0.40518546
44	0x3ef378ba	0.47553045
45	0xbe9b5527	-0.30338404
46	0xbe635a44	-0.22202402
47	0x3e744657	0.23854958
48	0x3e69f958	0.22849023
49	0x3f077467	0.5291199
50	0x3e07647a	0.13221923
51	0xbf12f115	-0.5739911
52	0x3d3c4871	0.045967523
53	0xbd81a442	-0.06330158
54	0xbea8b9d7	-0.32954285
55	0x3e4a8bdf	0.19779919
56	0x3e63b324	0.22236305
57	0xbe346814	-0.17617828
58	0xbeb3f8a6	-0.3515064
59	0xbc4bf540	-0.012448609
60	0xbdf11d59	-0.11773176
61	0x3e674232	0.22583845
62	0xbe0af9f6	-0.13571915
63	0xbdadc86a	-0.084854916

critic.2.weight f4 [64, 64]
0	0x3e5e0209	0.21680464
1	0xba62ec25	-0.0008656404
2	0xbea75254	-0.3268
3	0x3e269aab	0.16269939
4	0xbcd24783	-0.025668865
5	0x3e398678	0.18117702
6	0x3dc9480c	0.09828195
7	0xbcac094a	-0.021000523
8	0xbe5533fe	-0.20820615
9	0xbe128a5a	-0.1431059
10	0x3e1aa671	0.15102555
11	0xba5e25e6	-0.0008474275
12	0x3ef0490c	0.4693073
13	0x3d1f25d1	0.038854424
14	0xbd71b61f	-0.059011575
15	0x3e2f6541	0.17128469
16	0x3e702cb8	0.23454559
17	0xbdb1b87e	-0.08677767
18	0x3e295de9	0.1653973
19	0x3dfcb264	0.12338713
20	0x3d332761	0.043738727
21	0x3d623362	0.055224784
22	0xbbda4c5c	-0.006661935
23	0x3e9446f7	0.28960392
24	0x3e75c12a	0.23999467
25	0x3a09dc7e	0.0005258991
26	0xbe4be03c	-0.19909757
27	0x3e1ba059	0.15197887
28	0x3d86d6bb	0.06583925
29	0xbec1f28e	-0.37880367
30	0x3e17f007	0.14837657
31	0xbe5a479a	-0.21316376
32	0xbe484625	-0.19558008
33	0xbd69bd5c	-0.057065353
34	0xbc1a74fe	-0.009427307
35	0x3f02a760	0.51036644
36	0xbdaa0f8a	-0.08303745
37	0xbdb1db09	-0.08684356
38	0xbde9fb4d	-0.11424885
39	0xbd0cdb42	-0.034388788
40	0x3e428eb7	0.18999754
41	0xbceef5c2	-0.02916992
42	0x3e28c849	0.16482653
43	0x3e5ed1a4	0.21759659
44	0x3d567bc3	0.052364122
45	0x3e381020	0.17974901
46	0xbe3540ab	-0.1770045
47	0xbe814b29	-0.25252655
48	0x3e5514f4	0.20808774
49	0xbdd84908	-0.105608046
50	0xbd2517cc	-0.040305898
51	0xbd5006c3	-0.0507877
52	0xbe5aec9e	-0.21379325
53	0x3e033b5c	0.12815613
54	0x3e21d4f8	0.15803897
55	0x3db24793	0.08705058
56	0xbe2c69bd	-0.16837211
57	0xbd80a8e7	-0.062822156
58	0xbeb62483	-0.3557473
59	0xbbd7e001	-0.0065879826
60	0xbc6f99be	-0.014624057
61	0xbdc7b097	-0.09750479
62	0x3c484f27	0.012225903
63	0x3be7a81c	0.0070696007
64	0x3e503cb0	0.2033565
65	0xbdb2883b	-0.0871739
66	0x3e1bacf9	0.15202703
67	0xbe88b5e1	-0.26701263
68	0x3e8b598c	0.27216756
69	0xbdd090f0	-0.10183895
70	0xbd8f6cd9	-0.07003183
71	0x3db170a8	0.086640656
72	0x3e03f58c	0.12886637
73	0xbdc6e521	-0.097116716
74	0xbd329511	-0.043599192
75	0xbe3d1390	-0.18464494
76	0xbe82f3e2	-0.25576693
77	0x3eada079	0.33911493
78	0x3cabb6f3	0.02096126
79	0x3db7924e	0.08963452
80	0xbde90c93	-0.113793515
81	0x3da1e8ec	0.079057544
82	0x3d51291d	0.0510646
83	0xbd11f276	-0.03563162
84	0x3da5a3e1	0.08087898
85	0xbdb6dbda	-0.08928652
86	0x3e5b0e08	0.21392071
87	0x3cb4b76b	0.022060117
88	0x3f10c3b2	0.5654861
89	0x3d98a60d	0.07453547
90	0xbe2a223f	-0.16614626
91	0x3e261acf	0.16221164
92	0xbdbcd0f9	-0.09219546
93	0x3e10b924	0.14133126
94	0xbe41bdf6	-0.1892012
95	0xbd8baa91	-0.06819642
96	0x3e295072	0.16534594
97	0xbd32b63b	-0.04363082
98	0xbe26ee27	-0.16301785
99	0xbe240312	-0.16016796
100	0xbea5fb01	-0.32418063
101	0x3e7f18d9	0.24911822
102	0xbe5ae99f	-0.21378182
103	0x3c0e55fa	0.008687491
104	0xbe2ed21a	-0.17072335
105	0x3e6fa4e2	0.23402742
106	0x3cc26348	0.023728982
107	0x3df6db51	0.1205355
108	0x3e8220f1	0.25415757
109	0x3debce74	0.11513987
110	0x3a850156	0.0010147493
111	0x3e11666c	0.14199227
112	0xbb018e54	-0.0019768672
113	0xbe871769	-0.26385048
114	0x3e9c032d	0.30471173
115	0x3e310647	0.17287551
116	0x3e4abd6f	0.19798826
117	0x3da0a0dd	0.07843182
118	0x3d91cb9e	0.07118915
119	0xbe19a035	-0.1500252
120	0xbb8e7d63	-0.0043484434
121	0x3e85cbcc	0.26132047
122	0xbe737824	-0.23776299
123	0xbe0874f2	-0.13325861
124	0x3c725200	0.014790058
125	0x3e069684	0.13143355
126	0x3e270967	0.1631218
127	0xbe47ff99	-0.19531097
128	0x3d2dab94	0.042399958
129	0xbe8b19d1	-0.27168134
130	0xbe83c2f7	-0.25734684
131	0x3d9de86b	0.07710346
132	0x3e882265	0.2658874
133	0xbd982f72	-0.074309245
134	0x3e93c358	0.28859973
135	0x3ec4afe3	0.3841544
136	0x3dc7c88c	0.09755048
137	0xbe21cc39	-0.15800561
138	0x3e8b6cdf	0.272315
139	0x3e80025a	0.25001794
140	0xbcde84d4	-0.027162947
141	0xbd8d277c	-0.06892297
142	0xbc02b76d	-0.007978302
143	0xbe0163a8	-0.12635672
144	0xbeb0cf81	-0.34533313
145	0xbc94c3e7	-0.01815982
146	0x3c91b03d	0.017784232
147	0x3df93903	0.12169077
148	0x3d89f6a1	0.06736494
149	0xb9840c1d	-0.00025186027
150	0xbd9de7a1	-0.07710195
151	0xbe374fbd	-0.17901511
152	0x3d20a503	0.039219867
153	0x3c4722c7	0.012154288
154	0xbe008951	-0.12552382
155	0xbe429804	-0.19003302
156	0x3e8b703a	0.2723406
157	0x3e0fcdc7	0.14043342
158	0xbd641a4f	-0.055689152
159	0xbe5d1297	-0.21589123
160	0x3e61d328	0.22053206
161	0x3e812880	0.25226212
162	0x3e236f49	0.1596042
163	0xbc36e7bb	-0.011163647
164	0xbce9f0ce	-0.028557207
165	0x3d58df97	0.052947607
166	0x3e9a601e	0.30151457
167	0x3dfe61c1	0.12420989
168	0xbc883edb	-0.016631534
169	0x3dafcda9	0.085841484
170	0x3da13eb3	0.07873287
171	0x3d914958	0.07094067
172	0x3da8c75e	0.08241151
173	0x3e42ad1c	0.19011348
174	0x3c6beb77	0.014399401
175	0xbdc0bf5a	-0.094114974
176	0xbe4fe147	-0.2030078
177	0xbe005d35	-0.12535556
178	0xbd295325	-0.04133906
179	0x3daeb301	0.08530236
180	0xbdfbefa7	-0.123015694
181	0xbe262161	-0.1622367
182	0xbd8e952e	-0.069620475
183	0x3ccee470	0.025255412
184	0xbc49f1f7	-0.012325755
185	0xbd41b901	-0.047295574
186	0xbd846ad4	-0.06465688
187	0x3e24560a	0.16048446
188	0xbe024892	-0.12722996
189	0xbeba7c56	-0.36422986
190	0xbdfd4efb	-0.1236858
191	0xbdc3781d	-0.09544394
192	0x3db5e9aa	0.088824585
193	0x3e864d66	0.26230925
194	0x3e3f8111	0.18701579
195	0xbe9da794	-0.30791914
196	0xbe1fdbeb	-0.15611236
197	0x3d776577	0.0603995
198	0x3d6482af	0.055788692
199	0x3e33ccce	0.17558596
200	0xbe3b9920	-0.18320131
201	0xbd43720b	-0.04771618
202	0xbbe76b51	-0.0070623537
203	0x3ddf2a0e	0.10896693
204	0x3e63b8ea	0.22238508
205	0xbdb00a26	-0.08595686
206	0xbd992c9e	-0.07479213
207	0xbbe8030f	-0.0070804427
208	0xbe07b8d6	-0.13254103
209	0xbeb1c028	-0.34716916
210	0x3e4543ce	0.19264147
211	0x3e5bde97	0.2147163
212	0xbdfc322b	-0.12314256
213	0xbc55ec9c	-0.0130569
214	0xbdf99fa6	-0.12188654
215	0x3d36761a	0.044546224
216	0x3e42d6dd	0.19027276
217	0xbdcbad2f	-0.099451415
218	0xbe54ac8f	-0.20768951
219	0xbc202a12	-0.009775655
220	0xbe86af2c	-0.2630552
221	0x3dd2da15	0.10295502
222	0xbde17ca0	-0.110100985
223	0x3d9a3ee4	0.07531527
224	0x3c0dca15	0.008654137
225	0xbbcc407e	-0.006233274
226	0x3e3c1b80	0.18369865
227	0x3bca8cc1	0.00618133
228	0xbed30d9e	-0.41221327
229	0x3e62822b	0.22119968
230	0xbdf4e9e6	-0.11958675
231	0x3e3b7fb8	0.1831044
232	0x3e2bbe1c	0.1677174
233	0xbdfe4d77	-0.12417119
234	0xbe17dc73	-0.14830188
235	0x3e47ccbf	0.19511698
236	0xbea8c335	-0.3296143
237	0xbe32d87b	-0.17465393
238	0x3da52101	0.080629356
239	0xbe8c911c	-0.2745446
240	0xbe00acb0	-0.12565875
241	0x3e5b8049	0.21435656
242	0x3b32bffa	0.0027275071
243	0xbdc46451	-0.09589446
244	0x3e5367a3	0.20645003
245	0x3dc78c23	0.09743526
246	0xbd952141	-0.07281733
247	0x3c3b1346	0.011418169
248	0xbcef7637	-0.029231174
249	0xbe403aef	-0.18772481
250	0x3ec0e2f2	0.37673146
251	0x3d6bde9c	0.057585344
252	0x3e2de905	0.16983421
253	0xbd902d5c	-0.070399016
254	0xbd0c4a82	-0.034250744
255	0xbd5f6989	-0.054544006

critic.2.bias f4 [64]
0	0x3cf10393	0.02942065
1	0xba615f9c	-0.0008597316
2	0xbd459464	-0.04823722
3	0x3ca3dea8	0.020003632
4	0xbe016285	-0.12635238
5	0xbe0b522c	-0.13605565
6	0xbcee448d	-0.029085422
7	0xbc1ea037	-0.009681753
8	0x3c0fb082	0.00877011
9	0xbb399076	-0.0028314865
10	0xbdbf98a4	-0.09355286
11	0xbd820ac8	-0.063497126
12	0xbe5de681	-0.21669962
13	0x3bf48ec0	0.007463306
14	0x3d957e74	0.0729951
15	0x3e089a68	0.13340151
16	0x3e71333a	0.23554698
17	0xbd0588ff	-0.032601353
18	0x3d52a2f8	0.05142495
19	0xbcb26e2b	-0.021781048
20	0x3dec1324	0.11527088
21	0x3e943e69	0.28953865
22	0x3d5b21f0	0.053499162
23	0x3d80bdca	0.062861994
24	0xbda6d64f	-0.08146345
25	0xbdc30dd8	-0.09524125
26	0x3e791aa5	0.2432657
27	0xbc833456	-0.016016167
28	0xbc41c41b	-0.01182654
29	0xbc6a3638	-0.014295153
30	0x3e8299e4	0.25508034
31	0x3d06145e	0.032734267
32	0x3cf32910	0.029682666
33	0x3dc77bc0	0.097404
34	0x3d50e8a6	0.05100312
35	0xbd332f0a	-0.04374603
36	0xbd8b15de	-0.0679128
37	0xbc3e30a5	-0.011608277
38	0x3dd62cee	0.104577884
39	0x3c65c2e1	0.0140235135
40	0xbcbf2161	-0.023331346
41	0x3e0a82f1	0.13526513
42	0xbdd45996	-0.1036865
43	0xbb49b2fe	-0.0030776854
44	0xbd8281bd	-0.06372402
45	0xbb5c1359	-0.0033580868
46	0xbe586c25	-0.21135004
47	0x3ceca1ad	0.028885687
48	0xbd569774	-0.05239053
49	0xbdd62fe4	-0.10458353
50	0x3b122250	0.0022298284
51	0xbe19cf23	-0.15020423
52	0xbe68754e	-0.22700998
53	0x3d5a4e66	0.053297423
54	0x3c1f088c	0.009706628
55	0xbe435576	-0.1907557
56	0x3d584bfc	0.05280684
57	0xbca1edca	-0.019766707
58	0xbe0c4774	-0.13699132
59	0x3e23eb33	0.1600769
60	0xbc7f6760	-0.015588611
61	0x3d1d654c	0.038426682
62	0xbd6ba35e	-0.057528846
63	0x3e87b149	0.26502445

critic.4.weight f4 [1, 64]
0	0xbb2f1ee7	-0.00267213
1	0xbde0c27b	-0.10974594
2	0x3b64ba0b	0.003490093
3	0x3da34335	0.07971803
4	0xbe021b11	-0.12705638
5	0x3b3235f1	0.0027192796
6	0x3d28ae90	0.0411821
7	0xbd881b9e	-0.066458926
8	0x3bcf606d	0.0063286335
9	0xbdb5de17	-0.08880251
10	0xbdfd3add	-0.12364743
11	0x3cc4eebe	0.024039622
12	0xbe618e21	-0.22026874
13	0x3d1d4e71	0.038404886
14	0xb94cbcc7	-0.00019525281
15	0x3df0994d	0.1174799
16	0x3e056a7e	0.13028905
17	0xbe078fad	-0.13238402
18	0x3db404fb	0.087900124
19	0xbd985645	-0.074383296
20	0x3e08c476	0.13356194
21	0x3e254389	0.16139044
22	0x3da8d05d	0.08242867
23	0x3d791669	0.060812388
24	0x3b173b6b	0.0023076187
25	0xbd06f826	-0.032951497
26	0x3df3fb8f	0.11913215
27	0x3b45120e	0.0030070576
28	0x3b23105a	0.0024881572
29	0xbc8a4579	-0.01687883
30	0x3e4fbb31	0.20286252
31	0x3d7d1d29	0.061795387
32	0xbb0be81b	-0.0021348062
33	0x3d31059e	0.043218248
34	0x3d2045a0	0.0391289
35	0x3c91811d	0.017761761
36	0xbcf8bdb4	-0.030363895
37	0xbd17d185	-0.037065048
38	0xbda65b9a	-0.0812294
39	0x3c5f977c	0.0136469565
40	0x3d210e93	0.03932054
41	0x3e228206	0.15869913
42	0x3d7776cc	0.060416028
43	0x3d4d134a	0.050067224
44	0xbd7a5f4f	-0.06112605
45	0x3ca46ff6	0.020072918
46	0xbb6b8bae	-0.003594141
47	0x3de728c5	0.11287073
48	0x39d063e2	0.0003974727
49	0x3d862074	0.06549159
50	0x3deeb8e2	0.11656357
51	0xbde8feb8	-0.11376709
52	0xbe44e289	-0.19227041
53	0xbd2f6248	-0.042818338
54	0x3e039f13	0.12853651
55	0xbe0d687e	-0.13809392
56	0x3d9e21ef	0.07721316
57	0x3b9e8ceb	0.004838576
58	0xbd83831b	-0.06421491
59	0x3c9fc737	0.019504173
60	0xbd927f9b	-0.07153245
61	0x3d01431e	0.03155815
62	0xbd317db5	-0.043332774
63	0x3e3c95ed	0.18416567

actor_mean.0.weight f4 [64, 26]
0	0x3e3e8656	0.18605933
1	0xbd92515e	-0.07144426
2	0x3e4e9d39	0.20177163
3	0x3da5beb3	0.080930136
4	0xbe1ec370	-0.15504241
5	0xbe529625	-0.20565088
6	0xbd2a8f6b	-0.04164068
7	0x3eeb2e16	0.45933598
8	0x3ef9b099	0.48767546
9	0x3da0bdce	0.07848702
10	0xbdeb0c58	-0.11476964
11	0x3e178e7d	0.14800449
12	0xbe06b2d8	-0.13154161
13	0xbe6ad11a	-0.22931328
14	0x3d269196	0.040666185
15	0xbce6ea97	-0.028188033
16	0x3daca31b	0.084295474
17	0x3e169abf	0.14707468
18	0xbc49c4bd	-0.0123149725
19	0xbc1be9d4	-0.009516198
20	0x3e073ba4	0.13206345
21	0xbe3763fa	-0.17909232
22	0x3ebecbcb	0.37264857
23	0x3e97f150	0.29676294
24	0xbe4eefd0	-0.20208669
25	0xbe0d6b82	-0.13810542
26	0x3e8d5f9a	0.27612
27	0xbb14ed39	-0.0022724404
28	0x3e73c95b	0.2380728
29	0x3e3c7c10	0.18406701
30	0x3eda52c2	0.42641264
31	0xbdb17ba4	-0.08666161
32	0x3dcbd39b	0.0995247
33	0xbe84fcfd	-0.25974265
34	0xbe2cb50d	-0.1686594
35	0x3e945c03	0.2897645
36	0xbd69b74a	-0.057059564
37	0xbe9c193c	-0.30488002
38	0xbd496698	-0.049170107
39	0xbda8df2b	-0.08245691
40	0x3e201d3b	0.1563615
41	0x3dc90a62	0.098164335
42	0xbc9b06dc	-0.01892417
43	0xbd73fd6a	-0.059567846
44	0x3d8914e8	0.06693441
45	0x3dbf597e	0.09343241
46	0xbed76394	-0.4206816
47	0xbd180680	-0.037115574
48	0x3e90adef	0.282577
49	0x3debd2aa	0.1151479
50	0x3e61bbfe	0.2204437
51	0xbdf2bcf9	-0.1185245
52	0xbe9f1473	-0.3107029
53	0x3e48e7a7	0.19619618
54	0x3d5dbfa1	0.05413783
55	0x3de85a6d	0.11345372
56	0x3e4668f0	0.19375968
57	0xbed5dc2c	-0.4176954
58	0x3ded6048	0.1159063
59	0x3e3760da	0.1790804
60	0x3e1abe25	0.15111597
61	0x3e4821e2	0.19544175
62	0x3d3076f1	0.04308218
63	0x3ed52d68	0.41636205
64	0x3e320e9e	0.17388389
65	0x3bffd75b	0.007807655
66	0x3e99625a	0.2995785
67	0xbe403f31	-0.18774106
68	0x3ec1ff02	0.37889868
69	0x3d14ffe0	0.036376834
70	0x3e095bd6	0.13413939
71	0x3e006e95	0.12542184
72	0xbc50fc3f	-0.012755453
73	0x3d90889d	0.07057307
74	0x3d95e505	0.07319073
75	0xbdbcf706	-0.092268035
76	0x3d8b91dd	0.068149306
77	0x3e80c47f	0.25149915
78	0xbe82d1f8	-0.25550818
79	0xbe1b6ff9	-0.15179433
80	0x3e711c43	0.23545937
81	0xbe607d3c	-0.21922773
82	0x3ec59838	0.38592696
83	0x3da7c3ac	0.08191618
84	0x3eacfdad	0.3378729
85	0xbd832a5d	-0.064045645
86	0xbdd9448b	-0.10608777
87	0x3afea934	0.0019429089
88	0x3e15d083	0.14630322
89	0x3d158da6	0.03651204
90	0xbe722634	-0.23647386
91	0xbd0805c7	-0.033208635
92	0xbe5cd29d	-0.21564718
93	0xbef6d962	-0.48212725
94	0x3e2c4354	0.16822559
95	0xbe6e51b6	-0.23273358
96	0xbd647f95	-0.055785734
97	0x3d4761b9	0.04867718
98	0x3e7df77b	0.24801438
99	0xbe4cd235	-0.20002063
100	0xbe9eaa09	-0.30989102
101	0x3dae1a79	0.08501143
102	0xbe0f651e	-0.14003417
103	0x3e4f6246	0.20252332
104	0x3eb65218	0.35609508
105	0xbe5922ec	-0.21204728
106	0x3e589357	0.21149956
107	0xbe246964	-0.16055828
108	0x3d0ec4e8	0.034855753
109	0xbdae1cc8	-0.08501583
110	0xbda321eb	-0.07965454
111	0xbc41f142	-0.0118373055
112	0x3e97eb30	0.2967162
113	0xbeff5f29	-0.4987729
114	0xbe210798	-0.15725553
115	0x3c215018	0.009845756
116	0x3f1331ca	0.5749785
117	0x3d82860f	0.06373226
118	0xbec04048	-0.37549043
119	0x3d2eae11	0.04264647
120	0xbedcf6bc	-0.43156993
121	0xbd8eea8a	-0.069783285
122	0x3d9bce55	0.07607714
123	0x3dabea0e	0.08394252
124	0x3d1620c2	0.036652334
125	0x3d21344e	0.039356522
126	0x3e2c5ba7	0.16831838
127	0xbdd93e66	-0.10607605
128	0x3e2bca9a	0.16776505
129	0x3dcc3695	0.09971348
130	0xbe3a12b1	-0.18171193
131	0xbe0fd7a1	-0.140471
132	0xbe31a96f	-0.1734979
133	0x3ec77ed3	0.38963947
134	0x3aa53616	0.001260462
135	0xbe1a7aa0	-0.1508584
136	0x3a9b7992	0.0011861792
137	0x3e28c3fd	0.16481014
138	0xbd005e5d	-0.03133999
139	0x3e03631f	0.1283078
140	0x3dd79ab7	0.105275564
141	0x3e4c601b	0.19958536
142	0x3e6445bb	0.22292225
143	0xbdc1810c	-0.09448442
144	0x3e629773	0.22128086
145	0x3e5eec72	0.21769884
146	0xbd0e64e2	-0.034764178
147	0x3d070e9d	0.03297292
148	0xbd8bf1a1	-0.068331964
149	0x3eae261c	0.3401345
150	0x3e25f05e	0.16204974
151	0x3e146815	0.14492829
152	0xbf00e12d	-0.5034359
153	0x3d2962de	0.041354053
154	0xbe845f9f	-0.25854203
155	0x3dddcd23	0.10830142
156	0x3e86367e	0.2621345
157	0x3cb6caf9	0.022313582
158	0xbf270f43	-0.6525766
159	0x3dfbe596	0.122996494
160	0x3eb43e56	0.3520381
161	0xbd3c8e6d	-0.046034265
162	0xbe358792	-0.17727497
163	0x3d65c753	0.056098294
164	0xbe80492c	-0.25055826
165	0xbcb3421f	-0.021882115
166	0x3d995083	0.074860595
167	0xbe563434	-0.20918351
168	0xbd55130c	-0.052020118
169	0x3deabd56	0.11461894
170	0xbeec3537	-0.4613435
171	0x3ca87a23	0.020566052
172	0x3cb837ea	0.0224876
173	0x3e39c35a	0.18140927
174	0x3dc31d52	0.09527077
175	0x3dde38b9	0.10850663
176	0xbe2196bb	-0.15780155
177	0x3db40e1c	0.08791754
178	0x3de59ecc	0.11211929
179	0x3de3e589	0.11127765
180	0x3e4c19e9	0.19931759
181	0xbe283e0b	-0.16429918
182	0x3e877046	0.26452845
183	0x3dccaefa	0.09994312
184	0xbea0682b	-0.31329474
185	0x3da37e7f	0.079831116
186	0xbe73b509	-0.23799528
187	0xbe466594	-0.19374686
188	0x3e1be968	0.15225756
189	0xbcd0ff5c	-0.02551239
190	0x3df71ec6	0.120664164
191	0xbda4baf8	-0.08043474
192	0x3c8725c4	0.0164975
193	0x3ec06d7d	0.37583533
194	0xbb8daa4e	-0.0043232804
195	0x3e0bb259	0.13642253
196	0x3edb3c38	0.4281938
197	0xbd67be65	-0.05657806
198	0xbde3f1d6	-0.11130111
199	0xbe528fe3	-0.20562701
200	0x3e28263b	0.16420834
201	0x3eb2d489	0.34927776
202	0x3d907cbf	0.070550434
203	0xbe47a9cf	-0.1949837
204	0x3d52c27d	0.05145501
205	0xbe8f8f0a	-0.28038818
206	0x3cde19b5	0.027111867
207	0x3e4bd47c	0.19905275
208	0x3eff59cf	0.49873206
209	0x3dd9eae2	0.106405035
210	0x3e39b8e0	0.1813693
211	0x3dd21763	0.10258367
212	0x3e74452e	0.23854515
213	0x3dcbdd8a	0.099543646
214	0xbc41d216	-0.011829874
215	0x3ea22932	0.31672055
216	0xbeee33d4	-0.46523917
217	0x3db96a21	0.090534456
218	0xbc86d388	-0.016458288
219	0xbdab9a18	-0.083790004
220	0xbd819321	-0.06326891
221	0x3e3e2582	0.18568996
222	0xbdcc114d	-0.09964237
223	0x3e5a9de3	0.21349292
224	0xbba54fb9	-0.005044904
225	0xbe2a1444	-0.16609293
226	0xbe5b5edb	-0.21422903
227	0x3e937b99	0.28805235
228	0x3d800faf	0.062529914
229	0x3d8bc3f7	0.06824487
230	0xbda8afea	-0.08236678
231	0xbd4df6d5	-0.050284225
232	0x3c6dd3b4	0.014515806
233	0x3dab5f0a	0.08367737
234	0xbe7800fa	-0.24219123
235	0xbe7a1e22	-0.24425557
236	0xbc839774	-0.01606343
237	0x3d845b31	0.06462706
238	0xbe15ef9f	-0.1464219
239	0xbdd41593	-0.103556775
240	0xbef85a0b	-0.48506197
241	0xbd35bda8	-0.044370323
242	0x3dd7b1fe	0.10531996
243	0xbcb0d083	-0.021583801
244	0x3eae5a6d	0.34053364
245	0x3eebeaf5	0.46077695
246	0xbdcbcc29	-0.0995105
247	0x3e2432fc	0.16035074
248	0x3d205af8	0.039149255
249	0xbc817d6c	-0.015806876
250	0xbdf1b3ac	-0.11801848
251	0x3d42a85f	0.047523852
252	0x3a8efd57	0.0010909241
253	0xbe9bb8f9	-0.3041456
254	0x3bbf06b9	0.005829659
255	0xbe668fed	-0.22515841

actor_mean.0.bias f4 [64]
0	0x3d847325	0.064672746
1	0xbdcf0862	-0.10109021
2	0xbcd37e3a	-0.025817025
3	0x3dea179f	0.114302866
4	0xbcacba70	-0.021084994
5	0x3dcdff4c	0.1005846
6	0xbce7463a	-0.028231729
7	0x3e34cdf2	0.17656687
8	0x3e306161	0.17224647
9	0x3b969d6e	0.004596404
10	0x3dabe42d	0.083931305
11	0xbd9711d3	-0.073764466
12	0x3cf9d1f4	0.030495621
13	0x3e1de273	0.15418415
14	0x3e0fe365	0.14051588
15	0xbe09d3ec	-0.13459748
16	0xbdc259b0	-0.09489763
17	0x3e05d306	0.1306878
18	0x3d3a5191	0.045487944
19	0x3e60d6f4	0.21956998
20	0xbd8e7d66	-0.069575116
21	0x3d907d25	0.070551194
22	0x3e62625c	0.22107834
23	0x3d87fbd7	0.066398315
24	0x3cb86d21	0.022512974
25	0xbb0c7509	-0.0021432063
26	0xbd845a7f	-0.06462573
27	0xbcaa8d10	-0.020819217
28	0xbc201559	-0.009770715
29	0xbc7eade0	-0.015544385
30	0xbadd7eba	-0.0016898729
31	0xbe06a390	-0.13148332
32	0x3ddc88d6	0.10768287
33	0x3e13db77	0.14439188
34	0xbd4b3869	-0.049614344
35	0xbc6cca93	-0.014452594
36	0x3ce4f814	0.027950324
37	0x3c46c67f	0.012132286
38	0x3d82d1c7	0.06387668
39	0x3e01e0cf	0.12683414
40	0x3d53e298	0.05172977
41	0x3d7313b1	0.05934495
42	0x3c95cdfc	0.018286698
43	0xbba58284	-0.005050959
44	0x3cccdf23	0.025008744
45	0xbd95db9a	-0.07317276
46	0xbd348bb9	-0.044078562
47	0xbd8df578	-0.06931585
48	0xbd38be8c	-0.045103595
49	0xbba82be2	-0.0051321844
50	0x3c4ae74c	0.012384247
51	0xbd3442ac	-0.044008896
52	0xbde1617d	-0.110049225
53	0x3e35aba0	0.17741251
54	0xbd844e92	-0.064602986
55	0xbd340424	-0.04394926
56	0x3d38108b	0.04493765
57	0xbdf24563	-0.11829641
58	0x3d7bc104	0.06146337
59	0x3d5c28bd	0.05374979
60	0xbd2c6976	-0.042092763
61	0xbdd74c1f	-0.10512566
62	0x3c990b90	0.018682271
63	0x3d2645c1	0.040593866

actor_mean.2.weight f4 [64, 64]
0	0xbdda28c2	-0.10652305
1	0x3cdfcfc4	0.02732075
2	0x3c7c0134	0.015381146
3	0x3e616f87	0.220152
4	0x3e57de09	0.21080793
5	0x3e40df9f	0.18835305
6	0xbe033155	-0.12811787
7	0xbced4cde	-0.028967317
8	0x3d91657b	0.07099434
9	0x3e3aee5a	0.18254986
10	0xbd70b317	-0.058764543
11	0x3d6fc749	0.058539663
12	0xbe7639e1	-0.24045517
13	0xbd900288	-0.07031733
14	0x3e20c2d4	0.15699321
15	0x3da50e10	0.08059323
16	0x3e088b58	0.13334405
17	0xbdc5dcb9	-0.0966124
18	0x3c64b802	0.0139598865
19	0x3e8a0adb	0.26961407
20	0xbe8ff569	-0.2811692
21	0xbd88035a	-0.06641264
22	0x3d531560	0.051534057
23	0xbe0de037	-0.13855062
24	0xbe2d6012	-0.16931179
25	0xbf0b124e	-0.54324806
26	0x3b04b320	0.0020248368
27	0x3e65a41d	0.22425885
28	0xbe55301a	-0.2081913
29	0xbea758ca	-0.32684928
30	0x3e3b1469	0.18269505
31	0xbe782362	-0.24232247
32	0x3e86abae	0.26302856
33	0x3f09ae6b	0.53781766
34	0x3b2a3e33	0.0025977015
35	0x3e31b534	0.1735428
36	0x3df7e22f	0.12103688
37	0xbbfa8a63	-0.0076458915
38	0xbd67ece9	-0.05662242
39	0x3ebccfc1	0.36877254
40	0x3c63b0d6	0.013897141
41	0x3cf8294d	0.030293131
42	0xbcbc2029	-0.022964554
43	0xbe257c15	-0.16160615
44	0x3e0b9377	0.13630472
45	0xbdd39317	-0.103307895
46	0xbe00b2b2	-0.12568167
47	0x3cabf339	0.020990001
48	0xbecc5d61	-0.39914992
49	0xbe8d76f2	-0.2762981
50	0x3e6326df	0.22182797
51	0xbea7f5e7	-0.32804796
52	0x3eba22c8	0.3635466
53	0x3e64c70a	0.22341552
54	0xbe07b461	-0.13252403
55	0x3f0ceae8	0.5504594
56	0x3e08268f	0.13295959
57	0xbdf69045	-0.12039236
58	0xbc8d952c	-0.017283045
59	0xbd18818a	-0.037232913
60	0xbe0840fa	-0.13306037
61	0xbe0e123d	-0.13874145
62	0x3d57b913	0.052666735
63	0xbe639e1b	-0.22228281
64	0x3eaad314	0.33364165
65	0xbcde303d	-0.027122611
66	0xbb37eae7	-0.0028063597
67	0x3e444ead	0.19170637
68	0x3dac3630	0.08408773
69	0x3db050a8	0.08609134
70	0xbe3f6644	-0.18691355
71	0xbeb71ad1	-0.35762647
72	0x3e185053	0.14874391
73	0x3e3e1d42	0.18565848
74	0xbe615e94	-0.22008735
75	0xbea625b8	-0.32450652
76	0xbdf96f69	-0.12179453
77	0x3d6e1203	0.058122646
78	0x3e53da28	0.20688689
79	0x3a3d5a62	0.0007223246
80	0x3e056a1a	0.13028756
81	0x3d7d7f85	0.06188919
82	0x3e8e0433	0.2773758
83	0xbea05d0e	-0.31320995
84	0x3e263cbd	0.16234107
85	0xbe2aa21e	-0.16663405
86	0x3ee1b1f9	0.44081095
87	0xbe5974d9	-0.2123598
88	0x3dfdc081	0.12390233
89	0x3e59e454	0.21278507
90	0x3e57a58c	0.21059245
91	0xbe52c1bf	-0.20581721
92	0x3da7065b	0.08155509
93	0x3c031fb4	0.008003164
94	0xbb62a42a	-0.0034582713
95	0xbd822bf2	-0.06356038
96	0x3e87f7ec	0.26556337
97	0xbe1bac57	-0.15202461
98	0xbe6b9083	-0.23004346
99	0xbdac4979	-0.08412451
100	0x3e03280b	0.12808244
101	0x3de453d6	0.11148803
102	0xbdb547ce	-0.08851586
103	0x3eb806c9	0.35942677
104	0xbe7405ee	-0.23830387
105	0xbe465251	-0.19367339
106	0xbd1063d3	-0.03525145
107	0xbceb8634	-0.028750516
108	0x3e3569de	0.17716166
109	0x3b8fd072	0.0043888623
110	0x3e059651	0.13045622
111	0xbcb1a203	-0.021683699
112	0x3e8b3271	0.2718692
113	0xbe3b75fe	-0.18306729
114	0x3d5350d8	0.05159077
115	0x3ea7e3e0	0.32791042
116	0x3e660f84	0.22466856
117	0x3e94b877	0.29046986
118	0xbe2cd294	-0.16877204
119	0xbe640e07	-0.22270976
120	0xbd67e8d3	-0.056618523
121	0xbd92875f	-0.07154726
122	0x3e799b3e	0.24375626
123	0x3c4aff50	0.012389973
124	0xbe4a699f	-0.19766854
125	0x3e96fee0	0.2949133
126	0x3ec0f9a0	0.3769045
127	0xbeaa089e	-0.332097
128	0xbda987c3	-0.082778476
129	0x3d96729d	0.073460795
130	0x3e31ff95	0.17382653
131	0x3e30c58c	0.17262858
132	0x3d81050a	0.06299789
133	0xbe3f6b65	-0.18693312
134	0xbe1826ee	-0.148586
135	0xbcb23cfe	-0.021757599
136	0xbe2b5a07	-0.16733561
137	0xbe8f6b1b	-0.28011402
138	0x3dd8b5e5	0.10581569
139	0x3deab8ed	0.11461053
140	0xbdf8052a	-0.1211036
141	0xbd5b2f08	-0.05351165
142	0xbe423200	-0.18964386
143	0xbdeb1398	-0.114783466
144	0xbddf7cc8	-0.10912472
145	0xbe02eb73	-0.12785129
146	0xbe518e0e	-0.20464346
147	0x3dc1d2ac	0.094640106
148	0xbde147d5	-0.11000029
149	0x3e35eda4	0.17766434
150	0xbebe0b06	-0.37117785
151	0xbd76664d	-0.060156155
152	0xbebc9009	-0.3682864
153	0x3e7be449	0.24598803
154	0x3dc05ec3	0.09393074
155	0x3eae518a	0.34046584
156	0x3e913aca	0.28365165
157	0x3ddf12e9	0.10892279
158	0x3c32f98c	0.010923754
159	0xbd61ca6f	-0.055124696
160	0xbe881af7	-0.26583073
161	0xbe2f74e8	-0.1713444
162	0xbd8b3707	-0.06797605
163	0x3e636648	0.22206986
164	0x3eefd29a	0.46840364
165	0x3d83a80f	0.06428539
166	0xbe4997ec	-0.1968686
167	0xbe14e66d	-0.14541025
168	0x3dbeb452	0.09311737
169	0x3e7a111e	0.24420592
170	0xbefad1f1	-0.48988298
171	0x3e61c485	0.22047623
172	0xbdc0dbfc	-0.09416959
173	0x3ee07d33	0.4384552
174	0x3e132afe	0.14371869
175	0x3e18707f	0.14886664
176	0xbebaba49	-0.3647025
177	0x3e023a1f	0.12717484
178	0xbdcbd7b7	-0.09953254
179	0x3e247903	0.16061787
180	0xbe808734	-0.25103152
181	0xbe6dc241	-0.23218633
182	0xbdd4487a	-0.10365386
183	0xbe7eaeb3	-0.2487133
184	0xbedf0dec	-0.4356531
185	0x3ee1c46e	0.44095176
186	0x3e8aaa25	0.27082935
187	0xbd152d4f	-0.036420163
188	0x3e61d253	0.22052889
189	0x3e8d3e34	0.2758652
190	0x3d9c5c81	0.07634831
191	0xbe3d064b	-0.18459432
192	0xbde5d8cf	-0.112229936
193	0x3ea0a439	0.31375292
194	0x3d431093	0.04762323
195	0xbbdf1741	-0.006808192
196	0xbd478238	-0.04870817
197	0x3d4f8f3e	0.050673716
198	0xbe42fecd	-0.19042511
199	0xbcc69e70	-0.02424547
200	0x3de2a533	0.110666655
201	0x3d39c549	0.04535416
202	0xbeb9b3a6	-0.36269873
203	0xbe4ec189	-0.20191015
204	0x397a671d	0.0002388027
205	0xbe3d398c	-0.18478984
206	0x3e8021bb	0.25025734
207	0xbd6e68d8	-0.058205456
208	0x3e880b02	0.26570898
209	0xbd7b437e	-0.061343662
210	0x3eae1fcd	0.34008637
211	0x3e4bdeb7	0.19909178
212	0x3d1098a7	0.03530183
213	0x3ca3e7ea	0.020008046
214	0xbc9aab4e	-0.018880513
215	0xbd81e339	-0.063421674
216	0xbdf83e6b	-0.1212128
217	0xbe95d6a3	-0.29265317
218	0x3e2801bb	0.1640691
219	0x3d046dc3	0.03233124
220	0xbdad4699	-0.08460731
221	0xbdd4f645	-0.10398535
222	0xbdd0c3ac	-0.101935714
223	0xbe6a3cb2	-0.22874716
224	0xbe95c655	-0.29252878
225	0xbe3b162b	-0.18270175
226	0xbe7d1181	-0.24713708
227	0x3f0df71f	0.554552
228	0xbe9b151f	-0.30289552
229	0x3d804b70	0.062643886
230	0xbcbde7de	-0.023181852
231	0xbe74fc40	-0.2392435
232	0xbe4ec29a	-0.20191422
233	0xbb6a9225	-0.0035792675
234	0x3ef0ac6c	0.47006547
235	0xbe1bee57	-0.15227638
236	0xbe7efdad	-0.24901457
237	0x3e5457a9	0.20736565
238	0x3e6972c8	0.22797692
239	0x3d44c7b7	0.048042025
240	0x3db730c8	0.08944851
241	0xbe877b29	-0.2646115
242	0xbd14c4d1	-0.03632051
243	0xbddd6a21	-0.10811258
244	0x3e1158ce	0.14194033
245	0xbb7f673a	-0.003897144
246	0x3baa2b9c	0.005193187
247	0xbee4b121	-0.4466639
248	0x3ed58bd4	0.41708243
249	0xbdad8a92	-0.08473696
250	0x3e62c0d8	0.22143877
251	0xbd8b27de	-0.067947134
252	0xbeab6caf	-0.33481357
253	0xbde50ae7	-0.1118372
254	0x3d166e03	0.03672601
255	0x3e177c09	0.1479341

actor_mean.2.bias f4 [64]
0	0x3d22f4a1	0.039784078
1	0xbd2305d8	-0.039800495
2	0xbd2d99bb	-0.042382937
3	0xbc293a7d	-0.010328886
4	0xbe00dd2b	-0.12584369
5	0xbca76448	-0.02043356
6	0x3dd88ca4	0.105737
7	0xbc46f6a4	-0.012143765
8	0xbd4cd342	-0.05000616
9	0x3c74d865	0.014944171
10	0xbdca06e5	-0.09864596
11	0xbda5403b	-0.080688916
12	0xbdea6f13	-0.11446967
13	0xbccc1be3	-0.024915641
14	0xbe0d0144	-0.13770014
15	0xbddd1e24	-0.107967645
16	0x3d9ca1c6	0.07648043
17	0xbd3c865e	-0.04602658
18	0x3e4d4059	0.20044078
19	0xbd4287ed	-0.04749291
20	0xbe466421	-0.19374134
21	0xbe6902ec	-0.22755021
22	0x3e17aea1	0.1481271
23	0xbe897a16	-0.26850957
24	0xbe085811	-0.13314845
25	0xbda12ef4	-0.07870284
26	0xbcfaf40a	-0.030633945
27	0x3d645f40	0.0557549
28	0xbcb89ac8	-0.022534743
29	0xbdba80dd	-0.0910661
30	0xbc49714d	-0.012295079
31	0x3debb18a	0.11508472
32	0xbd03d408	-0.03218463
33	0xbd83b1ca	-0.06430395
34	0x3dca6969	0.09883387
35	0xbe81e9c4	-0.25373662
36	0xbe1dfe55	-0.15429051
37	0xbd84753d	-0.06467674
38	0xbd4353f8	-0.0476875
39	0x3dd3aeb2	0.10336055
40	0xbcbb2c9a	-0.022848416
41	0x3db6c23e	0.089237675
42	0x3e0a2037	0.13488851
43	0xbe15175d	-0.14559694
44	0xbc867db2	-0.016417358
45	0x3df54bf9	0.11977381
46	0x3ca47e83	0.020079857
47	0xbd9912f2	-0.07474317
48	0x3be3d681	0.006953061
49	0x39f5dfce	0.0004689679
50	0xbd67d08b	-0.056595366
51	0xbcc5bc88	-0.02413775
52	0xbd836fa8	-0.06417781
53	0xbe4e4254	-0.2014249
54	0xbdf789a5	-0.120868005
55	0x3dee607e	0.11639498
56	0xbd8a8d82	-0.06765272
57	0x3d05a6a7	0.032629635
58	0x3dad68cf	0.08467256
59	0xbe3f4ba0	-0.18681192
60	0xbb900423	-0.0043950244
61	0xbd6ef624	-0.058340207
62	0xbd375d0c	-0.04476647
63	0x3df1e758	0.118117034

actor_mean.4.weight f4 [6, 64]
0	0x3c81b5d7	0.015833778
1	0x3b2a5a09	0.0025993607
2	0xbdaf6521	-0.08564211
3	0x3c8a120e	0.016854312
4	0x3d00c6cf	0.0314396
5	0x3e04c96b	0.1296746
6	0x3db36528	0.087595284
7	0x3c090a73	0.008364308
8	0x3dbddea7	0.09270983
9	0xbd95217e	-0.07281779
10	0xbdbdf416	-0.09275071
11	0xbc895678	-0.016764864
12	0xbb345fdb	-0.0027522955
13	0xbc4b77d0	-0.012418702
14	0xbdd82afd	-0.10555074
15	0x3d9798d4	0.074021965
16	0x3ce39b82	0.027784113
17	0x3db43326	0.08798818
18	0x3ca28f6a	0.019843776
19	0xbde23048	-0.11044365
20	0x3d89e75b	0.06733581
21	0xbc008268	-0.007843591
22	0x3d8b47e3	0.06800821
23	0xbd9f5969	-0.077807255
24	0xbc75d844	-0.015005175
25	0x3dba49c0	0.09096098
26	0xbda68212	-0.08130278
27	0xbcde3a5b	-0.027127435
28	0xbd04dce7	-0.03243723
29	0x3d3f16ef	0.04665273
30	0x3d193c11	0.0374108
31	0xbbcacc62	-0.006188915
32	0x3d5276f9	0.051382992
33	0xbd919867	-0.071091466
34	0xbc92a59d	-0.017901236
35	0x3ce1a8ea	0.027546365
36	0xbdd46545	-0.10370878
37	0xbd5715db	-0.052511077
38	0xbe48bfa4	-0.19604355
39	0x3d5fdc43	0.054653417
40	0x3dd0eab5	0.10201017
41	0x3ceaea2b	0.028676113
42	0x3cdbc6b5	0.02682815
43	0xbcd023bc	-0.025407664
44	0x3c8f6e6a	0.017508704
45	0xbe1aebbf	-0.15128992
46	0x3c803167	0.015648557
47	0x3cb4221b	0.021988919
48	0x3e0698dd	0.1314425
49	0xbd17b345	-0.0370362
50	0xbe15911b	-0.14606135
51	0x3d21fc66	0.039547347
52	0xbd6bbf98	-0.057555765
53	0xbd526779	-0.05136821
54	0x3db560ff	0.08856391
55	0xbd559528	-0.0521442
56	0xbc53ac4f	-0.0129195
57	0x3d500ab6	0.050791465
58	0x3b2ce566	0.002638185
59	0x3c712443	0.014718118
60	0xbdc766a6	-0.097363755
61	0x3d244ebb	0.040114146
62	0x3d34cca0	0.044140458
63	0xbdd4826d	-0.10376439
64	0xbd460598	-0.04834518
65	0x3c83e2ee	0.01609942
66	0x3d3f7231	0.04673976
67	0xbd3afec6	-0.045653127
68	0x3e165444	0.14680582
69	0x3ceec9dc	0.029148988
70	0xbc8fb34b	-0.017541548
71	0xbd7dc84d	-0.0619586
72	0x3dbd9253	0.09256425
73	0xbcda5549	-0.026651995
74	0x3da0839d	0.07837603
75	0x3de00c61	0.10939861
76	0xbdf3aa2e	-0.118976936
77	0xbceaecbe	-0.02867734
78	0x3c4414a5	0.011967813
79	0x3db0342e	0.086037025
80	0xbce4d473	-0.027933335
81	0xbd3494ae	-0.044087104
82	0xbd7d9ca5	-0.061916966
83	0xbdc414a8	-0.09574252
84	0xbc53796b	-0.012907366
85	0x3df6b532	0.12046279
86	0x3ca9b7bd	0.020717496
87	0x3d2be6d5	0.041968185
88	0xbda2951b	-0.07938596
89	0x3d828ed1	0.06374896
90	0x3dca31ad	0.09872756
91	0x3a9852fa	0.0011621409
92	0x3d9229d9	0.07136888
93	0xbd6e69d4	-0.058206394
94	0x3dfaf2f7	0.12253373
95	0xbd2726e0	-0.04080856
96	0x3dc9e423	0.09857967
97	0xbd3668cd	-0.04453354
98	0x3dfb5932	0.12272872
99	0x3dacdce9	0.08440573
100	0xba1b1c9f	-0.00059170456
101	0x3c254dba	0.010089332
102	0x3d957d58	0.07299298
103	0xbdcaa586	-0.09894852
104	0xbdfe35b4	-0.12412587
105	0x3d9f7326	0.07785635
106	0x3d1ccc23	0.038280617
107	0xbd114b78	-0.035472363
108	0x3d75559d	0.0598961
109	0x3d81a4c1	0.063302524
110	0x3e1987bd	0.14993186
111	0xbe07cd98	-0.13262022
112	0x3d920f09	0.07131774
113	0x3d699274	0.057024434
114	0x3d6a54b8	0.0572097
115	0xbdcce295	-0.100041546
116	0xbd69b54f	-0.057057675
117	0xbd59ab62	-0.05314196
118	0x3d7a9fa4	0.0611874
119	0xbcf3911d	-0.029732281
120	0xbb700f42	-0.0036630188
121	0x3d78226e	0.06057971
122	0xbae2b505	-0.001729638
123	0x3d78dfc7	0.060760286
124	0x3b14abb7	0.0022685358
125	0xbbad5ba6	-0.0052904664
126	0x3b747f1b	0.0037307206
127	0xbd856051	-0.065125115
128	0x3bd006f8	0.006348487
129	0xbbf11211	-0.00735689
130	0x3d80fd9b	0.062983714
131	0xbbf1b500	-0.007376313
132	0x3c9c076e	0.019046512
133	0xbc9b86ae	-0.018985119
134	0x3cfc8e7f	0.030829666
135	0xbcc7582c	-0.024334036
136	0xbda8ab84	-0.08235839
137	0x3cddf344	0.027093537
138	0x3cb91e2c	0.022597395
139	0x3e0c56e9	0.13705029
140	0x3db179fa	0.08665843
141	0x3c81df3f	0.015853522
142	0xbc573e98	-0.013137482
143	0xbb2963ac	-0.0025846763
144	0xbbdd35f4	-0.0067508165
145	0xbbb61573	-0.005556756
146	0xbcf26cb9	-0.029592859
147	0xbd20078b	-0.039069694
148	0x3be8af23	0.007100956
149	0x3d5f9406	0.054584526
150	0xbb97b59a	-0.004629803
151	0x3dec417a	0.11535926
152	0x3b987f98	0.0046538822
153	0x3d064e10	0.03278929
154	0xbc0d488c	-0.008623254
155	0xbd6cf4be	-0.05785059
156	0x3d15d3de	0.036579005
157	0x3d67a091	0.056549612
158	0x3d036193	0.032075476
159	0xbce8b240	-0.028405309
160	0xbdaea894	-0.085282475
161	0x3b839feb	0.0040168664
162	0xbd8966f4	-0.0670909
163	0x3de43479	0.11142821
164	0x3dd77c83	0.105217956
165	0x3d1d709b	0.038437467
166	0xbcc65913	-0.024212396
167	0xbd8a60b3	-0.06756725
168	0x3d968473	0.073494814
169	0xbcb98bf7	-0.022649748
170	0xbca8645b	-0.020555666
171	0x3d78fdce	0.060788922
172	0xbd5e08df	-0.05420768
173	0x3b5a5658	0.0033315625
174	0xbdfa3ef2	-0.12219037
175	0x3db1e7d3	0.08686795
176	0xbcb9819c	-0.02264481
177	0x3db5e0f4	0.08880797
178	0xbcaa264d	-0.020770216
179	0x3d18131f	0.03712761
180	0x3daf28fd	0.0855274
181	0x3d93f0fe	0.072237
182	0xbc36742f	-0.011136099
183	0xbd028a02	-0.031869896
184	0x3de3d441	0.111244686
185	0xbcf3930f	-0.029733209
186	0xbdb7a049	-0.08966119
187	0x3dbf1df2	0.093318835
188	0xbd01136c	-0.031512663
189	0x3dcbb1c2	0.09946014
190	0x3daf31db	0.08554431
191	0xbd4554da	-0.048176624
192	0xbd799ee5	-0.06094255
193	0xbd68e41c	-0.056858167
194	0x3cac4b28	0.021031931
195	0x3c663479	0.014050596
196	0x3dfcc6aa	0.1234258
197	0x3d1632fa	0.03666971
198	0x3e3ef0ed	0.18646593
199	0xbd81f73f	-0.063459866
200	0xbe1aecce	-0.15129396
201	0xbd3e71ac	-0.046495125
202	0x3db1e63d	0.086864926
203	0x3cf8bb68	0.0303628
204	0xbc57a340	-0.01316148
205	0xbcb782a1	-0.022401156
206	0xbdc3aed9	-0.09554834
207	0x3c69ff43	0.014282051
208	0xbd66aa3c	-0.056314692
209	0xbdaab7ae	-0.08335815
210	0x3e37baaa	0.179423
211	0x3d52b2ee	0.051440172
212	0x3c8a0e3f	0.016852496
213	0x3b7d991e	0.0038696001
214	0xbc8b55b6	-0.017008644
215	0xbd1a8f03	-0.037734043
216	0x3cda78c4	0.026668914
217	0x3ddba2a3	0.1072438
218	0x3d4cfce6	0.05004587
219	0x3d06dabd	0.03292345
220	0xbd8d848d	-0.06910048
221	0x3d33e073	0.043915223
222	0xbdc54baf	-0.09633576
223	0xbda0f1c9	-0.07858617
224	0xbdf844ad	-0.12122474
225	0x3d179e5e	0.037016265
226	0x3b9b2016	0.0047340496
227	0x3dc15c92	0.094414845
228	0x3c939c9f	0.018019019
229	0xbdd3e7e1	-0.10346962
230	0xbcf43e17	-0.029814763
231	0xbd1eece5	-0.03880014
232	0xbc436c9c	-0.01192775
233	0xbcf7f438	-0.03026782
234	0xbce87dc2	-0.028380278
235	0xbdbf2039	-0.09332318
236	0xbbab7b5c	-0.0052332114
237	0xbd3b79b4	-0.045770362
238	0x3dc9fc17	0.098625354
239	0xbc718361	-0.014740796
240	0x3c87e9cc	0.016590975
241	0xbe07b7f4	-0.13253766
242	0xbd20fc3d	-0.039303053
243	0x3b938d8d	0.004502958
244	0x3c58cbe4	0.013232205
245	0xbd1dfc3d	-0.03857063
246	0xbd2cf120	-0.042222142
247	0x3d345b16	0.04403218
248	0x3bd0ac98	0.006368231
249	0x3d0ff4e8	0.03514567
250	0xbc819c04	-0.015821464
251	0x3ceb389c	0.028713517
252	0xbe73ba06	-0.23801431
253	0x3c4c9451	0.012486533
254	0x3cb6cee2	0.022315446
255	0xbd082e26	-0.033247136

actor_mean.4.bias f4 [6]
0	0xbd06b203	-0.03288461
1	0xbda4a443	-0.08039143
2	0xbde4de84	-0.11175254
3	0xbcac967f	-0.021067856
4	0x3d4b6a41	0.04966188
5	0x3de91285	0.113804854
