part1/InvertedPendulumBulletEnv-v0_TD3_seed0_td3.pth (torch, 818031 bytes, 15 tensors)

l1.weight f4 [256, 6]
0.3814552 0.49349126 -0.14627661 0.8250095 0.31928566 -0.040329773 -0.14187187 0.22217704
0.35764912 0.9829825 -0.09774157 -0.25709233 0.25002363 -0.27659997 0.17123416 0.7745259
-0.21605927 -0.0031056774 0.27743098 0.60562414 0.0077500637 -0.5442531 0.059160225 0.33604735
0.30851156 0.26687726 -0.07001401 -0.6472923 -0.025532335 -0.46290657 0.95935136 0.008168367
0.11897832 -0.4370211 -0.21528377 0.053436402 -0.10949912 -0.44068608 -0.41170064 -0.6334224
0.13277534 -0.08441626 0.57310635 0.5585886 -0.3533354 0.67080134 -0.1251474 0.22102697
-0.21956444 -0.0065779197 0.3058364 0.034649644 0.31507757 0.08011051 0.8059181 -0.09569295
-0.31830263 1.9346119 0.40071908 -0.103767656 -1.0980729 0.08343434 0.11071993 -0.32615843
0.36086854 -0.072293684 0.089318685 0.32557634 -0.026328303 1.0616974 -0.42264408 0.079150386
-0.02173308 -0.111917675 0.18176469 0.556351 0.11167139 0.106038466 -0.7042718 0.31923324
-0.0814787 0.25397328 0.37667882 -0.027516896 0.054999176 0.31784534 -0.1744684 0.70694876
-0.23682149 0.100604646 -0.16702475 -0.46826175 -0.088678695 -1.2631003 -0.2823998 -0.00075650285
0.117575936 -0.3100463 0.26776505 0.5963888 -0.24325033 -0.10143507 -0.41352552 0.2997033
0.0019690488 -0.69186765 -0.09597589 -0.073570564 -0.2749463 0.45352188 -0.28333366 0.5503577
-0.32569644 -0.039931413 0.2821038 -0.28723922 0.2236853 -0.33609328 0.4378066 -0.18332823
-0.9790331 -0.14013441 -0.04535226 0.93571454 0.08274492 -0.04012573 -0.2243044 -0.366083
-0.22024156 -1.1521899 -0.29450667 0.28212523 -0.41805285 -0.5051544 -0.08524696 -0.031933416
0.4214453 -0.12812251 0.0029873087 0.025472222 0.10363273 -1.2545851 -0.052907985 0.007513385
-0.6588107 0.73477113 0.068252966 -0.20555913 0.37750897 0.01420625 0.28206494 -0.15811652
-0.12942578 -0.27918229 0.045916207 0.0469292 0.2920863 0.19146384 -0.4837078 0.943941
0.18563257 -0.024823716 -0.26456663 0.22151534 0.1160374 1.204371 0.31586847 -0.04881271
0.24875158 -0.10387739 0.09886211 0.8606113 -0.23210357 -0.024629153 0.27856448 -0.10056056
0.17942166 -1.1555405 -0.17921117 -0.32271084 -0.003251178 -0.26723745 0.23496974 -0.9016777
0.35037076 -0.22707248 -0.48474678 0.2032249 -0.23974286 0.2825569 0.28643036 -0.020454286
-0.6712568 0.37555832 0.06924283 0.6741342 0.17676145 -0.09787567 0.3975157 -0.44211283
0.43367514 -0.12235611 -0.27147186 0.005263969 0.24554569 -0.11569197 0.38025388 0.8339664
0.123891965 -0.03596559 -0.46859562 -0.48140046 -0.3076577 1.1992757 0.15609851 -0.10707423
0.042311568 0.076063015 -0.39438713 2.6780767 0.43649134 -0.09820625 0.022177335 -0.15577811
0.33320767 -1.0233265 0.1975465 0.004379183 -0.006303066 -0.06146112 0.20912738 0.6887138
-0.08931488 -0.0075769983 -0.7142178 -0.009025782 0.19013226 0.47709423 0.11188836 -0.029371474
-0.6154558 -0.37694225 -0.090592965 -0.65896136 0.055474587 0.1805039 -0.09528013 -0.18875362
-0.22078459 -0.82654476 -0.1882495 -0.37764305 -0.5921013 0.5527999 -0.35391894 -1.0849458
00000000: 194e c33e e3aa fc3e 89c9 15be d333 533f
00000010: 6979 a33e d530 25bd dc46 11be 6182 633e
00000020: c91d b73e bea4 7b3f bb2c c8bd 9ba1 83be
00000030: 1903 803e 839e 8dbe 0258 2f3e 5447 463f
00000040: a43e 5dbe 9f88 4bbb 6f0b 8e3e 2f0a 1b3f
00000050: 3ff4 fd3b 2c54 0bbf fe51 723d 660e ac3e
00000060: 3af5 9d3e 23a4 883e 8163 8fbd f3b4 25bf
00000070: 3029 d1bc 1702 edbe 0d98 753f 9dd4 053c
00000080: e8aa f33d 3bc1 dfbe 5973 5cbe 21e0 5a3d
00000090: 1341 e0bd 9ba1 e1be 6dca d2be f827 22bf
000000a0: 42f6 073e 6fe2 acbd 19b7 123f aaff 0e3f
000000b0: 61e8 b4be a3b9 2b3f a426 00be e554 623e
000000c0: 80d5 60be 978b d7bb 9796 9c3e c9ec 0d3d
000000d0: d951 a13e fb10 a43d a650 4e3f aafa c3bd
000000e0: 90f8 a2be 5da1 f73f 0d2b cd3e 2384 d4bd
000000f0: a78d 8cbf a0df aa3d 21c1 e23d 3dfe a6be
00000100: c3c3 b83e b60e 94bd b7ec b63d f1b1 a63e
00000110: 74ae d7bc b3e5 873f ce64 d8be 9919 a23d
00000120: 9209 b2bc 1835 e5bd 8620 3a3e 056d 0e3f
00000130: f8b3 e43d b22a d93d 284b 34bf 8a72 a33e
00000140: 4ede a6bd c908 823e 0cdc c03e 1d6b e1bc
00000150: d146 613d a0bc a23e d8a7 32be 98fa 343f
00000160: 5581 72be cf09 ce3d 8908 2bbe 01c0 efbe
00000170: 2d9d b5bd 45ad a1bf b596 90be 0c50 46ba
00000180: a7cb f03d 63be 9ebe 8018 893e f0ac 183f
00000190: 9d16 79be 31bd cfbd 9eb9 d3be b672 993e
000001a0: 280b 013b 3d1e 31bf 028f c4bd 2aac 96bd
000001b0: c3c5 8cbe 0534 e83e 1c11 91be 3ee4 0c3f
000001c0: afc1 a6be 1f8f 23bd e96f 903e 0511 93be
000001d0: c20d 653e 6b14 acbe 3028 e03e 65ba 3bbe
000001e0: eaa1 7abf 657f 0fbe 4bc3 39bd fd8a 6f3f
000001f0: 2b76 a93d e15a 24bd 0db0 65be 3b6f bbbe
00000200: 0187 61be f57a 93bf 94c9 96be b872 903e
00000210: 060b d6be cc51 01bf f595 aebd 9dcc 02bd
00000220: aec7 d73e 8c32 03be b9c6 433b 1fab d03c
00000230: 663d d43d 3f96 a0bf 0bb6 58bd d732 f63b
00000240: d1a7 28bf f619 3c3f 36c8 8b3d 187e 52be
00000250: db48 c13e 55c1 683c d16a 903e 4ce9 21be
00000260: 3188 04be fbf0 8ebe a212 3c3d d538 403d
00000270: 568c 953e 190f 443e 8ca8 f7be 1ea6 713f
00000280: 7716 3e3e 1b5b cbbc 4775 87be ebd4 623e
00000290: 04a5 ed3d d428 9a3f 83b9 a13e d6ef 47bd
000002a0: bcb8 7e3e abbd d4bd 3878 ca3d 0651 5c3f
000002b0: 8fac 6dbe 14c3 c9bc 01a0 8e3e b2f2 cdbd
000002c0: 50ba 373e c0e8 93bf 2283 37be 5b3a a5be
000002d0: b711 55bb 59d3 88be e89b 703e 5ad4 66bf
000002e0: cc63 b33e b085 68be bb30 f8be 301a 503e
000002f0: 277f 75be 4cab 903e 00a7 923e bf8f a7bc
00000300: 7cd7 2bbf 2e49 c03e 2fcf 8d3d 0f94 2c3f
00000310: f400 353e 0a73 c8bd 2e87 cb3e 9d5c e2be
00000320: ab0a de3e d795 fabd 5cfe 8abe 5f7d ac3b
00000330: 5470 7b3e e9ef ecbd a3b0 c23e d27e 553f
00000340: 12bb fd3d a850 13bd c4eb efbe 1f7a f6be
00000350: 4f85 9dbe de81 993f 4ad8 1f3e bc49 dbbd
00000360: e54e 2d3d edc6 9b3d 1ced c9be 9c65 2b40
00000370: cb7b df3e 5c20 c9bd 3ead b53c 4c84 1fbe
00000380: 329a aa3e 5dfc 82bf a149 4a3e 407f 8f3b
00000390: f389 cebb a8be 7bbd 7d25 563e 8c4f 303f
000003a0: b8ea b6bd 7848 f8bb fad6 36bf e0e0 13bc
000003b0: 08b2 423e b245 f43e b925 e53d 729c f0bc
000003c0: 838e 1dbf 93fe c0be ce88 b9bd b1b1 28bf
000003d0: 5239 633d 04d6 383e 3b22 c3bd a148 41be
000003e0: 5b15 62be 7098 53bf 7ac4 40be 6e5a c1be
000003f0: f393 17bf 4b84 0d3f dd34 b5be 81df 8abf

l1.bias f4 [256]
-0.29899615 -0.17208233 0.027391462 -0.25720516 -0.2501965 -0.276641 0.17544603 0.21037188
0.20448698 -0.4528265 -0.398749 0.22295997 0.28991532 -0.38190624 0.24098165 0.123767346
-0.27011776 0.23649924 0.10908847 -0.19555601 -0.12983827 0.37034523 -0.3158662 -0.33663794
0.018120803 0.13354784 0.2523578 0.327825 0.25472486 -0.32955474 -0.051882103 -0.09012916
0.2477029 -0.2405386 -0.09994585 -0.2018994 -0.35173023 -0.11341578 -0.08581834 -0.07289852
0.032284345 -0.0006117695 -0.26220262 -0.38029978 -0.07747051 0.22392547 -0.33436725 -0.0015562854
-0.41812092 0.030638337 -0.03304883 0.09992137 -0.13569508 -0.0025227454 -0.07393288 -0.40758893
0.13547552 0.27916822 0.23549406 0.33643687 0.40189606 -0.033633135 0.41056132 -0.42512217
0.0016374955 -0.20751148 0.46348962 0.2946112 0.054543376 0.006505545 -0.3491668 0.22493768
0.3024033 0.17761002 0.11748718 0.2808615 0.16614108 0.14064686 0.08766216 0.3182423
-0.222454 0.08243634 0.12179968 -0.39719155 0.31547943 0.029466523 0.23294891 0.093662925
0.0044614896 0.24764106 -0.10089323 0.07478212 0.3507927 -0.26316637 -0.21529366 0.31684574
0.10258046 -0.09402411 0.44084492 -0.5327585 -0.19896212 -0.09823284 0.00048671136 0.20123886
-0.2850529 0.30018532 0.08812551 -0.24690492 0.29172793 0.22816578 0.2697329 0.20939314
-0.003848739 -0.3123465 -0.23513548 -0.027052268 0.37374058 -0.1979824 0.10775892 0.33898717
0.19196367 0.17248468 -0.15633708 0.17051022 0.37261352 -0.058637276 -0.1711071 0.3541471
-0.10928698 0.41313156 -0.3296807 0.33260873 0.25991526 0.23499586 -0.25776842 0.17239818
-0.17203112 0.03361258 0.2365181 -0.20831926 0.29050747 0.2824806 -0.40062633 0.34847146
0.3012805 0.085358195 -0.008117535 -0.45925802 -0.09864487 0.2912192 0.09575198 -0.37181982
0.2857341 0.30961636 0.054173015 -0.23360315 0.23347585 0.27157706 -0.26294506 0.37260658
-0.30473095 -0.29896122 0.023991108 -0.13415785 -0.12970874 -0.17047977 0.0705687 0.44942242
-0.24881773 0.14662026 0.2403321 -0.016092062 0.32128352 0.19323733 0.2341917 -0.46257785
-0.27241865 0.09775349 0.26161185 -0.3529134 0.29336238 0.3403855 -0.24810132 -0.27367133
0.13604374 0.29508808 0.013985425 0.12973809 -0.24071726 0.40172863 0.23517303 0.021839939
-0.34212667 -0.32247978 -0.12278289 0.30470872 0.39770442 -0.33042547 -0.3865439 -0.15533768
-0.28659087 -0.33187464 -0.2965771 -0.34702727 -0.06615407 0.13740252 0.09546825 0.2871792
0.4094998 0.2139322 -0.1776579 0.19357765 0.36304805 0.20840405 0.18204093 0.049308177
-0.1426901 0.37902766 -0.20331162 0.16509809 -0.2643276 -0.3412139 -0.34932303 -0.40245622
0.17271581 -0.46244776 -0.061730575 -0.29931387 -0.3349443 -0.32483786 -0.25406808 0.28543282
0.3477112 -0.28775528 -0.061833326 -0.100468874 -0.14018935 0.35274255 -0.032111075 -0.21636114
-0.017136049 0.05598854 -0.045947712 -0.08419885 -0.2559792 0.09062609 -0.17973064 0.36478254
0.2126482 0.087612644 -0.11228054 -0.25034133 -0.17550045 0.25686556 -0.23962924 -0.27887163
00000000: 0616 99be 5a36 30be 0f64 e03c 65b0 83be
00000010: c119 80be e4a3 8dbe 20a8 333e ba6b 573e
00000020: 0965 513e e0d8 e7be d428 ccbe 9e4f 643e
00000030: c86f 943e 3789 c3be e5c3 763e bc79 fd3d
00000040: e04c 8abe db2c 723e c769 df3d d63f 48be
00000050: 53f4 04be e49d bd3e 37b9 a1be cf5b acbe
00000060: 1472 943c c4c0 083e 0b35 813e aed8 a73e
00000070: 4c6b 823e 66bb a8be 5482 54bd a395 b8bd
00000080: d4a5 7d3e c04f 76be 69b0 ccbd b7be 4ebe
00000090: fc15 b4be 8846 e8bd 87c1 afbd d24b 95bd
000000a0: 973c 043d 285f 20ba 6c3f 86be a7b6 c2be
000000b0: dca8 9ebd b84c 653e 2f32 abbe 46fc cbba
000000c0: f213 d6be 40fd fa3c 365e 07bd 93a3 cc3d
000000d0: a7f3 0abe a554 25bb 1f6a 97bd 7faf d0be
000000e0: 18ba 0a3e 23ef 8e3e 5b25 713e 7441 ac3e
000000f0: 52c5 cd3e e6c2 09bd 1835 d23e 9da9 d9be
00000100: 3ba1 d63a e47d 54be 834e ed3e 47d7 963e
00000110: e068 5f3d 782c d53b fec5 b2be 1056 663e
00000120: 9bd4 9a3e 67df 353e 1e9d f03d 14cd 8f3e
00000130: e320 2a3e bb05 103e 3888 b33d a8f0 a23e
00000140: fbca 63be 62d4 a83d 1c72 f93d b15c cbbe
00000150: 8586 a13e c763 f13c 298a 6e3e 59d2 bf3d
00000160: b031 923b 9e95 7d3e 1ca1 cebd 5e27 993d
00000170: 1a9b b33e bebd 86be f175 5cbe 9b39 a23e
00000180: b415 d23d b68f c0bd 6db6 e13e dc62 08bf
00000190: babc 4bbe 4d2e c9bd 4b2d ff39 8f11 4e3e
000001a0: 74f2 91be e4b1 993e 267b b43d a5d4 7cbe
000001b0: 5d5d 953e 4aa4 693e 6e1a 8a3e 286b 563e
000001c0: 203b 7cbb e1eb 9fbe 5bc7 70be b89c ddbc
000001d0: ed5a bf3e e6bb 4abe b5b0 dc3d ba8f ad3e
000001e0: 2092 443e d39f 303e d416 20be 3b9a 2e3e
000001f0: 33c7 be3e a42d 70bd b336 2fbe c552 b53e
00000200: dad1 dfbd fb85 d33e e9cb a8be b14b aa3e
00000210: 9d13 853e c1a2 703e 39fa 83be 2689 303e
00000220: ed28 30be 58ad 093d cd31 723e a551 55be
00000230: 65bd 943e 4ca1 903e e51e cdbe da6a b23e
00000240: 7041 9a3e 47d0 ae3d 69ff 04bc de23 ebbe
00000250: 5206 cabd af1a 953e 9d19 c43d 2b5f bebe
00000260: bd4b 923e 0986 9e3e 86e4 5d3d aa35 6fbe
00000270: 4b14 6f3e 260c 8b3e bca0 86be 4ac6 be3e
00000280: b205 9cbe 7211 99be 0089 c43c ad60 09be
00000290: 5ed2 04be 4092 2ebe 5386 903d b21a e63e
000002a0: 13ca 7ebe 9f23 163e 9e19 763e 80d3 83bc
000002b0: 467f a43e 02e0 453e f3cf 6f3e 01d7 ecbe
000002c0: 757a 8bbe fb32 c83d fdf1 853e 11b1 b4be
000002d0: 9833 963e 0247 ae3e 460e 7ebe a61e 8cbe
000002e0: 0d4f 0b3e c915 973e 2023 653c 10da 043e
000002f0: 967e 76be 60af cd3e 33d1 703e ace9 b23c
00000300: 3a2b afbe 121c a5be 9975 fbbd c802 9c3e
00000310: ea9f cb3e 872d a9be 15e9 c5be d710 1fbe
00000320: 0abc 92be 79eb a9be f4d8 97be 8fad b1be
00000330: c97b 87bd 3fb3 0c3e dc84 c33d 2709 933e
00000340: f5a9 d13e 0b11 5b3e f4eb 35be 3839 463e
00000350: 6fe1 b93e df67 553e f068 3a3e 5ff7 493d
00000360: 5b1d 12be ea0f c23e ec30 50be 790f 293e
00000370: f255 87be 97b3 aebe 78da b2be be0e cebe
00000380: 6adc 303e f4c5 ecbe 33d9 7cbd ab3f 99be
00000390: d27d abbe 2651 a6be 3615 82be 4024 923e
000003a0: 3407 b23e a954 93be f144 7dbd a0c2 cdbd
000003b0: cc8d 0fbe ac9a b43e e786 03bd c68d 5dbe
000003c0: e660 8cbc 3d54 653d ab33 3cbd 7270 acbd
000003d0: b50f 83be 2c9a b93d 4f0b 38be c7c4 ba3e
000003e0: 73c0 593e 426e b33d 57f3 e5bd bd2c 80be
000003f0: 64b6 33be e283 833e 5e61 75be 43c8 8ebe

l2.weight f4 [256, 256]
-0.56026226 -0.19332527 -0.28240246 0.46152434 0.50151 -0.011882327 -1.4873013 -0.7687374
-0.008514577 0.005963072 -0.26332754 -0.4700904 -0.15438643 -0.031835414 -0.8713414 0.37822664
-0.07666153 0.083835535 -1.3038585 -0.8012877 0.041195877 0.19968049 0.05177141 2.4055002
0.091981456 0.13289937 -0.6180139 -0.8756461 -0.10191332 0.2971316 0.28288722 -0.36513767
-0.5565381 0.11150428 -0.13890217 -0.044581264 0.036506012 0.38160315 -0.4261808 -0.90729475
0.4571471 0.37272638 -0.776357 -0.038444966 -0.29288697 -0.11524367 0.98477006 1.7213743
-3.0848053 -0.046762645 -4.826159 -0.18332759 -1.7458477 0.16744743 0.04327073 0.8842109
0.7458533 -0.0798409 -0.55638105 0.04954984 1.1015754 0.031343356 -0.21982051 1.5259892
0.041501235 -2.5795863 0.1316741 0.13226448 0.35464716 0.06075467 -0.07571703 0.14108635
-0.073076606 -0.88970006 -0.1998164 0.15245332 -0.329107 -0.03289832 1.6814399 -1.5366123
-1.4203343 0.106518134 0.551464 0.011342481 -0.04978224 -0.06909692 0.11629529 0.18469802
-0.024966419 2.6529434 -0.027952574 -0.29672626 -1.2404511 -0.47014582 0.462776 0.02456415
-0.23730947 -0.20134588 -1.8761561 -0.04047466 -0.06835075 -0.19078285 1.4410355 -0.11697224
-5.105586 -0.26603884 -0.020063356 -0.54228747 -2.1305506 0.4177025 -5.4034816e-05 -0.22162063
-0.2572733 -0.08234843 0.5868812 0.09748494 0.42373744 0.004908316 -0.057816193 -0.10660415
0.023448605 -0.6912679 0.7183734 -0.3681667 0.21566322 1.5588164 -0.3514647 -0.1427058
-1.381037 -0.34680173 -0.32427487 0.09100406 -0.3590909 -0.2489099 -0.43790576 0.16194597
-0.011374056 -0.44206262 -0.0743799 -0.8476385 -0.086998 0.21184574 0.47156107 -0.43575925
-0.03584546 -1.177313 -0.45973235 0.028728463 -3.362646 -0.16269265 0.09016495 -1.178931
-0.15553291 0.10457369 -0.96864057 -1.7197293 -1.9718044 0.18700942 -0.05614809 0.66148067
0.03778197 0.05887478 -0.0137511585 0.56369394 -0.0574454 0.35782194 0.42374453 -0.28106385
-0.43108484 -0.5377079 0.15558176 -0.050346516 0.43336555 0.030167479 0.011796272 -0.051949978
-2.7215874 -0.038968578 -0.43158525 -0.8773913 0.14434336 -0.14778253 -0.5774186 1.0619091
0.033350598 0.4628694 0.0032502927 0.21814863 0.7222863 -0.20065808 0.29421303 -0.2578309
-0.019939072 -0.3206918 -0.23931547 -0.6972663 -0.5007451 -0.06147185 0.041964106 -0.02575513
0.36359036 0.8539832 -0.79773617 -0.50227326 0.037658222 -0.36151546 -0.02185747 -1.7316753
-3.3958118 -1.6565218 0.46644697 -1.3315558 -0.097112484 0.025762025 0.3659593 -2.0446792
1.0292157 0.25214237 -0.3705547 0.49467626 -0.019830957 0.020449527 0.036739565 -0.009946503
0.302824 -0.4946472 0.51222706 0.020856999 -2.9220166 -0.0017265901 1.2199436 -0.014286293
0.016503785 0.025359541 0.19953774 0.14216536 -0.9640388 0.053032804 -0.9439261 -0.0040997625
0.041945294 -0.33287978 0.05529438 -0.0016058907 -0.032622635 -0.97839284 -0.5279404 -0.25883967
0.018181732 0.5524669 0.01794181 -0.17638357 0.0014557298 0.3366984 -0.3564823 0.58399165
00000000: 596d 0fbf 0ff7 45be 0e97 90be eb4c ec3e
00000010: f662 003f 17ae 42bc e45f bebf f9cb 44bf
00000020: b980 0bbc e065 c33b ded2 86be b0af f0be
00000030: 7a17 1ebe da65 02bd 3b10 5fbf eca6 c13e
00000040: b800 9dbd f7b1 ab3d d6e4 a6bf 3121 4dbf
00000050: 02bd 283d 0b79 4c3e 420e 543d b7f3 1940
00000060: c660 bc3d c616 083e 2936 1ebf 582a 60bf
00000070: eeb7 d0bd a221 983e 98d6 903e 53f3 babe
00000080: 4879 0ebf 5b5c e43d 5f3c 0ebe d89a 36bd
00000090: 5487 153d 7d61 c33e 5f34 dabe 7844 68bf
000000a0: 2f0f ea3e fed5 be3e 55bf 46bf 7878 1dbd
000000b0: 48f5 95be e004 ecbd e419 7c3f fe55 dc3f
000000c0: 736d 45c0 308a 3fbd e56f 9ac0 3aba 3bbe
000000d0: f077 dfbf 5777 2b3e a63c 313d a55b 623f
000000e0: 3ef0 3e3f a083 a3bd fd6e 0ebf c6f4 4a3d
000000f0: 6c00 8d3f e461 003d a118 61be 9d53 c33f
00000100: 33fd 293d f117 25c0 93d5 063e 5770 073e
00000110: 5094 b53e e4d9 783d 8811 9bbd f178 103e
00000120: 30a9 95bd 62c3 63bf ac9c 4cbe b91c 1c3e
00000130: b680 a8be 64c0 06bd 6c39 d73f b6af c4bf
00000140: 84cd b5bf 2e26 da3d bf2c 0d3f d0d5 393c
00000150: 76e8 4bbd b082 8dbd 3a2c ee3d 7a21 3d3e
00000160: 6086 ccbc d3c9 2940 ccfc e4bc 81ec 97be
00000170: 1ac7 9ebf f4b6 f0be faf0 ec3e c23a c93c
00000180: 4101 73be 9d2d 4ebe e225 f0bf c2c8 25bd
00000190: 7afb 8bbd 945c 43be da73 b83f 248f efbd
000001a0: f660 a3c0 3e36 88be e85b a4bc 5ad3 0abf
000001b0: f15a 08c0 1add d53e 71a3 62b8 85f0 62be
000001c0: 53b9 83be 4ba6 a8bd d93d 163f 2fa6 c73d
000001d0: 1df4 d83e f0d5 a03b acd0 6cbd 4753 dabd
000001e0: 4a17 c03c eff6 30bf 52e7 373f 5880 bcbe
000001f0: d2d6 5c3e 4c87 c73f 2ef3 b3be 7821 12be
00000200: d2c5 b0bf ff8f b1be 5b07 a6be 5660 ba3d
00000210: c3da b7be 3de2 7ebe 2f35 e0be 2ad5 253e
00000220: 405a 3abc 0856 e2be 7d54 98bd d6fe 58bf
00000230: 022c b2bd 17ee 583e 7470 f13e d61b dfbe
00000240: b0d2 12bd 31b2 96bf 0a62 ebbe f457 eb3c
00000250: 9835 57c0 e798 26be 67a8 b83d 36e7 96bf
00000260: 0544 1fbe bb2a d63d d4f8 77bf 1720 dcbf
00000270: 1664 fcbf 667f 3f3e 8afb 65bd cc56 293f
00000280: 44c1 1a3d ae26 713d 8a4c 61bc 3f4e 103f
00000290: de4b 6bbd 7034 b73e 0bf5 d83e 9ae7 8fbe
000002a0: 27b7 dcbe 3aa7 09bf d350 1f3e 2638 4ebd
000002b0: 17e2 dd3e ca21 f73c 2745 413c 80c9 54bd
000002c0: 7d2e 2ec0 849d 1fbd bef8 dcbe b79c 60bf
000002d0: bfce 133e 4e54 17be b5d1 13bf a3ec 873f
000002e0: a39a 083d 38fd ec3e dd02 553b 5b62 5f3e
000002f0: c1e7 383f 5079 4dbe 17a3 963e 6902 84be
00000300: 4457 a3bc b731 a4be 1d0f 75be 0b80 32bf
00000310: d530 00bf e8c9 7bbd 8ee2 2b3d 6cfc d2bc
00000320: 8428 ba3e a59e 5a3f 7038 4cbf fb94 00bf
00000330: 823f 1a3d 8e18 b9be 700e b3bc 89a7 ddbf
00000340: fb54 59c0 e808 d4bf 23d2 ee3e 6c70 aabf
00000350: e9e2 c6bd e20a d33c 045f bb3e 06dc 02c0
00000360: 57bd 833f ce18 813e 58b9 bdbe 3546 fd3e
00000370: 8874 a2bc c485 a73c 3a7c 163d a8f6 22bc
00000380: bf0b 9b3e 6642 fdbe 5021 033f 4cdc aa3c
00000390: 5202 3bc0 c04e e2ba 1d27 9c3f 0e11 6abc
000003a0: f232 873c d0be cf3c 9f53 4c3e cc93 113e
000003b0: 3fcb 76bf ed38 593d 24a5 71bf 4d57 86bb
000003c0: d4ce 2b3d 386f aabe 5c7c 623d c07c d2ba
000003d0: 509f 05bd f477 7abf 1a27 07bf a286 84be
000003e0: dbf1 943c 796e 0d3f b4fa 923c e59d 34be
000003f0: 30ce be3a bc63 ac3e d984 b6be 7a80 153f

l2.bias f4 [256]
0.010435875 0.001294627 0.00882068 0.014901299 -0.037737574 0.098337725 -0.071092024 -0.059813052
-0.048288837 -0.016085783 0.0077491617 -0.052932184 -0.047346555 -0.006831983 -0.037039272 -0.03555455
-0.0077069555 0.03596634 0.02279605 0.14737931 0.0016567643 0.046263658 0.13570932 -0.013690042
0.12253647 -0.010475599 0.010900915 0.007104081 -0.036729027 -0.07642574 -0.11951403 -0.049991556
0.012705391 0.009781118 -0.069871426 0.0014728258 0.056203324 0.064755194 -0.07154297 0.015985973
-0.08908271 0.054192938 -0.018348364 0.053545862 0.009530403 0.10501192 0.09293519 0.109464936
0.010773241 0.030658811 0.14312878 0.0057983985 0.060336344 0.015934076 0.084412515 0.11215808
-0.05358692 -0.053185444 -0.06927319 -0.047969345 0.027670423 0.013898723 0.1506629 -0.012025607
0.09100623 0.12230252 0.011178861 0.01876393 -0.05437049 0.03176174 0.14062367 0.07285352
0.0376385 0.08563815 -0.05816043 -0.06946182 0.08511657 0.06618011 -0.0017596687 0.019200796
0.100962594 0.08833094 -0.09175112 0.0224623 -0.06785674 0.08833033 0.057909183 0.043312036
-0.048243575 -0.041256987 -0.059090342 -0.043094035 0.001660236 0.12908933 -0.06720512 -0.033792328
-0.03026812 -0.008028189 0.13688305 -0.09491099 -0.07271681 0.23352894 0.04312295 0.07707973
0.11930929 0.11968064 0.0020528617 0.11693654 0.023887182 0.011976209 0.099553265 0.053004812
-0.07547589 0.01599108 -0.010061938 -0.009416903 0.09578865 -0.051032964 0.05067327 -0.011675434
0.026750496 -0.022815512 0.021957975 -0.066026956 -0.030179428 -0.0101561425 -0.020735018 0.041572172
0.104910426 0.055164456 -0.013565437 -0.033785976 0.044251237 -0.24664569 -0.026220948 0.09447468
-0.009710742 0.033894293 -0.061286733 -0.0024455788 0.014960962 0.061003163 -0.0001602199 -0.003310033
0.060520034 0.022317423 0.07763632 0.034377467 -0.019535096 -0.045534622 0.06390325 0.0361679
-0.019307904 -0.07061086 0.047541086 -0.06439202 -0.037692826 0.021068597 0.038888652 0.10595105
0.110536 -0.0034228116 0.0077885585 -0.09580993 0.021033645 -0.07882372 -0.06674455 0.051562257
-0.06193663 0.10540226 -0.079195976 0.0100412415 -0.14349888 -0.052029956 0.008934376 -0.017683022
0.098748595 0.07580683 0.027344799 0.15995932 0.08048237 0.12226612 0.05414138 -0.00041188937
-0.029471068 0.008679182 0.028694281 0.018356424 0.041724723 0.04829104 -0.050300825 0.07421951
-0.07649093 -0.064322144 0.04821149 -0.03579819 0.09038127 0.01873793 0.018754704 0.049625117
-0.016402548 0.04941632 0.055293296 0.03327303 -0.031461705 -0.059692476 -0.09187186 -0.03157385
-0.033975556 0.018218948 -0.07188729 0.056572493 -0.020044575 0.004673744 0.049260452 0.02861637
-0.03860677 -0.010837123 0.14550924 0.0043103946 0.10144328 0.08315344 0.049379405 0.10025036
-0.033823613 -0.05670504 -0.065111704 0.0734211 -0.032486923 0.04661443 0.023258753 -0.038405772
0.06138088 0.11754147 -0.0682826 -0.07189616 0.07050772 -0.0766578 -0.01618248 1.2555728e-05
-0.06612137 -0.0912799 0.055188082 -0.0060601104 -0.009662348 -0.07816833 -0.008682282 -0.016975543
-0.042712685 0.077107005 0.11156901 -0.00038881873 0.1014825 0.029199747 -0.010366493 -0.04467489
00000000: 3bfb 2a3c 79b0 a93a 9d84 103c 9424 743c
00000010: b792 1abd 4a65 c93d b298 91bd 88fe 74bd
00000020: 84ca 45bd 55c6 83bc aeec fd3b 6bcf 58bd
00000030: 76ee 41bd d4de dfbb 7eb6 17bd a6a1 11bd
00000040: a18a fcbb 7151 133d c8be ba3c 9aea 163e
00000050: c927 d93a f67e 3d3d 62f7 0a3e 334c 60bc
00000060: 67f4 fa3d d9a1 2bbc c099 323c 5ac9 e83b
00000070: 2d71 16bd 1985 9cbd c6c3 f4bd f2c3 4cbd
00000080: 462a 503c fb40 203c c018 8fbd d50b c13a
00000090: 7535 663d 5f9e 843d 1f85 92bd 04f5 823c
000000a0: ff70 b6bd 6af9 5d3d 4f4f 96bc e852 5b3d
000000b0: 6825 1c3c 7d10 d73d ce54 be3d 272f e03d
000000c0: 3f82 303c 3028 fb3c 5a90 123e 7e00 be3b
000000d0: 3e23 773d 2e88 823c 78e0 ac3d 23b3 e53d
000000e0: f57d 5bbd fbd8 59bd 1adf 8dbd 817b 44bd
000000f0: 15ad e23c 78b7 633c 6047 1a3e 0d07 45bc
00000100: 7961 ba3d be79 fa3d 8b27 373c d0b6 993c
00000110: 97b3 5ebd 9918 023d a7ff 0f3e 3a34 953d
00000120: d42a 1a3d 0e63 af3d a239 6ebd 0042 8ebd
00000130: 9951 ae3d 7089 873d afa4 e6ba fd4a 9d3c
00000140: 7ac5 ce3d dae6 b43d 03e8 bbbd db02 b83c
00000150: 79f8 8abd 88e6 b43d 2e32 6d3d f667 313d
00000160: 0e9b 45bd 16fd 28bd b708 72bd 5f83 30bd
00000170: 479c d93a fe2f 043e d7a2 89bd d369 0abd
00000180: d9f4 f7bc aa88 03bc 122b 0c3e b160 c2bd
00000190: 8dec 94bd 3622 6f3e b1a1 303d fadb 9d3d
000001a0: 6e58 f43d 201b f53d 4e89 063b 6d7c ef3d
000001b0: 0daf c33c dc37 443c 95e2 cb3d 931b 593d
000001c0: 1a93 9abd baff 823c d4da 24bc 5b49 1abc
000001d0: d72c c43d f107 51bd c68e 4f3d 524a 3fbc
000001e0: db23 db3c 99e7 babc 36e1 b33c 2439 87bd
000001f0: d93a f7bc f365 26bc 7cdc a9bc 9547 2a3d
00000200: 47db d63d 20f4 613d 9141 5ebc 2a63 0abd
00000210: c940 353d b090 7cbe 50cd d6bc f17b c13d
00000220: ce19 1fbc bed4 0a3d cc07 7bbd 0146 20bb
00000230: d31e 753c 74de 793d b400 28b9 23ed 58bb
00000240: dbe3 773d 07d3 b63c caff 9e3d 63cf 0c3d
00000250: 1108 a0bc 8382 3abd b5df 823d cb24 143d
00000260: 9c2b 9ebc 6d9c 90bd 71ba 423d f7df 83bd
00000270: cb63 1abd 0d98 ac3c b549 1f3d ddfc d83d
00000280: b360 e23d 4051 60bb 2a37 ff3b ff37 c4bd
00000290: c04e ac3c 556e a1bd 5eb1 88bd f232 533d
000002a0: 44b1 7dbd 24dd d73d 8031 a2bd 0584 243c
000002b0: 5ff1 12be 5d1d 55bd 7d61 123c fcdb 90bc
000002c0: b43c ca3d 9c40 9b3d 3302 e03c 60cc 233e
000002d0: f1d3 a43d a966 fa3d 5ac3 5d3d dbf2 d7b9
000002e0: 4f6d f1bc 2133 0e3c 4510 eb3c 3660 963c
000002f0: 8be7 2a3d d3cc 453d 3d08 4ebd 6600 983d
00000300: 47a7 9cbd 54bb 83bd 6979 453d 1fa1 12bd
00000310: d119 b93d 4a80 993c 77a3 993c b543 4b3d
00000320: a35e 86bc c468 4a3d 397b 623d 4d49 083d
00000330: fddd 00bd 1980 74bd 5027 bcbd 9553 01bd
00000340: f429 0bbd e73f 953c a539 93bd 8fb8 673d
00000350: 8534 a4bc 3526 993b 54c5 493d e16c ea3c
00000360: 2222 1ebd 308e 31bc 6000 153e 363e 8d3b
00000370: 7fc1 cf3d 5a4c aa3d 0f42 4a3d 1050 cd3d
00000380: a18a 0abd 8b43 68bd 4959 85bd cd5d 963d
00000390: 0211 05bd c6ee 3e3d 2489 be3c 5f4f 1dbd
000003a0: 856a 7b3d 95b9 f03d bfd7 8bbd 4b3e 93bd
000003b0: 5a66 903d c4fe 9cbd 1f91 84bc 71a6 5237
000003c0: a46a 87bd f5f0 babd e60c 623d e493 c6bb
000003d0: d34e 1ebc b816 a0bd 2140 0ebc 4b10 8bbc
000003e0: 7ff3 2ebd 47ea 9d3d 4b7e e43d 5eda cbb9
000003f0: 0fd6 cf3d 4f34 ef3c 39d8 29bc 04fd 36bd

l3.weight f4 [1, 256]
-4.8961587 -2.5894105 -0.039227873 -0.016931677 -2.1232445 0.4721652 -0.046554133 -0.051133968
0.055375353 -0.029500969 -0.02554811 -0.004384854 -0.004782443 0.4919403 -0.84765154 -1.6139816
-0.051391963 0.63329107 -0.0010315079 1.5992953 -0.012020329 -0.016401546 0.6322881 0.42956388
0.71699405 -3.3892324 0.54270446 -0.73574257 -0.040334746 0.56119895 -0.992146 -0.022595545
1.3112435 0.62843204 -0.04541151 0.054003697 0.52976257 0.5997498 -0.0032126184 0.6628911
-2.674664 0.6287993 -3.9344325 0.5428128 0.028049193 0.62378275 0.59862477 0.5200191
0.8502121 -2.780026 0.61969095 -1.5280546 0.52026534 0.31291094 0.470761 0.7563044
-1.0030243 -0.04987616 -1.4869304 -0.0027826093 0.58334064 -0.02947455 0.68480533 0.5847051
0.60438 1.3077476 0.7467409 -2.6318502 0.003937858 -0.028188558 0.6604489 0.7258821
0.34675032 0.71410406 0.27869663 -0.7332652 -0.4585756 0.63357437 0.14406341 -0.006880591
0.698302 0.74210584 -1.880252 -2.6880171 -1.8029834 -0.74640614 0.57871 -0.18451968
-3.6719277 -0.017282259 -0.033843197 -0.021098582 -0.022462526 0.69374216 -0.030903338 -0.68349445
-0.049785767 -0.031391878 1.4149594 2.5615253 -0.03568957 -0.50429857 0.50409937 0.56700414
0.6275155 1.3702972 -1.7684307 0.68513644 -0.05437131 -0.04030339 0.9870986 0.5314481
-0.0032913177 0.61801773 1.2465112 -0.03299356 0.7516462 0.0028008334 0.6281509 -1.2193695
-1.7553748 -4.9764223 -0.052286748 -2.5717413 -0.009171143 -0.052023727 -0.05116681 1.485558
0.5903791 0.4399315 0.08044814 -0.0029776439 0.6581564 2.7911267 0.30172196 0.53622305
0.56802183 0.6753239 -0.0004433502 0.17922787 -1.043016 0.53965324 -0.003628169 -0.045316685
-0.8706173 0.5722086 1.6373359 0.7714292 -0.05173576 0.007502506 0.56576306 0.002954755
0.521468 0.8856453 0.6625672 -1.8132958 -0.058644425 0.62720245 -0.054803126 -1.163798
1.4192766 0.003794947 -0.03713349 0.7830315 -0.03773246 0.26736343 -0.052000232 0.6132154
-1.473609 0.50801694 -1.3928014 -0.025625797 -0.63035744 -0.03979115 0.6882366 -0.045195192
-0.897528 0.6827 0.4509311 -0.5294713 0.47216386 0.46151358 0.5275154 -0.0059318896
0.7965301 -1.7175077 -2.7883518 0.38616347 0.6826373 1.2474854 -1.6589257 -0.9503337
-1.845757 -1.8799336 0.6662589 -0.03714515 -0.9809848 -0.025321994 0.5972477 0.6216987
-2.3445835 0.44407624 -0.03662711 -0.03343051 -0.0019029606 0.00038126862 -1.9633876 -1.5075675
0.010948589 -0.04421774 -0.0049371244 0.57413757 -1.4936289 -0.047931798 0.071400695 -0.05021512
-0.054198574 0.002359437 1.7400995 0.66299576 0.8382818 0.7203225 0.7056753 0.567497
-0.00409358 -2.0161076 -2.4685798 1.4994551 -0.04406043 0.6484611 0.7048383 -0.043169048
-4.2535267 0.6300821 -1.4387158 -0.0001447166 0.29130888 -2.7170832 -0.0046269973 -3.9864266
-0.031174235 0.38378024 -0.40532422 0.9287081 -2.8785703 0.026677115 0.46494576 0.04633415
-2.1968193 0.76167864 1.6773938 -1.5063369 0.63577646 0.5158954 -0.03430287 0.05083226
00000000: 55ad 9cc0 e7b8 25c0 68ad 20bd 4db4 8abc
00000010: 3de3 07c0 a3bf f13e 8caf 3ebd da71 51bd
00000020: 44d1 623d 04ac f1bc 454a d1bc d2ae 8fbb
00000030: 0ab6 9cbb 99df fb3e b1ff 58bf f396 cebf
00000040: 6180 52bd 5d1f 223f a933 87ba b5b5 cc3f
00000050: eaf0 44bc 895c 86bc a2dd 213f ccef db3e
00000060: ec8c 373f 2fe9 58c0 aeee 0a3f a059 3cbf
00000070: 0c36 25bd bcaa 0f3f 48fd 7dbf 4b1a b9bc
00000080: d4d6 a73f ece0 203f 6b01 3abd fb32 5d3d
00000090: 859e 073f 3489 193f cb8a 52bb 3bb3 293f
000000a0: b22d 2bc0 fef8 203f becd 7bc0 c8f5 0a3f
000000b0: 6cc7 e53c 3ab0 1f3f 793f 193f f91f 053f
000000c0: 80a7 593f f2eb 31c0 11a4 1e3f 4b97 c3bf
000000d0: 1c30 053f dd35 a03e 9607 f13e 2a9d 413f
000000e0: 1a63 80bf f24a 4cbd bc53 bebf 705c 36bb
000000f0: d055 153f 9d74 f1bc 674f 2f3f 3caf 153f
00000100: a6b8 1a3f 4664 a73f 692a 3f3f 3c70 28c0
00000110: 2609 813b b1eb e6bc 2e13 293f 69d3 393f
00000120: 4289 b13e 86cf 363f 53b1 8e3e 45b7 3bbf
00000130: 6cca eabe ee31 223f 5c85 133e 9576 e1bb
00000140: ebc3 323f a6fa 3d3f 19ac f0bf 7908 2cc0
00000150: 29c8 e6bf 7914 3fbf 5726 143f baf2 3cbe
00000160: dd00 6bc0 8693 8dbc 2a9f 0abd efd6 acbc
00000170: 5503 b8bc 1699 313f ff28 fdbc 7ef9 2ebf
00000180: 29ec 4bbd c594 00bd 641d b53f 08f0 2340
00000190: 3a2f 12bd b619 01bf a80c 013f 2f27 113f
000001a0: dba4 203f e665 af3f f05b e2bf 1a65 2f3f
000001b0: 73b4 5ebd 2b15 25bd 7eb2 7c3f fc0c 083f
000001c0: 26b3 57bb 6936 1e3f ae8d 9f3f 4124 07bd
000001d0: e36b 403f 308e 373b 7fce 203f 4d14 9cbf
000001e0: 1fb0 e0bf da3e 9fc0 a12a 56bd 6997 24c0
000001f0: 9042 16bc d516 55bd 4a94 51bd c426 be3f
00000200: 1623 173f b43e e13e ffc1 a43d 9324 43bb
00000210: f07c 283f d2a1 3240 4d7b 9a3e ea45 093f
00000220: e169 113f 07e2 2c3f 7571 e8b9 8387 373e
00000230: 8c81 85bf b726 0a3f 93c6 6dbb fd9d 39bd
00000240: c6e0 5ebf 437c 123f 3994 d13f 627c 453f
00000250: e0e8 53bd 95d7 f53b d9d5 103f 90a4 413b
00000260: ed7e 053f a6b9 623f 019e 293f 141a e8bf
00000270: 2335 70bd 5790 203f 3e79 60bd 55f7 94bf
00000280: dbaa b53f a5b4 783b 4919 18bd c174 483f
00000290: 5a8d 1abd dce3 883e 32fe 54bd affb 1c3f
000002a0: 389f bcbf 660d 023f 5147 b2bf 31ed d1bc
000002b0: 1b5f 21bf 0bfc 22bd 4630 303f 981e 39bd
000002c0: 65c4 65bf 6dc5 2e3f 71e0 e63e 6e8b 07bf
000002d0: 76bf f13e 824b ec3e 400b 073f 4c60 c2bb
000002e0: 66e9 4b3f 4bd7 dbbf 5b74 32c0 38b7 c53e
000002f0: 51c1 2e3f 9aad 9f3f ad57 d4bf 1249 73bf
00000300: c441 ecbf aaa1 f0bf f18f 2a3f 8325 18bd
00000310: d221 7bbf 1270 cfbc 3ae5 183f a527 1f3f
00000320: a80d 16c0 f65d e33e 4f06 16bd 6eee 08bd
00000330: c36c f9ba 02e5 c739 4950 fbbf f9f7 c0bf
00000340: b661 333c a91d 35bd 9ac7 a1bb aefa 123f
00000350: 3b2f bfbf 2254 44bd 873a 923d 5fae 4dbd
00000360: 53ff 5dbd c9a0 1a3b 95bb de3f 17ba 293f
00000370: a399 563f 0e67 383f 23a7 343f 7c47 113f
00000380: 7023 86bb e807 01c0 36fd 1dc0 25ee bf3f
00000390: b678 34bd 8c01 263f 4870 343f 07d2 30bd
000003a0: e41c 88c0 0f4d 213f d727 b8bf 11bf 17b9
000003b0: 7026 953e b1e4 2dc0 119e 97bb 9d21 7fc0
000003c0: 1c61 ffbc d87e c43e a886 cfbe d0bf 6d3f
000003d0: 7f3a 38c0 f789 da3c 5f0d ee3e e1c8 3d3d
000003e0: b098 0cc0 5ffd 423f d7b4 d63f a6cf c0bf
000003f0: 3fc2 223f b911 043f 2b81 0cbd 7d35 503d

l4.weight f4 [256, 6]
-0.15773259 -0.21931842 0.31047902 1.0830071 0.14160398 -0.09079907 -0.53562003 -0.015466482
0.25976884 -0.42830914 -0.30143416 0.4871358 0.097429976 -0.04631118 -0.28109148 -1.7552177
-0.20097163 0.042304054 -0.55856276 0.046902183 -0.50040734 0.5571531 0.33274603 -0.049299743
-0.050572436 -0.17051002 0.1969125 -0.026932847 -0.034475222 0.2454633 0.4365122 0.4520311
-0.080965534 1.0968455 0.30158556 -0.016435867 -0.11302704 0.08883859 -0.052463125 1.4425088
0.11965748 -0.020753711 -0.0057558017 0.29755634 0.19656849 -0.20670655 -0.025429793 0.044152334
0.21383724 0.22244751 -0.23804083 0.7312051 0.16273707 -0.017982688 -0.34042248 -0.49710223
-0.25033915 -0.40151712 0.29548952 0.28458062 -0.53416187 0.25786823 0.12552436 0.14946468
0.18729077 -0.04453547 -0.004708469 -0.117367566 -0.25322428 0.022907704 0.06691459 0.12818801
-0.12368803 0.29688445 0.18194394 0.9376785 0.1157001 0.24888651 0.13410679 -0.4426682
0.21341221 0.889021 -0.16700278 -0.06119213 -0.3976001 -0.34916165 -0.37912214 -0.81272936
-0.2571787 0.023362797 0.30798548 -0.3585589 -0.049452342 -1.1518323 0.25845665 0.20682383
-0.48267338 0.08721492 -0.30626604 1.4174538 0.28676096 0.23573747 -0.07181906 -0.031429786
0.37226707 0.26201916 0.13387151 0.12485247 -0.20481478 0.78579736 -0.2693364 -0.41736794
-0.2479405 -0.17203903 0.21221086 -0.5515317 0.23893969 0.1319042 -0.2889571 -0.063794374
-0.5105056 -0.18981636 -0.43966377 0.87981296 0.28798705 0.1807345 0.104333304 0.35231167
0.025108013 0.23388322 0.20165347 0.030186607 -0.8082648 0.46028754 -0.029485622 0.58446133
0.45982003 -0.07275371 -0.030879332 -0.09058797 0.2749428 0.44313708 0.15553762 -0.12733825
-0.14784929 0.24009019 0.32329148 1.0159836 0.25512102 -0.021515626 -0.65817785 -0.50418985
-0.35819122 0.8916274 0.2918608 -0.21413134 0.4052435 -0.100973405 0.23585151 0.5448343
-0.15771177 -0.12718515 0.056543104 0.026170945 -0.33604294 -1.4854007 -0.115084 0.028740793
0.10490409 0.73797417 -0.33101085 -1.0275064 -0.16430166 -0.14030188 0.5094142 -0.25279224
0.18604314 -1.4226816 -0.22933315 0.035676096 0.36447978 0.5460559 -0.02297842 -0.335938
0.24821015 0.009047875 0.39031407 -0.29457033 0.2930609 0.08899749 -0.15490417 -0.016907906
-0.65900964 -0.348526 -0.4282032 -1.3621647 -0.29298416 0.03169729 -0.09796348 0.38258645
0.094650134 0.8837082 0.33378902 -0.14216392 0.0011661923 0.20561147 0.41287372 1.0347275
0.25361407 -0.020761624 -0.09136123 -0.47084865 0.2820727 0.71032023 -0.15762037 -0.07602717
-0.31003985 0.1165406 0.3887719 0.9803349 -0.3944717 0.16192593 0.1454333 0.41817412
-0.067714475 1.17224 0.24942762 -0.0112966355 0.28040478 0.6317499 -0.2778846 0.1594565
0.15581208 0.30652994 -0.18901932 0.7451548 -0.24101721 -0.5787311 0.47305617 0.27840966
-0.10438337 -0.194079 0.23208597 -0.86581826 0.1284784 0.031442508 0.008440546 0.2028474
0.25567952 -1.0891414 -0.09828795 -0.041076686 -0.12927021 0.09630344 -0.3640986 1.3839084
00000000: a784 21be 0295 60be 1bf7 9e3e fa9f 8a3f
00000010: a200 113e ddf4 b9bd 651e 09bf 2167 7dbc
00000020: 6c00 853e 564b dbbe 9455 9abe dd69 f93e
00000030: 5e89 c73d cbb0 3dbd 39eb 8fbe f9aa e0bf
00000040: 82cb 4dbe 0447 2d3d f8fd 0ebf 811c 403d
00000050: b21a 00bf 96a1 0e3f b05d aa3e 87ee 49bd
00000060: 0b25 4fbd 2e9a 2ebe 6ea3 493e 46a2 dcbc
00000070: e435 0dbd bb5a 7b3e 877e df3e 9f70 e73e
00000080: 42d1 a5bd 6f65 8c3f 6c69 9a3e 83a4 86bc
00000090: b97a e7bd 02f1 b53d 93e3 56bd 21a4 b83f
000000a0: fb0e f53d b003 aabc 2a9b bcbb 4e59 983e
000000b0: 4049 493e e2aa 53be 2452 d0bc 14d9 343d
000000c0: 26f8 5a3e 48c9 633e fac0 73be 4230 3b3f
000000d0: 8ca4 263e 6e50 93bc db4b aebe 2f84 febe
000000e0: 742c 80be a793 cdbe 674a 973e 8db4 913e
000000f0: d5be 08bf 4e07 843e 7589 003e 450d 193e
00000100: 27c9 3f3e d36a 36bd 8049 9abb 685e f0bd
00000110: 9da6 81be f0a8 bb3c 840a 893d b843 033e
00000120: 2650 fdbd 3d01 983e 834f 3a3e b30b 703f
00000130: 2df4 ec3d 1bdc 7e3e 4a53 093e 68a5 e2be
00000140: bb88 5a3e e196 633f c702 2bbe 99a4 7abd
00000150: 3e92 cbbe 51c5 b2be 4c1c c2be 080f 50bf
00000160: edac 83be 5663 bf3c 46b0 9d3e 0895 b7be
00000170: 8a8e 4abd 3e6f 93bf 6e54 843e a0c9 533e
00000180: f720 f7be bc9d b23d e7ce 9cbe 206f b53f
00000190: 55d2 923e 2a65 713e df15 93bd 85bc 00bd
000001a0: ca99 be3e 6027 863e 9d15 093e a7b2 ff3d
000001b0: f7ba 51be 042a 493f 76e6 89be 40b1 d5be
000001c0: 1de4 7dbe 002b 30be ce4d 593e 2e31 0dbf
000001d0: 9bac 743e e511 073e 2ff2 93be a0a6 82bd
000001e0: 7fb0 02bf 385f 42be 9c1b e1be 6c3b 613f
000001f0: 0a73 933e 7712 393e b3ac d53d 3262 b43e
00000200: 52af cd3c 157f 6f3e 3f7e 4e3e e749 f73c
00000210: 71ea 4ebf cfaa eb3e d58b f1bc 429f 153f
00000220: 886d eb3e e6ff 94bd a7f6 fcbc 3086 b9bd
00000230: 4dc5 8c3e dde2 e23e 4145 1f3e f564 02be
00000240: ce65 17be 34da 753e 7686 a53e c00b 823f
00000250: 399f 823e 8a41 b0bc 587e 28bf 9612 01bf
00000260: d764 b7be b141 643f c76e 953e 3f45 5bbe
00000270: 137c cf3e 25cb cebd 0f83 713e 437a 0b3f
00000280: 327f 21be d33c 02be be99 673d 7364 d63c
00000290: d20d acbe 9c21 bebf 29b1 ebbd d071 eb3c
000002a0: f5d7 d63d e0eb 3c3f 417a a9be 5485 83bf
000002b0: b23e 28be 4cab 0fbe f868 023f fc6d 81be
000002c0: 1882 3e3e 6e1a b6bf 4fd6 6abe 1921 123d
000002d0: 189d ba3e 52ca 0b3f 3d3d bcbc 1100 acbe
000002e0: cd2a 7e3e 8a3d 143c 3fd7 c73e ecd1 96be
000002f0: 140c 963e 5144 b63d 339f 1ebe 7382 8abc
00000300: dbb4 28bf 0072 b2be 733d dbbe 6a5b aebf
00000310: 0502 96be 04d5 013d 14a1 c8bd 5fe2 c33e
00000320: eed7 c13d b33a 623f 65e6 aa3e 6b93 11be
00000330: ecda 983a d08b 523e 2f64 d33e f371 843f
00000340: b4d9 813e 4814 aabc 991b bbbd 1313 f1be
00000350: d56b 903e 8cd7 353f 3c67 21be 22b4 9bbd
00000360: 8bbd 9ebe d7ac ee3d 1c0d c73e 3af7 7a3f
00000370: 32f8 c9be e9cf 253e 78ec 143e eb1a d63e
00000380: e3ad 8abd f60b 963f f469 7f3e 8615 39bc
00000390: 3791 8f3e 5dba 213f e446 8ebe 9148 233e
000003a0: 348d 1f3e 7ef1 9c3e 488e 41be 77c2 3e3f
000003b0: 37cd 76be b927 14bf 6b34 f23e b68b 8e3e
000003c0: f3c6 d5bd a5bc 46be f2a7 6d3e 44a6 5dbf
000003d0: d78f 033e dcc9 003d 374a 0a3c 3bb7 4f3e
000003e0: 6de8 823e fc68 8bbf 314b c9bd 0740 28bd
000003f0: 695f 04be bd3a c53d 226b babe e923 b13f

l4.bias f4 [256]
0.30621684 -0.30544606 -0.12739591 -0.03507679 0.1581708 -0.2129654 -0.27139252 0.29963464
0.037282243 -0.09602992 0.040511988 -0.22593474 -0.48451108 0.29895046 0.04353842 0.23631518
-0.30757403 0.33755875 0.07370939 -0.1214537 0.02403434 0.22426732 -0.36811745 0.08883347
0.024667807 -0.37018567 0.291938 0.03276681 0.3894844 0.23405431 0.08444361 0.01852023
-0.3617301 0.36167723 -0.065550074 -0.28497878 -0.2469179 0.025099004 -0.17322032 -0.24847648
0.2059018 -0.19457743 -0.044749007 0.29506823 -0.16664587 -0.10500162 -0.18758343 -0.31067625
0.2182315 0.013789145 -0.11966497 -0.3809614 -0.05917193 -0.35496634 -0.13891767 0.10654636
0.043776315 -0.47824302 0.028708711 -0.2552891 0.23524098 0.34245026 0.088486195 -0.24917012
-0.050276313 0.3130304 -0.20728762 -0.057051156 -0.3403107 0.07728053 -0.252006 -0.35651806
-0.20412916 0.01606037 -0.019309305 0.401869 -0.3617107 0.26124495 -0.36646533 0.18189664
-0.12495423 -0.029099507 0.066149235 0.313861 -0.26078063 -0.025390139 -0.41273406 0.34908628
0.15399078 -0.42368612 -0.15153193 0.35104546 0.1070589 0.3223415 0.059624188 0.41814902
-0.25347546 -0.3140713 -0.22951911 -0.31790885 0.019712748 0.40914914 0.33124864 -0.32461548
-0.12165074 -0.20227978 0.2807059 -0.14927645 0.22076014 0.2611392 -0.04835062 -0.25991204
-0.050426394 -0.27411586 -0.21661967 -0.0776734 -0.3312696 -0.31314847 -0.2897266 0.4426127
0.1035882 -0.24295102 0.038239263 -0.2550904 0.068828784 0.21237008 -0.14015561 -0.0010256617
-0.08803042 -0.0814112 -0.36537814 0.21182093 -0.13276753 -0.17891721 0.06890382 -0.1641806
0.108313054 0.011585319 -0.47003296 -0.099846534 -0.1856293 0.045144178 0.06505283 -0.063400805
-0.026788814 0.011641882 0.29154485 -0.23883222 0.6299958 -0.24769372 -0.22379856 -0.09056475
-0.086650044 -0.17301081 0.24126652 -0.031162826 0.37728068 -0.06552261 0.33019453 0.22334042
-0.23166043 -0.16448393 -0.12582603 -0.13340609 -0.3252132 0.23441315 0.07473907 -0.27485815
0.39396706 0.33501148 0.16181323 -0.31606337 -0.4729053 0.15186623 0.3410743 0.05784754
-0.2133278 0.22158676 0.42759517 -0.2294771 0.20649832 -0.37410057 0.3096365 -0.24470526
0.062972285 0.12686418 -0.11952731 -0.5105305 0.1250597 0.29484132 -0.19785202 0.31718057
0.17761624 -0.14641242 -0.011468109 0.11550646 0.21818055 0.09191722 -0.36424714 -0.13724115
-0.060596455 -0.17472647 -0.03157763 0.06837718 -0.2869646 -0.458757 0.06511726 -0.41354546
-0.34815884 0.003906553 -0.28935882 -0.12609683 -0.059257466 0.037184693 -0.32623747 -0.39218616
-0.19860604 -0.07728053 -0.26519367 -0.4160853 -0.2124808 -0.47218537 0.15423736 0.20781401
-0.34090036 -0.2294654 0.11964756 -0.395625 -0.29804945 0.34789172 -0.19673477 0.36352256
-0.31517956 -0.24690996 0.047308322 0.3848095 0.2958683 0.2308177 -0.09666468 0.40490937
0.37506357 0.11839739 0.19469307 0.05517716 -0.019066311 0.067795165 0.07506543 -0.2611828
0.3260548 -0.33995628 -0.4362916 -0.1504071 -0.25801247 -0.32153696 -0.024778817 -0.26218784
00000000: 74c8 9c3e 6d63 9cbe 1374 02be aeac 0fbd
00000010: 87f7 213e 9a13 5abe f6f3 8abe b669 993e
00000020: 44b5 183d 56ab c4bd e6ef 253d 705b 67be
00000030: d611 f8be 0910 993e 5855 323d 9bfc 713e
00000040: 587a 9dbe 80d4 ac3e f3f4 963d b8bc f8bd
00000050: aae3 c43c 55a6 653e e479 bcbe 53ee b53d
00000060: 2414 ca3c fa88 bdbe e678 953e 7e36 063d
00000070: 806a c73e efab 6f3e c5f0 ac3d bdb7 973c
00000080: b034 b9be c22d b93e 1e3f 86bd bde8 91be
00000090: 0cd8 7cbe 6d9c cd3c ab60 31be 9e70 7ebe
000000a0: ecd7 523e 4e3f 47be bc4a 37bd 2f13 973e
000000b0: 37a5 2abe 170b d7bd df15 40be f510 9fbe
000000c0: 1478 5f3e deeb 613c e812 f5bd 5f0d c3be
000000d0: 445e 72bd 26be b5be 6f40 0ebe fa34 da3d
000000e0: cb4e 333d 45dc f4be 882e eb3c 41b5 82be
000000f0: 03e3 703e a455 af3e 4038 b53d 7426 7fbe
00000100: 89ee 4dbd 8545 a03e 3543 54be 79ae 69bd
00000110: 343d aebe 4145 9e3d ee06 81be 8989 b6be
00000120: 3c07 51be 0991 833c 8c2e 9ebc c6c1 cd3e
00000130: 2532 b9be e6c1 853e 58a1 bbbe 1d43 3a3e
00000140: 01e8 ffbd 1762 eebc 4079 873d 64b2 a03e
00000150: 0a85 85be fbfe cfbc e151 d3be 70bb b23e
00000160: c2af 1d3e 63ed d8be 302b 1bbe 3bbc b33e
00000170: b241 db3d f209 a53e 7e38 743d a117 d63e
00000180: 89c7 81be f4cd a0be 0f07 6bbe f3c4 a2be
00000190: a17c a13c ff7b d13e 6c99 a93e 0034 a6be
000001a0: 0624 f9bd 6e22 4fbe afb8 8f3e eddb 18be
000001b0: f20e 623e 0ab4 853e 4d0b 46bd 3113 85be
000001c0: e88b 4ebd ea58 8cbe 8cd1 5dbe 3b13 9fbd
000001d0: 2b9c a9be ff54 a0be 0b57 94be 229e e23e
000001e0: 0d26 d43d 27c8 78be c6a0 1c3d 359b 82be
000001f0: 1bf6 8c3d 8b77 593e f484 0fbe 7f6f 86ba
00000200: 4b49 b4bd eaba a6bd d812 bbbe 96e7 583e
00000210: 36f4 07be 1336 37be 721d 8d3d f61e 28be
00000220: 3cd3 dd3d 5ad0 3d3c 29a8 f0be 577c ccbd
00000230: 9b15 3ebe 1ae9 383d 6b3a 853d 48d8 81bd
00000240: 3774 dbbc 98bd 3e3c 5e45 953e 6f90 74be
00000250: 6847 213f 6ca3 7dbe 732b 65be 037a b9bd
00000260: 9475 b1bd bf29 31be 920e 773e 2f49 ffbc
00000270: ef2a c13e b830 86bd 420f a93e 5ab3 643e
00000280: 6438 6dbe 7a6e 28be 8ad8 00be 9b9b 08be
00000290: 5882 a6be 000a 703e cc10 993d 35ba 8cbe
000002a0: 0db6 c93e a086 ab3e 5eb2 253e 0fd3 a1be
000002b0: a520 f2be d282 1b3e 4aa1 ae3e 8bf1 6c3d
000002c0: 9a72 5abe a4e7 623e c1ed da3e 0bfc 6abe
000002d0: 4c74 533e 1c8a bfbe ad88 9e3e 0494 7abe
000002e0: 9df7 803d afe8 013e bcca f4bd 20b2 02bf
000002f0: a60f 003e 71f5 963e b899 4abe 7e65 a23e
00000300: 08e1 353e 23ed 15be bce4 3bbc a78e ec3d
00000310: b96a 5f3e 183f bc3d 9a7e babe f288 0cbe
00000320: fd33 78bd 7feb 32be 8c57 01bd 5609 8c3d
00000330: 06ed 92be 33e2 eabe 335c 853d 3bbc d3be
00000340: e041 b2be 8b02 803b d726 94be 871f 01be
00000350: f5b7 72bd fa4e 183d 9908 a7be a0cc c8be
00000360: 625f 4bbe 4145 9ebd 77c7 87be 2209 d5be
00000370: 9194 59be 48c2 f1be 66f0 1d3e 32cd 543e
00000380: 7e8a aebe faf8 6abe c809 f53d 5c8f cabe
00000390: f099 98be dd1e b23e d774 49be a11f ba3e
000003a0: 375f a1be f7d5 7cbe 5fc6 413d c005 c53e
000003b0: 0d7c 973e 7a5b 6c3e 22f8 c5bd 4850 cf3e
000003c0: 5508 c03e 557a f23d 9f5d 473e 7201 623d
000003d0: f430 9cbc 31d8 8a3d e7bb 993d c1b9 85be
000003e0: a8f0 a63e c00e aebe 9d61 dfbe 5204 1abe
000003f0: 361a 84be 7ea0 a4be f2fc cabc 7c3d 86be

l5.weight f4 [256, 256]
-0.083865695 -0.07174102 0.046470497 -0.03151229 0.0010304169 0.06446549 0.0540004 -0.0066283527
0.0357831 -0.019891478 -0.046770327 -0.0096811205 0.0030924857 0.02130166 0.007831649 -0.027403025
-0.017681815 -0.074198484 0.02455787 0.041225772 -0.042882673 0.020861553 -0.03029833 -0.08440999
-0.06881514 -0.015989892 -0.021660924 -0.04996342 0.03929779 -0.0033029253 0.023245417 0.01264198
-0.01150107 -0.014815601 -0.018163422 0.038407847 -0.06670423 0.011393408 0.06999805 0.0029444424
-0.07383309 0.047187973 -0.004890874 -0.06316184 -0.015714094 -0.009260914 -0.0064540575 -0.026360063
0.033243664 0.0036307648 -0.0018291071 -0.0022089332 0.046876974 -0.018349342 -0.012858006 -0.017845036
-0.01672183 -0.06348859 0.03380424 -0.041390173 -0.046368908 0.043800578 0.017428026 0.047915563
-0.013423725 0.013610837 -0.045062825 -0.03868474 0.028350046 0.026557777 -0.058314797 -0.020373441
0.021723397 0.039019667 -0.02691672 0.028719962 -0.040849224 -0.06549279 0.036674116 -0.017001197
-0.03240539 -0.034638308 -0.061233632 0.029958826 0.053782765 -0.044302154 0.030260168 -0.066490956
-0.06541171 0.027704015 -0.02778016 -0.057784945 0.022232799 0.014001494 0.052249663 0.05019541
-0.030297788 0.06832617 -0.06896559 0.007014087 -0.022320941 -0.024727091 0.021751637 0.008583323
-0.008346947 -0.016907059 0.033359706 -0.05452381 -0.056469604 -0.04065321 0.005297352 -0.054183412
0.043351583 -0.049021494 -0.028790094 -0.021553963 -0.014001971 0.032532454 0.024412252 0.004258013
-0.012860315 0.004618342 0.020080557 0.06151078 0.0042996644 0.003426993 -0.041396186 0.035457306
-0.054220177 0.019599922 -0.016926063 -0.0031419934 0.0025989716 -0.05021052 -0.06533666 0.00456699
0.04186747 0.047071863 -0.015055637 -0.06953921 0.010975179 -0.08581161 -0.017524516 -0.055165067
-0.043609407 0.02706871 0.04267298 -0.00030482098 -0.061812963 0.049716473 -0.059686776 -0.016860804
0.037844148 0.047252852 -0.0051943553 0.041367345 -0.07328734 0.023172911 -0.06730179 -0.025050355
0.006536901 -0.060341936 0.00528834 0.024819843 0.030571358 -0.015757203 -0.04263235 -0.034184467
0.0020314897 -0.015060008 -0.0344538 0.03954707 0.03168007 0.037073668 -0.019157771 -0.07876515
0.04774423 -0.038992647 0.014323165 -0.07389105 0.022534281 0.025073564 0.017772986 -0.05095357
0.037995026 0.00064656575 0.032309618 -0.0076995343 -0.019280843 0.023744738 -0.002633214 -0.056108627
-0.06119294 -0.0020779553 -0.03861894 -0.037312932 0.03542099 0.011425461 -0.06861547 -0.059674922
-0.009746827 -0.03911341 0.017650096 0.055615768 -0.029145934 0.061014876 -0.04944519 0.035307575
0.04281436 -0.02154515 -0.03673309 0.011831116 -0.040266715 -0.06052247 -0.039046492 -0.06114124
-0.03594881 -0.06570476 -0.021161003 0.019910904 -0.007934473 -0.0043518995 -0.05357118 -0.05462093
0.013842565 -0.009954466 0.023616308 -0.0286645 0.01867558 -0.04369115 -0.003206869 -0.028533798
0.03653664 0.04951712 0.015662989 -0.048523568 -0.013568843 -0.028211392 0.030587496 -0.08373996
-0.00040217096 0.045297757 -0.026662715 -0.058993455 0.018580772 0.03373662 -0.041283067 -0.00024476516
-0.012795116 -0.0107983025 0.0095256865 -0.04452511 0.046938065 -0.07682788 0.0026215126 -0.011519521
00000000: c7c1 abbd f5ec 92bd d957 3e3d 0813 01bd
00000010: 0e0f 873a 7c06 843d 862f 5d3d a732 d9bb
00000020: 4d91 123d 74f3 a2bc 3e92 3fbd 909d 1ebc
00000030: 4dab 4a3b d280 ae3c 5150 003c 4f7c e0bc
00000040: 74d9 90bc 60f5 97bd 962d c93c 5bdc 283d
00000050: bea5 2fbd d9e5 aa3c 3434 f8bc 25df acbd
00000060: f4ee 8cbd 3cfd 82bc 4072 b1bc 71a6 4cbd
00000070: b8f6 203d e475 58bb 2c6d be3c 4f20 4f3c
00000080: fc6e 3cbc 22bd 72bc 75cb 94bc 8c51 1d3d
00000090: 3a9c 88bd 6bab 3a3c 235b 8f3d 8cf7 403b
000000a0: ce35 97bd 2d48 413d a043 a0bb ff5a 81bd
000000b0: d8ba 80bc 17bb 17bc 8f7c d3bb 0ff1 d7bc
000000c0: 822a 083d 20f2 6d3b a6be efba c0c3 10bb
000000d0: 1202 403d 5c51 96bc 63aa 52bc c12f 92bc
000000e0: 38fc 88bc 4e06 82bd 5176 0a3d be88 29bd
000000f0: 53ed 3dbd 3c68 333d 38c5 8e3c 1c43 443d
00000100: 2fef 5bbc fdff 5e3c cc93 38bd e473 1ebd
00000110: 5b3e e83c b28f d93c 7fdb 6ebd 34e6 a6bc
00000120: 44f5 b13c 16d3 1f3d 7480 dcbc 2046 eb3c
00000130: 8451 27bd 1521 86bd 9937 163d 1846 8bbc
00000140: 84bb 04bd e6e0 0dbd 1ed0 7abd 366c f53c
00000150: 514b 5c3d 2d76 35bd 2ce4 f73c 692c 88bd
00000160: 93f6 85bd 88f3 e23c 3893 e3bc e8af 6cbd
00000170: 8f21 b63c 8666 653c be03 563d b499 4d3d
00000180: 1133 f8bc 97ee 8b3d d53d 8dbd 6dd6 e53b
00000190: 68da b6bc 7890 cabc 7d30 b23c 11a1 0c3c
000001a0: a2c1 08bc ac80 8abc 30a4 083d 5c54 5fbd
000001b0: ac4c 67bd fb83 26bd 6995 ad3b 6def 5dbd
000001c0: 6e91 313d c3ca 48bd 34d9 ebbc f091 b0bc
000001d0: 8668 65bc c040 053d 34fc c73c cd86 8b3b
000001e0: 12b4 52bc 7655 973b fb7f a43c baf2 7b3d
000001f0: 33e4 8c3b 6797 603b 0c8f 29bd ae3b 113d
00000200: fa15 5ebd 0490 a03c 87a8 8abc e7e9 4dbb
00000210: 8253 2a3b 8ca9 4dbd 3acf 85bd b0a6 953b
00000220: 397d 2b3d 6dce 403d ebab 76bc 936a 8ebd
00000230: 3dd1 333c ffbd afbd 938f 8fbc c4f4 61bd
00000240: c79f 32bd 33bf dd3c ddc9 2e3d 61d0 9fb9
00000250: 972f 7dbd 80a3 4b3d 1f7a 74bd ab1f 8abc
00000260: 7702 1b3d 358c 413d 6935 aabb ce70 293d
00000270: ac17 96bd 1ed5 bd3c 85d5 89bd 6736 cdbc
00000280: 8033 d63b 1b29 77bd d049 ad3b fc52 cb3c
00000290: c970 fa3c 4015 81bc 429f 2ebd 0305 0cbd
000002a0: be22 053b 40be 76bc 6e1f 0dbd 1cfc 213d
000002b0: f6c2 013d 8fda 173d c2f0 9cbc 9f4f a1bd
000002c0: 748f 433d c1b6 1fbd b5ab 6a3c 3154 97bd
000002d0: d099 b83c 1367 cd3c a798 913c b1b4 50bd
000002e0: aca0 1b3d 4b7e 293a 1757 043d 604c fcbb
000002f0: dcf2 9dbc 5384 c23c 0092 2cbb 29d2 65bd
00000300: 73a5 7abd 4e2e 08bb e52e 1ebd 72d5 18bd
00000310: 9a15 113d db31 3b3c 4486 8cbd b16d 74bd
00000320: 28b1 1fbc 6235 20bd ef96 903c 5ccd 633d
00000330: 74c3 eebc bcea 793d 0a87 4abd ad9e 103d
00000340: 1c5e 2f3d 747f b0bc 7075 16bd 4cd7 413c
00000350: b6ee 24bd 69e6 77bd 37ef 1fbd 3d6f 7abd
00000360: 0f3f 13bd 3890 86bd d759 adbc 311c a33c
00000370: 98ff 01bc 619a 8ebb 746d 5bbd 32ba 5fbd
00000380: edcb 623c 0e18 23bc fd76 c13c d0d1 eabc
00000390: 88fd 983c 7ef5 32bd 552a 52bb b6bf e9bc
000003a0: 72a7 153d 77d2 4a3d ab4f 803c a6c0 46bd
000003b0: da4f 5ebc 941b e7bc a192 fa3c db7f abbd
000003c0: 79da d2b9 248a 393d c46b dabc 1fa3 71bd
000003d0: b436 983c 692f 0a3d 6f18 29bd d353 80b9
000003e0: 9ba2 51bc 5deb 30bc a011 1c3c f65f 36bd
000003f0: 2142 403d f057 9dbd afcd 2b3b 5fbc 3cbc
