part1/InvertedPendulumBulletEnv-v0_TD3_1_1637517354_td3.pth (torch, 818031 bytes, 15 tensors)

l1.weight f4 [256, 6]
000000 77 90 48 be 74 8d b9 bb 0d 5c 64 bd e2 a1 1f 3f
       -0.19586359 -0.0056626145 -0.05575185 0.6235639
000010 3a ed d7 be 9d 5a b3 3d 7b ee da 3e 1e 9e 4b 3f
       -0.42173177 0.087575175 0.4276007 0.7953814
000020 58 f6 b9 be fa c2 5d be d5 55 0f bc 80 f3 03 3e
       -0.36320758 -0.21656409 -0.008748491 0.12885857
000030 b3 f4 84 3e 40 1c f0 bd cf 25 4c be 4d ac a3 bf
       0.2596794 -0.11724138 -0.19936298 -1.2786957
000040 bc 19 4d be 35 6d 23 3d 41 44 b4 bc c4 fe 12 3d
       -0.20029348 0.03989907 -0.022005202 0.035887495
000050 62 60 bd 3e 35 ef 37 3f 93 a0 d7 be 2b 73 18 3e
       0.36987597 0.71849376 -0.42114696 0.14887683
000060 2d 82 25 bf 26 68 b7 bd 35 2e 84 be 6c 94 24 3f
       -0.6465176 -0.089554116 -0.25816503 0.64288974
000070 8c 94 72 3e cc 66 2a be e4 f8 48 3e 2f dc 39 be
       0.23689479 -0.16640776 0.19626194 -0.181504
000080 6a ba a9 3c 3a ff 78 be fc 9a 9b be 6e ff 64 3e
       0.020718772 -0.24316111 -0.3039168 0.22363064
000090 f0 e9 36 3f 30 e1 0a bf b5 5f e1 be 53 38 32 bf
       0.7145071 -0.5424986 -0.4401833 -0.69617194
0000a0 41 74 0c bf 49 65 a7 3d 03 a6 38 bd a4 44 32 bf
       -0.5486489 0.081736155 -0.045080196 -0.6963599
0000b0 26 70 20 bd 4c da 9c bf 0d ad c0 be 7e b8 3a 3c
       -0.039169453 -1.2254119 -0.37632027 0.011396525
0000c0 37 10 56 be 87 cb 26 3f 85 64 04 bf 80 03 1a bf
       -0.20904623 0.6515431 -0.5171588 -0.6016159
0000d0 2f 38 40 be ae 83 91 3c bb f6 d7 3e c5 2d 15 3f
       -0.18771432 0.017762985 0.42180428 0.58272964
0000e0 b8 ff c2 be 77 76 10 3f 2d eb ca 3e 27 3d 5d bc
       -0.38085723 0.56430763 0.3963255 -0.013503349
0000f0 a0 ad 30 be ae 0e ad 3d bf d7 68 3e 84 57 b8 3f
       -0.17253733 0.084500656 0.2273855 1.4401708
000100 3f 1b 9d 3e ed c0 31 bd b1 e7 b7 3c 2b 75 1c 3c
       0.3068485 -0.04339688 0.022449346 0.009549419
000110 cf e7 fc 3d f3 05 bc bf 45 84 ec bd 96 76 09 3d
       0.123489015 -1.4689316 -0.11548666 0.033560358
000120 e3 fa d4 3d 15 69 e4 bd bc ea 00 bc 07 b3 0e bf
       0.10399415 -0.11152855 -0.007868465 -0.55741924
000130 55 00 d9 3e 00 67 7a be fe e8 4a 3c ed 2a 16 3e
       0.42383066 -0.24453354 0.012384651 0.14664812
000140 f4 4c c8 bd 11 40 87 3f 63 8a a5 be 82 30 6a 3e
       -0.09780303 1.0566427 -0.32332143 0.22870067
000150 21 59 3a 3d 24 0f 17 3e cd 7c 3d 3e d0 53 7f bf
       0.045495156 0.1475187 0.18504639 -0.9973726
000160 28 d7 bc 3e 73 40 51 bd b3 49 97 be c0 7d a8 bc
       0.368829 -0.051086854 -0.29548416 -0.020567775
000170 1f ae e1 bd bb 13 38 bf c7 2a 11 3e 90 c1 15 be
       -0.11019539 -0.71905106 0.14176475 -0.1462462
000180 51 05 82 bf cb 39 6f 3f 07 c4 cc bd d3 22 37 3e
       -1.0157872 0.9344756 -0.09998327 0.17884378
000190 23 36 82 3d 9f 5d 27 3e 63 ac 44 be 50 72 ae 3d
       0.06357982 0.16344307 -0.19206385 0.08517897
0001a0 48 ed 97 3e 42 92 b9 3f fb c5 3b 3e de 76 0f bd
       0.2967322 1.4497759 0.18337242 -0.03502547
0001b0 45 6f 1a bf 79 2a b9 bd 03 35 68 3e 7c 41 42 be
       -0.60326034 -0.09041304 0.22676472 -0.18970293
0001c0 08 ff 66 be 41 aa 58 3d f9 59 27 3e 14 64 94 be
       -0.22558224 0.05289674 0.16342916 -0.28982604
0001d0 41 9b 83 3e aa 8e 99 3e 6b f2 57 3d 19 6e e5 bd
       0.25704387 0.29991657 0.052721422 -0.1120264
0001e0 88 50 8f be bb 2d d2 3e c8 aa ae 3d 07 bf 64 3f
       -0.27991128 0.41050515 0.08528668 0.89353985
0001f0 8f b6 a9 3e 07 6c 82 bc 9b 0f 13 bc 4f df 21 3f
       0.33147094 -0.015920652 -0.008975889 0.63231367
000200 60 df f1 3c 6e d8 3f bf d4 bc bd 3e b3 0e 8d bc
       0.029525459 -0.7493962 0.37058127 -0.017218923
000210 ac a7 52 3f 97 9d b1 3d 5f 49 a4 3d 37 78 7e bf
       0.82287097 0.08672636 0.08021807 -0.99402183
000220 62 17 4d be 7f 4f 0f 3d c8 71 28 3f 8a 79 e7 3e
       -0.20028451 0.034987923 0.65798616 0.45209914
000230 99 8e 71 be 51 c8 c9 3f e3 8f a2 3e b6 1b d3 bc
       -0.23589553 1.5764257 0.31750402 -0.02577005
000240 39 dd e7 3e ed a4 58 be 06 4f b6 bd f0 25 6a 3f
       0.45285967 -0.21156664 -0.08901791 0.9146414
000250 9f f9 42 be ec 10 6a 3e 53 ae 01 3d c0 db df bd
       -0.19040535 0.22858018 0.03166039 -0.10930586
000260 96 d4 b0 be c0 ec d6 bf c5 96 e4 be 5e 03 b6 3d
       -0.3453719 -1.6791 -0.44646278 0.08887361
000270 a7 2b ac 3e 65 b6 18 3f af 96 9b be 5f c5 d7 3f
       0.33627054 0.5965331 -0.303884 1.6857108
000280 fc d5 bd 3e 03 0a a3 bc 42 19 a3 3d ac 2f 1b 3f
       0.3707732 -0.019902235 0.07963802 0.60619617
000290 5f 97 40 be 1b 54 b0 be a4 86 9f be 11 dc 82 be
       -0.18807743 -0.34439167 -0.3115741 -0.25558522
0002a0 4a 31 20 bd cd 6b 85 bd a3 39 be 3d d9 f8 42 3f
       -0.039109506 -0.06514702 0.09288337 0.7616096
0002b0 09 31 88 be ed 90 af 3c 00 e5 c3 bc c2 73 97 3c
       -0.2659991 0.02143141 -0.023912907 0.018487815
0002c0 12 60 ad be ca 6c d6 3f 22 81 2c 3e 0d 7f 4d bd
       -0.33862358 1.675195 0.16846135 -0.050169993
0002d0 b9 66 b3 be c8 55 df 3c cb be 9c bc ea 75 80 3f
       -0.3503931 0.027262583 -0.019133946 1.0035985
0002e0 fc 8b bd be 81 7f 80 3d b0 26 97 3b c1 4c b3 3e
       -0.37020862 0.062743194 0.004612766 0.35019496
0002f0 e6 58 c6 3d c7 96 33 3f 99 2b 21 3f c0 5b 7d 3d
       0.09684925 0.7015194 0.6295715 0.061855078
000300 b5 e9 43 3d d5 d2 4f 3e ac 25 39 be 5d 44 ac 3f
       0.047830302 0.2029527 -0.18080777 1.3458363
000310 73 43 58 3c 4e 63 ba 3e 37 64 1b be 56 b0 3a 3d
       0.013199675 0.36403888 -0.15174948 0.045578323
000320 68 f1 98 be 85 16 dc bf ad 70 dc bd 5c 1d 1e 3d
       -0.29871678 -1.7194372 -0.10763679 0.038602218
000330 b7 ce 48 bf f3 a4 69 3d 02 2d 0c bf 90 15 b9 3f
       -0.7844042 0.057042073 -0.54756176 1.4459705
000340 3e bd a4 3e c4 48 75 bd 5d b1 4a 3f f3 a7 dd 3d
       0.3217563 -0.059883848 0.79176885 0.108230494
000350 36 29 3f be ba c3 2e bf 45 2d d6 3d 17 29 ce 3a
       -0.18668064 -0.68267405 0.10457853 0.0015728798
000360 11 b9 fb be ca a5 79 3e ed 92 a6 3e a4 cc 6d 3f
       -0.49164632 0.2437965 0.3253397 0.9289038
000370 c7 93 81 3d b9 a5 a1 bd 3f 12 68 bd d4 ff 0a 3d
       0.063270144 -0.07892937 -0.056658026 0.033935383
000380 bc 5b 3a 3e b9 af 0e 3f df c7 b7 3e 5f ee 00 be
       0.18199056 0.5573688 0.35894677 -0.12590931
000390 0d 14 32 be 22 c5 ff 3e 5e 41 a1 be 78 83 88 bf
       -0.17390461 0.49955088 -0.31495184 -1.0665121
0003a0 19 1f 98 3e b9 b4 c2 be cf 00 2a 3e 14 54 2a 3e
       0.29711226 -0.38028505 0.16601871 0.16633636
0003b0 95 65 86 3e 42 f8 13 be c2 5f 6c 3e d3 9e 8b 3e
       0.26249376 -0.14450172 0.23083404 0.2726961
0003c0 fc 4d 18 bd 5a 07 1f bf 55 2c bb be a6 6d b7 bf
       -0.037183747 -0.6212059 -0.3655726 -1.4330337
0003d0 e8 ad da be 59 e6 ac 3d 3e 6b 5f 3e 08 fd 36 3e
       -0.42710805 0.08442373 0.21818253 0.17869961
0003e0 a1 29 a1 3e 52 a7 0a bf 5c 3f 70 3e fc f2 2b 3e
       0.31477073 -0.5416156 0.2346167 0.1679191
0003f0 2c 18 35 3f 15 40 c9 be 74 f4 51 bc 3a b5 69 bf
       0.7074001 -0.39306703 -0.01281463 -0.91292155

l1.bias f4 [256]
000000 82 2b 4d 3c 17 65 ec 3d 84 46 14 be 0b f4 dc be
       0.01252258 0.11542719 -0.14480025 -0.4315494
000010 61 0a 1f be bf b4 96 3e c5 38 90 bc 71 fd 66 be
       -0.15531303 0.29434773 -0.017605195 -0.22557618
000020 95 ab 76 3e 43 0c a3 be 28 56 a5 3e 12 8e 62 3e
       0.24088891 -0.31845292 0.32292295 0.22124508
000030 e4 ca 1d 3e 59 e8 79 3e 8f 8f 9f bd 81 fd ff 3d
       0.15409428 0.2440504 -0.077910535 0.12499524
000040 e8 52 07 3e bd a1 e3 3d a7 12 b1 be 64 29 d8 bd
       0.1321522 0.111148335 -0.34584543 -0.1055477
000050 72 5f c6 3e 4d 58 cb 3d 4b 9b bb be 06 21 d5 be
       0.38744694 0.099289514 -0.36641917 -0.41626757
000060 5a c2 9e 3e f3 8c 8b be b7 ac 22 be f5 9e 23 bd
       0.31007653 -0.27255973 -0.15886198 -0.039946515
000070 01 2b 80 bd cf e7 6b bc 75 f3 65 3d 70 e0 a7 3e
       -0.06258202 -0.014398529 0.05614038 0.3278842
000080 1f c6 4c bd 02 0b 6d bd 78 bc ef bb a5 5c 74 3e
       -0.04999363 -0.057871826 -0.0073161684 0.23863466
000090 f4 b7 25 bd 09 75 db 3e 2f c7 e0 3d ee 5b 58 3e
       -0.040458634 0.42862728 0.10975491 0.21128818
0000a0 94 2e c0 3a 5b 46 2c be 4f ee 2c be e2 75 a0 be
       0.0014662319 -0.16823713 -0.16887783 -0.31339937
0000b0 9b a2 bd be 99 70 90 bd 10 4e c4 3e 99 dc bf be
       -0.3703812 -0.07052726 0.38340807 -0.3747299
0000c0 3c 8d 08 bf 65 18 3c 3e 67 15 3e 3d 59 37 95 3e
       -0.53340507 0.18368681 0.04640713 0.2914379
0000d0 96 c1 54 3e cb 57 80 3e 28 7f 42 3e d9 62 62 3e
       0.20776972 0.2506698 0.18993819 0.2210802
0000e0 66 af 10 3e 23 37 0a 3f 35 e0 30 bc 30 1b 6d be
       0.14129409 0.5399038 -0.010795643 -0.23154902
0000f0 1e 27 b8 bc a3 f6 cc 3e 55 4d 81 3e 38 2b 1e 3e
       -0.02247959 0.4003192 0.25254312 0.15446174
000100 54 73 c1 be ad 20 d7 be 1e da 25 3e 79 d5 96 be
       -0.377833 -0.42017117 0.16196486 -0.29459742
000110 e8 ef cf 3c 17 d2 68 3e 4b c7 9b be 8f 7b 9e 3c
       0.02538295 0.22736393 -0.30425486 0.019346027
000120 70 e0 94 be 7f 50 61 3d 37 63 a0 3e 48 e3 19 3e
       -0.29077482 0.055008408 0.31325695 0.15028107
000130 b2 67 c7 3d df b3 ad be 92 d5 7e 3e 40 2e 5c bc
       0.09736575 -0.33926293 0.24886158 -0.013438761
000140 8d a1 aa 3e 20 88 93 3d a0 31 99 be 65 55 b7 3d
       0.33326378 0.07203698 -0.29920673 0.089518346
000150 83 25 8b 3d 5a 46 aa be 1e a5 b1 be 97 7a c9 bb
       0.06794264 -0.332568 -0.34696287 -0.006148647
000160 d1 9c bd be e3 a8 d8 bd 64 a3 ac be ff 6e 8a be
       -0.37033704 -0.105790876 -0.33718407 -0.27037808
000170 49 e4 c0 be 5f 9d 27 be e6 78 5f be 59 27 3b be
       -0.37674168 -0.16368626 -0.21823463 -0.18276729
000180 f8 6c c2 be 95 a6 5c 3e 37 1f de bd 4d 8b 92 be
       -0.37973762 0.21547921 -0.108457975 -0.28621903
000190 79 3d 73 be 6c 63 e9 3d bc 47 7a 3c d6 dc d0 be
       -0.23753919 0.11395916 0.015275892 -0.40793484
0001a0 dc 25 42 bd 85 97 55 3e d9 f0 3d be 2e d9 d9 bc
       -0.047399387 0.20858581 -0.18548907 -0.026592817
0001b0 32 3f 11 be f1 7a a5 be e5 51 a2 3e ae fc a5 be
       -0.14184263 -0.3232036 0.31703106 -0.32419342
0001c0 09 71 a6 3e 96 40 8f be 11 ac 66 3d 4f 71 72 be
       0.32508114 -0.27978963 0.05631644 -0.23676036
0001d0 29 f7 62 bd 91 cc c7 3d 84 a1 9c be cd 4e 44 3e
       -0.05541149 0.09755815 -0.30591977 0.19170685
0001e0 5f d6 93 3e c8 2d a6 bd 77 81 03 3e 4d 0f e8 bc
       0.2887449 -0.08114201 0.12842356 -0.028327608
0001f0 b1 d7 4a be 9b cd 5e be 7a 9a 94 3e 81 d0 a1 3e
       -0.19808842 -0.2175812 0.29024106 0.31604388
000200 2e 7f 80 be a9 ef 69 3e 54 71 9c 3e 12 17 b7 3e
       -0.2509703 0.2284533 0.30555212 0.3575979
000210 19 f3 1d bd bf 9c 89 be 34 5a 1a be 2f 9f 57 bd
       -0.038561914 -0.268774 -0.15073472 -0.052642044
000220 fe e1 59 be 3d e3 15 bf f8 a2 b4 3e a3 fa ba be
       -0.21277615 -0.58549863 0.35280585 -0.36519346
000230 70 5f c5 be 86 1e a6 3e 90 39 1b 3d 53 ab fd be
       -0.38549376 0.32445163 0.037896693 -0.49544773
000240 f0 95 59 3e f6 bd 3a 3e 67 e1 f3 bc 31 bb 19 be
       0.21248603 0.18236527 -0.029770566 -0.15012814
000250 41 65 cb be f7 76 bb be 0a ab ae bd 0b 7c 21 3d
       -0.39725688 -0.366142 -0.08528717 0.039424937
000260 86 f8 b5 bd 7c 02 87 3d 14 65 6f 3e 26 f4 72 3e
       -0.08885293 0.06592271 0.23378402 0.23725948
000270 5e 07 d2 3d b8 cb 4c 3e b9 c9 af be 58 f7 a7 3e
       0.102553114 0.19999588 -0.3433359 0.32805896
000280 a0 a4 97 be 8e f1 b4 be e3 e4 98 bd 73 e8 1e 3e
       -0.29617786 -0.35340542 -0.07465532 0.1551836
000290 d1 2d 1b be 2a a0 0b be f0 d7 c0 3d 7c aa d6 bd
       -0.15154196 -0.13635316 0.09416187 -0.10481736
0002a0 ea 05 c4 3e 94 66 16 bd a9 c3 07 bf 82 a2 4d 3d
       0.38285762 -0.03671892 -0.5303293 0.050203808
0002b0 87 08 b0 3e 5c 51 4b be 2d c4 ae 3d 40 28 7d ba
       0.34381506 -0.19855255 0.08533511 -0.0009657182
0002c0 c9 f1 09 bf ea ef 24 3e 12 f3 11 be ed 13 cc be
       -0.5388456 0.16107145 -0.1425288 -0.39858952
0002d0 d8 2a 5e 3e 53 9f dd be cf 2b d5 be 17 a6 29 3e
       0.21696031 -0.43285617 -0.41634986 0.16567264
0002e0 de 13 88 3e ca 1c c3 3d b8 0e 4c be 04 ac 9c bd
       0.26577657 0.095269755 -0.1992749 -0.07649997
0002f0 e1 4c 93 3e 72 46 e4 be 01 ab 41 bd 7f f5 a6 3d
       0.2876959 -0.44584996 -0.047282223 0.081522934
000300 53 8f a3 39 1a a7 c8 be 4e 7d c2 be 3e fe 9d 3d
       0.00031196568 -0.39189988 -0.37986225 0.077145085
000310 89 33 7d be 87 43 c0 bb a8 8b 89 3c 6a f9 2a 3e
       -0.2472669 -0.005867425 0.016790226 0.16696706
000320 b2 78 99 3e e0 1a 58 be e0 d5 48 3e f3 cd 70 3d
       0.29974896 -0.21104002 0.19612837 0.05879016
000330 8b 52 ab be dd 3c 60 3d 4d 25 c6 be 19 b9 ae 3c
       -0.33461413 0.054745544 -0.38700333 0.021328496
000340 1a 40 50 3d 23 b7 a1 be 90 0a 62 3e 65 ea 54 be
       0.050842382 -0.31585035 0.22074342 -0.2079254
000350 b0 11 35 be 75 5a 20 3e bd ce 84 3e ec 00 8e be
       -0.17682528 0.15659507 0.2593898 -0.27735078
000360 39 60 42 3e 4a 31 74 3e cf f6 03 3e eb fd 9c 3e
       0.18982019 0.23846927 0.12887119 0.30662474
000370 68 a1 95 3d ba 89 e1 bd bf 37 46 3e e3 8a 04 bf
       0.073061764 -0.110125974 0.19357203 -0.51774424
000380 6a 70 0b 3e fb c5 3b be e9 d0 f6 bd 94 b1 1e be
       0.13617101 -0.18337242 -0.12051565 -0.15497428
000390 f8 ab 56 3d 15 d9 97 bd 55 53 c8 3e 4c 0e 2b 3e
       0.052410096 -0.07414452 0.39126077 0.16704673
0003a0 cc 7e 15 bd 49 22 a0 be ea de af 3c dd 9b df 3c
       -0.036497876 -0.31276157 0.021468598 0.027296001
0003b0 ed 78 e1 be a2 74 0b bf 21 be 06 be 3e c7 c4 3d
       -0.44037572 -0.5447484 -0.13158466 0.09608315
0003c0 6e 91 89 be aa cb a9 3e b5 81 ec 3d 28 80 7d 3e
       -0.26868767 0.33163196 0.11548177 0.24755919
0003d0 34 5f 0c be 4c c7 9c 3e 2b 8f 88 3b db 8c d5 3d
       -0.13708192 0.306208 0.0041674576 0.10427257
0003e0 57 69 06 be a0 e1 44 bc 66 9a 9e 3d 94 91 94 be
       -0.13126121 -0.012016684 0.07744293 -0.29017317
0003f0 d6 3b 94 bb f1 44 b1 3e 91 e2 1f 3e 8c f4 7a be
       -0.0045237346 0.3462291 0.15613772 -0.2450735

l2.weight f4 [256, 256]
000000 59 06 db bd 32 93 92 bc ff b4 75 c0 e3 57 c2 3c
       -0.1069457 -0.017892454 -3.8391721 0.023723548
000010 9a 0e 10 3e 76 b0 09 3c a3 39 13 bf 8b 62 2a bb
       0.1406807 0.008403888 -0.5750982 -0.0025998678
000020 cd a9 89 bc d5 c7 b4 3f da a9 d3 3d 36 9c 8e 3d
       -0.0168046 1.4123484 0.10335131 0.069633886
000030 e4 00 f3 bc 78 c0 97 3d c6 4b 6c bd f4 51 7a bc
       -0.02966351 0.074097574 -0.05768945 -0.015278328
000040 66 ff 5b bd 89 e3 fc 3d fa 70 f7 bd 7f 86 77 3b
       -0.053710364 0.123480864 -0.120820954 0.0037769375
000050 6c c0 95 3d a9 34 9d bb 70 30 93 bf c5 fb 6c be
       0.07312092 -0.0047975373 -1.1499157 -0.23142917
000060 da 4d 70 3d ee e8 f6 bf ca 61 f7 3c bf d3 21 3e
       0.058667995 -1.9289834 0.030197997 0.15803431
000070 05 04 22 3d e4 7c 30 be a0 0c 83 39 e9 4d 03 3d
       0.039554615 -0.17235142 0.00024995673 0.032056723
000080 ae 4f 88 3d e9 7a 3a c0 65 ba c3 3d cf 72 b3 bd
       0.06655823 -2.9137518 0.09557036 -0.087621324
000090 30 2a 83 3d 38 f5 be 3c 58 a2 c2 3c 18 9c 8a 3c
       0.06404531 0.023310289 0.023759052 0.016920134
0000a0 55 a8 34 3b 87 06 62 bd 28 ec 89 bd c1 df f5 bf
       0.0027566154 -0.055182006 -0.06734496 -1.9208909
0000b0 ca c5 3f be d7 5d b6 bd af 7b 02 3e f4 a7 18 3e
       -0.18727794 -0.08904617 0.12742494 0.14907819
0000c0 c5 a7 c1 bd 62 90 0a be c6 5c b2 3d a8 de 0f 3d
       -0.094558276 -0.1353164 0.087091014 0.03512445
0000d0 9d 94 84 3d b5 31 37 3c 62 af a6 3d bc 56 81 bd
       0.06473658 0.011181285 0.0813892 -0.063153714
0000e0 b2 1e 00 bc 96 e1 52 3d 97 69 33 3e d0 8f 86 bc
       -0.007819818 0.051484667 0.17520748 -0.016425997
0000f0 ef 4e 4f be e4 e6 28 3d 97 e2 ea bc 3e 14 99 3d
       -0.20244955 0.04123582 -0.0286725 0.07474564
000100 c8 5b f3 bd 07 66 89 be 76 78 9b 3c 05 78 f9 bf
       -0.1188274 -0.26835653 0.018978339 -1.9489752
000110 44 eb 95 3d c0 4d 2e 3d 10 23 6a be 48 ae 5b 3d
       0.07320264 0.042554617 -0.22864938 0.053633004
000120 8c 91 11 3d 28 22 0f 3e 7e 2c 36 3d 93 46 c4 3d
       0.035539195 0.13977873 0.044476025 0.095837735
000130 08 11 cd 3b b2 6f d0 bf dc 6c df 3b 6a 4c 00 3d
       0.006258134 -1.6284087 0.006818397 0.031322874
000140 07 0f 82 3d 63 d9 1e be d0 21 f8 bc 61 fc 24 be
       0.063505225 -0.15512614 -0.03028956 -0.161119
000150 e6 ca a8 3c 27 7d 14 bd 2c 77 2b bd 3b 08 aa be
       0.020604562 -0.036252167 -0.041861698 -0.33209404
000160 f8 7f 03 3f d7 8a 81 be ed cd 5a bf 00 8d 21 be
       0.5136714 -0.2530124 -0.8547047 -0.15776443
000170 c3 fe 05 be 61 de df be 38 4f 1c 3f 72 ba e8 be
       -0.13085465 -0.4372435 0.6105838 -0.45454746
000180 72 cd 40 3c 0a 32 03 be 5a 5d 67 3d 7f 8f b2 bd
       0.011767732 -0.12812057 0.05648551 -0.08718776
000190 e8 6c e9 3d 10 00 96 3d a8 fe 9c 3d 01 9f 1a bf
       0.11397725 0.07324231 0.07665759 -0.6039887
0001a0 09 fe 9a bb 7d 24 17 bd d0 32 61 bf 4f a7 5c bd
       -0.0047299904 -0.036900032 -0.8796816 -0.053870495
0001b0 c9 ce 70 3c 41 f1 3d bf 7e 3f 2f bd e2 29 5e bd
       0.014697739 -0.7419625 -0.04278516 -0.05423916
0001c0 e9 f3 a1 3d 35 b0 ad bf 99 aa 5a 3d b7 90 f5 3d
       0.0790785 -1.3569399 0.05338535 0.11990493
0001d0 08 9c 69 3d de 98 b4 bd 0e 2c 67 c0 04 cb 74 3d
       0.05703357 -0.088182196 -3.612064 0.059763923
0001e0 7e 6a 46 bd 89 9b 3b bd 30 79 00 bc 98 d1 ac bd
       -0.048441403 -0.045802627 -0.007841393 -0.08438414
0001f0 13 e0 78 3d bd 39 27 c0 86 11 47 bd 12 16 0b 3d
       0.06076057 -2.612899 -0.048600696 0.033956595
000200 52 08 c1 bf 90 2b 7d 3d 61 41 b6 bc 10 a6 17 be
       -1.5080664 0.061809123 -0.022247972 -0.14809442
000210 87 4a 10 c0 5c 15 9d 3e 3a a1 4d 3d a4 49 b4 be
       -2.2545488 0.30680358 0.050202586 -0.35212433
000220 84 7e 94 be e6 40 0e c0 28 8a 20 3d 61 f7 39 bd
       -0.29002774 -2.222711 0.039194256 -0.045401935
000230 e9 ab 7d be 3c 09 93 bd 98 7b 9d 3c 88 19 07 3e
       -0.2477261 -0.07179496 0.019223973 0.13193333
000240 21 e0 d1 3d e8 81 b5 3c 7c 7a 6d 3d f2 b5 62 3d
       0.10247827 0.02215667 0.05797814 0.055349298
000250 f7 e0 d4 3e 78 17 8d 39 c9 eb 94 3d ca 50 32 bd
       0.41577885 0.000269111 0.07271535 -0.043534078
000260 d9 b4 87 3d b5 7b 51 be 35 9e d6 3d 83 12 d7 3d
       0.06626291 -0.20457347 0.10479394 0.10501578
000270 56 1f 4c bd 58 3b 03 3e 8c c9 a7 bc e7 96 ef 3d
       -0.04983457 0.12815607 -0.020481847 0.11698704
000280 e0 50 46 bf 5e 39 8c 3d 2f 12 20 3e 87 25 07 3c
       -0.77467155 0.068468794 0.15631936 0.008248693
000290 fa 51 e3 bf a4 46 db 3c 47 41 fb 3d ab a4 f9 bc
       -1.7759392 0.026767083 0.1226831 -0.030474028
0002a0 0b f3 92 3d 43 14 4d 3c 68 89 e3 bf 5b 15 0e 3e
       0.07175263 0.012517038 -1.7776308 0.13875334
0002b0 9a e3 0d 3d 9d 89 dd 3d 28 41 9a 3d bb 1f 15 be
       0.034640886 0.10817263 0.07531959 -0.14562885
0002c0 16 37 e4 3d a2 1c f2 bc ba eb bd 3d 42 32 09 3e
       0.11143319 -0.029554669 0.09273477 0.13398078
0002d0 18 bd a7 bc 0a 65 7a 3d f9 55 99 bc 69 18 b4 3d
       -0.02047591 0.061131515 -0.018717753 0.08793718
0002e0 d1 09 13 be 8f b0 8a bc 8d a5 0c 3e e0 00 9a 3d
       -0.14359213 -0.016929893 0.13735028 0.07519698
0002f0 15 e1 de bc db b3 0c 3e 15 b5 b0 3d 50 e0 2f bd
       -0.027206937 0.13740484 0.08628289 -0.04293853
000300 dc d7 e6 bd 08 e5 11 3e a8 56 dd 3b 34 6f cf 3d
       -0.11271641 0.14247525 0.006754715 0.10128632
000310 f8 de 9b 3d 9f cb e5 bc f8 25 79 3d 5f f9 89 3d
       0.07610887 -0.028051196 0.060827225 0.06737017
000320 d2 61 c1 3c 49 d2 f0 3e 60 46 1b 3d 6b dc 55 c0
       0.023606215 0.47035435 0.03790891 -3.3415782
000330 c8 d8 ee bf 08 70 d0 bd 8e d0 9d 3d f5 35 8c bb
       -1.8659906 -0.10177618 0.07705794 -0.004278893
000340 0b ca 04 3d 55 fa 05 be 4a 0f 4e 3d 5f e8 0a bb
       0.032419246 -0.13083775 0.05030755 -0.0021195633
000350 3c 81 1b be 6d 56 de bb 68 2a d2 bd 80 7c 6d 3e
       -0.15186018 -0.006785205 -0.102619946 0.23192024
000360 6a 39 90 3c d1 89 8d bc 12 06 87 3d 14 f7 b7 3d
       0.017605502 -0.01727763 0.06592955 0.08982673
000370 19 dd 1f 3d be 60 5e 3d b7 4e 38 3c c2 37 8e bf
       0.039029215 0.05429148 0.011249236 -1.1110766
000380 5e c3 7b 3c 6b ba 84 3c 89 31 9e 3d c4 c9 3f bd
       0.015366403 0.016202172 0.07724292 -0.046823278
000390 59 6e 1b 3e 4b a8 96 bd ac 1f 3c 3d 60 23 cd bc
       0.15178813 -0.07356318 0.045928642 -0.025041282
0003a0 db 90 06 3d 7a 6a 61 bd 85 9f 1f 3d 33 4b df bc
       0.03285299 -0.055033185 0.03897049 -0.027257537
0003b0 80 f6 0f bf 80 cb 8b 3e bc d9 43 3b 71 0c 3b 3d
       -0.56235504 0.27303696 0.0029884418 0.045666162
0003c0 80 d7 fe bd 95 c3 be 3d 87 18 e5 bb 4d 55 d9 3d
       -0.12443447 0.09314648 -0.0069914493 0.10611973
0003d0 75 b1 e7 3c 76 b5 e1 3d 91 ff 94 bc 42 e0 04 bf
       0.02828286 0.11020939 -0.01818827 -0.5190469
0003e0 20 7a fa bd 20 fc 90 c0 65 fe 74 3d bf be 8b c0
       -0.12230325 -4.530777 0.059812922 -4.3670344
0003f0 65 dc df 3d ff 81 4f bd 08 4c 45 3d ca e5 18 bd
       0.10930709 -0.050661083 0.048168212 -0.03732852

l2.bias f4 [256]
000000 0f 27 92 3d 7b 0d 0d 3c ec 20 cf bc 76 5f 76 3d
       0.07136356 0.008609171 -0.025284253 0.060149632
000010 2e 93 c4 3d 57 aa 78 3b bd ac 24 3e 1f 62 be 3c
       0.09598385 0.0037943327 0.1608152 0.023240147
000020 84 d1 ae 3d 69 2b 16 bd b6 f8 46 bd fc ec 8c 3a
       0.08536056 -0.036662493 -0.048577033 0.0010751779
000030 8d 83 58 3d de 7f 6e bd 69 42 97 bc 1e 85 16 3d
       0.05285983 -0.058227412 -0.018464284 0.036748044
000040 9c 33 9a bd 78 0e 9e bd cb ec 5c bd 21 4d bd 3d
       -0.07529375 -0.077176034 -0.05393676 0.09243227
000050 8d d3 13 bb 8d 64 67 3c d2 80 4d bd 72 79 ce 3c
       -0.0022556514 0.014123094 -0.05017168 0.025204394
000060 a7 c1 06 bd 8c ee d2 3c ed df f0 3d 29 c4 b2 bb
       -0.032899525 0.025748514 0.117614605 -0.005455513
000070 84 eb 67 bd ba 53 09 bd f4 ea 60 bb e7 98 f4 3d
       -0.05662109 -0.033527113 -0.003431973 0.11943226
000080 96 82 b9 3a 08 06 cf bc aa 67 84 bc 8e c2 81 3d
       0.0014153298 -0.02527143 -0.016162712 0.063359365
000090 d4 91 a8 bc 97 24 b4 bc 50 ee bf 3d e9 fb 5f bd
       -0.020577349 -0.021990104 0.093716264 -0.0546836
0000a0 54 29 06 3d 3e ad 7b bd 31 bd e7 3c d6 94 5d 3d
       0.032754257 -0.061444513 0.028288456 0.05409702
0000b0 83 d3 18 bd 18 50 f0 3b 00 f9 ef 39 83 02 e0 3d
       -0.03731109 0.0073337667 0.00045771152 0.10937979
0000c0 74 d7 9e 3d 4f 15 a7 3c a6 1c 2a 3d e7 9d d3 3c
       0.07755938 0.020395903 0.041531228 0.02583213
0000d0 f8 ad 80 3d fd 51 1c 3e a0 40 e0 3d f8 0a e3 bc
       0.06283182 0.15265651 0.10949826 -0.027715191
0000e0 fc 9e 0f bd 90 f8 1e 3d ce e9 bf 3c 21 62 04 bd
       -0.03506373 0.038811266 0.023426916 -0.032320146
0000f0 6f 2d e3 bc 7e 98 1a bd 20 0c 36 3d f4 e0 8a 3d
       -0.027731625 -0.037743084 0.044445157 0.06781188
000100 89 b6 61 3c 5a f4 28 bd e8 ff 59 3d 5c 85 36 3c
       0.01377643 -0.041248657 0.053222567 0.011140194
000110 cf c0 8e bc 78 cb ca 3d de 06 10 3c f8 56 b2 3d
       -0.017425923 0.0990209 0.0087907 0.08707994
000120 ac ba 72 3c f2 e0 1f 3d ee 34 7b 3d 92 3c 04 bd
       0.014815014 0.039032884 0.061329775 -0.032284327
000130 ee 29 94 3d 9a e0 38 3d 76 79 45 bd 36 2d 84 3c
       0.0723456 0.04513607 -0.048211537 0.01613484
000140 da 56 c3 bc 44 e2 6a bd 70 f9 60 3d f1 9d 1a 3d
       -0.023845125 -0.05734469 0.054925382 0.03774828
000150 b4 47 f4 bc 36 2a db 3c 9f de ef 3d 09 1a de 3d
       -0.029819347 0.026753526 0.117123835 0.108448096
000160 26 d9 c0 bd 4b 13 0f 3d 1d 48 03 bd 4e 77 4d bd
       -0.09416418 0.03493051 -0.032051194 -0.050162606
000170 b5 45 d5 3d be 74 a3 bd 98 99 0a bd a5 53 bb bc
       0.10413686 -0.07981251 -0.033837885 -0.022867033
000180 59 20 5f 3c 28 6e 12 3e 81 93 f0 3d 7d f1 a6 3d
       0.013618552 0.14299834 0.11746884 0.08151529
000190 56 e9 94 3d 58 11 a9 bc 75 18 84 3b cd c0 68 3d
       0.07271068 -0.020638153 0.004031236 0.056824494
0001a0 0c 6b 24 3d 07 4d 92 3b f0 3c b9 bc 5f da 2a bd
       0.04014115 0.004464749 -0.022612065 -0.04171216
0001b0 51 bb dd 3d be 77 09 3d fd ba f4 b9 78 30 05 3e
       0.108267434 0.03356146 -0.00046678624 0.1300677
0001c0 b5 dc 83 38 1b 3a 57 bd 95 5f 90 bd 34 e4 6b 3c
       6.287677e-05 -0.052545648 -0.07049481 0.01439767
0001d0 30 94 ed bc f8 89 86 3d 59 5c 07 bd e7 32 96 3d
       -0.029001325 0.06569284 -0.033047054 0.073339276
0001e0 c0 02 95 bc 09 a2 8a 3d 03 e8 ef 3a 45 22 8d 3d
       -0.018189788 0.06769187 0.0018303398 0.06891302
0001f0 97 af 64 3d de 94 f7 3d 15 74 15 be 96 d9 e9 bc
       0.055831518 0.12088941 -0.14595063 -0.028546136
000200 e8 eb 48 bc 5b a2 34 bd 58 0f 99 3b 94 72 20 3d
       -0.012263276 -0.044100147 0.0046710186 0.03917177
000210 2b 79 b0 3c 1b 89 56 bd 91 27 27 3d 41 5a cb bc
       0.021542152 -0.052376848 0.040809218 -0.02482331
000220 eb 6d 06 3e 5a 57 80 3d 98 4c 4c bd 0c 71 1e 3d
       0.13127868 0.06266661 -0.049877733 0.03868203
000230 82 df 88 3d 39 3d 7d bd cb b5 82 3c ad 68 a8 3d
       0.06683256 -0.061825965 0.015955826 0.0822309
000240 ac 82 07 bb 03 51 a3 3d 19 c1 bf bc 5e aa 97 3d
       -0.0020677252 0.07974436 -0.023407506 0.07405542
000250 75 93 3b 3d 5f 43 2c 3d b7 93 33 bd 36 da 18 3d
       0.045794923 0.042056438 -0.043842044 0.037317477
000260 e0 29 b8 3d 7f 29 dd 3d 26 72 6d bb e6 8a a8 3c
       0.08992362 0.107989304 -0.0036231368 0.020574044
000270 b4 b4 78 bd 12 39 9c 3c 3c c3 b1 3d cd 7b 11 3d
       -0.060719207 0.019070182 0.08679816 0.035518456
000280 53 ea 02 bd 90 27 5b 3d 51 13 cd 3c f4 37 fb bc
       -0.03196175 0.053504527 0.025033625 -0.030666329
000290 cb 9d cc 3b 48 e7 0a bd 72 c2 3f bd 4a 69 87 bd
       0.0062443963 -0.033911973 -0.046816297 -0.06611879
0002a0 ba c0 81 bd 9a c8 86 3d 26 2f 09 3d 3a a1 8f 3c
       -0.06335588 0.065812305 0.03349223 0.017532934
0002b0 cd f2 d4 3d 9f 94 f2 3d 16 41 f1 bc 9e d8 cb 3c
       0.10397873 0.118447535 -0.02944998 0.024883565
0002c0 3a 13 88 bd 39 64 4f 3d 3c e8 01 bd a4 b7 9a 3c
       -0.06644292 0.05063269 -0.031715617 0.018886395
0002d0 67 35 f6 3c 66 25 49 bd 7f 52 8d 3c 17 63 6a bc
       0.030054761 -0.04910793 0.017251251 -0.014305851
0002e0 82 05 a5 bc f6 ba 6c 3d 72 1f c1 bc d2 dc 91 3c
       -0.020144228 0.057795487 -0.023574565 0.01780549
0002f0 20 e7 ab 3c f0 d7 44 3d ea fa 2c 3d a7 20 d5 3d
       0.020984232 0.048057497 0.042231478 0.104066186
000300 13 7e a4 bc db d9 18 bd ee 5c 92 3c eb 31 88 3c
       -0.020079648 -0.03731714 0.017866578 0.016625365
000310 66 c9 39 bd 4d 86 8d 3b 79 7e 8e ba cf 89 d6 3d
       -0.045358084 0.0043189884 -0.0010871432 0.10475504
000320 5d 35 b2 3d 39 65 d4 3c db 75 09 be 31 1b 46 be
       0.087015845 0.025927173 -0.13423865 -0.1934631
000330 97 1b 39 3d 10 ca 81 3b 4c 34 1d bd 5c e9 5b 3d
       0.045192327 0.0039608553 -0.038379952 0.053689346
000340 10 a5 12 3e 6f 64 86 3b eb 9b 53 bd 25 9e df bc
       0.14320779 0.004101328 -0.051662367 -0.027297089
000350 75 ad be bb 45 10 a4 3d 52 37 02 3d 2f c0 bf 3d
       -0.0058190175 0.08010916 0.03179104 0.09362828
000360 72 7d 26 3e 2a 13 b2 3d 55 4b 85 bd 1c f3 e0 3d
       0.16258791 0.086950615 -0.06508509 0.109838694
000370 57 c9 80 3d fe d1 47 bd 29 c1 8f 3c b8 d7 17 bc
       0.062884025 -0.04878425 0.01754816 -0.00926774
000380 eb 77 10 bb e6 e2 18 bb 6c 65 d9 3d 11 e6 a5 3c
       -0.0022044133 -0.0023328601 0.10615048 0.020251306
000390 a7 3c 6a 3d 90 d3 42 bc 86 0f 3d 3d 8d 30 13 3c
       0.05718675 -0.011891261 0.046157382 0.008983743
0003a0 2a ce 87 bd d4 68 2b 3c 74 c5 d4 3d fc cd 18 ba
       -0.066311195 0.010462005 0.10389224 -0.0005829034
0003b0 58 55 f2 3c 3f b8 7d bd dd 70 c2 3d e8 e1 44 3d
       0.02958171 -0.06194329 0.09494183 0.048067003
0003c0 21 d7 0a bd cd a7 b9 3c a2 a6 6e bd d2 7d 35 3d
       -0.03389657 0.022663021 -0.058264382 0.044309445
0003d0 b4 56 3d 3d 3e 48 d3 3c 02 90 f1 3a 7b e1 1b 3d
       0.046225265 0.025791284 0.0018429758 0.03805683
0003e0 fb 3e d8 bd 44 1d 58 3c 1e a8 68 bd 8c 32 14 3d
       -0.105588876 0.013190571 -0.056800954 0.036181018
0003f0 e8 47 33 3c f5 b8 b0 3c b9 df b0 3c 51 e1 17 3d
       0.010942437 0.02157257 0.021591054 0.037080113

l3.weight f4 [1, 256]
000000 99 9b 0f 3f 4b bb 8a bf 64 06 94 3c 26 0e 84 bf
       0.560968 -1.0838407 0.018069454 -1.0316818
000010 ed ad 99 3f 31 21 70 c0 56 1d ad 3f fc 55 6c bd
       1.2006203 -3.7520258 1.3524578 -0.05769919
000020 ca 6b 3e 3f d3 dd db bc ca 33 01 bd 76 f0 07 3f
       0.74383223 -0.026839172 -0.03154353 0.5310129
000030 70 b7 3a bf fb d9 1b c0 d3 b7 76 bc 1f ab 34 3e
       -0.72936153 -2.4351795 -0.015058476 0.17643403
000040 fe 8a 16 c0 13 03 0a bd f5 bd cb bc 3b ef 1e 3f
       -2.3522334 -0.033694338 -0.024870852 0.62083787
000050 82 b9 4d 3f e3 55 e1 3e 87 ac 42 bd d9 31 27 3f
       0.8036119 0.4401084 -0.047527816 0.65310436
000060 61 c8 c0 bc 75 76 66 bc 59 a2 86 be 22 a5 25 bd
       -0.023533048 -0.014066328 -0.26295736 -0.040440686
000070 02 3a 0d c0 13 0c 05 bd 41 05 5b bf 53 17 b2 3f
       -2.2066655 -0.032482218 -0.8555489 1.3913368
000080 38 de 08 bd 5f b1 4c 3e fb f8 84 3b 96 62 04 3e
       -0.03341505 0.19989537 0.004058001 0.12928233
000090 ee f9 44 3e 1f b1 59 bd f6 6d 01 3f 44 99 d3 bc
       0.19235966 -0.05314743 0.5055841 -0.025829919
0000a0 16 f9 b8 3f 69 5f 23 bd f2 23 31 3f f4 c3 c0 bc
       1.4451015 -0.039885912 0.69195473 -0.023530938
0000b0 07 0b b8 bc cd c4 1f 3f a4 90 cf 3c bd b4 10 3f
       -0.022466196 0.6240967 0.025337525 0.56525785
0000c0 c4 65 32 3f 19 28 0a 3f a8 ac 25 3f f6 8f 0c 40
       0.6968653 0.53967434 0.6471658 2.1962867
0000d0 d7 a0 20 3f ff b1 31 3f 3a a7 02 3f 50 10 52 bf
       0.6274542 0.69412225 0.5103642 -0.8205614
0000e0 f3 4b ee bf 67 08 41 3f bc a0 1c c0 43 31 65 bf
       -1.8616928 0.75403446 -2.4473104 -0.8952829
0000f0 8b 6d 55 bd 55 a4 98 bc 2d 5d 39 3f 36 cb dc bf
       -0.05210642 -0.018633047 0.724078 -1.7249515
000100 88 08 a6 3f 49 ce 0f bd dc af e3 3f 79 55 63 3f
       1.2971354 -0.03510884 1.7788043 0.88802296
000110 21 f1 8c 3b ed 26 21 3f e5 e0 4f bf 93 cd 26 3f
       0.0043012057 0.6295002 -0.81202537 0.6515743
000120 c7 ed 2f 3e 37 28 08 c0 5f 3d 21 3f 1b ac 63 bd
       0.17180549 -2.1274545 0.6298427 -0.055584054
000130 d8 1e 30 3f 2f 97 01 3f 00 ef 8a bc 84 b7 29 3f
       0.68797064 0.5062131 -0.016959667 0.6629565
000140 74 0f 26 c0 ed 60 0e 3d ca 51 b1 3d 38 44 2e bf
       -2.5946932 0.034760404 0.08658178 -0.68072844
000150 76 cd 18 c0 ac 9b 8d bc 56 b7 2e 3f ed 38 28 bf
       -2.3875403 -0.017286144 0.682485 -0.6571186
000160 ea 14 18 c0 d2 bd 77 3e 7e 86 26 3f b1 a0 89 bf
       -2.3762765 0.24193504 0.6504897 -1.0752164
000170 7a 61 ba 3f 39 11 28 c0 4c e1 9d bf ce ff 2c 3d
       1.4560997 -2.6260512 -1.233438 0.04223614
000180 62 26 5e bf 15 a4 a5 3f 6b 77 1d 3f 39 25 41 3f
       -0.8677732 1.2940699 0.6151034 0.7544742
000190 a8 a3 2e 3f b3 6a fd 38 b0 54 0e c0 94 c2 20 bd
       0.6821847 0.000120838544 -2.223919 -0.039248064
0001a0 f8 dc 17 3f 60 3f 07 3f 22 b6 09 3e 01 44 9c 3e
       0.59321547 0.5283108 0.13448384 0.30520633
0001b0 6d d6 38 3f 7c 9b fc 3e 39 69 b2 bc fe df a0 3f
       0.7220219 0.49337375 -0.02177869 1.2568357
0001c0 4c ad fd bc 85 ed a0 bc a1 12 aa 3f 02 85 28 bd
       -0.030966423 -0.019644508 1.3286935 -0.04114247
0001d0 e9 9e 1d bf f3 d6 2e c0 b9 54 18 bd 3f d7 26 3f
       -0.615706 -2.7318695 -0.037190173 0.6517219
0001e0 e9 f6 d5 3e 25 cf f7 3e 76 1e 1f 3e 51 4f 00 3f
       0.4178994 0.48400226 0.15538964 0.5012103
0001f0 20 4d e9 3e 7a 74 14 3f cc 1d c5 bf c2 4b bb bc
       0.45566654 0.5799023 -1.5399718 -0.022863273
000200 ee a3 7b bd cd dd d7 bc 51 29 8e bc 24 c7 15 3f
       -0.061435632 -0.02635088 -0.017353686 0.5850699
000210 6d d8 5a bb 0d 8e 38 bc e9 e0 70 3f 3a 0c 15 c0
       -0.003339316 -0.011264336 0.94093186 -2.3288713
000220 a3 5a 0a 3f 2d 0e e3 be 54 93 31 3e 0a 98 9f bc
       0.5404455 -0.44346753 0.17341357 -0.019481678
000230 ac bc 33 3e 19 6f 71 bc 22 b6 32 3f fe 69 11 3f
       0.17552441 -0.01473596 0.6980916 0.56802356
000240 19 a1 ae bf 3c 85 ad 3f 75 17 55 3e c4 ce 07 3f
       -1.3642913 1.3556285 0.2080973 0.53049874
000250 72 88 31 3e 38 68 cc bc b3 04 ce 3c a9 cd 29 bd
       0.17337206 -0.02495204 0.025148725 -0.0414559
000260 9a 27 04 3f 00 8d 32 bf 9f 1f 48 bc b0 3b a2 3e
       0.5162293 -0.697464 -0.01221457 0.31686163
000270 59 81 3e bd 52 26 b5 bc 28 02 1b 3f 6f e1 ba 3b
       -0.046510074 -0.022113 0.60550165 0.0057031433
000280 53 47 e5 bb f5 47 3d 3f 9a e6 02 3f da 6a 19 3f
       -0.006997028 0.7393792 0.5113312 0.5992867
000290 4e 79 af bf 64 54 82 bf f7 d8 f5 3a 26 d3 b4 3c
       -1.3708894 -1.0182004 0.0018756677 0.02207334
0002a0 85 0e 58 3e 69 08 27 3f 6e 71 93 3f 3f 54 7d bd
       0.21099289 0.6524721 1.1518991 -0.06184792
0002b0 24 f1 17 3f 33 0b 20 3f d9 5a a9 bf 4b 57 3f 3c
       0.59352326 0.6251709 -1.323085 0.011678527
0002c0 83 c1 7c 3b 98 e3 31 bd e2 d4 94 bf 76 b1 00 3f
       0.003856749 -0.04342994 -1.1627467 0.50270784
0002d0 0e ab 05 bd 2d 17 bc 3f 47 96 5e bf 3a 56 d2 bf
       -0.032633834 1.4694573 -0.86948055 -1.6432564
0002e0 58 f1 fa bf 77 30 c1 3e 36 c2 10 bd dd 55 f4 bc
       -1.9604902 0.37732288 -0.035341464 -0.029826099
0002f0 1e 10 96 3f 65 ab 10 3f 42 83 7d be ec f6 3a 3f
       1.1723669 0.5651153 -0.24757102 0.7303302
000300 37 ba 55 3f c4 7c 5a bd 2d 5e 22 bf 19 80 63 bd
       0.83487266 -0.053341642 -0.6342495 -0.055542085
000310 64 e6 3d bd 5a e8 a9 3e b9 4e 80 c0 1b 4a 1f 3f
       -0.046362296 0.33185083 -4.0096097 0.6222245
000320 7a e7 29 3f 4b c7 a2 bc c6 bc 4f c0 1e 81 02 c0
       0.6636883 -0.01987042 -3.2458968 -2.0391307
000330 4a e3 17 c0 ba 63 1d 3d b4 9c ac bc 34 d4 ed bc
       -2.3732476 0.038425185 -0.021070816 -0.02903185
000340 e2 7c 25 3f 08 95 da ba 84 8d b6 bb 13 e5 14 bd
       0.6464368 -0.0016676495 -0.005571069 -0.036351275
000350 f4 5a 8f bf ec 0a 43 c0 c0 80 2f bf ab ce 97 3f
       -1.1199632 -3.0475416 -0.6855583 1.1859945
000360 5c 7d 1e bf ed 95 0a 3f 29 a2 49 3f 80 6d 25 3f
       -0.61910033 0.5413502 0.7876306 0.6462021
000370 39 c5 01 3f 4c 7d e0 bb e0 fa 4d bc 56 3d 9a 3c
       0.5069156 -0.006850874 -0.01257202 0.018828075
000380 59 b8 93 3f 2b 36 ac ba cc 25 b7 3f 0f 82 3c bc
       1.1540633 -0.0013138702 1.430841 -0.011505618
000390 40 5a 17 3f b0 d4 05 c0 21 73 f3 3e 4e 70 2a c0
       0.59122086 -2.0911064 0.47548774 -2.6631045
0003a0 92 53 78 3b 85 6c 7c bf e7 cc 1a 3f 77 52 ef 3e
       0.0037891609 -0.9860309 0.60468906 0.46742603
0003b0 7d 3f 24 bf 35 5c 6d 3f 4a 51 fb 3e 47 b0 fd 3e
       -0.64159375 0.9271882 0.49085456 0.4954855
0003c0 d6 0d 91 3e 94 e6 55 bc 3c 41 35 bd 15 1b 98 bf
       0.28330868 -0.013055462 -0.044251665 -1.1883265
0003d0 e5 d4 12 3f f3 6e 0f c0 24 ad 52 c0 5a 32 9b bc
       0.573561 -2.2411468 -3.2918177 -0.018944908
0003e0 cc a4 b6 bf b9 25 de be dd a6 4b bd 95 6d 33 3f
       -1.4269042 -0.43388155 -0.04971968 0.70089084
0003f0 50 c1 a2 3b 4e c3 88 3e 29 f7 de 3f 00 20 04 3f
       0.0049668923 0.26711506 1.7419177 0.5161133

l4.weight f4 [256, 6]
000000 b1 c7 b8 be 7e 0a 87 3e 97 83 02 3e 68 70 dc 3e
       -0.36089852 0.26375192 0.1274551 0.4305451
000010 a5 fb 11 bf 04 e7 c9 3d 12 f0 aa be 01 4a 74 be
       -0.57024604 0.09858516 -0.33386284 -0.23856355
000020 c6 ec d4 bc e6 45 4f bf 03 e3 a4 3e 4c 58 42 be
       -0.025991809 -0.8096603 0.32204446 -0.18978995
000030 14 be 2b bd 66 31 60 3d b1 fb 98 3d 5e 9f 70 3f
       -0.04192932 0.05473461 0.07469881 0.93993175
000040 35 71 bf 3c 78 bf 7e 3e 14 05 a7 bd 6b e6 17 3d
       0.023369411 0.24877727 -0.081552655 0.037084978
000050 ca 21 cf bc 39 2c bd 3f 53 b9 23 3e cb 63 34 bd
       -0.025284667 1.4779121 0.15988664 -0.044040482
000060 b5 16 64 be a6 52 37 bd 36 9e 0b 3e e6 e5 57 bf
       -0.22274287 -0.044756554 0.13634571 -0.8433517
000070 b4 34 93 be f7 9e aa 3d 04 97 63 3d 70 ec b1 3e
       -0.28751147 0.083311014 0.05556394 0.347507
000080 04 7e a6 3b 4e 91 a2 3f a7 81 92 3e d1 d4 64 3e
       0.00508094 1.2700593 0.28614542 0.22346808
000090 ce ed 89 3f d9 76 0e be 1f 63 1c 3d 17 c7 c0 3d
       1.0775697 -0.13912524 0.038180467 0.094129734
0000a0 46 55 a5 be 6f f7 a2 3d 95 9c bf 3d 6b 7c e2 3d
       -0.3229162 0.079573505 0.093560375 0.11058887
0000b0 e3 04 5e 3e 9e 1f 6c bc d3 8a ac be eb 2e 2c be
       0.21681552 -0.014411835 -0.33699664 -0.16814773
0000c0 28 86 80 3e 15 1e 1c 3f 3e 6f c8 be 91 aa 85 3f
       0.25102353 0.609834 -0.3914737 1.0442678
0000d0 1b 9d 05 3d dc 73 81 3e c7 f5 04 3e f7 8a 22 be
       0.03262053 0.25283706 0.12984382 -0.15873323
0000e0 ef cc f5 bb a9 98 0e 3e e3 a3 b3 be e5 aa 43 be
       -0.0075012366 0.13925423 -0.35085973 -0.1910816
0000f0 f2 a9 bd 3e be 0b d8 be e7 8a 0b be 5e 34 8b bf
       0.3704372 -0.4219646 -0.13627206 -1.0875356
000100 7a c9 96 bd cd 81 93 bd 5f 11 97 3d 7f 11 2b 3e
       -0.07362647 -0.07202492 0.0737636 0.16705893
000110 1f 2e 0c be 38 e7 a9 bf 74 54 cd 3e 7d 0f d9 bd
       -0.13689469 -1.3273687 0.40103495 -0.10598657
000120 df 79 b3 3d bc 65 24 3e e9 1d cf be 00 69 8f 3e
       0.087634794 0.16054434 -0.40452507 0.28009796
000130 04 24 1f bf d9 38 36 be 31 88 55 bf bb 1a 12 bd
       -0.6216433 -0.17795123 -0.83410937 -0.035670023
000140 99 ef 54 be 87 f0 c1 3f 5e d0 65 3e 94 20 97 bd
       -0.20794524 1.5151528 0.22442767 -0.07379261
000150 20 e5 6f bd 7d 6f 89 3e 97 54 4c be 07 b1 4b 3f
       -0.05856812 0.2684287 -0.19954143 0.79567
000160 cc f9 0f bf 44 42 8a 3e b0 bd ce 3e e0 c2 1b be
       -0.56240535 0.27003682 0.40379095 -0.15211058
000170 5c 3e af be 14 de cf 3e f0 fc 3a bd fc 9c e9 bd
       -0.34227264 0.4059912 -0.045651376 -0.114068955
000180 06 d6 9e be c3 c0 4f 3d f6 ed a8 be 86 fa 9e bf
       -0.31022662 0.05072094 -0.3299405 -1.2420204
000190 c1 19 05 be d9 3b 03 3d 5b 37 88 3e 1b 99 64 be
       -0.12998106 0.032039497 0.26604733 -0.2232403
0001a0 b8 33 8c be 8a 1b 04 c0 b5 7d eb be 0d 14 b5 3d
       -0.27383208 -2.0641809 -0.45994344 0.08841715
0001b0 0d ef 7e 3f 66 89 48 be 83 d1 83 be 8f b4 58 bf
       0.9958351 -0.19583663 -0.25745782 -0.8465051
0001c0 33 87 00 3f 4d 6a a0 be 32 88 b5 be b7 12 b7 be
       0.502063 -0.313311 -0.3545547 -0.35756466
0001d0 6c 8a 49 be 7a cb a1 bf 60 c9 ff bd b1 4b 9d be
       -0.1968171 -1.2640221 -0.12489581 -0.3072181
0001e0 53 25 39 be 9e f9 e7 bd 08 a8 22 3e 89 09 8f 3f
       -0.18080644 -0.113269076 0.15884411 1.1174785
0001f0 6d 41 1f be 21 2e 46 3e e6 1b ee 3d 60 5e cd be
       -0.15552302 0.19353534 0.11626415 -0.40111065
000200 1b 32 de be 6b 30 47 bf 0b 11 57 3d 52 73 10 3e
       -0.43397602 -0.77808255 0.052506488 0.14106491
000210 5a 1e 01 3e 7b ec 8b 3e a0 95 23 3d 38 20 85 bf
       0.12609234 0.27328858 0.039937615 -1.0400457
000220 da c2 c1 be ac 88 09 3e af 48 9b 3d db 6b 2e bf
       -0.37843972 0.13431042 0.07582223 -0.68133324
000230 93 39 c0 be 17 1b 02 3e 80 7f 29 bf a8 b4 bd 3d
       -0.37543926 0.12705646 -0.66210175 0.09262973
000240 78 42 c7 3c dd 37 66 3e 70 01 32 bd 3a 2c 83 3d
       0.024323687 0.22482248 -0.043458402 0.0640492
000250 0f 67 3f 3d 74 ee 2e 3d 13 6f 7c 3e a3 b4 2f bf
       0.046729144 0.042707875 0.24651746 -0.68635005
000260 88 b7 ea 3d 37 e6 ff be ed 3e b1 be b8 dd 1f be
       0.11460787 -0.49980327 -0.3461832 -0.15611923
000270 cd 78 b1 3e 43 e8 c8 bd 43 02 e0 bb f5 52 5f 3f
       0.34662476 -0.098099254 -0.006836207 0.8723596
000280 9b ed ba 3d 60 9e ce bc d3 fe ad 3c f6 47 b9 be
       0.09127351 -0.025222003 0.021239674 -0.36187714
000290 08 6e c6 be 56 5f cb bd c4 fa f1 3c e8 c4 55 be
       -0.38755822 -0.09930293 0.02953852 -0.20875895
0002a0 d2 f9 ea bd e8 f6 42 be f7 48 cf 3c e2 5b ae bf
       -0.11473431 -0.190395 0.025303347 -1.362179
0002b0 c6 a9 3f be 6f 20 29 3d 5e 34 ae be da 5c bd 3e
       -0.18717107 0.041290697 -0.34024328 0.36984903
0002c0 86 bb ba be a9 26 cc be f8 31 c7 bc 66 1b 08 3d
       -0.36471194 -0.39873245 -0.02431582 0.033229254
0002d0 3f 0f b3 bd 22 3b 17 3e 1a fb c0 bd 51 c6 17 3f
       -0.08743142 0.14768651 -0.09422894 0.5928698
0002e0 f2 dc e3 bd 3d 9c 13 bd 9a 6a c1 3e 34 9f 25 3f
       -0.11126126 -0.036037672 0.37776643 0.6469605
0002f0 b1 5b 9b be f1 14 fc 3e 88 2f 38 be ab 6e bc 3d
       -0.30343392 0.49234727 -0.17986882 0.09200796
000300 58 09 17 be 03 70 ed 3e c4 5e d5 bd 09 01 85 3f
       -0.14749658 0.4637452 -0.10418466 1.0390941
000310 86 bb d1 be dc 9a a3 3c ab 94 dd 3d b1 cf 28 be
       -0.40963382 0.019971304 0.10819372 -0.16485478
000320 3b af 89 3e 43 70 48 bf 8e b9 b3 be 67 02 58 3e
       0.26891503 -0.782963 -0.35102504 0.21094666
000330 30 d1 03 bd 31 cb 26 bf 13 66 79 3e cf 25 c6 ba
       -0.03218192 -0.65153795 0.24355344 -0.0015117469
000340 77 fd c0 be 27 bd 88 3c 3a e8 b9 3e 4a 39 49 3f
       -0.37693378 0.016691757 0.36309987 0.7860304
000350 9f c5 92 be ca f0 63 3e 8d c3 05 3e f8 84 31 3d
       -0.28666398 0.22259822 0.13062878 0.0433397
000360 f2 93 9c 3d d4 b2 db bd da b8 88 3d b3 29 a8 bf
       0.07645406 -0.10727468 0.06675883 -1.3137726
000370 1b 70 77 be a9 b1 44 3d d4 d0 6a 3f 82 22 f4 be
       -0.24163859 0.048020992 0.91724896 -0.47682577
000380 91 a8 e1 3b 27 6a 64 bf 31 17 97 be 20 ed 44 3e
       0.0068865498 -0.89224476 -0.2950988 0.19231081
000390 b8 12 f1 be b4 d7 9b be fe ae 1c 3e fa 9b 97 3f
       -0.47084594 -0.30438006 0.15301129 1.1844475
0003a0 bd e1 89 3d d0 e0 8a bc b7 1f 9d 3d 7c b7 3e be
       0.06732509 -0.016952902 0.07672065 -0.18624681
0003b0 e1 27 af 3e 38 87 5d 3f f1 96 c3 bb d1 cc e7 3e
       0.34210113 0.8653445 -0.0059689214 0.4527345
0003c0 7b 84 b7 be f4 0a c6 3e ac ea 9b bc e4 5a dc 3e
       -0.35843262 0.38680232 -0.019032799 0.43038094
0003d0 a3 fa 0e bf 25 c7 4a 3e ba cc 3f 3e 96 b5 f6 3d
       -0.5585119 0.1980253 0.1873044 0.120463535
0003e0 66 62 9e be 03 ef 3a bf 54 84 53 be b3 25 b5 3d
       -0.30934447 -0.7302095 -0.20655948 0.08845081
0003f0 9c 39 a7 3d ca 46 e6 bd dc fc f7 3e 1c ec d7 bf
       0.08165285 -0.11243971 0.48435104 -1.686893

l4.bias f4 [256]
000000 49 8c 12 3d 37 e9 8d 3d 4c ee 0d 3e 50 6d 9c be
       0.035778318 0.06929248 0.13860434 -0.3055215
000010 bc 4b a9 3e d0 97 8a be 28 08 94 be 84 99 ec 3d
       0.33065593 -0.2706895 -0.28912473 0.11552718
000020 00 d7 f4 3d 84 59 98 3e 77 87 ed 3d f8 86 57 3e
       0.119550705 0.29755795 0.115981035 0.2104758
000030 0b 30 3f be 15 20 1d be 81 af 97 3d 8f bf 92 be
       -0.1867067 -0.1534427 0.074065216 -0.28661773
000040 0a 48 d6 3c 68 bd c5 be 2e 1c 45 3e e2 53 24 3d
       0.026157398 -0.38621068 0.19249031 0.04011906
000050 ab 8d e4 3d c5 24 3a be ea 8b bc be aa 7e 01 3c
       0.111598335 -0.18178089 -0.36825496 0.007903734
000060 a0 f0 33 3e 69 27 be bd ad 16 87 3e c2 b9 4a 3e
       0.1757226 -0.09284861 0.26384488 0.19797423
000070 ce 03 a2 3e 60 f1 93 be 88 e0 c3 3e 47 c1 f1 bd
       0.31643528 -0.28895092 0.3825724 -0.11804443
000080 09 a4 80 3e 54 66 cf 3e 0e 17 79 3c f0 fe 0c 3e
       0.2512515 0.40507758 0.015203251 0.13769126
000090 26 a8 b2 3e da d9 a1 be 19 96 a3 be 73 13 af be
       0.34893912 -0.3161152 -0.31950453 -0.34194526
0000a0 89 eb 1e be 6e 90 6d 3e 02 81 ff 3c a3 22 1f 3e
       -0.15519537 0.23199627 0.031189445 0.15540557
0000b0 47 9e 1e bd a2 9a 21 be 32 a4 f3 3d e9 17 9c be
       -0.038725164 -0.15781644 0.11896552 -0.30486992
0000c0 88 b3 12 3f c7 b2 0a be 66 38 cd 3e 8d 3e 3e 3e
       0.5730519 -0.1354476 0.4008209 0.18578549
0000d0 68 03 b3 3e 76 df 6c 3e a2 14 a8 b9 e8 a4 cd 3d
       0.34963536 0.23132119 -0.0003205883 0.10041219
0000e0 4e a3 5b 3e 58 cc 11 3e df 06 83 3d da 75 ad 3e
       0.21449015 0.14238107 0.06397795 0.33878976
0000f0 4b 02 8d 3e 3a 65 b3 3e 56 3f a1 3e 59 30 d2 3d
       0.27540812 0.35038167 0.31493634 0.10263128
000100 d9 00 b0 3e e5 71 d1 3e 02 68 d0 be cc 84 f1 3d
       0.34375647 0.40907207 -0.40704352 0.11792907
000110 ee 8e 9f be ba cf 76 bd 5b c8 b5 3e 0f 06 ea bd
       -0.31163734 -0.060256697 0.35504422 -0.11426937
000120 42 ec b2 bd 55 4b 42 3e c3 09 78 3d 0c 95 44 3e
       -0.08736469 0.1897405 0.060556185 0.19197482
000130 11 d3 5d be 03 6e 89 be 22 5c 2e be 0b e3 68 3e
       -0.21662547 -0.26841745 -0.17027333 0.2274286
000140 2e ec 36 bd 5c c2 b7 be 4e 42 80 be 3d c4 0a 3f
       -0.044658832 -0.35890472 -0.25050586 0.54205686
000150 9b fc 31 3e 58 ca 95 3e 58 7c 00 bf e0 2e 45 3e
       0.17381518 0.2925594 -0.50189734 0.19256163
000160 f1 11 f2 3d b4 c5 cd be 26 62 c2 3e a1 ba 0a 3d
       0.11819828 -0.40189898 0.37965506 0.03386939
000170 a4 7d f5 3e dd 77 a5 3e a4 10 d1 ba d2 b8 da be
       0.4794742 0.3231801 -0.0015950394 -0.42719132
000180 ee c3 5a 3e 89 62 ff be db 74 3e 3e 17 10 95 bd
       0.21363804 -0.49879864 0.18599264 -0.072784595
000190 78 16 28 3e 6f 42 ae be 9b 81 a8 3d cc a6 de 3d
       0.16414821 -0.3403506 0.08227845 0.10871658
0001a0 be 8c ff bc 7a 6b 81 3d c1 01 94 3d 96 63 90 be
       -0.03119504 0.06319328 0.07226897 -0.28200978
0001b0 ec 6a 93 be 20 09 24 be e5 80 ff bd 82 e3 96 3e
       -0.28792512 -0.16019106 -0.124757566 0.2947045
0001c0 7b 77 8e be 45 87 e2 3d 84 22 72 be e4 86 64 3e
       -0.2782553 0.11060957 -0.23645979 0.22317082
0001d0 2c e2 af 3e 3b 3c 95 3e 3c 99 90 3e bb ed a0 3e
       0.34352243 0.29147515 0.2824191 0.31431374
0001e0 21 1a df 3d 22 b8 99 3d b4 f9 9b 3e 8f 5b 90 be
       0.108936556 0.07505824 0.30463946 -0.28194854
0001f0 83 92 84 be 95 4c 16 3e 87 35 72 3d 30 d3 b6 be
       -0.2589303 0.14677651 0.05913308 -0.35707998
000200 e6 fe 5c b9 69 dd 67 bd a0 43 b1 3c 4f ad 02 3e
       -0.00021075792 -0.056607638 0.021638691 0.12761424
000210 d2 c2 e5 be cf ba b0 3e 57 7d e8 be ef 14 c1 be
       -0.448752 0.34517524 -0.45408127 -0.37711284
000220 22 59 9f 3e 61 df c0 3d 89 53 94 3e a1 38 e2 be
       0.3112269 0.09417606 0.28969982 -0.4418383
000230 6d 4c 0c 3e 13 b9 45 3e 13 19 c4 3e 46 40 9c 3e
       0.13701029 0.19308881 0.3830038 0.30517787
000240 92 8b 95 3e 78 75 86 bd ff 76 9d be 5a 87 dd be
       0.29208046 -0.06565374 -0.3075485 -0.43267328
000250 44 bc be 3e 69 97 86 3c 03 46 36 3e 59 9f 77 bd
       0.3725301 0.01642962 0.17800145 -0.0604547
000260 ad eb f6 bd c0 1c b5 be 9b cc 78 be ff 45 41 3e
       -0.1205667 -0.35373497 -0.24296801 0.18874358
000270 8f 3d 47 be a0 62 90 bd b9 35 87 3d 5f 81 10 be
       -0.19457076 -0.07050061 0.06602044 -0.14111851
000280 65 86 25 be 27 a3 e8 3e 79 3c 8e be e7 b4 b1 3e
       -0.16164549 0.45436975 -0.27780512 0.3470833
000290 0a 8d d6 be 65 1b 81 3e ae 82 16 bf 3b 1b 5c 3e
       -0.4190448 0.25216213 -0.5879315 0.21494763
0002a0 e0 b4 bf be cb 63 80 bd 36 89 55 3e 7f 0f 43 be
       -0.37442684 -0.06269034 0.20853123 -0.1904888
0002b0 4e 5c 86 be 53 8a 2c be 63 24 66 be dd 91 b5 bd
       -0.26242298 -0.16849642 -0.22474818 -0.08865712
0002c0 d6 c6 a2 3e 33 e2 7d 3e c6 c9 20 3e 0e 13 48 be
       0.31792325 0.2479332 0.1570197 -0.19538519
0002d0 af 0f 29 be 50 78 ae be f6 53 9a 3d 17 da 8e 3e
       -0.16509889 -0.34076166 0.075355455 0.27900764
0002e0 43 a5 11 be 2c 70 b3 be cd 30 89 be 6b 0d 1e 3e
       -0.14223199 -0.35046518 -0.26795045 0.15434806
0002f0 b2 9b 1a 3e be 1c a6 3e 7e d8 a4 3e f2 e9 e4 bd
       0.15098456 0.32443804 0.3219642 -0.11177434
000300 67 04 5e 3e 04 02 c3 be 99 ad 02 bf c0 ed 3c be
       0.21681367 -0.38087475 -0.5104614 -0.1845007
000310 23 59 7d be 56 9c 3b be f2 da 36 3e 51 77 9d 3e
       -0.24741034 -0.18321356 0.17856959 0.30755094
000320 cb ef 9f 3e 0f 74 93 be d6 7d 2f 3d 86 65 5e bc
       0.31237635 -0.28799483 0.042844616 -0.01357401
000330 72 fb 2a 3e b1 7e 46 bd 55 2f 8e bd 69 52 be bb
       0.16697481 -0.048460666 -0.069426216 -0.005808164
000340 32 b9 99 3e 9f 57 52 be 07 7c 87 3e 8c 9b 4c be
       0.30024105 -0.20541237 0.26461813 -0.19981211
000350 09 15 04 bf 73 34 71 3d 91 4e cc be 76 a6 1e be
       -0.515946 0.05888791 -0.3990369 -0.15493187
000360 f2 33 07 be 95 03 98 3e 05 88 1a bd 18 ce aa 3e
       -0.1320341 0.29690233 -0.037727375 0.33360362
000370 5c c0 86 be 2e 45 bb be ec 84 90 be 19 e3 1f be
       -0.26318634 -0.36576217 -0.2822641 -0.15613975
000380 a3 9b 7f 3e 59 ec b9 bd 3d 41 15 3e f3 99 a1 3e
       0.24961714 -0.09078283 0.14575668 0.31562766
000390 af 81 51 3d 8b 93 c7 bd cb 2e c5 be 2b 87 d9 39
       0.051149067 -0.097449385 -0.38512263 0.00041490173
0003a0 7f e6 47 3e 03 28 bb 3d e1 94 57 3d 63 2f 3b be
       0.19521521 0.09138491 0.052632216 -0.18279795
0003b0 6d 7a f2 be e2 be bc 3e 1b 0f 98 bb 58 a0 9e 3e
       -0.47359028 0.36864382 -0.0046404726 0.30981708
0003c0 9e 6f 0d bf 5b a3 c4 bc 73 7a e5 3d 51 3c 23 3e
       -0.5524844 -0.024003675 0.11204996 0.15940978
0003d0 26 13 a1 be bc e6 3a be 66 a0 93 3d 38 99 c8 3d
       -0.31459922 -0.1825208 0.07208328 0.09794849
0003e0 bd 43 6d bd ff c0 df 3c 21 15 a9 3e ce ea 11 3d
       -0.05792593 0.027313707 0.33023933 0.035624318
0003f0 f4 28 ed be 02 6d 83 be f8 11 c7 3d 57 6d cb bd
       -0.46320307 -0.25669104 0.09720224 -0.09932964
