part1/InvertedPendulumBulletEnv-v0_PPO_2_1637603983_ppo.pth (torch, 40894 bytes, 10 tensors)

critic.0.weight f4 [64, 5]
0.26299876 -0.15827724 0.11783432 -0.04846244 -0.14233935 0.2340128 0.0072381813 0.11949688
0.063379474 -0.0355597 -0.08373154 -0.0067353034 -0.22068742 -0.078251466 -0.13896419 -0.335708
0.17235093 -0.24866924 0.07782687 0.35032254 0.015092892 -0.23415841 -0.09401354 -0.09317687
-0.11000545 -0.16887489 0.20006463 0.14717285 0.06300233 0.21704291 -0.04472878 0.06468537
-0.22576027 0.021583064 0.014241989 -0.2285439 -0.19381127 0.03945607 0.3314602 0.057634618
-0.19358312 0.2991922 -0.0182268 0.08015449 0.33519155 -0.00051042566 0.057257693 -0.031899836
-0.07379421 -0.12691991 -0.1886171 0.0609297 0.2631133 -0.0047763856 0.03864147 -0.079200424
0.27081364 0.059233952 -0.15781543 -0.19545892 0.06897414 -0.03552431 -0.17975733 -0.016013104
0.0040613855 -0.1810991 0.008584054 0.25174513 -0.17006673 0.0677831 0.27817369 -0.025466586
0.06644004 -0.040729385 0.062072437 -0.35012132 -0.06196637 -0.13152592 0.13830146 0.07623657
0.22827634 0.13749069 -0.11569781 -0.08998227 0.12093831 -0.24401751 0.007843736 -0.20409119
-0.26615164 0.08777179 0.1643042 0.050792024 0.11421563 0.15497892 -0.03262157 -0.13357136
-0.20717196 0.39722723 -0.06479955 -0.12643844 0.025590748 0.2947126 0.3212508 0.30765843
0.0864732 -0.03304241 0.15775754 -0.29655126 0.22710903 0.23024966 0.047486234 0.19986662
0.03261954 0.050449923 0.12064153 -0.11536764 0.07391065 0.23870414 0.23086475 0.098341435
0.24818458 0.01958802 0.18730326 0.09312372 0.13356644 -0.26061478 -0.1182992 -0.037723966
-0.19750129 0.024659915 -0.16656514 0.14695685 -0.08209266 0.062910356 0.32072282 0.34700805
0.3533734 0.02562403 0.10470472 -0.01124692 0.48898372 -0.16580534 0.23628008 -0.007473201
0.098716326 -0.06895566 -0.09947306 0.1292033 -0.26974314 0.04289164 0.23244713 -0.22404206
0.46557608 -0.053998385 0.18221347 0.451871 0.22361274 -0.22882381 0.16837811 0.18983214
0.09303834 0.14809804 0.25466627 -0.26981238 0.01667159 -0.074457094 -0.24231076 -0.16247806
-0.14877117 -0.22977549 0.6300379 0.058719993 -0.21302909 -0.18719311 -0.012705681 0.15765935
0.082339525 -0.07904256 0.32222453 -0.044458758 0.1976218 0.051804256 -0.19191714 0.129589
0.10625961 -0.028166497 0.15255201 -0.10892141 0.02408722 0.19554268 -0.21072842 -0.22258884
0.03405656 0.1354567 -0.11255044 -0.14925253 0.018321155 0.07024728 -0.021884382 0.104302585
-0.10114953 0.15087174 -0.03331557 0.28061578 0.20954251 0.2533667 0.00090205413 -0.19643365
-0.019307178 0.20764512 -0.26660034 0.068993025 -0.20427129 0.021478817 -0.10331583 0.32638434
-0.0047965203 -0.29604948 0.01406749 -0.12891358 -0.06231732 0.14246999 0.121347755 0.17632002
-0.015706627 0.010814401 -0.02991136 -0.011537199 -0.04233192 -0.13816483 -0.21973272 -0.10784809
0.10389788 0.22093348 -0.07961296 -0.045663316 0.07878399 -0.3855998 -0.21410465 -0.37585378
-0.23205772 -0.092952944 -0.100995146 0.14293526 -0.20779116 0.448244 0.0069200164 -0.081242725
0.19871603 -0.056481905 -0.008767853 0.26131368 0.18155213 0.104947634 -0.23023182 0.23929033
00000000: c6a7 863e 6e13 22be 1f53 f13d 8d80 46bd
00000010: 68c1 11be 0da1 6f3e 442e ed3b c8ba f43d
00000020: 19cd 813d 0ca7 11bd 717b abbd d2b3 dcbb
00000030: e2fb 61be 4e42 a0bd a14c 0ebe ebe1 abbe
00000040: c37c 303e 26a3 7ebe b263 9f3d 7a5d b33e
00000050: 2d48 773c 39c7 6fbe 2c8a c0bd 84d3 bebd
00000060: 8a4a e1bd 8aed 2cbe bedd 4c3e 7bb4 163e
00000070: 5e07 813d 7f40 5e3e 8635 37bd c379 843d
00000080: b32d 67be f7ce b03c 3b57 693c 6a07 6abe
00000090: 7676 46be b09c 213d 27b5 a93e 4712 6c3d
000000a0: a73a 46be b82f 993e 5f50 95bc 0a28 a43d
000000b0: 3a9e ab3e 16ce 05ba 0b87 6a3d 67a9 02bd
000000c0: 6b21 97bd 4bf7 01be d724 41be 6c91 793d
000000d0: c9b6 863e 3a83 9cbb 8546 1e3d d533 a2bd
000000e0: 16a8 8a3e 4d9f 723d 5e9a 21be 6226 48be
000000f0: 5042 8d3d f081 11bd 4e12 38be ea2d 83bc
00000100: 5f15 853b 0b72 39be 22a4 0c3c bde4 803e
00000110: f925 2ebe ded1 8a3d c86c 8e3e 4d9f d0bc
00000120: b711 883d dbd3 26bd ab3f 7e3d 1a43 b3be
00000130: 73d0 7dbd bbae 06be e69e 0d3e eb21 9c3d
00000140: 46c1 693e 5cca 0c3e f9f2 ecbd a048 b8bd
00000150: 81ae f73d badf 79be 0383 003c 48fd 50be
00000160: 0745 88be b2c1 b33d 5c3f 283e 4c0b 503d
00000170: e2e9 e93d cbb2 1e3e 329e 05bd eec6 08be
00000180: e324 54be 5e61 cb3e a0b5 84bd 1479 01be
00000190: b0a3 d13c 92e4 963e fc7a a43e 6885 9d3e
000001a0: dc18 b13d 7a57 07bd 318b 213e 91d5 97be
000001b0: 458f 683e 91c6 6b3e ed80 423d d6a9 4c3e
000001c0: 119c 053d 94a4 4e3d e812 f73d df45 ecbd
000001d0: 785e 973d dc6e 743e cf67 6c3e 3c67 c93d
000001e0: 1924 7e3e 0e77 a03c 6dcc 3f3e a6b7 be3d
000001f0: a4c5 083e 4d6f 85be da46 f2bd 7284 1abd
00000200: c73d 4abe 9703 ca3c 0d90 2abe db7b 163e
00000210: 3220 a8bd 25d7 803d c835 a43e 0aab b13e
00000220: 5ced b43e 7ce9 d13c 6e6f d63d 0045 38bc
00000230: 135c fa3e e0c8 29be 68f3 713e c1e1 f4bb
00000240: c92b ca3d a038 8dbd 88b8 cbbd df4d 043e
00000250: c61b 8abe 25af 2f3d 9f06 6e3e 486b 65be
00000260: fd5f ee3e 692d 5dbd 2b96 3a3e a35b e73e
00000270: bdfa 643e ca50 6abe 506b 2c3e 5b63 423e
00000280: e38a be3d 03a7 173e 9e63 823e d924 8abe
00000290: dc92 883c f67c 98bd 5020 78be a660 26be
000002a0: 7857 18be 444a 6bbe 2a4a 213f 6084 703d
000002b0: 4c24 5abe 8daf 3fbe 7d2b 50bc 7471 213e
000002c0: a0a1 a83d 11e1 a1bd 9dfa a43e 631a 36bd
000002d0: 5e5d 4a3e b330 543d ed85 44be fbb2 043e
000002e0: a39e d93d 6dbd e6bc 9836 1c3e 3012 dfbd
000002f0: 9052 c53c 573c 483e 31c9 57be 54ee 63be
00000300: e47e 0b3d 29b5 0a3e d880 e6bd a8d5 18be
00000310: 3f16 963c cedd 8f3d e046 b3bc 989c d53d
00000320: 7c27 cfbd 1f7e 1a3e e875 08bd dfac 8f3e
00000330: 5092 563e 48b9 813e d477 6c3a e725 49be
00000340: 162a 9ebc eca0 543e d77f 88be 374c 8d3d
00000350: 7e2c 51be 58f4 af3c 4097 d3bd d91b a73e
00000360: 212c 9dbb cc93 97be 547b 663c ec01 04be
00000370: 7240 7fbd a7e3 113e 2c85 f83d 3c8d 343e
00000380: 2fab 80bc e32e 313c ab08 f5bc 8506 3dbc
00000390: 3c64 2dbd 157b 0dbe 9d01 61be 76df dcbd
000003a0: 69c8 d43d 633c 623e 1f0c a3bd 7509 3bbd
000003b0: 8059 a13d 566d c5be 403e 5bbe e86f c0be
000003c0: 8aa0 6dbe 1d5e bebd 8bd6 cebd 9f5d 123e
000003d0: 35c7 54be 3d80 e53e 4ec1 e23b 9662 a6bd
000003e0: 377c 4b3e 9259 67bd 0aa7 0fbc e8ca 853e
000003f0: cde8 393e c9ee d63d e4c1 6bbe 8608 753e

critic.0.bias f4 [64]
0.094376795 -0.10834545 0.07980676 0.06511983 -0.13441955 -0.060014524 0.099179156 0.09684651
-0.08257651 -0.07818021 0.069920294 0.031152045 0.128927 0.08140066 -0.10185938 -0.12017551
-0.116085984 -0.14227536 -0.08728296 -0.09800549 0.11070633 -0.104006074 0.13117532 0.0030817124
-0.09840876 0.08670967 0.071713895 -0.046196446 -0.071534984 -0.24195836 0.02154714 0.10770874
0.08941749 -0.119172186 0.14972627 -0.073536545 -0.09485698 -0.08482354 0.13128392 0.1192491
-0.07765253 0.1067713 -0.111364625 -0.08676613 -0.07621544 0.091383085 0.10695795 -0.019695347
0.077347666 -0.06950495 -0.025761934 -0.06984977 0.13239077 -0.14171667 -0.07721828 -0.08255586
-0.057380207 0.09283825 -0.025471611 -0.057132404 -0.10742459 -0.11391758 -0.07860194 0.094222434
00000000: 9f48 c13d 38e4 ddbd ba71 a33d 8c5d 853d
00000010: 47a5 09be cad1 75bd 711e cb3d 7757 c63d
00000020: e01d a9bd f21c a0bd 5f32 8f3d 9332 ff3c
00000030: 7105 043e 64b5 a63d a79b d0bd 941e f6bd
00000040: 7dbe edbd a2b0 11be 69c1 b2bd 1ab7 c8bd
00000050: 00ba e23d 2301 d5bd d352 063e 8ef6 493b
00000060: 888a c9bd d794 b13d bcde 923d 7c38 3dbd
00000070: ef80 92bd efc3 77be a183 b03c 6696 dc3d
00000080: 8420 b73d 8c10 f4bd d851 193e 549a 96bd
00000090: 6044 c2bd f7b7 adbd 4b6f 063e df38 f43d
000000a0: 4a08 9fbd e9aa da3d 2313 e4bd 71b2 b1bd
000000b0: d716 9cbd 0e27 bb3d c50c db3d 2358 a1bc
000000c0: 7468 9e3d 9c58 8ebd b10a d3bc 650d 8fbd
000000d0: 7291 073e 2d1e 11be 9e24 9ebd 0c13 a9bd
000000e0: 8207 6bbd fb21 be3d d7a9 d0bc ab03 6abd
000000f0: 6c01 dcbd 9f4d e9bd 0efa a0bd b1f7 c03d

critic.2.weight f4 [64, 64]
0.35425997 0.55029774 -0.016243609 -0.2942225 0.049592003 -0.43516198 0.08677204 -0.40508503
-0.07710628 -0.19720133 -0.44039786 0.04277442 0.42793727 -0.17869425 0.38250768 -0.16701615
0.5242185 0.15680602 0.319092 -0.33479738 -0.004830383 0.110188656 0.09116317 0.21617173
0.32154888 -0.45081505 -0.35204098 0.15267615 0.25254554 0.16095002 0.24378288 0.072315656
0.18433875 -0.029103583 0.18444583 0.31482235 0.5799282 0.06316151 -0.531227 -0.5708073
-0.0123520475 0.38442218 0.06406415 0.610549 -0.1253084 -0.09747606 -0.436355 -0.012046813
-0.01720473 0.5424135 -0.057022747 0.3233827 -0.3656497 0.20699486 0.27760273 -0.27511093
-0.074023455 0.66156304 -0.13536091 0.093834564 -0.047635734 0.14726812 0.1538835 0.1623212
-0.08074895 0.063828155 -0.0036446382 -0.09549929 0.0036230597 0.011624708 0.18030545 -0.27028397
-0.20353524 0.09358389 0.123382635 -0.35492614 -0.101426065 0.046324924 0.18739861 -0.28223562
0.06447805 0.19051906 -0.11987446 0.17492408 -0.13997048 -0.03850057 -0.13934056 -0.04850229
-0.16174266 0.25530446 0.1562389 -0.3640424 -0.24772787 0.35845473 -0.179325 -0.1256152
0.34409958 0.33887637 0.51687455 0.081564784 0.016419701 0.05935214 0.06455493 0.031901177
0.2173192 -0.2156274 -0.062540144 -0.1777453 -0.078109935 -0.008495728 0.112381294 -0.0050904923
0.16676974 -0.14905597 -0.004571977 0.19936031 0.13019669 -0.012914571 0.10148679 -0.021437906
0.2404984 0.0819581 -0.17276177 0.24857865 0.016798615 0.003116788 -0.12392414 0.10544947
0.16390258 -0.076381445 -0.12875488 -0.015151359 0.033078976 0.02377064 0.2078383 -0.16096985
-0.010053552 -0.34517577 -0.057033233 -0.09203699 0.17545384 -0.15241522 0.23602425 -0.017633924
0.11877801 0.109888196 0.015894359 -0.02441229 0.3489355 -0.28383195 0.30845103 -0.024070544
-0.22666174 0.17823404 -0.043050386 0.14853537 0.0636505 -0.3264145 0.103575625 -0.12736441
0.15191968 -0.22492036 0.013409887 -0.04731043 -0.047285378 -0.12524584 -0.16399246 0.4512834
-0.018446786 0.49664608 -0.097789295 -0.0062317853 -0.08324783 -0.08383521 -0.08437484 0.37110326
0.2140564 -0.00478639 0.22672684 0.04322798 -0.058435913 0.04542689 0.34998783 -0.20359461
0.11854388 -0.34844348 -0.14210582 0.12116482 -0.032150522 0.002490251 0.124203354 0.20253037
-0.26786754 0.049287952 -0.058051225 0.043169226 -0.039086845 -0.3136482 0.10889934 -0.23153543
0.104602374 -0.15785709 -0.21453874 0.032280378 0.002410856 -0.44014752 0.52708375 0.24359606
0.042555057 -0.12260489 0.07389791 0.0035455152 0.103600495 -0.049807426 -0.0024193514 -0.35085177
0.24796247 -0.32258764 -0.18923984 0.06153412 0.10423223 -0.014025487 -0.009110511 -0.2844952
0.2537529 0.11755405 0.12512077 0.09742826 0.16107562 -0.019422445 -0.07001581 -0.10120191
0.17503636 0.11984604 0.16763453 0.2718563 0.17613226 -0.18128414 -0.19775458 0.06633357
-0.56346786 0.4310566 -0.054076664 0.21250847 0.15907945 -0.21483111 0.265173 0.12883772
-0.046615183 0.4045806 0.1577122 0.27563503 -0.074956715 0.08543585 0.35764867 -0.012414539
00000000: 9061 b53e 50e0 0c3f 5111 85bc 55a4 96be
00000010: fc20 4b3d 8dcd debe 8ab5 b13d 4e67 cfbe
00000020: e6e9 9dbd 25ef 49be d47b e1be 3b34 2f3d
00000030: 981a db3e a0fb 36be 0cd8 c33e 4806 2bbe
00000040: 2f33 063f c291 203e 0760 a33e 906a abbe
00000050: 3148 9ebb 97aa e13d c2b3 ba3d 1f5c 5d3e
00000060: 0ea2 a43e 3bd1 e6be b73e b4be 2357 1c3e
00000070: a64d 813e 15d0 243e 38a2 793e 3b1a 943d
00000080: 4cc3 3c3e a36a eebc 5edf 3c3e 6530 a13e
00000090: 2d76 143f d25a 813d 7efe 07bf 6d20 12bf
000000a0: 3e60 4abc fcd2 c43e 1134 833d f04c 1c3f
000000b0: d850 00be 87a1 c7bd ec69 dfbe ff5f 45bc
000000c0: eff0 8cbc 9cdb 0a3f af90 69bd 6b92 a53e
000000d0: 7036 bbbe 76f6 533e f221 8e3e 57db 8cbe
000000e0: 9c99 97bd 325c 293f 0d9c 0abe 562c c03d
000000f0: b01d 43bd 74cd 163e a393 1d3e 8737 263e
00000100: b55f a5bd 56b8 823d e2da 6ebb 2295 c3bd
00000110: db70 6d3b 8f75 3e3c fea1 383e a962 8abe
00000120: 8b6b 50be e9a8 bf3d 09b0 fc3d e1b8 b5be
00000130: 78b8 cfbd 34bf 3d3d 6ce5 3f3e 3081 90be
00000140: 110d 843d 6e17 433e be80 f5bd 4c1f 333e
00000150: 6c54 0fbe c6b2 1dbd 4baf 0ebe 56aa 46bd
00000160: de9f 25be 44b7 823e 17fd 1f3e c463 babe
00000170: 60ac 7dbe 6187 b73e f9a0 37be 45a1 00be
00000180: d22d b03e 3481 ad3e e451 043f 700b a73d
00000190: 9c82 863c 3b1b 733d 6035 843d cfaa 023d
000001a0: ed88 5e3e 6ecd 5cbe 0c15 80bd dd02 36be
000001b0: 1af8 9fbd aa31 0bbc 2a28 e63d 25ce a6bb
000001c0: b0c5 2a3e 21a2 18be 86d0 95bb 1c25 4c3e
000001d0: 4852 053e a397 53bc 4ed8 cf3d 8c9e afbc
000001e0: 3645 763e a6d9 a73d 76e8 30be 678b 7e3e
000001f0: 409d 893c 0743 4c3b f1cb fdbd e4f5 d73d
00000200: 14d6 273e e06d 9cbd 52d8 03be 683d 78bc
00000210: d27d 073d a5ba c23c 90d3 543e 48d5 24be
00000220: a7b7 24bc e1ba b0be ae9b 69bd e47d bcbd
00000230: 2caa 333e bc12 1cbe 57b0 713e 0575 90bc
00000240: e341 f33d 100d e13d e334 823c 48fc c7bc
00000250: ada7 b23e 6c52 91be 4bed 9d3e 972f c5bc
00000260: 041a 68be fc82 363e 9a55 30bd a819 183e
00000270: 315b 823d cd1f a7be 751f d43d d16b 02be
00000280: d590 1b3e 8651 66be 25b5 5b3c 95c8 41bd
00000290: 50ae 41bd 7240 00be a4ed 27be 9e0e e73e
000002a0: b71d 97bc 6548 fe3e c145 c8bd 0134 ccbb
000002b0: d77d aabd cbb1 abbd b7cc acbd 3f01 be3e
000002c0: 9a31 5b3e 26d7 9cbb 152b 683e d30f 313d
000002d0: 7f5a 6fbd 8c11 3a3d 9b31 b33e 1b7b 50be
000002e0: 22c7 f23d 2f67 b2be 3084 11be 4325 f83d
000002f0: 44b0 03bd 7b33 233b 545e fe3d 1f64 4f3e
00000300: ef25 89be 2ae2 493d 1fc7 6dbd 37d2 303d
00000310: 8719 20bd 7f96 a0be 9e06 df3d a017 6dbe
00000320: c539 d63d 4aa5 21be 0bb0 5bbe 6e38 043d
00000330: 74ff 1d3b 045b e1be f6ee 063f 3f71 793e
00000340: 364e 2e3d 4618 fbbd ca57 973d e05b 683b
00000350: 7f2c d43d df02 4cbd fb8d 1ebb d8a2 b3be
00000360: e0e9 7d3e 352a a5be 17c8 41be 340b 7c3d
00000370: b577 d53d 28cb 65bc 4144 15bc 5ba9 91be
00000380: e6eb 813e 2ec0 f03d a91f 003e 7888 c73d
00000390: 02f1 243e d21b 9fbc 7364 8fbd f242 cfbd
000003a0: bb3c 333e d771 f53d 63a8 2b3e c030 8b3e
000003b0: 045c 343e 8da2 39be 2d80 4abe e5d9 873d
000003c0: 6e3f 10bf 73b3 dc3e 7e7f 5dbd d29b 593e
000003d0: b9e5 223e b0fc 5bbe c1c4 873e 09ee 033e
000003e0: 90ef 3ebd 3025 cf3e 4f7f 213e 0920 8d3e
000003f0: e882 99bd fef8 ae3d ba1d b73e 5a66 4bbc

critic.2.bias f4 [64]
0.0017013496 0.036345232 0.09512652 -0.062477373 0.059548236 0.08395942 -0.061307624 0.0524237
0.062098693 0.07402247 -0.0036645168 -0.0007677483 -0.05271281 -0.103478596 -0.13469175 0.06726727
0.057928905 -0.11677877 -0.077001065 0.07347947 0.07847583 -0.07921468 -0.08161296 0.060142066
0.062167414 0.10667818 0.054882906 0.08137632 -0.05721522 -0.103274 -0.07540149 0.049492396
0.027663639 0.08002763 -0.08802497 -0.111849725 0.072480075 0.102239 0.07174312 -0.07129947
0.045308854 0.06533546 0.031072717 -0.056391265 -0.104009695 0.069861524 0.076360464 -0.060318653
0.12711844 -0.099748276 0.08311518 0.06989321 0.063202366 0.056816574 -0.041391872 0.054408956
-0.056280483 -0.113091104 0.0586948 0.07332333 0.10871399 0.055964444 0.029451132 0.089501195
00000000: d2ff de3a bdde 143d b1d1 c23d 46e8 7fbd
00000010: dae8 733d ebf2 ab3d b41d 7bbd 3cba 563d
00000020: 335b 7e3d 1899 973d 6428 70bb b742 49ba
00000030: 63e9 57bd 96ec d3bd a2ec 09be 6cc3 893d
00000040: dc46 6d3d b529 efbd bcb2 9dbd 687c 963d
00000050: f0b7 a03d 4e3b a2bd b224 a7bd 8757 763d
00000060: 42a3 7e3d 177a da3d e6cc 603d a1a8 a63d
00000070: 825a 6abd 5281 d3bd 196c 9abd 8ab8 4a3d
00000080: db9e e23c 87e5 a33d 6f46 b4bd 7811 e5bd
00000090: 6f70 943d ae62 d13d 0fee 923d 7505 92bd
000000a0: c795 393d 99ce 853d 368c fe3c 87fa 66bd
000000b0: 0903 d5bd 8f13 8f3d e062 9c3d b110 77bd
000000c0: 562b 023e d348 ccbd 4b38 aa3d 2c24 8f3d
000000d0: 3e70 813d 7fb8 683d 868a 29bd eddb 5e3d
000000e0: 5d86 66bd 4f9c e7bd f569 703d 8b2a 963d
000000f0: 71a5 de3d f93a 653d 8043 f13c 674c b73d

critic.4.weight f4 [1, 64]
0.19343817 -0.011488043 0.12130859 -0.27370182 0.36844286 0.15585871 -0.15533611 0.035548937
0.1400705 -0.003657926 0.061250843 0.08571485 -0.16643187 -0.19790423 -0.13311666 0.37049985
0.16360436 -0.08953908 -0.09442464 0.0951892 0.10445553 -0.19892956 -0.34185645 0.15132631
0.11211395 0.058301874 0.059476282 0.20740257 -0.03959014 -0.3477636 -0.2503935 0.2892364
-0.042395175 0.26224273 -0.24143475 -0.084395 0.16092244 0.06964988 0.048534956 -0.23923416
0.07071481 0.45325157 -0.029789796 -0.012141327 -0.10966287 0.14059545 0.13857932 -0.1741665
0.07915429 -0.14569505 0.044672992 0.15020475 0.158698 0.28853816 -0.11495063 0.19988294
-0.039291836 -0.040834017 0.07506364 0.038949978 0.17240267 -0.074205786 0.029617647 0.08378723
00000000: a814 463e 5838 3cbc a370 f83d a522 8cbe
00000010: 8ba4 bc3e 6d99 1f3e 6e10 1fbe c39b 113d
00000020: a46e 0f3e d1b9 6fbb 2ae2 7a3d 448b af3d
00000030: 1e6d 2abe 68a7 4abe bc4f 08be 28b2 bd3e
00000040: e787 273e 4460 b7bd b561 c1bd 8ef2 c23d
00000050: c8ec d53d 31b4 4bbe cf07 afbe 49f5 1a3e
00000060: 009c e53d f2cd 6e3d 679d 733d 5761 543e
00000070: 4529 22bd 120e b2be 9433 80be cb16 943e
00000080: 90a6 2dbd ae44 863e ac3a 77be 49d7 acbd
00000090: dac8 243e 99a4 8e3d 97cc 463d cdf9 74be
000000a0: edd2 903d 9710 e83e bb09 f4bc 6bec 46bc
000000b0: ed96 e0bd 41f8 0f3e bde7 0d3e b458 32be
000000c0: a51b a23d 1531 15be 07fb 363d 46cf 193e
000000d0: ba81 223e 46bb 933e 3c6b ebbd 1dae 4c3e
000000e0: 7af0 20bd 9241 27bd f7ba 993d 038a 1f3d
000000f0: 538a 303e 34f9 97bd b5a0 f23c a498 ab3d

actor_mean.0.weight f4 [64, 5]
-0.314791 0.018286087 -0.052414946 -0.1766808 -0.07417226 0.017090287 -0.39943254 -0.07999854
0.052732185 0.056194585 0.22764254 -0.04164633 -0.2661319 0.42703313 -0.11829067 0.24419963
0.016905082 -0.07821831 -0.07891139 -0.012156783 0.12728111 0.26146156 -0.014335477 -0.066399746
0.30984163 0.14786367 0.0871306 0.012185028 0.24236329 -0.013393122 -0.041303296 0.24670747
0.024768004 -0.22115293 0.17403719 -0.26407075 -0.0639728 0.04922596 -0.06961623 0.5023208
-0.048720654 0.121521145 -0.15038761 0.38422427 0.2365407 0.08146601 -0.08204835 0.19470978
0.40704876 -0.1903508 -0.033148486 -0.19304563 0.15615122 0.42238563 -0.0049156263 -0.038660694
0.13837007 -0.13352372 0.20458035 0.00068298 0.014848817 -0.121903874 -0.3406826 -0.17593972
-0.21982743 0.044565223 0.1761155 0.20569478 0.07351327 0.09762676 0.090788476 0.11342684
-0.21782684 -0.03803815 -0.28772223 -0.14444642 -0.052045926 0.15528709 -0.38350597 0.23160568
-0.23862527 -0.014436523 0.04335072 0.25980195 -0.1165513 -0.04465597 0.09277172 0.10080653
-0.16770114 0.13348572 0.0021727707 -0.22258396 0.069650754 -0.17437616 -0.21955031 0.07049192
-0.13494347 -0.20039295 -0.08034895 -0.4052742 -0.046020765 -0.020097423 -0.31511328 -0.0438091
0.5096435 0.14131194 -0.17056577 0.08597386 -0.073142245 -0.3174329 0.012517686 -0.18752436
0.11042813 0.022221498 -0.01394435 0.31755087 0.32729986 0.2238899 -0.18713853 -0.17053567
0.09839433 -0.41422483 -0.18403433 -0.07740127 -0.15020174 0.22266874 0.17157699 -0.14350508
0.206716 0.061570637 0.25434953 0.07632271 -0.03873215 -0.30827865 0.03070363 0.12954983
0.12532759 -0.22601601 -0.24771875 -0.020489754 -0.2106206 -0.17884015 0.16210426 0.049224723
0.035699528 -0.0816822 -0.3059644 0.24008696 -0.31186518 0.13471377 0.14805125 -0.18106246
0.07019952 0.19117187 0.13394842 0.12367842 -0.23965177 -0.011457224 -0.027284697 -0.17971326
0.25269827 0.10922419 0.22584295 -0.30799577 -0.097552255 0.1512016 0.08281768 0.22687411
0.36662203 0.15631355 -0.103858925 0.13371289 0.07728068 -0.2472024 -0.17555158 -0.27622426
-0.12738954 -0.1382513 -0.37553406 -0.24770778 0.12918063 0.20465253 -0.21549807 -0.017121317
0.40697405 -0.31133518 0.3096312 -0.2149051 0.026949383 0.34040228 -0.28081602 -0.20621952
0.09602685 -0.10005702 -0.15551761 0.16274728 0.33412096 -0.18537684 0.4225807 0.29856765
-0.18412834 0.19652966 0.26910952 0.035153512 -0.35868448 -0.24483195 -0.19569255 0.003107482
-0.038659036 -0.00078565953 0.035380866 -0.00030697498 -0.21272741 -0.18969455 -0.12696782 -0.060645286
-0.20901458 0.25486732 -0.41211322 -0.13555771 -0.39159834 -0.053986125 -0.012714846 -0.106976084
-0.47021976 -0.2719092 -0.040475104 0.1758538 0.17661579 -0.04094125 0.063469544 0.17741401
-0.005919458 -0.20393275 -0.08298624 0.17408179 -0.10617341 -0.20452377 0.058166545 0.45815668
-0.17730306 0.18079013 0.039444305 0.026706832 0.34442842 0.0521683 0.014298073 -0.07817399
0.16552024 0.10391433 -0.017946057 0.18951768 0.11361321 -0.11495438 -0.23617691 0.23335083
00000000: 492c a1be b4cc 953c 0eb1 56bd d0eb 34be
00000010: a0e7 97bd ee00 8c3c 6c82 ccbe 46d6 a3bd
00000020: b4fd 573d 4b2c 663d 201b 693e 5895 2abd
00000030: 7142 88be 16a4 da3e 6142 f2bd 780f 7a3e
00000040: 877c 8a3c ec30 a0bd 4b9c a1bd 3e2d 47bc
00000050: fb55 023e 4ade 853e 59df 6abc 97fc 87bd
00000060: 90a3 9e3e 9369 173e 8771 b23d b6a3 473c
00000070: 152e 783e d36e 5bbc a52d 29bd e2a0 7c3e
00000080: 45e6 ca3c ea75 62be ce36 323e 4834 87be
00000090: 2c04 83bd 29a1 493d f492 8ebd 1998 003f
000000a0: 4f8f 47bd 14e0 f83d 36ff 19be 0bb9 c43e
000000b0: ba37 723e a7d7 a63d f708 a8bd 0062 473e
000000c0: b268 d03e 52eb 42be b5c6 07bd c1ad 45be
000000d0: 1be6 1f3e ee42 d83e 4313 a1bb ad5a 1ebd
000000e0: e2b0 0d3e 71ba 08be 837d 513e 030a 333a
000000f0: 7448 733c bda8 f9bd f36d aebe 8b29 34be
00000100: 711a 61be 068a 363d 9f57 343e a7a1 523e
00000110: 208e 963d 8af0 c73d 4fef b93d 554c e83d
00000120: 000e 5fbe e4cd 1bbd 5450 93be c3e9 13be
00000130: 1c2e 55bd 9403 1f3e e55a c4be 0a2a 6d3e
00000140: 2f5a 74be 2b87 6cbc 8690 313d c304 853e
00000150: 73b2 eebd 2ee9 36bd 19ff bd3d a773 ce3d
00000160: d9b9 2bbe 7bb0 083e 0b65 0e3b 0ded 63be
00000170: 0ea5 8e3d aa8f 32be ccd1 60be 115e 903d
00000180: 9f2e 0abe cf33 4dbe fe8d a4bd 1a80 cfbe
00000190: 4580 3cbd 5aa3 a4bc 8756 a1be 2c71 33bd
000001a0: ff77 023f 14b4 103e cba8 2ebe 1013 b03d
000001b0: 9acb 95bd 9186 a2be fb16 4d3c 6306 40be
000001c0: 2528 e23d dc09 b63c d876 64bc 0796 a23e
000001d0: d993 a73e 6543 653e 3ea1 3fbe e7a0 2ebe
000001e0: f782 c93d 4715 d4be 7f73 3cbe 8f84 9ebd
000001f0: 7cce 19be 4603 643e e1b1 2f3e fff2 12be
00000200: 5cad 533e 7e31 7c3d 1a3a 823e 154f 9c3d
00000210: 9aa5 1ebd b3d6 9dbe 2e86 fb3c b6a8 043e
00000220: e055 003e be70 67be fca9 7dbe 21da a7bc
00000230: edac 57be df21 37be a9fe 253e dd9f 493d
00000240: ab39 123d ff48 a7bd 5ea7 9cbe 5bd9 753e
00000250: cbac 9fbe 68f2 093e bf9a 173e 7068 39be
00000260: c4c4 8f3d 8fc2 433e c629 093e 1d4b fd3d
00000270: 4667 75be 15b7 3bbc 2884 dfbc c106 38be
00000280: ab61 813e efb0 df3d 6043 673e 9fb1 9dbe
00000290: 7ac9 c7bd 98d4 1a3e 519c a93d b051 683e
000002a0: e2b5 bb3e a910 203e fdb3 d4bd 08ec 083e
000002b0: 5545 9e3d a022 7dbe cbc3 33be 446d 8dbe
000002c0: 6772 02be c091 0dbe 0046 c0be 1ca7 7dbe
000002d0: ed47 043e 6f90 513e 87ab 5cbe 0142 8cbc
000002e0: e75e d03e 5367 9fbe fb87 9e3e 1510 5cbe
000002f0: f4c4 dc3c 3549 ae3e 1ec7 8fbe 362b 53be
00000300: baa9 c43d b2ea ccbd 0240 1fbe 39a7 263e
00000310: e711 ab3e 6dd3 3dbe 7f5c d83e dcdd 983e
00000320: 248c 3cbe 123f 493e b9c8 893e 21fd 0f3d
00000330: 7ea5 b7be 3ab5 7abe a163 48be e6a6 4b3b
00000340: f058 1ebd b8f4 4dba 87eb 103d 7cf1 a0b9
00000350: 37d5 59be 4a3f 42be da03 02be 3167 78bd
00000360: eb07 56be f87d 823e 8100 d3be a4cf 0abe
00000370: 947f c8be 8e20 5dbd ee51 50bc 4716 dbbd
00000380: a5c0 f0be af37 8bbe 39c9 25bd 0513 343e
00000390: c5da 343e 03b2 27bd 52fc 813d 05ac 353e
000003a0: 03f8 c1bb bfd3 50be b1f4 a9bd 7f42 323e
000003b0: 7271 d9bd ae6e 51be 0b40 6e3d 8393 ea3e
000003c0: ef8e 35be 0c21 393e 5a90 213d 49c8 da3c
000003d0: ec58 b03e 6dae 553d 7742 6a3c af19 a0bd
000003e0: 237e 293e 09d1 d43d 9c03 93bc ec10 423e
000003f0: 0bae e83d 346d ebbd 5cd8 71be 85f3 6e3e

actor_mean.0.bias f4 [64]
0.048543386 0.042105332 -0.01234041 -0.038425323 -0.09860174 0.017788887 0.045752395 -0.021428652
0.039788708 -0.06426843 -0.047663644 0.0023889025 -0.06593296 0.0019393597 -0.031677283 0.14093886
0.016351542 0.13332456 -0.011021644 -0.020203192 -0.007622801 -0.02531403 -0.057955805 0.054043427
-0.03330414 0.013183984 -0.008490684 0.04448353 0.019116616 -0.007712214 -0.014223435 -0.029859975
-0.038150646 -0.011392736 0.0069392184 0.035912488 0.009619013 0.059152573 0.043466076 0.0015940672
-0.018284433 0.03974663 -0.04650137 -0.022916578 0.005968776 -0.023048716 0.05762191 -0.0022724262
0.0317198 0.02038786 -0.03158992 -0.087078474 -0.060229998 0.012545964 -0.028572476 -0.060027167
-0.03164039 -0.015363772 0.012153466 0.010045093 0.01789287 0.007571457 0.024868675 -0.0002253046
00000000: 6ed5 463d a476 2c3d 6e2f 4abc df63 1dbd
00000010: b6ef c9bd 00ba 913c dd66 3b3d 248b afbc
00000020: 7cf9 223d 2b9f 83bd f43a 43bd 228f 1c3b
00000030: dc07 87bd 1d32 fe3a 0ac0 01bd 4752 103e
00000040: abf3 853c 3c86 083e 2094 34bc 2a81 a5bc
00000050: b0c8 f9bb 5e5f cfbc 1163 6dbd a45c 5d3d
00000060: ec69 08bd a301 583c 831c 0bbc 5d34 363d
00000070: 739a 9c3c bdb6 fcbb 6909 69bc e89c f4bc
00000080: da43 1cbd 99a8 3abc 6262 e33b f918 133d
00000090: 1199 1d3c f849 723d 7c09 323d 05f0 d03a
000000a0: 3cc9 95bc 5dcd 223d 3878 3ebd 8cbb bbbc
000000b0: b995 c33b a9d0 bcbc f404 6c3d fcec 14bb
000000c0: 9fec 013d 7104 a73c 6f64 01bd 3356 b2bd
000000d0: bbb3 76bd 968d 4d3c d310 eabc 0cdf 75bd
000000e0: 5b99 01bd 55b8 7bbc 551f 473c 2c94 243c
000000f0: 1194 923c fc19 f83b 64b9 cb3c be3f 6cb9

actor_mean.2.weight f4 [64, 64]
-0.28842306 -0.21939576 -0.04168477 -0.22191575 -0.13025808 0.0063423584 -0.28599125 0.0038982579
0.012490696 -0.202773 0.21585706 0.022921957 0.2652573 -0.28627837 0.13638675 -0.09308572
0.3078264 0.039029095 0.4026374 0.15756613 -0.09612363 -0.030990759 0.118049555 -0.24405107
0.05829432 -0.15283933 -0.18401626 -0.003963979 0.31713185 0.44283763 -0.19741659 0.2647447
0.20420045 -0.2785407 -0.12405641 0.19747464 -0.16804887 0.33580226 0.17689487 -0.39080188
-0.04603523 -0.07059988 -0.03178153 0.13733248 -0.13327153 0.22372665 0.19634472 -0.13917898
-0.11572076 0.07204755 0.22145054 0.006759915 0.19876397 -0.1950068 -0.08952954 0.19797044
0.27441755 -0.23267324 -0.14246066 0.031022375 -0.33449253 0.012378597 -0.3089245 0.13582675
-0.09397492 -0.15696771 0.29649502 0.15344672 0.09669937 0.12172671 -0.044580884 0.19855136
-0.28633153 -0.25985876 0.0559868 0.23016791 -0.13855378 -0.23711538 0.0025771812 -0.39902246
0.18079604 -0.11425402 0.39881214 0.05389682 0.20743258 0.10581975 -0.09015457 -0.2686863
-0.10232441 0.390973 0.20382547 0.12966849 -0.037347674 0.051832195 0.12632658 0.20251241
-0.10515083 0.098968536 0.05928192 0.091746524 0.22536008 -0.15882698 0.31948298 -0.15646556
-0.071348585 0.27058673 0.032805447 0.016941788 0.18002127 -0.18635814 -0.269839 -0.06300578
-0.21035193 0.0102310395 -0.104753055 -0.10847395 -0.023722023 -0.12117573 0.29206932 0.2696982
0.032039218 0.12950693 0.119769156 -0.22801863 0.20095278 -0.0017507036 0.061015315 0.0071185743
-0.38689125 0.1464196 0.22635703 0.2796456 0.21588966 -0.046716306 0.14879197 -0.026948191
0.36307028 -0.042519912 -0.025489325 0.17286457 0.23231095 0.048141345 0.12102775 -0.11944728
0.01737918 -0.20558754 -0.41210207 -0.11071082 -0.28862518 -0.22695747 -0.26360682 -0.06626083
-0.35614997 0.36211988 0.053656604 -0.07051297 0.13036112 -0.09797258 0.2975866 -0.07140071
-0.062322967 0.11089575 -0.14943802 -0.4474407 0.25979432 -0.0107570905 0.04251773 0.23093745
0.2482788 -0.18274242 -0.31324136 0.08166321 -0.27004075 -0.12781218 0.07161688 0.39000306
0.11311939 0.19683848 -0.038977794 -0.09775519 0.3916146 0.3153911 -0.11242716 0.09989616
-0.12576875 0.00080362824 0.25817412 -0.023341142 0.14267401 0.3304897 0.33544242 -0.11999978
0.03863578 0.11127657 0.23225234 -0.013376346 -0.04471795 -0.13790277 0.17501596 0.08727419
-0.14179477 0.1460815 0.1363054 -0.14187606 0.42340726 0.10565956 -0.1006135 -0.16543356
0.05568273 0.21968694 -0.04869626 0.16796492 0.4509734 -0.028178992 -0.3974912 0.027533432
0.017133249 0.09040377 -0.1780398 0.015436172 -0.25466374 -0.114033125 0.036124352 0.3043764
0.1254289 -0.2790484 -0.51840866 0.015374543 -0.07782508 -0.08811177 -0.08523655 0.139773
-0.09905514 -0.17918712 0.37743986 0.052396886 0.15572979 -0.113892116 0.22978257 0.22722517
-0.0788105 -0.07163244 -0.1227982 0.11232889 0.17742936 0.022177538 0.12867801 0.16053842
-0.0957285 0.2733642 -0.24662793 -0.046696495 -0.13688648 0.12513761 0.062466674 -0.057832144
00000000: 30ac 93be 48a9 60be a6bd 2abd e23d 63be
00000010: 6062 05be 8fd3 cf3b 726d 92be ea79 7f3b
00000020: c7a5 4c3c baa3 4fbe a209 5d3e d4c6 bb3c
00000030: cecf 873e 1493 92be f8a8 0b3e baa3 bebd
00000040: 6c9b 9d3e f9dc 1f3d 7d26 ce3e 0459 213e
00000050: 77dc c4bd 55e0 fdbc f7c3 f13d 86e8 79be
00000060: 06c6 6e3d ea81 1cbe c26e 3cbe 44e4 81bb
00000070: 1b5f a23e 9dbb e23e 9327 4abe 9e8c 873e
00000080: ec19 513e e39c 8ebe 4911 febd cb36 4a3e
00000090: 0115 2cbe 46ee ab3e ee23 353e 2f17 c8be
000000a0: 708f 3cbd ab96 90bd 592d 02bd e3a0 0c3e
000000b0: 5578 08be 9918 653e 970e 493e ef84 0ebe
000000c0: 01ff ecbd aa8d 933d eec3 623e 4782 dd3b
000000d0: c888 4b3e ddaf 47be 435b b7bd c3b8 4a3e
000000e0: 7580 8c3e e541 6ebe 35e1 11be a322 fe3c
000000f0: 9b42 abbe 99cf 4a3c 5a2b 9ebe 2b16 0b3e
00000100: ec75 c0bd 25bc 20be 32ce 973e 2321 1d3e
00000110: 520a c63d da4b f93d 729a 36bd 0c51 4b3e
00000120: 0c9a 92be 350c 85be 6a52 653d 23b1 6b3e
00000130: 0be1 0dbe 60ce 72be ede5 283b ac4c ccbe
00000140: 9922 393e 03fe e9bd 1b31 cc3e e9c2 5c3d
00000150: 3569 543e 06b8 d83d f6a2 b8bd 4091 89be
00000160: 768f d1bd 9d2d c83e a0b7 503e d1c7 043e
00000170: e0f9 18bd ff4d 543d c15b 013e 6a5f 4f3e
00000180: 5159 d7bd 04b0 ca3d 99d1 723d 9ae5 bb3d
00000190: cbc4 663e 8aa3 22be 4693 a33e 8238 20be
000001a0: 351f 92bd 588a 8a3e 015f 063d 81c9 8a3c
000001b0: 7f57 383e abd4 3ebe 5628 8abe 2d09 81bd
000001c0: 7f66 57be 17a0 273c c588 d6bd 9727 debd
000001d0: b054 c2bc fb2a f8bd 1c8a 953e e215 8a3e
000001e0: 8e3b 033d 779d 043e 8849 f53d b77d 69be
000001f0: 91c6 4d3e dd77 e5ba 32eb 793d ee42 e93b
00000200: 9c16 c6be 05ef 153e 23ca 673e b52d 8f3e
00000210: 2e12 5d3e 9959 3fbd ec5c 183e 74c2 dcbc
00000220: 59e4 b93e 5c29 2ebd fdce d0bc 6903 313e
00000230: ece2 6d3e dc2f 453d 66dd f73d c7a0 f4bd
00000240: c85e 8e3c 8a85 52be 0bff d2be 5bbc e2bd
00000250: aec6 93be 8a67 68be 79f7 86be c2b3 87bd
00000260: 4a59 b6be c767 b93e 07c7 5b3d 1b69 90bd
00000270: 637d 053e d9a5 c8bd 455d 983e 893a 92bd
00000280: 5e46 7fbd 501d e33d 4806 19be f316 e5be
00000290: c303 853e 823e 30bc 1227 2e3d de7a 6c3e
000002a0: cc3c 7e3e d420 3bbe 2c61 a0be 0b3f a73d
000002b0: c842 8abe 32e1 02be dfab 923d 7bae c73e
000002c0: 24ab e73d 0790 493e 2ea7 1fbd e033 c8bd
000002d0: b581 c83e f17a a13e 3640 e6bd 5c96 cc3d
000002e0: 86c9 00be 94aa 523a 662f 843e ec35 bfbc
000002f0: 2319 123e f235 a93e 1cbf ab3e 72c2 f5bd
00000300: 8d40 1e3d f8e4 e33d 8fd3 6d3e 7628 5bbc
00000310: 2b2a 37bd 6236 0dbe 6237 333e cfbc b23d
00000320: a632 11be 6496 153e a593 0b3e f547 11be
00000330: d6c8 d83e 0a64 d83d 730e cebd 6a67 29be
00000340: 9313 643d 9df5 603e bb75 47bd fffe 2b3e
00000350: fce5 e63e a1d7 e6bc f783 cbbe cb8d e13c
00000360: 075b 8c3c 9d25 b93d 1150 36be ffe7 7c3c
00000370: 4963 82be 338a e9bd 21f7 133d 39d7 9b3e
00000380: 6f70 003e 6fdf 8ebe 6eb6 04bf 82e5 7b3c
00000390: c162 9fbd f273 b4bd 8090 aebd a720 0f3e
000003a0: 6cdd cabd d47c 37be cc3f c13e 1e9e 563d
000003b0: a177 1f3e 4540 e9bd 1f4c 6b3e b7ad 683e
000003c0: 6667 a1bd 07b4 92bd 9f7d fbbd b00c e63d
000003d0: 0bb0 353e abad b53c 2bc4 033e 2f64 243e
000003e0: 4e0d c4bd 64f6 8b3e 088c 7cbe d344 3fbd
000003f0: f82b 0cbe 1324 003e 0edd 7f3d 66e1 6cbd

actor_mean.2.bias f4 [64]
-0.011072402 -0.047964975 -0.024517551 -0.087298974 0.039961156 0.05786849 0.070275344 0.09983092
-0.011523118 -0.065829866 -0.035390355 -0.0023324466 -0.018477216 -0.002881849 0.02376826 -0.038726233
-0.05069219 0.032693513 -0.081479475 0.004704217 0.027900383 -0.049861297 -0.037555642 0.010554428
-0.026962886 -0.028834391 0.06698948 0.042385288 -0.0052690823 0.009655501 -0.010658552 -0.010107089
0.07770261 -0.074587 0.009016826 0.028969394 -0.011472824 0.08080285 -0.03734953 -0.045447834
0.033239253 -0.026729137 -0.016382828 0.012479756 -0.03863145 0.040801227 -0.085352324 0.03190655
-0.04966438 -0.06188563 0.0013756636 -0.021752791 0.034525476 0.047735568 0.023127634 -0.07385034
0.01699466 -0.054936092 -0.004177917 -0.03811738 0.043562405 -0.017407343 0.011695357 0.013254236
00000000: 0569 35bc ec76 44bd 08d9 c8bc cec9 b2bd
00000010: 4fae 233d 8307 6d3d 85ec 8f3d 2774 cc3d
00000020: 76cb 3cbc cfd1 86bd 7af5 10bd f6db 18bb
00000030: 885d 97bc 67dd 3cbb a7b5 c23c 669f 1ebd
00000040: 9da2 4fbd a2e9 053d b6de a6bd d525 9a3b
00000050: 588f e43c 5c3b 4cbd f2d3 19bd 7bec 2c3c
00000060: 45e1 dcbc 1a36 ecbc c831 893d 329c 2d3d
00000070: 44a8 acbb 1b32 1e3c 35a1 2ebc 3498 25bc
00000080: 8c22 9f3d 12c1 98bd 4fbb 133c 3951 ed3c
00000090: 83f8 3bbc f77b a53d d2fb 18bd 8227 3abd
000000a0: e225 083d 10f7 dabc 4835 86bc e477 4c3c
000000b0: 033c 1ebd 301f 273d 33cd aebd 71b0 023d
000000c0: e06c 4bbd c97b 7dbd 9c4f b43a e932 b2bc
000000d0: 966a 0d3d 5f86 433d 2a76 bd3c d93e 97bd
000000e0: 6338 8b3c ab04 61bd e8e6 88bb f820 1cbd
000000f0: 7e6e 323d d899 8ebc e29d 3f3c 4c28 593c

actor_mean.4.weight f4 [1, 64]
-0.060991477 -0.053479802 0.05688679 -0.052170336 -0.0706231 0.07347183 0.00036474675 0.049532525
-0.025226057 -0.04475509 -0.04622029 -0.0019308758 -0.017276669 -0.0051064035 0.046829406 -0.06433075
-0.08029554 0.014790681 0.00093193573 -0.06467072 -0.0715769 -0.07365982 0.014201533 -0.00013826144
-0.05164322 -0.049835168 -0.044024732 0.020710574 -0.060812354 0.065638535 -0.059982996 -0.060546745
0.06923421 -0.071247675 -0.020591749 -0.018157724 0.0013725756 0.051150884 -0.010347502 -0.048937038
0.05956822 -0.015097068 0.015737979 0.051687706 -0.07173506 0.05224744 -0.024087707 0.035907578
-0.020863634 -0.032664977 0.05266753 0.023829048 0.019476632 0.07110559 0.027865492 -0.061474293
0.05430591 -0.025014805 -0.012962023 -0.041613556 0.08138305 -0.010507737 0.086001426 0.041384514
00000000: 33d2 79bd a30d 5bbd 1f02 693d 90b0 55bd
00000010: d8a2 90bd 6678 963d 7b3b bf39 9ee2 4a3d
00000020: e0a6 cebc 1d51 37bd 7d51 3dbd 7115 fdba
00000030: cd87 8dbc 9e53 a7bb 31d0 3f3d d7bf 83bd
00000040: fd71 a4bd 9d54 723c 264d 743a 1572 84bd
00000050: e996 92bd f6da 96bd 8cad 683c 46fa 10b9
00000060: d787 53bd f61f 4cbd 4753 34bd 39a9 a93c
00000070: 6016 79bd 7f6d 863d bbb0 75bd ddff 77bd
00000080: aaca 8d3d 4dea 91bd 07b0 a8bc 82bf 94bc
00000090: ffe7 b33a 9783 513d 9288 29bc 3472 48bd
000000a0: cefd 733d b159 77bc efec 803c 7db6 533d
000000b0: d5e9 92bd 6901 563d 9553 c5bc d313 133d
000000c0: 36ea aabc b6cb 05bd e8b9 573d 2335 c33c
000000d0: 758d 9f3c cf9f 913d 2c46 e43c 78cc 7bbd
000000e0: e06f 5e3d d9eb ccbc aa5e 54bc fa72 2abd
000000f0: 28ac a63d a528 2cbc 8421 b03d cf82 293d
