part1/td3_q4/Inverted/InvertedPendulumBulletEnv-v0_TD3_2_1638193137_td3.pth (torch, 818223 bytes, 15 tensors)

l1.weight f4 [256, 6]
000000 8f be 3e bf 3b e4 91 bd 50 8d 5d 3e a3 c2 93 3f
       -0.7450952 -0.0712361 0.21635938 1.1543773
000010 9f 65 c7 3c 5f 49 b6 3e 3f b6 4d bf 97 c7 d4 3e
       0.024340449 0.35602853 -0.8035621 0.41558525
000020 f7 b1 97 be b1 e9 eb be 1f b7 1f 3e 04 fc c6 3e
       -0.29627964 -0.4607673 0.15597199 0.38864148
000030 d1 7d b2 bc 1d b4 1f 3d 18 da 73 be b3 49 cd 3f
       -0.02178851 0.03899013 -0.23813665 1.6038116
000040 48 eb f9 3d 11 e1 c9 bc f3 01 7c 3e 3e 90 d3 bd
       0.122030795 -0.024643453 0.24610119 -0.103302464
000050 11 6b 0e bf 9d f4 56 3f 49 b9 1d 3f d2 9d 6a be
       -0.5563212 0.83967 0.6161085 -0.22911766
000060 b5 83 ec bd 88 9f be 3e 15 a6 b9 3e ac 99 ff 3e
       -0.115485586 0.37231088 0.36259523 0.4992193
000070 85 11 d6 be 11 a9 08 3e 52 93 5e 3e d5 2e ac bc
       -0.4181024 0.13345744 0.21735886 -0.021018425
000080 2f 07 57 be 32 bf cd 3d f6 99 b0 3d e5 be 71 be
       -0.20998834 0.10046233 0.08623116 -0.23607977
000090 b3 4d a2 bd f5 89 2b 3e b0 6e 73 3e 08 ac 22 3f
       -0.07924976 0.16751845 0.23772693 0.6354375
0000a0 8d 8a e1 be 47 5a 74 3b 2d 51 82 be a4 f9 2e bf
       -0.44051018 0.0037285255 -0.25452557 -0.6834967
0000b0 3d 94 b2 be ca 12 6f bf a4 2c 21 3e 0b 93 5e be
       -0.34878722 -0.93388045 0.15739685 -0.2173578
0000c0 3a 3f 22 3d b8 ac c7 be de aa 47 be 45 97 e2 3e
       0.03961108 -0.3899896 -0.19498774 0.44256034
0000d0 4c 1c 2a bf 6a bc 57 be a7 65 01 3e 0d fb 5a bc
       -0.6644943 -0.21067968 0.12636434 -0.013365519
0000e0 0f c3 2d 3d cb 93 88 bf e9 e0 bb 3e 14 a7 e9 3d
       0.04242235 -1.0670103 0.3669503 0.11408821
0000f0 f7 e9 8c bd 9a 61 6a 3d d9 99 b4 be 02 56 d6 3f
       -0.06880563 0.057221986 -0.35273626 1.6744998
000100 fc e6 3f 3e e4 4f 2c bd f8 23 54 3e 76 a3 05 3e
       0.18740457 -0.042068377 0.20716846 0.13050637
000110 34 fd 7e be bb 40 53 3f e2 50 d4 3e ac 63 ae 3e
       -0.24901277 0.82520646 0.4146796 0.3406042
000120 19 ae 96 3d 75 15 ba 3e bb e4 b5 3d df 5c 97 3f
       0.07357425 0.36344495 0.088815175 1.1825217
000130 06 9d 6f 3e f4 94 57 3e 28 cc 72 be 38 47 4c be
       0.23399743 0.21052915 -0.23710692 -0.19949043
000140 45 04 a3 3e 36 b8 bf be 59 93 67 3e 5d 29 ef 3d
       0.31839195 -0.3744523 0.22614802 0.11677811
000150 5a d7 08 3f c8 9d c2 3e e6 3d 96 3e 03 72 7b bf
       0.534536 0.38011003 0.293441 -0.98220843
000160 47 c7 95 3e ca 30 c3 bd 92 bc 53 bf c7 e1 13 bd
       0.292536 -0.0953079 -0.8270961 -0.03610399
000170 97 7d bd be 49 26 e9 bf f8 38 14 bf c2 ed a7 3d
       -0.3700988 -1.8214809 -0.5789943 0.081996456
000180 64 86 0d be d5 38 f1 3d 2c 98 19 3e 4a 5e 63 3f
       -0.13820797 0.11778418 0.14999455 0.8881575
000190 df f5 b4 3d f7 b1 90 be 8d 56 04 3f f6 48 00 3f
       0.08835959 -0.28260776 0.51694566 0.5011133
0001a0 92 36 13 3c 66 ad 4e 3f 6e f2 99 3e 85 7f 60 bc
       0.008985179 0.80733335 0.30067772 -0.013702278
0001b0 44 08 46 be 50 16 a0 bd 44 ea 3c be 45 5c 13 c0
       -0.1933909 -0.07816756 -0.1844874 -2.3025067
0001c0 58 23 83 be d3 79 84 3d 5b 12 89 3f 2d 80 c3 3e
       -0.25612903 0.064685486 1.0708727 0.38183728
0001d0 7b ee 83 3d 4f 59 87 be 70 77 c4 3e 20 19 d9 bc
       0.06441971 -0.26435325 0.38372374 -0.026501238
0001e0 a0 5f 24 bf 51 ef 03 bf df a9 9e be 86 04 51 be
       -0.6420841 -0.5153704 -0.30988976 -0.20411882
0001f0 a5 a1 5d be ca 46 69 bc fa 8b 00 bf 0e 40 c3 3e
       -0.21643694 -0.014238069 -0.5021359 0.38134807
000200 84 20 20 3d be 98 e2 be d1 83 24 be 14 05 3a be
       0.03909351 -0.44257158 -0.16065909 -0.18166
000210 17 57 e0 bd 00 68 a4 bd 35 c6 a3 3e ce 29 81 be
       -0.10954111 -0.08027649 0.31987157 -0.25227207
000220 d1 b3 26 be d8 df b5 3d 6d c6 98 bf bb 89 1f be
       -0.16279532 0.088805854 -1.1935555 -0.15579884
000230 47 d1 fc 3d af 9e ff be e2 3f 78 3e 0f 06 b5 be
       0.12344604 -0.49925753 0.2424312 -0.35356185
000240 bc 69 60 3f b3 e2 9e 3d e8 0f d4 be 39 7a 1b bf
       0.8766134 0.07758083 -0.41418386 -0.6073337
000250 88 a7 b4 bd c3 72 22 3d 8c ac 32 be 92 65 34 3e
       -0.088210166 0.039660227 -0.17448634 0.17616871
000260 96 0a 98 3e a0 cc 95 3f d3 15 8b 3e aa f8 4e bd
       0.29695576 1.1703072 0.27165088 -0.050530113
000270 02 7e 09 3f d9 24 ca be c5 b5 84 be 86 08 82 be
       0.537079 -0.39481238 -0.2591993 -0.25397128
000280 35 6c 25 3f b9 5a c1 be 80 6a 45 3b 08 cf ca 3e
       0.64618236 -0.37764528 0.0030123293 0.39611077
000290 d0 ea 58 3e 9a d6 71 bf 91 a6 99 3e 9e c5 38 be
       0.21183324 -0.9446808 0.30009893 -0.18044135
0002a0 5a 42 b9 3e ac 25 82 be 77 f3 75 3e 64 ab 93 bd
       0.36183435 -0.25419366 0.24018656 -0.072104245
0002b0 27 0b 3d be 74 78 d1 3b d2 f8 1d 3e a0 5d 11 be
       -0.18461286 0.006392533 0.15426949 -0.14195871
0002c0 4f a6 9c bd f2 b1 c2 bf 25 4a 58 be e1 39 16 3d
       -0.07648908 -1.5210555 -0.21122034 0.03667629
0002d0 6d 68 59 be ba 05 4f be 17 38 ae 3e e5 d4 8c be
       -0.21231242 -0.20217028 0.34027168 -0.27506176
0002e0 d3 58 5a be d1 2e 86 be ec 92 3e 3f 78 df 9c be
       -0.21322946 -0.26207593 0.74442935 -0.30639243
0002f0 36 0d c3 bd e1 dc 55 3f d8 51 88 3d bb 5b 98 bd
       -0.09524004 0.8354016 0.066562355 -0.07439371
000300 dd 8f 48 bf 8b 6a 99 3e 39 31 f6 be b9 c5 9f 3f
       -0.7834452 0.29964098 -0.4808443 1.2482215
000310 ee ea da 3e 86 a2 2d bd 5a 53 ee be f1 d8 cc be
       0.42757362 -0.042391323 -0.46547967 -0.40009263
000320 e7 29 80 3d f3 a7 17 3f 3d 74 4e 3e db d3 b3 be
       0.06257992 0.59240645 0.20161529 -0.3512257
000330 54 81 69 be 49 6a 99 3e e7 90 bd 3e 8b 71 2c bf
       -0.22803241 0.29963902 0.37024614 -0.6736075
000340 1f 7f 51 3d 60 48 85 be 2e 30 b2 be cd 96 58 3d
       0.051146623 -0.2603178 -0.34802383 0.05287819
000350 35 53 92 3e 29 d7 d5 3e 23 d7 2d 3e f6 89 0d be
       0.28579107 0.41765717 0.169766 -0.13822159
000360 63 07 63 be 79 35 45 3e 89 45 a0 be fe 8e 02 3f
       -0.22170787 0.1925868 -0.3130305 0.5099944
000370 7f 51 cd be 56 82 be be c5 a2 4e 3b 6c fc a6 bd
       -0.4010124 -0.37208813 0.0031530124 -0.081536144
000380 4d 1e d1 3d e8 8d bd be ad f8 f8 3e 4a 95 c4 3e
       0.102108575 -0.37022328 0.48627225 0.3839515
000390 38 26 2f 3f ae ef 7a be f8 a8 48 bd c3 69 79 bf
       0.6841769 -0.24505493 -0.048989266 -0.97427005
0003a0 9e a6 91 be ee 34 21 be 2d 2e 58 be e6 98 cf 3e
       -0.2844743 -0.15742847 -0.21111365 0.4054634
0003b0 15 b3 94 bd 13 f9 0b bf 59 37 e3 3e 0f 7c a2 be
       -0.0726072 -0.5467693 0.44378164 -0.31735274
0003c0 90 20 15 3e 8a 6a ca bd 7d 1f b5 ba 23 08 56 bf
       0.14563203 -0.09883602 -0.0013818588 -0.83606166
0003d0 7c d2 2b 3d 5b a2 6d 3d 6e a7 35 be d8 30 db 3c
       0.04194878 0.058016162 -0.1773965 0.026756689
0003e0 ba 88 6b 3a 9e 40 2d 3f c9 7a 35 3e 20 91 42 bc
       0.00089849124 0.67676723 0.1772262 -0.011875421
0003f0 83 1b cf 3d 66 2a 81 3e 35 d9 31 be 9b 3e e3 3e
       0.10112669 0.2522766 -0.17368014 0.44383702

l1.bias f4 [256]
000000 e7 76 9d be 3d 80 d0 3d e3 5c c8 bd fc 97 3d be
       -0.30754778 0.101807095 -0.09783342 -0.18515009
000010 e4 ee ab be ef 7f a3 be 49 58 83 be 63 f0 5f 3e
       -0.33580697 -0.31933543 -0.25653294 0.21869044
000020 60 0f 0b be 84 a2 4d 3d 49 88 1b bd 3c fa a7 be
       -0.13580084 0.050203815 -0.03797177 -0.328081
000030 49 7e 34 be 28 a4 66 be 80 61 59 be 75 cd f4 be
       -0.17626299 -0.22523558 -0.212286 -0.47813
000040 6b 86 7b 3e 31 27 46 be 0d d7 ac be d3 2d 4e 3d
       0.24562995 -0.19350888 -0.3375782 0.05033667
000050 2a 65 ba bc 42 7e b6 bd 03 20 7e bd 00 f9 88 be
       -0.022753317 -0.089108005 -0.062042248 -0.26752472
000060 3c ff 77 3e c9 de 07 3e d1 7e b8 be d2 7c 52 3c
       0.24218458 0.1326858 -0.36034253 0.012847142
000070 1d 65 47 3c 9d 78 97 be a2 16 aa 3e a8 5f a8 be
       0.012170103 -0.29584208 0.33220392 -0.3288548
000080 cc 47 67 bd bd 2c 89 be 31 38 bf be 63 5b 02 3e
       -0.056464955 -0.26791945 -0.37347558 0.12730174
000090 b8 a3 4c 3e ac 4e 3d be c0 6b 73 be 2d 47 ca 3d
       0.19984329 -0.18487042 -0.23771572 0.09876857
0000a0 15 b1 3b 3e e2 70 ab 3e e1 2e a2 3d 1e 44 41 be
       0.1832927 0.3348456 0.07919098 -0.18873641
0000b0 a4 16 6d be 55 f2 1e 3e 03 1b be be 4e 75 4e 3e
       -0.23153168 0.1552213 -0.37129983 0.20161936
0000c0 41 e2 c7 3e 6a 85 1b bd 24 a8 41 be 73 bd 40 be
       0.39039806 -0.03796903 -0.18911797 -0.18822269
0000d0 d1 5d 58 be db 4c d2 3d 40 96 b7 bd e7 c8 a6 be
       -0.21129538 0.10268565 -0.08964205 -0.3257515
0000e0 ef 7d a3 bd f7 60 5d 3e 53 e8 81 3e 37 98 2c 3c
       -0.07983004 0.2161902 0.25372562 0.010534338
0000f0 ee 99 9e 3e 28 d1 8e 3e cc df ab be 01 c3 93 bd
       0.30976814 0.2789395 -0.3356918 -0.072149284
000100 ba 84 63 3e d9 44 67 be 38 25 22 3e 70 42 30 3e
       0.222186 -0.22584857 0.1583451 0.17212844
000110 04 3d 8b 3d 95 25 42 be 72 98 ba 3e c5 ac 23 be
       0.06798747 -0.18959649 0.36444432 -0.15983875
000120 c8 2b d1 3e bf 0e 8a be 21 76 a9 be cd 69 31 3e
       0.40853715 -0.26964375 -0.33097938 0.17325516
000130 e2 2f 22 bf a4 10 6d 3e 86 82 54 be 5a fb 21 3c
       -0.63354313 0.23150879 -0.20752916 0.009886587
000140 7f 2c 8b 3e 5c 50 6c be e7 e5 8a 3c d5 8c 83 3d
       0.27182385 -0.2307753 0.01695533 0.06423346
000150 c5 12 80 3d 70 2f 19 3e 13 d6 52 bd 86 a9 39 3b
       0.0625358 0.14959502 -0.05147369 0.0028329804
000160 7c 26 a0 be c3 30 9a 3e 6b 0c a8 3c 9e d1 b3 3e
       -0.3127936 0.30115327 0.020513734 0.35120863
000170 a4 e9 16 be 0a 21 7c 3e 9f 98 9d 3e 61 8f 7f 3e
       -0.14737564 0.24621978 0.30780503 0.24957038
000180 86 79 28 bc 76 1f b0 bd af 10 a0 be f2 00 fd bd
       -0.01028288 -0.08599751 -0.3126273 -0.12353696
000190 10 67 44 3e a8 9a d1 bd 57 95 bd be 03 9a a6 3e
       0.1917994 -0.102345765 -0.37028 0.32539377
0001a0 f4 10 40 be 5e 30 26 3d 61 0d 24 be d0 d2 75 be
       -0.18756467 0.04057347 -0.16020729 -0.240062
0001b0 2d 9a d3 be 69 79 1a 3e cd 39 88 3e 5c 3f d3 bd
       -0.41328564 0.15085377 0.26606598 -0.10314819
0001c0 36 fa ec bd 5c 9c 12 3d 8b 09 98 3d 79 2f 51 be
       -0.115711614 0.035793647 0.07423695 -0.20428266
0001d0 57 b2 cd bd 30 e4 f2 be c4 95 89 bd 34 28 e9 bd
       -0.10043781 -0.47439718 -0.06718019 -0.11384621
0001e0 13 e9 0e bb 15 7e 79 3e 2f b0 1f 3e 8b b9 af 3c
       -0.0021806404 0.24364503 0.15594552 0.021450778
0001f0 74 e2 f1 bd 16 45 72 bd b4 74 9d be ae 42 4d 3e
       -0.11810771 -0.059147917 -0.307531 0.20044968
000200 03 1b 54 3e e0 84 bd be 85 f8 7f be 4d 1c 3e be
       0.20713429 -0.37015438 -0.24997146 -0.18565483
000210 be f4 72 bd f2 52 ff 3d 98 5f 09 bb ec 73 18 3c
       -0.059315436 0.124669924 -0.002096152 0.009304982
000220 3d 08 5a 3e 5e a2 8c 3e 9e ea eb be a2 06 aa bc
       0.21292205 0.27467626 -0.46077436 -0.020755116
000230 2e 97 17 3d 2f cf 32 be 52 9b 48 be 33 7c eb 3d
       0.03700941 -0.17461847 -0.195905 0.114982985
000240 0c dc 69 be e9 c1 b2 be 5b 3e ac be 1b 8f 98 3e
       -0.22837847 -0.34913567 -0.33641323 0.2979668
000250 d4 5e 46 3e d4 ad 4a 3e db e2 b9 3e c9 1f a3 be
       0.19372112 0.19792873 0.3630589 -0.31860188
000260 bc c8 99 be f9 2c 8e 3e 20 3b 16 3e 44 a3 80 3e
       -0.3003596 0.27768686 0.14670992 0.25124562
000270 1b dd 35 be 84 fd 7b be 06 74 a2 be 36 08 46 3e
       -0.17760126 -0.24608427 -0.31729144 0.1933907
000280 8a 2f b7 bd 03 9e 5f 3e 21 68 87 be 99 b4 c4 3e
       -0.08944614 0.2183762 -0.26446632 0.38419035
000290 16 99 2f be 83 6f 09 3d 85 29 5a 3e 2e eb c5 be
       -0.17148241 0.03355361 0.21304901 -0.3865599
0002a0 bc ea 02 be d1 a1 69 bd ad eb 89 be f3 32 4a 3d
       -0.12784857 -0.057039086 -0.2693762 0.049364995
0002b0 b5 6f b6 3e 0d b5 44 3e 63 31 ab 3e f4 b7 87 3e
       0.356321 0.1920969 0.33436117 0.26507533
0002c0 ab 8e 53 3e 36 7c af 3e 32 83 43 3c 8c df c9 bd
       0.20659892 0.34274453 0.011933135 -0.09857091
0002d0 92 54 66 3e 44 23 9e ba 94 ae 70 3e bf 64 d3 be
       0.22493199 -0.0012064953 0.23504096 -0.412878
0002e0 ad 78 64 be b0 e0 c6 be 81 f0 15 bf 74 f3 03 3e
       -0.22311659 -0.38843298 -0.58570105 0.12885839
0002f0 1e 91 8f be c3 a8 1c be 1f 1f d0 bd 71 81 c3 bd
       -0.28040403 -0.15298752 -0.10162186 -0.09546173
000300 c5 eb cc bd 10 e3 54 3e 7a 7d aa 3e 9a a2 b6 bd
       -0.10005907 0.20789742 0.33298856 -0.089177325
000310 17 21 9d bd 00 b7 6e bc 1c 69 26 bd c5 61 a2 3e
       -0.07672327 -0.014569998 -0.040627584 0.31715217
000320 12 48 4b be ab 48 be bd dd dc a5 3a 32 e1 8a be
       -0.19851711 -0.09291204 0.0012654323 -0.27124935
000330 85 95 90 3e bb 32 1e bd 36 76 0a 3d 6f 0b 9b bd
       0.28239074 -0.0386226 0.03380414 -0.0757054
000340 88 3c f5 be 01 24 83 bd 5e b5 c3 be 56 65 55 be
       -0.47897744 -0.064033516 -0.3822431 -0.20839438
000350 76 fa 63 3d 1e 9c 34 be 5b e4 09 be 12 d0 a5 3d
       0.05565878 -0.17637679 -0.13466017 0.08096327
000360 14 af 22 be e3 e5 b2 be 1c 97 14 3e d4 0f f0 3e
       -0.158871 -0.34941015 0.14510769 0.46887076
000370 06 7a 17 3d 07 31 3b 3e e7 6d 3b be 1f 0c 20 3e
       0.036981605 0.18280421 -0.18303643 0.15629624
000380 43 7a 54 be a9 17 90 3e e0 d1 76 3d 8a 62 7f 3e
       -0.20749764 0.2814305 0.060258746 0.24939933
000390 61 dc 8e 3e 02 80 d2 be c1 ef f6 3d 80 20 0c be
       0.2790251 -0.41113287 0.12057448 -0.13684273
0003a0 dd 0f 00 bf 65 77 5d 3e d2 60 b7 be 36 97 ce be
       -0.50024205 0.21627577 -0.35816056 -0.4034974
0003b0 19 2d 85 bc 4d 58 4a 3d 5e 1a bb bd fd 90 f3 bd
       -0.016256856 0.049400616 -0.091358885 -0.11892889
0003c0 16 5e a0 be a0 f1 2a 3e b7 e2 b2 be 12 58 a0 be
       -0.31321782 0.16693735 -0.34938595 -0.31317192
0003d0 fb ad 9a 3e 2b 00 bb 3e c7 8b 45 3e bf e6 a6 3e
       0.30210862 0.36523566 0.19291602 0.3259792
0003e0 18 1d e2 bd 73 96 51 3d af b5 ad be 84 ea ea be
       -0.110407054 0.05116887 -0.33927676 -0.45882046
0003f0 7a 08 3d be 9c 50 a4 bd 1f db b8 be 27 09 ed be
       -0.18460265 -0.080231875 -0.36104676 -0.46296045

l2.weight f4 [256, 256]
000000 b2 3c 1e 3d 2b 2a 1d bd c9 f7 89 c0 77 08 f8 be
       0.038632102 -0.038370293 -4.311497 -0.48443958
000010 32 b8 20 bd 42 2c 3e bd 84 ed 64 bd d0 98 ad bc
       -0.039238162 -0.046428926 -0.055890575 -0.02119103
000020 94 48 00 3e 87 6e c4 bd 82 cc ac c0 e3 ea 5f bc
       0.12527686 -0.09591394 -5.3999643 -0.013666841
000030 a0 56 0a 3d 7c 15 17 3d 0b ed 3c 3d 80 e7 69 3e
       0.03377402 0.036885723 0.0461245 0.22842216
000040 01 d0 d9 3d f6 b9 21 bf 17 38 32 3f ba 3e 58 be
       0.10635377 -0.6317438 0.69616836 -0.21117678
000050 13 bc c5 3e 2c 11 a2 3b fa f4 e3 3c 07 11 8a 3d
       0.38620052 0.0049458947 0.027826775 0.06741529
000060 01 6d b7 3d 14 b1 1e 3e 39 bc 42 be f2 b7 30 3c
       0.08956338 0.15497237 -0.19017114 0.0107860435
000070 93 7a f8 bb 9a c3 fe bd c6 a8 f3 3d c0 85 ea bc
       -0.0075829714 -0.12439652 0.11897425 -0.02862823
000080 cb 4d 23 bf 4e 91 fb 3d dd 88 06 3d 1b 42 06 3d
       -0.6379058 0.12283574 0.032845367 0.032777887
000090 22 c7 25 bd 88 32 a9 3b b3 f8 7c 3e cb 9a d0 3c
       -0.04047311 0.0051634945 0.24704246 0.025464436
0000a0 52 33 a5 3d 98 bc a3 3c d3 aa 9f bd ec 46 94 bd
       0.08066429 0.01998739 -0.07796254 -0.0724009
0000b0 34 5a ec 3e 74 10 e3 3b 71 58 55 bc 4d c9 0b 3d
       0.4616257 0.0069294516 -0.013021574 0.034127522
0000c0 bd 78 29 bd 5f 7c 2b 3c 9d e7 9e bb cb 0a 9b c0
       -0.04137491 0.010466664 -0.004849388 -4.8450675
0000d0 08 47 b4 bc 66 14 fa 3d 45 67 42 3e b0 b8 5c bd
       -0.022006527 0.12210922 0.18984707 -0.05388707
0000e0 a2 32 0a 3f 77 8e 01 bd fc 16 b6 3d 24 c5 22 3d
       0.5398351 -0.031630006 0.08891103 0.03973879
0000f0 c8 fc e0 3b 3d f9 b2 3d 79 01 8b 3f 72 f6 4b bc
       0.0068660714 0.08738945 1.0859824 -0.012448894
000100 29 f4 61 3d de 4e 15 3d 89 e4 a8 3d 3b 7c 8c bd
       0.05516449 0.036452167 0.082467146 -0.068596326
000110 1e c1 85 bd bc 46 b4 3e 48 72 c0 3d dc 4c 09 3e
       -0.06530975 0.35210216 0.093967974 0.13408226
000120 3f 59 5d 3d bc 4d 09 be cb 2e 7b bd 1e 56 e9 3c
       0.05404019 -0.1340856 -0.061323922 0.028483447
000130 c3 6c d4 bf a0 16 7e bf fa 26 11 bf 2b 4d 2f be
       -1.6595691 -0.99253273 -0.567001 -0.17119281
000140 ee af 73 bd 77 5b 12 3d 58 0b 6c bc d1 68 26 3d
       -0.05949395 0.03573176 -0.014407001 0.040627304
000150 8c 7f 5f 3d b3 30 c2 bb 79 11 1e bc 6b 62 e2 3c
       0.054564998 -0.0059262156 -0.0096477205 0.02763482
000160 ff 0a da 3c 01 e5 df 3c fa 7e bd c0 3c ab 81 3c
       0.026616571 0.027330877 -5.92175 0.015828721
000170 79 70 db 3d a0 be 35 bd 25 e4 3b bb d2 0d 12 3d
       0.10714812 -0.044371247 -0.002866992 0.03565771
000180 8b 36 82 be d3 a7 eb be 82 ff aa bd 77 2c b7 3e
       -0.25432238 -0.46026477 -0.083495155 0.3577611
000190 a9 ae d5 3d 1b a4 16 3e 5e 6e 1c 3c a4 95 b0 3c
       0.104337044 0.14711039 0.009547798 0.02155573
0001a0 35 23 bb bd 74 b3 95 3d 86 4a 13 3e b8 67 9b 3e
       -0.091375746 0.073096186 0.14383897 0.3035257
0001b0 1e 04 7e bc ff 0e 26 3d 45 3e ba 3d 86 e1 6d 3d
       -0.015503911 0.040541645 0.09093908 0.058076404
0001c0 55 5d 1e 3c 2d 4d ad 3d bd c5 5d 3c e8 f2 28 3d
       0.009665807 0.08461986 0.013535914 0.04124728
0001d0 f9 ce a2 bd 91 a9 46 bc 2d 92 8c c0 ca 36 2e bc
       -0.07949633 -0.012125389 -4.3928437 -0.01063318
0001e0 a1 e6 11 3d 0e 72 15 3d 00 95 a0 3c 1e 5b bc 3e
       0.035620335 0.036485724 0.019602299 0.36788267
0001f0 89 b2 25 bb b3 41 0d 3d 34 3a b6 3f 7d 9f d0 3e
       -0.0025283417 0.034486484 1.4236512 0.4074668
000200 3c fb ec 3c be 90 ac 3f 51 f5 95 be c4 9a d5 be
       0.028928392 1.3481672 -0.29288724 -0.4171964
000210 a6 6c 95 3d 81 82 4c bd b4 87 26 3e 6f 6f c5 3d
       0.07296114 -0.049929146 0.16262704 0.09640395
000220 95 26 09 bc 84 2c c9 bd be 3d fe 3c 80 6b a9 bd
       -0.008371015 -0.09822944 0.0310353 -0.08272457
000230 2c fe 14 3e 9a 2b 61 bf 3e 49 b3 3c a1 7f 5b bd
       0.14550084 -0.87957156 0.02188551 -0.053588513
000240 15 f1 ea 3e b2 9f 2a bd e4 f6 0f 3e 8c 04 8e 3d
       0.45887056 -0.041656204 0.14059025 0.06934461
000250 fd 42 30 3e 9e 15 45 bd 87 55 06 3c 24 ec f9 bd
       0.17213054 -0.04811632 0.008199102 -0.122032434
000260 40 a0 9e bf d1 ec fc 3d b0 d7 c8 3d 82 24 a6 3c
       -1.2392654 0.12349857 0.09806764 0.02028108
000270 7f d9 b1 3c 4c b0 64 3b cd b1 4d be 5f d5 84 3d
       0.021710156 0.003489512 -0.20087357 0.0648601
000280 86 a0 44 be 9e 97 07 3d 18 d2 2f 3d 94 3d c8 3d
       -0.1920186 0.033103578 0.04292497 0.0977737
000290 29 66 ca 3e 69 8a ad be 14 1c 8d 3c 1a 2b 2c bd
       0.39531067 -0.3389466 0.017225303 -0.042033292
0002a0 8a d6 08 3d ff 1a 8e 3e 83 f5 b9 3d cc 16 77 3c
       0.033407725 0.2775497 0.09080031 0.015081119
0002b0 6c 07 80 3d 90 ea 43 be f1 3a 85 3d 14 8b 3c bd
       0.062514156 -0.19132447 0.06505383 -0.046031073
0002c0 aa 80 6c bd 0b df 05 3e 81 fd 92 bd 02 5f 28 3d
       -0.05773989 0.13073365 -0.07177258 0.04110623
0002d0 9d 87 e2 bc a0 3a e6 bf 99 b0 27 3d 67 57 4a bd
       -0.027652556 -1.7986641 0.0409399 -0.04939976
0002e0 94 18 2f 3d 96 0e 68 be 52 bb e8 3d 39 4b 02 be
       0.04274805 -0.22661814 0.113638535 -0.12724008
0002f0 9f 4b 06 c0 9a 02 b1 c0 7b 5a 0f 3e 7b 9a ac 3e
       -2.0983655 -5.5315676 0.1399936 0.3371161
000300 2a 65 c8 3d 50 c5 e7 3c cf 7d 59 be 95 7e 39 c0
       0.097849205 0.028292328 -0.21239398 -2.898351
000310 e2 4e 9e 3d 59 fc 44 bd e6 40 9b bd 6c 70 28 b9
       0.077298895 -0.04809222 -0.07580738 -0.00016063609
000320 87 b8 b4 3d 64 c6 ea bd ad 7b 81 3c d4 e5 95 3c
       0.08824258 -0.11463621 0.015806044 0.018298067
000330 94 0b a2 3d db a8 80 3d 69 49 b2 3d c9 5e 8f 3e
       0.079123646 0.062822066 0.08705408 0.28002003
000340 ae 1e 3b 3e 8b 64 7f 3e 58 05 a8 be cb 39 99 3f
       0.18273422 0.24940698 -0.32816577 1.1970762
000350 3a 2f 94 bf 24 73 64 bf 87 dc 82 3d cd 53 1d 3d
       -1.1576912 -0.8923819 0.063897185 0.038409997
000360 63 3a 78 be 8b 38 a6 3d 53 c7 af 3d 0d 49 07 bd
       -0.24241023 0.081162535 0.0858294 -0.03302865
000370 77 d8 89 be 1a 4c 71 be 90 95 35 3c 07 34 a7 3c
       -0.26922962 -0.23564187 0.011083022 0.02041055
000380 34 05 8d bd df 88 41 bd 08 5f 3e bf 04 c6 7b 3d
       -0.06885758 -0.04724967 -0.74363756 0.06146814
000390 5d 9d 63 bc 2e 10 a3 c0 9e 0c 3d 3d 49 4a 6c be
       -0.013892499 -5.095725 0.04615461 -0.23075213
0003a0 6b fd 37 be 1c 06 6b 3d 69 07 e9 3e 72 10 ad bd
       -0.17967765 0.057378873 0.45513466 -0.08450402
0003b0 44 36 ab 3c 7f 96 4e 3d e8 55 d1 3b 05 d7 87 3d
       0.0208999 0.050436493 0.0063884147 0.066328086
0003c0 90 10 bf 3e 90 5d d9 3d 39 e6 4b 3e 9c 9c 04 3d
       0.37317324 0.10613549 0.19912042 0.032375917
0003d0 6a 6b cb bd b4 0c a1 3d 90 d3 45 3d 91 f7 52 3c
       -0.09932597 0.07863751 0.048297465 0.012876407
0003e0 ff 7c a6 3d 03 a3 1a 3f 33 93 92 bd ea 3c 69 3d
       0.0812931 0.60404986 -0.07156982 0.056942858
0003f0 2b 19 2a 3c 51 cf 15 be 00 86 25 3d af 66 65 bd
       0.010381977 -0.14629866 0.040410995 -0.05600613

l2.bias f4 [256]
000000 50 0e bf 3d 38 1a 78 3d 9e f8 61 3d c8 ae 3a bc
       0.09328902 0.06057188 0.05516874 -0.01139421
000010 d6 47 ae 3d 85 4f e2 3c 24 3b 88 3c df a2 87 bd
       0.08509795 0.027625808 0.016629763 -0.06622862
000020 cd 02 3f bd a8 03 e8 3c 06 4b 1c be 95 ad 97 3c
       -0.04663353 0.028322056 -0.15262994 0.018515388
000030 3d ad 97 bd df d8 42 bd c4 f9 ce bc c0 85 92 3d
       -0.074060895 -0.047570106 -0.025265582 0.07154417
000040 d8 bf 90 3c cb 50 48 3b bc 66 57 3d 4e 18 61 bc
       0.017669603 0.0030565734 0.05258821 -0.013738705
000050 c5 ba 06 3d 7a 71 96 3c 56 e4 b4 3d b0 7f 3c bd
       0.03289296 0.018364657 0.08832614 -0.04602021
000060 b8 ec a4 3c 99 a9 8a 3d 5c a3 1f 3d 2f e9 af bd
       0.020132408 0.067706294 0.03897415 -0.08589398
000070 f9 99 87 3d 8c 25 e1 3c 52 d4 94 bc 95 c5 97 3d
       0.06621165 0.027483724 -0.018167648 0.07410733
000080 ba c1 1a 3d 64 c9 fd 3c cf a3 51 3d 08 6b d3 3d
       0.03778241 0.03097982 0.05118161 0.10323149
000090 05 98 a8 3d 50 88 48 3d 8c b1 da 3d 9b c6 0e bd
       0.082321204 0.048958123 0.10678396 -0.034857374
0000a0 e4 c2 a5 3b 72 a5 86 3c 38 ae 3e 3c fd c8 61 3d
       0.005058633 0.016436312 0.011638217 0.055123318
0000b0 62 5d 2f bc ea 84 95 3d 62 11 0e bd 25 12 0d bd
       -0.010703417 0.07300742 -0.034684546 -0.034441132
0000c0 ef 92 20 3c 56 64 d2 3b 5f 61 23 3d 5e 93 13 bc
       0.009800657 0.0064206524 0.039887782 -0.009007303
0000d0 84 6a 34 3c ec 19 22 3c 1b 60 50 3d f4 bd da 3d
       0.011011723 0.009893876 0.050872903 0.10680762
0000e0 c3 7b 89 3d 0f cb 07 3d b6 ee 21 3c d9 6f d0 3c
       0.06713059 0.033152636 0.009883573 0.025443958
0000f0 93 23 92 ba 9c 71 57 3c ff 2e 35 3d 6e b8 4d b9
       -0.0011149518 0.013149645 0.044234272 -0.00019619029
000100 2c cd e8 3c 99 e1 52 3c b8 00 c1 3c f7 55 f9 bc
       0.028418146 0.0128711695 0.023559913 -0.030436499
000110 8d aa ad bc 88 fb ec 3d 0f cf e0 3d 93 90 e3 3c
       -0.021199489 0.11571413 0.10976993 0.0277789
000120 e4 38 d7 3d 77 51 8b 3d b5 f0 89 bd 41 5b bf bc
       0.10508898 0.068026476 -0.06735364 -0.023358943
000130 01 01 f7 bc e7 39 cd 3c 47 97 bd 3d 55 eb 11 3d
       -0.030151846 0.025052024 0.092573695 0.03562482
000140 21 77 d3 3d 6c db bf 3c 38 4f 8f 3d 48 0d 18 bd
       0.103254564 0.023420058 0.06997532 -0.03712204
000150 c0 65 8b 3d a3 fa d8 3d fe 3b a5 3d c4 97 a1 3c
       0.06806517 0.1059468 0.08068083 0.019725688
000160 5c 64 5b 3d 8e 78 d2 3d 9f 57 8f 3d d6 93 60 bb
       0.053562507 0.102769 0.06999134 -0.0034267805
000170 e8 17 8a 3c 71 94 b8 3d e3 54 e4 3c f5 d3 14 3d
       0.016857103 0.09012688 0.027872508 0.03633495
000180 95 68 d7 3c 36 3f 89 3d 88 05 c0 3c e4 7f ca 3c
       0.026294986 0.0670151 0.023440138 0.024719186
000190 71 57 09 3e eb 0a 1d bd 6e fa 70 bd 5a 36 c3 3d
       0.13412262 -0.03834049 -0.05883258 0.09531851
0001a0 ec 90 a0 3c db 50 92 3d f8 b0 88 bd 86 92 98 3d
       0.019600354 0.07144328 -0.06674379 0.07449822
0001b0 92 de 7d ba c0 71 31 bc 32 a5 d1 bc 93 a1 63 3d
       -0.00096843496 -0.010830343 -0.025591467 0.05557401
0001c0 db 36 8b bd 3b 8b 40 3c d6 9a a7 3c 37 30 85 bd
       -0.06797572 0.011751945 0.020459574 -0.06503337
0001d0 ee a7 5d 3d cb f3 21 bd b3 19 d4 3c c9 3e 37 bd
       0.05411523 -0.03953914 0.02589116 -0.04473761
0001e0 3b cb cf 3d ba ed 0e 3b db b1 b3 3d fd a3 d3 3c
       0.10146185 0.0021809177 0.087741576 0.025835032
0001f0 92 92 fb 3c 2f 03 ed 3c ce ed ac 3d 98 5d ab 3d
       0.030709539 0.028932182 0.08443795 0.08367461
000200 39 14 56 bd 15 a7 0f 3d 8a 2d 31 3d 70 96 99 3c
       -0.05226538 0.03507145 0.04325632 0.018748492
000210 e4 3f 4e bd fa a5 f3 3d 35 7a 34 3d e6 92 3a 3d
       -0.0503539 0.11896892 0.04406186 0.04555025
000220 07 f8 6d bc e3 72 83 bd ea bd c8 3c f8 7e 9d bc
       -0.014524466 -0.06418397 0.02450462 -0.019225582
000230 0d bb da 3d db ae 85 3c 22 c3 c0 bd bf f6 58 bd
       0.10680208 0.01631873 -0.09412219 -0.05296969
000240 af 2b 06 bd 98 c7 26 bc 14 91 d7 3c db b6 44 3d
       -0.032756504 -0.010179423 0.026314296 0.048025947
000250 63 4f 31 bc 12 45 0c bd 42 44 5d bd 38 48 5b 3d
       -0.01082215 -0.034245558 -0.054020174 0.05353567
000260 1a 5a d5 3d 36 ef d2 bb 6a 72 26 3b 0a 80 cb 3b
       0.10417576 -0.0064372076 0.0025397786 0.006210332
000270 82 e5 8e 3c c2 e9 b4 3d 31 0d 85 bd c6 34 0f 3d
       0.017443422 0.08833648 -0.06496657 0.034962438
000280 0c 7d b7 3b e6 5e f5 3b 79 f1 2f be 46 24 b9 3c
       0.0055996235 0.0074881194 -0.17181958 0.022600304
000290 1d 5e d1 3c 94 15 67 bd 0e 68 7f ba 4a 93 54 3c
       0.025557572 -0.056417063 -0.00097429834 0.01297457
0002a0 bc 8c 2e 3d 01 5f b7 3c a8 68 c6 3d b8 52 13 bc
       0.042614684 0.022384169 0.0968793 -0.00899189
0002b0 88 af f7 3b 2b 66 08 3d e7 9e 76 3c e6 78 4d 3d
       0.0075587668 0.03330056 0.015052534 0.050164126
0002c0 10 21 c7 3d 5b 0b b4 3c 7c df 09 3c 1b 3f 99 3c
       0.09723103 0.021978071 0.008415099 0.018706849
0002d0 40 63 4c bd e0 c2 96 3d 74 7e 3c 3d 34 ef 59 3d
       -0.04989934 0.07361388 0.046019033 0.053206638
0002e0 66 fc 4f bd d2 b0 5c bc d4 22 57 3d 54 ea f8 3c
       -0.050777815 -0.013469892 0.05252345 0.030385174
0002f0 f0 f1 bf 3c 7f 1e bc 3c 6e 71 d9 3c 6e 62 3c 3c
       0.023430794 0.02296376 0.026543345 0.011498077
000300 1e 71 bd 3c 92 e7 69 bd 51 89 e9 bd 94 36 e1 bb
       0.023125228 -0.05710561 -0.11403144 -0.0068729613
000310 a9 69 1b 3c ba 2d 8c 3c a4 04 18 3c 23 9d ef bc
       0.009485641 0.017111648 0.00927845 -0.029249733
000320 c0 0a 6f 3c a6 cd b4 3d 93 8b be 3d 93 94 c7 bc
       0.014589965 0.08828287 0.093039654 -0.024362838
000330 b5 1c 8e 3d fe 59 30 3d 7f b4 56 3d 96 cb cf 3b
       0.06939069 0.043054573 0.05241823 0.006341408
000340 e6 f1 3d 3d b4 84 1e bd c3 af 9e 3d 3c 95 6c bc
       0.04637327 -0.038700774 0.07748368 -0.014439877
000350 f9 f4 00 3d a7 79 25 3d 04 1d 7f bc 45 76 33 bd
       0.031483624 0.04039922 -0.015570883 -0.043813962
000360 52 ad a5 bc 10 84 c2 3d f0 3b 72 3d a7 c3 22 bd
       -0.020224247 0.09497845 0.059139192 -0.03973737
000370 21 7a b8 3b 73 68 83 bd d5 13 d7 ba 07 d4 50 bb
       0.0056297933 -0.064164065 -0.0016409109 -0.003186466
000380 79 2d ac bc 8f 1c 24 3d 10 65 6b 3d d0 f4 22 bd
       -0.021017777 0.040066298 0.057469428 -0.039784253
000390 e6 da 31 bc a2 45 ee 3c 32 83 3a 3d 74 64 18 3d
       -0.010855412 0.029085938 0.045535274 0.037205175
0003a0 5c 0e 7c 3c b9 a9 56 3d 84 23 6a 3d 9a 4b 87 3c
       0.015384283 0.052407954 0.057162777 0.016515542
0003b0 6b 64 bf bc 28 aa a5 3d d3 dd 63 bc bc 98 1f bd
       -0.023363313 0.08089095 -0.0139078675 -0.03896402
0003c0 69 d5 26 3d c4 ff 39 3d 56 5e ca 3d 6c 8b fa 3c
       0.040730868 0.045409933 0.098812744 0.03058406
0003d0 30 64 8c 3c 50 28 38 bd 25 c1 5c 3c f2 90 67 bd
       0.017137617 -0.04496032 0.013473784 -0.056534715
0003e0 1a b4 48 bd f7 33 5c 3d 72 20 4c 3d fa e3 69 3d
       -0.048999883 0.053760495 0.04983563 0.05710218
0003f0 7d 68 26 3d 7f 80 9b bd 3b 0b 8f bc e2 34 34 bd
       0.04062699 -0.07592868 -0.01746141 -0.043995745

l3.weight f4 [1, 256]
000000 e0 62 0e 3f 05 f9 2a 3f 61 2b 22 bc 60 18 b4 bc
       0.5561962 0.66786224 -0.009898038 -0.02198428
000010 7c d1 52 3f 6f 2f 2f 3d ca 87 8c c0 a3 9a 2e bd
       0.823509 0.042769846 -4.391576 -0.04262794
000020 3d 7a 6b bd b6 ad 47 bd a3 20 85 bf 9c 3e 1f c0
       -0.057489622 -0.048749648 -1.0400585 -2.4881964
000030 69 ba 03 bd aa 67 34 bd 0a 4d 10 c0 08 66 cd 3e
       -0.032160196 -0.044044174 -2.254702 0.40116906
000040 eb 5d 05 3f ec 55 17 3f 74 4f b7 bb 7e 99 59 3f
       0.5209643 0.5911548 -0.0055941883 0.84999835
000050 2c 5d 98 bf f6 d8 34 3f e3 3a 02 3f 6b 65 db bf
       -1.1903434 0.70643556 0.50871104 -1.7140325
000060 ed 3c 10 3f 2d e1 fe 3e 87 b8 c4 3e 19 c3 c4 bf
       0.56342965 0.4978117 0.38422033 -1.5372039
000070 db b9 22 3f 55 b6 e9 3b 3f 65 29 c0 db 89 94 3f
       0.6356484 0.0071323314 -2.6468046 1.160457
000080 c2 29 83 3f 04 0a a0 3f d1 db 48 3f ea 98 ac 3f
       1.0247118 1.2503057 0.78460413 1.3484166
000090 60 e9 a0 bf 87 11 36 3f 88 4a c9 3e 43 b6 f7 bc
       -1.257122 0.71120495 0.39314675 -0.030238276
0000a0 5f 64 53 bd 67 a3 25 3f 95 bc 2d 3f f5 26 0b 3f
       -0.051609393 0.6470246 0.6786588 0.5435632
0000b0 1f e2 87 bb d6 5b 64 c0 59 5a 21 c0 b2 17 cd 3f
       -0.004146829 -3.5681052 -2.5211394 1.6022856
0000c0 ef d6 3b 3f 1b ce 4d bf be a4 3c 3f 9d 01 0b c0
       0.7337484 -0.80392617 0.73688877 -2.1719735
0000d0 64 f2 02 3f 01 65 06 bc 94 b7 bf 3e e2 bd 24 3f
       0.5115111 -0.008202792 0.37444746 0.6435224
0000e0 34 22 a1 3e d9 8d e9 bc ba fd 86 c0 d7 c4 f9 bc
       0.31471407 -0.028510021 -4.2184725 -0.030489368
0000f0 c3 0e 4f bf 80 30 3c c0 89 74 e4 3e 0d 8a d5 3e
       -0.808819 -2.9404602 0.4462016 0.41706887
000100 c8 e9 44 bc d0 d7 a0 3e 50 76 81 bc 4c c4 e7 ba
       -0.012018628 0.31414652 -0.015803486 -0.0017682402
000110 28 d0 97 3e ab b9 a2 3f e0 40 28 3f 34 9e 15 3f
       0.29650998 1.2712911 0.6572399 0.58444524
000120 37 2c cd 3e ea bc 94 3f 02 70 33 c0 bf d5 6e bf
       0.40072796 1.1620152 -2.8037114 -0.932949
000130 6c 9b 35 c0 e1 f3 9a bf d3 34 ab 3f 8c 99 ff 3e
       -2.8376112 -1.2105676 1.3375496 0.49921834
000140 d2 8b f3 3e 8a 79 c2 3e fb 08 04 3f 48 8a b2 bf
       0.47567612 0.37983352 0.51576203 -1.394845
000150 94 90 58 3f 3f a8 7f 3f e0 68 d8 3e a0 79 a2 bf
       0.8459561 0.998661 0.42267513 -1.2693367
000160 3e d1 0a 3e e0 32 17 3f b4 ea 39 3f 76 3b 60 3d
       0.13556382 0.59062004 0.72623754 0.054744206
000170 ae 44 d1 3e 0e cb 2b 3f 0d 19 27 3f 61 fd 39 3d
       0.4087271 0.6710671 0.652726 0.045407657
000180 c8 f3 52 bf 49 12 5f 3e 60 94 fa 3c 40 74 2d 3b
       -0.8240323 0.21784319 0.030588329 0.0026466995
000190 5e 6d 9e 3f 9f d3 b8 bb a5 85 a9 3a 72 5c da 3e
       1.2377126 -0.0056404616 0.0012933506 0.42648655
0001a0 3a 36 33 bd 5c 3e 4b 3e 52 e4 58 3b 46 6d 09 3f
       -0.043752886 0.19848007 0.0033095074 0.53682363
0001b0 fd ac b9 3e 5e b3 09 3d e3 cb 0e bd 26 b6 02 3f
       0.36264792 0.033618324 -0.03486241 0.51059186
0001c0 56 5d 00 c0 de e1 f2 3e a4 ca 0e 3f 4d 8d f7 3b
       -2.0056968 0.47437948 0.55777955 0.007554686
0001d0 ef c0 0f 3f 9f ce 01 3c fc df 4f bd dd 48 2a 3d
       0.5615377 0.007922797 -0.050750718 0.041573394
0001e0 72 43 41 3f 41 43 8f 3e 22 b9 b1 3f fe 2e a2 bc
       0.7549354 0.27980998 1.3884623 -0.019797798
0001f0 f4 16 b4 3e 48 3e 00 3f 04 41 2b 3f ec a8 14 3f
       0.35173762 0.50095034 0.6689608 0.58070254
000200 47 bd 2d 3f f3 56 bf 3e b7 7e 67 3f d2 c5 d4 bc
       0.6786694 0.37371024 0.90427727 -0.025973234
000210 35 90 72 bf b4 1a 62 3f 42 c8 ee 3e d1 5c c4 3e
       -0.9475129 0.88321996 0.4663716 0.38352063
000220 2e e2 44 3d 14 fe 0a bd 02 8e e7 3e 2c 00 40 3f
       0.048067264 -0.033933714 0.4522553 0.7500026
000230 f4 29 a3 3f 32 77 67 c0 e5 e3 6d bf 58 15 bf bc
       1.2747178 -3.61665 -0.92925864 -0.023325607
000240 82 1b 30 c0 20 ff 79 bc d2 6c a5 bb 82 5a 14 bd
       -2.751679 -0.01525858 -0.005048373 -0.036219127
000250 4d 6d f2 bc 75 76 a5 3d 30 fe 36 3c a6 c8 44 3f
       -0.029593134 0.080792345 0.011169001 0.76868665
000260 af 40 e4 3e 03 e0 00 3f 9a c9 31 bc 6a 03 d8 3e
       0.445806 0.50341815 -0.010851288 0.42190105
000270 97 ac e3 3e d5 cc b0 3f e4 6f 90 bf c6 fd 47 c0
       0.44467613 1.381251 -1.1284146 -3.124864
000280 84 55 12 3f b1 3c 10 bc c1 cc ba 40 96 69 a2 3f
       0.57161736 -0.008803532 5.8374944 1.2688472
000290 e4 d5 35 3f df f9 10 c0 c8 b0 30 bd 0d 8a 7b 3e
       0.71029496 -2.265251 -0.04313734 0.24564381
0002a0 e9 97 fe 3e 36 63 2d 3f d0 bd a0 3f 15 28 c8 ba
       0.49725273 0.6772951 1.2557926 -0.0015270734
0002b0 30 5c 86 bf d1 2c 46 3f 73 ca 32 c0 3d fe a9 3f
       -1.0496883 0.77412134 -2.7936065 1.3280712
0002c0 92 ec 0c 3f a6 c6 03 3d 58 15 81 3e 02 07 10 c0
       0.5504848 0.032171868 0.25211596 -2.2504277
0002d0 97 44 0c bf 93 f6 5a 3e 5a 4b 7e ba c0 d9 fa 3a
       -0.5479216 0.21383123 -0.00097005593 0.0019138381
0002e0 c4 6c 1c 3d da a0 7f 3e a5 c0 54 3f 26 01 24 3f
       0.038189664 0.24963704 0.8310645 0.6406425
0002f0 8e dd 29 3f 99 06 26 3e 55 70 d1 bc 15 83 a3 bc
       0.6635369 0.16213454 -0.02556626 -0.019959966
000300 b5 e0 d4 3d a6 b4 bf bc b2 54 a7 bf 17 51 2e c0
       0.10394422 -0.02340157 -1.3072722 -2.7236993
000310 ac e0 4f bf f7 ce 96 3e 11 df 02 c0 ab b5 1c bd
       -0.812022 0.29454777 -2.044865 -0.03825919
000320 07 29 23 3f b2 b8 03 3f 87 f0 9f 3f 1c 55 97 3f
       0.6373448 0.514537 1.2495278 1.1822848
000330 f2 1f a4 3f d4 6f 36 3f 37 0b 6c 3e af 1d 39 3b
       1.2822249 0.71264386 0.23051153 0.0028246453
000340 03 a1 4d 3f 3c 83 27 c0 bb 7a 16 3f c0 64 b1 bc
       0.8032381 -2.617385 0.5878102 -0.021654487
000350 73 67 d9 3e 67 15 24 c0 54 de dc 3f df 20 22 c0
       0.42461738 -2.5638063 1.7255349 -2.5332563
000360 1a 5b 4d c0 62 74 74 3f a5 bc 96 3f 45 7e 5f 40
       -3.2086854 0.95490086 1.177632 3.4920819
000370 20 44 a6 c0 45 8d 1c c0 d4 fc e8 be 42 cf 11 3f
       -5.195816 -2.4461224 -0.45505393 0.56956875
000380 63 58 12 3f f2 09 10 3f 98 86 bc 3f 96 b8 9f 3d
       0.5716612 0.56265175 1.4728575 0.07798879
000390 b6 9b f6 3e f0 03 f0 bc 01 cd a0 3f 31 ea 20 bc
       0.48165673 -0.029298753 1.2562562 -0.009821461
0003a0 de 68 05 3f 35 62 10 bd e4 3a b2 3f 50 95 fe 3c
       0.5211314 -0.035249908 1.3924222 0.031077057
0003b0 e7 d3 49 bf b7 e7 0d 3f 9f a6 fd bc 1d b3 9b bf
       -0.7883896 0.55431694 -0.03096324 -1.2164036
0003c0 bd 32 94 bc 73 65 0d c0 1c 6e d7 3e 1a 95 e6 bc
       -0.0180906 -2.209317 0.42076194 -0.028147269
0003d0 5b f9 11 3f f8 0c 60 bf e5 8d 30 3f 65 c1 29 c0
       0.5702111 -0.8751979 0.68966514 -2.6524289
0003e0 e8 d1 69 ba 8a 9e ba 3e 4e e1 07 3f df ab 08 3f
       -0.0008919523 0.3644908 0.5307816 0.53387254
0003f0 68 be ae 3c 4c b6 29 c0 f0 da 0f bc 68 fc 2b bd
       0.021331027 -2.6517515 -0.008780226 -0.04198876

l4.weight f4 [256, 6]
000000 cd 6f 95 be e6 b1 2b be 38 9c 18 be ae 8a 99 bf
       -0.2918686 -0.16767082 -0.14903343 -1.1995447
000010 98 1a 47 be 40 a6 fb 3c 28 c3 7e 3f 99 1d 67 3d
       -0.19443738 0.030718923 0.99516535 0.05642471
000020 b6 0b 5e be 6a 4f 34 bf d5 ca a6 bd 90 a5 ce 3c
       -0.21684155 -0.70433676 -0.08144156 0.02522543
000030 a6 b9 99 bf d7 b9 23 bf fb f0 72 be 00 ea 98 3e
       -1.200978 -0.63955444 -0.23724739 0.29866028
000040 ff 2a 4a be 3f da e5 bc 9a 1f d6 bd 10 18 e2 be
       -0.19742964 -0.02805817 -0.10455246 -0.44158983
000050 f6 8a 81 be b0 36 14 bf 3b 8e 85 3e aa 9b 09 3e
       -0.2530133 -0.57895947 0.26085076 0.13438287
000060 97 12 59 3f d3 c5 de bd 8e 0e af 3e 3d 98 8c bf
       0.8479399 -0.10877576 0.34190792 -1.098396
000070 83 52 48 be 7e a8 15 3d d0 d7 2b 3f 37 69 08 3e
       -0.19562726 0.03653764 0.6712618 0.13321386
000080 29 69 9b be 10 74 a6 bf 78 80 bb be 7c b6 0c 3e
       -0.30353668 -1.300417 -0.3662145 0.13741487
000090 7b cf 09 be d3 65 9f 3e 50 bf ad 3e d8 0e 5e bd
       -0.13458054 0.31132373 0.33935022 -0.054213375
0000a0 40 38 da 3e fd 4c fe bd ad 4b 48 be ac 43 40 be
       0.4262104 -0.12417028 -0.19560118 -0.18775815
0000b0 49 dd 24 3e 36 4a 30 bf 81 35 58 be 5c fb c1 bc
       0.16100039 -0.68863237 -0.2111416 -0.023679428
0000c0 91 65 0e 3e 57 65 3d be 97 9b b9 bc 28 32 b2 bf
       0.13905932 -0.1849569 -0.022657199 -1.3921556
0000d0 a5 df 5f be 3d 2c f0 3c 39 8a ed be b7 a5 8a 39
       -0.21862657 0.02931797 -0.46394518 0.00026444878
0000e0 f6 7c 8e be 84 70 8a 3e 66 43 10 3e b7 b4 79 be
       -0.27829713 0.27038968 0.1408821 -0.24385343
0000f0 86 4a 80 bf 8f 90 71 3c 23 16 70 be 2b 31 8b 3f
       -1.0022743 0.014743938 -0.23445944 1.087438
000100 50 1e bf 3d 9c 13 9b bc 32 61 ad 3e 2b ce 47 3e
       0.093319535 -0.018930249 0.33863217 0.1951224
000110 3d 5e 36 3d 64 4b 12 bf 7c 9a 08 3e 71 a3 ca bc
       0.044523466 -0.57146287 0.13340181 -0.024736138
000120 c7 d1 31 bd a0 d4 31 bd 19 a5 57 3e f6 a2 a4 bf
       -0.04341295 -0.043415666 0.21059074 -1.2862232
000130 ef c3 7a bd be f4 64 3c 20 a2 4e 3f af 20 d9 3e
       -0.061222013 0.013974367 0.80716133 0.42407748
000140 1f 10 c6 be 7e dd 8f be f6 d6 a5 be 03 34 0d 3e
       -0.38684174 -0.28098673 -0.32390565 0.13789372
000150 97 c3 ff be 57 19 2d bf 36 23 87 be 46 cd 4d 3e
       -0.4995391 -0.6761679 -0.2639405 0.20097837
000160 ad 94 4f 3e 77 63 0b be fc cd 17 3e f0 7d 06 bf
       0.20271559 -0.13612162 0.1482467 -0.52535915
000170 79 87 08 3e ae c4 0b 3f af 48 aa be d7 b3 55 3d
       0.13332929 0.54596984 -0.33258578 0.05217346
000180 e0 9e 6d be f2 98 62 be bd 52 fd bd fa 5e 86 3f
       -0.23205137 -0.22128657 -0.12369297 1.0497735
000190 7f 6f b8 3e c7 fb ac be d4 db 5b 3e ff 2f a2 be
       0.36022565 -0.3378584 0.21470577 -0.31677243
0001a0 4d 89 25 3d 30 35 9e bf 5c 3d 95 be 82 55 23 3d
       0.040414143 -1.2359982 -0.29148376 0.03987647
0001b0 05 ae 1f bf a0 21 1f bf 0c 4f 97 be 58 2d 59 bf
       -0.6237491 -0.6216068 -0.29552495 -0.84834814
0001c0 6d b8 2f be c4 de 3e bd b8 77 89 3d e3 fb b3 be
       -0.17160197 -0.046599165 0.06712288 -0.35153112
0001d0 fa 28 98 bd 81 0e 7a 3f 66 ac 90 be 0f dd b6 3e
       -0.07429691 0.9767838 -0.2825653 0.3571553
0001e0 84 5b d9 bc b7 6e 15 3c b6 d9 43 3e 55 c2 48 3f
       -0.026532896 0.009120635 0.19126019 0.7842153
0001f0 de e6 96 3e 2d 08 93 3e 73 30 37 3d ce ed 09 3f
       0.29473013 0.28717175 0.04472394 0.53878486
000200 84 f1 c7 bd 4f 60 1b bf 27 92 e2 3d d6 c2 31 3e
       -0.09762862 -0.6069383 0.110630326 0.1735948
000210 3b e8 31 3f 3b 0c 95 3e 7c 86 24 bd c1 53 78 bf
       0.6949498 0.29110894 -0.040167317 -0.970028
000220 ac 39 d6 bc c4 ec 41 3e f6 53 ab 3e 72 65 58 3c
       -0.026150547 0.18937975 0.33462495 0.01320778
000230 2c 76 45 be 04 c7 2d 3f 09 35 de 3e 5e d7 66 3e
       -0.1928336 0.678818 0.43399838 0.22543094
000240 5d 0b 05 bc 33 20 69 3d d1 7d 00 3e 38 26 d1 3f
       -0.008120385 0.056915473 0.12547995 1.6339788
000250 f4 f4 17 3e 30 68 06 bd 38 71 84 3e 21 38 87 be
       0.14839536 -0.032814205 0.2586763 -0.2641001
000260 bc 13 8a be 2d 7a 02 c0 89 30 c5 be 17 e6 8e 3d
       -0.2696818 -2.038707 -0.38513592 0.0697748
000270 12 7f 33 be 13 db 89 3b 10 53 33 be 98 99 6c bf
       -0.17528942 0.004207024 -0.17512155 -0.92421865
000280 d8 80 c4 3e 16 ce 30 bd d5 21 9a 3f c9 35 0f be
       0.3837955 -0.04316529 1.2041575 -0.13985361
000290 63 62 7e be 00 8d 08 bf c8 70 98 be a4 63 b1 3c
       -0.24842219 -0.5334015 -0.29773545 0.021653958
0002a0 3e ff c3 3e 05 4e 59 be 14 ec 45 3c 66 76 1d be
       0.38280672 -0.21221168 0.012080211 -0.15377197
0002b0 23 79 37 bf e4 7e 0c 3e 1e 1a ea 3e ce bc b7 3e
       -0.71669215 0.1372028 0.4572305 0.35886234
0002c0 b6 74 cb 3e 78 bc 22 bd ce a4 95 3e ba c5 31 bd
       0.3973748 -0.03973052 0.29227298 -0.043401457
0002d0 40 f1 da 3c e0 ef a2 bd 64 a9 ec 3e fd a4 aa bf
       0.026726365 -0.07955909 0.46222985 -1.33316
0002e0 65 2b 5f be 36 5d 50 3d 06 e1 17 be 2e 1d 94 3e
       -0.21793897 0.050870143 -0.14831933 0.28928512
0002f0 ea d3 59 3e fc ac af 3f 48 38 a2 3e a0 3c 66 bd
       0.21272245 1.3724666 0.31683564 -0.05621016
000300 97 07 b7 be 0b 13 b7 bd 8c c7 ba 3e 07 a2 6a 3e
       -0.35747978 -0.08939179 0.36480367 0.22913371
000310 31 23 8a be 62 09 49 be 08 44 0d 3d 8d 9d 27 3f
       -0.26979974 -0.19632486 0.034488708 0.6547478
000320 ce f5 62 bd 77 5c 80 3f 3b a2 dd be ea 50 2f 3e
       -0.0554102 1.0028218 -0.43287835 0.1712071
000330 12 58 a1 3e 1d 58 a2 3e 56 ee 4f bd 5a 28 7b 3f
       0.31512505 0.3170785 -0.050764404 0.98108447
000340 23 dc 3e be 54 90 d0 be 57 9b 98 3d 73 93 09 3f
       -0.18638663 -0.40735114 0.07451504 0.53740615
000350 9b 9e 93 3e 2a 0b 8d be ae 28 d8 be c4 a0 10 3e
       0.28831944 -0.2754758 -0.42218536 0.14123827
000360 c4 1b 54 bf 11 fa e9 be e9 f4 5e be 02 e6 5a 3d
       -0.82854867 -0.45698598 -0.21773113 0.05344201
000370 3f 4f d2 bc a2 0e eb be 83 35 88 bf 71 09 9f be
       -0.025672553 -0.459096 -1.064133 -0.3106189
000380 ea 5d ca be a8 14 22 bf 26 79 d5 3d a0 da 9e be
       -0.39524776 -0.6331277 0.10423498 -0.31026173
000390 84 22 e9 bd 07 1b 34 bf 27 62 eb be eb 5b 25 bf
       -0.113835365 -0.7035374 -0.45973322 -0.6459338
0003a0 ec 54 b0 be 5f 79 32 be da d8 99 be 74 05 20 be
       -0.3443979 -0.17429112 -0.30048257 -0.1562708
0003b0 45 39 af 3e 5c 64 40 be 5b 88 49 be e8 f0 d0 3c
       0.3422338 -0.18788284 -0.19680922 0.025505498
0003c0 c5 70 9a be 7b 07 5a bd 8e 74 cb 3e 4d e2 56 3f
       -0.3016416 -0.05322979 0.39737362 0.8393906
0003d0 0d 21 90 be d2 0b 6c 3e 83 b8 8f be 2c 0d 45 3f
       -0.28150216 0.23051384 -0.2807046 0.76973224
0003e0 b3 02 a3 be d7 19 fc be 26 7e de be d2 01 96 3e
       -0.31837997 -0.49238464 -0.4345562 0.29298264
0003f0 b1 90 c1 3d 12 de 27 be ea 4d 83 3e 35 37 ac bf
       0.09451426 -0.16393307 0.2564538 -1.3454348

l4.bias f4 [256]
000000 4c 5c 12 be 70 c6 e5 3c 7e 1e 6c 3e 39 89 9c 3e
       -0.14293021 0.028048724 0.23058507 0.30573443
000010 3b fe 09 3b fa 27 65 be 74 b5 1f 3e 49 4e a8 3e
       0.0021056074 -0.22378531 0.15596563 0.32872227
000020 f1 7a ac be 42 b6 bc 3e 5e af d6 bc 0f 62 9f 3b
       -0.33687547 0.36857802 -0.026206668 0.0048639844
000030 8e 50 ec be 19 58 9b be 1a 72 50 be 0c 26 52 3e
       -0.46155208 -0.3034065 -0.20356026 0.20522326
000040 c0 1f 54 be 0c 85 bf 3e ca 17 b0 be 62 df 8b 3e
       -0.20715237 0.37406194 -0.3439315 0.27318865
000050 da d8 5f 3e 76 c4 38 be b0 8d bc 3d 3f e7 f0 be
       0.21860066 -0.18043694 0.09206712 -0.47051427
000060 d9 52 f2 be 0c 5e 9d be e6 30 a9 3e 52 17 c7 be
       -0.47328833 -0.30735815 0.3304512 -0.3888498
000070 30 d2 a3 be ce 48 a7 3e bc 09 20 bd 6f c3 6f 3e
       -0.31996298 0.32672733 -0.039071783 0.23414396
000080 4a ec 8e bd b6 26 2b 3e 52 cc ce be e8 ac 91 be
       -0.06978662 0.16713986 -0.4039026 -0.2845223
000090 e1 52 49 be 80 e0 21 3e d5 81 ab 3e 92 4b 13 3e
       -0.19660522 0.15808296 0.3349749 0.14384297
0000a0 53 df 48 3e dd 61 32 be d7 3d 35 3e e6 31 ad be
       0.19616441 -0.17420144 0.17699371 -0.33827132
0000b0 6c ea b0 3e 63 c2 09 bf 3a 7c b0 3c df 1f 38 be
       0.3455385 -0.53812236 0.02154361 -0.17980908
0000c0 37 a8 99 be 0d a5 5e 3e f1 16 41 3c 4b b9 18 be
       -0.3001115 0.2174265 0.011785255 -0.14914434
0000d0 0a 6a 5f be ad 54 66 be 09 a0 a9 3e 16 b9 b5 be
       -0.21817794 -0.22493239 0.3312991 -0.35492772
0000e0 c6 ca a5 bd a4 3a 77 3e 0a 42 cb be 44 1f 85 be
       -0.080953166 0.24143463 -0.3969882 -0.26000416
0000f0 d3 6f ac be 03 c5 b9 be 84 0a cd 3d 3f ac a5 3e
       -0.33679065 -0.3628312 0.10011771 0.32357976
000100 e3 51 4a bc f4 06 3d 3e 22 e4 83 3c 92 f9 0c 3e
       -0.012348625 0.18459684 0.016099993 0.13767079
000110 57 78 0e bf e9 69 54 3d 55 c6 c4 be 8e 09 98 be
       -0.55652374 0.051858816 -0.38432565 -0.2969479
000120 d6 03 90 be ef 6d 29 3e 87 f6 09 bf 40 eb 3c 3e
       -0.28127927 0.16545843 -0.53891796 0.18449116
000130 5d 6d 61 3d 31 a0 79 bb 2f 90 0e 3c 4b d1 9d be
       0.055035938 -0.0038089866 0.008701368 -0.3082374
000140 39 f2 5f 3e 04 7f ab be 41 8f 47 3d bf 3d de be
       0.21869744 -0.33495343 0.048720602 -0.43406484
000150 c9 26 9f bd 0c 79 2a 3d f8 6e 8e bc bd 1e 99 3e
       -0.077710696 0.041619346 -0.017386898 0.29906264
000160 22 2a ee bc ed 54 3a bd 7b 45 2e 3e a5 9a 8c 3c
       -0.029072825 -0.045491148 0.17018692 0.017163584
000170 36 5e 63 3e 55 eb 7a be 50 bc 3d bd f9 29 f2 be
       0.22203907 -0.24503835 -0.046322167 -0.47297648
000180 3b 92 41 bd 5a 08 ac 3d 36 ce 9a 3d 4e 93 4a be
       -0.047258597 0.084000304 0.07558863 -0.19782755
000190 c4 c4 4d 3e 05 cd 3d 3e a2 54 c9 be 82 13 92 3e
       0.20094591 0.1853524 -0.39322382 0.28530508
0001a0 51 e7 9d bd 1f 16 27 3e 1f 1b f7 be 88 bf eb 3d
       -0.07710136 0.16317032 -0.4826288 0.11511141
0001b0 6a 78 a6 be d9 b7 12 be 2c b2 7b be 96 0e be bc
       -0.32513744 -0.14327945 -0.24579686 -0.023200314
0001c0 dc ff 43 be 74 94 76 be a8 f8 25 3e cb b3 f5 3d
       -0.19140571 -0.24080068 0.16208136 0.119971834
0001d0 68 51 09 be 61 e4 f9 bd 19 0b 38 3e 72 76 b0 3e
       -0.1340996 -0.12201763 0.17972983 0.34465367
0001e0 2e 91 81 3d 5c 4c b2 3e 6d a8 21 be 1e d1 b4 3e
       0.06326519 0.34823883 -0.15786906 0.35315794
0001f0 66 2f 3a be 9b 3e ac 3e cb 81 af 3d af 7a 8a 3e
       -0.18182144 0.33641514 0.08569678 0.27046725
000200 c5 7e b9 3e 58 ef a1 3e 59 ee 50 3e 50 37 1d 3e
       0.3622953 0.31627917 0.20403422 0.15353131
000210 e1 14 5d 3e ec be ae 3c 0c e2 78 be 85 bc 30 be
       0.21589996 0.021331273 -0.2430498 -0.17259414
000220 81 07 60 be f1 e7 4f bd 90 e9 95 3e 14 c2 e1 bd
       -0.21877863 -0.050758306 0.29279757 -0.110233456
000230 f8 55 34 3e 1c 6a e1 bd c8 26 23 3e 44 24 89 3e
       0.1761092 -0.11006567 0.15932763 0.2678548
000240 2f 2e 1d 3e b7 cd bd 3b 74 78 da be c5 6e 6a be
       0.15349649 0.0057923454 -0.42670023 -0.22893818
000250 54 ad c1 be ae 99 17 bd 14 d6 a8 3e 85 a8 27 3d
       -0.3782755 -0.037011795 0.3297583 0.040932197
000260 b7 3e 7d be d8 43 da 38 c3 36 36 3d af 74 a0 3e
       -0.24730955 0.00010407687 0.04448582 0.31339023
000270 a2 c1 3b 3c 96 3e df be b1 78 90 3e 41 78 c5 3e
       0.01145974 -0.43602437 0.2821708 0.3856831
000280 16 90 b9 3d ec 1a b1 be a8 db 4f 3d 79 03 82 be
       0.09060685 -0.34590852 0.05074659 -0.25393274
000290 c2 61 be 3e c1 45 cd 3e 5c 49 af be 13 df ee bd
       0.37183958 0.4009228 -0.34235656 -0.11663642
0002a0 8f f0 d4 bb 47 5a fa bc b3 2a b4 3e 4b e0 aa be
       -0.0064984034 -0.030560626 0.35188827 -0.33374247
0002b0 f1 c2 ab 3d d5 e2 84 3e 42 68 e8 bc 17 b5 84 be
       0.083867915 0.2595431 -0.028370026 -0.2591941
0002c0 12 e7 d8 3d f6 e7 9b 3e fc a0 9e 3e 30 ed e9 bd
       0.10590948 0.3045041 0.30982196 -0.11422193
0002d0 6e 2b a3 3d 7b 48 9c be 1d 7a ac bd b8 fa af be
       0.07967268 -0.30524048 -0.08421729 -0.3437097
0002e0 a7 a8 85 be f0 6d b6 be 0a 3a ae b8 76 0f 0c bd
       -0.26105234 -0.3563075 -8.307777e-05 -0.034194432
0002f0 13 09 18 3d 32 5f fd bd 22 e6 8a 3e bf 7a be 3e
       0.03711803 -0.12371673 0.27128702 0.37203023
000300 20 06 7e 3e 6d d6 e8 3c f5 df e7 be 11 a0 30 be
       0.24807024 0.028422559 -0.45288053 -0.1724856
000310 56 61 8a be 19 2b fe bb 5d 02 df 3d 9f a1 9c be
       -0.27027386 -0.0077566025 0.10889123 -0.30592057
000320 45 87 89 3d 42 53 54 3e 86 62 eb 3e 15 36 29 3e
       0.06715254 0.20734885 0.45973605 0.16524537
000330 c4 1b a8 3e b7 59 04 bd 8a f6 39 be b8 3b 19 bd
       0.32833683 -0.03231212 -0.18160453 -0.037410468
000340 2d b5 db bd c4 33 18 3e 3e 8f 48 be e1 48 0f 3e
       -0.10727916 0.14863497 -0.19585893 0.13992645
000350 b3 4e 99 3d 82 d9 73 3e ac e1 89 be 98 cc c6 be
       0.07485714 0.23813441 -0.26929986 -0.38827968
000360 b4 4e 90 be db 77 81 be 84 13 70 ba f7 f0 38 be
       -0.28185046 -0.25286755 -0.00091581815 -0.18060671
000370 7e 49 9b 3e ad 80 ce be ec 8a 0f bf 2f 6e 5b 3e
       0.30329508 -0.40332547 -0.5607135 0.2142875
000380 4a 94 95 3e 12 92 71 be 62 b1 9c be bb 16 b4 be
       0.29214698 -0.23590878 -0.30604082 -0.35173592
000390 5a 8f 62 3e c4 72 4d be 24 98 df 3d 4e c3 96 3e
       0.22124997 -0.20063311 0.109176904 0.2944588
0003a0 92 27 4e bd 87 26 2c 3e 08 0d 52 be 8f ba 0b 3e
       -0.050330706 0.16811572 -0.20512784 0.13645385
0003b0 af e4 4f 3e 67 90 97 3e 09 04 8f 3e a4 99 96 3e
       0.2030208 0.29602358 0.27932766 0.29414093
0003c0 6a c1 55 3e 5c 8f 65 3d cb ea 02 3a 00 21 9b 3d
       0.20874563 0.05604492 0.00049940933 0.075746536
0003d0 b0 b2 a2 be 81 20 27 be 86 87 9f be fd 79 07 be
       -0.31776953 -0.16320993 -0.31158084 -0.13230129
0003e0 c0 22 ca 3e f7 84 c1 bc 37 7b 90 3d ba b2 7e 3e
       0.39479637 -0.023622973 0.07054751 0.24872866
0003f0 67 6f 3b be a9 16 9b 3e 59 dc c7 3e f7 bc f4 bd
       -0.18304215 0.30290726 0.390353 -0.11950105
