part1/td3_q4/Inverted/InvertedPendulumBulletEnv-v0_TD3_1_1638193186_td3.pth (torch, 818223 bytes, 15 tensors)

l1.weight f4 [256, 6]
000000 e0 aa 84 bd 18 fc 85 bd ac 06 99 bd dd c5 42 3f
       -0.06477904 -0.06542224 -0.07471976 0.76083165
000010 94 cd dd be f0 2a f4 3d 6a eb fe 3e 95 11 19 3f
       -0.43320906 0.11922252 0.49788982 0.59792453
000020 36 d4 9f be d1 cb 12 be af 99 a9 3d d7 35 b7 3d
       -0.31216592 -0.14335562 0.08281266 0.08945816
000030 08 a6 0a 3e 02 8e 76 bd 30 08 50 be fb 3e aa bf
       0.13539898 -0.060194023 -0.20315623 -1.330047
000040 e5 a7 31 be ed 37 1c 3d cc fc ce 3e 0c ee 1b 3d
       -0.17349203 0.038139272 0.40427244 0.038068816
000050 30 79 dd 3e 4f eb 79 3f fb 53 e1 be c1 60 73 3e
       0.4325652 0.9762468 -0.44009385 0.23767377
000060 61 97 35 bf 53 d1 30 bd 8c bd 31 be 6e 9e 81 3f
       -0.7093411 -0.043168377 -0.17357463 1.0126474
000070 77 d6 de 3d 33 3b b1 bc 03 d4 5f 3d 92 3a d8 be
       0.1088075 -0.021634674 0.05464555 -0.42232186
000080 9f 50 ab 3d 7b 3b 13 be 27 1c bc be d3 45 25 3e
       0.08364987 -0.14378159 -0.3674023 0.16139917
000090 c3 82 23 3f d0 a2 01 bf fd 99 c4 be c5 46 24 be
       0.638714 -0.5063906 -0.38398734 -0.16042621
0000a0 b3 46 07 bf 58 ac 91 3d b2 f6 d0 bc 2d 1b 3a bf
       -0.52842253 0.0711295 -0.025508258 -0.72697717
0000b0 d8 27 be 3c 1e bb 9b bf 4f f7 61 be ed ad 9d bd
       0.023212358 -1.2166479 -0.22066997 -0.07699189
0000c0 cb 64 8c 3e 1a fe 03 3f 6f f3 b3 be 09 21 3c bf
       0.2742065 0.51559603 -0.35146663 -0.7348791
0000d0 89 cc 6a bd 18 f2 c6 bc ab 33 0d 3f ea a5 62 bd
       -0.057323966 -0.024285361 0.55156964 -0.05533401
0000e0 90 d2 cd be f8 02 19 3e 5a ef c2 3e 7f 4f 47 3e
       -0.4019971 0.14942539 0.38073236 0.19463919
0000f0 b0 2a 82 be 4d 67 0f 3e 14 91 5b 3e a3 c0 a5 3f
       -0.25423193 0.1400425 0.21442062 1.2949413
000100 69 9e a7 3e 4f 7c f7 3c 8d 8e 2d bd 8c fd 94 3c
       0.32738045 0.030210642 -0.042372275 0.018187307
000110 ec df d1 3d c4 57 a8 bf e0 f1 c1 bd 6b 87 f9 3c
       0.10247788 -1.3151784 -0.09469962 0.03046008
000120 14 da d3 3d 76 fd ba be c9 4e 3a bd 57 b5 80 bf
       0.103443295 -0.365215 -0.04548529 -1.005534
000130 ac cf f5 3e 69 b7 28 be f5 9c 0f bb 0c 57 ab 3d
       0.48010004 -0.16476215 -0.0021913622 0.08366212
000140 1b b6 ce bd ce ed 8d 3f 9e b6 8e be c4 ee 8f 3e
       -0.100933276 1.1088197 -0.278737 0.2811185
000150 a3 08 b7 bc 47 af 32 3d 1d 83 48 3e 4b d1 6b bf
       -0.022342985 0.04362419 0.19581266 -0.9211623
000160 1b 2a d2 3e 28 ef 73 bd ec c1 b3 be f3 0e c2 3d
       0.4104775 -0.05955425 -0.35108888 0.094755076
000170 f4 e4 e8 bd cc 44 2c bf a0 91 3e 3e 0e 9d 10 bd
       -0.11371794 -0.67292476 0.18610239 -0.03530603
000180 fc e1 80 bf af 1b 36 3f 33 64 b2 bd 47 ea 4c 3e
       -1.0068965 0.7113599 -0.08710518 0.20011245
000190 b3 15 86 3d 66 b6 db 3d 5f 21 b1 be a9 cd bb bc
       0.065471075 0.10728149 -0.34595773 -0.022925215
0001a0 c9 12 45 3e 90 6a 85 3f 30 23 de 3c cd 65 47 3e
       0.19245447 1.0423145 0.027116388 0.19472428
0001b0 f2 36 39 bf 32 74 3b 3e e3 63 91 3e 64 5e a5 3e
       -0.72349465 0.18306044 0.2839652 0.32298577
0001c0 19 7a 17 be 93 4e 1a 3d f9 18 a7 bd e9 ae 00 bf
       -0.1479267 0.03767259 -0.0815906 -0.5026689
0001d0 cd f6 69 3e 55 8b b9 3e 7a e1 14 bd 1a 91 0c bd
       0.22848053 0.36239114 -0.036347844 -0.034318067
0001e0 dd 32 a1 be c3 3f b5 3e 1f 07 90 3d 80 ea 36 3f
       -0.31484118 0.3540021 0.07032608 0.7145157
0001f0 8a 82 8c 3e e1 35 c2 3d 09 51 98 3e ff 65 37 3f
       0.27443343 0.09482933 0.29749325 0.7164001
000200 d1 3f c3 3d 3a b6 ea be 69 fd 02 3f 27 9e 10 bd
       0.095336564 -0.45842153 0.51167923 -0.035307076
000210 38 2e 37 3b 2b a7 9d be a3 fa 0d 3d 56 8e 92 bf
       0.0027951133 -0.30791602 0.034662854 -1.1449687
000220 41 4c ba be 86 aa 21 3d 11 05 4e 3f 62 4c 19 3f
       -0.36386302 0.039469264 0.8047648 0.59882176
000230 43 cc b6 bd 0e 83 90 3e 9f 21 a5 3e 35 31 92 bb
       -0.089256786 0.28224987 0.32252213 -0.0044614323
000240 94 ce f8 3e 88 1d 5e be 53 2d 10 be 05 13 70 3f
       0.48595107 -0.21690953 -0.1407979 0.9377902
000250 b0 38 4e be 59 ad ea 3d ee ab 09 be 32 6c 94 be
       -0.20138812 0.11458845 -0.13444492 -0.28988796
000260 a3 42 70 be e6 63 a0 bf 17 60 b1 be 3c 76 a5 3d
       -0.2346292 -1.2530487 -0.34643623 0.08079192
000270 8a f0 25 bf 4b 79 2d be 46 fc d2 bd 88 cb 07 40
       -0.6482016 -0.16940801 -0.103020236 2.1217976
000280 92 23 ac 3d 0e 5a 86 bd b7 e1 c3 3d 39 28 f7 3e
       0.08405222 -0.06560145 0.09564536 0.48272875
000290 69 be 96 be 2a fa df 3d 13 91 fc 3d 6a f7 a1 be
       -0.29442146 0.10936387 0.12332358 -0.31634074
0002a0 69 02 26 be fb 10 33 3e 14 76 3d 3e ad 9a 1c 3f
       -0.16211857 0.17486946 0.18502074 0.61173517
0002b0 3e a8 e1 be 1b fc 33 be c2 87 e1 3d 9d 25 91 bd
       -0.4407367 -0.1757664 0.11012222 -0.07087252
0002c0 8b d8 a9 be 87 ce d2 3f ab e8 d4 3d 4a 40 1a bd
       -0.33173022 1.6469277 0.103959404 -0.037658967
0002d0 a0 d7 80 be 00 46 e0 ba af ae d8 3d f6 ae eb 3e
       -0.2516451 -0.0017110705 0.10580193 0.46031922
0002e0 62 5c c6 be 13 01 d1 bc 93 fe 00 be 1f dc d6 3e
       -0.38742357 -0.025513208 -0.12597112 0.41964814
0002f0 56 35 c5 3d 59 f0 21 3f 81 bc 13 3f b2 ea 6c 3c
       0.09629314 0.63257366 0.5770951 0.014460253
000300 74 2e 5a 3e 04 7c 09 3f a5 03 da bd 64 e9 9e 3f
       0.21306783 0.5370486 -0.106452264 1.2414975
000310 37 71 89 bd 35 eb 8d 3e 32 ce 87 3d 94 35 33 bd
       -0.06711047 0.2771851 0.066311255 -0.043752268
000320 39 f1 a4 be fb 97 cd bf 90 b2 31 be 7e f3 2b 3d
       -0.32215288 -1.6062006 -0.17353272 0.04198026
000330 63 d3 72 bf 6e 00 b2 bd c5 37 99 be 7e 64 8f 3f
       -0.948538 -0.08691488 -0.2992536 1.1202543
000340 ef 04 dd bc bd 6f 32 bd bc 78 6a 3f ae 45 81 3d
       -0.026979892 -0.043563593 0.91590476 0.063121185
000350 57 bc 72 be 09 cd 14 bf f1 46 24 3d 15 9a 92 be
       -0.23704658 -0.5812536 0.040106717 -0.2863318
000360 ad bb d1 be 16 21 43 3e b2 9c a1 3e c2 eb 59 3f
       -0.40963498 0.1905559 0.31564862 0.8512536
000370 3b 5e a4 3d 67 b6 a8 bd 61 ef 16 be 01 d9 11 bd
       0.080257855 -0.082379155 -0.14739753 -0.03560734
000380 6d 8d 17 3e 65 f3 f5 3e 20 a1 b6 3e 0a d6 8b be
       0.14800043 0.48037258 0.35669804 -0.27311736
000390 a2 3d ae be 29 a5 36 bc 3c 71 b3 be f9 2e 7d bf
       -0.34031397 -0.011147776 -0.35047328 -0.988998
0003a0 71 ad 88 3e 20 92 e2 be 68 51 3a 3e 68 9e c9 3d
       0.26694825 -0.4425211 0.18195117 0.09844667
0003b0 2f d3 84 3e d4 7b 5c be 0b 99 2c 3e 42 93 8f 3e
       0.2594237 -0.21531612 0.16855256 0.28042036
0003c0 3d 70 a8 3d 2e 27 4a bf ec 6c b2 be c1 c7 9b bf
       0.08224533 -0.78966033 -0.34848726 -1.2170335
0003d0 45 c2 04 bf af a9 63 3d ea 5d 16 3e 27 b4 02 3d
       -0.5185893 0.055581745 0.14684263 0.031910088
0003e0 66 ee bd 3e 5b 3d 06 bf 91 1d 49 3e 3d e4 79 3e
       0.37095946 -0.5243737 0.19640185 0.24403472
0003f0 e6 ce 73 3f 5b 73 83 be f0 e6 17 bc 3d dc 68 bf
       0.95237577 -0.25673947 -0.009271368 -0.90961057

l1.bias f4 [256]
000000 40 a5 70 bb e7 5c 25 3e bb ae 15 be 5a c4 b8 be
       -0.003671959 0.1614872 -0.14617436 -0.36087304
000010 d8 a9 7b bd 2a 1c b8 3e a4 77 18 3d 62 22 25 be
       -0.061441272 0.35958987 0.037223473 -0.16126397
000020 03 19 ce 3e e4 5a ad be 4e 60 a0 3e 5b 61 4f 3e
       0.40253457 -0.33858407 0.31323475 0.20251982
000030 ee ba 02 3e c4 43 7b 3e 8b 58 8e bd ab 66 e5 3d
       0.1276662 0.2453757 -0.06950482 0.11201223
000040 a4 dd 10 3e e7 59 af 3c 1b 6c 90 be aa 99 08 be
       0.14147049 0.021405173 -0.28207478 -0.13339868
000050 10 02 be 3e ec a0 25 3e c4 95 d5 be e6 80 8a be
       0.3711095 0.16174668 -0.41715825 -0.27051467
000060 43 93 84 3e 55 77 2e be 65 6d 5b 3d dd 9a 16 be
       0.25893602 -0.17037709 0.053571124 -0.14707513
000070 e2 57 d5 3c 00 42 53 bb 1b f5 26 3e 20 3c a7 3e
       0.026042882 -0.0032235384 0.16304438 0.3266306
000080 cb 8e 98 3c a6 04 a8 bd ea 3c 78 3e 95 fe 40 3e
       0.018622776 -0.082040116 0.24241987 0.18847115
000090 55 ec 53 bd 6f 76 ca 3e a0 aa 92 3d 81 dd 54 3e
       -0.051739056 0.39543483 0.071614504 0.20787622
0000a0 ba f2 e5 3c 44 9a e6 bd 11 dc 1e be 33 90 96 be
       0.028069843 -0.112598926 -0.15513636 -0.2940689
0000b0 a9 ce b0 be 46 57 5f bd d7 65 9c 3e 5f a3 72 be
       -0.3453267 -0.05452659 0.30546448 -0.23695134
0000c0 c3 c4 cc be 8c 4a 4f bd 23 bb a7 3d 04 fc 9e 3e
       -0.39993867 -0.050608203 0.0818999 0.31051648
0000d0 c8 9a 3d 3e d6 12 8d 3e 5b 70 07 3e af c6 70 3e
       0.18516076 0.27553433 0.13226454 0.23513292
0000e0 a6 0a 38 3e 77 14 09 3f 39 b8 5b 3c 30 1b 6d be
       0.17972812 0.5354685 0.013410621 -0.23154902
0000f0 98 ef 52 bc 0a c7 bb 3e ba 7c 89 3e cf 6d 3e 3e
       -0.012874506 0.36675292 0.2685297 0.18596576
000100 da b8 a5 be ca 13 a4 be eb 94 4b 3e e4 a3 1e 3e
       -0.32367593 -0.32046348 0.19881026 0.15492207
000110 a6 aa b8 3d 9c d9 63 3e fb d2 9b be 09 6d 12 3d
       0.090169236 0.2225098 -0.30434403 0.035748515
000120 6f e0 94 be 9f 90 94 3d 92 5a ac 3e 4f 88 43 3e
       -0.2907748 0.07254147 0.3366285 0.19094966
000130 b8 35 32 3e 36 96 71 be 51 65 9d 3e d9 54 1f bd
       0.17403305 -0.23592457 0.3074136 -0.038899276
000140 8f 09 a6 3e 68 55 8b 3d f1 18 8e be eb 90 cd 3d
       0.32429168 0.06803399 -0.27753404 0.100374065
000150 33 19 81 3d 4f 84 ca be b9 68 c8 be 39 e4 ad bd
       0.063036345 -0.39554068 -0.39142397 -0.08490796
000160 f3 f8 cb be 84 5f 96 bd e8 39 79 be bf 9b 58 be
       -0.3983837 -0.07342437 -0.24338496 -0.21153162
000170 1e 2b a2 be a5 c6 9a be 72 43 0b be 3a 6a 81 be
       -0.3167352 -0.3022968 -0.13599947 -0.25276357
000180 15 6a a9 be 95 81 76 3e ca 84 a6 bd 25 54 8d be
       -0.33088747 0.24072869 -0.08130796 -0.2760326
000190 43 94 5f be d9 0f d8 3d e9 ae a5 3d 83 18 9f be
       -0.21833901 0.10549898 0.08090002 -0.31073388
0001a0 2c 24 85 bd d7 d5 c9 3d a3 21 54 be 72 37 4c 3c
       -0.0650104 0.0985524 -0.20715956 0.012464391
0001b0 5a bc 0e be fb 06 15 be 30 99 b5 3e ae fc a5 be
       -0.13939038 -0.14553444 0.35468435 -0.32419342
0001c0 82 ed af 3e 68 50 a5 be 8d ff 4b 3d 1f 16 1c be
       0.34360892 -0.32287908 0.04980426 -0.15242814
0001d0 db 88 25 bc e1 45 ad 3d 35 69 96 be 98 13 3b 3e
       -0.01010343 0.08460594 -0.29377142 0.18269193
0001e0 40 e1 43 3e 4c 1a 8b bd 20 f5 b7 bc 63 d3 1b 3d
       0.19128895 -0.06792125 -0.022455752 0.03804339
0001f0 5a d1 2d be 2e c2 56 be 51 5c c9 3e 8e b8 a5 3e
       -0.16974393 -0.20972511 0.39328244 0.32367367
000200 5c cb 75 be 0e 57 7c 3e ce f8 aa 3e d5 63 01 3f
       -0.24003357 0.24642584 0.33392948 0.50542957
000210 95 15 69 bd 53 f7 82 be 33 5a 1a be e7 e1 5b 3b
       -0.056905348 -0.25579318 -0.15073471 0.0033551396
000220 0d 60 d4 bd 91 1c 04 bf 3a 50 93 3e 76 1a ab be
       -0.10369883 -0.5160609 0.28772146 -0.33418626
000230 86 be b9 be db bc a1 3e 41 6a e8 3c b3 3e fa be
       -0.3627817 0.31589398 0.028370978 -0.4887596
000240 52 1e 30 3e cf 1a 05 be b0 fc 37 bd 70 09 87 bd
       0.17199066 -0.12998508 -0.044918716 -0.06593597
000250 26 e9 92 be 03 88 a8 be 52 9e c5 bd 06 6c 65 3c
       -0.28693503 -0.3291627 -0.09649338 0.014002806
000260 38 1f 5e 3c 06 f1 b3 3d 92 b7 05 3e d7 47 7b 3e
       0.013557248 0.08786206 0.13058308 0.24539123
000270 d6 79 cf 3d 0a 9a 51 3e d5 5b d4 be 61 77 9d 3e
       0.1013066 0.20468917 -0.41476312 0.3075514
000280 f7 d5 05 be a3 20 57 be 28 9c a3 3d 19 61 17 3e
       -0.13069902 -0.21008544 0.07988769 0.14783134
000290 9d b2 8d bd 2b a0 0b be 20 8b e0 3d 73 f7 0c bd
       -0.069188334 -0.13635318 0.10964036 -0.034415673
0002a0 5a 4c bd 3e a6 e2 e4 bd e5 0b d5 be 14 26 d9 3c
       0.36972314 -0.11176042 -0.41610637 0.026507415
0002b0 3c c1 b3 3e 1d 90 93 be 65 a0 c8 3d 87 67 62 bd
       0.35108364 -0.28820887 0.09796218 -0.055274513
0002c0 a8 27 d5 be 79 8f fa 3d 2c 5e ea bd 8c d0 4b be
       -0.41631818 0.122343965 -0.11443743 -0.19903773
0002d0 7d e3 8d 3e b5 34 10 bf 91 48 94 be 75 60 1f 3e
       0.27712622 -0.56330425 -0.28961614 0.15564139
0002e0 90 bc aa 3e 33 6f 63 3d 1d 0c 53 be e5 65 b3 bd
       0.33346987 0.05552597 -0.2061009 -0.08759669
0002f0 7b 29 55 3e 28 f4 86 be 45 20 14 3d 83 2a f9 3d
       0.20816605 -0.2635815 0.036163587 0.121663116
000300 44 e2 a4 be 49 71 d0 be e3 97 c2 be ec 39 bf 3d
       -0.32203877 -0.4071143 -0.38006505 0.093372196
000310 17 f5 72 be 8b f7 69 bd ac 28 0a 3d bc 85 28 3e
       -0.23726307 -0.05712084 0.033730194 0.16457266
000320 cc 0c 97 3e 90 d2 09 be f2 c1 5d 3e f1 65 3a 3d
       0.2950195 -0.1345923 0.21656016 0.045507375
000330 73 fb a6 be 73 79 86 3d f2 67 65 be 93 e8 e2 3c
       -0.32613716 0.06566133 -0.22402933 0.02769879
000340 8d 6e b0 3d e9 e7 84 be e1 87 8c 3e 4a c1 42 be
       0.08614836 -0.25958183 0.27447417 -0.19019046
000350 e5 db 18 be 69 31 39 3e 68 a6 78 3e 43 93 23 be
       -0.14927633 0.18085255 0.24282229 -0.15974145
000360 00 0e 36 3e 32 92 84 3e d6 e1 db 3d 14 04 a9 3e
       0.17778778 0.25892788 0.10736434 0.33010924
000370 ca 8c a2 3d 79 ac 53 be 4d fc 44 3e e2 16 cb be
       0.0793701 -0.20671262 0.1923687 -0.39665896
000380 65 24 1a 3e 75 63 45 be ab 2f 18 be 58 e1 21 be
       0.15052946 -0.19276221 -0.14861934 -0.15808618
000390 79 17 55 3d 9b f9 71 be cd bb c6 3e 11 8d 31 3d
       0.05202434 -0.23630373 0.38815156 0.043347422
0003a0 f5 41 3e bd d3 fa 97 be 7c 22 e5 3c bb 6c 48 3d
       -0.04644962 -0.2968355 0.027970545 0.04893182
0003b0 d2 21 d6 be 8b fb d0 be ab 1f 06 be b1 fc b2 3d
       -0.41822678 -0.40816912 -0.13098018 0.08739603
0003c0 25 62 85 be 4b 0e aa 3e 71 42 2f 3e 0d 58 34 3e
       -0.2605144 0.3321403 0.17115189 0.17611714
0003d0 ce 40 28 be 9b 4e 76 3e d3 21 47 bb fe ad 34 3e
       -0.16430971 0.24053423 -0.003038515 0.17644498
0003e0 47 6a ff bc 9c 4b 93 bc c1 24 26 bd 35 f3 8d be
       -0.031178607 -0.01798039 -0.040562395 -0.27724615
0003f0 31 01 99 bd 97 9b b9 3e 38 be 24 3e d6 4c 4b bd
       -0.0747093 0.36251518 0.16088188 -0.049633823

l2.weight f4 [256, 256]
000000 e5 1f 9e bd 7d 00 30 3e 48 45 96 c0 ae 9a ae 3d
       -0.07720927 0.17187686 -4.695957 0.085255966
000010 b3 f1 0e 3e 22 8e 72 3d 71 c6 c2 3e b0 47 5b bd
       0.13959388 0.05921758 0.38042024 -0.053535163
000020 e4 3e 8f bd d1 e7 8a be 0d d4 71 3d 6d 2b 91 3d
       -0.06994417 -0.27129987 0.059040118 0.07088361
000030 b8 43 e2 3b d6 6d 44 3d 2d 2c 28 bd 32 99 01 3d
       0.0069050454 0.04795631 -0.041057754 0.03164024
000040 97 0e 0a 3d dc c7 7d 3d 61 1d 66 bb a8 c7 7c 3d
       0.03370532 0.06195818 -0.0035112726 0.061713845
000050 6c 6d 4e 3c c7 01 17 bc 8c c9 18 bf 37 5d 82 bf
       0.01259933 -0.009216732 -0.59682536 -1.0184697
000060 79 7e e1 3c ac 27 15 be e2 3d 0f be bf 03 db be
       0.027526127 -0.14565915 -0.1398845 -0.42776296
000070 44 8f 9d 3d 1a ea 3c bf b2 a3 d2 3d 3b 52 cc bc
       0.076933414 -0.7379471 0.10285129 -0.024941554
000080 28 fa 3b 3c 29 e6 7c c0 72 16 33 3e 57 5b a0 ba
       0.011473216 -3.9515479 0.17489031 -0.0012234253
000090 4b a2 48 3d 81 f9 63 bc 0c 98 41 3c 57 3c 8e bc
       0.0489829 -0.013914467 0.011816036 -0.017362757
0000a0 00 7a 7c bd 1b 30 70 bd e0 c4 4a bd 94 f5 dc bf
       -0.061639786 -0.058639627 -0.04950416 -1.7262444
0000b0 90 96 9d bd 6c 9e 52 bd 53 18 e1 bb 10 54 bc 3b
       -0.07694733 -0.051420614 -0.0068693548 0.0057473257
0000c0 32 52 7f bf 60 03 68 c0 c9 ba 20 3c 33 0c 87 3c
       -0.99734795 -3.625206 0.009810158 0.01648531
0000d0 ee 2c a6 3c ae 14 3a 3d 1c 34 8f 3d 8a ff 0f bc
       0.020285096 0.045429878 0.06992361 -0.008788953
0000e0 de 53 ce bc c0 f9 b4 3d ab 52 88 be d0 8f 86 bc
       -0.025186475 0.088366985 -0.2662557 -0.016425997
0000f0 5e d6 ea 3c 2a cf dd 3c 8e f2 9e bc e2 54 ce 3d
       0.028666671 0.027076323 -0.019402768 0.10074784
000100 08 c1 40 3a d4 27 12 3d 8d a3 1e 3d 74 29 01 bf
       0.00073529826 0.035682514 0.038730193 -0.5045388
000110 81 e8 a1 3d 8a 05 1e 3d 95 98 04 be 8a 7b eb be
       0.07905675 0.0385795 -0.1294883 -0.4599269
000120 8c 91 11 3d 88 23 af bc 53 95 6f 3d be a2 92 3d
       0.035539195 -0.021379247 0.058492016 0.07159947
000130 87 0e 19 3d d3 f0 23 be 6e 10 51 bb 6b a8 ff 3c
       0.03736737 -0.16009836 -0.0031900662 0.031208238
000140 43 f9 9a 3d bb 55 f5 bd e5 01 5c be 5c 1e ec bd
       0.07567074 -0.119792424 -0.21485098 -0.11529228
000150 a0 9e 79 3d b5 83 89 be 18 13 31 bd 7b 6c 1e be
       0.060942292 -0.26858297 -0.0432311 -0.1547107
000160 bf f0 01 3e a1 3e cb bc 50 07 16 bd 38 32 85 bd
       0.12689494 -0.024810137 -0.036628067 -0.06503719
000170 a4 fc 7d bd ca 91 14 3d 12 3a c1 3d c2 be d6 be
       -0.062008515 0.036271848 0.09434904 -0.41942412
000180 ef b2 aa 3d 90 9a 43 bd 10 71 7f 3c d1 cb d7 be
       0.0833491 -0.047754824 0.015590921 -0.42147687
000190 20 63 8f 3d 7b ba 95 3d ef e1 c4 3d 17 0b 72 3c
       0.070013285 0.07310959 0.09613406 0.014773152
0001a0 96 9a a2 be b1 ed 6b 3e 1a 19 89 be a8 11 ff be
       -0.31758565 0.23039891 -0.26776963 -0.49818158
0001b0 9c a5 7f 3d f8 f6 a7 be d3 fe 98 3a e2 29 5e bd
       0.062413797 -0.3280561 0.0011672623 -0.05423916
0001c0 44 ba a1 3d bf c8 2a c0 45 c8 87 3d 87 e8 90 ba
       0.078968555 -2.6685026 0.06629995 -0.0011055627
0001d0 3f 5e 48 3d 57 f0 3c bd 37 84 49 c0 d7 e0 21 3d
       0.048918005 -0.046127643 -3.1486948 0.039521065
0001e0 a5 b9 97 3d c1 86 8a bb 8c 01 a5 bd dc 23 10 bd
       0.07408456 -0.0042274897 -0.08056936 -0.03519045
0001f0 2f 5d f9 3d 16 63 ce bf 16 d4 39 3d 2e 1c 89 3d
       0.121759765 -1.6123989 0.045368277 0.06694828
000200 d2 c5 59 c0 7c 48 b0 3d 3f 60 b0 3c 41 db 1c be
       -3.402699 0.08607575 0.021530269 -0.15318014
000210 28 06 70 c0 21 41 a7 3e 3a a1 4d 3d 3c 9e 08 be
       -3.7503757 0.32666877 0.050202586 -0.13341612
000220 1d 30 6a 3d 99 71 6e bf 41 3d 83 bc f4 8d 7b bd
       0.05717479 -0.93142086 -0.01602042 -0.061414674
000230 4d 4e 97 be ca 1e 60 be 98 7b 9d 3c 65 ff 7c 3d
       -0.29551926 -0.21886745 0.019223973 0.061767
000240 f0 ed e2 3c 17 23 36 bf 5b 71 8c 3c fd 21 cf bd
       0.027701348 -0.7114729 0.017143896 -0.101139046
000250 52 ba 4b be e8 e0 1e 3d 9c 25 f6 3d 99 0e 7f bd
       -0.19895294 0.038788706 0.12018892 -0.06226978
000260 eb 17 bc 3c 0d d7 41 be 66 af 3f bf 44 7c d6 3d
       0.022960624 -0.18929692 -0.7487701 0.104729205
000270 9b 0d 3c bd f4 35 22 3e 23 1a bc be 80 53 d9 3d
       -0.045911413 0.15840894 -0.3673869 0.106116295
000280 ef d6 76 be f5 b0 c6 bd 9d 67 3d 3e 76 7c 11 3d
       -0.24105428 -0.097017206 0.18496557 0.035519086
000290 7c a2 b2 be a4 46 db 3c be 29 e0 3d 41 6a fa bc
       -0.3488959 0.026767083 0.10945462 -0.030568244
0002a0 2b b8 b2 bb c3 3e 50 3d 34 67 e8 be a5 6e 2d 3e
       -0.0054540834 0.050841104 -0.45391238 0.16936739
0002b0 d8 ab 08 bc ff 00 a1 3e 0e 5b ec 3d 78 2e 87 bd
       -0.008341752 0.31446072 0.11540805 -0.0660066
0002c0 d4 22 eb 3c 08 bd 36 3e db 11 b7 3d 90 ca 09 3d
       0.02870313 0.17845547 0.089389525 0.033640444
0002d0 a6 eb 0e 3e f7 3f 88 bf c7 bc 7d 3d f7 d6 07 3e
       0.1395708 -1.064452 0.06194761 0.13265596
0002e0 73 ab 07 be b6 24 68 bc 74 9a 12 3d 61 a9 2f 3c
       -0.13248996 -0.014168909 0.03579183 0.010721535
0002f0 e3 1c 06 bd c9 90 0d 3d 7c 11 76 3d 8d 22 a8 3d
       -0.032742392 0.034561906 0.06007527 0.08209715
000300 f3 38 c9 bf 7f 0e ef be d0 70 d0 3b a5 f4 85 3d
       -1.5720505 -0.46690747 0.0063611045 0.06540803
000310 dc 0a 52 be 56 e0 11 be d1 ea 74 3d 80 82 9c 3d
       -0.20511955 -0.14245734 0.05979425 0.076420784
000320 74 d5 d9 bb 7d 60 a0 be f5 45 fd 3b a3 4e 9b c0
       -0.00664776 -0.31323615 0.007729287 -4.853349
000330 8d 87 32 c0 03 35 50 bc 8b f2 00 be d8 5d 0d bd
       -2.7895234 -0.0127079515 -0.12592523 -0.034513324
000340 c9 f9 a0 bc f5 93 9a bd bb 6f 96 3d a5 e2 13 3d
       -0.019650357 -0.07547752 0.0734553 0.036104817
000350 19 05 17 be f1 1d 0c 3d f8 aa 33 bd 81 a3 86 bc
       -0.14748038 0.03420824 -0.04386422 -0.016435387
000360 e4 dd 31 bc 6f 8a 8b bc f6 df fc 3b a7 eb b5 3d
       -0.0108561255 -0.017033784 0.007717128 0.08882838
000370 ed 5b 81 3b 08 c1 11 bf 62 90 a0 3c 65 1a 7f bf
       0.003947726 -0.5693517 0.019600097 -0.9964965
000380 27 a9 15 3d 25 66 37 bd ad 79 87 3d 3c 20 61 be
       0.03653827 -0.044775147 0.06615005 -0.21984953
000390 b5 a8 bd 3d 89 98 54 3e dd e3 98 3a bd 1b c7 3c
       0.09260694 0.20761313 0.0011664588 0.024305219
0003a0 6d 7f e3 be b1 97 34 ba 49 27 94 3d 51 bc af bd
       -0.44433156 -0.0006889059 0.072340555 -0.085808404
0003b0 a8 59 84 bf f2 82 9e 3e 94 de 8e 3d d3 5b 0e 3d
       -1.0339861 0.30959278 0.06976047 0.03475554
0003c0 bc 6e 89 3d c8 df 80 3d 5b 4a 2e 3e 3d 0f a9 3d
       0.06710574 0.06292683 0.17020552 0.082548596
0003d0 62 1a 3a bc 2a 68 c5 3d 01 97 8d 3d 11 8b 47 bf
       -0.011358829 0.09639008 0.06913567 -0.77946573
0003e0 25 fe 8e 3c 6c 71 a9 c0 63 8f 8e 3d 43 66 93 c0
       0.01745517 -5.2950954 0.069609426 -4.606233
0003f0 22 b8 53 3d 7b 5b 16 3c 92 5c ef 3b 5c 38 31 bc
       0.051689275 0.009177084 0.0073047364 -0.01081666

l2.bias f4 [256]
000000 db 17 67 3d c7 73 19 3d 97 8f 0e bd 79 a5 2a 3d
       0.056419235 0.03746393 -0.034804907 0.041661713
000010 7a 27 d5 3d e4 0d b6 bb 1f 5a 07 3e 9d 2c 61 3c
       0.1040792 -0.005555855 0.13217972 0.013743547
000020 ae 85 c6 3d 7c 2b 16 bd b6 f8 46 bd 70 84 11 bc
       0.09693466 -0.036662564 -0.048577033 -0.008881673
000030 11 0c 5b 3d 9b b5 58 bd 80 b9 93 bc 4a 89 53 3d
       0.053478304 -0.052907567 -0.01803279 0.0516446
000040 11 09 a5 bd e9 d8 86 bd 2d ec 5c bd a9 43 a2 3d
       -0.0805837 -0.06584341 -0.053936172 0.079230614
000050 24 b2 5e bc 76 0c 0e 3c 1a f2 55 bd 83 66 68 3d
       -0.013592277 0.008669963 -0.05223284 0.056738388
000060 47 52 18 bd 49 ec d2 3c 43 6d 1b 3d bd 7e 3e bb
       -0.03718784 0.025747435 0.037945997 -0.002906724
000070 1e d0 27 bd 6c f6 01 bd b7 3b 37 bd 4b c2 ff 3d
       -0.04096996 -0.031729147 -0.044734683 0.1248823
000080 c3 dc 41 bb 9b 8d f5 3c 01 12 85 bc 8a c5 66 3d
       -0.0029581047 0.02997475 -0.016243936 0.05634073
000090 c5 5b 6a bc 17 6a df bc ca 30 aa 3d 43 8b 5b bd
       -0.014304106 -0.027272267 0.08310087 -0.053599607
0000a0 8d 7d 8f 3c 3d 1c 71 bd 5f a7 71 3c d3 64 4e 3d
       0.017515922 -0.05886482 0.014749377 0.050389122
0000b0 13 b0 3f bd b7 01 1c bc c8 7a 14 bc 6e 6a d0 3d
       -0.046798777 -0.009521893 -0.009062476 0.1017655
0000c0 b2 68 8f 3d b2 d6 2f 3c c0 17 d6 3c 6a 35 f8 ba
       0.07002391 0.01073234 0.026134372 -0.0018936817
0000d0 cc 07 93 3d cd 1e 1f 3e 2a b8 ee 3d cd a8 a6 bd
       0.071792215 0.15539093 0.1165622 -0.08137665
0000e0 4d 30 71 bc 1d e7 12 3d d7 ba 9d 3c da 34 b6 bd
       -0.014720988 0.035864938 0.019254131 -0.088967994
0000f0 6b c6 04 bd f2 c6 14 bd d3 07 26 3d a4 f6 26 3d
       -0.03241579 -0.03632254 0.040534806 0.04076256
000100 50 51 31 3d 18 85 12 bd 90 0f 28 3d ab b2 a6 3d
       0.043290436 -0.03577146 0.041030467 0.08139547
000110 98 74 9a bc 7c 1e 98 3d a7 b7 91 3c c0 99 aa 3d
       -0.018854424 0.074276894 0.017787768 0.08330107
000120 49 5d b9 3c f2 f8 45 3d 53 0d 3c 3d b0 3c 04 bd
       0.02262749 0.048333116 0.045911144 -0.03228444
000130 38 ea 56 3d 7c 2f 0d 3d 76 79 45 bd d9 71 58 3b
       0.052469462 0.034469113 -0.048211537 0.0033026843
000140 af d0 b2 bc 0f 29 52 bd d2 b5 54 3d 2f f6 d7 3b
       -0.021828024 -0.051308688 0.05193121 0.0065906267
000150 e2 fb 31 bd a6 e1 79 3c 6e a3 e6 3d 25 29 95 3d
       -0.043453105 0.015251553 0.112616405 0.07283238
000160 70 0d 9e bc 75 a6 aa 3d 92 58 44 3c 8d 2f bc bd
       -0.019293517 0.083325304 0.011984007 -0.09188757
000170 b1 58 ff 3d 31 fd c7 bd 3e 06 af 3d 35 c4 d3 bc
       0.124680884 -0.09765089 0.085461125 -0.025850395
000180 db e6 f0 3c 7d 10 0e 3e 6b f6 c7 3d fa 18 a5 3d
       0.029406955 0.13873477 0.097637974 0.080614045
000190 c5 4d 78 3d da d6 a8 bc 52 c8 77 3c cd c0 68 3d
       0.06062104 -0.020610262 0.015123444 0.056824494
0001a0 c3 ae ee 3c cd d4 77 3b 0b 01 48 bc 38 c1 07 3b
       0.029136067 0.0037816048 -0.01220728 0.0020714533
0001b0 f8 0f d3 3d 1a 7f 6a 3c 8c 4a b7 3b a3 e5 00 3e
       0.1030578 0.01431253 0.0055936035 0.125876
0001c0 ff 4a 1a bc b8 39 57 bd 07 5b 8d 39 26 eb b5 3c
       -0.0094172945 -0.05254528 0.00026961436 0.022206854
0001d0 49 07 78 3d 0f 99 90 3d bc 15 13 bd 3e ac 87 3d
       0.060553823 0.070604436 -0.0359094 0.066246495
0001e0 ce 8f 42 bd 00 84 71 3d 6f 8c 8e 3c 91 24 88 3d
       -0.047500424 0.058963776 0.017400948 0.066475995
0001f0 fc 12 5a 3d dd e5 d1 3d 2d 5b 8e bd e4 ca 9b bc
       0.05324076 0.10248921 -0.06950984 -0.019017644
000200 e8 eb 48 bc c6 bf 0a bd 85 41 b8 39 a1 17 d6 3c
       -0.012263276 -0.033874296 0.0003514403 0.026134314
000210 ae cf fd 3c 9f 3f 56 bd 5f 4a a5 3d f3 2e 29 bd
       0.030982818 -0.052306768 0.08070826 -0.04130454
000220 eb 4d f3 3d ee 48 9a 3d b9 af 07 bd 44 dd 29 3d
       0.11880096 0.075334415 -0.033126567 0.04147078
000230 48 fb b3 3d 14 41 7d bd 47 0a 3e 38 46 70 6a 3d
       0.087881625 -0.06182964 4.53091e-05 0.05723598
000240 1b 12 96 bd 38 0b 71 3d e4 3c c5 3c ad 28 72 3d
       -0.07327672 0.05884859 0.024076886 0.059120823
000250 73 9f 65 3d 1b 85 06 3d 13 42 37 bd 8b da 18 3d
       0.056060266 0.032841783 -0.044740748 0.037317794
000260 d8 ba 9e 3d ec d7 62 bd e5 a3 d5 3b 60 ea 6c 3d
       0.07750481 -0.0553817 0.006519782 0.057840705
000270 86 93 58 bd 19 c2 3d 3c 9d f6 46 3d 3d 2b 17 3d
       -0.052875064 0.011581921 0.048575033 0.03690647
000280 e6 5d 02 bd b2 21 38 3d f6 48 2c 3d 4e 89 a2 3c
       -0.03182783 0.04495401 0.04206177 0.019840863
000290 f5 bd 97 3b d2 dd 2f 3d 9c 81 40 bd 5e 40 8b bd
       0.004630799 0.042936154 -0.046998605 -0.067993864
0002a0 db 17 03 bd 1c 28 5e 3d d9 1d 28 3d ca 7b fe 3c
       -0.032005172 0.05423747 0.04104409 0.031064887
0002b0 8c 70 a1 3d 3e b3 07 3e 95 31 d1 bc 7c 76 ba 3c
       0.07882795 0.13251969 -0.025536338 0.022761576
0002c0 ce ed 86 bd c5 64 4f 3d a9 0c aa bb 9a 39 ba 3c
       -0.065883264 0.05063321 -0.0051894975 0.022732545
0002d0 89 5e 23 3d 60 24 50 bd 18 73 e4 bc 27 60 88 3b
       0.039885078 -0.05081594 -0.027886912 0.004161853
0002e0 55 43 40 bd 55 80 bd 3d 16 c6 7e bc 61 e3 91 3c
       -0.046939213 0.09252993 -0.015550157 0.017808618
0002f0 6a cd d5 3c b6 84 52 3d 81 b4 20 3d 63 f7 a5 3d
       0.026098926 0.051396094 0.039234642 0.08103826
000300 b5 ef 75 3c 8d 19 18 bd bb db 18 3d 03 4e cd 3b
       0.015010764 -0.037133742 0.037318926 0.0062654032
000310 b6 bc 2f bd e3 99 25 3d 71 b2 36 bd 44 cb c9 3d
       -0.04290458 0.04042996 -0.04460377 0.09853223
000320 b9 dd 8b 3d 9b 7d 86 3c 29 88 3e bc d8 c1 f4 bd
       0.068293996 0.016417315 -0.011629143 -0.11951035
000330 33 3c 41 3d 10 ca 81 3b d0 5b 3f bd 5c e9 5b 3d
       0.04717655 0.0039608553 -0.04671842 0.053689346
000340 f2 c5 15 3e 96 04 f4 3a 1f 9e 53 bd d4 19 38 3c
       0.14626291 0.0018617089 -0.051664468 0.011236627
000350 f2 bb b8 bc 7d 89 28 3d 0b 95 8a 3d a5 82 b6 3d
       -0.022550557 0.041146744 0.06766709 0.08911637
000360 9f 1c 87 3c c0 ee 97 3d c7 73 04 bd 84 5a cb 3d
       0.01649314 0.07418585 -0.032336976 0.09929374
000370 89 e1 4d 3d 5a 2b 3e bd 62 c1 8f 3c ba 13 33 bc
       0.050263915 -0.046428062 0.017548267 -0.010929996
000380 4f ce d6 3c 11 56 06 bc 35 70 ca 3d cd e3 c8 3c
       0.026221422 -0.008199231 0.09884683 0.024522686
000390 47 15 19 3d f1 15 2c ba 8c 54 b1 3c ce b1 b1 3c
       0.037373807 -0.0006564549 0.02164676 0.02169123
0003a0 48 5c 4a bd 0f f6 16 3c 78 60 aa 3d cc b0 37 3c
       -0.049404413 0.009213938 0.08319181 0.011211585
0003b0 5e fc 37 3c 5b 19 64 3b 45 53 ad 3d 8e fd ce 3c
       0.011229603 0.0034805152 0.08463148 0.025267389
0003c0 17 dc 0c bd b3 b8 ac 3c fa a6 6e bd 3a bf 3e 3d
       -0.03438958 0.021084165 -0.05826471 0.046569087
0003d0 33 26 15 3c c2 a9 4d 3d 84 ef 66 3c bc ff 3a 3d
       0.009103346 0.05021072 0.014095191 0.045654044
0003e0 1d f6 8b bd 5b 0d 95 bb 0f ce 57 bd 16 4a 6f 3d
       -0.06834052 -0.0045487112 -0.052686747 0.058420263
0003f0 e8 47 33 3c a6 f6 a5 3d 85 2c a4 bc 31 da ba 3c
       0.010942437 0.08103685 -0.02004076 0.02280912

l3.weight f4 [1, 256]
000000 b8 72 30 3f a3 14 44 bf 24 4a 0d 3c ed ac 71 bf
       0.68925047 -0.7659399 0.0086236335 -0.9440449
000010 12 f3 a0 3f 2f ad 51 c0 1f 39 a8 3f e3 1f 49 bd
       1.2574179 -3.2761953 1.3142432 -0.049102675
000020 b2 aa 37 3f 8b dd db bc ca 33 01 bd 1f db 01 3f
       0.71744835 -0.026839038 -0.03154353 0.5072498
000030 e4 c6 02 bf d1 93 2c c0 e0 e8 8d bc 71 e1 c4 3d
       -0.51084733 -2.696522 -0.017322958 0.09613312
000040 5d 71 06 c0 aa a8 b2 bc 74 c0 cb bc 94 0d 0c 3f
       -2.1006691 -0.02180894 -0.024872042 0.5470822
000050 6a 8f a4 3f 9e 45 65 3f 1a df 4a bd 39 0c f2 3e
       1.2856266 0.8955935 -0.049529172 0.4727495
000060 47 b0 a6 bb 52 72 66 bc 6c ca 05 bc 4f 8a 04 bd
       -0.005086932 -0.014065342 -0.008165937 -0.032358464
000070 67 9c 20 c0 04 05 12 bd 22 54 46 bf 67 a1 94 3f
       -2.509546 -0.035649315 -0.77472126 1.1611756
000080 4e 12 ca bc 60 fb 0e 3f ad 21 f1 3a ad 29 ab 3e
       -0.024666931 0.5585232 0.0018396877 0.33430234
000090 2c fa e6 3e 09 5f 47 bd 02 aa 00 3f c7 78 ff bc
       0.4511274 -0.048674617 0.5025941 -0.03118552
0000a0 8d f4 a9 3f 81 a3 35 bd fb fe 48 3f bf 5f a0 bc
       1.3277756 -0.044345383 0.7851407 -0.019576905
0000b0 fe bd 6a bc c9 2f 13 3f 26 31 87 3c 13 c9 f7 3e
       -0.014327524 0.5749479 0.016502928 0.48395595
0000c0 13 0f 1f 3f b5 61 06 3f 2a 4f fb 3e 59 92 f1 3f
       0.62132376 0.5249284 0.49083835 1.8872787
0000d0 90 cf 0f 3f 42 34 02 3f 80 b7 fe 3e a3 55 37 bf
       0.5617609 0.5086099 0.49749374 -0.71615046
0000e0 b9 f8 0b c0 25 35 13 3f be e0 c5 bf 5e 97 ee be
       -2.1870558 0.5750297 -1.5459211 -0.4659986
0000f0 08 c3 39 bd 33 c2 9a bc 2e de 0c 3f 82 e4 75 bf
       -0.045352012 -0.01889143 0.5502652 -0.960518
000100 56 4a a6 3f 9c 69 33 bd c1 ed d5 3f 10 4d 2e 3f
       1.2991436 -0.04380189 1.6713182 0.6808634
000110 36 af c0 3b 31 ec 64 3f cd 80 0a bf 7e cb 11 3f
       0.005880262 0.894229 -0.54102784 0.5695113
000120 56 c7 57 3f 44 2e 12 c0 97 6b 07 3f 3e ab 63 bd
       0.8428854 -2.2840738 0.52898544 -0.05558323
000130 54 48 2e 3f 3e bf f8 3e 00 ef 8a bc b8 fa 14 3f
       0.68079114 0.48583406 -0.016959667 0.58195066
000140 2e 6c 11 c0 dc f1 15 3d 82 22 d6 3e 0b 3f f4 be
       -2.2722278 0.03660761 0.41823202 -0.47704348
000150 1d 24 1b c0 a5 42 1d bf a6 38 29 3f b9 47 48 bf
       -2.4240792 -0.61429816 0.66102064 -0.7823444
000160 e7 32 3e bf 7d 33 69 3f a0 2b 8a 3f ce c6 16 c0
       -0.7429642 0.9109419 1.0794563 -2.355884
000170 c6 1d 9d 3f 87 f7 18 c0 bc a2 44 bf 3c 8f 2d 3d
       1.2274711 -2.3901079 -0.7681081 0.042372927
000180 70 a5 0c bd 3d 03 9b 3f be e5 05 3f 34 e0 ab 3f
       -0.03433746 1.2110363 0.52303684 1.3427796
000190 7a 73 0c 3f 12 28 24 3b 77 b2 19 c0 94 c2 20 bd
       0.54863703 0.0025048298 -2.4015176 -0.039248064
0001a0 28 05 0a 3f 01 7e 03 3f 94 bb f1 3e 52 a5 b2 3e
       0.5391412 0.5136414 0.47213423 0.34891754
0001b0 e3 cc 43 3f 79 a8 f5 3e 7e 95 05 bd 96 22 8e 3f
       0.7648451 0.47980097 -0.03261327 1.1104305
0001c0 da 9b d8 bc 10 ed a0 bc b4 5e 3c 40 48 e5 4e bd
       -0.026441503 -0.01964429 2.9432802 -0.05051163
0001d0 b4 0c 6c bf 50 53 48 c0 66 15 28 bd 4b 9f 35 3f
       -0.92206883 -3.130085 -0.041036032 0.70946187
0001e0 18 53 bc 3e b2 44 f3 3e fb 21 31 3f c2 e5 14 3f
       0.36782146 0.47513348 0.69192475 0.5816308
0001f0 db 00 cd 3e e0 b3 01 3f 61 9c 5c bf 2c 87 04 bd
       0.40039715 0.5066509 -0.86176115 -0.032355472
000200 ee a3 7b bd b1 4a 12 bd 65 d5 f1 bc 1d f0 f8 3e
       -0.061435632 -0.035715763 -0.0295207 0.48620692
000210 c8 4a 4d bc a5 0c 9e bc 00 06 9a 3f 2a 47 14 c0
       -0.012530036 -0.019293139 1.2033081 -2.3168435
000220 ff d0 08 3f c4 2d 81 be 48 dd e9 3e cf 83 e1 bc
       0.534439 -0.2523023 0.45676637 -0.027528672
000230 da d2 05 3f 3a dd 64 bc df d8 31 3f 48 5e fd 3e
       0.5227486 -0.01396876 0.69471544 0.49485993
000240 f3 bb 8d bf 29 c6 9e 3f 51 28 f7 3e 05 a6 fe 3e
       -1.1072983 1.2404224 0.48272946 0.49736038
000250 1a 8c f4 3e 07 8a 86 bc 17 46 e9 3c bc cd 29 bd
       0.4776314 -0.016423238 0.028475804 -0.04145597
000260 4d 52 0b 3f 85 d7 fb bf c5 be db bc 6c 74 18 3e
       0.54422456 -1.9675146 -0.026824364 0.14888161
000270 4b 80 61 bd a2 2f 23 bc e1 93 39 3f 0b 91 82 3b
       -0.05505399 -0.009960087 0.7249127 0.0039845756
000280 05 23 23 bc 56 3f 2b 3f 37 5e fc 3e f0 26 ac 3e
       -0.00995708 0.6689352 0.4929063 0.33623457
000290 b8 48 9a bf ba 7f 9e bf e6 8a dc 3a 67 f4 bb 3c
       -1.2053442 -1.2382729 0.0016826063 0.022943689
0002a0 c7 7d 77 3e 30 00 1e 3f 82 65 9e 3f 3b bd b9 bc
       0.24169074 0.61719036 1.2374728 -0.02267324
0002b0 9b 5e 0e 3f 22 f3 05 3f 8e 82 fc be aa 62 00 3c
       0.55613106 0.52324116 -0.49318355 0.007836023
0002c0 03 3a 95 3a c2 e4 31 bd 6b f6 7b bf 12 f4 25 3e
       0.0011385087 -0.04343105 -0.9842288 0.16206387
0002d0 11 6d 36 bd a8 ab 95 3f 07 be 0d bf b6 ac 1b c0
       -0.044537608 1.169301 -0.55368084 -2.4324164
0002e0 3d fa 18 c0 30 80 15 3f 65 06 3a bd 27 59 f4 bc
       -2.3902733 0.58398724 -0.045416255 -0.029827667
0002f0 05 41 98 3f de 3f 04 3f 16 11 e7 bc 9b 73 0a 3f
       1.1894842 0.51659954 -0.02820639 0.5408265
000300 2f d9 0e 3f ce d0 49 bd 07 29 c3 bc ef 36 24 bd
       0.55800146 -0.049271397 -0.023823274 -0.04009145
000310 77 03 4f bd 5a cb df 3e e7 fa 5e bd fc 88 f7 3e
       -0.050540414 0.43709832 -0.054438498 0.48346698
000320 c6 7e 0a 3f ef eb 36 bc cb 08 4d bf 07 2b b2 bf
       0.5409969 -0.011164649 -0.8009154 -1.3919381
000330 50 b9 3c c0 ba 63 1d 3d 7d 08 7b bc 34 d4 ed bc
       -2.9488106 0.038425185 -0.015321848 -0.02903185
000340 8d 2d 0f 3f 85 5c a6 3b 53 95 a7 bb 00 6e 58 bf
       0.5592888 0.005076947 -0.0051142364 -0.84542847
000350 b6 e8 48 bf 74 52 1d c0 02 cc 60 bf fa 5d a6 3f
       -0.7848009 -2.4581575 -0.8781129 1.2997429
000360 d5 a8 29 bf ae 82 00 3f cb ad 92 3f d3 e5 23 3f
       -0.6627324 0.501994 1.1459287 0.6402256
000370 1f 3e fa 3e 69 63 66 b8 be fd 4d bc f0 4a 95 3c
       0.4887552 -5.4928856e-05 -0.012572704 0.01822421
000380 9d fd 2c 3f 7b 96 81 bb ac 84 a3 3f c0 df c9 bb
       0.67574483 -0.0039547062 1.2774863 -0.0061607063
000390 d8 17 0c 3f 7d 45 64 bf 48 2c f8 3e e1 c9 41 c0
       0.5472388 -0.8916853 0.48471284 -3.0279467
0003a0 de e3 ad 3c 88 be 7e bf 74 a2 0a 3f 68 29 04 3f
       0.02122682 -0.9950948 0.54154134 0.5162568
0003b0 69 6c 0d bf b2 12 49 3f 34 fa 06 3f 96 5f eb 3e
       -0.55243546 0.7854415 0.5272553 0.45971364
0003c0 bc 41 1c 3f 9b 6a 61 bc e4 3e 35 bd e4 43 eb bf
       0.610378 -0.013758327 -0.04424943 -1.8380094
0003d0 31 3c 4c 3f 0e 29 f9 bf 1a d2 4d c0 be a6 a0 bc
       0.79779345 -1.9465654 -3.2159486 -0.019610759
0003e0 da 53 37 bc 15 b7 61 bc a3 6e 4a bd b9 1d a4 3f
       -0.011189425 -0.01377656 -0.049421918 1.2821571
0003f0 50 c1 a2 3b a8 e6 30 3e de e4 c3 40 83 04 07 3f
       0.0049668923 0.17275488 6.121688 0.5274126

l4.weight f4 [256, 6]
000000 a6 68 ec be 7c 16 75 3e 53 de 7f 3d 49 e5 33 3f
       -0.4617359 0.23934358 0.062467884 0.70271736
000010 6e 90 06 bf a3 2f 0c 3e 92 d2 83 3d ec 6b 55 be
       -0.5256413 0.13690047 0.064366475 -0.2084195
000020 6f e2 84 bc eb 77 63 bf 07 53 c8 3e e2 41 01 be
       -0.016221253 -0.88854855 0.39125845 -0.12622789
000030 17 b5 0d 3e b4 29 62 3e bf 6e fa 3d ba 69 63 3f
       0.13838612 0.22086221 0.122281544 0.888332
000040 82 0b 83 3e dc 42 0f 3e 1d 44 b0 3c a2 b6 a4 bc
       0.25594717 0.13990349 0.021516854 -0.020106617
000050 77 c1 11 bc d0 7b b3 3f b6 f6 f0 3d f6 e0 10 bd
       -0.008896223 1.402216 0.117658064 -0.03537079
000060 9a e4 7b be b7 cf 9e bd be 74 d7 3d 56 cc 28 bf
       -0.24598923 -0.07754462 0.10520314 -0.6593679
000070 da ab 6e be 74 a1 7b 3d eb c3 91 3e 5c 7d 0e 3f
       -0.23307744 0.06143327 0.28469786 0.55660033
000080 26 ca a0 3d 31 e5 a9 3f 6e f3 aa 3e db 6b 84 bc
       0.07851057 1.3273069 0.33388847 -0.01616471
000090 7d 52 d8 3e 92 3c 57 be 3e 05 ad bc 9b b7 55 be
       0.42250434 -0.210192 -0.021120664 -0.20870821
0000a0 aa 3a d8 be 1d 79 54 3c fa 7d 49 3e 27 ce 8e bd
       -0.42232257 0.012968329 0.19676962 -0.06972914
0000b0 89 a3 6b 3e 08 3b 23 be ed d6 a3 be 8e 48 71 be
       0.23011602 -0.15940487 -0.31999913 -0.23562834
0000c0 d6 44 02 3f b1 de d4 3e af 14 b5 be a8 cf d0 3e
       0.50886285 0.4157615 -0.35367343 0.4078343
0000d0 c7 69 a0 bc 17 a7 bf 3e 92 47 e4 3d df 39 90 be
       -0.019581689 0.37432167 0.111464635 -0.28169152
0000e0 23 33 ff bc e0 ae 79 3e 14 18 a1 be c5 de 7d bd
       -0.031152314 0.24383116 -0.31463683 -0.061980028
0000f0 71 89 df 3c 47 c7 e4 3b 5a 22 5d 3c 1a 11 54 bf
       0.027287217 0.0069817635 0.01349696 -0.82838595
000100 86 11 07 be 66 ac 57 bc d1 fc 37 3e 76 a8 06 3e
       -0.13190278 -0.013163662 0.17967536 0.131502
000110 eb 52 62 bd f6 0a a2 bf ce 72 6b 3e 2b ca 37 be
       -0.055254858 -1.2659595 0.22993013 -0.17948215
000120 57 a4 0c bf bf 99 4a 3e 16 74 dd be 64 0e 2a be
       -0.5493826 0.19785212 -0.4325263 -0.16607052
000130 64 46 21 bf ca c6 59 3e ef 2c 50 be b3 eb a0 3d
       -0.6299803 0.21267238 -0.20329641 0.07857456
000140 34 f8 69 be 0d 47 f0 3f 20 83 11 3e 2b 40 e3 bc
       -0.22848588 1.8771683 0.14210176 -0.027740559
000150 1a 78 70 be 3a 07 79 3e f8 cb 03 be aa 79 39 3f
       -0.23483315 0.24319163 -0.12870777 0.7245127
000160 0c 32 25 bf 07 76 c6 bc b0 bd ce 3e e0 c2 1b be
       -0.6452949 -0.024226202 0.40379095 -0.15211058
000170 5d 3e af be 13 de cf 3e f3 fc 3a bd fc 9c e9 bd
       -0.34227267 0.40599117 -0.045651387 -0.114068955
000180 8e c2 54 bd db 86 ca bd 09 25 a3 be 26 81 4e bf
       -0.051943354 -0.09889003 -0.31864193 -0.80665815
000190 3a f4 41 be c4 c3 6f 3d 24 58 9f 3c 9c 60 7b bd
       -0.18940821 0.058536306 0.019451208 -0.06137143
0001a0 3a a9 7c be 4f 16 0e c0 22 9e 9c be 1a 63 7b 3d
       -0.2467393 -2.2201116 -0.30589396 0.061373807
0001b0 ad 7f a1 3e 67 36 f4 be 15 94 7c be 27 e9 41 bf
       0.3154272 -0.47697756 -0.24665864 -0.7574639
0001c0 ec 8a 3d 3f 0f c8 91 be 88 ef be be 2f 66 ed be
       0.740401 -0.28472945 -0.37292123 -0.46367022
0001d0 54 0d 15 be 72 91 a8 bf 32 92 3a be 31 e1 6c be
       -0.14555866 -1.3169386 -0.18219832 -0.23132779
0001e0 09 d3 7e be 55 b4 1e be 25 7a 22 3e d1 7b 94 3f
       -0.24885191 -0.15498479 0.15866907 1.1600286
0001f0 da 43 24 be 52 ed 36 3e fc 9e 01 3e 2a 17 16 bf
       -0.16041508 0.17863968 0.12658304 -0.58629096
000200 66 ff 79 be 3a 45 a0 bf 42 2f 26 bd f0 4b 53 bd
       -0.24413833 -1.2521126 -0.040572412 -0.05158609
000210 b4 42 e2 3e 4d 8b f2 3e 10 d6 cf 3d b3 53 76 bf
       0.44191515 0.47371903 0.10148251 -0.96221465
000220 f1 b9 98 be 3a 7b 15 3d cf 73 dc 3e 0d c5 0e bf
       -0.29829362 0.03649447 0.43057105 -0.55769426
000230 2d ce b7 be ea bd 4e 3d 86 c1 13 bf 05 97 7a 3d
       -0.35899487 0.050474085 -0.5771717 0.06117918
000240 e6 21 bd 3d f4 b0 84 3e 39 7a e5 3b ab 47 68 3e
       0.09234981 0.25916255 0.0070030955 0.22683589
000250 c2 6f 4a bd e9 cf 08 3d 83 16 4b 3e 2a 65 e7 be
       -0.049422987 0.033401404 0.19832806 -0.4519437
000260 82 8b 71 3e e2 25 11 be 9b 87 91 be 8b 34 ef bc
       0.23588374 -0.14174607 -0.2842377 -0.02919986
000270 ab 7f e9 3e 1c 7d ed bc 40 33 0a 3d 81 91 13 3f
       0.45605215 -0.02899032 0.033740282 0.57643896
000280 fa b4 b1 3d 32 6e dc bc 27 28 14 3f af 01 25 be
       0.08677097 -0.026908014 0.5787377 -0.16113923
000290 09 9a 92 be 3d 6f e1 be 25 89 8d 3e bc 1a 63 be
       -0.28633144 -0.4403018 0.27643695 -0.22178167
0002a0 c3 39 c4 bd 96 59 49 be 6f b1 83 3b dd bd 72 bf
       -0.0958133 -0.1966308 0.0040189545 -0.9482096
0002b0 3a 4f e0 bd c1 51 bc 3c 03 a2 b6 be ac a3 c6 3e
       -0.10952611 0.022988202 -0.3567048 0.38796747
0002c0 d6 d2 b1 be 44 00 c3 be ec 25 2b bd 18 37 50 3d
       -0.34731168 -0.3808614 -0.041784212 0.05083379
0002d0 62 9c f9 bc 9f 33 69 3e 60 66 9f bd ee 06 26 3f
       -0.030470077 0.22773598 -0.07783198 0.64854324
0002e0 5d cd ba bd 3c 91 65 3d cb 3c 98 3e 63 1f 15 3f
       -0.09121201 0.05604671 0.2973388 0.5825102
0002f0 e6 f3 9d be a1 e6 a8 3e 2d db 8e be 4a 42 ac 3e
       -0.30850142 0.32988456 -0.27901593 0.33644325
000300 fb fc 50 bd 1e 45 18 3f 0e 34 93 bd ff 53 2c 3f
       -0.05102251 0.59480464 -0.07187663 0.6731567
000310 58 e5 a5 be 9c 51 6d 3e 74 ac 93 3c bf e8 4c be
       -0.32401538 0.23175663 0.018026568 -0.2001066
000320 4d ac 83 3e d5 eb 28 bf d8 43 b5 be 60 c3 3d 3e
       0.25717393 -0.6598485 -0.35403323 0.18531561
000330 a9 d4 85 3d 2f d2 18 bf 7e 15 95 3e 66 6f 10 be
       0.06534702 -0.59695715 0.2911796 -0.14104995
000340 ab a7 f8 be 0e 67 f7 3c f0 6a 6b 3f 1b fb 8f 3c
       -0.4856542 0.030200507 0.9196005 0.017575791
000350 85 51 be be 6b dc 35 bf cb c4 e2 bd cd aa 24 be
       -0.3717157 -0.71039456 -0.110726915 -0.1608078
000360 10 fc e7 3e ca d3 da bc d2 a4 d2 bc 2b d3 77 bf
       0.45309496 -0.026712317 -0.025713358 -0.9680659
000370 c8 e5 6f be 91 84 20 3e 1f 69 13 3f 3b 60 75 be
       -0.23427498 0.1567557 0.5758228 -0.2396249
000380 2a 93 ec 3c 4d 0c 80 bf 02 98 ab be 28 7e 8c 3e
       0.028878767 -1.0003754 -0.3351441 0.2744
000390 52 8d bd be 03 05 00 bf 61 28 23 3e 47 ed 6b 3f
       -0.3702188 -0.5000765 0.15933372 0.9215893
0003a0 5c c1 f9 3d de d5 2f 3d 99 04 2a be 87 4f ce be
       0.121950835 0.04292857 -0.16603316 -0.4029505
0003b0 48 f4 9a 3e 47 82 41 3f b6 86 00 3d 2f 11 04 3f
       0.30264497 0.7558941 0.03137847 0.5158872
0003c0 cb 4c e0 bd 6f 46 13 3f 02 08 77 3c 16 b8 07 3f
       -0.10952147 0.5752935 0.015077593 0.5301527
0003d0 7f b0 08 bf 79 23 98 3e a5 c1 0f 3f e2 cb 30 3d
       -0.5339431 0.29714563 0.56154853 0.043163188
0003e0 b8 7d e2 be 04 cb f4 be be ba f0 3c 12 70 c4 3d
       -0.4423654 -0.4781114 0.02938592 0.09591688
0003f0 f9 85 25 3e a3 af 0d be ce 4b e7 3e d3 b9 af bf
       0.16164388 -0.13836531 0.45175022 -1.3728584

l4.bias f4 [256]
000000 40 b8 a8 bc c7 c3 99 3d e1 fa 37 3e 63 30 92 be
       -0.02059567 0.07508045 0.17966796 -0.2855254
000010 8b f5 9b 3e c9 50 49 be ee 38 ad be 2a 77 03 3e
       0.30460772 -0.19659723 -0.33832496 0.12838426
000020 17 c7 22 3e 61 d6 8d 3e e5 64 76 3e 9d b3 95 3e
       0.15896259 0.2770262 0.24061926 0.29238597
000030 25 a5 4c be 42 8d 26 be 9b 7c 14 3e 8f bf 92 be
       -0.19984873 -0.16264823 0.14500658 -0.28661773
000040 87 32 cd 3c cc c3 b6 be ff a3 57 3e 84 7b a8 3d
       0.025048507 -0.35696256 0.21058653 0.08226684
000050 9a 48 e5 3d dd 50 93 3c 7b 82 9d be e1 39 e2 3c
       0.11195488 0.017982895 -0.3076361 0.02761549
000060 c4 19 69 3e f4 30 f6 3c a2 0e a1 3e 95 32 9a 3e
       0.22763735 0.03005264 0.31456476 0.30116716
000070 3d 49 99 3e 82 07 8b be 60 51 cd 3e d0 78 ff bd
       0.2993869 -0.27154166 0.40101147 -0.12474215
000080 17 cf 87 3e 68 3a cb 3e fc e3 7d 3d 2f 12 6e 3d
       0.26525185 0.39692998 0.061985 0.05812281
000090 2f 60 89 3e 58 67 95 be 8a 1e a2 be 33 e3 c2 be
       0.26831195 -0.29180408 -0.31663924 -0.38063964
0000a0 f3 49 f5 bd c8 eb bc 3d a7 21 aa 3b 00 e4 b1 3d
       -0.11976995 0.09224659 0.005192 0.08686066
0000b0 29 ae 06 3e 33 ef 1e be fc d2 b9 3d 08 29 af be
       0.13152374 -0.15520935 0.09073445 -0.34210992
0000c0 2a c9 04 3f 9f 92 85 bd d0 57 e2 3e a0 9d 38 3e
       0.5186945 -0.065221064 0.4420762 0.18028879
0000d0 a5 73 bc 3e 67 2b 83 3e 15 20 85 3c 2a ea 18 3e
       0.3680698 0.2561905 0.01625065 0.14933077
0000e0 5d 38 3f 3e 0f db e1 3d 53 37 97 3d 91 70 b3 3e
       0.18673845 0.1102811 0.07383599 0.3504682
0000f0 06 60 59 3e 0a 8a c8 3e a1 1a 98 3e 25 31 c7 3d
       0.21228036 0.39167815 0.29707816 0.097261705
000100 3c 48 c5 3e fd 02 bb 3e 94 6c b1 be fe d9 21 bd
       0.38531673 0.36525717 -0.3465315 -0.039514534
000110 73 7a dc be 19 fb e4 bd e1 d3 7b 3e b1 5a 3a 3e
       -0.4306217 -0.111807056 0.24592544 0.18198659
000120 c8 a5 47 bd 04 3d 43 3e c7 47 05 3e d4 bd 77 3e
       -0.048742086 0.19066244 0.13015662 0.24193507
000130 57 15 64 be 85 7b 7b be 70 1b 1a be 29 f9 61 3e
       -0.22273766 -0.24558838 -0.15049529 0.22067703
000140 4a 54 b1 bd 95 13 71 be c5 72 68 bd b4 29 0b 3f
       -0.08658655 -0.23542626 -0.056750078 0.5436051
000150 90 ca 2d 3e dd 3c e9 3d f1 2b f5 be 1b a1 30 3e
       0.16971803 0.11388562 -0.47885087 0.17248957
000160 ce 8c f2 3d 6f c5 bd be 51 89 ce 3e 66 76 84 3d
       0.118432626 -0.37064692 0.4033914 0.06467895
000170 e1 01 b5 3e 53 55 2d 3e 00 f4 35 bd 4c 20 d7 be
       0.35352996 0.1692708 -0.04442215 -0.42016828
000180 ed 59 89 3e f4 a7 a2 be e1 bf 6b 3e 25 44 6a ba
       0.2682642 -0.31768763 0.23022415 -0.0008936546
000190 1a 32 3d 3e 6d 62 aa be 11 5a 9b 3d 48 0e c5 3d
       0.18476143 -0.33278218 0.07585538 0.096218646
0001a0 fa 3f a6 3d f7 63 5c 3d 12 68 93 3d e8 d4 89 be
       0.08117671 0.05380627 0.07197584 -0.26920247
0001b0 1e df 7b be 43 ad 05 be d1 0a ef bd f8 cd 8d 3e
       -0.24596831 -0.13054375 -0.11671985 0.27696204
0001c0 14 6b 46 be 8f cf 71 bb b1 29 85 be ff 91 76 3e
       -0.19376785 -0.0036897396 -0.2600837 0.2407913
0001d0 a2 9a be 3e c4 bf 80 3e 08 91 a2 3e 95 9d b1 3e
       0.3722735 0.25146306 0.31751275 0.34690538
0001e0 5c cd 0a 3e 34 b5 68 3d 90 da 9c 3e 9f 3a 45 be
       0.13554901 0.056813434 0.306355 -0.19260643
0001f0 de 37 86 be d1 ad 4a 3e 9e c7 9c 3d e0 d8 d3 be
       -0.26214498 0.19792868 0.076552615 -0.413764
000200 d5 22 54 3d 05 2e 54 bd b7 40 30 3c 5c 0d 2a 3e
       0.05179103 -0.0518017 0.010757617 0.16606659
000210 70 6b fe be c7 2e aa 3e 33 4b d6 be 7b f0 c2 be
       -0.49691343 0.33238813 -0.41854247 -0.38074097
000220 dd da a0 3e eb 01 06 3e ac 02 7a 3e 4d 69 a0 be
       0.3141698 0.13086669 0.24415082 -0.31330338
000230 1d 34 3a be f3 c3 a3 3d 43 41 c3 3e e4 c1 89 3e
       -0.18183942 0.07996359 0.38135728 0.2690574
000240 b0 43 a1 3e 32 ed 1a be f0 a8 cf bd b9 19 ee be
       0.31496954 -0.15129545 -0.10139644 -0.46504
000250 a5 94 bc 3e 61 f2 e7 3c ac 84 3d 3e 14 84 4c bd
       0.36832157 0.028313817 0.18507642 -0.049930647
000260 79 a9 10 be 89 d2 b6 be c9 c6 73 be dc 84 56 3e
       -0.14127149 -0.357075 -0.238063 0.2094912
000270 89 75 39 be 34 5c ba bd 2a 17 37 3e 7f 33 37 be
       -0.18111242 -0.090996176 0.1787993 -0.17890738
000280 7d 91 06 be fd ea ed 3e 14 d9 a3 be 57 1f be 3e
       -0.13141437 0.46468344 -0.32001555 0.37133285
000290 10 b5 d4 be d9 ce 5f 3e 61 f1 00 bf ec 31 31 3e
       -0.4154439 0.2185625 -0.50368315 0.173042
0002a0 21 9b bd be 0f ae 8d bd f3 24 05 3e d2 32 a7 bd
       -0.37032416 -0.06917965 0.13002376 -0.0816399
0002b0 fe 3c 32 be 3f 71 06 be d2 79 e8 bd 76 b2 73 bd
       -0.17406079 -0.13129137 -0.113513604 -0.059496365
0002c0 ff 4a b2 3e ab ad 56 3e 72 58 0f 3e 4c 4a 00 be
       0.34822842 0.20964687 0.13998583 -0.12528342
0002d0 e6 49 49 be 4f 78 ae be ea 50 3a 3c 15 6c 82 3e
       -0.19657096 -0.34076163 0.0113718305 0.25473085
0002e0 f4 45 74 be bb aa 8b be c8 03 70 be d6 60 92 3e
       -0.2385481 -0.27278695 -0.23438942 0.28589505
0002f0 b4 49 12 3e db 06 d8 3e 3a af 9c 3e bf 31 d5 3d
       0.14285928 0.4219273 0.30602437 0.10409879
000300 8a be 73 3e 67 ed c1 be 40 a3 d9 be 14 aa 00 be
       0.23803154 -0.37876436 -0.42507362 -0.1256488
000310 d4 f7 77 be f0 90 66 bd 82 c5 d5 3e 07 7e 92 3e
       -0.24215633 -0.056290567 0.4175225 0.28611776
000320 5c ae 96 3e 32 84 79 be f8 c8 16 3d fb 9f 06 bd
       0.294299 -0.24366835 0.036812752 -0.032867413
000330 48 e5 2a 3e 85 71 43 3c 51 36 8b 3d 2d 69 b1 bc
       0.16689026 0.011928921 0.067974694 -0.021656597
000340 0f 21 a0 3e 68 2a 3a be 94 4e 94 3e 5f 11 67 be
       0.31275222 -0.18180239 0.289662 -0.2256522
000350 ec 5f e1 be 78 68 eb 3d 42 78 d1 be 49 5a 87 be
       -0.44018495 0.11494535 -0.40912062 -0.2643607
000360 47 16 26 be 01 c2 a0 3e 0a 62 c5 bd c6 33 b0 3e
       -0.16219436 0.31398013 -0.0963784 0.344145
000370 9e 54 88 be ce 52 e0 bd ec 84 90 be 44 ab 20 be
       -0.26627058 -0.10953294 -0.2822641 -0.15690333
000380 d1 97 63 3e 10 c0 0d 3d 60 c0 e9 3d f1 0a 97 3e
       0.22225882 0.034606993 0.11413646 0.29500535
000390 b4 cf 49 3e 36 7b 9e bd a1 5d aa be 14 1a 33 3b
       0.19708139 -0.07738344 -0.33274558 0.0027328776
0003a0 46 dd 4e 3e 29 7e b1 3d 52 43 53 3b 63 40 4a be
       0.20201597 0.08666641 0.003223617 -0.19751124
0003b0 20 dc c3 be 87 bf 9b 3e 5a b6 77 be a2 35 b4 3e
       -0.3825388 0.3041956 -0.24190655 0.3519717
0003c0 ce 10 b7 be 5a 63 4d bc 7d 02 17 3e 75 36 33 3e
       -0.35755008 -0.012535894 0.14747043 0.17501242
0003d0 5b e4 59 be 15 56 8f be 54 84 00 3d 2a 6a 38 3e
       -0.21278517 -0.27995363 0.031376198 0.18009248
0003e0 e5 e9 58 bd c1 31 47 3d 09 9d a8 3e a9 d2 3d 3e
       -0.052957434 0.048631433 0.32932308 0.18537392
0003f0 22 dc c9 be d1 d3 8b be 5b de 24 3e f1 26 7e 3d
       -0.3942576 -0.2731004 0.16100447 0.062048856
