part1/td3_q4/Inverted/InvertedPendulumBulletEnv-v0_TD3_1638193224_1638193224_td3.pth (torch, 818223 bytes, 15 tensors)

l1.weight f4 [256, 6]
000000 0c 89 a6 3f 8f 4c ea bc 39 da 49 3e 7f 03 a1 bf
       1.3010573 -0.02860096 0.19712152 -1.2579192
000010 10 ae 11 3f ab bb 55 bd e7 9c 5e bf 64 c0 33 be
       0.56906223 -0.052180927 -0.86958164 -0.1755386
000020 84 9b dc bd 61 14 9b 3f 2f d8 8e bd 09 59 a8 bb
       -0.1077185 1.2115594 -0.069748275 -0.005137567
000030 e1 89 23 3f 74 f1 ff 3e 9b 63 b4 be c4 53 73 3e
       0.6388226 0.49988902 -0.35232243 0.23762423
000040 4a dd c3 bd 6c b0 15 bc 3e 2c e6 be 00 78 a6 3e
       -0.09563692 -0.0091363005 -0.4495563 0.32513428
000050 07 1e 78 bb a3 4d f4 3e 19 fa 71 3e 93 8e cf be
       -0.0037859695 0.47715482 0.23630561 -0.40538463
000060 2c 39 3d bf f1 fe 20 bf 8d 12 8d 3e 2a 10 b1 bf
       -0.7391536 -0.6288901 0.27553216 -1.3833058
000070 8f 54 0d be d2 55 6b bd e2 5a 3f 3d d6 23 80 3e
       -0.13801788 -0.05745489 0.046717532 0.2502734
000080 73 34 d2 3e 5f 33 1c 3f a9 d5 8b be f8 8a 0a 3e
       0.4105564 0.61015886 -0.27311447 0.13529575
000090 f8 80 0e 3f 75 42 79 be 97 c4 4d be d3 36 4d 3f
       0.5566554 -0.24341758 -0.20094524 0.8016178
0000a0 90 1c c4 3d 13 8d 94 be f0 7d 1b be d3 9c 11 3e
       0.0957576 -0.2901388 -0.1518476 0.1421998
0000b0 14 38 d5 3d 46 10 85 3f 54 05 8d 3e 3b cc 15 3a
       0.10411087 1.0395591 0.27543128 0.00057143316
0000c0 0d f1 41 bf 3f b2 a5 3e 0a 09 b5 be d9 5c f9 3e
       -0.7575844 0.32362553 -0.3535846 0.4870365
0000d0 f8 d8 4a be 8e 76 ee be fa bc 11 bf 1a 8e b7 3e
       -0.1980933 -0.46574825 -0.5692898 0.35850602
0000e0 f5 f7 e4 3e be ec a7 3f 8e 98 ae 3e dc bc 50 bd
       0.44720426 1.3119123 0.34100765 -0.05096136
0000f0 ed c0 4a bd 7e c4 29 3d 9c 09 b6 3e c8 c3 a1 3f
       -0.049500395 0.041447155 0.35554206 1.2637873
000100 bc 6c 10 3e 6a 5f bc bc 1f 79 08 3f 05 db ea bc
       0.14103979 -0.022994716 0.53309816 -0.02866889
000110 04 5a 0c bf 73 b1 66 3f 26 00 19 3f d6 1c 8b be
       -0.5482485 0.90114516 0.5976585 -0.27170438
000120 50 65 3d bf f3 58 8d be 4c be 41 be f5 b6 49 3f
       -0.73982716 -0.27606925 -0.18920249 0.78794795
000130 6a 3a e2 3d 1f c7 0e bd 12 0c de be 47 dd 12 bc
       0.11046298 -0.034857865 -0.43368584 -0.008963889
000140 cc a2 d7 bd 2b 0b 8a 3f 7a 3d 01 bf 61 1b 41 3d
       -0.10529098 1.0784658 -0.5048443 0.04714525
000150 d6 bd ae be 07 33 26 bf 3b 73 2e be df 47 ac be
       -0.34129208 -0.6492161 -0.17036144 -0.33648583
000160 70 bc f1 be e3 78 07 3d 6e 37 26 3d f2 45 d6 3e
       -0.4721408 0.03307427 0.040580206 0.4185024
000170 6b 41 c3 be f5 f0 9a 3f 32 1a ff 3e d4 db b4 bd
       -0.38135847 1.2104784 0.49824673 -0.088309914
000180 6e 52 6f 3f 67 01 a7 3d 22 a4 a6 3d 06 50 90 bf
       0.9348515 0.08154564 0.081367746 -1.1274421
000190 8e 45 12 3e 7c e0 9f bb e6 51 10 3d 7f d5 d2 bc
       0.14284346 -0.0048790555 0.035234354 -0.025736568
0001a0 e9 a4 d0 3d 75 88 90 bf 5a 35 10 be 27 d6 b7 3c
       0.10187704 -1.1291643 -0.14082852 0.022440983
0001b0 e5 df db be 4b 43 e0 3d c8 8e 82 3e 45 26 3a 3f
       -0.42944255 0.10950335 0.25499558 0.72714645
0001c0 09 c0 7f 3e 96 55 b7 be 54 a2 80 bf 10 d2 06 bf
       0.249756 -0.35807484 -1.0049539 -0.5266428
0001d0 d0 26 a5 be 93 b8 04 3f ec 9f 86 3e 94 68 59 be
       -0.32256174 0.5184414 0.26293886 -0.212313
0001e0 46 5d 1b 3f b1 a8 96 be b7 b7 db 3c 5c 19 9f 3f
       0.606892 -0.29425576 0.026821 1.2429614
0001f0 de f7 83 3e f1 71 7a 3c e3 0e d5 be 6d 5e 47 3e
       0.25775045 0.015285955 -0.4161292 0.19469614
000200 86 c3 bb 3e c5 12 88 3f f8 f3 6e 3c 41 f8 0c 3d
       0.3667261 1.0630728 0.014584534 0.03441644
000210 71 e0 b9 be f1 3c f8 3e e1 c0 0c bf b8 74 aa 3f
       -0.36304048 0.48483995 -0.5498181 1.331687
000220 fc bf e8 3e 5c 45 ab bc bd 9f ce be 73 61 82 3e
       0.45458972 -0.020907097 -0.40356246 0.25464973
000230 89 93 be be 67 62 e6 3f 8c 90 d3 3e 15 c5 9c bd
       -0.37221935 1.799878 0.41321218 -0.07654778
000240 c4 3a 42 3f b9 d2 42 3e 6f b6 0b 3e 4b 18 a9 bf
       0.7587092 0.19025697 0.13643812 -1.3210539
000250 82 98 3a be bf db 13 3e 9c d6 e4 be 2f 5c d6 be
       -0.1822224 0.14439295 -0.44694984 -0.41867206
000260 a3 13 dd be a1 ad d3 3e 21 7f a5 3e d4 2d 22 be
       -0.43179044 0.41343406 0.32323554 -0.15837795
000270 fc 52 85 3d b1 27 12 3e 8b c8 dd 3e 32 55 65 3f
       0.06509969 0.14272954 0.43317065 0.8958312
000280 19 f2 96 3d 27 cf 04 be c2 dd 4a 3e 21 f9 1c 3d
       0.07370395 -0.12969647 0.19811156 0.038323525
000290 60 70 a0 be 4e bb 8d 3f 59 9d c8 be c0 3c 96 3e
       -0.31335735 1.1072786 -0.39182547 0.29343224
0002a0 5a 24 1a 3d 8c 25 e2 3e 69 31 ce 3e 5f e9 19 3f
       0.037632324 0.4416927 0.40272072 0.6012172
0002b0 ed 0d cd 3e d5 b0 b3 bd a3 1c f5 3d b9 49 7d bd
       0.40049687 -0.087739624 0.11968353 -0.061837886
0002c0 de a8 0e 3e 0b ce ca 3e db 35 83 be d4 ef 15 3e
       0.13931605 0.39610323 -0.25627026 0.14642268
0002d0 91 3b 69 bd ab 22 6d bd 61 1a 87 be 09 e8 21 bc
       -0.056941573 -0.05789439 -0.26387313 -0.009881982
0002e0 35 8a a9 3d 20 3f 22 be c4 0e 04 bf e8 de 52 3e
       0.08278314 -0.15844393 -0.5158503 0.20592844
0002f0 79 bc e7 bd 22 5e 75 3f a8 1f 93 be d2 ae 70 3e
       -0.11315245 0.9584676 -0.2873509 0.23504189
000300 73 a4 db 3e 4b f3 44 be 22 66 04 be a9 7e 83 bf
       0.42898902 -0.19233434 -0.12929586 -1.0273029
000310 ce 41 23 be 34 1f c7 3e f9 38 61 3f 70 80 88 3e
       -0.15943071 0.38890994 0.8797756 0.2666049
000320 5c 91 3c 3e f7 f1 77 bf 2d d0 c6 3e 5f 8e 8b bc
       0.18414825 -0.96853584 0.388307 -0.017035661
000330 68 96 08 bf c7 42 95 3e 8a db 06 3d cf 65 a7 3f
       -0.533545 0.2915251 0.032924213 1.3077945
000340 2d ca d8 be de 4c 45 3e 40 ec 61 be 54 e5 f2 bd
       -0.42341748 0.19267604 -0.22062778 -0.11860147
000350 e6 81 e3 3e b7 1b da be 36 d9 d1 be 73 9e 27 be
       0.44435042 -0.4259927 -0.4098603 -0.16369037
000360 d4 c5 a5 be 34 a7 5d 3e 3e c4 65 3e c2 49 ba be
       -0.32377493 0.21645814 0.22438142 -0.36384398
000370 95 ab f3 bd 72 44 ad 3c b0 d7 5c 3e d0 ed 5a 3e
       -0.11897961 0.021150801 0.21566653 0.21379781
000380 df eb c1 3c 05 80 87 bf 45 25 5d 3c 50 e8 19 bd
       0.023672042 -1.0585943 0.013497655 -0.037575066
000390 2b b9 16 3e 07 c7 28 be 03 67 9f 3e 35 f7 a3 bf
       0.14719073 -0.16482173 0.3113328 -1.2809817
0003a0 84 7e 65 be 7c 75 20 3d ae 6c 8d bf 57 d3 a5 be
       -0.22411543 0.03917454 -1.1048791 -0.32387802
0003b0 62 ae 08 3d b4 ea 8a 3f 62 1c a1 3e f4 cb 34 be
       0.03336943 1.0852876 0.31466967 -0.17655927
0003c0 58 7c 17 bd d9 c9 23 be c1 80 11 3d 14 ad 81 bf
       -0.036983818 -0.15994968 0.03552318 -1.0130944
0003d0 64 07 91 3e 05 09 80 3d 1f 84 a8 3d 2c 09 b8 be
       0.2832595 0.0625172 0.08228325 -0.35944498
0003e0 4f df 2c bd a1 67 ac bf 5c d6 ca be 81 fa 39 3d
       -0.04220515 -1.3469125 -0.39616668 0.045404915
0003f0 3f 56 ae 3e e0 fc 7c be 16 6d b3 3e 6b 3c 07 3f
       0.34050176 -0.24705839 0.35044163 0.52826566

l1.bias f4 [256]
000000 a0 8a fb bd 7e 72 b0 3c 3e ec 94 bd 3c 45 c9 bd
       -0.122823 0.02153897 -0.07271622 -0.098276585
000010 ec 69 22 3e 68 78 29 be 1d 62 8f 3e d2 59 c1 3e
       0.15860718 -0.16549838 0.28004542 0.3776384
000020 b6 3e 92 3e e1 33 4f 3d fb 31 cc bc 7b e6 df be
       0.2856347 0.050586585 -0.024926176 -0.4373053
000030 e7 96 04 3e f8 8a ab 3e 1a 51 60 be 52 5d 25 be
       0.1294819 0.33504462 -0.21905938 -0.1614888
000040 70 52 53 3e 0a 02 ae be 83 87 48 be 8d b5 00 3e
       0.20636916 -0.3398593 -0.19582944 0.12569256
000050 1b 6f 90 be 2f 89 fe 3d 26 00 63 3d aa 5f 76 be
       -0.28209767 0.124285094 0.055420063 -0.2405993
000060 21 e0 b5 be a8 40 44 bc cc 24 bb bd 21 38 b6 3e
       -0.3552256 -0.011978306 -0.09137878 0.35589698
000070 d7 ea bb 3c 85 2a 06 3e 22 43 80 be 7b 19 6c 3e
       0.022939129 0.13102157 -0.25051218 0.23056595
000080 b8 4a c9 bd 7d 4f d8 bd fe 25 70 bd 05 17 07 3d
       -0.098287046 -0.10562036 -0.058629982 0.032980938
000090 7c a3 bb 3e 21 21 8e 3e f0 69 a2 3d 70 c4 2b bc
       0.36648166 0.2775965 0.07930362 -0.010483846
0000a0 ee 5a 85 3e e8 71 ea be 65 11 46 3e 70 e4 ad bd
       0.26045936 -0.4579003 0.19342573 -0.084908366
0000b0 8d 06 c2 be b7 4a 05 3e e8 f6 33 be d7 6e 52 3e
       -0.37895623 0.13016783 -0.17574656 0.20550095
0000c0 1b aa 47 3e b6 af a1 bd d0 98 b2 be a8 0c 4a 3d
       0.19498484 -0.07894842 -0.34882212 0.049328476
0000d0 3f 23 7d be 89 aa 2e 3e c7 1d 96 be a6 02 88 3e
       -0.24720477 0.17057241 -0.29319593 0.2656452
0000e0 0f 79 43 3e 33 53 e3 bd c1 68 f4 be c6 1b c0 be
       0.19089149 -0.11099853 -0.4773617 -0.3752119
0000f0 88 69 68 be b1 14 b1 be 2b 85 8f 3c 93 66 2f be
       -0.22696507 -0.345861 0.017519554 -0.17128973
000100 08 e2 a8 be 43 0b 19 3e 81 3d 47 be a5 b8 3e 3e
       -0.32984948 0.14945702 -0.19457056 0.18625124
000110 f5 61 c2 bd 8a 18 c9 be 8e bf ad be 55 3e 82 3e
       -0.0949134 -0.39276534 -0.33935207 0.2543818
000120 9a 38 56 bf f5 d2 ee 3e 83 9f cb bb 72 4b 71 3e
       -0.8368012 0.46645322 -0.0062140836 0.23563936
000130 59 3d 91 bc 40 42 82 bc 5c 41 cd be 23 51 1b 3e
       -0.017729448 -0.015900731 -0.40088928 0.1516767
000140 10 bb 31 3e 75 68 2c 3e 0e 6b ca 3e cc 37 8b 3e
       0.17356515 0.16836722 0.395348 0.27191007
000150 83 b0 ba be 86 3d 4f 3d 65 5c 67 3e be 0f 81 3e
       -0.36462793 0.050595783 0.2259384 0.25207323
000160 7a 7f ba be ad 4e 61 be 99 86 ae be 2d 29 19 3e
       -0.36425382 -0.22002669 -0.34087065 0.14957114
000170 dc 23 e3 be 4e b1 af be 2a 92 5d be 06 c2 12 3d
       -0.44363296 -0.3431496 -0.21637788 0.035829566
000180 4b f6 4e bd e6 18 a1 3e 14 3a 23 bd 6f e3 b1 be
       -0.050527852 0.31464309 -0.03985031 -0.3474383
000190 ad ba 22 3e fb bb 57 bd 15 33 82 3c c8 5d 29 3d
       0.15891524 -0.052669507 0.015893498 0.041349202
0001a0 4b bb 95 bc 25 d3 f8 3d dc 47 87 be fd 88 86 3e
       -0.018277785 0.121496476 -0.26422012 0.2627639
0001b0 54 de 24 3e 39 af 7d be 42 e4 6f be 6d ac a6 3e
       0.16100436 -0.24773873 -0.23426917 0.32553425
0001c0 13 4a 80 3e 99 3f b6 bd 62 dc 95 3e b6 8c a0 3d
       0.25056514 -0.08898849 0.292697 0.078393385
0001d0 5c 71 b4 3e 92 a6 59 3e df f6 f0 be 01 0c 4d be
       0.35242736 0.21254948 -0.47063348 -0.2002411
0001e0 41 e5 a3 3e 1b c2 2c 3e b3 70 98 be 21 18 ec 3e
       0.32010844 0.1687092 -0.29773483 0.4611216
0001f0 7b 5f 88 3d 5d 55 89 3d 1a 57 a2 3e 7c cb a4 be
       0.066588365 0.06705735 0.31707078 -0.32186496
000200 66 5c 31 3d b5 a7 96 3e 73 3b bf bd ce ef 7c 3e
       0.04330101 0.29424825 -0.09337511 0.24700853
000210 b9 c0 a6 be d8 87 84 be 91 bc 94 be db d1 ac be
       -0.3256891 -0.2588489 -0.29050115 -0.33753857
000220 29 b4 0a be 57 9d 37 be b2 90 73 3d 78 b3 09 be
       -0.13545288 -0.17931114 0.059464164 -0.13447368
000230 46 c8 99 3e 08 3f c6 3e a0 a5 40 be 69 f5 9c be
       0.3003561 0.38719964 -0.18813181 -0.30655983
000240 90 bc 0b be 36 07 2c 3d ed 87 b6 be 19 d7 c2 3e
       -0.1364615 0.041999064 -0.35650578 0.3805473
000250 40 b9 55 be d2 b8 9a 3e 06 3b b0 3e 75 0b e9 be
       -0.20871449 0.30219132 0.3442003 -0.45516554
000260 e8 1c 12 3e 71 ca 59 be 3c 9a bb bd 01 3f 26 3e
       0.1426884 -0.21268632 -0.09160277 0.16234972
000270 39 34 39 be da 23 a7 3e f0 a6 ac 3e 94 fb 67 3e
       -0.18086328 0.3264454 0.33721113 0.22654563
000280 1a 11 07 bd 76 1b 5b 3d 26 ac c7 be 9d 06 ba 3e
       -0.032975294 0.053492986 -0.38998526 0.3633317
000290 4d 3b 8c 3e 1b 53 a8 3e 66 14 f3 bd 8f cb a4 3e
       0.27388993 0.32875904 -0.11869125 0.32186553
0002a0 e0 81 d8 3e cd 38 88 be cb 6e 8b 3d f4 48 ea 3d
       0.42286587 -0.26605836 0.068082415 0.11439696
0002b0 99 5d fa 3d ef 3f 82 bd 24 22 83 3e 70 29 00 be
       0.122248836 -0.063598506 0.25611985 -0.12515807
0002c0 04 5c c0 be 12 b2 fb 3d 60 69 a2 3d dc b8 30 be
       -0.37570202 0.122898236 0.07930255 -0.17258018
0002d0 89 2d cc 3e b6 7a 67 3e fc 40 9b bd e6 6d 0b be
       0.3987849 0.22605404 -0.07580754 -0.13616142
0002e0 c1 2d 10 be 0e cc d2 3d c0 94 c3 be b3 92 b1 bd
       -0.14079954 0.102928266 -0.38199425 -0.08670559
0002f0 1f 03 b2 be 3c ea 33 be 8f 74 87 be c7 ed 84 be
       -0.34768006 -0.17569822 -0.26456115 -0.2596266
000300 cf 7f 83 be 8d 53 7b be 9d 96 9a be 97 58 2e 3c
       -0.25683448 -0.24543591 -0.30193034 0.010641239
000310 3a 41 55 be 21 fd 69 3e 28 85 a0 bd ec 78 96 3e
       -0.20825663 0.22850467 -0.078378975 0.2938913
000320 40 82 a2 3e 38 28 d6 be 84 de bb be e7 e3 df bd
       0.31739998 -0.4182756 -0.36693203 -0.10932141
000330 62 d2 8f bc ae a8 6f 3d ff 10 94 3e 26 49 90 be
       -0.017556373 0.058510475 0.28919217 -0.28180808
000340 31 63 d1 be 4f 93 3c 3e 9c 95 c4 3e dd ce 08 3e
       -0.4089599 0.18415569 0.38395393 0.13360162
000350 63 3a 99 3e 6e 65 7c be 92 6a 18 3e b8 7d 80 be
       0.29927358 -0.24648067 0.14884403 -0.25095916
000360 24 7a 6e be 51 91 87 be fc 69 fc be 2f 11 c0 be
       -0.2328878 -0.26478055 -0.4929961 -0.3751311
000370 d2 2b 07 3e 0b b7 85 be 9a 8b 20 3e e5 b1 88 be
       0.1320031 -0.26116213 0.15678254 -0.26698223
000380 82 1a 02 bf e9 58 b9 be eb ac 10 3e e5 13 18 be
       -0.508217 -0.36200646 0.14128463 -0.14851339
000390 a6 9d 36 be 96 4a 7c 3e df a7 52 be 01 03 a3 bc
       -0.17833576 0.24637827 -0.2057185 -0.019898893
0003a0 d4 ca 1d 3b c6 3d b4 3d 1c ac a4 be ef 44 f0 bb
       0.0024077194 0.08800845 -0.3216256 -0.0073324363
0003b0 30 6c 85 3e d8 d7 09 3e ac cf 85 be c8 04 a2 3d
       0.26059103 0.13461244 -0.26135004 0.07911068
0003c0 e6 13 da 3c ce 8d 00 3e fb 30 c9 be 9f 13 d2 bd
       0.026620816 0.12554094 -0.39295182 -0.10257649
0003d0 61 d6 ef bb 0b d9 8b be 5a 43 b1 be ac 28 d7 3b
       -0.007319257 -0.27314028 -0.34621698 0.0065661278
0003e0 28 13 0b be 2a bc 83 be b1 78 de 3e f0 94 e1 3e
       -0.13581526 -0.25729495 0.43451455 0.44058943
0003f0 b9 af 37 be 1d 50 26 3d 8d 38 80 3e 76 d2 48 3d
       -0.17938127 0.040603746 0.25043145 0.049028836

l2.weight f4 [256, 256]
000000 fc 22 ee bd 10 86 03 3e 7a 8b 1a be ff b6 06 be
       -0.116277665 0.1284411 -0.15092269 -0.13155745
000010 98 6b 18 bc a8 74 d6 3d 4c 8b 2a 3d 76 73 c8 3d
       -0.009302996 0.10471469 0.04163675 0.097876474
000020 5d 1c 30 bd b8 5c 9c 3d 93 2f 0f 3d d1 c8 0d 3e
       -0.0429958 0.07634872 0.03495748 0.13846137
000030 35 d4 86 bd 25 3f 09 3e 5e df ba be 9c 95 16 bd
       -0.06583444 0.13402994 -0.3649854 -0.036763772
000040 53 ea 16 be 50 01 1e bf b6 b0 00 bc 56 0c 99 bc
       -0.14737825 -0.6172075 -0.007854631 -0.01868264
000050 67 58 c9 3d 4a 5b 03 3e 59 3a 0f 3e a9 e0 39 3e
       0.098313145 0.12827793 0.13987102 0.18152107
000060 64 62 92 be c0 d4 3e bd b9 e8 a1 3d 6d 5f 43 3d
       -0.2859069 -0.046589613 0.079057164 0.047698427
000070 a8 a3 1d 3c 0a 4a bf 3d 53 3b 01 3c 91 23 c6 3d
       0.009621538 0.09340294 0.007887679 0.096747525
000080 37 47 31 bd ca 6c 84 be 5a f8 95 3d fe 6e 1e 3e
       -0.043280806 -0.2586425 0.0732276 0.15472028
000090 70 d0 d3 3d 5b f5 04 bd 44 b4 34 3e 65 5c c5 3b
       0.10342491 -0.03246055 0.17646891 0.006022977
0000a0 0d 1c 3a 3d d9 7e d8 bd 19 5c a1 3d 6c 22 ed bc
       0.045436908 -0.10571069 0.07878894 -0.028947078
0000b0 bf 81 91 be 62 e7 ee 3c ba 5e b3 3d 44 42 a1 3d
       -0.284193 0.029163066 0.08758302 0.07873967
0000c0 3b c6 8a 3d 52 6e 21 3e 8d 5c 87 be 62 8b 73 be
       0.06776091 0.1576474 -0.26437798 -0.23783639
0000d0 83 58 8a 3c f3 1d d8 3d 94 a6 9e 3c a4 c4 04 3e
       0.016887909 0.10552587 0.01936654 0.12965637
0000e0 c3 b1 a2 bc 4b c3 99 3d ee 97 d2 bf 8d cf 21 3d
       -0.019860154 0.07507952 -1.6452615 0.039504576
0000f0 8c 2b 65 3c 89 c0 8f bd 2f 92 2a be 22 b4 96 be
       0.013987433 -0.07019145 -0.16657327 -0.29434305
000100 4e e0 70 bd c5 33 38 bd 20 f3 99 bb 54 6d af bd
       -0.058807664 -0.044971246 -0.004698172 -0.085657746
000110 7a 8c 63 be 59 18 c1 be b6 98 e1 ba 03 8c b7 3d
       -0.22221556 -0.37713888 -0.0017211649 0.08962252
000120 88 8d 3c bf 49 8d 98 be 48 aa 02 bd 3e 93 bc 3d
       -0.7365346 -0.29795292 -0.031900674 0.09207772
000130 18 56 0f be 37 76 87 c0 d5 f2 c6 be 1e 5d 32 3d
       -0.13997686 -4.2331805 -0.3885714 0.043545835
000140 39 a4 78 3d 38 cb 0b 3e e5 c6 ae bd 86 9b a9 bc
       0.06070349 0.1365174 -0.0853403 -0.020704042
000150 00 5e 6a bd 04 b1 80 c0 5b 6f 54 3d 51 13 95 3d
       -0.05721855 -4.0216084 0.05186401 0.07279075
000160 31 c5 77 3e aa ce 87 b9 0e a3 61 be 2b b1 8d 3d
       0.24196316 -0.00025903183 -0.22034857 0.06918558
000170 6e ad 1b 3e 49 78 73 bd 90 90 7a bd 75 a0 04 3e
       0.15202877 -0.059440885 -0.06117302 0.12951834
000180 0f e1 90 be 20 dd df 3d 3e ac 2c bf 48 88 8c ba
       -0.28296706 0.10930848 -0.6745032 -0.0010721767
000190 65 a4 d2 3c b0 37 3e bd 9b 04 23 3d e7 d1 90 be
       0.025713155 -0.046439826 0.039799314 -0.28285143
0001a0 8e 11 37 c0 6c 5f c8 3b 85 02 36 bf d2 da a5 3d
       -2.8604465 0.006114891 -0.71097594 0.08098377
0001b0 e1 57 12 3e 45 b4 dc 3c 64 05 90 bc 96 68 0d 3d
       0.14291336 0.026941428 -0.017580695 0.03452357
0001c0 67 a7 e2 3d 8c 95 fe bd 4c da 44 3d cc 79 94 3b
       0.11067086 -0.124308676 0.048059747 0.004531121
0001d0 c7 0f 39 3d 05 91 87 3c 35 d7 72 bc e1 7c 8d be
       0.045181062 0.016548643 -0.014821817 -0.27634338
0001e0 79 ef 36 3d 16 88 ab bc 0d de f2 bd d9 9d 94 3d
       0.044661973 -0.020938914 -0.11858759 0.072566696
0001f0 e8 08 63 3d e6 ba fe bd 1f 2b 16 3d df 96 89 bc
       0.055428416 -0.12437992 0.036662217 -0.016795574
000200 fc 10 04 3e 09 87 4f 3d cd b1 e2 bd 8b 98 80 3c
       0.12897104 0.05066589 -0.11069069 0.015697738
000210 86 42 45 3e c5 fd e8 be 36 ea ab bf ef 00 c5 bd
       0.19263658 -0.4550611 -1.343085 -0.09619319
000220 c4 a2 ab 3c 8c 76 3d be 70 3f 23 be 18 a2 23 be
       0.020951636 -0.18502253 -0.15942168 -0.15979803
000230 9c 0f 32 3d 92 00 d0 3d 03 53 55 bc 6d f4 10 c0
       0.043471918 0.10156359 -0.01302028 -2.2649186
000240 ae b7 12 3d 71 c1 d3 bf d2 85 13 3f ed 34 a0 3d
       0.0358197 -1.6543409 0.5762607 0.07822595
000250 f4 9c 42 bc 10 a0 4b 3d b9 4e 63 3d 4b 02 88 be
       -0.011878241 0.049713194 0.055494998 -0.2656425
000260 48 90 ab bd fb da ed be d0 e7 2f 3e a3 f7 cb 3c
       -0.08377129 -0.4645613 0.17178273 0.024898356
000270 ad 78 18 3d 23 44 a4 3d 04 8b 96 3d 5d d8 12 bd
       0.03722446 0.080208085 0.07350734 -0.03585087
000280 1e c5 32 3e 4d 69 5d be 8e 78 13 be 19 6f 5e 3d
       0.17458007 -0.216222 -0.14401457 0.05430517
000290 dd b2 38 3c a1 c1 b1 3d 47 94 e4 be d4 fe 72 3c
       0.011273113 0.0867951 -0.44644377 0.014831264
0002a0 13 ef 38 be f1 ba 89 3d 14 9e 97 3c e5 4b 7a c0
       -0.1805995 0.06725109 0.018507995 -3.9108822
0002b0 f8 85 d5 3d ce 70 24 3d 1e 98 b7 3d d7 4f f7 3d
       0.10425943 0.04014664 0.08964561 0.12075775
0002c0 c7 7c dc be ac 13 42 bc 48 95 8a bd df 3f 17 bf
       -0.43063948 -0.01184551 -0.067667544 -0.59081835
0002d0 b4 ef 2d 3d f3 81 2e 3e b5 dc 07 3b 6b e9 22 ba
       0.042464927 0.17041759 0.0020730917 -0.00062145916
0002e0 2e be a4 bd 8c cf d8 3d b4 cc 5d c0 be b2 43 bf
       -0.080440864 0.105864614 -3.465619 -0.76444614
0002f0 ae 3d 91 3e 55 d0 38 bc 66 71 0f be 16 8c f9 be
       0.2836737 -0.011280139 -0.14008102 -0.4873969
000300 99 45 c2 3e 9c 7a a4 3e 98 b3 06 3d b2 b2 01 be
       0.37943724 0.32124794 0.032886118 -0.12665823
000310 a7 61 09 be ff 0b e0 3d f2 0e f2 bc 5e 0d 16 3e
       -0.13416158 0.10939788 -0.029548142 0.14653537
000320 c1 57 94 3d fb 41 72 3f b5 4a 74 3c c5 1a 33 3d
       0.072433 0.9463193 0.01491039 0.0437267
000330 47 10 58 be a9 a8 4e 3d 25 16 f9 3d ae c2 a8 bd
       -0.2109996 0.050453816 0.12162427 -0.08240257
000340 2a 37 8f c0 32 4b 1c bd de ad 79 3b c4 79 be 3c
       -4.475484 -0.03815765 0.0038098018 0.023251422
000350 9c 6b 4a bc d9 47 ed bd bd 92 a9 bd 2d 38 36 3d
       -0.012354758 -0.115859695 -0.08279941 0.044487167
000360 64 e2 7d bd 33 0b 24 3d 31 08 ac 3d cb 12 bb 3d
       -0.06198348 0.040049743 0.084 0.09134444
000370 26 aa b6 bc 52 ea 02 c0 c8 9d 7b bd c8 35 4a 3e
       -0.02229793 -2.0455518 -0.06142977 0.19747078
000380 3b 62 0f bf 4d ed a4 3c a5 4a a8 3e 57 43 44 be
       -0.5600926 0.020132685 0.3286945 -0.19166313
000390 d8 5f 5b 3d 41 73 ba 3d a0 03 bc bb 91 d8 80 bd
       0.0535582 0.09104014 -0.005737737 -0.06291307
0003a0 ea 5b 5c 3e 63 2a 9c 3c 75 69 63 3d 5b 61 5b c0
       0.21519437 0.01906318 0.055520494 -3.427817
0003b0 8e 99 0d 3e 8a 08 4e 3d 47 55 29 c0 45 41 08 3e
       0.13828108 0.050301112 -2.64583 0.13306148
0003c0 11 f7 9c 3d c1 0c 14 bd d5 5b 6a be 51 15 28 3d
       0.07664312 -0.036144976 -0.22886594 0.041035954
0003d0 ab ab 41 3e 06 3a 8d bf 30 9d a9 bc 3c dd cd bc
       0.18913142 -1.1033332 -0.020704836 -0.025129907
0003e0 3d e0 03 3d 0a b7 06 be d7 a8 ff 3d 1a 9d e2 3c
       0.032196272 -0.13155761 0.124833755 0.027662802
0003f0 80 b8 61 3d 8b 06 03 3e 47 3d 3d 3c 05 e7 01 3d
       0.055107594 0.12795465 0.011550254 0.031714458

l2.bias f4 [256]
000000 66 ac 1f 3d 61 4a c7 bc c9 7f 62 bd 25 5a be bc
       0.03898277 -0.024327459 -0.055297647 -0.023236344
000010 88 91 95 3d fd 04 4b 3c a0 44 2b bc 74 46 4a 3d
       0.073031485 0.012391326 -0.010453373 0.049383596
000020 77 b0 46 bc 5a 85 c2 bc 67 31 2a bd 78 a2 5e 3d
       -0.012127033 -0.023745228 -0.04155102 0.05435416
000030 f8 5f 31 bd e9 11 db 3b 2f 4a 6a 3d 5d a7 31 bd
       -0.043304414 0.0066854847 0.057199653 -0.0433725
000040 f0 58 a2 bd 18 40 b3 bd e7 2e c3 bc f6 26 03 3e
       -0.0792712 -0.08752459 -0.023826076 0.12807831
000050 21 d5 b6 3d b6 e6 be 3d f4 f9 c9 3b ab 58 3b bd
       0.0892737 0.09321348 0.00616383 -0.045738857
000060 05 5f 30 bd 1a a2 bb 3d 87 5a 1c 3d df 32 05 3d
       -0.043059368 0.09161778 0.03817227 0.032519218
000070 6a 9b ec 3b 85 45 cf 3d 32 3a 5e 3d 5a 1d 92 3d
       0.0072206752 0.10120682 0.054254718 0.071345046
000080 2c d0 68 3d 6e fd 46 bd f4 aa 7f bc 9c d6 25 bd
       0.056839153 -0.048581533 -0.015604723 -0.04048787
000090 de 31 63 bd 91 1e 7a bd 0a 24 2c 3d 6b 71 10 bd
       -0.05546748 -0.061064307 0.042026557 -0.035264414
0000a0 b7 ff b3 bc 5a bf 66 bd 3f b3 52 bd ba 96 a3 3c
       -0.02197252 -0.05633483 -0.051440474 0.019969333
0000b0 72 3b df 3d 5b a6 66 3d 01 cb 0a 3e 36 69 3e bc
       0.1090001 0.056310993 0.13554002 -0.011621764
0000c0 1d 23 ef 3d 4d 86 f9 3c 12 1b bc 3c 52 95 f8 3b
       0.11676619 0.030459547 0.022962127 0.0075861597
0000d0 e9 1f e0 bc ad 8b dd 3d c3 0b 6e 3d 94 96 0b bd
       -0.027358966 0.10817657 0.058116686 -0.03407915
0000e0 15 4f b3 3d ae ed 2d 3d dc 62 c4 bc 34 80 a0 bc
       0.08755318 0.042462997 -0.023972921 -0.019592382
0000f0 2a b3 0e bd 16 21 b6 3c 97 9c 3e bd 7f 9f 33 3d
       -0.034838833 0.022232573 -0.046536054 0.04385328
000100 d9 28 11 3c b5 22 a2 3d 12 14 c7 bd e7 be 3a bc
       0.0088598365 0.07916776 -0.09720625 -0.011398054
000110 6b d6 0b be 56 58 1c 3e dc 4d f3 3d 18 b7 75 bd
       -0.13656013 0.15268072 0.11880085 -0.059989065
000120 c9 aa 68 3d bd 8d 54 bd 47 1d ef bc 5f ca 83 bd
       0.0568035 -0.051892985 -0.029188765 -0.064350836
000130 15 be 31 3d 82 1e 10 3b 9b 25 dd 3d 63 a8 49 3d
       0.043394167 0.002199084 0.10798188 0.04923285
000140 e5 2a a7 3d 06 d6 5b 3c 7f aa 29 bd ab d4 1b 3c
       0.08162478 0.013417726 -0.041422363 0.009511153
000150 ab 60 b7 3c ce 8c 84 bb e0 21 17 bc db 36 00 3e
       0.022384962 -0.0040451055 -0.009224385 0.12520926
000160 68 07 7f bd dc 90 3e 3c e8 d3 ba 3d ee bb 15 3e
       -0.062262923 0.011631217 0.09122449 0.1462247
000170 74 b3 92 bd 8c 7d a5 3c e6 9a a5 3d 9d b1 4d bd
       -0.07163134 0.020201467 0.08086185 -0.050218213
000180 12 c0 8d 3c dd df 3a bd 0c aa 98 3d 3d 58 de 3d
       0.0173035 -0.04562365 0.07454309 0.10856674
000190 40 14 99 bc 55 63 58 3b ee e3 87 bd f2 2e 58 3d
       -0.018686414 0.003301819 -0.06635271 0.052779146
0001a0 f7 b1 55 3d 8c 93 c1 bc 6b d3 15 3d fd c3 d8 3c
       0.052171674 -0.023629926 0.036578577 0.026460642
0001b0 b6 e9 17 3d 1b a9 c9 bc 4b 8a d0 bc 96 69 f1 3c
       0.03708812 -0.024616769 -0.025456568 0.029469293
0001c0 03 48 98 bc 85 56 01 bd ea ff 1c be 99 e8 f7 3c
       -0.018589025 -0.031576652 -0.15331998 0.030262278
0001d0 fa 6a 4e bd fa ab 98 3d af 4d 12 3d 29 46 53 bd
       -0.05039499 0.07454677 0.035718616 -0.05158058
0001e0 51 6c 39 bc dd 27 bb 3d c4 7c 9d bc e3 46 c1 3c
       -0.011317329 0.09138463 -0.019224532 0.023593372
0001f0 70 bd 61 bd 55 51 9b 3d 77 65 aa bc ec 1f aa 3d
       -0.055112302 0.07583872 -0.020800335 0.0830687
000200 66 b7 44 3d 1f 75 bf 3d 91 cd 43 bd a7 94 74 bd
       0.048026465 0.09348511 -0.047803465 -0.05971208
000210 0b 0b 0a bd 8e d9 10 bd 14 c6 8a 3c 61 8e 0d 3e
       -0.033701938 -0.035363726 0.016940154 0.13823844
000220 71 97 44 bd 15 eb 46 3d af 4d b0 3d 72 81 66 bd
       -0.04799599 0.048564035 0.08608567 -0.056275792
000230 3e 18 88 3b e6 8c 84 3c 67 0c cc bc d6 23 4c 3d
       0.0041532805 0.016180467 -0.024908258 0.049838863
000240 cd 2c 4e 3b 3c 84 89 bd 85 53 9c 3d 33 ba c3 3d
       0.0031459809 -0.06714675 0.076331176 0.09556999
000250 ef 35 02 3d 93 d7 e4 3c 5c d9 8e bd 15 87 04 bd
       0.031789716 0.027934825 -0.06975052 -0.032355387
000260 90 d1 8d bd 18 08 5f bc 36 20 f2 3c cf 77 04 3d
       -0.069247365 -0.01361277 0.029556375 0.03234082
000270 3e 67 92 bd 96 11 29 3d 92 3a c5 3c c8 fc 51 3d
       -0.07148598 0.041276537 0.02407578 0.05126646
000280 40 00 92 3d 65 ec 85 3c 7b 96 32 3d 57 8d d0 bd
       0.07128954 0.016348073 0.04360054 -0.101832084
000290 fa 5a c8 3c 2e a5 1e bd 2b 90 01 3e cf b0 31 bd
       0.024457444 -0.038731746 0.12652652 -0.04338151
0002a0 1f 10 ac 3b a1 d4 d5 3d 11 88 6d 3d a9 3a b1 3d
       0.005250945 0.10440946 0.05799109 0.08653767
0002b0 4d d7 ff bb 94 76 f3 ba eb fd 23 3c c1 bd ac 3c
       -0.0078076483 -0.0018574768 0.010009269 0.021086575
0002c0 77 c4 68 bd b4 f3 6d bd 95 75 57 bc 8f b3 bb 3c
       -0.05682799 -0.05809374 -0.013150592 0.022912769
0002d0 fb 3d b6 3c 43 18 e4 bc ab 9f 87 3d be db 63 bd
       0.022246351 -0.0278436 0.06622251 -0.055629484
0002e0 d8 a1 05 3c 9a 3f 80 3d 04 2a dc 3d 1f 2f dc bb
       0.008156262 0.06262131 0.10750201 -0.0067194845
0002f0 a3 7b 73 3c 60 08 92 bd 4a 7d 75 bd b3 d1 92 3d
       0.01486102 -0.07130504 -0.059933938 0.07168903
000300 4b 3e 1b 3e ff ee b1 3d a1 15 55 3c 52 b5 9b bd
       0.15160482 0.08688163 0.013005645 -0.076029435
000310 65 5f 86 bd c1 c5 24 3d 97 48 50 bd 97 73 de 3c
       -0.06561164 0.040227655 -0.050850477 0.027154727
000320 d5 b6 51 bd 4a 54 e6 3d 57 d2 6a bc d4 f9 a2 3d
       -0.051199753 0.112465456 -0.0143323755 0.07957807
000330 96 16 f5 3d 19 00 51 3d 59 14 67 3d ed 8c 7b 3d
       0.119671986 0.051025484 0.05641589 0.061413694
000340 b4 91 9a 3d d4 22 b7 bc 36 39 77 3c dd 7c 58 3d
       0.07547322 -0.022355475 0.015089324 0.052853454
000350 8e b9 84 bd e7 68 c7 3c c5 bd 45 bd 29 9f 5a bb
       -0.06480704 0.024342014 -0.04827668 -0.0033359027
000360 dc 33 b9 3c 34 69 8f 3c 42 21 86 bd 1c 8f dd bc
       0.022607736 0.01750622 -0.06549312 -0.027045779
000370 e9 b8 25 bd 84 92 83 bc 47 32 c6 3c 03 bf be 3b
       -0.040459547 -0.016061075 0.024193896 0.00582111
000380 ad 80 20 bd 71 4d b7 3d 5f b7 00 3e 61 a0 bc 3d
       -0.039185215 0.08950318 0.1256995 0.09210277
000390 60 e4 67 be 0e c5 27 bd eb b0 e1 bc dd 40 81 3c
       -0.22645712 -0.04095941 -0.027550181 0.015778
0003a0 91 c0 47 3d 47 07 8e bd fe ea 30 bd 5f 07 07 3e
       0.04876763 -0.06934982 -0.043192856 0.13186406
0003b0 03 58 0c 3e 00 76 55 3d 92 14 c0 3c 63 fb 2e bd
       0.13705449 0.052114487 0.023447309 -0.04272021
0003c0 c2 81 e2 3c db c9 0e bc 10 3a 34 bb bd f2 47 3c
       0.027649764 -0.008715118 -0.0027500428 0.012203869
0003d0 7e c2 b9 3d d9 65 99 bb aa 68 99 3d e6 d2 96 3d
       0.090702996 -0.0046813306 0.07490666 0.073644444
0003e0 78 c7 22 3d c2 ce be 3d 9d d4 cd bb 08 f1 2e bd
       0.03974101 0.0931678 -0.006281449 -0.042710334
0003f0 cd f9 22 3c c3 d1 cc 3c 1b 48 a0 bc 1b 93 62 bd
       0.009947252 0.025002366 -0.019565633 -0.055316072

l3.weight f4 [1, 256]
000000 41 ba 1d 3f 08 3e 23 c0 5f ae c7 bb a5 2e 5f ba
       0.61612326 -2.550661 -0.0060937847 -0.00085137255
000010 2b 4d 00 3f a9 46 05 bc c4 25 53 3c 22 66 41 3f
       0.5011775 -0.0081345225 0.012887422 0.7554647
000020 97 4a 0f 3f 2c 1b 10 c0 bf 74 3d bf 96 82 e3 3e
       0.5597319 -2.2516584 -0.74006265 0.44435567
000030 e1 ef 0f c0 31 c1 3e 3f 35 df 37 3f 3f de 4e bc
       -2.249016 0.74513537 0.7182496 -0.01262623
000040 53 35 94 bf a3 9f b8 bf 88 2b 02 3f 70 69 06 3f
       -1.1578773 -1.4423717 0.50847673 0.52504635
000050 55 b2 03 3f c5 5d 96 3f 75 38 c8 3b ce 00 0d bc
       0.5144399 1.1747366 0.006110246 -0.008606149
000060 0f 6f 49 3c 43 2c 5b 3f cd 10 1c 3f 77 b4 37 3f
       0.012294545 0.85614413 0.60963136 0.7175974
000070 59 fe e8 3e 11 83 2b bf f4 01 26 3f 07 ab 04 3f
       0.45506552 -0.66996866 0.6484673 0.51823467
000080 53 3e 8d 3f 07 cf 00 c0 f9 8d ed bc 86 15 50 bd
       1.1034645 -2.012636 -0.028998362 -0.050801776
000090 48 51 89 bc 04 8a 98 bc c0 6f 45 bb 33 23 12 c0
       -0.01676239 -0.018620498 -0.0030126423 -2.2833984
0000a0 4d 26 df 3a ed b9 cb bc 41 b8 84 bc 8f 98 86 ba
       0.0017024964 -0.02486893 -0.01620114 -0.0010268855
0000b0 ea a2 14 3f 3d b7 f6 3e 9c a8 12 3f 15 c8 ce bf
       0.5806109 0.48186675 0.5728853 -1.615481
0000c0 b5 c5 3e 3f 7a 4b e4 bc 80 f2 29 3f 5b 44 de 3e
       0.74520427 -0.027868021 0.6638565 0.43411526
0000d0 01 a4 52 bd 94 b1 24 3f 59 23 4f 3f 0d ab 2b 3d
       -0.051425938 0.6433346 0.8091331 0.041911174
0000e0 3f 29 1c 3f 0b 60 ea 3e 6b e2 cc bc ac ca 18 c0
       0.61000437 0.457764 -0.025010308 -2.38737
0000f0 78 09 6d 3c 99 16 cb bc a7 10 07 bd ff ff 4a bd
       0.01446759 -0.024791049 -0.032974865 -0.049560543
000100 e9 53 62 c0 69 e9 87 bf 78 4e 45 bf d3 38 70 bd
       -3.5363715 -1.0618106 -0.7707286 -0.05864794
000110 12 8e ac 40 5e 0d 97 3f 0b ff 10 3f 35 61 74 3c
       5.3923426 1.1800954 0.56639165 0.014915754
000120 31 c3 0c bd d7 13 4b bd cf e0 05 3d f2 be 19 bd
       -0.034365837 -0.049579468 0.032685097 -0.037535615
000130 bc 4f 2b 3f f8 65 de bc 58 64 e7 3e d0 ce 37 c0
       0.6691854 -0.027148232 0.45193744 -2.8719978
000140 bb 64 48 3f 69 78 2d 3f 4b 5c 79 3e 45 76 1c bd
       0.782787 0.67761856 0.24351613 -0.038198728
000150 8c c9 87 bf 88 53 96 3e 1c 19 c1 bc cc 56 21 3f
       -1.0608382 0.29360604 -0.023571543 0.63023067
000160 ef a8 cf bc c9 2e 3e c0 63 bf 76 3e 82 a3 33 3f
       -0.025349109 -2.9716055 0.24096446 0.7017137
000170 3b 91 a7 bc cb 52 bb bc 9d 81 ea 3e 46 e8 fb bc
       -0.020454993 -0.022866627 0.45802012 -0.030750405
000180 5e c4 2b 3f 9e e4 e3 bb 25 05 b2 3e 9b 06 1d 3f
       0.6709651 -0.0069547435 0.3476955 0.61338204
000190 13 5e 1b bd c0 c8 ab bf da 00 a5 bf df f8 0e 3f
       -0.037931513 -1.3420639 -1.2890885 0.558485
0001a0 06 5a 08 3f f0 43 53 bc 45 fe 05 3f 65 c6 2a 3f
       0.53262365 -0.0128946155 0.5234111 0.66708976
0001b0 f5 a3 69 c0 cf 4b 0d bd bd a5 32 3b 10 42 5e 3e
       -3.6506321 -0.034496125 0.0027259432 0.21704888
0001c0 b6 46 43 c0 33 8e 18 c0 b8 4d 4a 40 c7 6d 1b bd
       -3.0511909 -2.3836792 3.1609936 -0.03794649
0001d0 e4 8b 21 3d 62 d2 e7 3e 7e 7a e4 3e 57 b1 47 bf
       0.03944005 0.45277697 0.44624704 -0.78004974
0001e0 f8 46 5c c0 bd b8 93 bf 34 8e 39 bd 5a 60 0a 3f
       -3.4418316 -1.1540753 -0.04530163 0.5405327
0001f0 f7 ea 0e bd b1 4d 01 3f e3 2d f6 bc 3a 46 3a 3f
       -0.03489205 0.5050917 -0.030051177 0.7276341
000200 ea 63 85 3f dd 70 09 3f 67 0f e1 3e 99 2a 2e bd
       1.0421116 0.5368784 0.43957064 -0.042521093
000210 d5 91 13 bd fd c3 32 bb 73 d0 df 3e 39 d5 0e 3f
       -0.03602775 -0.0027277463 0.43713722 0.557941
000220 76 62 5c bd 36 eb 05 3f 99 17 fa 3e 9f de 6a c0
       -0.053804837 0.5231203 0.4884613 -3.6698377
000230 8c bd 1a 3f ea a7 48 bd 93 36 da 38 4d 96 99 3f
       0.60445476 -0.04898826 0.00010405215 1.1998993
000240 06 3c 2d 3f 10 c4 77 bf ce e6 9c 3f 37 80 1e bf
       0.67669713 -0.9678354 1.2257936 -0.6191439
000250 de 55 4d bd 0f 3b 1f c0 8d 98 0b bd 7d 86 78 3b
       -0.050130717 -2.4879797 -0.03408103 0.0037921958
000260 33 ed 05 c0 a8 e3 5c bd 10 bc 13 3f b8 bf 80 c0
       -2.0926025 -0.053928047 0.57708836 -4.023403
000270 b4 7f 1e 3d 57 72 59 3e 88 0f d4 3e 58 ae fa 3e
       0.038696006 0.21235023 0.414181 0.4896114
000280 27 d7 3a c0 33 6e 2f 3f d6 02 04 3f 34 e8 75 40
       -2.9193819 0.68527526 0.5156683 3.8422976
000290 b7 12 62 c0 ba 4c 7f 40 c4 0b 33 3f 00 79 93 3f
       -3.5323923 3.989058 0.6993983 1.1521301
0002a0 3a b2 10 c0 5e c4 07 3f e3 56 12 c0 4c 92 0d 3f
       -2.260878 0.5303401 -2.2865531 0.55301356
0002b0 3a 49 35 bd 27 03 92 bf 3d 11 26 bd 3e ad 34 3f
       -0.044259287 -1.1407212 -0.040543783 0.70576847
0002c0 dc 0a c5 3f 38 90 1b bd 3b 36 42 c0 a0 69 07 3f
       1.5393939 -0.037979335 -3.03456 0.52895546
0002d0 c0 c1 61 bd 16 1b 8c c0 16 b2 f4 3e 25 b3 8f bc
       -0.055116415 -4.3783064 0.4779212 -0.017541477
0002e0 ae 32 e7 be 73 5b 05 3f 16 ed b1 3e b8 88 37 c0
       -0.45155853 0.52092665 0.34751195 -2.8677197
0002f0 ce c8 00 bf c1 f5 30 bd 57 b4 2a bd aa bf a9 bf
       -0.50306404 -0.04320312 -0.04167589 -1.3261616
000300 74 5b 1d 3f 58 db d6 3e 3a d1 1d 3f 32 3b a2 bf
       0.6146767 0.4196422 0.6164738 -1.2674315
000310 a4 00 86 bc 6c 36 16 3f 54 7f cf bc 76 49 40 c0
       -0.016357727 0.5867679 -0.02532927 -3.0044837
000320 2f ca a3 3b 7f c1 09 3f 3b 91 19 c0 17 13 00 3f
       0.0049984674 0.53810877 -2.3994892 0.5002913
000330 54 a8 0d 3f 26 25 cf bc 1b 11 45 bc 86 2d 12 3f
       0.55334973 -0.025286268 -0.012028004 0.57100713
000340 84 5c 34 3f 51 59 9e bf 11 10 05 3f 05 48 27 3f
       0.7045367 -1.2371007 0.5197764 0.6534427
000350 b3 9b aa bc 9e c3 02 3f 72 75 5c c0 d9 61 ec 3c
       -0.020826196 0.5107974 -3.4446683 0.028855251
000360 dc 16 00 bd 79 ca e0 bc cc 44 5d bd e0 15 37 bc
       -0.0312718 -0.027440296 -0.054020688 -0.011174649
000370 5f 84 5a bc 60 4b 45 bc 4b c6 48 3d 29 ec 1d 3f
       -0.013337224 -0.012041897 0.049017232 0.61688477
000380 b2 51 5a bc 20 54 d7 3e e5 20 1c 3f 2c 95 1b 3f
       -0.013325142 0.4205637 0.60987693 0.60774493
000390 23 70 2b 40 12 28 68 c0 6e 23 a7 bf b5 e5 7e bc
       2.6787193 -3.6274457 -1.3057687 -0.015557696
0003a0 23 e6 ba 3e c7 c8 d1 bc 67 ae 9d bf 3d 01 da 3e
       0.36503705 -0.025608433 -1.2318848 0.4257907
0003b0 a9 ff 24 3f 54 77 0d 3f 7a 3c 04 3f 63 88 8f bc
       0.64452606 0.55260205 0.5165478 -0.017521089
0003c0 2e 7a 4c c0 9b ec 00 bb 91 f7 b0 3e 15 ab d8 bf
       -3.1949573 -0.0019672278 0.34563878 -1.692721
0003d0 a3 f3 00 3f 99 8a 46 bb 3b e8 25 3f 17 59 0f 3f
       0.5037176 -0.0030295013 0.6480748 0.55995315
0003e0 98 8b 40 bd 9f 78 58 bf 16 6f 5d bd 45 e7 2f bb
       -0.047008127 -0.84559053 -0.054061018 -0.0026840728
0003f0 27 53 16 3f 53 52 2f 3f 80 4b 0a 3f 50 bb 58 bd
       0.5872063 0.6848499 0.54021454 -0.05291301

l4.weight f4 [256, 6]
000000 83 8e 5d bf 1f 4f 15 3e 40 c7 20 bc 89 ad a3 3f
       -0.8654558 0.14580964 -0.00981313 1.2787334
000010 9c a2 41 3e e3 29 2e bd 5b f9 39 3e aa ad 16 3f
       0.18909687 -0.042520415 0.18161528 0.5885874
000020 34 f4 b3 be d0 2c 11 3f da c8 99 be d2 c8 68 be
       -0.3514725 0.56709003 -0.3003605 -0.22732857
000030 8d 1d a8 3e 96 bf 4b 3e 18 6f 22 be 0e 41 07 3f
       0.32835045 0.19897303 -0.15862691 0.5283364
000040 91 ad 36 be bd 84 16 bf 0b d0 ec 3e d2 4b 1f be
       -0.17839648 -0.5879629 0.46252474 -0.15556267
000050 77 d8 05 be 8f 36 02 3f 46 0b 55 be 9e 50 80 be
       -0.13070856 0.508645 -0.20805082 -0.25061506
000060 b4 7f 85 3e 8e 4f 08 be 24 b0 29 be 2d 14 8e 3f
       0.26073992 -0.13311598 -0.16571099 1.1099907
000070 68 15 c3 3e 66 c2 c7 3e 65 e8 b2 be 82 75 9d be
       0.3810227 0.39015502 -0.34942928 -0.30753714
000080 d3 ca b8 be 18 03 8f bf ed 3a 8f be db 94 fb 3c
       -0.36092243 -1.1172819 -0.27974644 0.030710628
000090 0f e3 20 bc f4 77 28 3e 5e 6a 9d 3e 70 7e 54 3f
       -0.00981976 0.16452008 0.30745214 0.8300543
0000a0 c0 1e 8d 3e 0b 6d db bc 81 ac e9 be a9 d0 80 bc
       0.27562523 -0.026785394 -0.45639423 -0.015724497
0000b0 96 a1 35 3d d5 49 59 bf 09 8d 3a 3d bc c3 10 be
       0.044343553 -0.84878284 0.045544658 -0.14137167
0000c0 41 75 cb be 9e 56 d6 be 31 ed 69 3d af 30 80 bf
       -0.39737895 -0.4186296 0.05711097 -1.0014857
0000d0 5d 25 03 be f1 3d 11 3c 21 3d 16 3d 4b 7a d8 be
       -0.12807222 0.008864866 0.03667939 -0.42280802
0000e0 4b 1a 9c 3e 0b 38 06 bf 16 1a eb be 02 88 5d 3e
       0.3048881 -0.52429265 -0.4591834 0.21633914
0000f0 f6 0a 41 bf 10 e4 69 3c cf f0 3d 3d 20 69 1d 3f
       -0.7540735 0.014275566 0.04637223 0.61488533
000100 66 08 31 be 00 00 ad 3e 08 42 65 3e 33 46 72 be
       -0.1728836 0.33789062 0.2238847 -0.23659591
000110 43 19 47 be c8 f3 cd bf 04 d5 8e be ff 9e 49 3d
       -0.1944323 -1.6090021 -0.27896893 0.049223896
000120 6b 61 99 3e 15 5e f9 3e b9 e5 1a be 05 58 39 3f
       0.29957137 0.4870459 -0.15126695 0.7239993
000130 5e 33 fd 3d 12 a8 c5 3e 5b 81 55 bd df 48 69 3e
       0.12363313 0.3860479 -0.052125316 0.22781704
000140 6a ca ab 3e 23 b0 ca be e2 72 98 3e 26 94 92 be
       0.33552867 -0.39587507 0.2977515 -0.28628653
000150 95 be 9e be 91 ce bc bd 4b b3 92 3d d8 45 6e bf
       -0.31004778 -0.09219087 0.07163104 -0.93075323
000160 89 fb aa 3e 2f 14 e3 bd 8f 6c 4d bd d1 0b d5 be
       0.3339503 -0.11087834 -0.050152358 -0.41610578
000170 52 e9 1d 3d 6c 81 54 3f b6 0b 8d be 88 47 2f bd
       0.03855259 0.8300998 -0.27547997 -0.042792827
000180 a8 a5 be bd f4 68 5a 3d 6b 8a 2e 3e 17 3d 9c 3f
       -0.0930894 0.053322747 0.1704499 1.2206143
000190 09 86 ca 3d ad d5 92 bc 50 29 82 be ed a5 f4 3d
       0.098888464 -0.017924154 -0.25422144 0.1194571
0001a0 26 95 93 be 66 c3 9c 3f 68 2d b5 3e 5e ca 1a 3d
       -0.2882473 1.2247131 0.35386205 0.03779065
0001b0 93 64 90 be 59 87 69 3e d1 db f3 bd c5 f5 2f bf
       -0.28201732 0.22805537 -0.11907161 -0.6873439
0001c0 81 a5 e5 3d 00 e4 b7 bd 06 fc c0 3c f3 63 20 3f
       0.11213208 -0.089790344 0.023557674 0.6265251
0001d0 9c 43 99 be 45 b0 0a 3f 54 9c 16 be 69 61 1c 3e
       -0.29934394 0.54175216 -0.14708072 0.15271534
0001e0 fd ca c1 bd 3a 74 3c be 94 0e 19 be 3a 98 9e 3d
       -0.09462545 -0.18403712 -0.14946967 0.07743879
0001f0 96 9a 1b bf 7b f7 b1 3d b7 0e bb bd 3d 07 95 be
       -0.60782754 0.08689781 -0.09133666 -0.29107085
000200 73 88 92 3e 65 c1 80 bd 11 f2 28 3e 9b ef d3 bc
       0.28619727 -0.06286887 0.16498591 -0.025871089
000210 01 95 18 3c 3e 03 21 bd 40 1c dc 3e 87 79 23 be
       0.009312869 -0.039309733 0.42990303 -0.15964328
000220 19 ef 71 be f4 6b 8f 3e 49 4a a5 3c ab c5 ae be
       -0.23626365 0.2801205 0.020177023 -0.34135184
000230 07 eb 41 3b 11 4a 01 3f 67 42 ab be 3c 5d 84 3e
       0.002958955 0.5050364 -0.33449098 0.25852382
000240 ab 6a b2 3c 90 30 30 bf 41 ce 77 bd 5d d9 62 bf
       0.021779379 -0.688241 -0.060499433 -0.8861292
000250 2a e6 f0 be 17 d8 95 3d 8e dc 1c 3f e3 a5 b9 3e
       -0.470506 0.073166065 0.6127404 0.36259374
000260 96 40 c0 3d 38 1f 0e 3f 04 69 32 3e 51 d7 2b bb
       0.09387319 0.55516386 0.17422873 -0.0026220868
000270 cb 7b 05 bf 8f dc 37 3e 59 6c ae be bb 85 70 bf
       -0.5214202 0.1795523 -0.34067038 -0.93954057
000280 57 d8 35 be 3b 81 73 3e e5 42 08 3e 24 4a a6 bc
       -0.17758308 0.23779766 0.13306768 -0.020299025
000290 2c 52 8d 3d 8e 7e 8a 3f 8d ba 28 3e 4b 3f 97 3d
       0.06900439 1.0819871 0.16477413 0.07385119
0002a0 83 fa 8c 3d 03 33 ed bd d4 1d 10 3d 0e 02 7a 3f
       0.06883719 -0.11581995 0.035184696 0.97659385
0002b0 33 34 e2 3e a4 45 03 bf 22 ef 7b 3e 0d 24 d8 bd
       0.4418045 -0.5127814 0.2460294 -0.10553751
0002c0 30 ba df 3e 17 bf be 3e 65 61 3e be 41 4d 69 3e
       0.43696737 0.37255165 -0.1859184 0.22783376
0002d0 e9 26 9e bd 1b 3f e7 bd 1f a3 5c 3e bc bd cb bc
       -0.07722265 -0.11291333 0.21546601 -0.024870746
0002e0 31 0c 7f be b0 a5 ee bd e0 06 27 bf d0 ae a6 3e
       -0.24906994 -0.11652696 -0.65244865 0.32555246
0002f0 03 58 23 bd ab 37 95 be 37 d8 be 3d 09 55 b3 3c
       -0.039878856 -0.29144034 0.093185835 0.021891134
000300 a6 04 0c 3e cb 61 ec bd 9e a8 96 be 79 21 cb bf
       0.13673648 -0.1154209 -0.2942552 -1.586959
000310 a1 f6 38 be 4b 4a cc 3c 61 cd 19 be 17 0f 43 be
       -0.18062831 0.02493777 -0.15019752 -0.19048725
000320 bb a7 2a be f2 ca 87 bd 78 3d 18 3e a1 65 0e bf
       -0.16665547 -0.066305056 0.14867198 -0.55623823
000330 31 a0 93 be ec cf bd 3e 7c 74 72 3e df 25 ad 3e
       -0.28833154 0.37072694 0.23677248 0.33817956
000340 e9 00 9f 3e ab 06 d3 be 98 1b b6 3e 34 0d f0 bc
       0.31055382 -0.41216025 0.35567927 -0.02930317
000350 6b d9 cc 3e cb f9 55 bf 7b bd 8d be c2 f1 e5 b9
       0.40009627 -0.8358428 -0.27683625 -0.00043858407
000360 8b bb a6 3e 33 40 af 3d 62 cc b1 3e 98 43 74 bf
       0.3256496 0.08557167 0.34726244 -0.9541564
000370 59 fb a5 be a8 d5 0e 3d 18 d3 d4 be ae 40 01 bf
       -0.32418326 0.034871727 -0.41567302 -0.5048932
000380 59 7f 64 be 30 08 16 bf 33 65 ac be c4 b4 07 3d
       -0.22314204 -0.58606243 -0.3367096 0.033131376
000390 38 00 12 bf b6 b3 8d 3e bf d7 9a be d9 74 e0 be
       -0.57031584 0.2767617 -0.30242726 -0.43839148
0003a0 4d bb d9 be fe 1b 2a 3e e7 d0 7c 3e ce de 0f be
       -0.42525712 0.1661224 0.24689065 -0.14049837
0003b0 1b 82 29 3e ab 11 42 bf 65 0c 97 3d cc ed e3 3d
       0.16553538 -0.7580821 0.07375411 0.111293405
0003c0 85 16 3a 3e 2f 60 a1 3e b3 df 1e bd 0a a0 0f 3f
       0.18172653 0.31518695 -0.038787555 0.56103575
0003d0 df bd 44 3e c4 3f 9d bc ed 7e a1 be e8 31 3c be
       0.19213055 -0.019195445 -0.3154215 -0.18378413
0003e0 af fc 44 3e 37 64 1e bf c4 38 a5 be 43 27 02 bc
       0.19237016 -0.61871666 -0.3226987 -0.007943931
0003f0 50 a7 28 3e 2b 81 99 3e 5a f4 53 3e 7f 74 90 bf
       0.16470075 0.2998136 0.20698681 -1.1285552

l4.bias f4 [256]
000000 a9 a9 a2 be 73 8b 67 be 20 8a 2d be 52 68 96 3e
       -0.31770065 -0.2261179 -0.16947222 0.29376465
000010 88 08 83 3e d0 dc 56 be 0a 7c d9 3d 0c bc a5 3e
       0.25592446 -0.20982671 0.10619362 0.3237003
000020 15 33 90 3e 17 1f c3 3e 3f 21 c3 be 45 a2 84 be
       0.28163972 0.38109657 -0.38111302 -0.25905052
000030 d5 75 2f be f2 75 93 3e d6 32 1b 3d da 67 3a 3e
       -0.17134793 0.28800923 0.037890278 0.18203679
000040 ef bf db be 57 c1 da bd 21 77 99 3e 24 e3 a6 be
       -0.4291987 -0.10681408 0.299737 -0.3259517
000050 2c 29 69 be 0c a2 31 bd 5f 02 c4 be 40 20 1b 3e
       -0.22769612 -0.04336743 -0.3828306 0.15149021
000060 24 7d ef 3e b5 c2 13 be af 6d db 3e de e9 be 3e
       0.46775162 -0.14429744 0.4285712 0.37287802
000070 e9 60 25 bd d8 3d 56 bd 5a c8 83 3e df 6f d8 3d
       -0.040375624 -0.052305073 0.25738794 0.10568213
000080 83 b9 8a bd 22 33 21 be f1 03 36 be 8b 08 fb 3d
       -0.06773665 -0.15742162 -0.17774941 0.12257489
000090 45 86 cc 3e 9d 36 40 be 3d 39 20 bd e8 6d 7d 3d
       0.3994619 -0.18770833 -0.039117087 0.061872393
0000a0 2a ec 4b 3c 3f 2c b8 3e 33 83 3f be e7 b9 9c be
       0.012446443 0.35971257 -0.18702392 -0.30610582
0000b0 65 e4 36 be ba d1 41 be e4 82 d7 bd 2e e5 d2 be
       -0.17860563 -0.1892766 -0.10523012 -0.41190475
0000c0 b1 be 57 be 70 c4 68 bd 3f 34 bc 3e fd b5 6b 3e
       -0.21068837 -0.056827962 0.3675861 0.23018642
0000d0 74 80 74 be 51 35 82 be c4 14 91 3e 1c fe 8c 3d
       -0.23877126 -0.25431302 0.28336155 0.06884405
0000e0 91 de 74 3e ef e6 8a 3b cc d3 a5 3e a7 ed 42 3e
       0.23913027 0.004238955 0.3238815 0.1903597
0000f0 34 fd 45 3e 77 98 ee 3d 14 54 b9 3e 92 c2 9f 3e
       0.1933487 0.11650174 0.3619696 0.31203133
000100 44 8f 01 be 86 02 5c bd 2e 13 5b bf b8 0b ec bd
       -0.12652308 -0.053713344 -0.8557614 -0.11525673
000110 9a 66 91 3e c1 29 78 3e be 0b 68 be ef 63 6c 3e
       0.2839859 0.24234678 -0.2266073 0.23084997
000120 a5 de 77 be 4d 5e 1b 3d e5 9a 8a be 81 9e 80 3d
       -0.24206026 0.03793173 -0.270713 0.06280232
000130 45 52 d8 3d 88 7a e8 3d 61 cc 56 3d 01 b3 ae be
       0.10562567 0.11351496 0.052441005 -0.34120944
000140 95 77 9a be 03 52 ad be a8 21 24 3e ea 20 a1 3d
       -0.3016936 -0.33851632 0.16028464 0.07867606
000150 b0 be 89 3e c0 38 ed 3c 32 2a b3 3e 63 d0 a5 3e
       0.26903296 0.028957725 0.3499313 0.3238555
000160 94 9a b4 3e 85 79 44 be 10 67 ae 3e 79 15 cf 3e
       0.35274184 -0.19186981 0.34063005 0.4044607
000170 2e b2 e9 3c 40 4f 88 3e 85 39 c9 3d 16 a8 7d 3e
       0.028527346 0.26622963 0.09825424 0.24771151
000180 57 c6 e5 be 80 7f 11 3e 54 1b 94 bd ab d2 8a 3e
       -0.44877884 0.14208794 -0.07231775 0.27113852
000190 41 c7 cc 3e 04 61 be be 10 af 8c 3e 3c 6d 1a be
       0.3999577 -0.37183392 0.27477312 -0.15080732
0001a0 9b de 92 3e 0b bc 75 3d 84 ce b5 3e 11 cb 3b bd
       0.2868546 0.059993785 0.3550912 -0.045847956
0001b0 8c 62 c6 bd 72 9b dc 3d ea 88 86 3d d2 25 05 3d
       -0.09686765 0.10771836 0.06569083 0.03250677
0001c0 30 47 96 3e a8 b9 3f 3c b3 fd 81 3c cc 77 1a bd
       0.29351187 0.011701979 0.015868044 -0.037711903
0001d0 1c 56 57 3e 35 7f 47 be 06 d1 ed be 64 cd 8e 3e
       0.21028942 -0.1948212 -0.46448535 0.27891076
0001e0 7c f0 41 3e 55 b3 83 3e 06 a8 74 be e4 16 29 3c
       0.18939394 0.25722757 -0.23892221 0.010320399
0001f0 bb a7 bc 3d fe 76 a1 3e 61 2a da 3d ad 75 49 3d
       0.092116795 0.31536096 0.106526144 0.04918449
000200 a3 6b 36 bd 2f 98 91 3e b8 50 93 3d a0 06 98 3e
       -0.044536244 0.2843642 0.0719313 0.29692554
000210 0f ed 82 be 0f a5 97 3e 22 37 1f 3e 17 af 98 bd
       -0.25571486 0.29618117 0.15548375 -0.07455271
000220 16 b3 f5 bd 00 6f ef 3e ac 04 61 bd 51 91 f3 3d
       -0.119970486 0.46764374 -0.054936096 0.11892951
000230 4c 39 0b 3d 4a 91 ac be 7c d1 b8 bb b7 0e 96 be
       0.03399019 -0.33704597 -0.005640207 -0.29308102
000240 4a 66 fa bc 63 af 03 be c8 f7 52 bd eb ff 42 3e
       -0.030566353 -0.12859873 -0.051505834 0.19042937
000250 40 9b 14 be b2 e4 38 3e 84 02 85 3d 8e 34 68 be
       -0.14512348 0.1805599 0.064946204 -0.22676298
000260 fd 60 d0 bb 30 a1 ba 3d 6e 8f 01 bd 5f 0c b5 3e
       -0.006359218 0.09112775 -0.031630926 0.35361
000270 bb fa 98 bc 58 e2 45 3d 4d 81 0d be df d9 25 bd
       -0.018674245 0.04831156 -0.13818856 -0.04049098
000280 4c cb bd 3e 31 0f 89 be b3 93 e7 bc 5d 5e 93 3c
       0.37069166 -0.26769403 -0.02826867 0.017989332
000290 cf 01 a6 3c bb 30 68 3e 39 0f d5 3d b5 8d 85 bc
       0.020264534 0.22674839 0.10403294 -0.016302923
0002a0 c9 1f 44 bd e3 d3 4f be 4f a3 9b bd d1 82 1c be
       -0.047881875 -0.20295672 -0.07599508 -0.15284277
0002b0 b4 af 4b 3e 26 b6 7a 3e 68 bb df be 7a 5f b1 bd
       0.19891244 0.24483547 -0.43697667 -0.08660789
0002c0 f9 e4 5f 3d 0e b6 b1 bd 7c a4 ec be d2 6a e9 bd
       0.054661725 -0.08677302 -0.46219242 -0.113973275
0002d0 c3 96 cd be 18 99 57 be a4 61 27 be dd 30 aa be
       -0.40154085 -0.21054494 -0.1634584 -0.33240405
0002e0 5d 82 97 be a4 25 90 3e 71 4f 50 be 73 8b b1 3d
       -0.29591647 0.28153718 -0.20342804 0.08669176
0002f0 ec f8 1e 3d 2f 84 8d be 5b 14 a0 bb ad 16 23 be
       0.03881161 -0.2763991 -0.004885239 -0.15926619
000300 21 cc 9b 3d 8f 7a f9 3d 46 1f 2e 3d b5 67 1c be
       0.07607294 0.12181579 0.042510293 -0.15273936
000310 f4 be 15 bb 1e 8b 8d bb 54 79 39 3e b5 f7 8e 3e
       -0.0022849413 -0.0043195626 0.1811269 0.2792336
000320 dd ab 67 3e a6 64 89 bd ab 36 1e 3e f3 b1 7b be
       0.22624154 -0.0670865 0.15450542 -0.24579601
000330 7a f4 92 3e 38 bc 0d bd 45 90 99 3e db f6 62 3e
       0.28702146 -0.034603328 0.2999288 0.2216448
000340 6f 3a ac be fe a4 c1 bd e2 de e6 bd 1f f0 a6 be
       -0.3363833 -0.09455298 -0.1127298 -0.32605073
000350 e5 8b df 3d c0 3e bd 3e 8a 71 09 3c a9 98 03 bd
       0.10915355 0.36961937 0.008388886 -0.03212801
000360 6c 83 a8 3e c9 96 3a be 41 68 0d bd b6 b0 18 3e
       0.32912767 -0.18221582 -0.034523252 0.1491116
000370 8d 2c b2 3e ad 5d 74 be 11 93 9e be 31 86 4d 3d
       0.34799615 -0.2386386 -0.30971578 0.050176803
000380 ee 04 d2 3e 3c 28 e2 3d 2f 45 37 3e 85 03 ac 3c
       0.41019386 0.1104283 0.17897485 0.020997772
000390 b3 73 b1 3e c1 70 8c bd b3 5a 68 be aa 10 92 3e
       0.34658584 -0.068574436 -0.22690849 0.2852834
0003a0 f8 2b d8 be 8e 84 92 be 38 7c de bd 8d 8c aa bb
       -0.42221045 -0.28616756 -0.108635366 -0.0052047432
0003b0 96 de 7a 3e 72 a5 bf be a3 23 b5 3e 6e f5 a1 3e
       0.24498972 -0.37430912 0.3537875 0.3163256
0003c0 ba b3 97 3e 39 de b2 be fb 6d bd bd 05 b6 0c be
       0.29629308 -0.34935167 -0.09249493 -0.1374131
0003d0 6d e2 26 bd 99 af fd be 19 7a 52 3e c4 69 af 3e
       -0.04074328 -0.49548033 0.20554389 0.3426038
0003e0 14 a6 09 3e ef d6 be 3e 8a c9 5b 3e 9a 14 dc be
       0.1344226 0.37273356 0.214636 -0.42984468
0003f0 17 d6 9b 3e ac e8 8b 3b c3 a8 07 3e e2 3f 6d 3e
       0.30436775 0.00426968 0.13247971 0.231689
